src/trained_models/2025-06-12/run_06-59-55/dnn_model_fold_5.pt (torch, 75713 bytes, 19 tensors)

classfier.fc1.weight f4 [100, 100]
000000 86 01 b8 bc 5b 2d 1b 3d 0d c2 99 bd 18 81 dc 3c
       -0.022461664 0.03788505 -0.075077154 0.026917025
000010 26 48 90 3d d5 1e d5 bd 26 f0 b5 bd 0e 0b 9c bd
       0.07045011 -0.10406271 -0.08883695 -0.07619296
000020 e6 90 9c 3d 09 ae c4 bd 6c 90 2a bd 50 89 8b 3d
       0.07644825 -0.09603507 -0.041641638 0.068133
000030 14 08 d1 3d 2d 94 6b bd bd d9 e5 bd 5b 36 d5 3c
       0.10206619 -0.05751436 -0.11223171 0.026026895
000040 eb 4b 5f bc 3f 6f 85 3d df 22 7f bd f9 4a ff bc
       -0.01362894 0.06515359 -0.062289115 -0.03116368
000050 be 42 93 3d 00 23 ac bd 2d 91 86 bc 85 2a a9 3c
       0.071904644 -0.08405113 -0.016426647 0.020650158
000060 21 68 a4 3d c7 1b ce bc 7f c7 a0 bb 50 f0 1b 3d
       0.080276735 -0.02515973 -0.0049065943 0.038070977
000070 74 5f b2 3d 53 c9 7e ba db e8 17 3e d8 14 b0 3d
       0.087096125 -0.00097193307 0.14834921 0.08597726
000080 b0 7c c2 3d b6 a9 df bb f8 09 95 3d 11 a3 9e 3d
       0.094964385 -0.006825651 0.07277292 0.07745946
000090 3a 68 7d 3d 9a ef 9f 3d 4b e7 e2 3c d1 66 a7 3d
       0.061866976 0.07809372 0.02769818 0.081739075
0000a0 cf d1 74 3c 96 f4 5d bd 30 d5 88 bd c3 33 c8 bd
       0.0149426 -0.054188333 -0.06681287 -0.09775498
0000b0 af 63 eb bb 77 a8 c3 3c d3 86 62 bc ce 68 8f bd
       -0.007183514 0.023884041 -0.01382609 -0.07002412
0000c0 20 20 32 3d 52 04 cb 3d 56 78 1a bd 82 c3 ff bc
       0.043487668 0.099129334 -0.037712418 -0.031221155
0000d0 b9 e5 27 bc f1 c5 9d bd 6f 57 1c bd ba d2 2d bd
       -0.010247641 -0.0770377 -0.03816932 -0.042437293
0000e0 12 cd 37 3b c6 92 51 3c 64 4e 48 ba d6 2a c4 bc
       0.0028045815 0.012791341 -0.00076410756 -0.023946207
0000f0 71 ac 80 3c 1b 16 91 3d 28 e0 54 bd a7 36 a8 3d
       0.015707226 0.070842944 -0.051971585 0.08213549
000100 7f 30 02 bc 87 99 8c bd dc bc dd 3d f9 59 fd bd
       -0.007946133 -0.068652205 0.10827038 -0.123706765
000110 d3 c7 42 bc 18 60 35 bc 1f ba 84 bd b0 47 88 bd
       -0.011888462 -0.011070274 -0.06480812 -0.06654298
000120 e3 a8 15 bd aa 7d e4 3c a1 51 48 3d 11 62 9e 3d
       -0.036538016 0.027891953 0.048905972 0.077335484
000130 99 ce 8b bc 88 aa 8c 3d ab 75 22 bd b1 f3 3e bc
       -0.017066287 0.06868464 -0.039663 -0.01165478
000140 3e 71 58 3c 89 0d 13 bd 40 9d 10 3c 30 b4 f6 3c
       0.013210593 -0.03590158 0.008826554 0.030115217
000150 e9 7e e1 bc 4b f7 8f bc 88 95 9d bd 90 60 09 3d
       -0.027526336 -0.017573973 -0.076945364 0.033539355
000160 9d 1c b4 3d f4 b4 a2 3d 1f 21 87 bc 6e dc 8a 3d
       0.0879452 0.0794467 -0.016495286 0.06780325
000170 b1 73 dd bd ec 4a 48 3d 9b c5 f3 3c 05 c3 a8 bc
       -0.10813082 0.048899576 0.029757312 -0.020600805
000180 6e 21 54 3d 98 b2 36 bd f2 3d b1 bb 18 74 86 3d
       0.051789694 -0.044603914 -0.005408996 0.06565112
000190 ae 56 0d bd f0 45 07 bd ff 85 7d bc 75 cb c2 3d
       -0.034506492 -0.033025682 -0.015473842 0.095114626
0001a0 ab e0 9f bd 54 5c fd bd 09 0b 31 3d 87 77 d0 bd
       -0.07806524 -0.12371126 0.043223415 -0.10179048
0001b0 9d cb 1e bc 0b fa 49 3d 69 22 19 bd 0b bc ca bc
       -0.0096921 0.049310725 -0.03738633 -0.024747869
0001c0 b4 3b 95 3d 34 8c 97 3d a7 26 ec bd 11 3c ae bd
       0.07286778 0.073997885 -0.1153081 -0.085075505
0001d0 a1 ee b8 bc dd 0f a2 bd 99 c7 b4 3d 73 d5 ee bd
       -0.022574725 -0.07913182 0.08827133 -0.11661806
0001e0 79 f5 ab 3d 30 eb 36 bd a9 77 82 bd 88 0a cc 3d
       0.083964296 -0.044657886 -0.063704796 0.09962946
0001f0 09 07 a8 3c 9b 14 02 3c df e1 ae 3d 05 aa b1 3d
       0.020511167 0.007939483 0.08539175 0.08675007
000200 03 59 3b bc 98 25 3f 3d 7b 83 8f 3d da 8e 97 bd
       -0.011434796 0.04666671 0.070075 -0.07400294
000210 13 37 65 bd 50 56 2b bc 69 36 ca 3d b8 16 b4 bd
       -0.055960726 -0.01045759 0.09873659 -0.08793396
000220 4b 13 93 3d b1 8f 33 bd 03 18 8e bd 5a 42 b1 3b
       0.07181414 -0.043838207 -0.069381736 0.005409521
000230 c6 3c 24 3d 80 07 4a 3d a5 23 95 3d c1 8b a7 3d
       0.04009702 0.04932356 0.07282189 0.08180953
000240 2a 78 25 3d 53 e2 64 bd 01 9f a1 bd 09 2f 53 3d
       0.0403978 -0.055879902 -0.07891656 0.051558528
000250 85 40 51 3d 9c 3b 8c 3d 22 f8 64 bc 5a 83 b8 bd
       0.05108692 0.06847307 -0.013975175 -0.09009428
000260 99 82 8f 3d 9a 3f 34 3b bc df 6b bd 88 b2 96 3d
       0.070073314 0.002750373 -0.057586417 0.07358271
000270 5e eb 8d 3d 40 3b d9 bc 64 6c 4b bd 75 cd c4 bd
       0.06929658 -0.02651751 -0.049663916 -0.096095
000280 60 f3 21 bd 8f 75 65 3d 8e ac 33 3d 04 47 54 3d
       -0.03953874 0.056020316 0.043865733 0.05182554
000290 fb 24 99 bc 7a 56 a8 3c 1f 22 3b bd 8a e4 d7 bd
       -0.018694391 0.020549048 -0.045686837 -0.10541637
0002a0 1e ce 83 3d fe 48 7b bd 19 cb 65 bd b1 76 c2 bc
       0.06435798 -0.061348908 -0.056101892 -0.023738237
0002b0 e2 f9 4a 3d 74 ac ac 3d 3c d6 2c bc fa 54 15 3c
       0.049554713 0.0843133 -0.010549124 0.009114498
0002c0 93 da 76 bd 9e 59 a5 3d 8f 80 89 3d 61 76 8e bd
       -0.060267042 0.08073734 0.06713974 -0.06956173
0002d0 34 32 d5 3c a8 15 86 bd 7f 12 5c bd 52 39 0a 3d
       0.026024915 -0.06547099 -0.053728577 0.03374607
0002e0 fc 3d 3c bd e5 3f b3 bd aa 98 45 3d d4 43 02 3d
       -0.04595755 -0.08752421 0.048241295 0.031802967
0002f0 52 19 63 3d e8 1d b5 3c bb 90 cd bd 74 f4 24 3d
       0.05544407 0.022108987 -0.10037371 0.04027219
000300 21 7d 0e 3d 80 44 c7 3d d1 8f b0 3d 5c 4b 54 3d
       0.0347873 0.09729862 0.08621181 0.05182968
000310 7d e6 cd bc e7 a3 5d bd b1 e6 0d 3e da 67 46 3d
       -0.02513432 -0.054111388 0.13857533 0.048438884
000320 55 52 a4 bc f7 9a f4 bc e0 d5 82 3d eb cd 66 3c
       -0.02005879 -0.02985905 0.0638845 0.014087181
000330 73 ca 49 bd 77 4b 96 3d 8d d3 bb 3d a9 fc 35 3d
       -0.049265336 0.073386125 0.091712095 0.04443041
000340 03 14 e1 3d da f7 3c bd 97 f8 a3 3d b7 a7 8d 3d
       0.10990145 -0.046134807 0.08006399 0.06916755
000350 a6 bf 94 3d b8 30 a0 bc d3 bb 3a bd 88 56 c2 3d
       0.072631165 -0.01955448 -0.04558928 0.09489161
000360 fa 64 a2 bc ce db c0 3d c2 bd 71 3d 79 86 7b bd
       -0.01982354 0.094169244 0.059018858 -0.06140754
000370 c6 ae 18 3d 03 83 91 3c 5b e9 88 3d cc 41 ba 3b
       0.037276052 0.017762667 0.06685134 0.005684113
000380 86 d0 b4 3d ed 5d a4 3d b1 30 de bc 94 bd 8a bd
       0.08828835 0.080257274 -0.027122827 -0.067744404
000390 77 94 c2 3b 23 aa bb bd 1b 6a b1 3d 2d c2 bb 3d
       0.0059381085 -0.091633104 0.08662816 0.091678955
0003a0 9c 1d 79 3d 76 4f 27 bc 6e 29 6e bb 00 ff 2e bd
       0.060819253 -0.010211816 -0.0036340612 -0.042723656
0003b0 75 15 8e 3d 9f 4e 16 3d d6 f8 89 3c 6b 4e 3e bd
       0.06937686 0.036696073 0.016842287 -0.046461504
0003c0 17 cc 90 bd 49 fd 0d bd 57 61 d2 bd e6 25 b4 bd
       -0.07070177 -0.03466538 -0.10272472 -0.08796291
0003d0 20 88 a1 bc 54 bd 28 3c 49 38 b6 3d 0c 86 99 3d
       -0.01971823 0.010299046 0.08897454 0.074962705
0003e0 2a 3d 98 bd 00 fd df bc 52 06 d1 3d 7a f0 23 bd
       -0.07433541 -0.02734232 0.10206284 -0.04002426
0003f0 fe 9f 1b bd 58 68 18 bd e4 dc 7b ba 81 29 87 3d
       -0.037994377 -0.037208885 -0.00096078054 0.06599713

classfier.fc1.bias f4 [100]
000000 94 ba 8c bd 1b b6 a9 bd c8 36 49 3d fb 7f 9b bd
       -0.068715245 -0.08286687 0.04912451 -0.0759277
000010 12 82 af bd 83 e2 9d 3c ed 54 48 3d 25 1e a3 bd
       -0.08569731 0.019273048 0.048909117 -0.07964734
000020 55 f9 00 bc 42 d1 72 3c 99 d5 1b bd 1f ae 90 bd
       -0.007871945 0.014820399 -0.0380455 -0.07064461
000030 bd 8b c1 bc f1 06 4d bd 23 2b 0c 3c 66 10 31 bd
       -0.023626203 -0.050055448 0.0085552065 -0.04322853
000040 e3 5f af 3d 7d d3 90 3d 59 eb ac 3c 3a ff 38 3d
       0.08563211 0.07071588 0.021108316 0.045165278
000050 54 e2 6d bd 50 0e 1f 3d 0d 7a 08 3d e9 20 49 3d
       -0.05807717 0.03883201 0.03331952 0.04910365
000060 82 29 2f bd a1 17 ac 3d 17 9d 69 3c df 07 4c 3c
       -0.042764194 0.08402944 0.014258645 0.0124530485
000070 cb cc 3e bd c5 34 1e bd 1d be b8 bd fb b6 0e bc
       -0.046582025 -0.038624544 -0.09020636 -0.008710618
000080 f1 b8 c1 bd 03 b0 99 3d 9f 80 8f bb 98 48 87 3d
       -0.09459103 0.07504275 -0.0043793465 0.06605643
000090 7c 9c 0b bd 84 4c c7 bd e4 f5 34 3d d4 cf 46 bd
       -0.034084782 -0.09731391 0.044179812 -0.048538044
0000a0 7f 61 93 bd b7 2b cd 3d a7 c6 20 bc 10 55 3a bd
       -0.0719633 0.100181036 -0.009812987 -0.04549128
0000b0 50 36 71 3c 0b 28 83 3c 29 46 16 bd 8e 4f a5 3c
       0.014722422 0.016010305 -0.036688004 0.020179536
0000c0 f3 f9 84 bd f7 00 03 bd f4 d9 9c bd d0 32 9e bd
       -0.064929865 -0.031983342 -0.07658759 -0.077245355
0000d0 49 73 88 bd 2e 65 aa 3b f9 06 af bd e5 b6 9e 3d
       -0.06662614 0.00520005 -0.08546252 0.07749728
0000e0 1f 18 b2 bd 67 08 c7 bc ec a6 1f 3d 73 97 7c 3d
       -0.08696007 -0.024295999 0.03897755 0.06166787
0000f0 60 4b 90 3d a1 3e b2 bd 87 9b bb 3d 16 c8 89 bd
       0.07045627 -0.08703352 0.09160524 -0.067276165
000100 22 b3 bc bd a4 f2 71 bd 51 42 2f 3b 59 69 5c bc
       -0.09213854 -0.05906929 0.0026742409 -0.013452851
000110 3e ee 02 3c 2f 02 b2 bd ae 6a 08 3d df 8b 21 bd
       0.007991372 -0.08691823 0.033304863 -0.039440032
000120 51 c9 6a bd ea 7e 95 bd 5b 03 9d 3d 04 70 54 3d
       -0.057320897 -0.072995976 0.07666656 0.05186464
000130 10 d7 92 bd 97 2b 8c bd 84 05 1c bc a3 8d 91 bd
       -0.07169926 -0.068442516 -0.009522799 -0.07107093
000140 ed eb b4 3d 78 d1 b1 bd 41 b7 17 bd b3 3d b7 bd
       0.08834062 -0.08682531 -0.03704 -0.08947315
000150 6f 42 84 3c c1 f2 a5 3d 1f 3c 78 bd ef 79 ce bb
       0.01614496 0.08102942 -0.06060421 -0.0063011567
000160 53 ae b7 3d 8b 69 67 3d b8 c5 93 bd 6b 85 39 bd
       0.089687966 0.056497138 -0.07215446 -0.045293253
000170 17 ef cb bd 1f b4 55 bd 64 84 ef 3c 6f 15 85 bd
       -0.09957712 -0.05217373 0.029237933 -0.06498229
000180 09 73 a0 3d 29 49 b7 3b 75 3a c9 bc ce c7 c9 bc
       0.07834441 0.005593438 -0.024564007 -0.024631407

classfier.bn1.weight f4 [100]
000000 6d 4d 86 3f 36 77 81 3f d0 90 86 3f 66 21 86 3f
       1.0492378 1.0114505 1.0512943 1.0478942
000010 6a 42 7b 3f e4 88 79 3f 76 ad 7a 3f f1 a6 7c 3f
       0.98148215 0.97474504 0.9792093 0.9869223
000020 db c3 83 3f 47 6a 7d 3f 9b b1 80 3f bb d4 81 3f
       1.0294145 0.9899029 1.0054201 1.0143045
000030 56 11 7b 3f 3b f7 80 3f 3a 2a 82 3f 85 61 79 3f
       0.9807333 1.0075449 1.0169137 0.9741443
000040 d0 4c 7d 3f 06 49 77 3f ec db 74 3f 31 36 82 3f
       0.9894533 0.965958 0.95648074 1.0172788
000050 58 47 7a 3f 07 70 82 3f 15 10 82 3f 6a 35 83 3f
       0.9776511 1.0190438 1.0161158 1.0250676
000060 ef ea 77 3f 82 27 80 3f 01 7c 83 3f 2f c7 79 3f
       0.96842855 1.0012057 1.0272218 0.97569555
000070 ff d6 79 3f b4 9c 86 3f 19 4b 86 3f 7e 82 7b 3f
       0.97593683 1.0516572 1.0491668 0.9824599
000080 e2 51 80 3f 72 b3 7f 3f ff d1 86 3f d9 4e 83 3f
       1.0024989 0.99883187 1.0532836 1.0258437
000090 6e 30 83 3f ad 5f 7d 3f 9f 8f 74 3f 49 a8 78 3f
       1.0249155 0.98974115 0.9553165 0.9713178
0000a0 47 24 82 3f 98 1c 7f 3f 52 5a 7d 3f c1 48 7b 3f
       1.0167321 0.99653006 0.9896594 0.9815789
0000b0 2d b2 81 3f 45 12 80 3f 3f 01 81 3f 52 2a 7b 3f
       1.01325 1.0005575 1.0078505 0.9811145
0000c0 d9 1e 7a 3f ff 7f 76 3f ed 7c 81 3f 44 0e 74 3f
       0.9770332 0.96289057 1.0116249 0.9533427
0000d0 65 16 78 3f 5f d6 7e 3f 59 6b 7f 3f 61 b2 79 3f
       0.9690917 0.99545854 0.99773175 0.9753781
0000e0 0f c8 7c 3f 2d a9 7d 3f e0 e6 83 3f 23 d0 83 3f
       0.98742765 0.99086267 1.0304832 1.0297893
0000f0 bd 1d 81 3f 09 fe 80 3f 31 e5 85 3f 7d 80 82 3f
       1.00872 1.0077525 1.0460569 1.0195462
000100 a6 07 73 3f 0d 59 7a 3f a1 5a 7a 3f ed 04 81 3f
       0.94933546 0.9779213 0.9779454 1.0079628
000110 fc 09 85 3f bd ca 7d 3f 40 83 84 3f 47 da 82 3f
       1.0393672 0.9913748 1.0352554 1.0222863
000120 5b b8 80 3f b3 3b 86 3f 81 84 81 3f b8 0b 7e 3f
       1.0056261 1.0486969 1.0118562 0.9923663
000130 74 f0 80 3f 8e a6 81 3f 34 a0 7b 3f dd 75 79 3f
       1.007338 1.0128953 0.98291326 0.9744547
000140 7e e4 7f 3f 4b 47 7e 3f 8c ff 75 3f 89 e5 7f 3f
       0.99958026 0.99327534 0.9609306 0.9995962
000150 88 3b 80 3f 55 26 83 3f c4 c6 7b 3f 20 7c 7b 3f
       1.0018167 1.0246073 0.9835017 0.98236275
000160 34 fb 80 3f 2b 66 77 3f bd af 80 3f e3 4f 86 3f
       1.0076661 0.9664027 1.0053631 1.049313
000170 b6 4c 7c 3f e2 a9 78 3f e2 5b 81 3f 8e f8 83 3f
       0.9855455 0.9713422 1.0106165 1.0310228
000180 a5 aa 82 3f c0 f0 86 3f 06 01 7f 3f 4e d6 7b 3f
       1.0208327 1.0542221 0.99610937 0.9837388

classfier.bn1.bias f4 [100]
000000 77 40 0a be 44 9f 4a bd 63 a4 b5 bb 84 0b a4 bd
       -0.13501154 -0.049468294 -0.005543278 -0.08010009
000010 79 b9 87 bd 4e 96 0c bd 7e e7 6c bd 70 d1 87 3b
       -0.06627173 -0.03432303 -0.057837956 0.00414484
000020 ed 03 da 3c f2 39 9e 3c ea 64 24 bd 8a f9 4d bc
       0.0266132 0.01931474 -0.0401353 -0.012571702
000030 05 d0 07 bd 8d db ea 3a 1e d3 86 bd 32 79 08 bd
       -0.033157367 0.0017918214 -0.06583236 -0.033318706
000040 5b 8e 89 bd 77 c1 14 bd b1 78 70 bd 1b db d7 bd
       -0.06716605 -0.036317315 -0.05870885 -0.10539838
000050 bc b2 ad 3a 63 b0 bf 3c 29 44 4f bc 7c 38 18 bd
       0.001325212 0.023399537 -0.012650528 -0.037163243
000060 4d 9e 81 bd 19 85 1f bd 98 8c a7 bd 2a a1 71 bc
       -0.063290216 -0.03894529 -0.08181113 -0.014747897
000070 12 27 a0 bd 04 50 6a bd 8f 45 f7 3c 49 88 e1 bc
       -0.07819952 -0.057205215 0.030184535 -0.027530806
000080 1c f9 25 bd c8 10 3f bd 11 ff d9 3c 84 7f 45 bc
       -0.040520772 -0.046646863 0.026610883 -0.012054328
000090 de 0d 28 bb cf e4 fe bb 0e c7 a0 bc 4b f7 b8 3b
       -0.002564303 -0.007778741 -0.019626167 0.005644714
0000a0 59 5a 5c 3b 6f 9b 85 bc 04 56 f8 bc 7a bc b1 bc
       0.0033623187 -0.016309468 -0.030314453 -0.021696318
0000b0 25 3b 2c 3a 06 c8 79 bd 90 95 ad bd 79 54 e1 bb
       0.00065700925 -0.060981773 -0.084757924 -0.006876525
0000c0 23 b8 dc bc ea 73 08 bd bb bb 0d 3c 84 ec 3a bd
       -0.026943272 -0.03331367 0.008650715 -0.045635715
0000d0 16 b9 0b bd fd a0 2f bd a2 68 b7 bc b9 b1 fe bc
       -0.03411206 -0.04287814 -0.02238876 -0.031090604
0000e0 d0 49 0c bd ab 4c 8b bc 3b 37 82 bd 7d 7e 25 bd
       -0.03425008 -0.017004332 -0.063581906 -0.04040383
0000f0 d7 e9 88 3c 41 59 96 3c f0 2e 3a 3d 74 d4 f1 bc
       0.016713066 0.018353106 0.04545492 -0.02952025
000100 e3 0b a0 bd f4 9a 83 3c 15 58 d5 bb 2e 1d 4a bc
       -0.07814767 0.016065098 -0.0065107443 -0.012336059
000110 7e e8 67 bd 46 46 73 bd 68 62 a4 bd 8d 91 83 bd
       -0.056618206 -0.05939319 -0.08026582 -0.06424246
000120 76 64 21 bd e5 e1 b4 bd 77 d6 a8 bc 17 4c 73 bc
       -0.039402448 -0.088321485 -0.020610077 -0.014849684
000130 d3 a6 e0 bc 06 1b e4 bd 0c 2e 56 bd 38 3e ef bc
       -0.027423298 -0.11137967 -0.052290007 -0.029204473
000140 0b 48 1f ba 45 d4 49 bd 15 0a 04 bd 21 0c 24 bd
       -0.0006076104 -0.0492747 -0.032236177 -0.04005063
000150 fd 01 8d 3c 66 de 7b bd 08 f8 94 bd a7 5d 65 bd
       0.017212862 -0.061491393 -0.07273871 -0.055997517
000160 5b c2 a0 bd ae bb 05 bd 11 13 89 bd ce a8 43 3b
       -0.0784957 -0.03264969 -0.0669309 0.0029855254
000170 4f d5 20 bd cd 3d 8e bd c2 70 cc bd 55 8a a1 bd
       -0.039265927 -0.06945381 -0.09982444 -0.07887713
000180 da c0 d8 bc 2c 4c 17 3d 82 6a 00 bd b4 b4 b6 bb
       -0.026459146 0.036937878 -0.031351574 -0.0055757407

classfier.bn1.running_mean f4 [100]
000000 60 46 03 bf 88 5a 42 bf 6d da f2 bf 06 7a 65 be
       -0.5127926 -0.7591939 -1.8972908 -0.2240983
000010 ef a3 0c bc e6 28 0e 3f 7d e9 29 bf 1b 44 69 3f
       -0.008584007 0.55531156 -0.663719 0.91119546
000020 94 60 f0 bd 5f 6e 70 be 66 ec 15 3e e1 27 20 3f
       -0.11737171 -0.23479603 0.1464096 0.6256085
000030 94 39 6e 3f 2c d7 ba be 82 24 54 3c 2a 26 5f 3f
       0.9305661 -0.36492288 0.012948157 0.8716761
000040 28 1f b1 be 89 eb ee 3d 1e 54 4d 3e a6 fd 9e 3d
       -0.34594083 0.116660185 0.2005162 0.07763223
000050 d0 19 03 c0 cb 34 94 bf f7 80 a8 be 88 ed 93 bc
       -2.0484505 -1.1578611 -0.32910892 -0.0180576
000060 0f 9b a4 3e 25 8f 7b bf 00 d5 ec bc 70 2d b3 3f
       0.3214955 -0.98265296 -0.02891016 1.3998241
000070 1d 22 9a be b2 44 e7 bd 11 75 e6 bf 07 03 f6 bd
       -0.3010415 -0.112923995 -1.8004476 -0.12012296
000080 8a b7 02 3e da dd 97 3e c0 4d 68 3f 68 13 e8 bf
       0.12765327 0.29661447 0.9074364 -1.8130922
000090 d0 0e d8 bf 5f b9 45 3f 02 48 51 3c 9e ea 14 40
       -1.687952 0.7723598 0.012773516 2.32682
0000a0 4a 3c 03 bf 21 05 66 bf ab c1 9d bf f4 42 33 bf
       -0.5126387 -0.89851576 -1.2324728 -0.7002404
0000b0 3a 2a bc bf 48 e0 1b be bb 7a ae 3e 95 50 ce 3e
       -1.4700387 -0.15222275 0.3407801 0.40295854
0000c0 28 5b e1 be be 95 9b bf b7 26 1b bf 14 ba 16 be
       -0.4401486 -1.2155073 -0.6060595 -0.1471942
0000d0 c9 c4 e1 bf 78 43 44 be a8 95 a8 bf 2d 60 4d 3f
       -1.7638179 -0.19166362 -1.3170671 0.8022488
0000e0 66 5a 76 bf b8 ab aa bf c6 e5 c2 be 52 89 06 be
       -0.9623169 -1.3333654 -0.38065928 -0.13138321
0000f0 57 0d 72 bf c9 b9 e8 3f 0e 6b b5 bf 30 1f 2c 3f
       -0.94551605 1.8181697 -1.4173295 0.6723509
000100 24 18 63 bd 33 7a 03 bf 76 c4 8a 3f f4 78 86 3f
       -0.055442944 -0.51358336 1.0841205 1.0505662
000110 4a 44 36 3c 21 7f d6 3e a0 66 cb 3e d4 44 c2 be
       0.01112468 0.41893867 0.39726734 -0.37943137
000120 3c d4 73 bf 54 bd e3 bb 12 4e 06 bf 96 bb ce be
       -0.9524572 -0.00695006 -0.52462876 -0.40377492
000130 c8 5a c2 bf f6 17 a0 be 78 c6 e6 be 89 15 ed 3e
       -1.5183954 -0.3126828 -0.45073295 0.46305493
000140 ce 41 22 40 e1 d7 b2 bd 00 2e 13 be 2e 23 39 bf
       2.5352664 -0.08732582 -0.14373016 -0.72319305
000150 df c6 e2 bf 84 62 81 bf f8 11 f0 3e 0a 89 54 be
       -1.7716941 -1.010819 0.4688871 -0.20755401
000160 44 4a 03 bf 30 f7 1d bf 08 0a ca 3d bf f1 c1 bd
       -0.51285195 -0.61705303 0.098651946 -0.094699375
000170 e1 c4 9a 3e 23 ac c9 be 31 63 d7 be 91 ec 21 3d
       0.30228332 -0.39389142 -0.42067865 0.039532248
000180 2a 0d 0a bf 98 c6 65 bf c1 67 40 be 89 28 14 3f
       -0.53926337 -0.89756155 -0.18789579 0.5787435

classfier.bn1.running_var f4 [100]
000000 94 c2 3e 3d e4 2a 86 3e 7b 79 ad 3e 41 56 84 3d
       0.046572283 0.26204598 0.33881745 0.06461764
000010 0a 9e 09 3e 62 b5 b2 3d 54 2f 97 3d 81 46 c8 3e
       0.13439193 0.08726002 0.07382074 0.3911629
000020 11 2c a8 3d 96 97 10 3e 74 4a 1a 3e 6f ae 8f 3d
       0.0821153 0.14120325 0.15067464 0.070156924
000030 27 c7 d7 3e 8c 5e c6 3d c9 68 07 3d 7d 28 c3 3f
       0.4214413 0.09686002 0.033058915 1.5246731
000040 1e a6 a2 3d 04 a0 0d 3e 66 5c ec 3e 70 2b ed 3d
       0.079418406 0.13830572 0.46164244 0.11580551
000050 99 85 af 3e 5d 95 b9 3e cc cd da 3d 1a 3d 1d 3e
       0.34281614 0.36246768 0.10683784 0.1535534
000060 b4 66 b2 3d 48 b3 b8 3e 57 b2 74 3d 13 8d 52 3e
       0.08710995 0.3607428 0.05974039 0.20561628
000070 74 67 9f 3d 8e 00 71 3d 60 4e 19 3f e2 f1 c5 3d
       0.07783404 0.05883842 0.59885216 0.09665276
000080 6e 70 da 3d f1 df 86 3d 36 ad af 3d d0 e5 30 3f
       0.106659755 0.06585682 0.08577959 0.69100666
000090 25 13 8c 3e df 61 c7 3e 0e 3e 9b 3d 29 2f d2 3f
       0.27358356 0.38941857 0.07580195 1.6420642
0000a0 63 df b2 3d e2 57 31 3f 27 61 85 3e 4c df 58 3e
       0.08734014 0.69274724 0.26050684 0.21178931
0000b0 91 c2 0b 3f 28 46 de 3d 6a bc 00 3e 57 77 5e 3d
       0.5459376 0.10853225 0.12571874 0.05431303
0000c0 c7 04 ff 3d e8 54 1c 3e b3 3c aa 3d ff 8b b4 3d
       0.12452083 0.15266764 0.08312359 0.08815765
0000d0 a5 84 ef 3e 93 5b a3 3d 1f c3 44 3e 68 02 b2 3d
       0.46780887 0.07976451 0.19215058 0.08691865
0000e0 7e 70 09 3e 54 7f 4a 3e 21 81 c1 3d 04 88 80 3d
       0.13421819 0.19775134 0.094484575 0.06275943
0000f0 6f 5c 61 3f a1 4e 30 3e 28 a1 6c 3e b2 5d a1 3d
       0.8803167 0.17217495 0.23108351 0.07879199
000100 7a dd 18 3e 0c 89 fd 3d 39 fc 35 3e 5a c7 aa 3d
       0.14928237 0.12379655 0.17771997 0.083388045
000110 be c0 87 3d 2e e7 05 3e a5 92 f0 3d 68 ea 5a 3d
       0.066285595 0.1307647 0.1174672 0.053446203
000120 64 6a c6 3e e7 2d f1 3c 50 c5 9e 3e 1b 86 6f 3e
       0.38753045 0.029440833 0.31009912 0.23391001
000130 cd b9 47 3e d3 eb 6b 3d 8d ed ca 3d 88 e5 9b 3d
       0.19504471 0.057597946 0.099085905 0.07612139
000140 68 d3 ba 3e 0c 7e 0c 3e 65 a1 91 3d 78 9c d3 3d
       0.36489415 0.13719958 0.07110862 0.103325784
000150 60 e1 e7 3e 9c 08 0a 3f 61 e4 bd 3d 83 8e c0 3d
       0.45289135 0.53919387 0.092720754 0.09402182
000160 ee ab 2f 3e 1c d1 28 3e a4 ea 8a 3e 48 08 8e 3d
       0.1715543 0.16486019 0.27132142 0.06935173
000170 d8 cc 68 3d 4c f7 0e 3e c8 ca a4 3d 90 22 3a 3d
       0.05683598 0.13961524 0.0804649 0.045443118
000180 85 da 94 3d fa 83 15 3e 3a 79 b0 3d 7a 84 8c 3e
       0.07268242 0.14601126 0.08616872 0.27444822

classfier.fc2.weight f4 [50, 100]
000000 f8 2c bc 3d c9 31 39 bb 5f ad 67 3d cb fe 7b bb
       0.091882646 -0.0028258434 0.056561824 -0.003845143
000010 9c 11 0c bd a5 68 78 3d 39 e1 b8 3d 18 9a 15 3d
       -0.03419648 0.06064667 0.09027333 0.03652391
000020 6e 64 c9 3d 8f bb de bb d2 9f d0 3d 29 34 a3 bc
       0.098336086 -0.006797261 0.10186733 -0.019922333
000030 4c 18 38 bc 5e 4c ce 3d e1 03 a5 3d 4c e8 f3 3c
       -0.011236262 0.1007316 0.080573805 0.029773854
000040 25 c2 0c bd f4 c2 a5 ba b8 57 78 bd 62 8f 3a bc
       -0.03436484 -0.0012646602 -0.06063053 -0.011386724
000050 ff cc 10 3d ec 05 03 3d ac a8 39 bd 6b 1e 08 3c
       0.03535175 0.03198807 -0.045326874 0.008308033
000060 8b ab ba 3d 83 0e 32 3d 3b 98 fe 3c bf 8a 7a bd
       0.091147505 0.04347087 0.031078449 -0.061167475
000070 4d 3b 87 bc 8c fa f8 3c 75 e7 74 3d c3 7e 80 3d
       -0.016507769 0.030392908 0.059791047 0.06274178
000080 73 af be 3d 4d 5f fb 3c ab c5 02 bd 29 3e d7 3d
       0.09310808 0.030685091 -0.031926792 0.10509903
000090 f3 9a 51 3d a0 66 5b bd e0 7e 8b 3d 01 c9 6f bd
       0.05117316 -0.053564668 0.06811309 -0.0585413
0000a0 b0 fa 22 bd 77 a3 f4 bb 10 c7 b3 bd da 26 96 3d
       -0.039789855 -0.0074657756 -0.087782025 0.07331629
0000b0 50 06 58 bd 7e 3e b7 3d 08 53 a4 3d 75 1e 1f bd
       -0.052740395 0.08947466 0.080236495 -0.038847405
0000c0 0f fc 2c 3a ba a5 16 bc 71 0b fc 3b 79 a1 52 bd
       0.0006598839 -0.009194786 0.0076917936 -0.051423524
0000d0 33 22 7f 3c f0 63 05 bd 3f 86 8e 3c 7f 2b a0 bc
       0.015572119 -0.03256601 0.017397998 -0.01955199
0000e0 3f 48 27 bd 41 f4 ac 3d 0c 7e 21 3d 65 40 89 3d
       -0.040840384 0.08445025 0.03942685 0.067017354
0000f0 cc c1 b4 3d 63 a6 71 bc 38 3e af 3d 78 7c 2a bd
       0.08826026 -0.014749142 0.08556789 -0.04162261
000100 44 5f 2c 3d a3 f3 87 bc 6e 2d 40 bd f6 7f 61 bd
       0.04208304 -0.016595667 -0.046918325 -0.055053674
000110 d9 6a fb 3d e5 c6 2b 3d 39 5c cb 3d c8 d2 19 bd
       0.12276239 0.041937727 0.099296995 -0.037554532
000120 af 67 4a bc ab d9 e0 3d 0a 2a 50 3d 72 6b 54 bd
       -0.012353822 0.10979017 0.05082134 -0.05186028
000130 72 0d a1 bd 5f a5 f4 3d 55 c1 b2 3d de 81 28 3d
       -0.078638926 0.119456045 0.087282814 0.041139476
000140 b3 0d 2c bc 8e 3f b5 3d 1b e4 b6 3b 4c b4 ce 3d
       -0.010501313 0.08850013 0.0055813915 0.10092983
000150 ad 4f 88 bd e1 dc cf 3d 39 a5 80 3d d9 e0 0b bc
       -0.06655822 0.10149551 0.06281514 -0.008537495
000160 1e 26 8e 3d 87 6f 89 3b 6c 26 a8 bc 41 2e a0 ba
       0.06940864 0.0041942033 -0.020526133 -0.0012220816
000170 24 ce ba 3d f5 b8 d2 3d ae 26 9a 3d 1a 65 c4 3d
       0.091213495 0.10289184 0.07526909 0.09589596
000180 9c c9 36 bd ac 81 c8 bc 7b eb a0 bb b9 e8 41 3c
       -0.044625863 -0.024475895 -0.004910884 0.011835271
000190 7a cd fe bc 3e 37 86 bd bd fa 9b 3c 47 f4 9e bd
       -0.031103838 -0.06553505 0.01904046 -0.07761436
0001a0 9e a4 30 3d bd d3 8d bd 50 6e 9c bd 31 3d 1d bd
       0.04312574 -0.069251515 -0.07638228 -0.038388435
0001b0 a8 23 2d 3d 0e 09 9d 3c c8 39 6f bd d7 2d 5b bd
       0.042270333 0.019169357 -0.058404714 -0.053510513
0001c0 24 10 7f bd 77 e2 96 bc 0d 3e 4b bd 6a 57 f8 bb
       -0.062271252 -0.018418534 -0.049619723 -0.00757878
0001d0 e5 5e 2f bd d5 22 41 bd 6f de 8e 3d 41 72 a3 bd
       -0.042815108 -0.04715236 0.069760196 -0.079807766
0001e0 d5 36 8c 3d b9 f1 c7 3c 7b 25 65 bd 30 e3 a0 bd
       0.06846396 0.024407255 -0.055943947 -0.078558326
0001f0 dc 5f 1e bc 0d 0f 41 3d 69 08 ae bd 3a 15 94 bd
       -0.009666409 0.047133494 -0.08497698 -0.07230611
000200 ce 9e 9d bd ed 87 66 3c 26 69 02 3e da c5 42 3d
       -0.07696305 0.014070493 0.12735423 0.047551967
000210 a6 06 af bc e7 23 25 bd 76 cd d2 bd ff 47 f9 3c
       -0.021365475 -0.040317442 -0.10293095 0.030429838
000220 da c8 49 bd af b9 61 bd b5 72 a1 bd 3f 8f c8 bd
       -0.049263813 -0.055108722 -0.07883207 -0.09792947
000230 ad 29 05 3e 21 c3 4e bd 54 6d 20 bc 18 38 22 bc
       0.1300418 -0.05047906 -0.009791691 -0.009901069
000240 c5 39 96 3d 08 a4 52 bd 53 54 b4 bd 7f f4 15 bc
       0.073352374 -0.051425964 -0.08805146 -0.009152531
000250 c5 fb 1d bd 0b c4 3f bc b2 f5 e7 3c c5 7f 37 3d
       -0.038570184 -0.011704455 0.028315399 0.044799585
000260 2d b5 e1 3d eb 64 42 bd ff da 84 3d 26 04 80 bd
       0.11020885 -0.047459524 0.06487083 -0.06250791
000270 5b 40 89 3c 5c 67 0f bd e1 70 37 bd 54 11 3e 3d
       0.01675432 -0.03501068 -0.044785384 0.046403244
000280 34 18 c3 3d e1 31 da bd ef 3c be 3d 85 b1 92 bc
       0.09526101 -0.10654045 0.09288966 -0.017906914
000290 67 53 d0 bc db 88 55 3d 96 c5 1b 3d 78 03 5c bd
       -0.025430394 0.05213247 0.03803023 -0.053714246
0002a0 9d 77 a0 bd 10 c6 d7 bb 20 cf e8 bc dc 84 e4 3c
       -0.078353144 -0.00658489 -0.028419077 0.027895384
0002b0 a0 ec f2 3c e6 43 1c bd 26 5f 91 bd c6 68 0e 3d
       0.029653847 -0.03815069 -0.07098226 0.03476789
0002c0 bb ee 3a bc bf a0 a4 bd 36 8f f3 3c 16 f7 de bd
       -0.011409457 -0.080384724 0.029731374 -0.10886972
0002d0 22 3b 46 3d 6a fb 01 bd 8d 51 ac bd 12 05 8f 3c
       0.048396237 -0.031733908 -0.08413992 0.017458472
0002e0 f6 65 93 bc ca 5c 41 bd d8 12 44 bc 3b bd 14 bd
       -0.017992955 -0.04720763 -0.011967383 -0.036313277
0002f0 a6 b7 8e 3d 09 80 a6 bd 2b f8 a6 bd 1a 06 37 3d
       0.06968622 -0.081298895 -0.08152803 0.044683553
000300 2b 3c 4d bc 88 fa 96 3d 17 84 40 bd e5 99 b8 bd
       -0.012526552 0.07372004 -0.04700097 -0.09013728
000310 07 a3 a0 3d fb bb 8d 3d 4d b2 80 bc a8 d3 3e bd
       0.07843595 0.0692062 -0.01571002 -0.04658857
000320 26 4d a1 bd 0f 4e 6c 3c 53 ff 06 bd cd 7e 70 3d
       -0.07876043 0.0144229075 -0.03295834 0.058714677
000330 65 a1 e2 bd e9 c7 2f bd 79 90 fd 3c ad 17 9e bd
       -0.1106594 -0.04291526 0.030952679 -0.077193595
000340 d7 bc 76 bc 05 bd 3d bd 6f 3e 06 bd 55 a0 c9 bd
       -0.015059671 -0.04632284 -0.032774385 -0.09845034
000350 7e 3f 44 bd a1 8f 38 bd c1 f7 f2 3c f0 3f 19 bd
       -0.047912113 -0.04505885 0.029659154 -0.03741449
000360 e9 3a b0 bd 53 76 62 bc c7 91 d6 bd 44 eb a5 bd
       -0.08604986 -0.013822156 -0.104770236 -0.08101514
000370 d7 7a 02 bc c6 23 03 be df a3 25 bb 0d d2 06 3d
       -0.007963858 -0.12806615 -0.0025274677 0.032915164
000380 c3 37 53 3d 27 83 b4 3c 78 c4 d7 bd 40 e8 91 bd
       0.05156685 0.022035195 -0.1053552 -0.07124376
000390 e1 b6 b3 bd 37 65 95 bd b4 a3 82 bd 50 8b e5 bd
       -0.08775116 -0.07294696 -0.0637888 -0.112082124
0003a0 32 e0 94 3c 9d ac 34 3d 25 a6 a6 bd 8f 0d 74 3d
       0.01817331 0.04410993 -0.08137158 0.059583243
0003b0 62 fb f9 3c 4e 6d c0 bd 77 84 68 3d 60 b4 58 3b
       0.030515376 -0.09395848 0.056766953 0.0033066496
0003c0 a8 ac 65 bd 33 16 90 3d 80 e3 76 3d 6c 4f 14 bd
       -0.05607286 0.07035484 0.060275555 -0.036208555
0003d0 6d b0 e4 bd e9 48 32 bd b0 dc 39 3d fa 32 94 3c
       -0.11166463 -0.043526564 0.04537648 0.018090714
0003e0 17 a7 89 3d 58 89 ce bd 4e 90 4e 3c 84 77 bc 3d
       0.06721323 -0.1008479 0.012607647 0.09202483
0003f0 e8 76 79 bd d9 69 5b bd 97 aa b3 bb b3 6b 76 3d
       -0.060904413 -0.05356774 -0.0054829824 0.060161304

classfier.fc2.bias f4 [50]
000000 51 b5 66 3d f7 6d b3 bd e1 b3 5b 3d 18 51 89 3b
       0.05632526 -0.087612085 0.053638343 0.0041905753
000010 26 de b4 bd b1 f2 d2 bc e0 fb 8c bd 47 39 9d 3d
       -0.08831434 -0.02575049 -0.06883979 0.076769404
000020 77 6d 60 3d af cd 93 bd f1 8d 0b 3c 08 51 92 bd
       0.054791894 -0.072169654 0.008517728 -0.07144362
000030 b9 34 4b 3b 04 81 92 bd 0e 66 7d bc d8 1d a6 bc
       0.0031006767 -0.07153514 -0.015466226 -0.020277902
000040 9c de 75 bd 43 b8 b9 bc ca 64 27 3d 72 c1 c1 3d
       -0.06002675 -0.02267087 0.040867604 0.09460725
000050 6e 08 e6 bc 67 70 a1 bd d0 ef 5b bd 82 f6 de 3c
       -0.028080191 -0.07882767 -0.0536955 0.027217153
000060 f9 0b bd 3d b8 eb bf 3d 43 38 04 3d 54 cf 3b bd
       0.09230799 0.09371132 0.032280218 -0.04585202
000070 3d e9 b9 3d 3a bc 5f bd a6 e3 7c 3d 5d f0 ce bc
       0.0907769 -0.054622866 0.06174054 -0.025261099
000080 d4 e5 e3 bc dd 26 14 bc 12 e3 a7 3d 7f 2c 20 bd
       -0.027819552 -0.009042469 0.08197607 -0.039104935
000090 c1 66 ca bc 96 a7 00 3d ef e2 0f 3d 34 51 ee 3c
       -0.0247072 0.031409822 0.03512853 0.029091455
0000a0 f9 bb 5c bc ed aa d2 3b bd be 5b bc 36 2a 44 bd
       -0.013472551 0.0064290673 -0.013412175 -0.047891818
0000b0 6c 71 94 3c 54 d6 54 bd d9 c2 c5 bc 17 51 b3 bc
       0.01812049 -0.05196221 -0.024140762 -0.021889253
0000c0 e8 3a 95 bd 2e 4c fa 3c
       -0.07286626 0.030553903

classfier.bn2.weight f4 [50]
000000 85 48 81 3f 3a 41 83 3f fe 03 81 3f 11 25 74 3f
       1.0100256 1.025428 1.0079343 0.9536906
000010 79 64 84 3f d0 d6 80 3f 9c 23 7c 3f 98 55 72 3f
       1.0343162 1.0065556 0.98491836 0.94661856
000020 6c 74 74 3f cc d6 7c 3f 94 c4 78 3f 40 95 7f 3f
       0.95490146 0.98765254 0.97174954 0.9983711
000030 cb bc 7c 3f 5c 81 7d 3f b8 6a 79 3f c0 1c 7c 3f
       0.98725575 0.9902551 0.97428465 0.9848137
000040 8f 78 7d 3f 92 24 85 3f ee c5 85 3f d6 50 86 3f
       0.9901208 1.0401785 1.0451028 1.0493419
000050 85 8e 7f 3f b5 de 85 3f a5 0e 71 3f 11 2a 86 3f
       0.9982684 1.045859 0.9416297 1.0481588
000060 c3 02 85 3f 42 5b 86 3f ff 7e 7a 3f 5f cc 86 3f
       1.0391468 1.04966 0.9785003 1.0531119
000070 d2 57 87 3f d1 56 78 3f b7 63 81 3f ed 56 89 3f
       1.0573676 0.9700747 1.0108556 1.0729653
000080 2e 84 73 3f 10 54 78 3f e6 e5 81 3f e7 7b 70 3f
       0.95123565 0.9700327 1.0148284 0.9393906
000090 ae d6 83 3f dc 84 7a 3f de 58 80 3f 81 45 80 3f
       1.029989 0.9785898 1.002712 1.0021211
0000a0 40 06 81 3f 30 d7 83 3f b7 72 83 3f 4b d0 7c 3f
       1.0080032 1.0300045 1.0269383 0.9875533
0000b0 d4 66 80 3f 0c 36 7a 3f ce 0a 74 3f 57 f5 71 3f
       1.0031381 0.9773872 0.95328987 0.94514984
0000c0 98 e3 78 3f be ce 86 3f
       0.9722228 1.0531843

classfier.bn2.bias f4 [50]
000000 3a 06 80 bd fb 96 8f 3d a3 26 08 3d 71 01 2b bd
       -0.062511876 0.07011219 0.03323997 -0.04174942
000010 0e ff 94 3d 38 b1 97 bd af 15 a3 bd 05 47 6e bd
       0.0727521 -0.07406849 -0.0796312 -0.0581732
000020 fe 11 95 bd 7d e8 9e 3a e7 8b d4 bc a7 41 ae 3c
       -0.07278822 0.001212373 -0.025945617 0.02127154
000030 d0 42 8c 3b 58 e4 cc bd 40 30 ac ba 46 09 a1 bb
       0.0042804256 -0.100044906 -0.0013136938 -0.0049144356
000040 55 98 5e bd 16 60 32 3c c3 38 64 3d ad 05 97 bd
       -0.054344494 0.0108871665 0.055718195 -0.073741294
000050 e5 51 b2 bd c1 97 66 3d 78 20 b8 bd 44 27 ae 3d
       -0.087070264 0.056297068 -0.08990568 0.08503583
000060 11 78 00 3d 00 01 b2 3d 1a 90 31 3d af 75 5c bd
       0.031364504 0.08691597 0.043350317 -0.05382317
000070 f8 8a 3c bd ee 87 3b bd 62 dc c0 3c e0 96 9d 3d
       -0.04603097 -0.04578393 0.023542587 0.07694793
000080 92 91 fd bc f3 81 6e 3c e0 14 59 bc 69 8c 21 bd
       -0.030953202 0.0145573495 -0.013249606 -0.039440546
000090 b0 5e 95 bd ab 00 88 bd 4d 22 d1 3a bf f2 86 bb
       -0.07293451 -0.066407524 0.0015955657 -0.004118293
0000a0 c3 10 7d bd 7d 77 61 3d 1e 80 4a 3d 66 1b bd 39
       -0.061783563 0.055045594 0.04943859 0.00036069303
0000b0 77 cc 8b 3b 6b ef 84 bc b6 a1 0e bd 11 c7 6f bd
       0.0042663175 -0.016227445 -0.03482219 -0.058539454
0000c0 24 d1 c5 bc ab ec 8b 3d
       -0.024147578 0.0683225

classfier.bn2.running_mean f4 [50]
000000 78 e7 49 3f 8e 1e 0c bf 1f 6d 3e bf 56 7d de be
       0.7886882 -0.5473412 -0.74385256 -0.43455
000010 97 82 86 be 71 56 0b 3f dd 95 c5 3e 8b 5c cf bd
       -0.26271507 0.54428774 0.385909 -0.10125073
000020 04 3e bc 3d 82 d1 22 be 7c db bd 3e 9f 65 e5 be
       0.09191516 -0.15900233 0.37081516 -0.44804093
000030 7d 6e fe be 92 7a d2 3e 47 51 c8 be 7e 2b 03 be
       -0.4969367 0.4110914 -0.3912451 -0.1280956
000040 6e f9 18 3f 01 88 6b 3f 54 6d c6 be 5f 60 41 3f
       0.597556 0.920044 -0.38755286 0.75537676
000050 39 13 08 3f 3c 5b 4c be 09 db 8e 3e 88 cf 0a bf
       0.5315433 -0.19956678 0.27901486 -0.5422292
000060 24 23 fa 3e 25 96 21 be 32 89 0d be 62 5b 52 3f
       0.48854935 -0.15779932 -0.13821867 0.8217069
000070 f1 32 5b 3f 15 41 2e 3d d8 2b f6 be e0 4b 3a bf
       0.85624605 0.042542536 -0.48080325 -0.72772026
000080 bf 17 8c be 0a c5 f2 be 90 8f 2e 3f fb 85 0a be
       -0.27361867 -0.47415954 0.6818781 -0.13527672
000090 e0 2c 3c 3f 18 2c 45 3f 95 f0 84 3e c1 fb a6 be
       0.73505974 0.77020407 0.259648 -0.32613948
0000a0 f6 d8 c6 3e b0 d6 2e be 92 a5 b5 be 61 dd f4 3e
       0.38837403 -0.17074084 -0.35477883 0.4782515
0000b0 e6 40 11 3f 52 45 e1 3d ee 5a 97 be a6 fa c9 3e
       0.5673965 0.1099955 -0.2956156 0.39449042
0000c0 8d e8 90 bd a0 80 3f 3e
       -0.070756055 0.1870141

classfier.bn2.running_var f4 [50]
000000 81 bb 84 3e 42 2d 11 3f 51 b7 d4 3e 17 3d bc 3e
       0.25924304 0.5670968 0.4154611 0.36765358
000010 d6 c7 db 3e 3d ec 91 3e 39 5e 6f 3e 39 d4 5f 3e
       0.429259 0.28500548 0.23375787 0.218583
000020 82 a3 28 3e c1 6d bf 3e 6f ad 91 3e 26 42 4e 3e
       0.16468623 0.37388423 0.28452632 0.20142421
000030 75 16 86 3e 83 51 6e 3e 08 9a 4a 3e 1b 91 25 3e
       0.26189008 0.23273282 0.19785321 0.16168635
000040 f9 8c ae 3e a0 b3 c9 3e 6b 25 ce 3e 84 69 aa 3e
       0.3409193 0.39394855 0.40262923 0.33283627
000050 ce b7 97 3e cc 5f 9e 3e fc 98 22 3e 7f fb cb 3e
       0.2963242 0.30932462 0.15878671 0.39840314
000060 38 f8 b1 3e 3e 63 ca 3e 1c e1 8f 3e ea 54 a5 3e
       0.34759688 0.3952884 0.28101432 0.32291347
000070 e7 9e 9c 3e ec 43 86 3e 41 c8 84 3e 9d e8 ef 3e
       0.30589983 0.26223695 0.25934032 0.46857157
000080 ef d2 60 3e 31 14 63 3e 6b e1 89 3e 84 58 57 3e
       0.21955465 0.22175671 0.26929793 0.2102986
000090 de 4b c7 3e 7b bb 9a 3e 41 31 cc 3e 48 2b 9f 3e
       0.3892507 0.3022116 0.39881328 0.31087708
0000a0 97 24 76 3e 8e 11 ca 3e 7a b3 82 3e 03 20 c4 3e
       0.24037395 0.39466518 0.25527555 0.38305673
0000b0 91 e9 56 3e 33 d6 86 3e 64 62 7d 3e 29 a1 57 3e
       0.20987536 0.26335296 0.24744564 0.21057571
0000c0 dc 72 d2 3e aa 03 b2 3e
       0.41103256 0.3476842

classfier.fc3.weight f4 [25, 50]
000000 f6 7e 06 be b3 34 14 be 0d 5f 33 3d 3e b4 93 bd
       -0.13134369 -0.14473228 0.04379182 -0.07212113
000010 ca 21 83 3d 57 af 53 bd 63 d9 b8 bd 83 22 70 3d
       0.06402929 -0.05168089 -0.09025838 0.058626663
000020 29 cd b2 3c 93 43 43 bd f3 cb 5f bd 4c 5a b7 3c
       0.021826344 -0.047671866 -0.05463786 0.022381924
000030 c8 09 01 bc 1b 35 ff bd f5 33 bb 3a 51 de 91 3c
       -0.007875867 -0.12461301 0.0014282452 0.017806204
000040 7f 55 ae bd ae 19 97 bd fa b7 0f 3b 32 92 92 bd
       -0.08512401 -0.07377945 0.0021929727 -0.07156791
000050 d0 84 f5 bc 2f 70 27 be 2e f9 8c bb 34 56 8e 3d
       -0.029970556 -0.16351388 -0.0043021655 0.06950036
000060 c8 24 00 be d4 4f d8 3d 48 cd a1 3c 3c 85 89 bd
       -0.12514031 0.10562101 0.019751206 -0.067148656
000070 5e 21 8f ba ce 02 65 bd 66 4e 02 bd b8 60 26 3d
       -0.0010919978 -0.055910878 -0.031813048 0.040619582
000080 bf c6 59 bd 78 c2 8e bd 60 a3 eb bc c7 58 88 bd
       -0.053168055 -0.06970686 -0.028764427 -0.06657558
000090 de 34 84 3a d8 22 0d bd d3 2e fc bd 0a cb fa 3d
       0.0010086556 -0.034457058 -0.123136185 0.12245758
0000a0 61 f3 78 3d f8 33 fc bd d4 9f 8d bd e1 65 a4 bd
       0.06077898 -0.123146 -0.069152504 -0.08027244
0000b0 ab 52 23 bd a9 1b 8c 3c 44 da 8d 3d 32 d9 97 3c
       -0.03987376 0.017103033 0.069263965 0.018536184
0000c0 c6 49 b2 bd a0 43 5e bd f5 67 4f bd ce 61 c4 bc
       -0.087054774 -0.05426371 -0.05063625 -0.023972418
0000d0 bd 5d 25 be 67 5d a5 3d 3d a1 5d be 3d 0e ad bd
       -0.1614904 0.08074456 -0.21643539 -0.08449981
0000e0 d5 01 da bd 84 79 84 3c 40 bb 74 3d ac 23 b9 bd
       -0.10644881 0.016171224 0.059748888 -0.09040007
0000f0 18 80 84 3d 13 e5 12 be bb d1 bb 3d f6 fb d5 bd
       0.064697444 -0.14345197 0.09170862 -0.10448448
000100 de 87 53 3d 49 d5 ba bd 62 d1 ee bb 19 a1 d6 bd
       0.051643245 -0.09122712 -0.007288144 -0.10479946
000110 55 09 07 3e 91 c0 44 bd 23 ff aa bd 53 ff e7 3d
       0.13187154 -0.048035208 -0.08349445 0.11327996
000120 2a 1e 7b bd 9f 25 c1 3d fd 9c e7 bd 27 0e 17 3d
       -0.061308064 0.09431004 -0.1130924 0.03687873
000130 a8 09 98 bd 8e 65 e7 bc c4 f0 d4 bd 7c ea 4e 3d
       -0.07423717 -0.028246667 -0.10397485 0.05051659
000140 b9 61 5a 3d 0e 43 97 3d 6b 6b ca 3c 4f 88 07 be
       0.05331585 0.073858365 0.024709424 -0.13235591
000150 1d b3 97 3d b7 a1 1e 3d f3 5b ae bd 9a 73 20 bd
       0.0740721 0.038728442 -0.08513632 -0.039172746
000160 24 06 e4 3d d7 89 a3 3d 6f 7c 4d 3c 19 01 34 bd
       0.11133984 0.07985275 0.012541874 -0.04394636
000170 3a 9c bc bc 68 4d b6 bd bc be 52 3d 4f 78 3e bd
       -0.023023713 -0.08901483 0.05145143 -0.046501454
000180 30 41 c0 3d 8c fa f7 3b 46 cc 08 3d 21 bd 26 3e
       0.093874335 0.0075677093 0.033397935 0.16283084
000190 15 06 cc 3d 34 95 cb bd 7c 67 11 bc 86 23 d4 bc
       0.099620976 -0.099405676 -0.00887477 -0.025895845
0001a0 7e bd 98 bd c9 d1 b3 bc ed 43 7b 3d c6 89 94 3c
       -0.07458018 -0.02195062 0.061344076 0.018132102
0001b0 4b 1d e5 3d b1 56 92 3a 47 10 ef 3d a8 1b 3b 3d
       0.11187228 0.0011164752 0.116730265 0.045680672
0001c0 e0 ec 84 3a 7e ff d2 3c 85 a6 0f bc f0 1e d0 3c
       0.0010141395 0.025756594 -0.008767729 0.025405377
0001d0 8a 38 0c 3e 15 d7 f7 3d eb 52 1d bc 2c 1e 06 3e
       0.13693443 0.121015705 -0.009602289 0.13097447
0001e0 22 d3 9d 3d 7a ad d4 3c e7 f9 e0 3d 31 58 21 3d
       0.07706286 0.025961626 0.10985165 0.039390747
0001f0 5c d8 4b 3d 74 2e 37 bd 29 37 1b 3d 6c d6 a0 3b
       0.049766883 -0.044722036 0.0378944 0.0049083736
000200 ea df f6 3d bc 31 35 3d 51 7d fc 3b e8 9d 26 bd
       0.12054427 0.044236884 0.0077053686 -0.040677935
000210 64 66 8a bb 69 70 39 bc e0 ec f6 3d a7 0f 2d bd
       -0.0042236317 -0.011318305 0.12056899 -0.042251255
000220 e8 84 ca 3d 00 5b d7 3d dd 05 9c bd bc 28 5c 3b
       0.09888631 0.10515404 -0.07618306 0.0033593616
000230 23 ff 43 3e a2 8f ba bd 8b bf d3 bc e3 f2 9b bc
       0.19140296 -0.09109427 -0.02584817 -0.019036716
000240 4c 3e 24 3c 4f 62 3a bd b3 25 cc 3c 42 43 b0 bc
       0.010024618 -0.04550391 0.02492032 -0.021516446
000250 2f a0 d7 bb f7 63 b4 bd 08 a0 1a 3d c5 9c ba 3d
       -0.0065803747 -0.08808129 0.037750274 0.09111933
000260 05 ac df 3d 1d 04 12 bd 0a 04 a3 3d bc a5 09 be
       0.10921482 -0.035648454 0.07959755 -0.13442129
000270 56 76 72 3d fd 30 7e 3d 80 62 64 3d 60 41 94 3d
       0.059194885 0.062058438 0.055758 0.07239032
000280 16 79 09 be 98 f4 13 be e9 60 cd 3d 92 a2 bd bd
       -0.13425097 -0.14448774 0.1002825 -0.092595235
000290 a4 97 36 3d 62 46 14 3c 25 09 79 bd ed d0 36 be
       0.04457821 0.009049984 -0.060799737 -0.17853136
0002a0 6f 5f 67 bd a2 04 19 be 18 da 55 bd 7a 46 39 bb
       -0.056487497 -0.14943174 -0.052209944 -0.0028270767
0002b0 45 fe 26 3c 9f 94 0d bd 62 ef c2 bd df 4a eb bb
       0.0101924585 -0.034565564 -0.09518315 -0.007180556
0002c0 df a9 f2 bd 5c 43 05 bd a2 09 b9 bd a9 db a0 3d
       -0.118488066 -0.032534942 -0.090350404 0.07854397
0002d0 37 c7 a0 3d 25 e1 1d bd ae 50 96 3d a8 e4 9b bc
       0.07850497 -0.038544793 0.07339607 -0.01902993
0002e0 60 2b 0c be d6 6d af 3d e1 e6 91 bd ac dc 14 3c
       -0.13688421 0.085658714 -0.07124115 0.009085815
0002f0 43 7b 3a be 50 b5 0b 3d a6 ee 02 be 18 70 0c be
       -0.18211083 0.03410846 -0.1278635 -0.13714635
000300 4d fe 3a bd 07 ef 22 be 9e 94 66 bd d2 09 e0 bd
       -0.045652676 -0.15911494 -0.056294076 -0.10939373
000310 ed 50 81 3b 32 46 ec bb d0 4d aa 3d 3c 16 cf bb
       0.0039464147 -0.0072105164 0.08315623 -0.006319789
000320 8b 65 07 be c0 33 d6 3d ab e0 1a be 02 c2 d7 3d
       -0.1322233 0.10459089 -0.15124767 0.10535051
000330 43 96 95 3c 71 b5 83 3d 1a dd c2 bd 08 f6 71 bd
       0.018260127 0.064310916 -0.09514828 -0.059072524
000340 51 f9 da bd 3b a6 89 3c 77 23 fa 3c 21 8d a8 3d
       -0.106920846 0.016802898 0.03053449 0.08230043
000350 85 68 18 be 50 e7 c5 bd 48 fb d4 3d ec be 3b bb
       -0.14883621 -0.0966326 0.103994906 -0.0028647734
000360 cf 93 a8 bd 66 64 10 be dd 7a 7e 3d cc 3a aa bd
       -0.08231317 -0.14100799 0.06212889 -0.08311996
000370 77 47 b7 bd 07 41 05 3e 49 dc fa bd 3c 99 48 be
       -0.08949178 0.13013087 -0.12249047 -0.19589704
000380 67 6e 1f be af 55 d2 bd e6 3a f6 bc 2f a3 d1 bd
       -0.15569459 -0.10270249 -0.030057382 -0.10236203
000390 50 9e f1 bc 50 88 6b 3d 8f 52 02 3e c5 e2 e0 bd
       -0.029494435 0.057503045 0.12726806 -0.10980753
0003a0 fd d0 4a bc 82 07 df 3d c8 7b 66 bd f2 44 bc 3d
       -0.012378928 0.10890104 -0.05627039 0.09192838
0003b0 4f 5d 99 bd b4 4c 97 bc b6 3b 03 be 3d 0c df 3c
       -0.074885 -0.018469192 -0.12815747 0.027227515
0003c0 f8 4b 9c 3b fa 5b b1 3d b8 c6 90 3d 01 75 f8 3d
       0.0047697984 0.08660121 0.070691526 0.12131692
0003d0 88 5f 14 bd 92 4b e0 3c 7b 16 f1 bc 58 12 a1 3d
       -0.03622392 0.027379785 -0.029429665 0.07864827
0003e0 3b c4 2a bd aa 4b c0 3b fe da 19 bd 86 f4 16 bd
       -0.041691046 0.005868395 -0.037562363 -0.03685429
0003f0 fa 39 cc 3b a7 15 05 3d a9 f9 e9 bc 3e 44 14 be
       0.0062324973 0.032491352 -0.02856143 -0.14479157

classfier.fc3.bias f4 [25]
000000 ec 52 0a be c9 b2 ef 3b 9e 34 ee 3d 8b e8 d7 bd
       -0.13508195 0.007315014 0.1163113 -0.10542401
000010 e1 8a e8 3d f0 9d 1a bc 6d 06 61 3a 44 ff 09 3e
       0.11354614 -0.009437069 0.00085840264 0.13476282
000020 c6 5d 37 3c b4 ea cd bd 6b c7 b7 b7 5e c3 7a bd
       0.011191791 -0.10054532 -2.1908161e-05 -0.061221473
000030 eb 06 97 3d 7d 5d 06 bc 1b a7 50 bd b9 97 9c 3c
       0.073743664 -0.008201 -0.050940614 0.019115316
000040 62 f6 d3 3c 90 98 19 bd 89 24 91 bd b0 e9 7d 3d
       0.02587432 -0.03749901 -0.07087047 0.06199044
000050 5a 60 b9 3d 72 cc 85 bc 23 f7 fb bc 0d ba 8c 3d
       0.09051581 -0.016332839 -0.030757492 0.06871424
000060 3f 15 d6 ba
       -0.0016333236

classfier.bn3.weight f4 [25]
000000 87 ac 92 3f 9d c5 91 3f fe ee 8e 3f a3 92 91 3f
       1.1458901 1.1388432 1.1166685 1.1372875
000010 5f ba 90 3f a4 97 94 3f de b4 91 3f 11 f1 92 3f
       1.1306876 1.1608777 1.1383321 1.1479818
000020 78 dd 94 3f 31 7f 8d 3f 48 56 8f 3f 36 77 8d 3f
       1.1630087 1.1054441 1.1198206 1.1052005
000030 0b bf 93 3f 56 43 90 3f e4 55 95 3f 22 48 8f 3f
       1.1542677 1.1270549 1.1666837 1.1193888
000040 d3 76 97 3f e0 0d 92 3f fa 21 91 3f a9 cb 93 3f
       1.1833137 1.1410484 1.1338494 1.1546527
000050 9f ab 8e 3f c0 0d 91 3f b6 bb 93 3f 51 8c 90 3f
       1.1146125 1.1332321 1.154166 1.1292821
000060 1b 1f 90 3f
       1.1259493

classfier.bn3.bias f4 [25]
000000 f4 fe 15 3e b1 e0 12 3e 56 a3 13 3d 99 41 0e 3e
       0.14648038 0.14343525 0.03604444 0.13892211
000010 9a 19 06 3e 72 aa 20 3e d7 2a 0d 3e 6f db 16 3e
       0.13095704 0.1569002 0.13785873 0.14732145
000020 c9 71 32 3e 17 27 7b bc 3b 61 b3 bc 5e 0c c8 bc
       0.17426218 -0.015329144 -0.021896949 -0.02441996
000030 8d 28 1f 3e 55 08 fe 3d c9 c0 29 3e c1 24 e0 3d
       0.15542813 0.12403933 0.16577448 0.1094451
000040 89 d9 3c 3e 49 49 14 3e 64 71 04 3e d6 1b 20 3e
       0.18442358 0.14481081 0.1293388 0.15635619
000050 28 fd c5 38 30 a0 03 3e d6 ef 17 3e b7 52 07 3e
       9.440846e-05 0.12854075 0.14837584 0.13215147
000060 6e e7 fd 3d
       0.12397657

classfier.bn3.running_mean f4 [25]
000000 5e ba 2b bf b5 2e 16 be 79 0b 08 3f c2 24 20 bf
       -0.6708125 -0.14666255 0.53142506 -0.6255609
000010 07 d5 68 be 30 36 24 bf f5 d2 10 3d e3 dc e0 3e
       -0.22737513 -0.64145184 0.035357434 0.43918523
000020 88 ed 06 be 24 93 55 3e df 2d 97 3e 74 b0 0c 3e
       -0.13176548 0.20856911 0.29527184 0.13739187
000030 97 31 e2 be 72 29 30 bf ec 4a 30 bf 71 cd 5d be
       -0.4417846 -0.6881324 -0.6886432 -0.21660401
000040 41 88 83 be 5e a6 5a bf da 3e 37 bf 1f 2e 1b bf
       -0.2568989 -0.85410106 -0.7158028 -0.6061725
000050 e3 dc e0 3e 88 65 35 be 72 92 58 be 1d b3 04 bf
       0.43918523 -0.17714512 -0.21149614 -0.51835805
000060 26 83 04 bf
       -0.51762617

classfier.bn3.running_var f4 [25]
000000 25 c1 f8 3e b5 e0 bc 3e c3 e7 4f 3f 7a b8 23 3f
       0.48584858 0.36890188 0.81213015 0.63953364
000010 fd 2c 11 3f 72 be 17 3f 61 ec 2c 3f 1c 3a 45 3f
       0.5670927 0.5927497 0.67548186 0.7704179
000020 cf 7e dc 3e 88 ce 67 3f 1b 85 52 3f b7 6c 8e 3f
       0.43065497 0.90549517 0.8223435 1.1126927
000030 b7 58 77 3f f6 65 1f 3f 63 35 53 3f b1 0a 27 3f
       0.96619743 0.62264955 0.82503337 0.6525069
000040 7e e0 20 3f 5a 21 f3 3e ab ee 62 3f 30 a9 bb 3e
       0.6284255 0.47486383 0.8864543 0.36652517
000050 79 73 62 3f 28 5e 0b 3f e1 6e 3a 3f 4c f6 5a 3f
       0.8845745 0.54440546 0.7282544 0.8553207
000060 9e 28 36 3f
       0.71155727

classfier.fc5.weight f4 [1, 25]
000000 51 35 48 be 67 ae e8 bd 5f 31 cf 3d df 44 7e be
       -0.19551589 -0.113613896 0.10116839 -0.2483096
000010 59 0c 9b be 7e 41 5f be 72 0b 91 be 53 4e 79 be
       -0.30282858 -0.21802327 -0.28329045 -0.24346285
000020 25 f0 3c be 86 0a 0c 3e 5d 85 8c 3e ac 09 95 3e
       -0.18450983 0.1367589 0.27445498 0.29108942
000030 7d 04 20 be b4 8c 94 be 33 37 23 be 9a ad ce bd
       -0.15626712 -0.29013598 -0.15939026 -0.100917056
000040 b0 30 16 be b5 1c 2e be a7 47 96 be f9 4a 31 be
       -0.1466701 -0.17003138 -0.2935154 -0.17313756
000050 ff d7 1c 3e a9 20 92 be 32 01 57 be 99 34 9b be
       0.15316771 -0.28540543 -0.2099655 -0.30313566
000060 44 8d 92 be
       -0.28623402
