src/trained_models/2025-06-12/run_06-59-18/dnn_model_fold_3.pt (torch, 75713 bytes, 19 tensors)

classfier.fc1.weight f4 [100, 100]
000000 a0 95 b3 bc 52 5b 13 bd 13 28 27 bd 4b 03 28 bd
       -0.021921933 -0.03597576 -0.040809702 -0.041018765
000010 2a 7e 17 3b b6 29 89 bd 05 c0 f1 3d 28 a0 62 3d
       0.002311597 -0.06697409 0.11804203 0.05532852
000020 9d c6 a5 bc 3a b1 44 bd 3d 27 8b 3d 89 91 b7 3c
       -0.020236308 -0.04802058 0.067945935 0.022408264
000030 f9 1f a6 bd 34 df 18 bd 99 1e aa 3d e3 63 d3 3d
       -0.08111567 -0.037322238 0.08306617 0.10321786
000040 99 66 a8 bb fa 6a d3 3b 15 11 15 bc d0 2f de 3d
       -0.0051391837 0.0064519616 -0.009098311 0.10848963
000050 f6 2c 8b 3d 6d b9 b2 bd 9e c8 7b bd 4b 9f 57 3c
       0.06795685 -0.087267734 -0.06147062 0.013160537
000060 92 a1 b4 3d c5 6b c0 3d a7 67 95 ba 94 1a c3 3c
       0.088198796 0.093955554 -0.0011398689 0.023816384
000070 a3 10 80 bc 2a 4f 46 bd 53 d6 2d 3d 25 16 5d 3d
       -0.015632933 -0.04841534 0.042440724 0.053976197
000080 02 1b 2a bd e6 72 fe bc f3 db 4f bd e1 29 81 3c
       -0.041529663 -0.031060647 -0.05074687 0.01576704
000090 b0 b7 31 3b 97 cd 3e bd 32 c8 4f bd 0a 37 0b 3d
       0.0027117543 -0.046582785 -0.05072803 0.033988036
0000a0 37 4b a8 3d 1e c4 96 bd 3d ce 93 3d bc e8 ee 3b
       0.08217471 -0.07361625 0.07217071 0.0072909277
0000b0 e7 9f a4 bc cb ff 18 3c db c1 cc 3d 91 79 88 3d
       -0.020095779 0.00933833 0.099979125 0.06663812
0000c0 e6 61 54 3d 6e c3 35 bc ac 59 88 bd d6 6b 50 bd
       0.051851176 -0.011093957 -0.066577286 -0.05088409
0000d0 a4 25 bf bd 6d 97 ee bc e9 48 80 bd 30 c9 80 bd
       -0.09333351 -0.02912494 -0.062639065 -0.062883735
0000e0 37 29 b6 3d 89 74 18 3d c1 75 f6 bb bc f8 8d bc
       0.0889458 0.03722051 -0.0075213616 -0.01733052
0000f0 6b e0 89 3d 97 fb 97 3d f5 e2 92 3c 83 67 ca 3d
       0.067322575 0.07421034 0.017930487 0.098830245
000100 60 f6 ff bc ca 97 18 3d 47 fe d1 bd 00 c9 d8 bd
       -0.03124541 0.037254132 -0.10253578 -0.10585213
000110 1c 33 1e bc aa be a5 3c 18 c8 1c 3d dc 77 cd bd
       -0.00965574 0.020232517 0.03827676 -0.10032627
000120 9c 51 ff bc 08 03 e4 bc 40 87 7f 3d 0d 86 9a 3d
       -0.031166844 -0.027833477 0.062384844 0.075450994
000130 1f 27 b2 3d 89 17 b9 bd 36 03 9f bd ab 4d 47 bd
       0.08698868 -0.09037692 -0.07764284 -0.048658054
000140 a1 0c 90 bc 02 38 21 ba 7c 5f 2c 3d d9 3d 60 3d
       -0.017584147 -0.00061500084 0.04208325 0.054746483
000150 ff 42 d4 bc ea 57 9c bc 09 43 c2 bc b6 06 97 bd
       -0.025910852 -0.01908489 -0.023713605 -0.07374327
000160 30 42 f1 3d de 85 d7 bb 9f 88 d7 bc bb e5 eb bb
       0.117802024 -0.0065772375 -0.026310263 -0.007199017
000170 f4 06 ac bc af 7c 57 bd 24 72 ce bc 08 c6 a3 3c
       -0.02099941 -0.052609142 -0.02520091 0.01999189
000180 20 3f ba 3c be 0f a2 bc 2c 1f 87 b9 aa f2 f0 bd
       0.022735178 -0.019782897 -0.0002577243 -0.117650345
000190 b9 16 74 bc ec fe 73 3d 67 79 79 3d 50 24 cd bd
       -0.014897996 0.059569284 0.060906794 -0.10016692
0001a0 e8 b8 5a bd 1e d4 11 3d cf d8 7b 3d 5f 1f 78 3d
       -0.053398997 0.03560268 0.06148606 0.060576793
0001b0 34 e2 43 bc 0b 9c 30 bc 5f f7 9f bd 71 92 88 bd
       -0.0119557865 -0.010779391 -0.07810854 -0.066685565
0001c0 a0 bd 2c bd 41 87 49 bd 9b dd 51 bd 8d 05 8b 3b
       -0.042173028 -0.049201254 -0.05123673 0.004242605
0001d0 76 7b bc 3d 40 3f a1 3d c7 33 b7 bd 01 ab 8d bc
       0.09203236 0.07873392 -0.089454226 -0.017293455
0001e0 1b 69 17 3d dd 1c 0a 3d 39 91 7d bb 92 59 7e bd
       0.03696547 0.033718932 -0.0038691296 -0.06209714
0001f0 f3 c9 61 bd 38 70 59 3d 8e ba b6 3d 3b 2d 83 bd
       -0.055124234 0.053085536 0.08922301 -0.064051114
000200 5d 89 03 3a d6 21 ba 3d f8 67 d9 3d 91 f2 f0 3c
       0.0005017722 0.09088485 0.106155336 0.02941254
000210 23 e7 a5 3d dd ca 7c 3c 0e 74 1a bd 5f 11 b0 3d
       0.081007265 0.015429226 -0.037708335 0.08597063
000220 e5 12 d4 3b 9d be ec 3c b7 31 b3 bc e7 9f a5 ba
       0.006471979 0.028899485 -0.021874292 -0.0012636156
000230 ec 45 7c 3d e3 63 90 bd 56 e6 b2 3c da ce 91 3d
       0.06159012 -0.07050302 0.021838348 0.07119532
000240 ef 8f 70 bd 95 5a eb 3c 86 bf de 3b d2 85 5f 3d
       -0.058731016 0.028729716 0.0067977337 0.05457098
000250 24 85 d2 bc fa 1b 17 bd 60 62 ca bd 65 b0 4b bd
       -0.025698252 -0.036891915 -0.09882045 -0.04972877
000260 1c 0e a3 3d 5a 1a a1 bd c6 1b ac bc 42 fa d7 3c
       0.079616755 -0.07866354 -0.021009337 0.02636445
000270 d1 30 e9 3c 38 1f 18 bd ba 2b 4a 3b 18 ed a6 3d
       0.02846566 -0.037139148 0.0030848817 0.08150691
000280 5d 62 97 3d 84 2c 8d 3d 12 e1 ed 3d d7 70 c6 3d
       0.07391808 0.06893256 0.116151944 0.09689491
000290 f8 cc 00 3c 2d 85 1a 3d 84 f1 9a 3d 3c 01 b6 bc
       0.007861368 0.037724663 0.07565597 -0.022217385
0002a0 23 05 99 3d 11 9d b8 bd 8d 87 a3 3d 2d 47 3d bd
       0.07471683 -0.09014333 0.07984839 -0.046210457
0002b0 4a 6e 97 3d 89 a6 9c 3d f0 af 4c bd 3f 9a a7 bd
       0.07394083 0.076489516 -0.049972475 -0.08183717
0002c0 8d 02 84 bd 05 6e 3e bd e7 7f ff bc e1 14 09 bd
       -0.06445799 -0.04649164 -0.031188918 -0.033467177
0002d0 4b c8 82 3d c3 a3 92 3d 38 c1 45 3d aa 4e a6 bd
       0.06385859 0.07160141 0.04827997 -0.08120473
0002e0 ae 92 e8 bc 0d db c2 3c f3 4e 04 bc fc 3a ad bd
       -0.028390255 0.023786092 -0.008075464 -0.08458516
0002f0 3c 4c d4 bd 41 82 e9 bb 66 a9 c1 3d 94 e7 8e bc
       -0.10366103 -0.007126123 0.09456138 -0.01744441
000300 a6 ca a7 bc 2c 35 3a bd e7 18 41 bd 1c 48 9b 3d
       -0.020482372 -0.045460865 -0.04714289 0.07582113
000310 c0 fe ce bd 52 79 9e 3d 98 8e 98 bb cd 23 6c 3d
       -0.101071835 0.07737984 -0.0046556704 0.05765133
000320 a6 99 4a 3d 73 79 04 bd f2 4b c2 bd 0e cd 3c bd
       0.049462937 -0.032342386 -0.09487142 -0.046093993
000330 34 c7 8e bd f3 a3 49 3d 62 32 2e 3d 63 04 c7 bc
       -0.06971589 0.04922862 0.042528518 -0.024294084
000340 53 f1 01 bd 59 5d a2 bd 06 9c 3f 3d 6f 2a 27 bc
       -0.031724285 -0.07927961 0.046779655 -0.010202988
000350 d7 3a 2b 3c 3e d4 a2 bb f4 96 a3 3d 58 47 db bd
       0.01045104 -0.004969149 0.079877764 -0.10706967
000360 b7 4d db bc 24 85 9d bd 17 34 06 3c 24 d9 58 bb
       -0.026770456 -0.0769141 0.00819113 -0.003308841
000370 1e 35 a1 3c a6 19 37 3d 0b d0 a4 bd b4 2f 03 3d
       0.019678649 0.044702195 -0.080474935 0.032027915
000380 e9 ce e3 bd 53 47 c7 3c 3b 99 80 bc dd 89 82 3c
       -0.11123449 0.024326002 -0.015698066 0.015934879
000390 dc 22 72 bd ea f3 0a 3d 8a f2 b8 3b 46 e1 a6 bd
       -0.059115276 0.03392402 0.0056441473 -0.08148436
0003a0 36 01 36 bd d6 6e 2f bd ed 24 7f bc 5f 5f b5 bd
       -0.04443475 -0.04283031 -0.015572769 -0.08856081
0003b0 68 37 34 bd 2a 26 82 3d 92 14 a4 3c 42 ea 02 3d
       -0.043998152 0.063549355 0.02002934 0.031961687
0003c0 31 61 56 3d ee af 50 bd 9e a0 27 3d 59 3f 60 bd
       0.052338783 -0.05094903 0.04092466 -0.054747913
0003d0 1a 59 42 3d a8 d1 7e 3c c7 8b 9c bd 71 d4 1c 3d
       0.047448255 0.015552916 -0.07643848 0.038288537
0003e0 ff 9f c4 3b 50 59 36 bd 3e 30 37 3d d4 8a 5b bc
       0.0060005183 -0.04451877 0.04472374 -0.013399798
0003f0 71 0e 2a 3d 00 7b f0 bc 75 a6 cb bd 71 be 1b bd
       0.04151768 -0.029355526 -0.099438585 -0.038023416

classfier.fc1.bias f4 [100]
000000 e0 b7 17 bd 75 48 86 bd 1f 98 b4 bd 9f 15 c6 3d
       -0.03704059 -0.06556789 -0.08818077 0.09672093
000010 f7 a6 b3 bd 4d 82 92 3d 92 3b 80 bd a4 a5 9b 3d
       -0.087720804 0.07153759 -0.06261362 0.07599953
000020 ad a4 c7 bc ae dd 88 3d 88 4d b9 3d 40 68 81 bc
       -0.024370516 0.06682907 0.09047991 -0.01579678
000030 02 12 01 bd 84 fd 83 bc 0a f1 ef bc e5 f6 6b 3d
       -0.031511314 -0.016112097 -0.029289741 0.057608504
000040 f9 77 d0 bc 28 9b bf 3d b8 d2 25 3d a9 b3 af bd
       -0.025447832 0.093557656 0.04048416 -0.08579189
000050 29 3b 70 bd 16 d1 b7 3d 98 c0 c6 3d 1f a0 d0 bc
       -0.05865017 0.08975427 0.09704703 -0.025466977
000060 30 32 e8 bc bb 1e 1a 3d bb c1 1f bd 6b 14 d4 bc
       -0.028344244 0.037626963 -0.039003115 -0.025888642
000070 d2 0b b0 3c 76 ad bd 3d 6c d2 4b bd 71 34 59 3d
       0.021490011 0.09261601 -0.04976122 0.053028528
000080 83 d9 6c bc c9 75 f0 bb 5e dc a8 bd 89 49 f4 bc
       -0.014456156 -0.00733826 -0.08245157 -0.02982022
000090 5c 4a 85 bd 59 23 29 3d b0 4a 1e 3d 1a 9a dd 3c
       -0.065083236 0.041293476 0.038645446 0.02705102
0000a0 52 cb 12 bd 5f a4 b6 bd f1 0b d4 bb 05 91 89 3d
       -0.035838433 -0.0891807 -0.00647115 0.067171134
0000b0 ba 9e ac bd 82 c1 46 3d 16 69 9c bb c8 68 1d 3d
       -0.08428712 0.048524387 -0.0047732694 0.038430005
0000c0 b3 bf b7 bd 2d 94 98 bd 6e 61 a3 3d fe ad a8 3d
       -0.089721106 -0.07450137 0.079775676 0.082363114
0000d0 bb 56 89 3d 12 6d c3 bd 98 2a 5c 3d 99 d6 0f 3b
       0.06705996 -0.09542288 0.053751558 0.0021947979
0000e0 76 cb ca bd f1 2e 2c bd ea 6d 4f 3d 50 ee c2 bc
       -0.09902088 -0.042036954 0.05064193 -0.023795277
0000f0 98 4a 34 3d f6 c5 45 bd 41 ba ac 3d 0a 58 af 3d
       0.04401645 -0.048284493 0.084339626 0.08561714
000100 a3 68 0e 3d a7 c8 be 3d 77 fb 68 3c c8 c0 88 bb
       0.034767758 0.09315615 0.01422011 -0.004173372
000110 3b d7 26 bd ac 44 36 3d 33 0d 0e 3d b6 f1 aa bd
       -0.040732604 0.044499084 0.034680557 -0.08346884
000120 f9 da a5 3d 8a d7 c7 3c b6 61 84 bd 40 20 06 3d
       0.08098406 0.02439477 -0.064639494 0.0327456
000130 92 3a 48 bc 7d 76 c3 3d ad d0 c7 3d 9f 6e 21 bc
       -0.0122209955 0.09544084 0.097565986 -0.009853034
000140 ca 8c c2 bc ff 22 0d bd ec b0 b9 3d 10 a9 c0 bd
       -0.023748774 -0.034457203 0.09066948 -0.09407246
000150 02 9d cb bd a4 0f b0 bc df 0e e1 bc 08 46 83 3d
       -0.09942056 -0.021491833 -0.027472911 0.06409842
000160 97 12 98 3d 2c d5 3f 3c 03 26 71 bd c0 7a 09 bc
       0.07425421 0.011708539 -0.05887414 -0.008391082
000170 9c a0 3c 3d be aa 91 bd 05 af 7f 3c 64 b8 da bb
       0.046051607 -0.071126446 0.015605693 -0.006674813
000180 4d d3 99 bd fc ca ba bc 9e da a4 3d 27 f1 2e bd
       -0.075110056 -0.022801869 0.080495104 -0.04271045

classfier.bn1.weight f4 [100]
000000 5a b5 82 3f c2 76 80 3f d1 fd 7e 3f 60 a3 83 3f
       1.0211594 1.0036242 0.99606043 1.0284233
000010 a0 5b 74 3f a5 81 81 3f de 00 79 3f 61 04 80 3f
       0.9545231 1.0117689 0.9726695 1.0001336
000020 1a 93 78 3f dd 29 83 3f 9a 6e 80 3f 0e 5f 80 3f
       0.9709946 1.0247151 1.0033753 1.0029008
000030 1d 2d 78 3f b2 cc 82 3f 21 6b 87 3f 11 52 84 3f
       0.9694384 1.0218718 1.0579568 1.0337545
000040 45 d4 7e 3f 59 7d 7b 3f 70 49 80 3f 40 65 7e 3f
       0.9954265 0.9823814 1.0022411 0.99373245
000050 5d 6e 85 3f 04 bd 82 3f 52 df 86 3f 19 9d 78 3f
       1.0424305 1.0213933 1.0536902 0.9711471
000060 36 d0 78 3f b3 fd 80 3f c3 bf 7a 3f f3 67 86 3f
       0.97192705 1.0077423 0.97948855 1.0500473
000070 4c 1f 79 3f f9 f4 73 3f 19 ff 83 3f c3 d9 83 3f
       0.9731338 0.95295674 1.0312225 1.0300831
000080 54 a9 7d 3f a6 9d 83 3f 64 d6 80 3f a8 99 84 3f
       0.990865 1.0282485 1.0065427 1.0359392
000090 7c b6 81 3f d2 3a 84 3f 6f 12 7a 3f a5 ae 7a 3f
       1.0133815 1.033045 0.9768438 0.97922736
0000a0 c7 46 82 3f d0 25 85 3f bf 74 79 3f 14 20 83 3f
       1.017785 1.0402164 0.97443765 1.0244164
0000b0 90 83 80 3f 8b 31 7f 3f 1d 16 7b 3f 7c 03 84 3f
       1.004015 0.9968497 0.9808062 1.0313563
0000c0 17 86 84 3f 25 78 7f 3f a3 68 85 3f 2c 3d 85 3f
       1.0353421 0.997927 1.0422558 1.0409293
0000d0 4f 34 7f 3f bc 0d 83 3f 3f c5 77 3f 27 51 7c 3f
       0.9968919 1.0238566 0.9678535 0.9856133
0000e0 c8 58 83 3f f1 88 77 3f a7 34 78 3f a0 1a 77 3f
       1.0261469 0.9669333 0.9695534 0.96525
0000f0 9a ae 7e 3f 77 15 82 3f 34 42 78 3f c9 33 7a 3f
       0.9948517 1.01628 0.9697602 0.9773527
000100 a1 41 7f 3f f4 3b 81 3f 6d 35 80 3f 9e ab 7f 3f
       0.99709517 1.0096421 1.0016304 0.9987124
000110 15 2a 77 3f 0e 7a 7e 3f 7e f8 85 3f dc 53 75 3f
       0.9654859 0.9940499 1.0466459 0.95831084
000120 de 45 7a 3f 13 05 86 3f bb c9 7d 3f 58 00 7a 3f
       0.9776286 1.0470299 0.9913594 0.97656775
000130 76 ec 76 3f 25 ac 82 3f fd 1b 76 3f 00 20 82 3f
       0.9645456 1.0208784 0.96136457 1.0166016
000140 c6 35 81 3f d8 92 75 3f 1a e0 7a 3f 22 20 79 3f
       1.0094535 0.9592719 0.979982 0.97314656
000150 87 89 76 3f 24 05 7f 3f 95 a2 7e 3f 5d 4f 78 3f
       0.963036 0.9961722 0.9946683 0.969961
000160 8e d7 83 3f 2b 44 87 3f 45 9f 7f 3f 6c 8c 74 3f
       1.0300157 1.0567678 0.998524 0.95526767
000170 6d 1a 83 3f 04 81 7b 3f 6b d5 83 3f 03 5a 86 3f
       1.024244 0.9824374 1.0299505 1.0496219
000180 8c 12 85 3f 10 9b 77 3f 0b 81 81 3f 70 60 80 3f
       1.0396285 0.9672098 1.0117506 1.002943

classfier.bn1.bias f4 [100]
000000 3b 6d a4 bc 8f d0 80 bc db ad df 3c a2 69 01 3d
       -0.020071616 -0.015724448 0.02730458 0.03159488
000010 34 a0 82 bc fe 39 8c bd 88 41 cc 3b a2 19 dc 3b
       -0.015945531 -0.06846999 0.006233398 0.006716923
000020 fd 2b 54 bd 99 68 33 3d 3e 1e a8 3c 31 e0 48 bd
       -0.051799763 0.043800924 0.020522233 -0.04904193
000030 79 54 e7 bc c6 bf 52 bd 6b fd 67 bc 8b 2e 2d bd
       -0.028238522 -0.05145242 -0.014159541 -0.042280715
000040 99 4d f1 bc a4 56 c0 bb 6e 27 e4 3b af 15 66 bd
       -0.029455947 -0.0058697034 0.006962708 -0.056173023
000050 6c 6f 69 bd 99 5f 06 3c f3 a0 04 bd d7 14 0d bd
       -0.056991026 0.008201503 -0.032380056 -0.034443703
000060 ce 04 0c bd b0 dd 3e bd 50 c9 8c bc 51 ce 14 3d
       -0.03418427 -0.046598136 -0.017185837 0.03632957
000070 86 cf 23 3b f8 b0 bb bc 34 4c c9 bd 67 08 89 bd
       0.002499552 -0.022911534 -0.09828988 -0.06691056
000080 97 33 0e bd 84 5e 9a bd 5b ef 6f bd 12 f3 b7 bd
       -0.03471717 -0.07537559 -0.058577877 -0.08981909
000090 75 1e 05 3c a1 d1 c4 bd 29 e4 84 ba 23 2e 6a bc
       0.008124937 -0.09610296 -0.0010138798 -0.014293226
0000a0 5d ab f2 3c a1 53 a3 bd bb 4a c3 bc a4 b6 85 bd
       0.029622728 -0.07974935 -0.023839345 -0.065289766
0000b0 3f 97 d4 bc 65 71 88 3c 8b f2 75 bc e2 5d be 3b
       -0.025951026 0.016655633 -0.01501144 0.0058095315
0000c0 43 8f 9d bd 12 3d e6 ba 40 83 6d 3b 09 98 47 bd
       -0.07693341 -0.0017565808 0.0036241561 -0.048728976
0000d0 6d 92 9d bd 0f d5 eb bd 40 f1 5c bd 51 7c 4f bd
       -0.07693944 -0.11515247 -0.05394101 -0.050655667
0000e0 bc 93 e3 3b 15 b8 78 bc ba c5 a6 bc 27 c3 be bc
       0.0069451015 -0.015180607 -0.020357955 -0.023286415
0000f0 1d f2 35 bd 72 e2 a8 bd ea 4e b0 bc 8a e4 a9 bd
       -0.04442035 -0.08246316 -0.021522004 -0.082955435
000100 31 ba 17 bd 15 56 3f 3c af a2 46 3b 05 f4 3f bd
       -0.0370428 0.011678238 0.003030937 -0.046863575
000110 b9 d7 25 bd 36 f6 af bc 23 c7 10 bd d3 1c 08 bd
       -0.040488932 -0.021479707 -0.03534616 -0.033230614
000120 f7 71 89 bd 1b 76 93 bd 6c c8 7d bc f7 0a bc bc
       -0.0671119 -0.07200261 -0.015489679 -0.022954447
000130 ed 0f 6a bc b8 c8 75 bd 9c 4f ef bc 9c 24 7d bd
       -0.014286024 -0.060005873 -0.029212765 -0.06180249
000140 b4 60 95 bd 35 09 26 bd 27 4e cc bc a3 40 f6 bc
       -0.07293835 -0.040536124 -0.02493961 -0.030060118
000150 c9 a1 6f 3c bf 22 ff ba dc 14 36 3d d1 d2 cb 3c
       0.014625975 -0.0019465311 0.044453487 0.024880799
000160 87 01 2a bd 81 d0 e9 3c dd 1c 66 bd cb 2e 26 bd
       -0.041505363 0.028541805 -0.05617987 -0.04057197
000170 26 f6 90 bd 23 a1 a0 3c 54 c0 b5 3a a2 d3 11 bd
       -0.07078199 0.019608086 0.0013866522 -0.03560222
000180 0e 65 3d bd 23 0e 18 bb 2e 2f 41 bd ed 32 ed bc
       -0.04623895 -0.0023201786 -0.047164135 -0.028954947

classfier.bn1.running_mean f4 [100]
000000 24 83 39 3d d9 13 7e bf 19 3d 82 3f 97 f3 80 3e
       0.04529108 -0.99249035 1.0174896 0.25185844
000010 e0 9b 89 3f 6b 7f 1a 3e 16 a6 d9 3f 71 89 84 bf
       1.0750694 0.15087669 1.700381 -1.0354444
000020 e1 4d 06 bf 92 8e c7 be 9a b2 de bf ba 96 cf 3c
       -0.52462584 -0.3897596 -1.7398255 0.025340427
000030 e6 5d 87 3f 2d 3c 93 3d 00 8a 3f bf 58 c6 4a be
       1.057553 0.07189212 -0.74819946 -0.19802225
000040 4d 44 04 40 d7 85 c5 3e 4c 0a 87 3f 96 b9 1f be
       2.0666687 0.38578674 1.0550017 -0.15598139
000050 91 64 cb be db fc 8b 3f fc 40 06 bf 13 64 75 3f
       -0.39725164 1.093654 -0.5244291 0.95855826
000060 26 71 bf 3f d0 c9 66 bd 2e 5f ed bc 71 b5 38 bf
       1.4956405 -0.056344807 -0.02897605 -0.7215186
000070 92 9a 87 3f 15 b6 ac bc d6 17 53 be fa 57 ac bd
       1.0594046 -0.021082917 -0.20614561 -0.08415218
000080 26 da 4c bf 02 fd 24 bd 64 83 ea bf 4a ac 8a be
       -0.8002037 -0.04028035 -1.8321347 -0.2708457
000090 b2 3c b4 bf 38 ff 59 3e 65 2f aa 3f 67 4f e3 be
       -1.4081023 0.21288764 1.3295714 -0.44396517
0000a0 1d 08 cc bf aa 2e 0d bf ba 98 94 3e 19 31 92 3d
       -1.5939976 -0.5514933 0.2902277 0.07138271
0000b0 ca 43 4f bf 56 3a 9b 3c f0 d1 a7 3f aa 2b d0 bd
       -0.8096281 0.018948715 1.3110943 -0.10164578
0000c0 71 e5 88 3e 64 c7 da bf 24 78 78 bf ec 0e 60 bd
       0.2673755 -1.7092099 -0.9705832 -0.05470173
0000d0 cb ef ca be 35 a1 d7 bd 64 21 05 be f0 37 63 bf
       -0.39636073 -0.10528795 -0.13001019 -0.8875723
0000e0 20 da cc 3f 74 d2 a0 3e f8 7d 89 3f 0a cc e7 3b
       1.6004066 0.31410563 1.0741568 0.007073884
0000f0 83 06 24 bf 8e 46 0b be e4 fd 49 bf 70 91 03 bf
       -0.64072436 -0.13601133 -0.7890303 -0.51393795
000100 75 a2 8a bf f7 60 ea be ac 50 04 bf ce 47 dd bd
       -1.0830828 -0.45777103 -0.51685596 -0.10804711
000110 29 85 bf 3e 88 d3 c1 bd 12 26 6f be 15 2c 95 3f
       0.3740628 -0.094641745 -0.23354366 1.1654078
000120 9b 34 57 be 8b 58 3f be 16 c5 0b c0 40 12 7e bf
       -0.21016161 -0.1868612 -2.1839042 -0.992466
000130 2b a2 44 3f 3f f1 a3 bd 6c e5 bb 3f dc 6e b0 3b
       0.7680995 -0.080049984 1.4679389 0.005384309
000140 93 da 28 bd e4 10 90 3f 94 f4 8c 3f d2 de 14 bf
       -0.041224074 1.1255155 1.1012139 -0.58152497
000150 23 78 a7 3f 62 ef 83 3f 06 27 6d 3f 84 be 3a 3f
       1.3083538 1.0307429 0.9263767 0.72946954
000160 c9 60 44 3e 3e 4d ff bf 48 14 4f 3e e8 44 cd bf
       0.19177546 -1.9945447 0.2022258 -1.6036654
000170 c6 a8 af 3e f4 23 1e bf 90 45 19 bd 56 53 fd be
       0.3430845 -0.6177361 -0.037419856 -0.49477643
000180 74 5e 85 bf 72 79 e8 3f bf 40 27 3e 27 ce e1 3c
       -1.041945 1.8162062 0.16333292 0.027564121

classfier.bn1.running_var f4 [100]
000000 d2 28 69 3d 06 c6 db 3e 07 da 28 3f 0a 38 7a 3d
       0.056923695 0.42924517 0.65957683 0.0610886
000010 82 c9 74 3e 29 31 c1 3d 3f 18 67 3f 74 39 c5 3d
       0.23904994 0.09433205 0.9027137 0.09630099
000020 df 31 29 3e 3b 93 14 3e db 5d 6b 3e 21 4e 8e 3d
       0.1652293 0.14509289 0.22985022 0.06948496
000030 60 49 02 3f e5 0c b9 3d da 75 dd 3d b5 51 20 3e
       0.5089321 0.090356626 0.10813494 0.15656169
000040 62 a2 da 3f fa 16 1e 3e c8 5b 29 3e 60 4f b6 3d
       1.7080805 0.15438452 0.16538918 0.08901858
000050 52 1b 65 3d a6 83 1d 3e ec fb 24 3e 39 26 41 3e
       0.055934258 0.15382251 0.16111726 0.18862237
000060 1c 5a 99 3e c4 cf c7 3d cc 6e 56 3e ad e2 ab 3d
       0.2995156 0.09756425 0.20940703 0.08392844
000070 8b d6 23 3f 0a 16 22 3e c4 da 58 3d dc 0d e7 3d
       0.6399924 0.1582872 0.052943006 0.1128194
000080 8f af c1 3d e8 9b 89 3d 96 5f cb 3e 87 0e 44 3d
       0.09457313 0.0671919 0.39721364 0.047865417
000090 c5 99 a7 3e e4 ec 94 3d c8 c3 ac 3e 08 19 6e 3d
       0.32734504 0.07271746 0.3374312 0.05812934
0000a0 83 d8 48 3f 2b a1 23 3d 85 29 3e 3e 2c bd 9e 3d
       0.7845537 0.039948624 0.18570526 0.077509254
0000b0 d9 26 b3 3e 08 59 30 3e a2 ae e5 3d f8 ae 8f 3d
       0.34990576 0.17221463 0.11214949 0.070157945
0000c0 07 0b 26 3d a4 f0 26 3f 5b 27 67 3e 61 e0 b7 3d
       0.04053786 0.6521094 0.22573607 0.08978344
0000d0 8d a1 bf 3d ab e7 7c 3d df a9 13 3e 4d 0a 95 3e
       0.09356985 0.061744373 0.1442027 0.2910942
0000e0 a8 63 55 3e 56 c6 6a 3d f9 d1 89 3f 25 06 a5 3d
       0.20838797 0.057318054 1.0767204 0.080578126
0000f0 78 95 e0 3d cb 1a 2e 3d 5d b5 c9 3d fa 68 dd 3d
       0.10966009 0.04250602 0.098490454 0.10811038
000100 68 cf d6 3d 9e de 47 3e e5 41 21 3e eb 25 db 3d
       0.10488778 0.19518515 0.15747793 0.10700592
000110 6e e4 29 3e 19 cd 68 3d c1 5d 71 3d bc e9 42 3e
       0.16591045 0.05683622 0.0589273 0.19034475
000120 5b 3b f2 3d b1 79 6a 3d 68 1b f5 3e 5e 7c fc 3d
       0.118277274 0.05724496 0.47872472 0.12328409
000130 f4 50 43 3e 92 1b 08 3e e3 43 2c 3f b5 ef 79 3d
       0.1907385 0.13291767 0.67291087 0.061019618
000140 4e da ac 3d bf 59 8a 3e ab f7 f2 3e 4d 79 5d 3d
       0.08440076 0.27021596 0.4745458 0.05407076
000150 21 9b 04 3e e0 b4 0e 3e e1 29 8d 3e 58 a2 1f 3e
       0.12949802 0.13936186 0.27571014 0.15589273
000160 0e db 0b 3d db 15 e4 3e 0e 0c ed 3d 0e f9 a2 3e
       0.034144454 0.44547924 0.11574565 0.3183064
000170 14 f3 28 3d 09 d3 d1 3e ba 77 da 3d 54 78 a4 3d
       0.041247442 0.4098132 0.10667367 0.08030763
000180 15 2b 9f 3e fb 60 6d 3e 6f fe 95 3d 8a d1 a6 3d
       0.31087556 0.23181526 0.0732392 0.08145435

classfier.fc2.weight f4 [50, 100]
000000 5a d0 a4 3d 19 66 a8 bd cc 08 c4 bb 59 4a 89 3d
       0.080475524 -0.082225986 -0.005982494 0.06703634
000010 92 1e 9a 3c e0 fd cf bc 4f 5f 46 bc 29 c6 59 3d
       0.018813405 -0.025389612 -0.012107684 0.053167496
000020 d8 7e b9 3d a4 53 3b bc 86 1f 65 3a 81 53 96 3b
       0.09057397 -0.011433516 0.0008740354 0.004587591
000030 c3 c7 ec bb eb 9b b4 3d cb 95 76 bb f9 29 1f bd
       -0.007225962 0.088188015 -0.0037625905 -0.038858388
000040 c2 43 2a 3c 0a 7f bc 3c 42 01 27 3b a7 f6 49 3d
       0.010392131 0.023009796 0.0025482927 0.04930749
000050 21 db 46 3d 95 31 a1 bd 50 db 2a bd 94 78 2a 3c
       0.04854882 -0.07870785 -0.04171306 0.010404725
000060 e4 20 90 bd 5d bf de 3d 95 c8 ca 3d a9 6e 96 3d
       -0.070375234 0.108763434 0.09901539 0.073453255
000070 01 de ab 3d ea 62 83 3d f4 c5 27 3e 5e 07 8f 3d
       0.08391953 0.06415351 0.16384107 0.06983827
000080 2c 8e ef bc 9a 06 bf 3d fb a4 a5 3d 78 21 7f b8
       -0.029242598 0.09327431 0.08088108 -6.0827908e-05
000090 73 99 64 bd 5b b9 2d 3d 27 70 81 bb c1 5d 00 bd
       -0.055810403 0.042413097 -0.003950137 -0.03133941
0000a0 eb 89 5a 3d 25 44 fc 3d 91 9c e8 3c 7a cf e1 3b
       0.053354185 0.12317685 0.02839497 0.006891188
0000b0 8d 9c eb 3d ca 7b ad 3d 2c 50 52 bd b5 d6 76 bd
       0.11504469 0.084708765 -0.05134599 -0.060263354
0000c0 d2 8c e3 3d af 02 3f 3d 6a 02 02 be d9 49 37 3d
       0.11110844 0.04663342 -0.12696233 0.04474816
0000d0 73 d6 91 3d 0f b1 a6 3d d9 2c b7 3d b8 b9 a2 3d
       0.07120981 0.0813924 0.08944101 0.07945579
0000e0 78 3c af 39 9a 67 27 bd c1 46 75 bd 12 51 02 3d
       0.00033423654 -0.040870287 -0.05988193 0.031815596
0000f0 e2 27 d6 3d eb c6 36 bc 06 1d bf 3c c7 68 ee bc
       0.10456826 -0.011155824 0.02332927 -0.029102696
000100 64 b8 56 3b 82 fd d3 3b d9 9e 1d bc 3b e1 a2 3c
       0.0032763714 0.0064694295 -0.009620392 0.019882789
000110 73 10 9e 3a 26 b7 61 bd c3 60 b8 3d 0a ae b1 3c
       0.0012059346 -0.055106305 0.09002831 0.021689434
000120 ad 2e d6 3c 83 a6 a1 bc 5f 93 ba 3c 5a 04 06 bd
       0.026145304 -0.01973272 0.02277535 -0.032718994
000130 17 48 72 bd c8 b7 6b 3d a0 0f 27 3d 47 bb e7 bc
       -0.05915078 0.057548314 0.040786386 -0.028287543
000140 e1 d7 8e 3c 60 a2 9c bd 72 96 8c bb 9c a3 c4 3c
       0.017436923 -0.07648158 -0.0042903954 0.024003796
000150 8d c2 b8 bc 2c f9 ce bc 91 7d a2 bc 6f e2 f8 3c
       -0.022553707 -0.025265299 -0.019835265 0.03038141
000160 a1 d2 90 3d ac 0a 3e bc 77 51 8d 3d f3 7e b4 bd
       0.07071424 -0.011599224 0.06900304 -0.08813276
000170 c0 a0 c3 ba e2 e4 c6 3b e4 24 b7 3d eb f5 a9 3d
       -0.0014925227 0.0060697654 0.08942583 0.08298858
000180 55 0a 23 bd 21 6a a2 3d 91 94 78 3d 06 79 98 3d
       -0.039804775 0.07930399 0.06068856 0.074449584
000190 07 b0 c4 3c 48 8e 60 bb 8d 2a 09 bd e6 45 ce bc
       0.024009718 -0.0034264494 -0.033487845 -0.025179815
0001a0 a3 98 28 bd 58 2b bc 3d 2f 99 32 bc 8d 09 69 bd
       -0.04116119 0.09187955 -0.01090078 -0.056893874
0001b0 75 93 b0 3c 40 44 f8 bd 8a 1d 0f 3d 68 10 41 3d
       0.021554688 -0.12122393 0.03494028 0.047134787
0001c0 66 dc 8b bd c6 ab a7 bc cb aa bf 3d ac 89 c9 3d
       -0.06829147 -0.02046765 0.09358748 0.09840712
0001d0 1f 34 d1 bc fc 24 75 bd 83 22 00 3d 17 a0 92 3d
       -0.025537549 -0.059849724 0.031282913 0.07159441
0001e0 29 c8 7e 3c b2 bd ba 3c 3b 0d e0 bc d4 1e 8e bd
       0.015550652 0.022795532 -0.027350059 -0.06939474
0001f0 1d f6 bf 3c 17 3b 7c 3d ed b2 74 3d 71 0f 0b 3d
       0.023432786 0.06157979 0.05974095 0.033950273
000200 6d 95 9d 3a 1b d4 4a 3a 5f 04 0b 3e 9e ff 84 3d
       0.0012022682 0.00077372947 0.13575886 0.064940676
000210 19 77 e7 bc e9 bf ed 3d 64 2e 53 3d 61 a8 74 3c
       -0.028255032 0.116088696 0.051557913 0.014932723
000220 2b 14 95 bd ab fb 03 3e b4 b2 52 bb 10 68 14 bd
       -0.07279237 0.12888972 -0.0032149972 -0.036232054
000230 c2 46 35 3c 12 3d 0b 3e a0 73 50 3d f7 90 d9 3a
       0.011064233 0.13597515 0.05089152 0.0016598989
000240 f1 41 72 3d 31 63 79 3a bb 4f 87 bc b3 48 d9 bd
       0.059144918 0.0009513377 -0.01651751 -0.106095694
000250 6b 9c fe 3d 41 d7 ae bd 0c d8 6f bd 62 98 d7 3d
       0.12432178 -0.0853715 -0.058555648 0.105271116
000260 cc 27 ae 3d 3f 06 10 bd 01 ae 49 bd c2 89 77 3d
       0.085036844 -0.035162207 -0.04923821 0.06043411
000270 3c 24 88 bd ea 52 5f bd d7 9e b9 3d e2 83 01 bd
       -0.06647536 -0.054522432 0.090634994 -0.031619914
000280 0b d8 0c bd 2e 16 56 3c ae b3 e4 3c 7d 62 61 3d
       -0.034385722 0.0130668115 0.02791771 0.055025566
000290 f7 6e 8d bc bd d8 59 bd ef 50 d8 3a 6c 2c c0 3d
       -0.017264826 -0.053185213 0.0016503612 0.09383473
0002a0 f8 e3 8a 3d 56 e6 17 3d c3 80 92 3d 01 5e 57 bc
       0.06781763 0.0370849 0.071534656 -0.013144971
0002b0 f5 c6 91 3d 5e ed 5a 3d 71 2c 97 3c 0b 42 b4 bd
       0.07118026 0.053449027 0.018453809 -0.08801659
0002c0 5b 17 0a bd d4 13 4c 3d 1e de 71 bd f5 67 3e 3c
       -0.03371368 0.049823597 -0.059049718 0.011621465
0002d0 45 b9 27 bc 3b e7 a9 3d 7c 9b 7e 3d 82 10 45 3d
       -0.010237043 0.08296057 0.06216 0.048111446
0002e0 8b 42 4d bd c1 b2 b3 bc 1f 5d 22 3d b9 1e 55 bd
       -0.05011229 -0.021935822 0.03963959 -0.052031253
0002f0 b7 a3 b1 3c 51 8c 53 3d 02 8c cd 3d 90 7a 80 bc
       0.02168451 0.051647488 0.1003647 -0.015683442
000300 fa 46 e6 3d 03 f7 8d 3d 80 fb 43 bb 0e 6a f6 3c
       0.112440065 0.06931879 -0.0029904544 0.030079868
000310 11 28 db 3d 46 b5 e1 bc 15 48 49 3d aa 1c da 3d
       0.107010014 -0.027552258 0.04914101 0.106499985
000320 17 47 63 bd 04 fb 2f bd 56 2e 26 bd fb 18 3d 3d
       -0.05548772 -0.042963997 -0.040571533 0.0461664
000330 0b 6d a9 bd a4 e7 7f bd fd 42 2b bc 10 52 15 3e
       -0.082727514 -0.06247677 -0.010452983 0.14582086
000340 a4 6f 38 bd 9e 90 01 3d 96 e0 f7 3d 8e 16 3f 3d
       -0.045028344 0.03163206 0.12103383 0.04665237
000350 9a 78 99 3d 44 93 f8 3c b2 31 ca bd aa 5e 9b 3d
       0.07493706 0.03034366 -0.0987276 0.07586415
000360 67 5d a6 bd 2a f1 b4 bd 7a 9d 8a 3d b9 fb ad 3b
       -0.08123284 -0.08835061 0.067683175 0.0053095487
000370 c5 78 29 bc 7e 5f 90 bc 95 87 f2 bc 57 65 24 bd
       -0.010343735 -0.01762366 -0.029605666 -0.040135708
000380 54 6f ad bd 61 d6 2d bd eb f1 48 bc 25 04 a4 3d
       -0.084685 -0.042440776 -0.012264709 0.08008603
000390 f8 81 76 bd 5b 6f 1f bd 0d e4 15 3d 14 85 e4 bd
       -0.06018254 -0.038924556 0.03659444 -0.11158195
0003a0 6d b5 99 3c 40 27 3e bd 63 9b 81 3d f3 71 92 bd
       0.018763268 -0.04642415 0.06328466 -0.0715064
0003b0 9a 25 e0 3d 5c 70 cf 3c 01 90 d1 bc e8 cd 9d 3d
       0.10944672 0.025322132 -0.025581362 0.07705289
0003c0 52 c8 96 3d 98 b5 2a 3d 5d d6 9e bd 3e 15 5a bc
       0.07362427 0.041677088 -0.0775573 -0.013310729
0003d0 ed 15 06 3a f9 61 d5 bd c5 44 b8 3c b0 c7 b3 3d
       0.00051149615 -0.104190774 0.02249373 0.08778322
0003e0 f2 3f 0b 3d e6 b1 df 3d 0f b9 bc 3d de 29 ab bd
       0.03399653 0.10922603 0.092149846 -0.08357595
0003f0 1a 29 8e bc e7 fb 15 3d e3 27 15 bd 12 e7 cd bb
       -0.017353583 0.036617186 -0.036414992 -0.0062836492

classfier.fc2.bias f4 [50]
000000 ec 17 03 bb 66 b6 a6 3d ba 68 68 3d 1b 5a 2c 3d
       -0.0020003272 0.081402585 0.0567405 0.04207812
000010 18 e7 10 bc 6a 81 1f 3d 2f a3 ae bd 22 98 6d bd
       -0.00884416 0.03894178 -0.085272186 -0.058006413
000020 c9 45 1d 3c c8 6a b2 bc 6f d8 bf bb 2a c2 c3 3d
       0.009599158 -0.021779433 -0.0058546583 0.09558518
000030 c6 af 39 bc 50 bc 82 bd 9f a0 b9 3d 5e 5d 52 3c
       -0.011333412 -0.06383574 0.09063839 0.012839643
000040 57 ed 66 3d 7d 80 5e bd 34 ea 5e bd cc 59 a7 bd
       0.05637869 -0.054321755 -0.054422572 -0.08171424
000050 01 9d ab 3d 62 90 53 bc 1a 49 f6 ba 9a e0 aa 3d
       0.083795555 -0.0129128415 -0.0018790097 0.083436206
000060 fd 9a 8d 3d 21 51 c7 3d a8 df a3 3d f4 5f b0 bd
       0.06914327 0.09732271 0.080016434 -0.086120516
000070 84 7b f5 bb 01 de c8 bd a5 3c ba bd eb 17 63 bd
       -0.007491531 -0.09807969 -0.09093598 -0.05544273
000080 1e f0 37 bd 3e 70 6e bd 2c 06 df bc 58 e1 2d 3c
       -0.044906728 -0.05821251 -0.027224623 0.010612808
000090 a2 b4 f2 bc e3 ea 25 3d c8 2f f1 3b 12 77 ff 3a
       -0.029627148 0.04050721 0.0073604323 0.0019490442
0000a0 eb fb 31 3c 14 25 a1 bd 62 13 28 3c 4c 9a 99 bc
       0.010863285 -0.078684 0.0102585275 -0.018750332
0000b0 87 fd 4f 3d c6 a2 0c 3d e0 20 a5 3d c4 1c be 3c
       0.050778892 0.03433492 0.08062911 0.023207076
0000c0 f7 7f 14 3d c6 36 9b bd
       0.03625485 -0.075788066

classfier.bn2.weight f4 [50]
000000 a3 fd 81 3f a3 48 87 3f 4c cd 82 3f 82 b2 6e 3f
       1.0155529 1.0569042 1.0218902 0.9324113
000010 6b a3 88 3f 5e db 77 3f d4 02 77 3f f3 cf 80 3f
       1.0674871 0.968191 0.9648869 1.0063461
000020 3f a5 80 3f b2 fb 79 3f c9 3c 77 3f 22 c8 7a 3f
       1.0050429 0.9764968 0.96577126 0.9796163
000030 ed 07 81 3f 7c 61 82 3f 0e 39 7e 3f 7b db 73 3f
       1.0080544 1.0186 0.9930581 0.95256776
000040 da 45 7f 3f 76 66 73 3f f7 e3 6f 3f 56 19 82 3f
       0.9971596 0.9507822 0.9370722 1.0163982
000050 df 49 80 3f ad a7 6e 3f b3 a6 74 3f d0 56 80 3f
       1.0022544 0.932246 0.9556686 1.0026493
000060 ec 53 85 3f 7b 4f 8a 3f 5a 3f 73 3f e5 94 75 3f
       1.0416236 1.0805506 0.9501854 0.9593032
000070 44 14 74 3f ec b4 88 3f 83 0f 89 3f 93 ff 7d 3f
       0.9534342 1.0680213 1.0707859 0.992181
000080 fe 66 87 3f f4 fa 80 3f bd 7b 80 3f 65 be 87 3f
       1.0578306 1.0076585 1.0037762 1.0604979
000090 0e 5b 84 3f 12 c7 73 3f 7e 48 7d 3f b4 97 78 3f
       1.0340288 0.9522563 0.9893874 0.9710648
0000a0 d2 4b 7f 3f f9 52 76 3f 4c b2 70 3f 7a f6 82 3f
       0.9972507 0.96220356 0.9402206 1.0231469
0000b0 92 70 82 3f 98 f6 87 3f 48 60 7c 3f 24 5b 76 3f
       1.0190604 1.062213 0.98584414 0.9623282
0000c0 a8 59 82 3f e9 ff 80 3f
       1.0183611 1.0078098

classfier.bn2.bias f4 [50]
000000 20 6e 72 bd 10 0d 61 bd 9a 1f e9 3c 15 22 0d bd
       -0.059187055 -0.054944098 0.028457452 -0.03445633
000010 25 4a 54 3d 9a fb 20 bd 07 81 94 bd 12 9e 45 bd
       0.051828522 -0.039302446 -0.072511725 -0.04824645
000020 7a 1c 05 bd e6 d4 d3 3c 3a c2 1f bd 44 51 43 bd
       -0.03249786 0.025858354 -0.03900359 -0.047684923
000030 dd 99 bb 3c 04 da 6a 3d 50 eb cc bc 72 ec 9a bc
       0.022900516 0.057336822 -0.02501455 -0.018911574
000040 92 bf 1b 3d 62 96 23 bd fa 15 3c bd 54 52 42 bd
       0.038024493 -0.039938338 -0.045919396 -0.047441795
000050 07 98 28 3d 17 20 5d bd 9e a9 be 3b 19 37 1c bd
       0.04116061 -0.05398568 0.00581856 -0.038138483
000060 ad 9e 8c 3d 6f 8f 20 3d 47 43 85 bd 6f 6f ef bc
       0.068662025 0.03919929 -0.06506973 -0.02922794
000070 4b ed fb bc 26 35 26 3d 48 c6 3c bd 65 af f0 3c
       -0.030752799 0.04057803 -0.046087533 0.02938051
000080 b3 55 0e bd c7 d8 83 bd 5d 20 5f 3c 0c 5a 15 bd
       -0.034749698 -0.06437831 0.013618556 -0.03646283
000090 51 b9 1d 3d 8c 52 2c bd 3c 67 ff bb 72 76 fe bb
       0.03850681 -0.04207091 -0.007794289 -0.0077655846
0000a0 2d b6 ed 3c fd cf 1f bd 1b 6a 50 bd 62 5b 8f bd
       0.029017532 -0.039016712 -0.05088244 -0.06999852
0000b0 8e 86 41 3d bd bc f7 bb fa d5 a2 bd e2 07 d1 bc
       0.047247462 -0.007560341 -0.07950969 -0.025516454
0000c0 4e ed 96 3c 7c 54 45 3d
       0.018423703 0.048176274

classfier.bn2.running_mean f4 [50]
000000 38 24 26 3f 8a b9 23 3f cf 26 83 3d 92 fa 0a 3e
       0.64899015 0.63954985 0.064038865 0.13572147
000010 9c 8b 2f be 7f c4 b5 3e b5 13 e0 3e 6c cb 36 3e
       -0.171431 0.35501477 0.43765035 0.17851037
000020 70 89 13 3f be 57 32 bf 67 c3 d6 3d 87 06 27 3f
       0.5763159 -0.69665134 0.10486489 0.65244335
000030 d2 ea 30 bf 7d 7c 13 bf ee db a8 3d 19 9a 37 be
       -0.6910831 -0.5761183 0.08245073 -0.17929877
000040 2a 7c f8 bd 00 8e d5 be 61 68 88 be f5 76 3d 3f
       -0.121330574 -0.417099 -0.26642135 0.7400964
000050 02 1a ad be 19 29 e1 be e6 ce 4f be ff c4 27 3f
       -0.33808905 -0.43976668 -0.20293769 0.6553497
000060 74 a1 4b bf 3a ae cb bd 63 76 23 3f 0e ab fa bd
       -0.7954323 -0.099453405 0.6385252 -0.12239657
000070 30 d4 a4 bd 0a 34 ce be 52 8e 16 3f 0d 98 1d bf
       -0.08048284 -0.40274078 0.58810914 -0.61560136
000080 fa e7 2a 3f ef 1c 39 3f 4d ee a9 be 9f c9 2a 3f
       0.6676022 0.72309774 -0.33189622 0.667139
000090 0b 7f 0d bf d1 99 42 be 88 dd a5 be 31 a7 03 3f
       -0.5527198 -0.19003989 -0.32395577 0.5142699
0000a0 5d f0 c6 be d4 f6 fe bd 3b 40 e7 be a0 e4 d1 3e
       -0.38855258 -0.124494225 -0.4516619 0.4099474
0000b0 13 02 45 be 34 e9 35 3f d7 78 27 3f 75 7c a7 be
       -0.19239073 0.71058965 0.6541876 -0.3271214
0000c0 4f ef dd be b8 4f 4b bf
       -0.4334664 -0.79418516

classfier.bn2.running_var f4 [50]
000000 c3 83 a6 3e 9d 20 d6 3e 1e 2f 16 3f e7 76 40 3e
       0.325224 0.41821757 0.58665645 0.18795358
000010 76 c1 ac 3e 3c dc 90 3e 4d 75 82 3e c8 88 5e 3e
       0.3374135 0.28293025 0.25480118 0.21731865
000020 98 ce a3 3e 1f d6 93 3e 1c 7e b3 3e eb 13 b6 3e
       0.31993556 0.288743 0.3505715 0.3556207
000030 e5 76 8c 3e 2c dc ae 3e 5b 4a d0 3e 0b 1b ac 3e
       0.2743446 0.34152353 0.4068173 0.33614382
000040 21 c2 d8 3e b5 5d 60 3e e8 98 44 3e 10 95 f9 3e
       0.4233561 0.21910746 0.19198954 0.48746538
000050 ab d7 c6 3e 41 15 99 3e 31 4c 43 3e 99 a1 94 3e
       0.38836417 0.29899028 0.19072033 0.2902954
000060 3f af f0 3e f3 7b dd 3e 25 c6 71 3e 89 93 77 3e
       0.47008702 0.43258628 0.23610742 0.24177374
000070 9c b6 7f 3e a7 3d a7 3e b8 87 d8 3e fa e2 97 3e
       0.24972004 0.32664225 0.42291045 0.29665357
000080 42 de 04 3f b3 ee b8 3e 67 14 be 3e 74 76 cc 3e
       0.5190164 0.36119613 0.3712494 0.39934123
000090 4b 5c 98 3e 2b db 7f 3e 62 5c b0 3e b6 d9 8d 3e
       0.29757914 0.2498595 0.34445482 0.27705163
0000a0 ba e7 c3 3e af 3f 80 3e 93 b2 77 3e fb be 80 3e
       0.3826273 0.25048587 0.24189214 0.25145707
0000b0 47 cd 0e 3f 65 b7 bd 3e 59 44 80 3e 4a cc 55 3e
       0.5578198 0.3705398 0.25052145 0.20878711
0000c0 bc 73 b3 3e 37 97 a1 3e
       0.35049236 0.3156068

classfier.fc3.weight f4 [25, 50]
000000 6e 49 b3 3d 00 8b 9c 3d b2 07 da bc ec 97 9b 3d
       0.0875424 0.076437 -0.026614998 0.07597336
000010 cc c0 67 3d 8b 50 ce bc 36 92 be 3d 24 f1 03 3e
       0.05658035 -0.02518489 0.09305231 0.12884957
000020 fc 39 8a 3c c0 2e ad 3c da 20 41 3d 65 97 0d 3e
       0.016873352 0.021140456 0.04715047 0.13827284
000030 78 15 54 bd be 32 0f be 6b 9e 99 3d 9d ad b2 bc
       -0.051778287 -0.139842 0.07500919 -0.0218113
000040 4a 02 f8 3a 30 5c ba bd b9 0e e4 3c 18 97 3e 3e
       0.0018921581 -0.090996146 0.027839052 0.18612325
000050 47 02 03 bd 66 02 50 3d b5 9c a3 3c 3d a0 85 3d
       -0.031984594 0.050783537 0.019972185 0.06524704
000060 90 c8 71 bc c8 f7 d2 3c c7 d0 07 3d 47 34 cc 3c
       -0.0147572905 0.025752917 0.03315809 0.024927272
000070 53 10 b3 bb 93 72 73 3d 39 0f 2e 3e 07 70 be bd
       -0.0054645925 0.05943544 0.16997994 -0.09298711
000080 c0 0c 71 3d da 68 f1 3d 09 35 47 3d 85 23 34 3e
       0.05885005 0.11787577 0.048634563 0.17591675
000090 cd 36 c8 bb f2 c3 d1 3d 56 92 71 bc 77 9e 32 bd
       -0.0061100484 0.10242452 -0.014744362 -0.043608155
0000a0 eb 8d 87 bd 88 8e 24 3d dc 7b 14 3d 0b 88 4f 3e
       -0.066188656 0.04017499 0.036250934 0.2026674
0000b0 20 95 1c bd 3a 0d db 3d c4 69 a7 bb e7 02 61 3d
       -0.038228154 0.10695882 -0.005109044 0.05493441
0000c0 10 ef 7c bd 5b 7f b3 3c a9 e0 df bc 19 cc 99 bd
       -0.061751425 0.021911314 -0.027328806 -0.07509632
0000d0 e3 5d 93 bd c9 80 22 bd dc a1 40 3e 4a ec 8c bd
       -0.07195642 -0.0396736 0.18811744 -0.06881006
0000e0 c7 eb 1f bd ec 12 64 3c b1 41 cd 3c 31 14 ad 3c
       -0.039043214 0.013920527 0.025055738 0.021127792
0000f0 15 25 10 be 04 fb 26 3d 10 29 1e 3d bb 85 0d bd
       -0.14076646 0.04076673 0.03861338 -0.034551363
000100 46 35 51 3d 67 28 39 3d 47 68 cb 3d 76 0e 6c bb
       0.051076196 0.045204546 0.09931999 -0.0036019362
000110 7e 61 8d 3d 02 49 dc bd e5 63 9e bc df 5f d5 3a
       0.06903361 -0.10756113 -0.019334743 0.0016279182
000120 e8 5e 04 bc 8f 77 9e bd 13 7e 10 3e a5 69 16 bd
       -0.008079268 -0.07737648 0.14110593 -0.036721844
000130 90 a7 0d bd f4 39 44 3d 95 ce ab 3d 8a 5c b9 3d
       -0.03458363 0.04790683 0.08389012 0.090508536
000140 d6 9a 9a bc 32 95 29 be 0c f8 ce 3c c5 0d 83 bd
       -0.01887266 -0.1656082 0.025264762 -0.06399111
000150 13 51 90 bb dd 49 bf bd 3c f3 15 be 51 e8 ac 3c
       -0.004404196 -0.0934026 -0.14643568 0.02110687
000160 9c 53 f4 3d 1b d2 52 3d 0d c2 32 3d ce b2 cb 3c
       0.1193001 0.051469903 0.043642092 0.024865534
000170 58 9a 61 bd 2e f8 cf bd 04 f1 9a bd b3 97 2e bd
       -0.055078834 -0.101547584 -0.07565501 -0.04262514
000180 07 91 ab bc 2d 37 0f be 5e 6c a6 3d af 84 51 be
       -0.020943178 -0.13985892 0.08126138 -0.20460771
000190 30 ce cb bc ee 77 52 bd 8d 41 e9 3d 16 19 6c 3d
       -0.024878591 -0.051383905 0.11389456 0.05764111
0001a0 e5 bd c6 bd fb 8c a2 bc 48 cd 02 be e3 5e 08 be
       -0.09704188 -0.019842615 -0.12773621 -0.13317446
0001b0 45 60 c6 bd 7f 67 d9 3d cd bc 2c 3c d4 92 23 be
       -0.09686331 0.106154434 0.0105430605 -0.15973979
0001c0 b3 0f c7 3d 54 6a 1b be 87 e9 4d bd 0a 47 b4 3d
       0.09719791 -0.1517728 -0.050271537 0.08802612
0001d0 de 34 1b 3c 86 a4 cc bd 4e 66 57 3d f2 9c 46 bd
       0.009473054 -0.09992318 0.0525878 -0.04848952
0001e0 e9 19 fd 3c a1 7f 9b bd 7b 02 e8 3c 30 54 82 3d
       0.030896144 -0.07592703 0.028321495 0.06363714
0001f0 f4 04 b0 3c b3 1c 47 bd 87 e2 dd bd b2 fa 6b bd
       0.021486737 -0.048611354 -0.10834222 -0.05761213
000200 fb a0 be bd c0 fb 56 be 5e 0a ba bd a3 bb 02 3e
       -0.09308048 -0.20994473 -0.09084009 0.1276689
000210 a4 5f d2 bc b4 b5 c9 3c 3d 5b ba 3d 94 c5 9a bd
       -0.02568037 0.024622776 0.090994336 -0.07557216
000220 e5 ce 11 bc 5c ce ac bd e6 61 e6 3d 19 2f 68 3c
       -0.008899425 -0.084377974 0.112491414 0.014171385
000230 e2 56 0f be 8a 60 b7 3d ff ed 39 bd c0 02 4e 3c
       -0.13997987 0.0895396 -0.045392986 0.012573898
000240 a7 a3 08 be 0a f9 d8 bd a0 8d 53 bd ab fb 59 bd
       -0.13343678 -0.105943754 -0.051648736 -0.053218525
000250 03 c6 5e be 68 d7 b0 3d 6d aa 28 3c 73 96 f2 bd
       -0.21755223 0.086348355 0.010294539 -0.11845102
000260 4a 06 c6 bb b5 56 3a bb 76 15 0a 3e c8 11 46 3d
       -0.00604323 -0.002843303 0.13484749 0.0483568
000270 77 54 2d bd fb ef bb bd aa 04 dc bd 44 21 ba b9
       -0.04231688 -0.09176632 -0.10743077 -0.0003550147
000280 e0 25 7c 3d a5 a3 03 be bb c7 19 bd e6 04 cc bd
       0.061559558 -0.12855394 -0.037543993 -0.09961872
000290 57 70 0d be 6b 40 fb bd a5 d0 37 be eb 24 af 3d
       -0.13812385 -0.12268146 -0.17950685 0.085519634
0002a0 d4 6b 73 3c 6e b7 31 bd 3f 0c c3 3d 0b c2 a6 bd
       0.014857251 -0.043387823 0.0952382 -0.081424795
0002b0 17 04 44 bd 00 77 a9 bc aa 8c ae bd cc 04 c7 bd
       -0.047855463 -0.020686626 -0.08522923 -0.09717712
0002c0 b9 12 38 bd d8 2b 96 3d b3 23 22 be 5c 14 43 be
       -0.04493973 0.07332581 -0.1583393 -0.19050735
0002d0 ee 0f 79 bd 92 4c e2 3d 10 08 da 3c 9e eb ce bd
       -0.060806207 0.11049761 0.026615173 -0.10103534
0002e0 17 a9 a8 3d 0b c7 86 bd b3 ef e3 3d 45 d0 6f bd
       0.08235376 -0.06580933 0.111297034 -0.05854823
0002f0 b6 8d cd 3d bf 86 00 3d 72 7b de bd eb 8e 81 3d
       0.10036795 0.031378504 -0.10863389 0.063260876
000300 8c b6 17 bd 69 65 b5 3b bc 45 31 be e2 57 d6 3b
       -0.037039325 0.0055357707 -0.17311758 0.006541238
000310 bf 84 3e bd c5 34 91 3d 67 a7 ab 3d 2a 24 3a 3d
       -0.046513315 0.07090143 0.08381539 0.045444645
000320 ee 68 e5 bd b1 d7 89 bd ab 26 64 be 36 af 8e bd
       -0.112016544 -0.06730593 -0.22280376 -0.069670126
000330 e5 3b 6c be f2 61 58 bd 15 bb 39 bd 7e 41 83 3d
       -0.23069723 -0.052827783 -0.04534443 0.06408976
000340 6d b6 93 bd e7 e3 f0 3c 12 a3 28 be a8 f0 46 3d
       -0.07212529 0.029405547 -0.16468456 0.04856935
000350 8b db 43 3d 5a 76 73 3b 9b 0c 73 3d 31 83 72 bd
       0.047816794 0.00371494 0.059338193 -0.059207145
000360 4a c3 e1 3b f1 36 82 3d 00 b0 0d be 4e 59 bb bd
       0.0068897353 0.063581355 -0.1383667 -0.09147893
000370 15 96 86 3d fe 1a bc 3d 98 6d 0a bd a4 de dc bd
       0.065715946 0.09184836 -0.033795923 -0.10784653
000380 c6 5a e6 bc f7 7c fa bc f2 72 e1 bb 65 fc 96 3d
       -0.028119456 -0.030577166 -0.0068801576 0.07372359
000390 09 9d 03 be 7c 1c 63 bd 1d 2a 89 bd 1b 7c e0 3c
       -0.12852873 -0.055447087 -0.066974856 0.027402928
0003a0 8d d9 41 bd ff b9 79 3c c9 6e b9 bc e1 fa d8 bd
       -0.047326613 0.015242099 -0.022635834 -0.10594726
0003b0 1a 46 93 bd a2 6b b6 bd 9b d9 3f be 19 41 f8 bd
       -0.07191105 -0.08907248 -0.18735354 -0.121217914
0003c0 f4 a0 4d 3d 03 92 c1 bb 90 34 05 3e 9d 8e be bb
       0.050202325 -0.0059072985 0.13008332 -0.0058153407
0003d0 8d 74 79 3d 79 dc a6 bd 06 85 69 bd 5d f9 be 3d
       0.060902167 -0.081475206 -0.057011627 0.09324906
0003e0 a0 82 c4 3d db 06 cd bd 84 44 18 3e 1f 7f 09 3e
       0.09595227 -0.10011073 0.14869887 0.13427399
0003f0 a6 b4 61 bd 1e ff 75 3d 7c d5 1e bc 11 15 6b bd
       -0.05510392 0.06005775 -0.009694453 -0.057393137

classfier.fc3.bias f4 [25]
000000 d2 90 09 3e 44 63 0a be 83 61 08 3e c5 c6 08 3e
       0.13434151 -0.1351443 0.13318448 0.13357075
000010 17 7f 10 3d 27 89 e2 3c 3e 3a f1 3d 41 67 98 3d
       0.035277452 0.02765329 0.11778687 0.07441569
000020 37 e5 27 bd 95 cf 8d 3d 8a f5 2f 3d 6b 57 8f 3b
       -0.04099008 0.06924359 0.042958774 0.0043744347
000030 0d 12 11 bd 74 29 32 bd 89 28 04 bd 43 57 2e 3c
       -0.035417605 -0.043496564 -0.03226522 0.010640922
000040 7f 4a 06 bd 07 df 92 3d 11 e3 47 3c f4 72 14 bd
       -0.03278589 0.07171445 0.012200133 -0.03624244
000050 c3 5c 8e bd 39 cc 8a bd 0f e9 04 be 25 c6 ec bd
       -0.06951287 -0.06777234 -0.1297953 -0.115612306
000060 e1 f1 01 be
       -0.12689926

classfier.bn3.weight f4 [25]
000000 ce 68 8e 3f f2 0a 94 3f ad a6 91 3f 45 4b 92 3f
       1.1125734 1.156584 1.137899 1.142922
000010 f1 3b 94 3f 3c 5a 8b 3f 81 9e 91 3f 2a 42 7e 3f
       1.1580793 1.0886912 1.1376497 0.9931971
000020 ad 09 96 3f ba e9 8b 3f dc 78 97 3f 9c 77 76 3f
       1.1721703 1.0930703 1.1833758 0.9627626
000030 06 28 92 3f 03 6b 94 3f c2 cd 94 3f d0 8d 91 3f
       1.1418464 1.1595157 1.1625292 1.1371403
000040 b7 ac 87 3f 12 30 94 3f 6e bd 92 3f f4 8c 96 3f
       1.0599583 1.157717 1.1464059 1.1761765
000050 9a 10 91 3f fb 22 88 3f 36 c7 83 3f 28 a1 88 3f
       1.1333191 1.0635675 1.0295169 1.0674181
000060 a3 43 84 3f
       1.0333141

classfier.bn3.bias f4 [25]
000000 e5 e1 84 bc 6b e8 1e 3e 73 a4 0d 3e 2c 08 12 3e
       -0.016220996 0.15518348 0.13832264 0.1426093
000010 d5 07 22 3e 2d f5 06 bd 66 f2 0e 3e e1 08 47 bd
       0.158233 -0.03294866 0.13959655 -0.048592452
000020 f5 5f 32 3e 34 2a cb bc 76 a8 3b 3e fa cf 3e bd
       0.17419417 -0.024800397 0.18325981 -0.04658506
000030 5d 04 17 3e fd 53 23 3e f8 17 26 3e 1c 31 09 3e
       0.14747758 0.15950008 0.16220081 0.1339764
000040 98 41 41 bd 5a 25 25 3e 7d c4 18 3e e0 cc 34 3e
       -0.047181696 0.1612753 0.14918704 0.17656279
000050 76 3e 0b 3e c8 b3 0b bd 72 b1 1a bd f2 ba fe bc
       0.13598046 -0.034107 -0.03776688 -0.031095002
000060 55 62 50 bd
       -0.050875027

classfier.bn3.running_mean f4 [25]
000000 e3 7d 36 3f d5 77 a9 be 06 12 ba be d0 3f 85 be
       0.7128584 -0.33099237 -0.36341876 -0.26025248
000010 65 af 08 bf 11 8e 03 3f 17 6f 03 be 41 3e 2e 3e
       -0.5339263 0.5138865 -0.12835346 0.17015935
000020 a0 33 08 bf 1c 88 05 3f 95 ca fa be 28 d4 c0 3d
       -0.53203773 0.5216081 -0.48982683 0.094154656
000030 cc b5 1d bf 5e 19 0a bf 1f 6e d6 be 44 f0 1d bf
       -0.61605525 -0.5394496 -0.4188089 -0.6169474
000040 57 7c 95 3e 33 44 7e be ca db e3 be 36 57 5d be
       0.29196426 -0.24830703 -0.44503623 -0.216153
000050 8a 19 28 bf 04 69 5c 3e 20 6d c1 3d 36 30 a1 3e
       -0.6566397 0.21524435 0.09444642 0.31482095
000060 10 36 92 bd
       -0.07139218

classfier.bn3.running_var f4 [25]
000000 30 5c b0 3f fe 6b eb 3e 2f 82 2f 3f 99 16 02 3f
       1.3778133 0.4598083 0.6855802 0.5081573
000010 b0 e1 28 3f ef 36 83 3f 28 74 20 3f 87 f5 05 3f
       0.6596937 1.0251139 0.6267724 0.5232777
000020 77 fa be 3e 1a 9b 89 3f ae 83 20 3f 92 15 5b 3e
       0.37300465 1.0750458 0.6270093 0.21394947
000030 4d 91 fd 3e 76 2f 11 3f d4 f8 48 3f fd bf 43 3f
       0.49524918 0.56713045 0.7850468 0.76464826
000040 9b c2 87 3f 83 e6 1d 3f ed 15 d5 3e d7 3b 0d 3f
       1.0606264 0.6167986 0.4161829 0.55169433
000050 03 ad 61 3f 2c 70 98 3f 5b 5a 50 3f 7d 70 a6 3f
       0.8815462 1.1909232 0.8138787 1.3003079
000060 cc 37 85 3f
       1.0407653

classfier.fc5.weight f4 [1, 25]
000000 8e 73 e3 3d 76 16 04 be a2 fd 9c be f1 bc 88 be
       0.11106025 -0.12899193 -0.30662256 -0.2670665
000010 07 7c 34 be ea 4e 76 3e 4f 51 a1 be 48 51 69 3d
       -0.17625438 0.24053541 -0.31507346 0.05696228
000020 a7 7d 1e be 78 77 1b 3e 82 d8 1c be 5f 52 6e 3c
       -0.1547762 0.15182292 -0.15316966 0.014546006
000030 d0 22 6b be e2 3b 45 be b3 9b 3e be e9 e1 a6 be
       -0.22962499 -0.19261125 -0.18614082 -0.3259423
000040 3c 37 18 3e a5 3a 70 be 07 e3 7f be 49 24 13 be
       0.1486482 -0.23459871 -0.24988948 -0.1436931
000050 b2 23 a6 be 4e ae 7a 3e b0 66 9e 3d 31 8b 54 3e
       -0.32449108 0.24480554 0.0773443 0.20756222
000060 6d 8e 4f 3e
       0.20269175
