src/trained_models/2025-05-29/run_22-56-05/dnn_model_fold_5.pt (torch, 75713 bytes, 19 tensors)

classfier.fc1.weight f4 [100, 100]
-0.047220446 -0.13928796 -0.007264064 -0.03510713 0.031999275 -0.006670006 0.025003884 -0.0032587352
-0.028724875 0.09349397 0.037266586 -0.10415902 -0.051771916 0.0070227776 0.078942224 -0.020327004
-0.0211841 -0.03484411 -0.06553299 -0.07934891 -0.015161474 -0.02279039 0.023703417 -0.081263974
0.10117369 0.05869258 0.00024824275 0.029681051 -0.06638185 0.07437385 -0.017363692 0.0055400445
0.093381375 -0.026019756 0.0007374595 0.053837087 0.06924285 -0.015018859 -0.1458324 -0.05840128
0.052973438 -0.009887708 0.021772036 0.059956845 0.0759338 0.010283676 0.062081978 0.07543652
-0.03155384 0.068290755 -0.018103115 -0.025478005 -0.02614963 -0.059316248 0.040166534 0.018706856
0.03817504 0.0060826624 0.06597731 -0.018210195 0.020697264 0.0256949 -0.06178848 0.035676867
-0.061001327 -0.0016130863 -0.048703533 0.06272979 0.03216425 0.030041307 -0.033190325 -0.002437495
0.066862635 0.035555292 -0.10518455 0.038613375 0.033311803 -0.055331446 0.00943348 -0.11354119
-0.09665451 -0.03151203 -0.04187796 0.046343178 -0.14346999 0.004807414 0.08186352 -0.099351324
0.09921717 -0.086624674 0.06560964 -0.010508575 -0.09169546 -0.04796257 -0.028811995 0.023758475
0.026016226 0.03846215 0.004688563 -0.04283632 -0.033307515 -0.12542164 -0.02717123 0.0197577
0.027627805 0.035926595 -0.029150005 -0.07151989 -0.012058922 0.06655647 -0.0726821 0.08857976
0.046292547 -0.012058725 0.011339829 0.03028881 0.06834041 -0.021303866 -0.094526075 -0.02116029
-0.029049478 -0.030512743 -0.06041249 0.04346398 0.068770595 -0.07047044 0.024112131 -0.06857238
0.072351575 0.1174412 -0.06477147 -0.030802855 0.047736913 -0.08327629 0.02355221 -0.029641494
0.1367007 -0.009076263 -0.11163729 -0.016187154 -0.0052776835 -0.054045033 0.062499214 0.06597438
-0.06962639 0.0050707646 -0.023183094 0.05912927 0.052344386 -0.026008837 -0.029457597 0.08213221
-0.00079287164 0.082518704 0.016587723 -0.01006145 -0.00947649 0.08388493 -0.027379401 -0.004346756
0.0126393465 -0.08076443 0.020980269 0.077864274 0.060572557 0.095875934 -0.062126216 0.04827155
0.040317133 -0.06779398 -0.056716505 0.021372901 -0.054711193 0.11080799 0.007466262 -0.03133464
-0.013762411 -0.06806246 0.008960306 -0.028972205 0.08076116 -0.01560379 -0.053621285 -0.12518348
-0.106193714 -0.03599357 -0.039520916 0.09192923 -0.10677667 -0.02858093 0.037245404 -0.007527276
-0.045060977 0.027938286 -0.060024776 0.051361375 0.002400094 0.005013261 0.008096424 0.02033414
-0.046027284 0.09357553 0.09337009 0.07078296 -0.07233482 0.107531205 -0.09649702 -0.044054184
0.09271648 0.02051302 -0.12133286 0.060012084 0.13525544 -0.05812831 -0.036151662 0.0016008642
-0.009594688 -0.0040311706 0.018915812 0.010446222 0.081364006 -0.053409442 0.036118347 -0.11596733
-0.07386797 0.09961665 -0.0542447 -0.055428658 0.064778216 -0.0340722 -0.050810404 -0.002025933
-0.024617018 0.124957725 0.068721764 0.0129856495 0.0707314 -0.04505854 -0.021876758 0.051847354
0.08183865 0.08051177 -0.14620051 0.04966697 -0.0034925782 0.038446672 -0.0032022553 -0.032946076
-0.057525706 -0.07420366 0.073922135 0.03546855 0.07212127 -0.072253235 -0.07719182 0.06252142
00000000: 3a6a 41bd 81a1 0ebe 6307 eebb 7ecc 0fbd
00000010: ac11 033d 1190 dabb f2d4 cc3c 8190 55bb
00000020: 6e50 ebbc c479 bf3d d9a4 183d 5351 d5bd
00000030: ca0e 54bd 541f e63b 76ac a13d d184 a6bc
00000040: 478a adbc b3b8 0ebd 2936 86bd ae81 a2bd
00000050: d567 78bc e9b2 babc ab2d c23c ba6d a6bd
00000060: 2734 cf3d a167 703d 9426 8239 ad25 f33c
00000070: 35f3 87bd 5151 983d 4d3e 8ebc 4389 b53b
00000080: bc3e bf3d 6227 d5bc 1252 413a 4784 5c3d
00000090: 32cf 8d3d a911 76bc 1755 15be 2e36 6fbd
000000a0: adfa 583d 0e00 22bc 455b b23c 4f95 753d
000000b0: 2e83 9b3d dd7c 283c ac49 7e3d 767e 9a3d
000000c0: 993e 01bd 06dc 8b3d fc4c 94bc 40b7 d0bc
000000d0: c037 d6bc 98f5 72bd aa85 243d 1f3f 993c
000000e0: 6e5d 1c3d 1251 c73b 1d1f 873d 8c2d 95bc
000000f0: 4f8d a93c 1c7e d23c eb15 7dbd e821 123d
00000100: 87dc 79bd 326e d3ba 5b7d 47bd 7a78 803d
00000110: a9be 033d 3019 f63c 94f2 07bd 61be 1fbb
00000120: 47ef 883d 6da2 113d ff6a d7bd 0f29 1e3d
00000130: f571 083d 3aa3 62bd e28e 1a3c 4988 e8bd
00000140: cdf2 c5bd c212 01bd 3988 2bbd 58d2 3d3d
00000150: cce9 12be 8387 9d3b 10a8 a73d b578 cbbd
00000160: 5f32 cb3d 4768 b1bd 595e 863d 282c 2cbc
00000170: d4ca bbbd 6674 44bd 2207 ecbc 22a1 c23c
00000180: fb1f d53c 7d8a 1d3d 84a2 993b 2375 2fbd
00000190: 766d 08bd 886e 00be 3396 debc e6da a13c
000001a0: b553 e23c c427 133d fecb eebc 0579 92bd
000001b0: c992 45bc c24e 883d 5ada 94bd 4e69 b53d
000001c0: 419d 3d3d f591 45bc b1ca 393c 3d20 f83c
000001d0: 0ff6 8b3d 7285 aebc e396 c1bd 5858 adbc
000001e0: 2cf9 edbc dcf5 f9bc 1673 77bd 4907 323d
000001f0: 99d7 8c3d ce52 90bd ce86 c53c ad6f 8cbd
00000200: 102d 943d 0385 f03d e8a6 84bd 4556 fcbc
00000210: c887 433d c28c aabd 90f0 c03c b8d2 f2bc
00000220: 45fb 0b3e 9bb4 14bc 17a2 e4bd ec9a 84bc
00000230: 6bf0 acbb 535e 5dbd 2dff 7f3d 931d 873d
00000240: 4898 8ebd a828 a63b 79ea bdbc 8931 723d
00000250: 1167 563d 7c10 d5bc 0f51 f1bc ef34 a83d
00000260: b7d8 4fba 91ff a83d fae2 873c c8d8 24bc
00000270: 4843 1bbc ddcb ab3d c44a e0bc 3b6f 8ebb
00000280: 4315 4f3c d267 a5bd d0de ab3c 4e77 9f3d
00000290: ee1a 783d 9a5a c43d 0f78 7ebd 64b8 453d
000002a0: 9423 253d 92d7 8abd 914f 68bd 3916 af3c
000002b0: d818 60bd 4def e23d 8ca7 f43b c058 00bd
000002c0: bc7b 61bc 5564 8bbd 3fce 123c 1e57 edbc
000002d0: 1b66 a53d 0aa7 7fbc fea1 5bbd 1930 00be
000002e0: 177c d9bd fe6d 13bd afe0 21bd 6445 bc3d
000002f0: baad dabd 8e22 eabc a38e 183d 5ea7 f6bb
00000300: dc91 38bd d5de e43c 8adc 75bd 4e60 523d
00000310: e54a 1d3b 4846 a43b dda6 043c c893 a63c
00000320: 1b87 3cbd 87a4 bf3d d138 bf3d a8f6 903d
00000330: 4724 94bd 5239 dc3d 3ba0 c5bd 2972 34bd
00000340: 23e2 bd3d ec0a a83c 5d7d f8bd 3bcf 753d
00000350: 6780 0a3e f317 6ebd c413 14bd 17d4 d13a
00000360: 0a33 1dbc e917 84bb 55f5 9a3c a126 2b3c
00000370: 2ca2 a63d dcc3 5abd d5f0 133d 4880 edbd
00000380: 1748 97bd d003 cc3d b12f 5ebd 2909 63bd
00000390: 71aa 843d 4b8f 0bbd 921e 50bd 84c5 04bb
000003a0: a1a9 c9bc d6e9 ff3d ffbd 8c3d c3c1 543c
000003b0: a0db 903d 4e8f 38bd e336 b3bc e45d 543d
000003c0: 069b a73d 5be3 a43d 96b5 15be 986f 4b3d
000003d0: bde3 64bb 427a 1d3d eedc 51bb 77f2 06bd
000003e0: 13a0 6bbd 17f8 97bd 7d64 973d 7847 113d
000003f0: 51b4 933d 81f9 93bd bf16 9ebd 3b0b 803d

classfier.fc1.bias f4 [100]
-0.086410694 -0.0028257582 -0.06477769 -0.013454147 -0.04393462 0.015169381 0.056064285 -0.03179227
0.083277084 0.024150312 -0.058264486 0.09440604 -0.09033983 0.028948134 0.03738178 0.08381271
-0.023017392 0.011490779 0.057680085 0.033819344 0.024609335 0.000782221 0.10065544 -0.015209319
0.07893638 -0.08013924 0.014894883 0.03365814 0.09029245 0.0065915603 -0.052575774 -0.01397114
0.01888807 -0.09211271 0.03448166 -0.09917755 0.03919397 0.08786068 0.034765158 0.07444862
-0.082896575 0.020127505 0.0060089915 -0.0020004676 -0.08213313 0.0012590527 0.020168843 -0.08847646
0.036836836 -0.0233597 0.090228155 -0.032987233 0.029487226 -0.057673186 0.091027774 0.05958317
-0.09228753 0.05067319 -0.05847389 -0.07893954 -0.069804415 -0.022169512 -0.021327188 0.057575256
-0.093098536 0.008023331 0.034519136 0.0848791 -0.0035527842 0.0872338 -0.028362013 0.008760942
0.06348297 -0.09596423 -0.036143303 0.034853995 0.017046703 0.05189301 -0.047959425 -0.026941877
0.09487362 -0.016680729 0.04973101 -0.0961974 0.050483234 -0.034148823 0.071928024 0.06555928
0.0253128 -0.045583185 -0.03879653 -0.045595493 0.023913713 -0.077733845 0.09902123 0.0028579521
-0.012080959 -0.029261328 0.0567393 -0.017925216
00000000: 17f8 b0bd 5b30 39bb 2aaa 84bd c86e 5cbc
00000010: caf4 33bd ff88 783c aaa3 653d 9c38 02bd
00000020: 2d8d aa3d e0d6 c53c bea6 6ebd f457 c13d
00000030: 1704 b9bd a324 ed3c a31d 193d 00a6 ab3d
00000040: f88e bcbc d243 3c3c f441 6c3d 2786 0a3d
00000050: 8499 c93c f60d 4d3a 7024 ce3d 8230 79bc
00000060: 66a9 a13d 0b20 a4bd ab09 743c 1edd 093d
00000070: 3feb b83d 04fe d73b b259 57bd 35e7 64bc
00000080: 27bb 9a3c 97a5 bcbd a43c 0d3d 991d cbbd
00000090: db89 203d 4df0 b33d e965 0e3d 8578 983d
000000a0: aec5 a9bd 70e2 a43c 13e7 c43b 471a 03bb
000000b0: 6a35 a8bd cc06 a53a 2139 a53c 2533 b5bd
000000c0: 39e2 163d d75c bfbc 8ac9 b83d 9f1d 07bd
000000d0: 328f f13c b83a 6cbd c56c ba3d 7b0d 743d
000000e0: 3f01 bdbd b18e 4f3d 5182 6fbd 0eab a1bd
000000f0: 9ef5 8ebd d69c b5bc 5bb6 aebc 08d4 6b3d
00000100: 72aa bebd 4a74 033c f063 0d3d 18d5 ad3d
00000110: d4d5 68bb a2a7 b23d 7457 e8bc 0e8a 0f3c
00000120: 5c03 823d e588 c4bd 000b 14bd 10c3 0e3d
00000130: 87a5 8b3c c48d 543d 1a71 44bd 36b5 dcbc
00000140: 1a4d c23d 06a6 88bc beb2 4b3d 2403 c5bd
00000150: 82c7 4e3d a3df 0bbd 004f 933d f243 863d
00000160: ca5c cf3c 6fb5 3abd 1ce9 1ebd 57c2 3abd
00000170: b1e6 c33c ec32 9fbd a5cb ca3d 7b4c 3b3b
00000180: 37ef 45bc 74b5 efbc 7867 683d e7d7 92bc

classfier.bn1.weight f4 [100]
1.0164816 1.021654 0.9741847 0.9803388 1.014269 0.9972641 0.99026126 0.97982204
1.0056001 0.9466604 0.9749813 0.950667 0.9496227 1.0063581 1.0568042 1.0020703
1.0127616 1.0175217 0.95813596 1.0082558 0.94959956 0.98626125 1.0538425 0.94329053
1.022508 0.99093795 1.05596 0.98362845 0.9606799 0.95507675 1.0512542 1.0169061
1.0040721 1.0146272 0.9291964 0.9636394 1.0121737 0.98930365 1.0427464 0.97640985
1.0048977 1.0180976 1.0325848 1.0252845 0.98195684 0.95855933 0.9618819 0.96799934
0.9736166 0.9869692 1.0149211 0.990141 0.96709716 1.0518627 1.0155077 1.0282847
1.0353099 1.0181938 0.98672163 0.9900467 0.9399313 1.0477808 1.035431 0.97691804
0.98381776 0.97820145 0.9456117 1.0299553 0.9492589 1.0048044 1.025034 1.0056528
0.96660954 0.9509248 1.0234233 1.0505242 1.059538 0.97980917 1.0238667 0.9708134
1.0371569 0.984096 1.0160334 0.9623509 0.9714481 1.0174072 1.0106726 0.9801206
0.9562028 1.0314342 0.9637027 1.0310994 0.99245113 1.039304 0.9630237 0.9700274
0.96743363 0.98579866 1.0340368 1.0020088
00000000: 121c 823f 8fc5 823f 2b64 793f 7cf7 7a3f
00000010: 91d3 813f b34c 7f3f c381 7d3f 9ed5 7a3f
00000020: 81b7 803f 5658 723f 6098 793f ea5e 733f
00000030: 791a 733f 58d0 803f 5c45 873f d743 803f
00000040: 2ca2 813f 273e 823f 6648 753f 870e 813f
00000050: f518 733f 9e7b 7c3f 50e4 863f 7d7b 713f
00000060: 8be1 823f 1cae 7d3f b329 873f 13cf 7b3f
00000070: 1eef 753f e97f 743f 7f8f 863f fb29 823f
00000080: 6f85 803f 4edf 813f d1df 6d3f 12b1 763f
00000090: e88e 813f 0143 7d3f b778 853f fff5 793f
000000a0: 7da0 803f 0651 823f bd2b 843f 863c 833f
000000b0: 8661 7b3f 2564 753f e43d 763f cece 773f
000000c0: f03e 793f 03aa 7c3f efe8 813f e179 7d3f
000000d0: ae93 773f 70a3 863f 28fc 813f d59e 833f
000000e0: 0985 843f 2d54 823f ca99 7c3f b373 7d3f
000000f0: 569f 703f ae1d 863f 0189 843f 4d17 7a3f
00000100: 7bdb 7b3f 696b 7a3f 9c13 723f 93d5 833f
00000110: a202 733f 6e9d 803f 5034 833f 3bb9 803f
00000120: b973 773f cf6f 733f 89ff 823f 9477 863f
00000130: f19e 873f c6d4 7a3f 100e 833f 3a87 783f
00000140: 8fc1 843f b7ed 7b3f 620d 823f a15c 763f
00000150: d3b0 783f 663a 823f b85d 813f 2fe9 7a3f
00000160: b5c9 743f 0906 843f 38b5 763f 11fb 833f
00000170: 4711 7e3f ea07 853f b988 763f b753 783f
00000180: bba9 773f 4d5d 7c3f 515b 843f d341 803f

classfier.bn1.bias f4 [100]
-0.087326795 -0.08298622 -0.05944253 -0.060221836 -0.10051257 0.015127521 0.00796476 -0.018712396
-0.027747177 -0.016178556 -0.03543214 -0.101847485 -0.033115536 -0.10497845 -0.07180235 -0.06598052
-0.086453244 -0.10727138 -0.06314025 -0.09849896 -0.02760759 -0.004658169 -0.10093353 -0.051510185
-0.08191084 -0.021587728 -0.07716281 0.0018265964 -0.03572131 -0.047802698 -0.114742234 -0.095282406
-0.06441732 -0.12197606 -0.04486498 0.03299759 -0.011375263 -0.009333398 -0.017942468 -0.042309757
-0.080942795 -0.1273474 -0.056638345 -0.08841615 -0.056816638 -0.06342068 -0.083860636 -0.027905347
-0.009603102 -0.09717194 -0.10673709 -0.028846154 -0.071629725 -0.11004789 -0.09486608 -0.13156651
-0.08725849 -0.062390406 -0.09118853 -0.108708754 -0.045029633 -0.08810129 -0.057841633 -0.012904282
-0.1302791 -0.012076503 -0.01849195 -0.116033286 -0.042312305 -0.07124371 -0.08911845 0.009936701
-0.095757924 -0.062437527 -0.07105869 -0.100484215 -0.027028909 -0.09085607 -0.08594696 -0.001986833
-0.024253717 -0.061326347 -0.12908274 -0.08194496 -0.068492696 -0.07655455 -0.03296059 0.017544841
-0.047418196 -0.027969941 -0.06475851 -0.029019184 -0.11564498 -0.06671543 -0.07547014 -0.009923949
-0.008914269 -0.015449979 -0.010941842 -0.054713145
00000000: 64d8 b2bd aef4 a9bd 037a 73bd 2cab 76bd
00000010: 89d9 cdbd 6cd9 773c a07e 023c bd4a 99bc
00000020: 0c4e e3bc e488 84bc 4b21 11bd 6a95 d0bd
00000030: 28a4 07bd f1fe d6bd 1c0d 93bd cb20 87bd
00000040: 660e b1bd 19b1 dbbd ad4f 81bd d3b9 c9bd
00000050: 5029 e2bc 8ea3 98bb 3db6 cebd 58fc 52bd
00000060: dfc0 a7bd bfd8 b0bc 8907 9ebd 686a ef3a
00000070: 8250 12bd c3cc 43bd fafd eabd 6c23 c3bd
00000080: 3aed 83bd 96ce f9bd 57c4 37bd 7b28 073d
00000090: 505f 3abc 1ceb 18bc 15fc 92bc ff4c 2dbd
000000a0: 56c5 a5bd 5b67 02be 9cfd 67bd 8713 b5bd
000000b0: 90b8 68bd b4e2 81bd 20bf abbd c199 e4bc
000000c0: 5456 1dbc 1502 c7bd fa98 dabd c54e ecbc
000000d0: 9bb2 92bd ca60 e1bd 2649 c2bd 5fb9 06be
000000e0: 94b4 b2bd 158d 7fbd 0dc1 babd b2a2 debd
000000f0: fe70 38bd 736e b4bd 59eb 6cbd 7b6c 53bc
00000100: e267 05be 86dc 45bc 6e7c 97bc dca2 edbd
00000110: ab4f 2dbd 39e8 91bd bc83 b6bd 8bcd 223c
00000120: bb1c c4bd 7ebe 7fbd 3887 91bd abca cdbd
00000130: bb6b ddbc bf12 babd f604 b0bd 8735 02bb
00000140: bbaf c6bc 5631 7bbd 442e 04be c2d2 a7bd
00000150: e645 8cbd a2c8 9cbd af01 07bd 33ba 8f3c
00000160: 9539 42bd 3821 e5bc 1ca0 84bd a4b9 edbc
00000170: 46d7 ecbd 19a2 88bd 1790 9abd 0f98 22bc
00000180: 270d 12bc e921 7dbc 6945 33bc e41a 60bd

classfier.bn1.running_mean f4 [100]
-0.15652491 0.05222169 1.5495301 0.70053995 -0.29859254 -1.7006447 -2.2916033 1.4826099
-0.5358671 1.9651334 -0.119735554 -0.18831083 2.8646624 -0.10273223 0.07444235 0.2384442
-0.27736294 -0.45056477 3.5960362 0.21489567 -2.460904 -1.1792502 -0.12698601 2.4432874
-0.71832204 -0.9100917 0.024669345 1.6335404 0.80670947 -1.2584308 -0.07503007 -0.06734982
-0.6369462 0.027665759 -0.54071045 1.8326063 -1.613652 1.8587804 -1.4052819 -2.2272258
-1.252993 -0.271589 -1.255919 -0.012926987 -1.3447564 -0.19285667 0.15137593 1.5422137
1.1584661 -0.009094612 0.017606737 -1.1247766 -1.1084124 -0.29822797 0.1847303 -0.1180644
-0.36413667 -0.98027635 -0.9345407 -0.020609371 1.326503 -0.1334307 -1.2379296 2.084423
-0.21099743 2.1313803 -2.4550169 -0.010396753 2.0028663 -0.028247532 -0.33059806 -0.42529052
0.5768695 0.2573791 -0.27115038 -0.12567201 -0.41511962 -0.92595834 -0.23900597 3.1429946
-0.17387137 -0.36455172 0.16242708 -0.3137149 1.9948792 -0.29289734 -1.0297284 2.2675767
1.2846004 -1.62519 0.8260219 -0.6961709 -0.13137998 -0.464571 -0.910629 1.4531059
2.530575 0.14138803 -0.46872717 -0.46821192
00000000: 1148 20be 69e6 553d 0157 c63f 9656 333f
00000010: 1fe1 98be baae d9bf a1a9 12c0 29c6 bd3f
00000020: 962e 09bf 7e89 fb3f ea37 f5bd 8ed4 40be
00000030: a156 3740 4765 d2bd 3b75 983d b72a 743e
00000040: 8402 8ebe 6db0 e6be 7525 6640 9c0d 5c3e
00000050: 737f 1dc0 acf1 96bf 9f08 02be d25e 1c40
00000060: f4e3 37bf c5fb 68bf 5e17 ca3c da17 d13f
00000070: 8384 4e3f 4314 a1bf 5ea9 99bd b4ee 89bd
00000080: e80e 23bf 4da3 e23c 006c 0abf d892 ea3f
00000090: 268c cebf 84ec ed3f 47e0 b3bf de8a 0ec0
000000a0: 1362 a0bf b70d 8bbe f4c1 a0bf b7cb 53bc
000000b0: fa20 acbf 387c 45be 4b02 1b3e 4267 c53f
000000c0: 9e48 943f 9101 15bc 013c 903c aef8 8fbf
000000d0: 75e0 8dbf 56b1 98be f129 3d3e c0cb f1bd
000000e0: 1f70 babe 64f3 7abf 0f3e 6fbf fcd4 a8bc
000000f0: daca a93f 0fa2 08be 7a74 9ebf 3067 0540
00000100: b60f 58be 8968 0840 ff1e 1dc0 2557 2abc
00000110: f62e 0040 5e67 e7bc 2644 a9be aebf d9be
00000120: b8ad 133f 32c7 833e 39d4 8abe 2ab0 00be
00000130: 8f8a d4be 9b0b 6dbf fbbd 74be d326 4940
00000140: 560b 32be 86a6 babe 4953 263e 3d9f a0be
00000150: 3458 ff3f a4f6 95be 24ce 83bf fa1f 1140
00000160: c96d a43f 3a06 d0bf 2c76 533f 4238 32bf
00000170: 7988 06be 40dc edbe fb1e 69bf 60ff b93f
00000180: f1f4 2140 06c8 103e 02fd efbe 79b9 efbe

classfier.bn1.running_var f4 [100]
0.10013451 0.034749947 0.24482034 0.17422086 0.09937542 0.4533411 0.5797134 0.2850257
0.13721818 0.43710163 0.13362071 0.08748315 0.736212 0.060527097 0.103535004 0.10236049
0.13605022 0.05853333 1.6968788 0.07638085 0.6926197 0.42504087 0.043609466 0.7446444
0.2986522 0.2983521 0.05002919 0.27322578 0.23245986 0.15506227 0.041630775 0.06531781
0.30715737 0.041246552 0.13290784 0.38041657 0.5957971 0.42451257 0.60397947 1.4766951
0.27673778 0.057278086 0.42514384 0.057165705 0.6304034 0.09194003 0.0732991 0.40946338
0.37388977 0.37744373 0.061234474 0.20633192 0.3084792 0.049105555 0.07377045 0.0383169
0.059735738 0.1859291 0.56439525 0.060154095 0.20632775 0.036549684 0.42157158 0.2973152
0.08155626 0.31324726 0.46293342 0.09370923 0.56771934 0.1132299 0.07718061 0.09738452
0.06481595 0.24073227 0.10305443 0.054636642 0.07594817 0.29134348 0.055727027 0.9892945
0.04333474 0.053386524 0.066368036 0.14800544 0.44217175 0.08754207 0.5400209 0.45418495
0.7813151 0.8292123 0.11697616 0.3131078 0.052246265 0.078196086 0.141749 0.19564022
0.62696886 0.077089384 0.1629861 0.07447791
00000000: 5213 cd3d f655 0e3d 2fb2 7a3e f466 323e
00000010: 5785 cb3d 531c e83e 1968 143f e3ee 913e
00000020: ec82 0c3e c9cb df3e ded3 083e 5e2a b33d
00000030: 6478 3c3f 43eb 773d 290a d43d 60a2 d13d
00000040: c050 0b3e a5c0 6f3d 5333 d93f 906d 9c3d
00000050: 864f 313f f59e d93e d79f 323d 04a1 3e3f
00000060: f1e8 983e 9bc1 983e 68eb 4c3d 40e4 8b3e
00000070: f509 6e3e a5c8 1e3e 0885 2a3d 58c5 853d
00000080: bb43 9d3e 25f2 283d fe18 083e f6c5 c23e
00000090: 2986 183f b659 d93e 669e 1a3f 5804 bd3f
000000a0: 93b0 8d3e 6d9c 6a3d 74ac d93e 9626 6a3d
000000b0: 1e62 213f 0e4b bc3d d71d 963d 2fa5 d13e
000000c0: 7b6e bf3e 4e40 c13e 00d1 7a3d ad48 533e
000000d0: fcf0 9d3e e822 493d f614 973d 2ff2 1c3d
000000e0: 76ad 743d 3364 3e3e 357c 103f 2464 763d
000000f0: 9547 533e 1fb5 153d 3bd8 d73e b339 983e
00000100: f806 a73d f261 a03e 9c05 ed3e a0ea bf3d
00000110: 0e56 113f 14e5 e73d de10 9e3d 8971 c73d
00000120: 3abe 843d 8582 763e 330e d33d acca 5f3d
00000130: b78a 9b3d f92a 953e 0642 643d 6842 7d3f
00000140: c57f 313d d4ab 5a3d f7eb 873d bd8e 173e
00000150: 5664 e23e 4249 b33d cf3e 0a3f ee8a e83e
00000160: 4404 483f 4247 543f 3291 ef3d aa4f a03e
00000170: 2e00 563d 4525 a03d a626 113e e955 483e
00000180: 0881 203f 0ae1 9d3d d4e5 263e e087 983d

classfier.fc2.weight f4 [50, 100]
-0.051955897 -0.09782813 0.05632261 -0.011095924 -0.03213956 -0.08145708 -0.10224904 -0.01810413
0.03559662 0.034929786 0.09658412 -0.067767 0.06781794 -0.10415267 0.053501368 -0.04975255
0.051249523 -0.013565879 -0.019720038 -0.06911908 -0.06005658 0.045959223 -0.033467807 -0.06002653
-0.027823288 -0.038185947 0.006867493 -0.017012905 0.06999371 -0.09449289 0.05797014 -0.055686817
0.073190525 0.058029544 -0.043922238 0.070999324 -0.07676432 0.063448936 -0.032233667 -0.00856416
0.049150623 -0.061869264 -0.057570495 0.048953936 -0.038971953 0.059317213 0.016016569 0.049790673
-0.0291625 -0.020420842 0.01580393 -0.03628272 0.059251495 0.015446068 -0.018589366 0.015534074
0.02044891 0.012256076 -0.1154826 0.035340466 -0.014406492 0.01751994 0.00047136933 -0.0031931174
-0.05584694 0.042613044 -0.067568466 0.03178093 0.011297746 0.08326963 -0.108547814 -0.042865954
-0.030387081 -0.0014369425 -0.12556575 -0.045004006 0.04022686 -0.02883499 -0.011062241 0.09846487
-0.035610657 0.060551375 -0.04097268 -0.04419886 0.058668092 -0.04498809 -0.09155791 0.09802829
0.07263375 -0.05461713 -0.0578652 -0.09897088 -0.10886222 0.035097834 0.04064454 -0.03306616
-0.04803558 0.037444692 -0.073286355 -0.022573717 0.012909248 -0.058557115 -0.036837593 -0.038709402
-0.014040811 0.07613863 0.05103147 0.013666119 0.019204594 0.06799889 -0.07378386 0.027739706
-0.060355015 -0.104113884 -0.0777589 -0.10982323 -0.0045155357 -0.002755765 -0.0785352 -0.102147035
0.0046014297 -0.052784204 -0.038241964 0.06381928 0.009234222 0.04818369 -0.053866487 0.062452782
0.020799506 0.0917871 -0.10996586 0.034310732 0.0016801866 -0.0519655 0.042819623 0.012029955
0.11832722 0.034788705 0.07834077 0.12438279 0.027564509 -0.10283297 0.08579427 -0.041394684
0.047446243 0.047209866 -0.060861725 -0.065385476 -0.043326616 -0.0042712735 -0.09325705 0.02662455
-0.08669778 0.0365781 -0.10893015 -0.024978835 -0.025965126 0.061568573 0.06661414 -0.03989292
-0.052445505 -0.08943954 0.029748335 -0.025132941 0.057469636 -0.06442129 -0.07870383 0.04246542
-0.10139138 -0.05063835 0.032685388 0.008674435 -0.060178135 0.020497326 -0.084645964 -0.05564308
0.06409165 0.06454507 0.033068594 0.029912893 0.05434179 -0.03783071 -0.037532274 -0.02988944
0.0003499784 -0.11705857 -0.015963502 -0.062327057 0.01677444 -0.02630458 -0.014772349 0.09252788
0.03410066 -0.109440126 0.056580123 0.0720094 0.011764779 -0.0409964 0.018505631 0.06993659
0.111676335 -0.014542849 0.028573962 -0.0030465869 0.0022199366 0.0051999474 0.08794972 -0.026038967
-0.00047445673 -0.053694014 -0.047322728 0.09164405 -0.036446713 0.08702475 0.12479395 -0.022964263
-0.020407313 0.11462055 -0.021328082 0.013815321 -0.028581263 0.061110698 -0.03619407 -0.04695937
0.071564935 0.044973448 0.034619093 -0.076593235 0.0434989 0.0903819 0.09633234 0.029748537
0.105771616 -0.026269937 -0.0048777065 0.0012265731 0.08398522 0.052495208 0.06854371 -0.0141861215
-0.0498037 0.07008045 0.027577428 -0.026011888 -0.0149862515 0.055829193 0.0031678665 0.041512378
0.0009885211 0.059209406 0.10409928 -0.035360992 0.02829143 0.1381881 0.085827105 0.10798695
00000000: b5cf 54bd 1d5a c8bd 89b2 663d aecb 35bc
00000010: c5a4 03bd f8d2 a6bd f267 d1bd 1d4f 94bc
00000020: c3cd 113d 8912 0f3d e5cd c53d 6dc9 8abd
00000030: 22e4 8a3d ff4d d5bd 4024 5b3d 54c9 4bbd
00000040: 05eb 513d 6c43 5ebc eb8b a1bc 4e8e 8dbd
00000050: e3fd 75bd bd3f 3c3d 8a15 09bd 61de 75bd
00000060: aaed e3bc de68 1cbd b508 e13b a65e 8bbc
00000070: dd58 8f3d 7d85 c1bd 1972 6d3d dc17 64bd
00000080: eae4 953d 63b0 6d3d cee7 33bd 1868 913d
00000090: 9d36 9dbd 84f1 813d 7307 04bd b150 0cbc
000000a0: 2a52 493d a06a 7dbd 0acf 6bbd ec83 483d
000000b0: 0ea1 1fbd 9bf6 723d 2e35 833c 4ef1 4b3d
000000c0: 32e6 eebc 9c49 a7bc 3e77 813c 309d 14bd
000000d0: b2b1 723d 8111 7d3c ba48 98bc a182 7e3c
000000e0: 7984 a73c b5cd 483c 2482 ecbd 2ac1 103d
000000f0: 3509 6cbc fa85 8f3c 1f22 f739 9f43 51bb
00000100: c3bf 64bd 048b 2e3d 5661 8abd b82c 023d
00000110: 2e1a 393c 4589 aa3d 514e debd 3694 2fbd
00000120: 54ee f8bc ca57 bcba 4f94 00be 1f56 38bd
00000130: ecc4 243d 5b37 ecbc 673e 35bc f3a7 c93d
00000140: 7bdc 11bd b804 783d f8d2 27bd dd09 35bd
00000150: f44d 703d 6e45 38bd b782 bbbd 0ec3 c83d
00000160: 01c1 943d 36b6 5fbd 0f04 6dbd 3fb1 cabd
00000170: 28f3 debd bfc2 0f3d e47a 263d 6270 07bd
00000180: f5c0 44bd 9b5f 193d 2817 96bd 84ec b8bc
00000190: 4f81 533c 96d9 6fbd 04e3 16bd c08d 1ebd
000001a0: 6e0b 66bc 92ee 9b3d 6006 513d dce7 5f3c
000001b0: f452 9d3c 0143 8b3d fe1b 97bd 613e e33c
000001c0: d236 77bd a939 d5bd 0f40 9fbd 00eb e0bd
000001d0: 0ff7 93bb 119a 34bb 10d7 a0bd 7732 d1bd
000001e0: 97c7 963b 4034 58bd 9ba3 1cbd afb3 823d
000001f0: 224b 173c 435c 453d 1ba3 5cbd 7dce 7f3d
00000200: ba63 aa3c e0fa bb3d c835 e1bd 6989 0c3d
00000210: b539 dc3a c7d9 54bd a163 2f3d 4a19 453c
00000220: 8b55 f23d 9a7e 0e3d 2071 a03d 67bc fe3d
00000230: f7ce e13c 189a d2bd e8b4 af3d 798d 29bd
00000240: fe56 423d 225f 413d 254a 79bd d2e8 85bd
00000250: 4077 31bd 0af6 8bbb 8dfd bebd ba1b da3c
00000260: 9b8e b1bd ebd2 153d c516 dfbd 6aa0 ccbc
00000270: d1b4 d4bc 542f 7c3d ff6c 883d c266 23bd
00000280: 19d1 56bd 142c b7bd c8b2 f33c 99e3 cdbc
00000290: 4865 6b3d 4fef 83bd 792f a1bd 38f0 2d3d
000002a0: 49a6 cfbd 296a 4fbd 1de1 053d 381f 0e3c
000002b0: 597d 76bd 02ea a73c dd5a adbd 00ea 63bd
000002c0: 7c42 833d 3530 843d ef72 073d e20b f53c
000002d0: 7f95 5e3d 60f4 1abd 71bb 19bd b3da f4bc
000002e0: 4e7d b739 67bc efbd e4c5 82bc a84a 7fbd
000002f0: 8d6a 893c b47c d7bc b907 72bc 427f bd3d
00000300: 22ad 0b3d 2522 e0bd 8fc0 673d aa79 933d
00000310: 0fc1 403c d7eb 27bd 1f99 973c ea3a 8f3d
00000320: 90b6 e43d 2145 6ebc f113 ea3c 3fa9 47bb
00000330: 5b7c 113b 5264 aa3b fc1e b43d ac4f d5bc
00000340: 81c0 f8b9 41ee 5bbd 7ad5 41bd e0af bb3d
00000350: 2649 15bd 083a b23d f893 ff3d 8d1f bcbc
00000360: 3d2d a7bc 2ebe ea3d 3bb8 aebc a859 623c
00000370: 4123 eabc 364f 7a3d 3c40 14bd 7858 40bd
00000380: a390 923d 1436 383d c0cc 0d3d eadc 9cbd
00000390: e72b 323d 251a b93d e449 c53d 34b3 f33c
000003a0: ca9e d83d 0d34 d7bc 2bd5 9fbb f7c4 a03a
000003b0: 7100 ac3d 3705 573d a560 8c3d e86c 68bc
000003c0: f7fe 4bbd 5786 8f3d 0fea e13c e216 d5bc
000003d0: e588 75bc 27ad 643d fb9b 4f3b e208 2a3d
000003e0: 4491 813a 9085 723d 0132 d53d b0d6 10bd
000003f0: 6ec3 e73c 2e81 0d3e 1fc6 af3d 4328 dd3d

classfier.fc2.bias f4 [50]
0.06888149 -0.03966697 -0.07018906 0.012000766 -0.08251872 -0.050627828 0.03681618 0.04620775
0.0061287424 -0.026711814 0.08086918 -0.05054018 -0.006985949 0.0112456195 0.029451083 -0.08477041
-0.095960334 -0.0024617172 -0.027527543 0.028459864 -0.023591924 -0.070760466 0.061311293 -0.0890967
-0.05966372 -0.015160063 0.06592507 0.012621525 0.0033368727 0.018086039 -0.096013114 -0.008007945
0.017405694 0.03767551 -0.07436378 -0.063342474 0.09323812 0.015740348 0.0076896003 0.064099155
0.05510647 -0.030112503 -0.046283357 0.081308044 0.011420043 -0.025235713 -0.011267853 0.006785241
0.03334149 0.07318048
00000000: bd11 8d3d d579 22bd 48bf 8fbd dc9e 443c
00000010: 93ff a8bd 205f 4fbd 90cc 163d 5644 3d3d
00000020: 9ed3 c83b bcd2 dabc be9e a53d 3803 4fbd
00000030: 63ea e4bb 8c3f 383c 6643 f13c 1c9c adbd
00000040: da86 c4bd c354 21bb 7181 e1bc a924 e93c
00000050: da43 c1bc ddea 90bd 8d21 7b3d 5578 b6bd
00000060: f261 74bd ea61 78bc b903 873d 83ca 4e3c
00000070: 6faf 5a3b 2c29 943c 86a2 c4bd c133 03bc
00000080: 6396 8e3c a351 1a3d 0a4c 98bd b3b9 81bd
00000090: a1f3 be3d e7f1 803c 0bf9 fb3b 6b46 833d
000000a0: 52b7 613d 7fae f6bc 9e93 3dbd d584 a63d
000000b0: 221b 3b3c 20bb cebc cd9c 38bc ba56 de3b
000000c0: 1691 083d a6df 953d

classfier.bn2.weight f4 [50]
0.9639312 1.0036288 1.0568619 0.9840332 0.98273826 1.0148772 0.9425182 0.93167603
1.0684993 0.9511609 0.9379305 1.0593452 1.0395148 1.0369003 0.9426694 1.0005218
1.0339307 0.99176097 1.0029695 0.94424224 0.9840342 0.9225733 1.0410571 1.0028841
1.0629824 1.0356323 1.0744885 1.0772337 1.0493462 1.0300269 0.952009 0.9733569
0.9540422 0.9914634 0.9350615 0.9103927 0.92845833 1.0410413 0.95044434 1.0424927
0.9908673 0.9573955 0.97269166 1.0051322 1.0527102 1.0243212 0.91595346 0.97996897
1.0793091 0.9457208
00000000: 32c4 763f e976 803f 4047 873f 9ae9 7b3f
00000010: bc94 7b3f 7fe7 813f df48 713f 5282 6e3f
00000020: 96c4 883f 487f 733f 371c 703f a098 873f
00000030: d20e 853f 26b9 843f c852 713f 1911 803f
00000040: d757 843f 0ce4 7d3f 4e61 803f dcb9 713f
00000050: aae9 7b3f c42d 6c3f 5c41 853f 825e 803f
00000060: cf0f 883f 998f 843f d788 893f cbe2 893f
00000070: fa50 863f ecd7 833f ddb6 733f eb2d 793f
00000080: 1c3c 743f 8cd0 7d3f 3160 6f3f 7f0f 693f
00000090: 72af 6d3f d740 853f 5250 733f 6770 853f
000000a0: 7ba9 7d3f df17 753f 5202 793f 2ca8 803f
000000b0: 35bf 863f f51c 833f ed7b 6a3f 3fdf 7a3f
000000c0: cd26 8a3f c21a 723f

classfier.bn2.bias f4 [50]
-0.010997439 0.033791702 -0.08902871 0.023476819 -0.061721884 0.008448293 0.022956718 -0.076373346
0.074015334 -0.08232402 -0.064844124 -0.08890669 0.06631066 -0.12812115 -0.078415416 0.067681685
-0.06942793 -0.065815784 -0.07516776 -0.0667039 0.024927307 -0.06966737 -0.082972124 0.058065847
-0.08690446 -0.11480544 0.11104437 0.047351908 -0.086997785 0.008259228 -0.03593293 -0.06460807
0.03154694 -0.07248446 -0.06358083 -0.087892495 -0.06325518 -0.09476968 -0.038876265 0.045618102
-0.09879769 -0.063603364 -0.013868523 0.018876432 -0.11432393 -0.09876494 -0.07063311 0.023306262
0.00031046005 -0.041784238
00000000: 9a2e 34bc 2b69 0a3d af54 b6bd 7552 c03c
00000010: 16d0 7cbd b66a 0a3c ba0f bc3c a169 9cbd
00000020: 5a95 973d 7f99 a8bd ffcc 84bd b614 b6bd
00000030: e2cd 873d 3132 03be 4398 a0bd b29c 8a3d
00000040: 3b30 8ebd 6dca 86bd 8ef1 99bd 0e9c 88bd
00000050: 5a34 cc3c c4ad 8ebd 4aed a9bd 74d6 6d3d
00000060: f7fa b1bd 1d1f ebbd 3b6b e33d 13f4 413d
00000070: e52b b2bd b751 073c 682e 13bd 3c51 84bd
00000080: 5d37 013d bc72 94bd ab36 82bd fb00 b4bd
00000090: ef8b 81bd 9b16 c2bd b83c 1fbd 0cda 3a3d
000000a0: 7156 cabd 7b42 82bd cd38 63bc bfa2 9a3c
000000b0: aa22 eabd 4645 cabd 18a8 90bd c6ec be3c
000000c0: 3ec5 a239 f325 2bbd

classfier.bn2.running_mean f4 [50]
-0.20237565 -0.23110946 0.84965956 -0.79070187 0.3614387 -0.6094173 -0.8442992 0.41523972
-0.777369 0.31214604 0.8443049 0.7891307 -0.52353615 0.7330758 0.417734 -0.899339
0.8084917 0.2785397 0.8832923 0.55617267 -0.42374146 -0.03771455 0.9498166 0.07095703
0.8871191 0.7955046 -0.8316404 0.19040242 0.9099468 0.42265663 -0.5126246 0.8240672
-0.51588327 0.95823777 -0.37299785 0.457228 0.42581436 0.860577 -0.49464622 0.7589838
0.7779762 0.83052474 -0.39332 -0.68824583 0.77489096 0.72499454 0.060315404 0.8037667
-0.28615284 -0.31424338
00000000: 903b 4fbe f5a7 6cbe 4a83 593f 706b 4abf
00000010: 7e0e b93e c602 1cbf fe23 58bf 4d9a d43e
00000020: a801 47bf 9bd1 9f3e 5e24 583f 7804 4a3f
00000030: 7706 06bf dbaa 3b3f 3be1 d53e 153b 66bf
00000040: 50f9 4e3f c19c 8e3e 721f 623f 5561 0e3f
00000050: a4f4 d8be 927a 1abd 2e27 733f eb51 913d
00000060: 3d1a 633f 31a6 4b3f 63e6 54bf daf8 423e
00000070: 46f2 683f 7366 d83e 5e3b 03bf 11f6 523f
00000080: ed10 04bf 124f 753f 93f9 bebe ca19 ea3e
00000090: 5704 da3e c64e 5c3f 4542 fdbe c34c 423f
000000a0: 7329 473f 459d 543f 3d61 c9be e130 30bf
000000b0: 415f 463f 3e99 393f 490d 773d a8c3 4d3f
000000c0: a082 92be 82e4 a0be

classfier.bn2.running_var f4 [50]
0.5173686 0.5167979 0.46541277 0.45079616 0.4520735 0.8095315 0.35630798 0.3055118
0.3266126 0.38944498 0.3219481 0.50184786 0.57226264 0.47020486 0.45891696 1.0066957
0.54514074 0.4383496 0.49501744 0.5298674 0.4871802 0.33321044 0.41329685 0.4967744
0.6157636 0.48965734 0.49691942 0.4269338 0.5745059 0.49619824 0.24692595 0.5618472
0.42317837 0.39684948 0.20823318 0.29061717 0.3802952 0.46809396 0.3367452 0.41994852
0.41465098 0.3866847 0.56766135 0.3712824 0.47951165 0.53542244 0.36841232 0.40128356
0.3295537 0.24884598
00000000: 4572 043f de4c 043f 954a ee3e c1ce e63e
00000010: 2e76 e73e 753d 4f3f 006e b63e 0b6c 9c3e
00000020: c439 a73e 5565 c73e 62d6 a43e 1a79 003f
00000030: ce7f 123f b1be f03e 2af7 ea3e 68db 803f
00000040: 588e 0b3f 5c6f e03e ed72 fd3e 64a5 073f
00000050: af6f f93e 8f9a aa3e a59b d33e 3759 fe3e
00000060: afa2 1d3f 5eb4 fa3e 396c fe3e 1197 da3e
00000070: d212 133f b20d fe3e 28da 7c3e 38d5 0f3f
00000080: d6aa d83e db2f cb3e 143b 553e c6cb 943e
00000090: 0db6 c23e 03aa ef3e de69 ac3e 7e03 d73e
000000a0: 224d d43e 89fb c53e 4152 113f ba18 be3e
000000b0: 8d82 f53e 7211 093f 8aa0 bc3e 0a75 cd3e
000000c0: 43bb a83e 7bd1 7e3e

classfier.fc3.weight f4 [25, 50]
-0.09253196 0.08784445 -0.049057133 0.07534571 0.1542401 0.11689174 0.048796456 0.06868902
-0.080503136 0.059257142 0.10956351 0.12486701 -0.041719813 -0.032233424 0.0931442 -0.007401604
-0.010747282 -0.03765659 -0.036716953 0.1219735 0.1224534 0.040850557 -0.08565814 0.16928205
0.011195929 -0.12077406 -0.07573795 0.038131908 -0.10917085 0.0011237818 -0.06839255 -0.048961625
0.14453842 -0.03356807 -0.104068294 0.13500796 -0.05540536 -0.014789166 0.01056776 0.032023795
0.044388916 -0.08136909 -0.0037345763 0.106092386 -0.0696905 0.05504415 0.15442427 0.1363557
-0.04563153 0.011299157 0.07239798 -0.13967282 0.13810945 0.044808347 -0.052935064 0.008801033
0.09436359 0.050226476 0.085153006 0.09123698 0.044031225 0.10610297 -0.09837582 -0.03594026
0.059433635 0.077042736 0.001418039 0.07087794 0.05648516 0.053461555 -0.1079949 0.13788934
0.045746893 -0.066771425 0.13871476 0.07355347 0.04181496 -0.009799952 0.107283294 -0.053416934
-0.099274285 0.087808356 -0.010519499 -0.05495955 -0.040128812 0.036929585 0.11156317 -0.037738472
-0.04123334 0.11475507 0.21275344 0.13777274 -0.10878328 0.035439443 0.0073437276 -0.039731298
0.053603556 0.14751726 -0.10123608 0.13603033 0.030571537 0.01772327 -0.04466735 -0.0049143448
0.0035182438 -0.060131654 0.10099822 -0.06830771 0.032530073 0.16876759 0.0458637 0.17272544
-0.09044836 0.1540728 0.094536394 0.0074057556 -0.0024499176 -0.15064277 0.07143789 -0.035652317
0.027155235 0.11610198 0.027131107 0.112823874 0.08031878 0.17862916 0.10671851 -0.008711812
0.058794823 -0.02008031 -0.044597894 0.09673618 0.0660796 0.13188702 0.007264623 0.066081375
0.06656978 -0.02136967 0.02821839 0.022770192 0.016242746 0.05151415 0.03932784 0.03378388
0.20585577 -0.043785047 0.020727435 0.117097855 -0.07512802 0.04778026 0.10125098 -0.18311024
-0.06908513 0.0020915666 -0.14958964 -0.03653178 0.008780435 -0.010314554 0.14377859 0.0015333705
0.017152343 -0.071080066 0.03559536 -0.048879977 -0.09798511 0.0352104 0.053480767 -0.13513112
-0.14282987 -0.09798785 -0.029802976 0.05743634 -0.074794196 -0.13309538 -0.0653334 -0.089320116
0.04469597 -0.1712565 -0.08859844 -0.07555363 0.091409445 -0.033522967 0.09152315 -0.11589982
-0.07771506 -0.120113134 -0.127263 -0.09833795 -0.011807522 -0.12917605 0.054971676 0.06084061
0.07479389 0.09915189 -0.07213072 -0.10141769 -0.069796756 -0.16381718 -0.049277727 -0.014694013
-0.03408898 -0.06967763 -0.04081811 0.06758923 -0.046488207 -0.0048648734 -0.017628817 0.03071085
0.0449287 0.12876807 0.03531315 0.14388826 -0.01760517 0.0413363 -0.049168773 0.08265446
0.012679152 0.048690323 0.08853568 -0.069703214 0.029973898 -0.008568297 0.08534026 0.010279464
0.03762099 0.12981734 -0.06633813 -0.07672175 0.15862542 0.037739467 -0.05942141 0.13568111
-0.03962243 0.075754605 0.05843189 0.02531997 -0.09156415 0.18683748 0.017959904 -0.0010981637
0.0355482 -0.052601513 0.09475654 0.038698662 0.038488295 0.1844269 0.103602104 -0.056861818
-0.040842935 -0.02215341 -0.0075513097 0.0794988 -0.037871793 -0.21725868 0.035498533 0.16195981
00000000: 6581 bdbd cae7 b33d 22f0 48bd da4e 9a3d
00000010: 1ef1 1d3e f064 ef3d cbde 473d d4ac 8c3d
00000020: d4de a4bd 9eb7 723d d562 e03d 46ba ff3d
00000030: 65e2 2abd 3207 04bd 63c2 be3d 2889 f2bb
00000040: 5e15 30bc cc3d 1abd 8464 16bd 3ecd f93d
00000050: d9c8 fa3d ea52 273d 896d afbd 4658 2d3e
00000060: 216f 373c 6458 f7bd 801c 9bbd 3430 1c3d
00000070: f794 dfbd dc4b 933a 6511 8cbd fc8b 48bd
00000080: e101 143e ac7e 09bd c221 d5bd 873f 0a3e
00000090: bbf0 62bd 424e 72bc 6624 2d3c 622b 033d
000000a0: 27d1 353d d6a4 a6bd cbbf 74bb f746 d93d
000000b0: e5b9 8ebd fa75 613d 6521 1e3e d4a0 0b3e
000000c0: 21e8 3abd 1920 393c 6445 943d 6406 0fbe
000000d0: 906c 0d3e f588 373d 70d2 58bd 3532 103c
000000e0: b341 c13d 47ba 4d3d b364 ae3d 74da ba3d
000000f0: 165a 343d 844c d93d 4379 c9bd 1836 13bd
00000100: af70 733d 95c8 9d3d 7edd b93a 7428 913d
00000110: fc5c 673d 81fa 5a3d 6e2c ddbd dd32 0d3e
00000120: 1861 3b3d 75bf 88bd 3e0b 0e3e 34a3 963d
00000130: 2a46 2b3d fa8f 20bc 58b7 db3d b7cb 5abd
00000140: 5150 cbbd ded4 b33d fa59 2cbc 441d 61bd
00000150: 1c5e 24bd 7a43 173d 3b7b e43d a893 1abd
00000160: 4ae4 28bd b504 eb3d 0adc 593e 4c14 0d3e
00000170: c5c9 debd f328 113d a7a3 f03b 49bd 22bd
00000180: 678f 5b3d c40e 173e dd54 cfbd 894b 0b3e
00000190: 2971 fa3c 6430 913c 1cf5 36bd 8308 a1bb
000001a0: 5692 663b 9c4c 76bd 28d8 ce3d eae4 8bbd
000001b0: 413e 053d 69d1 2c3e 93db 3b3d f0de 303e
000001c0: fd3c b9bd 43c5 1d3e 4c9c c13d fbab f23b
000001d0: cc8e 20bb 1942 1abe 074e 923d 2a08 12bd
000001e0: a874 de3c e0c6 ed3d 0e42 de3c 3410 e73d
000001f0: 2c7e a43d 90ea 363e 3c8f da3d fdbb 0ebc
00000200: d7d2 703d 767f a4bc 48ac 36bd 9e1d c63d
00000210: be54 873d 640d 073e 130c ee3b ac55 873d
00000220: bd55 883d 720f afbc 412a e73c 8e88 ba3c
00000230: 820f 853c 8000 533d 3b16 213d f760 0a3d
00000240: dbcb 523e f357 33bd 95cc a93c 00d1 ef3d
00000250: b8dc 99bd 3cb5 433d ac5c cf3d 4081 3bbe
00000260: 817c 8dbd aa12 093b 072e 19be 59a2 15bd
00000270: d0db 0f3c 60fe 28bc b23a 133e 60fb c83a
00000280: 1283 8c3c 6d92 91bd 71cc 113d 5f36 48bd
00000290: 6bac c8bd c838 103d a60e 5b3d d05f 0abe
000002a0: fe41 12be dbad c8bd 5f25 f4bc 5e42 6b3d
000002b0: b32d 99bd 284a 08be 85cd 85bd 77ed b6bd
000002c0: 1f13 373d dd5d 2fbe 1973 b5bd ddbb 9abd
000002d0: e034 bb3d 614f 09bd 7d70 bb3d e35c edbd
000002e0: 1329 9fbd e0fd f5bd 3b51 02be 6865 c9bd
000002f0: 5674 41bc ba46 04be fb29 613d 0134 793d
00000300: 8a2d 993d 2510 cb3d 45b9 93bd 14b4 cfbd
00000310: 9af1 8ebd b1bf 27be 71d7 49bd 28bf 70bc
00000320: e3a0 0bbd 25b3 8ebd e430 27bd 396c 8a3d
00000330: 6b6a 3ebd 8469 9fbb 4f6a 90bc 5295 fb3c
00000340: 2807 383d c7db 033e 86a4 103d 7257 133e
00000350: b838 90bc 4150 293d 3265 49bd be46 a93d
00000360: 38bc 4f3c 816f 473d 3252 b53d 8fc0 8ebd
00000370: d28b f53c 0b62 0cbc e0c6 ae3d 326b 283c
00000380: 7818 1a3d d6ee 043e 49dc 87bd 4b20 9dbd
00000390: b46e 223e b394 1a3d dd63 73bd fdef 0a3e
000003a0: 214b 22bd 3b25 9b3d 4756 6f3d d36b cf3c
000003b0: fc85 bbbd 5352 3f3e a620 933c 42f0 8fba
000003c0: fd9a 113d af74 57bd b80f c23d 7d82 1e3d
000003d0: e7a5 1d3d 68da 3c3e 572d d43d f0e7 68bd
000003e0: ec4a 27bd 117b b5bc fa70 f7bb 44d0 a23d
000003f0: 741f 1bbd 0f79 5ebe e966 113d cbd8 253e

classfier.fc3.bias f4 [25]
-0.0813698 -0.014018153 -0.018187135 -0.08352595 0.012232443 0.09362028 0.06694321 0.10751872
-0.11845335 -0.0715043 0.10593793 0.13350973 0.08322964 0.058630843 0.109670796 0.12951213
0.016270267 0.09052962 -0.037441373 -0.07238959 0.010325776 0.0115949875 0.0016414684 -0.044860628
-0.10987512
00000000: 36a5 a6bd 65ac 65bc 30fd 94bc a70f abbd
00000010: 966a 483c fdbb bf3d 8619 893d c632 dc3d
00000020: ac97 f2bd d970 92bd fcf5 d83d c6b6 083e
00000030: 4d74 aa3d e526 703d 159b e03d d49e 043e
00000040: 3949 853c 9867 b93d 205c 19bd fe40 94bd
00000050: 722d 293c e7f8 3d3c 8a26 d73a c7bf 37bd
00000060: 3506 e1bd

classfier.bn3.weight f4 [25]
0.97273713 0.9833514 0.9982252 1.1340191 0.98804444 1.1799407 1.1444842 1.0123551
1.0161371 1.0237662 1.0223277 1.1843015 1.1535429 1.1357574 1.1831901 1.1542994
1.0191941 1.1933824 1.1835271 1.0136123 1.0133094 1.1507131 1.1679657 1.0185775
1.1382738
00000000: 4d05 793f ebbc 7b3f b08b 7f3f 8a27 913f
00000010: 7bf0 7c3f 4c08 973f 757e 923f da94 813f
00000020: c810 823f c50a 833f a2db 823f 3197 973f
00000030: 4ba7 933f 8060 913f c672 973f 15c0 933f
00000040: f474 823f c1c0 983f d17d 973f 0cbe 813f
00000050: 1fb4 813f 914a 933f e67f 953f bf60 823f
00000060: f5b2 913f

classfier.bn3.bias f4 [25]
-0.024934897 -0.052915998 -0.048322245 0.13320173 -0.04697104 0.16686855 0.14416598 -0.04683966
-0.044571955 -0.044630066 -0.042579833 0.1823688 0.15128244 0.1393943 0.17235865 0.15404665
-0.047674388 0.19379276 0.17590962 -0.043914106 -0.044853523 0.15389375 0.16934717 -0.047896244
0.13846911
00000000: 4544 ccbc 72be 58bd 8ced 45bd 0966 083e
00000010: b564 40bd 97df 2a3e 3fa0 133e f1da 3fbd
00000020: 1591 36bd 04ce 36bd 3168 2ebd e3be 3a3e
00000030: c9e9 1a3e 61bd 0e3e c97e 303e 68be 1d3e
00000040: 3846 43bd 9c71 463e a721 343e 47df 33bd
00000050: 54b8 37bd 5396 1d3e 5869 2d3e da2e 44bd
00000060: d9ca 0d3e

classfier.bn3.running_mean f4 [25]
0.27903664 0.5384841 0.6687069 -0.75929135 0.45673564 -0.2782441 -0.59350836 0.6251954
0.1281642 0.4088267 0.5307046 -0.9054779 -0.6521713 -0.65281266 0.007909191 -0.039986834
0.4013566 -0.8238249 -0.3231535 0.3200491 0.4851341 -0.74804205 -0.6453298 0.35293293
-0.6055591
00000000: e4dd 8e3e 18da 093f 6030 2b3f eb60 42bf
00000010: 41d9 e93e 0376 8ebe 2af0 17bf ce0c 203f
00000020: 7a3d 033e bc51 d13e 42dc 073f 66cd 67bf
00000030: b3f4 26bf bb1e 27bf 8d95 013c 3cc9 23bd
00000040: 9d7e cd3e 30e6 52bf 6074 a5be 7add a33e
00000050: 7f63 f83e af7f 3fbf 5534 25bf a0b3 b43e
00000060: ec05 1bbf

classfier.bn3.running_var f4 [25]
0.22567339 0.9647483 1.038995 1.6846244 0.83390236 0.70161355 1.1748825 1.1590242
1.225027 1.1660703 1.074605 1.4835569 0.7552165 0.7481522 0.60028017 0.6427633
1.0551049 1.0342133 0.59124184 1.4672155 1.0886375 0.8859336 1.3773376 0.9964502
1.5312524
00000000: ed16 673e bff9 763f cafd 843f c6a1 d73f
00000010: a07a 553f f29c 333f 8d62 963f e85a 943f
00000020: afcd 9c3f cb41 953f a88c 893f 31e5 bd3f
00000030: de55 413f e786 3f3f f6ab 193f 238c 243f
00000040: ad0d 873f 1a61 843f a05b 173f b8cd bb3f
00000050: 7958 8b3f 8bcc 623f 994c b03f 5c17 7f3f
00000060: 1400 c43f

classfier.fc5.weight f4 [1, 25]
-0.021575369 0.08676055 0.06861037 -0.310893 0.08165062 -0.1793185 -0.26713786 0.1893085
0.16949318 0.16797492 0.13261776 -0.14119437 -0.21391536 -0.31387666 -0.16574804 -0.31271178
0.113796555 -0.14431308 -0.14805713 0.20941769 0.0846802 -0.20740059 -0.13424213 0.107457645
-0.3109944
00000000: d4be b0bc 84af b13d 9883 8c3d 5e2d 9fbe
00000010: 7138 a73d 459f 37be 4bc6 88be 16da 413e
00000020: 9f8f 2d3e 9e01 2c3e f3cc 073e 4295 10be
00000030: a10c 5bbe 71b4 a0be dbb9 29be c21b a0be
00000040: 2b0e e93d cfc6 13be 4a9c 17be 9771 563e
00000050: d06c ad3d d260 54be c576 09be c112 dc3d
00000060: a83a 9fbe
