src/trained_models/2025-06-19/run_15-04-30/dnn_model_fold_5.pt (torch, 88129 bytes, 19 tensors)

classfier.fc1.weight f4 [100, 100]
0	0xbd5e67ce	-0.054298215
1	0xbd14d51c	-0.03633605
2	0xbd873f5e	-0.06603883
3	0x3d188a71	0.037241403
4	0x3d904027	0.07043486
5	0xbd569bb3	-0.05239458
6	0xbd8a21b5	-0.0674471
7	0xbd95928d	-0.07303343
8	0xbd102a18	-0.035196394
9	0x3d33d602	0.043905266
10	0x3c768fd9	0.015048944
11	0x3d6a0a1f	0.05713856
12	0x3da38e4f	0.079861276
13	0x3e0fb944	0.14035517
14	0xbd301a29	-0.0429937
15	0x3c341b44	0.010992829
16	0xbcc1d954	-0.0236632
17	0xbd24054b	-0.04004411
18	0xbbb145a7	-0.0054099145
19	0x3c4a4129	0.012344637
20	0xbd9da5f3	-0.07697668
21	0x3d15144a	0.036396302
22	0xbd64adc8	-0.055829793
23	0x3d9a4073	0.07531824
24	0x3cf568ad	0.02995714
25	0xbd2fbfe2	-0.042907603
26	0xbc39f3ee	-0.011349661
27	0xbd70d21f	-0.058794137
28	0x3d583eef	0.052794393
29	0xbd672a21	-0.05643666
30	0x3b34d4d9	0.0027592687
31	0xbcc791dd	-0.024361545
32	0xbce42675	-0.027850369
33	0x3d988469	0.0744713
34	0x3d9b330c	0.07578096
35	0xbc67bd72	-0.014144288
36	0xbd31759f	-0.043325063
37	0x3c7b8789	0.015352138
38	0x3e0d5bfd	0.13804622
39	0x3cb429dd	0.021992618
40	0x3d511463	0.051044833
41	0x3dbd2d25	0.09237126
42	0x3d52a082	0.051422603
43	0xbcaa953c	-0.020823114
44	0x3cbdf363	0.023187345
45	0x3d676e30	0.056501567
46	0xbdb04287	-0.08606439
47	0xbd57d0eb	-0.052689474
48	0x3e027b7b	0.12742417
49	0xbd6e645b	-0.058201175
50	0x3dbced97	0.09225004
51	0x3d7a294d	0.061074544
52	0xbdede7ea	-0.116165
53	0x3c1017b6	0.008794716
54	0xbcbba67e	-0.022906538
55	0x3c0c089d	0.008546975
56	0x3da6e202	0.08148576
57	0xbda785f0	-0.081798434
58	0x3df875b0	0.12131822
59	0x3d333361	0.04375017
60	0x3dd5919b	0.10428163
61	0xbc9262d8	-0.017869398
62	0x3c11127f	0.0088545075
63	0x3d4641df	0.048402663
64	0xbd343ba3	-0.044002187
65	0xbd9190f7	-0.07107728
66	0xbd3b78d5	-0.04576953
67	0xbda9d467	-0.08292466
68	0xbd171192	-0.03688199
69	0x3d883aa9	0.066518135
70	0x3ad56014	0.0016279244
71	0x3ca81304	0.02051688
72	0x3d0892ee	0.033343248
73	0x3d3d49c1	0.046212915
74	0xbda4d1e2	-0.080478445
75	0xbdc97529	-0.098368
76	0x3d874ab1	0.06606043
77	0xbda9d52f	-0.08292615
78	0x3d048de1	0.03236187
79	0xbdc1a508	-0.09455305
80	0x3d588b2a	0.052867092
81	0x3d8a6846	0.0675817
82	0xbcfda906	-0.030964386
83	0xbdb203a3	-0.086921
84	0x3daf379a	0.08555527
85	0xbd6d2ce6	-0.057904147
86	0x3d51e878	0.05124709
87	0x3cee5786	0.029094469
88	0x3bef6460	0.007305667
89	0xbda1a58b	-0.07892903
90	0xbc3bdce9	-0.011466243
91	0x3d0a5535	0.033772666
92	0x3d89da74	0.0673112
93	0xbc065c1a	-0.00820067
94	0x3cbe4114	0.023224391
95	0xbd97ea3b	-0.07417723
96	0x3ca9e815	0.020740548
97	0x3d414729	0.047187004
98	0x3d7a30dc	0.061081752
99	0xbc625815	-0.013814946
100	0x3c13bf68	0.009017803
101	0xbd222fcf	-0.039596375
102	0xbde14559	-0.10999555
103	0x3e101ec0	0.1407423
104	0x3d872f0c	0.0660077
105	0x3cf7ac1e	0.030233439
106	0x3dc79c25	0.09746579
107	0x3d4b3273	0.04960866
108	0xbc8bbac2	-0.017056827
109	0xbd05c6d8	-0.032660335
110	0x3d3c62af	0.04599255
111	0x3d116ffa	0.03550718
112	0xba4719a0	-0.0007595066
113	0x3db795e3	0.089641355
114	0x3dc651bb	0.096835576
115	0x3d0baa24	0.034097806
116	0xbd3e624d	-0.046480466
117	0xbdc9bb1c	-0.098501414
118	0x3ca6f115	0.020378629
119	0x3a85d92f	0.001021182
120	0x3dc13400	0.09433746
121	0x3caddeb6	0.02122436
122	0x3df09334	0.11746827
123	0x3aa88e32	0.001285976
124	0x3d009ad9	0.031397674
125	0x3ced244a	0.028947968
126	0xbda0d9e9	-0.07854063
127	0xbd2c3ae3	-0.042048346
128	0xbcd14c3f	-0.025549052
129	0x3d2310e2	0.039811023
130	0x3d5fd646	0.054647706
131	0xbdaf9e91	-0.08575166
132	0x3d691b25	0.056910653
133	0xbc1d9b5c	-0.00961956
134	0x3d507637	0.05089399
135	0xbd5b3aa2	-0.053522713
136	0xbde25248	-0.1105085
137	0x3c439e8a	0.011939654
138	0x3daefb14	0.08543983
139	0xbd0cf498	-0.03441295
140	0x3d3fb095	0.04679926
141	0x3cb4d34f	0.022073416
142	0xbd20ba38	-0.039240092
143	0x3b8d0406	0.004303458
144	0x3c9894e4	0.018625684
145	0xbd0b31bf	-0.03398299
146	0x3d805d0b	0.062677465
147	0xbd33c053	-0.043884587
148	0xbcffac97	-0.031210227
149	0xbd5fd1c5	-0.05464341
150	0x3da1cf41	0.07900859
151	0x3d35db3f	0.044398542
152	0xbe2958a7	-0.16537724
153	0xbd0ef43d	-0.034900893
154	0x3c353869	0.0110608125
155	0xbd40214e	-0.04690676
156	0xbb9f5e01	-0.004863501
157	0xbad88dd2	-0.0016521758
158	0xbd849f61	-0.064757116
159	0xbca89832	-0.020580385
160	0x3d2aba13	0.04168136
161	0x3c7c76e9	0.01540921
162	0x3d019708	0.031638175
163	0x3cf78242	0.030213479
164	0x3d10e0fb	0.035370808
165	0xbcf7c874	-0.03024695
166	0xbd539231	-0.05165309
167	0x3c8f85d3	0.017519867
168	0x3dee6d87	0.116419844
169	0xbd2816b3	-0.041037273
170	0x3d50398e	0.05083614
171	0x3d01af8a	0.031661548
172	0xbd3411a7	-0.043962147
173	0xbd924658	-0.07142323
174	0xbd7a4e07	-0.06110957
175	0xbdd9d9f2	-0.10637273
176	0x3d7e887e	0.062141888
177	0xbc9e7d28	-0.019346789
178	0x3d480215	0.04883011
179	0x3ca210e4	0.019783445
180	0xbbc26ee5	-0.00593363
181	0xbd68b073	-0.0568089
182	0xbc1a1d7f	-0.0094064465
183	0x3d1a50b3	0.037674617
184	0x3d48f290	0.04905945
185	0x3cad668d	0.021167064
186	0xbd3f7af3	-0.046748113
187	0xbb34b41a	-0.002757317
188	0xbd31880b	-0.04334263
189	0xbde75ef8	-0.11297411
190	0x3dcd7b42	0.10033275
191	0xbde8b39a	-0.11362381
192	0x3d6efe49	0.058347974
193	0x3c9e9da9	0.019362288
194	0x3d6fe232	0.058565326
195	0xbe028fad	-0.1275012
196	0xbda27783	-0.07932951
197	0xbc37da1f	-0.011221438
198	0xbd8cdd40	-0.068781376
199	0x3c2f49f8	0.010698788
200	0xbd5e0775	-0.05420633
201	0xbd056e60	-0.032575965
202	0x3cacc51b	0.021090081
203	0x3dab3e28	0.08361465
204	0xbd0f444c	-0.034977242
205	0xbd2e085e	-0.04248845
206	0xbd05834c	-0.032595918
207	0x3d801f7e	0.06256007
208	0xbd5dce71	-0.054151956
209	0xbcc5ad03	-0.02413035
210	0x3c45b058	0.012065969
211	0x3d72bad0	0.05926019
212	0x3d8cbad1	0.0687157
213	0x3d180bc6	0.037120603
214	0x3d0ce189	0.034394775
215	0xbd4512e7	-0.04811373
216	0x3dbcdf09	0.09222228
217	0xbb260b49	-0.0025336316
218	0x3d2af024	0.041732922
219	0xbd373228	-0.044725567
220	0x3d0ef540	0.034901857
221	0xbd3ba08b	-0.045807403
222	0xbcf08b95	-0.029363433
223	0xbccfc54f	-0.025362639
224	0x3dadb338	0.08481449
225	0x3d47e633	0.04880352
226	0x3d93ac01	0.072105415
227	0xbd05b3c4	-0.03264214
228	0xbc0aba32	-0.008467244
229	0x3d2362b7	0.039889064
230	0xbd71697c	-0.05893849
231	0xbd073e57	-0.033018436
232	0xbde7b3b9	-0.11313576
233	0x3cb6998b	0.022290012
234	0x3ca87ee8	0.020568326
235	0x3d306c9d	0.04307233
236	0xbbaa4dcc	-0.0051972624
237	0x3c56b80f	0.013105406
238	0x3d5c8857	0.05384096
239	0xbd384563	-0.044988047
240	0xbcebfeb8	-0.028807983
241	0xbb556edb	-0.0032567296
242	0x3d9a2271	0.075261004
243	0xbd9261dc	-0.071475714
244	0x3d51463d	0.051092375
245	0x3debe940	0.11519098
246	0xbd2fd6b9	-0.042929385
247	0x3d90c467	0.07068711
248	0x3d3cf93e	0.046136133
249	0x3d830041	0.06396533
250	0x3d9461f1	0.07245243
251	0xbcf5f679	-0.030024754
252	0xbd7e2abd	-0.062052477
253	0xbd7c158c	-0.061543986
254	0xbd5ce7b7	-0.053931918
255	0xbbbc0562	-0.0057379464

classfier.fc1.bias f4 [100]
0	0x37da999a	2.6059151e-05
1	0xb704fc6b	-7.926584e-06
2	0x3793131a	1.753266e-05
3	0xb6df178e	-6.64866e-06
4	0x358c4e10	1.0453532e-06
5	0x370957b9	8.186261e-06
6	0x35edead8	1.7726225e-06
7	0xb7820dcc	-1.5503632e-05
8	0xb6efab72	-7.142714e-06
9	0xb73dd14a	-1.1314007e-05
10	0xb77f7360	-1.5226047e-05
11	0x37c88a7d	2.3906347e-05
12	0xb8489c50	-4.7829293e-05
13	0x35b0cf70	1.3173394e-06
14	0x36d85fd0	6.4484557e-06
15	0x35100c75	5.366231e-07
16	0x36115748	2.1657488e-06
17	0x35755d9e	9.1405843e-07
18	0x361c536d	2.3294372e-06
19	0x355075f1	7.7657666e-07
20	0x383d0748	4.5067893e-05
21	0x339f7c20	7.426593e-08
22	0xb6da6eae	-6.509791e-06
23	0x36199d1c	2.2890226e-06
24	0x36d62ffe	6.383284e-06
25	0xb6ada2d3	-5.174757e-06
26	0xb70a707e	-8.251633e-06
27	0x36e15c80	6.716291e-06
28	0xb685f583	-3.99229e-06
29	0xb79220cf	-1.7419834e-05
30	0xb5c752be	-1.4850737e-06
31	0x37730e65	1.448728e-05
32	0xb6ebca8d	-7.027126e-06
33	0xb6812868	-3.8492035e-06
34	0x3718e308	9.112766e-06
35	0xb473a5b8	-2.2691427e-07
36	0x365592d7	3.1824945e-06
37	0xb7bfb96a	-2.2855314e-05
38	0xb55755f6	-8.021883e-07
39	0x3592c9f5	1.0936625e-06
40	0xb7a4d004	-1.9647188e-05
41	0x376cea34	1.4121226e-05
42	0x36bedc04	5.6880544e-06
43	0xb66c2d52	-3.519312e-06
44	0xb4ea43bc	-4.363518e-07
45	0x3819efe9	3.6701476e-05
46	0xb517a9a3	-5.649874e-07
47	0x37f2b71e	2.8933919e-05
48	0xb591b772	-1.0856731e-06
49	0x373c21b6	1.1213522e-05
50	0xb80d7807	-3.3728804e-05
51	0xb637113d	-2.727916e-06
52	0xb7188c37	-9.092552e-06
53	0xb68c74c5	-4.185919e-06
54	0x36083233	2.02948e-06
55	0xb712ed2c	-8.757499e-06
56	0x3794b873	1.7728866e-05
57	0xb77ce4f8	-1.5073681e-05
58	0xb75b5482	-1.3073093e-05
59	0xb4b7fdfd	-3.4271207e-07
60	0xb71735fc	-9.012871e-06
61	0x36aa0136	5.066536e-06
62	0x38610ede	5.3658026e-05
63	0x380c4d49	3.345058e-05
64	0xb65458c0	-3.164212e-06
65	0x35f4f55f	1.8250829e-06
66	0xb6c9de99	-6.0161806e-06
67	0xb6893b3c	-4.089814e-06
68	0xb62aa0d1	-2.5425581e-06
69	0xb5dd5c3a	-1.6492625e-06
70	0xb71317d3	-8.76743e-06
71	0x377a2418	1.4909565e-05
72	0x361d6e33	2.3458967e-06
73	0x381880e8	3.6359677e-05
74	0xb8099e42	-3.2810734e-05
75	0xb5d04850	-1.5518253e-06
76	0x36377d26	2.734197e-06
77	0xb74e91c1	-1.2312493e-05
78	0xb5831d20	-9.768737e-07
79	0xb3a7c7f8	-7.8129176e-08
80	0x33e7a660	1.0787039e-07
81	0x36a2d20c	4.852429e-06
82	0xb660c0bc	-3.3490787e-06
83	0xb4b5ee3a	-3.388721e-07
84	0x36cdbabe	6.1312157e-06
85	0x36017c93	1.929501e-06
86	0x377a0968	1.4903351e-05
87	0xb53a9680	-6.9509406e-07
88	0xb62b5b7c	-2.5534237e-06
89	0x364a64a2	3.0158922e-06
90	0x363ad336	2.78391e-06
91	0x3811ccd9	3.4761473e-05
92	0x35b3f976	1.3409142e-06
93	0x36ef248e	7.1270106e-06
94	0x3772d43d	1.447374e-05
95	0xb51d4c4c	-5.8598084e-07
96	0xb736a913	-1.0887411e-05
97	0x3680ca39	3.838239e-06
98	0x38baad7b	8.9014844e-05
99	0xb712b47e	-8.744302e-06

classfier.bn1.weight f4 [100]
0	0x3f6d0c42	0.9259683
1	0x3f8757f8	1.0573721
2	0x3f803a62	1.0017817
3	0x3f80ac59	1.0052596
4	0x3f77f6da	0.9686104
5	0x3f8025dc	1.0011554
6	0x3f752f2f	0.9577512
7	0x3f79b19d	0.9753664
8	0x3f68a5cd	0.9087799
9	0x3f7f98ee	0.9984273
10	0x3f816cf8	1.011138
11	0x3f822e3b	1.0170358
12	0x3f838a6e	1.027662
13	0x3f813857	1.0095319
14	0x3f827da6	1.0194595
15	0x3f800747	1.0002221
16	0x3f6f1ce3	0.9340345
17	0x3f7de51b	0.9917771
18	0x3f875d96	1.0575435
19	0x3f6e99a4	0.93203187
20	0x3f85b071	1.0444471
21	0x3f77fe7c	0.9687269
22	0x3f78ff80	0.9726486
23	0x3f7334f7	0.9500269
24	0x3f77a63e	0.9673804
25	0x3f75b853	0.9598438
26	0x3f7f2bf0	0.9967642
27	0x3f7da161	0.9907437
28	0x3f7ae70f	0.9800882
29	0x3f8a756a	1.0817082
30	0x3f779543	0.9671213
31	0x3f850465	1.0391966
32	0x3f77709f	0.9665622
33	0x3f8466c8	1.0343866
34	0x3f714cac	0.94257617
35	0x3f7c5557	0.9856772
36	0x3f7f6824	0.9976828
37	0x3f826f4b	1.0190214
38	0x3f7b4ae1	0.9816113
39	0x3f83a09c	1.0283389
40	0x3f7b8dd1	0.9826327
41	0x3f7f2442	0.996647
42	0x3f7f1104	0.9963534
43	0x3f7c188d	0.9847496
44	0x3f8288d4	1.0198007
45	0x3f873898	1.0564146
46	0x3f76b896	0.96375406
47	0x3f844662	1.0333979
48	0x3f846a25	1.0344893
49	0x3f7f38bf	0.9969596
50	0x3f86c84a	1.0529873
51	0x3f7ce937	0.9879336
52	0x3f75d03b	0.9602086
53	0x3f73c677	0.9522471
54	0x3f786c39	0.97040135
55	0x3f7ea98a	0.99477446
56	0x3f7dba2a	0.9911219
57	0x3f81431b	1.0098604
58	0x3f817ce6	1.0116241
59	0x3f777ae6	0.96671903
60	0x3f70190b	0.9378821
61	0x3f818688	1.0119181
62	0x3f71ae56	0.9440664
63	0x3f825e73	1.0185074
64	0x3f68830c	0.9082496
65	0x3f6dc178	0.92873335
66	0x3f69be0b	0.9130561
67	0x3f7febde	0.9996928
68	0x3f80ee24	1.0072675
69	0x3f78f7c8	0.97253084
70	0x3f83292f	1.0246943
71	0x3f7ee3ef	0.9956655
72	0x3f7250b5	0.946544
73	0x3f81c18c	1.0137191
74	0x3f7a69fe	0.9781798
75	0x3f6de859	0.9293266
76	0x3f781943	0.96913546
77	0x3f7c78d0	0.98621845
78	0x3f7a3039	0.9772983
79	0x3f739266	0.9514526
80	0x3f6d5faa	0.92724097
81	0x3f6e9f96	0.9321226
82	0x3f68acfc	0.90888953
83	0x3f6ba7a5	0.9205268
84	0x3f7cfa67	0.98819584
85	0x3f77b8ad	0.9676617
86	0x3f8a1338	1.0787115
87	0x3f73f533	0.9529602
88	0x3f84639c	1.0342898
89	0x3f7d22e9	0.98881394
90	0x3f7257eb	0.946654
91	0x3f7ffc78	0.9999461
92	0x3f6c462b	0.9229457
93	0x3f788cf0	0.97090054
94	0x3f795e1a	0.9740921
95	0x3f75c424	0.9600241
96	0x3f7480c1	0.9550896
97	0x3f7ca4f1	0.9868918
98	0x3f78e2c5	0.9722102
99	0x3f73e6fa	0.9527432

classfier.bn1.bias f4 [100]
0	0xbe335f85	-0.17516907
1	0xbe0e29d8	-0.1388315
2	0xbe6611c1	-0.2246771
3	0xbe507980	-0.20358849
4	0xbdb21881	-0.0869608
5	0xbe76400e	-0.24047872
6	0xbe30a569	-0.17250599
7	0xbe430194	-0.19043571
8	0xbc4106dd	-0.0117814215
9	0xbe470c0d	-0.19438191
10	0xbe18ae1e	-0.1491017
11	0xbe20e325	-0.15711649
12	0xbe803fbf	-0.25048634
13	0x3c30c6e9	0.010789611
14	0xbe171011	-0.14752223
15	0xbd73cda4	-0.059522286
16	0xbc5081c9	-0.012726256
17	0xbdef125a	-0.11673422
18	0xbd42f9e8	-0.04760161
19	0xbdce3ac0	-0.100697994
20	0xbdb92e66	-0.09042053
21	0xbdfb2696	-0.12263219
22	0xbe0f685c	-0.14004654
23	0xbe3392d6	-0.17536482
24	0xbe7ed0a8	-0.24884284
25	0xbda7cbf5	-0.081931986
26	0xbe2dbe59	-0.16967143
27	0xbdb66472	-0.08905877
28	0xbc6d8e65	-0.0144992815
29	0xbdc02738	-0.093824804
30	0xbd5d5665	-0.05403747
31	0xbe5d9b39	-0.21641244
32	0xbe3f9506	-0.18709192
33	0xbe24d39f	-0.16096352
34	0xbe4f12d8	-0.20222032
35	0xbd8dd4c1	-0.06925345
36	0xbe02a0dd	-0.12756677
37	0xbe21db83	-0.15806393
38	0xbe267f07	-0.16259395
39	0xbdfed3d1	-0.124427445
40	0xbdb69e52	-0.08916916
41	0xbe1e09cf	-0.15433429
42	0xbe78ca25	-0.24295862
43	0xbd111214	-0.03541763
44	0x3c9835c9	0.018580334
45	0xbd64b2b4	-0.055834487
46	0x3c09b5fa	0.008405203
47	0xbe764f38	-0.24053657
48	0xbe40a788	-0.18813908
49	0xbe6a7e14	-0.22899657
50	0xbe01ea1e	-0.12686965
51	0xbe86378b	-0.2621425
52	0xbd79411c	-0.06085311
53	0x3c52ecab	0.012873809
54	0xbe3cf302	-0.18452075
55	0xbe3dd877	-0.18539606
56	0xbe45f533	-0.19331817
57	0xbe53e2f8	-0.2069205
58	0xbe2eb6c9	-0.17061915
59	0x3d0a0a8d	0.03370147
60	0xbe095324	-0.13410622
61	0xbde99f33	-0.11407318
62	0xbe7de11f	-0.24792908
63	0xbe3aeb9e	-0.18253943
64	0xbdd28f63	-0.10281255
65	0xbe0346b9	-0.12819947
66	0xbdcd766d	-0.100323536
67	0xbe3f416d	-0.18677302
68	0xbdd3e1d0	-0.10345805
69	0xbd5770a1	-0.052597646
70	0x3c160663	0.009156796
71	0xbd2dc64b	-0.042425435
72	0x3d4b9443	0.04970194
73	0xbe65da2b	-0.22446506
74	0xbe564fcb	-0.20928876
75	0xbc743e5f	-0.014907449
76	0xbe267a5a	-0.16257611
77	0xbe3b0b75	-0.1826609
78	0xbe58ddb4	-0.21178323
79	0xbd792237	-0.060823645
80	0xbd86111c	-0.06546232
81	0xbdfe79f0	-0.124256015
82	0xbe005c7a	-0.12535277
83	0xbba8b608	-0.005148653
84	0xbdb1cd94	-0.08681789
85	0xbe5e6a09	-0.21720137
86	0xbbbef661	-0.0058277105
87	0xbc9d1a25	-0.019177506
88	0x3d6ba8bd	0.05753397
89	0xbe455d7a	-0.1927394
90	0x3d3c8fe2	0.046035655
91	0xbe638ba2	-0.22221234
92	0xbdc800f3	-0.09765806
93	0xbe3c50b4	-0.18390161
94	0xbe494523	-0.1965528
95	0xbc8458e3	-0.016155666
96	0xbdfa878b	-0.12232884
97	0xbe5364ac	-0.20643872
98	0xbe1b4955	-0.15164693
99	0xbe55857b	-0.208517

classfier.bn1.running_mean f4 [100]
0	0xbf2181be	-0.63088596
1	0xbe2b94b7	-0.16755949
2	0xbea3c152	-0.3198343
3	0xbe2915b4	-0.16512185
4	0xbe5fb03a	-0.21844569
5	0xbd33ef25	-0.043929238
6	0x3dda5a86	0.10661797
7	0xbef25b08	-0.47335076
8	0x3f4da106	0.8032383
9	0xbeb9e712	-0.36309105
10	0xbd96f8ef	-0.07371699
11	0xbe52949c	-0.20564502
12	0xbe4f3e19	-0.20238532
13	0xbf117c06	-0.5682987
14	0xbe735081	-0.23761179
15	0x3dd48cb6	0.10378401
16	0x3ef428f6	0.476875
17	0xbe19a5fb	-0.15004723
18	0xbf95c2f3	-1.1700119
19	0xbf081758	-0.5316062
20	0xbdf91894	-0.12162891
21	0xbd3bfe00	-0.04589653
22	0x3e2b8af2	0.16752222
23	0xbe4f11db	-0.20221655
24	0xbea00c19	-0.3125923
25	0xbd3f2a14	-0.04667099
26	0xbec646a9	-0.38725784
27	0x3f42ffe0	0.76171684
28	0x3e19b317	0.15009724
29	0x3e14a823	0.14517264
30	0xbfb60298	-1.4219542
31	0xbdf96c60	-0.12178874
32	0xbe44936a	-0.19196859
33	0xbc941d8a	-0.018080492
34	0xbe29f7a0	-0.16598368
35	0xbf970857	-1.179942
36	0x3fe319b6	1.7742221
37	0xbf10f100	-0.56617737
38	0xbedf8316	-0.43654698
39	0xbe652f6e	-0.22381374
40	0x3fc5c7bc	1.5451579
41	0xbddc82f3	-0.10767164
42	0xbe0eb374	-0.13935643
43	0x3da8c984	0.08241561
44	0x3ed0580f	0.40692183
45	0xbe068db1	-0.13139988
46	0x4041dbc2	3.029038
47	0xbe55583f	-0.20834444
48	0xbd43f096	-0.047836863
49	0xbf21ee41	-0.6325417
50	0xbe6029b4	-0.21890908
51	0xbe783efa	-0.24242774
52	0x3e501d51	0.20323683
53	0x402f962a	2.7435403
54	0x3e2734ff	0.1632881
55	0x3ac92e50	0.0015348885
56	0xbea3f774	-0.3202473
57	0xbe180b35	-0.14848025
58	0x3e422971	0.18961121
59	0x3f0b86e2	0.5450269
60	0x3d94a0d3	0.07257237
61	0x3db3fd24	0.08788517
62	0xbf41b1f4	-0.7566216
63	0xbe89a2ae	-0.26881927
64	0xbf9393a2	-1.1529429
65	0x3fcf8058	1.6211042
66	0x3f643c47	0.89154476
67	0xbda5a9a9	-0.08089001
68	0xbee5607f	-0.44800183
69	0x4004ea05	2.0767834
70	0x3e678178	0.22607982
71	0xbe96c429	-0.29446533
72	0x3fe8829a	1.8164856
73	0x3ddbd85e	0.10734628
74	0xbee8d6d4	-0.454764
75	0x3f793b53	0.97356147
76	0xbb520206	-0.0032044663
77	0xbf02d91e	-0.51112545
78	0xbdb431e3	-0.08798578
79	0x3e9d23c3	0.30691347
80	0x40193556	2.3938804
81	0xbf0e97d9	-0.5570045
82	0xbf85865e	-1.0431631
83	0x3f22e5fa	0.63632166
84	0x3f2b8549	0.6700025
85	0xbdc2280d	-0.09480295
86	0xbe9cbb8c	-0.30611837
87	0x3d4c3f91	0.04986531
88	0xbff68a7c	-1.9261012
89	0xbded3249	-0.11581857
90	0x3e7db1cd	0.24774857
91	0x3c5bd016	0.013416311
92	0xbfbff207	-1.4995736
93	0xbe8aec7d	-0.2713355
94	0xbf08fa3b	-0.5350682
95	0x3fc89426	1.5670211
96	0xbde5d0fa	-0.112215
97	0xbee2167e	-0.44157785
98	0xbee685b9	-0.45023897
99	0xbeaf33f2	-0.3421932

classfier.bn1.running_var f4 [100]
0	0x3e22a9be	0.15885064
1	0x3d900e13	0.070339344
2	0x3d1a3343	0.037646543
3	0x3d4e984b	0.050438207
4	0x3ddec4c8	0.10877377
5	0x3d1127d9	0.035438392
6	0x3d90753d	0.070536114
7	0x3dd4b1a7	0.10385447
8	0x3e01ac2f	0.12663339
9	0x3dcaf77b	0.099104844
10	0x3d8df010	0.06930554
11	0x3d1e5995	0.03865965
12	0x3d640970	0.055673063
13	0x3dcb0906	0.099138305
14	0x3d48f953	0.0490659
15	0x3d993bb4	0.074820906
16	0x3daf3495	0.08554951
17	0x3e074ec4	0.1321364
18	0x3f0a7ea5	0.54099494
19	0x3dc203f2	0.09473409
20	0x3d1da9a8	0.038491875
21	0x3e1e1d03	0.15440755
22	0x3d72f20c	0.059312865
23	0x3ddb21e7	0.10699826
24	0x3dc6cc6d	0.0970696
25	0x3e1507ca	0.14553753
26	0x3d846ad9	0.06465692
27	0x3db68045	0.08911184
28	0x3e12fc41	0.1435404
29	0x3d53dca8	0.051724106
30	0x3eeefcff	0.46677396
31	0x3d4b860b	0.04968838
32	0x3d3b1367	0.0456728
33	0x3d936c83	0.07198431
34	0x3d80ef92	0.062956944
35	0x3e9dd6bd	0.30827895
36	0x3e921982	0.28535086
37	0x3d89db20	0.06731248
38	0x3dd2827f	0.102787964
39	0x3e35f543	0.17769341
40	0x3e835c50	0.25656366
41	0x3d6a4b28	0.05720058
42	0x3d8f323b	0.069920026
43	0x3e10f466	0.1415573
44	0x3df9b115	0.12191979
45	0x3d2951bf	0.041337725
46	0x3f87baf5	1.060393
47	0x3cd2ef64	0.025748916
48	0x3d6f8fea	0.058486857
49	0x3da9c1d3	0.08288922
50	0x3d866b83	0.06563475
51	0x3d79a34c	0.060946748
52	0x3d81c76f	0.06336867
53	0x3f39bb30	0.7255125
54	0x3dddbeb0	0.108273864
55	0x3de23f7a	0.110472634
56	0x3d7e291d	0.062050927
57	0x3d26c65f	0.040716525
58	0x3d5d048f	0.053959426
59	0x3e4a44fd	0.1975288
60	0x3dd3338f	0.103125684
61	0x3e06a976	0.13150582
62	0x3e0073b5	0.12544139
63	0x3d80e306	0.06293301
64	0x3e81aa0f	0.25325057
65	0x3e79e070	0.24402022
66	0x3e2468c5	0.16055591
67	0x3d49de4b	0.04928426
68	0x3dd3b191	0.103366025
69	0x3ee7c4c9	0.45267323
70	0x3dfb2d0b	0.12264451
71	0x3d58a69d	0.05289327
72	0x3ed686bb	0.41899666
73	0x3da10ab5	0.0786337
74	0x3da75d2c	0.08172068
75	0x3e10b634	0.14132005
76	0x3d928632	0.07154502
77	0x3d5fa35d	0.054599155
78	0x3e05eb34	0.13078004
79	0x3e30c3df	0.17262219
80	0x3ed20fab	0.4102758
81	0x3dba64c4	0.09101251
82	0x3e606fe2	0.2191768
83	0x3e3d987f	0.18515204
84	0x3daadfb2	0.08343448
85	0x3dbaeaad	0.09126792
86	0x3d0d7239	0.03453276
87	0x3e48543e	0.19563386
88	0x3f0c8135	0.54884654
89	0x3d9ab311	0.075536855
90	0x3dedae6e	0.116055354
91	0x3d30d152	0.043168373
92	0x3e58fbf7	0.21189867
93	0x3d86f037	0.06588786
94	0x3df556b8	0.11979431
95	0x3eb51344	0.3536626
96	0x3d943a42	0.07237674
97	0x3db6ab56	0.089193985
98	0x3d890098	0.066895664
99	0x3dc6519a	0.09683533

classfier.fc2.weight f4 [50, 100]
0	0xbd9ccc30	-0.07656133
1	0xbd6af9d4	-0.05736716
2	0x3db449a6	0.0880311
3	0xbb7c5bdb	-0.0038506899
4	0xbda4bf1f	-0.08044266
5	0x3ca28df2	0.019843075
6	0xbd52e54f	-0.051488217
7	0xbd45e498	-0.048313707
8	0xbda7aff9	-0.08187861
9	0xbc3d99b1	-0.011572287
10	0x3d8e7a59	0.0695693
11	0xbd615de1	-0.05502117
12	0xbc87c42e	-0.016573038
13	0x3d43cb01	0.04780102
14	0xbd67ec29	-0.056621704
15	0xbd78681c	-0.06064616
16	0x3ce2fbec	0.027708016
17	0xbb73744f	-0.0037148183
18	0xbdbe0917	-0.092790775
19	0xbce6ed5c	-0.028189354
20	0x3d32ff49	0.04370049
21	0xbd609453	-0.054828953
22	0x3d998f8c	0.074980825
23	0xbdafe3a9	-0.085883446
24	0x3c344a67	0.011004067
25	0x3d04ede8	0.032453448
26	0x3d0370e0	0.032090068
27	0x3acc5b24	0.0015591127
28	0x3dd69ed8	0.10479516
29	0x3c1ef441	0.009701789
30	0x3ace6568	0.0015746774
31	0x3dcc180e	0.099655256
32	0x3cf1a3f4	0.029497124
33	0xbda4f03b	-0.08053633
34	0xbd81c4a9	-0.06336338
35	0xbdee7ff5	-0.116454996
36	0xbd1e1933	-0.03859825
37	0xbd31be72	-0.043394513
38	0xbde22361	-0.11041904
39	0xbdecc87c	-0.11561677
40	0x3d718075	0.058960397
41	0x3d602073	0.054718446
42	0xbd6c36ab	-0.057669323
43	0x3d783963	0.060601603
44	0x3dbd38db	0.0923936
45	0xbdc4d1c6	-0.096103236
46	0x3dd4ee67	0.10397034
47	0x3bdf83de	0.0068211397
48	0x3cb70fa2	0.022346321
49	0xbdf4eb24	-0.11958912
50	0x3dab3e75	0.08361522
51	0xbceddc1d	-0.029035622
52	0x3ad939e4	0.0016573039
53	0xbb88a4bd	-0.004170029
54	0xbc799a04	-0.015234474
55	0x3d3e109d	0.046402562
56	0x3ca4597c	0.0200622
57	0x3d57078a	0.052497424
58	0xb90427fa	-0.00012603393
59	0x3db7a4fb	0.089670144
60	0x3d8ec75b	0.06971618
61	0xbd661aa3	-0.056177747
62	0x3cbbef5a	0.02294128
63	0x3d6dcbbd	0.058055628
64	0xbd91a8bb	-0.07112261
65	0xbd64fc88	-0.055904895
66	0xbc638e95	-0.013888975
67	0x3cdaefc1	0.026725652
68	0xbbc224de	-0.005924805
69	0xbd3b69f8	-0.045755357
70	0x3d33ac48	0.043865472
71	0xbc862867	-0.016376687
72	0x3d2368ac	0.039894745
73	0xbd7f77b1	-0.062370006
74	0x3d2d7e44	0.042356744
75	0xbb9b58a6	-0.0047407923
76	0x3b98388c	0.004645413
77	0xbcdd8cd5	-0.027044693
78	0x3d432f02	0.047652252
79	0xbd9eb2cd	-0.07748947
80	0xbd4a4580	-0.049382687
81	0x3d93448a	0.07190807
82	0xbdbf5b44	-0.093435794
83	0xbd73cb1f	-0.059519883
84	0xbdc0690f	-0.09395038
85	0x3c800a2c	0.01562985
86	0xbe1277e4	-0.14303547
87	0x3c9961f7	0.018723471
88	0x3b806b69	0.0039190543
89	0xbd08071d	-0.03320991
90	0xbcbed4bc	-0.023294799
91	0xbc0500a0	-0.008117825
92	0xbdb31084	-0.087433845
93	0xbd813833	-0.06309547
94	0xbcb1494d	-0.021641398
95	0xbd27cf36	-0.040969096
96	0x3d8ee905	0.06978039
97	0xbcfe7a79	-0.031064259
98	0xbdb5e24a	-0.08881052
99	0xbd25125e	-0.04030072
100	0x3ccaae3e	0.024741288
101	0x3c738f7c	0.014865752
102	0x3de7df70	0.11321914
103	0x3cd66b92	0.02617434
104	0xbc29fbcb	-0.0103749735
105	0x3ce01ebf	0.02735841
106	0xbd11b9ed	-0.035577703
107	0x3ddd55b3	0.108073615
108	0x3cbd1a1f	0.023083745
109	0x3deb0eba	0.11477418
110	0x3d00605a	0.031341888
111	0x3cacf202	0.021111492
112	0x3dd1e9b6	0.10249655
113	0x3abc95d2	0.0014387912
114	0x3d8a1ab9	0.06743378
115	0xbc283f36	-0.010268977
116	0x3c288633	0.010285902
117	0x3cf6777a	0.030086268
118	0xbc2b4767	-0.010454035
119	0xbdc47927	-0.095934205
120	0xbca19419	-0.019723939
121	0x3cb26c01	0.021780016
122	0xbd159e69	-0.036528025
123	0x3da374a3	0.07981231
124	0x3cad6f59	0.021171259
125	0x3d4ff724	0.0507728
126	0x3d656c88	0.056011707
127	0xbdbffd09	-0.093744345
128	0x3d6f6f9c	0.05845605
129	0x3d4dff26	0.050292157
130	0xbd48385a	-0.048881866
131	0x3de0c02a	0.109741524
132	0xbc9bc782	-0.019016031
133	0x3daec857	0.085343055
134	0x3d9748ae	0.073869094
135	0x3d972e3f	0.073818676
136	0xbd8f4df0	-0.06997287
137	0x3d86ed87	0.065882735
138	0x3bd4f9c9	0.0064995033
139	0x3e016538	0.12636268
140	0xbdbd25c6	-0.0923572
141	0x3d9c24c6	0.076242015
142	0xbbb87bae	-0.005629978
143	0xbd17ba07	-0.037042644
144	0xbd326740	-0.043555498
145	0xbda894f4	-0.082315356
146	0x3c8b4954	0.017002739
147	0x3dab8370	0.08374679
148	0x3db2f2b9	0.08737702
149	0x3cdfed59	0.027334856
150	0x3c3ef6ff	0.011655568
151	0x3db008b4	0.0859541
152	0xbd7102e6	-0.058840655
153	0x3d159adf	0.03652465
154	0xbb38e05b	-0.0028209898
155	0x3daf532c	0.08560786
156	0x3da8661b	0.082226
157	0x3df1afc3	0.11801102
158	0x3d7e33c8	0.0620611
159	0x3d4b6873	0.049660157
160	0xbd7544c6	-0.05988004
161	0x3d8fd405	0.070228614
162	0x3d52dd2c	0.051480457
163	0x3d97bd43	0.07409146
164	0x3c0bdf92	0.00853719
165	0xbc95007d	-0.01818871
166	0xbc0e8b57	-0.008700213
167	0x3d88a87c	0.06672761
168	0x3cbece1e	0.023291644
169	0xbd8a6937	-0.067583494
170	0xbd70de3f	-0.0588057
171	0xbca1d2c5	-0.019753823
172	0xbc38f6ac	-0.01128928
173	0x3dd5f374	0.104468256
174	0x3daae46f	0.083443515
175	0xbc7d121c	-0.015446212
176	0xbbf1f732	-0.0073842043
177	0x3d5bf869	0.0537037
178	0x3d87fb10	0.06639683
179	0x3c08a7a3	0.008340749
180	0x3d06dd88	0.032926112
181	0xbba399c9	-0.004992698
182	0x3bd786cd	0.006577349
183	0x3dacf814	0.08445755
184	0xbdb4ce7b	-0.088284455
185	0x3d6d980c	0.05800633
186	0xbdde69ca	-0.108600214
187	0xbce85147	-0.028359069
188	0xbc0f2bf6	-0.008738508
189	0x3da1a671	0.07893074
190	0x3d2ecd74	0.042676404
191	0xbc2e88f9	-0.010652774
192	0xbd44931f	-0.047991868
193	0x3d137909	0.0360041
194	0x3d9b361e	0.075786814
195	0xbd95bb79	-0.07311148
196	0x3d3a0074	0.04541059
197	0x3d27f815	0.041008074
198	0x3db191fd	0.08670423
199	0x3dbbfe40	0.09179354
200	0xbdd6308c	-0.10458478
201	0xbd392222	-0.045198567
202	0xbd7c24a1	-0.06155837
203	0xbd63c5f6	-0.055608712
204	0x3d4a6f14	0.04942234
205	0xbd300862	-0.042976744
206	0xbdc92b7b	-0.09822746
207	0xbd44a3fa	-0.048007943
208	0xbce8cfba	-0.028419364
209	0x3d2ac249	0.04168919
210	0xbd210c6a	-0.03931848
211	0xbd9cf7c7	-0.07664447
212	0xbde9f3f5	-0.11423484
213	0x3ae05a72	0.0017116799
214	0x3d0a4d85	0.033765335
215	0x3d887db9	0.06664605
216	0xbc4a02de	-0.012329785
217	0x3dd44f42	0.1036668
218	0xbdd6b80b	-0.10484322
219	0x3c4501bd	0.01202434
220	0x3d23e1be	0.040010206
221	0xbda3c310	-0.079961896
222	0xbd9177d3	-0.07102933
223	0x37a0be31	1.9162051e-05
224	0x3cb63a9b	0.022244742
225	0xbda2e2fe	-0.079534516
226	0xbd08674e	-0.033301644
227	0xbda23c20	-0.07921624
228	0xbd9e20b7	-0.077210836
229	0xbdbe3492	-0.09287371
230	0x3d111901	0.035424236
231	0xbd35b789	-0.044364486
232	0xbdc750bd	-0.097321965
233	0xbdddcbee	-0.10829912
234	0xbcb6fb03	-0.022336489
235	0x3c46e49b	0.012139465
236	0x3d94a338	0.07257694
237	0x3c0c9084	0.008579377
238	0xbc9b68e1	-0.018970909
239	0x3bae57d0	0.0053205267
240	0x3da260fd	0.07928655
241	0x3c60c818	0.013719581
242	0xbcd6564a	-0.026164193
243	0xbdf02367	-0.117255025
244	0x3d0754ef	0.033039983
245	0x3c6ad9f9	0.014334195
246	0x3d9a2019	0.075256534
247	0xbd57e81a	-0.052711584
248	0xbd40e9db	-0.047098022
249	0xbced92f2	-0.029000733
250	0xbd355900	-0.04427433
251	0xbd351628	-0.044210583
252	0xbce2e196	-0.027695458
253	0x3c86af81	0.016441109
254	0x3da2272c	0.07917628
255	0xbd5a8e86	-0.053358577

classfier.fc2.bias f4 [50]
0	0x362a6774	2.5392192e-06
1	0x3651176f	3.1157067e-06
2	0xb5c15f66	-1.4407385e-06
3	0xb4e8d0d0	-4.3365299e-07
4	0x357f1f82	9.504075e-07
5	0x3312d914	3.4190705e-08
6	0x3557c8c8	8.0385917e-07
7	0x368ace01	4.1367025e-06
8	0x36469aec	2.9594476e-06
9	0xb5b72797	-1.3646085e-06
10	0xb5bcb8c2	-1.4060863e-06
11	0xb5fa94b8	-1.8669734e-06
12	0xb6116267	-2.1663961e-06
13	0x3645ccfc	2.9474604e-06
14	0x34a54e82	3.0790767e-07
15	0x35e81c10	1.7293514e-06
16	0x36be3ec8	5.66975e-06
17	0xb5b19b33	-1.3232697e-06
18	0xb620faa4	-2.398775e-06
19	0x374d3a66	1.2232549e-05
20	0xb5f4f221	-1.8249885e-06
21	0xb5752653	-9.132538e-07
22	0x351fe4c2	5.9565e-07
23	0x34a8e711	3.1460561e-07
24	0x364526c3	2.937785e-06
25	0x368a2722	4.117276e-06
26	0x366f9428	3.5700014e-06
27	0xb7403f7e	-1.1458875e-05
28	0x357e36ac	9.470193e-07
29	0xb58306ab	-9.762201e-07
30	0xb58640e5	-1.0002665e-06
31	0x362e862d	2.600612e-06
32	0x3689ed28	4.110527e-06
33	0xb722f49d	-9.712906e-06
34	0xb4d2dd3c	-3.9276517e-07
35	0x371ef536	9.4746265e-06
36	0xb74f5a01	-1.2359117e-05
37	0x350e7a88	5.307743e-07
38	0xb4fabf60	-4.6705372e-07
39	0xb6f13338	-7.1883223e-06
40	0xb4f6e279	-4.598585e-07
41	0xb6398b85	-2.764836e-06
42	0x36e573b6	6.8382024e-06
43	0xb61ae51d	-2.308115e-06
44	0x354f8bb1	7.7316787e-07
45	0x35730e8d	9.054573e-07
46	0xb4c1c6b4	-3.6093627e-07
47	0x35f16b10	1.7987059e-06
48	0x35ab5614	1.2765545e-06
49	0xb62ea7cc	-2.602569e-06

classfier.bn2.weight f4 [50]
0	0x3f77b516	0.9676069
1	0x3f79b5d8	0.97543097
2	0x3f761d4d	0.9613846
3	0x3f78b118	0.97145224
4	0x3f706321	0.9390126
5	0x3f654d61	0.89571196
6	0x3f7883a1	0.9707585
7	0x3f77efc3	0.9685022
8	0x3f8e1e1f	1.1102942
9	0x3f85141b	1.0396761
10	0x3f6c4e46	0.92306936
11	0x3f676b60	0.90398216
12	0x3f86b0b4	1.0522676
13	0x3f811175	1.0083452
14	0x3f794f63	0.9738676
15	0x3f7b1372	0.98076546
16	0x3f929afc	1.1453547
17	0x3f890462	1.0704463
18	0x3f718d72	0.94356453
19	0x3f7329ab	0.94985455
20	0x3f7befb6	0.98412645
21	0x3f6eaf1c	0.93235946
22	0x3f80ecd0	1.007227
23	0x3f7fbf56	0.9990133
24	0x3f6cc731	0.9249144
25	0x3f6d005a	0.9257866
26	0x3f7c5b8f	0.9857721
27	0x3f7d0ea5	0.9885047
28	0x3f696f9f	0.91185945
29	0x3f79c94a	0.9757277
30	0x3f6d1c5d	0.92621404
31	0x3f86d4cb	1.0533689
32	0x3f784b8e	0.9699029
33	0x3f896bbf	1.0736006
34	0x3f8460c0	1.0342026
35	0x3f84577e	1.03392
36	0x3f80b962	1.0056574
37	0x3f84bee7	1.0370759
38	0x3f782eff	0.9694671
39	0x3f835242	1.0259478
40	0x3f69f98e	0.91396415
41	0x3f87f9bc	1.0623088
42	0x3f79233b	0.9731938
43	0x3f863a8f	1.0486621
44	0x3f60cc5e	0.8781184
45	0x3f63cf27	0.88987964
46	0x3f8295a2	1.0201914
47	0x3f6d3721	0.92662245
48	0x3f732288	0.94974566
49	0x3f735e6e	0.95065963

classfier.bn2.bias f4 [50]
0	0x3cbfcec5	0.023414025
1	0xbe46cec9	-0.1941482
2	0xbcd4d02b	-0.025978168
3	0xbb8e7a3c	-0.0043480676
4	0xbc904054	-0.017608799
5	0xbda73404	-0.08164218
6	0xbcbf0e7c	-0.023322336
7	0x3d288793	0.04114492
8	0x3c83e2bf	0.016099332
9	0x3b137241	0.002249852
10	0xbd8e7852	-0.06956543
11	0xbd8200e7	-0.06347828
12	0xbd3d66d3	-0.04624064
13	0x3d397dd5	0.04528602
14	0x3bf0becc	0.0073469635
15	0xbd595ec0	-0.053068876
16	0x3de3fdb8	0.111323774
17	0x3c5bab44	0.013407532
18	0xbe22a4f3	-0.15883236
19	0xbe8aae42	-0.27086073
20	0xbe758058	-0.2397474
21	0xbe500149	-0.2031299
22	0x3d69a695	0.05704363
23	0xbc01646d	-0.0078974785
24	0xbe4e4d5e	-0.201467
25	0xbe3d97d9	-0.18514957
26	0xbd6e2831	-0.0581438
27	0xbe945d8d	-0.28977624
28	0xbd5f381d	-0.054496873
29	0x3d14cba1	0.03632701
30	0xbe7d2746	-0.24722013
31	0x3d0b198a	0.033959903
32	0xbd117b44	-0.035517946
33	0x3beb0bdd	0.007173045
34	0xbe548340	-0.20753193
35	0xbe7e32c9	-0.2482406
36	0xbe42d15b	-0.19025175
37	0xbca822ff	-0.0205245
38	0xbc8914fc	-0.016733639
39	0x3d032986	0.03202202
40	0xbd6367a4	-0.05551876
41	0xbe8d7b21	-0.27633002
42	0xbe651b78	-0.2237376
43	0x3d33db38	0.043910235
44	0xbdf72a4c	-0.12068614
45	0xbe1699af	-0.14707063
46	0x3d71f46f	0.059071
47	0xbe6ca7f5	-0.23110946
48	0xbe3ac858	-0.18240488
49	0xbe33e78c	-0.17568797

classfier.bn2.running_mean f4 [50]
0	0xbe9ffeff	-0.31249234
1	0x3f1b13e2	0.60577214
2	0xbf1fadbd	-0.6237448
3	0xbf19279c	-0.59826064
4	0xbe78b396	-0.24287257
5	0xbe92842f	-0.28616473
6	0xbe6b5fb8	-0.22985733
7	0xbf6e66b1	-0.93125445
8	0xbee8f425	-0.45498767
9	0xbf406777	-0.75157875
10	0xbed553a7	-0.41665384
11	0x3edaa5f7	0.42704746
12	0xbc8cd743	-0.017192489
13	0xbf4e3a7a	-0.8055798
14	0xbf568ca5	-0.83808357
15	0x3dfe1b4a	0.12407549
16	0xbf5c2539	-0.859943
17	0xbf59d14c	-0.85084987
18	0x3f7fdeb8	0.99949217
19	0x3f7b0f27	0.98069996
20	0x3f285359	0.6575218
21	0x3f5f812e	0.8730649
22	0xbf3205a7	-0.69539875
23	0xbea902b1	-0.33009866
24	0x3f063f30	0.52440166
25	0x3f39f1f6	0.7263483
26	0x3e8647a1	0.26226524
27	0x3f2b5e2f	0.6694059
28	0x3e10fa95	0.1415809
29	0xbf373c98	-0.71576834
30	0x3f4c18c5	0.79725295
31	0xbf432e1d	-0.7624224
32	0xbeea1ef0	-0.45726728
33	0xbe118e3b	-0.14214413
34	0x3f4a287e	0.78968036
35	0x3f36833b	0.7129399
36	0x3f86e016	1.0537136
37	0xbecdede1	-0.4022055
38	0xbf0a8e09	-0.5412298
39	0xbf734190	-0.95021915
40	0xbf27d548	-0.65559816
41	0x3f63cd99	0.8898559
42	0x3f499109	0.7873693
43	0xbf1f9acb	-0.6234557
44	0xbe255b32	-0.1614807
45	0x3ef565f3	0.47929344
46	0xbf37195f	-0.7152309
47	0x3f4dccd6	0.8039068
48	0x3eed4439	0.46341112
49	0x3f87742d	1.0582329

classfier.bn2.running_var f4 [50]
0	0x3e9aae91	0.3021131
1	0x3ef8a166	0.48560637
2	0x3e956349	0.2917731
3	0x3f0acff2	0.5422355
4	0x3ec04de7	0.37559435
5	0x3f05fdf8	0.5234065
6	0x3e92993e	0.2863254
7	0x3f5b5fcf	0.8569307
8	0x3ef36e81	0.47545245
9	0x3f07f6a4	0.5311072
10	0x3e7bcc3f	0.24589632
11	0x3edc1c8d	0.42990533
12	0x3f14a27f	0.5806045
13	0x3ee6ea4a	0.45100623
14	0x3ec46235	0.38356176
15	0x3eb990a2	0.3624316
16	0x3ed4dc87	0.415745
17	0x3f4eeca9	0.80829865
18	0x3f05804c	0.5214889
19	0x3f17d9fa	0.5931698
20	0x3efc460d	0.49272195
21	0x3efc1ccd	0.49240723
22	0x3ef5d2d7	0.4801242
23	0x3e9ed465	0.3102142
24	0x3ecda1ab	0.40162405
25	0x3ec22fd4	0.37927115
26	0x3e94dd77	0.29075214
27	0x3ef8fcab	0.4863027
28	0x3e867993	0.2626463
29	0x3ea7ce4d	0.32774583
30	0x3f08a5b6	0.53377855
31	0x3efed278	0.4976995
32	0x3ea96a40	0.33088875
33	0x3f038aae	0.51383483
34	0x3f173ac5	0.5907405
35	0x3f03de02	0.5151063
36	0x3f202d61	0.6256924
37	0x3ef70284	0.48244107
38	0x3e76cb29	0.24100937
39	0x3eeec01e	0.4663095
40	0x3ec7858f	0.38969085
41	0x3f23e772	0.6402503
42	0x3f092f46	0.5358776
43	0x3ef15c10	0.4714055
44	0x3e96aaf2	0.29427296
45	0x3ee035e0	0.43791103
46	0x3ef3bd42	0.4760533
47	0x3f0343e4	0.5127547
48	0x3ed67ddb	0.41892895
49	0x3f09cfb1	0.53832537

classfier.fc3.weight f4 [25, 50]
0	0x3c971567	0.018442823
1	0x3d8a7891	0.067612775
2	0xbd5e0019	-0.054199312
3	0x3c5d44ea	0.0135052
4	0x3aeeea93	0.0018227868
5	0x3ca14abb	0.019688955
6	0xbdbec872	-0.09315576
7	0xbcbe3311	-0.02321771
8	0xbd68c57f	-0.056828972
9	0xbd9fa952	-0.07795967
10	0x3d578c06	0.05262377
11	0x3dcabb29	0.09898979
12	0xbd35efc9	-0.04441813
13	0x3d6810e3	0.05665673
14	0x3c261e99	0.010139131
15	0xbd5e6cd0	-0.05430299
16	0xbc1f828e	-0.0097357165
17	0xbd9d3d4d	-0.07677708
18	0x3d7d5c50	0.061855614
19	0x3c412148	0.01178772
20	0x3e31ccbc	0.17363256
21	0x3db09097	0.08621328
22	0xbd03095a	-0.03199134
23	0xbd78acd3	-0.060711693
24	0x3e0a7bcc	0.13523787
25	0x3db4f4de	0.08835767
26	0x3dd0e89f	0.10200619
27	0x3df400ac	0.11914191
28	0xbc740e31	-0.014895962
29	0x3d3f26d7	0.0466679
30	0x3d9eb9a0	0.07750249
31	0xbd0040e3	-0.03131188
32	0x3ca03aa4	0.019559212
33	0xbdabbf5c	-0.08386108
34	0x3e2f5a9f	0.17124413
35	0x3d8575b2	0.06516589
36	0x3d82b757	0.063826256
37	0xbc151a73	-0.009100544
38	0x3cc7c55d	0.024386102
39	0x3d025473	0.03181882
40	0xbd9654c2	-0.07340385
41	0x3e1da179	0.15393628
42	0x3d42b684	0.04753734
43	0xbd7d4c52	-0.061840363
44	0x3df059f1	0.11735905
45	0xbcdae56a	-0.026720721
46	0x3c6ed761	0.0145777175
47	0x3e1624b9	0.14662446
48	0x3d9d0317	0.07666605
49	0xbbb81b05	-0.0056184554
50	0x3d3e9406	0.046527885
51	0xbd5bad43	-0.053632032
52	0xbd925e43	-0.07146885
53	0xbd9ebcec	-0.07750878
54	0xbc84a82f	-0.016193477
55	0xbd6545bc	-0.055974707
56	0x3c031755	0.008001168
57	0x3d79536d	0.060870577
58	0xbbbdab06	-0.00578821
59	0x3d6d1c58	0.05788836
60	0xbd1fe999	-0.039041135
61	0xbd7161f4	-0.058931306
62	0xbde3385c	-0.11094734
63	0xbe8053a0	-0.250638
64	0xbe7a3650	-0.24434781
65	0x3ddf109f	0.10891842
66	0xbe97053c	-0.2949618
67	0xbdaa0ab3	-0.08302822
68	0xbd7e32f0	-0.062060297
69	0xbd773e47	-0.060362127
70	0xbd909636	-0.070599005
71	0xbd19adf6	-0.037519418
72	0xbcd8443c	-0.026399724
73	0x3cab3c41	0.020902755
74	0xbd84c473	-0.06482782
75	0xbcb48b72	-0.022039149
76	0xbd21625d	-0.039400447
77	0xbd9dd257	-0.07706135
78	0x3cd43816	0.02590565
79	0xbe0cfe7b	-0.13768952
80	0xbdaee5ac	-0.085399
81	0x3d180861	0.037117366
82	0x3daf79fb	0.08568188
83	0x3dba9605	0.09110645
84	0xbd71c009	-0.05902103
85	0xbd6444dc	-0.055729732
86	0xbd72df99	-0.05929527
87	0x3dacb5fd	0.08433149
88	0xbdbd106f	-0.0923165
89	0xbe939579	-0.28824976
90	0x3da9a9e9	0.08284361
91	0xbda5a53c	-0.080881566
92	0xbd4d026c	-0.050051138
93	0x3d82b72c	0.063825935
94	0x3ba82b98	0.00513215
95	0xbd81a023	-0.06329372
96	0xbce353d9	-0.027749943
97	0xbd80d1fa	-0.0629005
98	0xbd1fc14a	-0.039002694
99	0xbd69f955	-0.057122547
100	0x3d03b715	0.032157023
101	0x3d38e627	0.045141365
102	0x3d945375	0.07242481
103	0x3d033248	0.032030374
104	0x3c0847d8	0.00831791
105	0x3df73b0b	0.120718084
106	0xbdc999ff	-0.098438255
107	0x3d2a7a35	0.041620452
108	0xbcb4659e	-0.022021111
109	0xbdbf04dc	-0.09327099
110	0xbd564fda	-0.052322246
111	0x3c396036	0.011314442
112	0xbc9e075b	-0.019290617
113	0xbcdb2538	-0.026751146
114	0xbccc7c36	-0.024961572
115	0xbd84275f	-0.06452822
116	0xbb8244a7	-0.003975469
117	0xbd1a6e07	-0.037702587
118	0x3dbb8ce9	0.09157736
119	0x3c97857b	0.018496266
120	0x3e05608e	0.13025114
121	0x3c10867b	0.008821125
122	0xbc9af02c	-0.018913351
123	0xbd069c80	-0.032864094
124	0x3d52d69e	0.051474206
125	0x3d34073a	0.043952204
126	0x3d9a95b7	0.07548087
127	0x3e215b9d	0.15757604
128	0x3d54256b	0.051793497
129	0xbd397746	-0.045279764
130	0x3d7c8c5c	0.061657295
131	0xbda724e1	-0.08161331
132	0xbbd17c80	-0.0063930154
133	0xbda2b427	-0.079445176
134	0x3d6d792a	0.05797688
135	0x3e348d36	0.17631993
136	0x3e22282e	0.1583564
137	0xbd8d3884	-0.06895545
138	0x3cecbec3	0.028899556
139	0xbce65018	-0.028114364
140	0x3d82b35e	0.06381868
141	0x3dbca1cf	0.0921055
142	0x3e24cf55	0.16094716
143	0xbd968289	-0.07349116
144	0xbd811575	-0.06302921
145	0xbcb43a6e	-0.022000518
146	0xbd96ce6f	-0.07363593
147	0x3e2578e1	0.16159393
148	0x3dd23874	0.10264674
149	0xbb94065f	-0.004517361
150	0xbe2443df	-0.16041516
151	0xbdf26745	-0.11836103
152	0x3deab12d	0.11459575
153	0x3dd2a4c1	0.102853306
154	0xbd998e66	-0.074978635
155	0xbcdba671	-0.026812764
156	0x3d54e73d	0.05197834
157	0x3c4c80a2	0.01248184
158	0x3d8a7f0c	0.067625135
159	0xbd090ec7	-0.03346136
160	0x3aa01eec	0.0012216247
161	0xbc24f8c1	-0.010069073
162	0xbe2c6649	-0.16835894
163	0xbe5be62b	-0.21474521
164	0xbc8ab49a	-0.01693182
165	0xbe193e82	-0.14965251
166	0xbd80e391	-0.06293405
167	0x3d947fb0	0.07250917
168	0xbdbec228	-0.09314376
169	0xbde919f2	-0.11381902
170	0x3caa950c	0.020823024
171	0xbd75d938	-0.06002161
172	0x3d8bae11	0.0682031
173	0x3d15db4e	0.0365861
174	0xbd507b81	-0.050899033
175	0xbd128f47	-0.03578117
176	0xbdf2a6a1	-0.11848188
177	0xbde332de	-0.110936865
178	0xbdbfd7f6	-0.09367363
179	0x3d32ff58	0.043700546
180	0xbd84fe1a	-0.064937785
181	0xbcf4ec50	-0.029897839
182	0x3dfb7767	0.122786336
183	0xbd99ab09	-0.075033255
184	0xbce16ea5	-0.02751858
185	0xbc63fb3f	-0.013914882
186	0xbd7bb8eb	-0.06145565
187	0x3d60f5c4	0.05492188
188	0x3d20dcb3	0.039272975
189	0xbdcbe512	-0.09955801
190	0xbe0dc777	-0.13845621
191	0xbdb290f5	-0.087190546
192	0x3cf0fcc6	0.029417407
193	0xbca5492e	-0.020176496
194	0xbc659a92	-0.014013903
195	0x3bc8ffe2	0.0061340192
196	0x3d812cf1	0.063074
197	0xbd7d9882	-0.06191302
198	0xbc8c9326	-0.01716001
199	0xbe0ce624	-0.13759667
200	0x3d03e85d	0.03220402
201	0x3e2a86a7	0.16652928
202	0x3c4f7509	0.012662181
203	0xbba5e91d	-0.0050631897
204	0xbdc48c56	-0.095970795
205	0xbd5bdf4e	-0.053679757
206	0x3d64d6e0	0.055868983
207	0xbd4f35e7	-0.050588515
208	0xbd986983	-0.07442
209	0x3afe8b71	0.0019420219
210	0x3d94e9fe	0.07271193
211	0x3d6af666	0.05736389
212	0xbd721193	-0.05909879
213	0xbbdde5c5	-0.0067717754
214	0x3d54e0b1	0.051972095
215	0xbafdfec1	-0.0019378291
216	0xbc6d30fa	-0.014477009
217	0xbd5deabd	-0.054178942
218	0xbbb9d0e2	-0.0056706527
219	0x3e0e262b	0.13881747
220	0x3e3ff7ef	0.18746923
221	0x3e0594b9	0.13045014
222	0xbd999869	-0.07499773
223	0x3d0d634d	0.03451853
224	0x3e06a15f	0.13147496
225	0x3a40f532	0.00073607557
226	0x3caded28	0.021231249
227	0x3c62d9b3	0.013845849
228	0xbd05ad77	-0.032636132
229	0xbd8255e1	-0.06364036
230	0x3c85f8e2	0.016354028
231	0xbbde6786	-0.0067872433
232	0xbda2279c	-0.07917711
233	0xbd5896dd	-0.05287825
234	0xbc12aa57	-0.008951745
235	0x3e1ab915	0.15109666
236	0x3e27f01c	0.16400188
237	0xbda99953	-0.082811974
238	0x3c036ade	0.008021085
239	0xbd301683	-0.04299022
240	0x3cb13968	0.021633819
241	0x3df40835	0.11915628
242	0x3dd6c0d1	0.104859956
243	0xbd02023b	-0.03174041
244	0xbd5d089b	-0.053963285
245	0x3c7274d2	0.01479836
246	0x3d187dcc	0.037229344
247	0x3dbeb047	0.09310966
248	0x3e1289e3	0.14310412
249	0x3da185f0	0.07886875
250	0x3d4007c0	0.04688239
251	0xbd3c7ed1	-0.04601938
252	0x3c1d6161	0.0096057365
253	0xbd99b275	-0.07504741
254	0xbc4ef203	-0.012630942
255	0xbe131926	-0.14365062

classfier.fc3.bias f4 [25]
0	0x356cd16a	8.822159e-07
1	0xba288aa2	-0.00064293493
2	0x371ce443	9.351471e-06
3	0xb715b389	-8.922893e-06
4	0x35f11ad5	1.7963708e-06
5	0x368b7c16	4.1569683e-06
6	0xb5d861d3	-1.6121725e-06
7	0xb7b5406c	-2.160688e-05
8	0xb9346d7f	-0.00017206928
9	0x36fdc08f	7.5624043e-06
10	0x36c03cb0	5.729111e-06
11	0xb8e1f5dc	-0.00010774631
12	0x370c95a7	8.379494e-06
13	0x3588f5ca	1.0204324e-06
14	0x37523c4f	1.2531017e-05
15	0xb4f95e8c	-4.6448656e-07
16	0x36257696	2.4655942e-06
17	0xb6d2672d	-6.270499e-06
18	0x36afa85c	5.235006e-06
19	0xba83bf82	-0.0010051581
20	0x393574d0	0.00017305021
21	0xb77ba1a1	-1.4998398e-05
22	0xba2fc690	-0.00067053083
23	0xb4ca776c	-3.7712323e-07
24	0x36240191	2.4438816e-06

classfier.bn3.weight f4 [25]
0	0x3f995923	1.1980327
1	0x3fac5eb3	1.34664
2	0x3f90d2d7	1.1314343
3	0x3fa1275b	1.2590135
4	0x3f8efa30	1.1170101
5	0x3fa96bde	1.3236043
6	0x3f90e7a8	1.1320696
7	0x3f9e1301	1.234955
8	0x3f94f876	1.1638324
9	0x3fa86d2e	1.3158319
10	0x3f925fb5	1.1435457
11	0x3f855d41	1.0419084
12	0x3f9c2e4a	1.2201626
13	0x3f93dd1b	1.1551851
14	0x3f9f48a8	1.2444048
15	0x3f8d4c40	1.1038895
16	0x3fa17f90	1.2617054
17	0x3fa2bf1f	1.2714576
18	0x3fa84d66	1.314862
19	0x3fa09686	1.2545936
20	0x3f9dd177	1.2329549
21	0x3fa00ea5	1.2504469
22	0x3fa3c996	1.2795894
23	0x3f9cff54	1.226542
24	0x3f8e903e	1.1137769

classfier.bn3.bias f4 [25]
0	0xbd1475d2	-0.036245175
1	0x3eadec79	0.33969477
2	0xbd129d34	-0.03579445
3	0x3e8727e9	0.26397637
4	0xbcc8c457	-0.024507685
5	0x3ea51799	0.32244566
6	0xbd3cac57	-0.046062794
7	0x3e78eb4c	0.24308509
8	0xbc9a7712	-0.018855605
9	0x3ea50ad6	0.3223483
10	0xbd0c5e41	-0.034269575
11	0xbd25c179	-0.040467713
12	0x3e613c24	0.21995598
13	0xbc57b0da	-0.013164723
14	0x3e7df1cc	0.2479927
15	0xbd1c6d32	-0.038190074
16	0xb9ec9dc7	-0.0004513098
17	0x3e8de002	0.27709967
18	0x3ea181a4	0.3154422
19	0x3e841f4f	0.25805137
20	0x3e7b4f38	0.24541938
21	0x3e817cda	0.25290567
22	0x3e8f6c0e	0.28012127
23	0x3e67d54e	0.22639963
24	0xbd039280	-0.032122135

classfier.bn3.running_mean f4 [25]
0	0x3ea908b0	0.3301444
1	0xbf49ebf6	-0.7887567
2	0x3e64a1c4	0.22327334
3	0xbf05144c	-0.51984096
4	0x3e8acc35	0.27108923
5	0xbf1e5154	-0.61842847
6	0x3ec5c38a	0.38625747
7	0x3e070a3d	0.131875
8	0x3e75613f	0.23962878
9	0xbf31bf4a	-0.6943251
10	0x3ea2fb93	0.3183256
11	0x3e70de67	0.2352234
12	0xbeed4af4	-0.46346247
13	0x3e7713c1	0.2412863
14	0xbf0ffac9	-0.5624204
15	0x3e59620d	0.2122881
16	0x3e9d77df	0.30755517
17	0xbef6271c	-0.48076713
18	0xbf2a56f7	-0.6653895
19	0xbeb06efc	-0.34459674
20	0xbed695d8	-0.41911197
21	0xbeb25e01	-0.34837344
22	0xbf292806	-0.66076696
23	0xbf05c92e	-0.522601
24	0x3ea10c66	0.31454772

classfier.bn3.running_var f4 [25]
0	0x3f9e51e5	1.2368742
1	0x3eedc7e3	0.46441564
2	0x3f971c35	1.1805483
3	0x3f4ae186	0.7925037
4	0x3f9fee8d	1.2494675
5	0x3f3e405b	0.7431695
6	0x3f9282c6	1.1446159
7	0x3f0cc361	0.54985625
8	0x3f6fe40a	0.93707335
9	0x3fab8fd2	1.3403265
10	0x3f99c1e1	1.2012292
11	0x3f70d469	0.9407411
12	0x3f1eb78e	0.6199883
13	0x3f9bd061	1.2172967
14	0x3f5cdc15	0.8627332
15	0x3fa8996a	1.3171818
16	0x3fd87967	1.6912049
17	0x3ee1cc61	0.4410124
18	0x3f887de2	1.0663416
19	0x3f2217a0	0.633173
20	0x3f2546e0	0.6456127
21	0x3f530368	0.8242707
22	0x3f0a80a7	0.5410256
23	0x3f340f2a	0.7033564
24	0x3fa3a647	1.2785119

classfier.fc5.weight f4 [1, 25]
0	0x3e7aa99d	0.24478765
1	0xbe6f259d	-0.23354192
2	0x3e571ff3	0.21008281
3	0xbea8ba52	-0.3295465
4	0x3e028e0e	0.12749502
5	0xbe829a80	-0.255085
6	0x3e9640e2	0.29346377
7	0xbec9eaf4	-0.39437068
8	0x3e18d505	0.1492501
9	0xbe8b976f	-0.27263972
10	0x3e845071	0.25842622
11	0x3dd7b532	0.10532607
12	0xbec8b9fc	-0.39204395
13	0x3e043813	0.12912016
14	0xbeab0f78	-0.3341024
15	0x3e6deca5	0.23234804
16	0x3e377e21	0.17919208
17	0xbea200e6	-0.3164131
18	0xbe7a6e7f	-0.24456213
19	0xbea59231	-0.32338098
20	0xbeccf1d2	-0.40028244
21	0xbece30bb	-0.40271553
22	0xbe901362	-0.28139788
23	0xbec6211d	-0.38697138
24	0x3e0d8a6b	0.13822334
