trained_models/2025-06-23/run_18-20-06/dnn_model_fold_1.pt (torch, 90753 bytes, 19 tensors)

classfier.fc1.weight f4 [100, 100]
0	0xbd368449	-0.04455975
1	0xbd491954	-0.04909642
2	0x3d8f77f0	0.07005298
3	0x3d63bc7a	0.055599667
4	0xbd47c43f	-0.04877114
5	0x3d70984d	0.058738995
6	0x3cee171f	0.02906376
7	0xbc8e65ad	-0.017382467
8	0x3db96c86	0.09053902
9	0x3daadc3c	0.083427876
10	0xbc82cd37	-0.015966995
11	0x3bd9e8cc	0.006650066
12	0xba89d4ab	-0.001051565
13	0xbd8d037f	-0.068854325
14	0xbd921c87	-0.071343474
15	0xbc989892	-0.018627439
16	0x3ced2c3e	0.02895176
17	0x3d38fd49	0.045163427
18	0x3b764a25	0.0037580815
19	0x3c2337a8	0.009962
20	0xbcbc2212	-0.022965465
21	0xbc331ef8	-0.0109326765
22	0x3db3e817	0.08784502
23	0xbc9e035e	-0.019288715
24	0xbdf5fdbb	-0.12011286
25	0xbc1cb585	-0.009564762
26	0xbde9d745	-0.114180125
27	0x3dda4cc1	0.10659171
28	0xbd729d27	-0.059231903
29	0x3bf3873e	0.0074318936
30	0x3d3e14b0	0.046406448
31	0x3cd8da46	0.026471268
32	0xbd1f424e	-0.038881592
33	0x3c23ec5a	0.010005081
34	0x3d855c56	0.06511752
35	0x3d0decdd	0.03464972
36	0x3cba1872	0.022716735
37	0xbdd79ef5	-0.105283655
38	0xbce1d2da	-0.027566362
39	0xbce54b69	-0.02799006
40	0x3d5fd590	0.05464703
41	0xbb4d1646	-0.0031293794
42	0xbcb4d393	-0.022073543
43	0xbd650997	-0.05591735
44	0xbcbddb2a	-0.023175795
45	0x3ccfdbd1	0.025373371
46	0xbceade1b	-0.028670361
47	0x3de94c0e	0.113914594
48	0xbdb3356d	-0.087504245
49	0xbda3944b	-0.07987269
50	0x3cbfe93e	0.023426648
51	0x3c673cc1	0.014113606
52	0x3cb6f313	0.022332704
53	0xb8338f11	-4.2810167e-05
54	0x3d5b4807	0.053535488
55	0xbd4d8960	-0.05017984
56	0x3d13621e	0.035982244
57	0x3e182fda	0.14862004
58	0xbccb566e	-0.024821486
59	0x3d36ae7f	0.044600006
60	0xbd3d7a48	-0.046259195
61	0xbbbd4790	-0.005776353
62	0xbcc9a067	-0.024612619
63	0xbdd91caf	-0.10601174
64	0xbb530407	-0.0032198445
65	0x3d167f78	0.036742657
66	0xbd4fbbf2	-0.050716348
67	0x3ce4a5e8	0.027911142
68	0x3d9145f3	0.0709342
69	0x3d55446c	0.052067205
70	0x3d9924b2	0.07477702
71	0x3d1f81e4	0.038942233
72	0x3d993e1d	0.0748255
73	0xbcb88c65	-0.022527883
74	0xbe161de2	-0.14659837
75	0x3d31e923	0.043435227
76	0x3de7d087	0.1131907
77	0xbdddb928	-0.108263314
78	0xbd7b8a19	-0.061410997
79	0xbdb5ebc0	-0.08882856
80	0x3d607d54	0.054807022
81	0x3ce35b90	0.027753621
82	0xbb044e8f	-0.0020188426
83	0xbc9261a9	-0.017868834
84	0xbdedd542	-0.11612941
85	0x3d6e12c0	0.05812335
86	0xbd97bc3e	-0.07408951
87	0x3dfbb283	0.12289908
88	0xbbd73a45	-0.0065682256
89	0x3d633bee	0.055477075
90	0xbd14c2c3	-0.03631855
91	0xbc489428	-0.012242354
92	0xbbe84d5c	-0.0070893
93	0x3e01c2ab	0.12671916
94	0x3d3fce14	0.04682739
95	0x3d92c026	0.07165556
96	0xbd486e9e	-0.048933618
97	0x3cde348b	0.027124664
98	0xbd59dbf1	-0.053188268
99	0xbd01e003	-0.031707775
100	0xbc256fc6	-0.01009745
101	0xbd215b84	-0.039393917
102	0x3df09db4	0.117488295
103	0xbdcc14ea	-0.099649265
104	0x3d87644b	0.06610926
105	0xbd4cc1ac	-0.049989387
106	0x3e011519	0.12605704
107	0xbc5a47ab	-0.013322751
108	0xbd58d9c3	-0.05294205
109	0xbd8d8e90	-0.06911957
110	0xbdd259d7	-0.10271042
111	0xbd46dc04	-0.048549667
112	0xbc6ce327	-0.014458454
113	0xbcf3ba2c	-0.02975186
114	0x3c8dac3d	0.017294044
115	0x3e1116e8	0.14168894
116	0x3d0981d9	0.033571098
117	0x3d7f2c23	0.06229795
118	0x3d25ed24	0.040509358
119	0xbc29a3a7	-0.010353959
120	0x3e2e0810	0.16995263
121	0x391ddf64	0.00015055906
122	0x3c3248c1	0.010881604
123	0x3d68a257	0.056795444
124	0xbc9b9db1	-0.018996092
125	0xbdd0077c	-0.101576775
126	0x3dcfb279	0.10141463
127	0x3d2704ad	0.040775944
128	0xbd9e116e	-0.07718168
129	0xbcf58e1e	-0.029974993
130	0xbca1171b	-0.019664338
131	0x3ddce1c0	0.10785246
132	0x3cd6abcf	0.026204972
133	0xbc99322a	-0.018700678
134	0x3d7750f1	0.060379926
135	0x3b66b6a0	0.0035204068
136	0xbd02773d	-0.031851996
137	0xbbc2f7fa	-0.0059499713
138	0x3d18e2c8	0.03732565
139	0xbd6808cf	-0.056649026
140	0x3d105dc3	0.03524567
141	0xbda716fe	-0.08158682
142	0x3d85cdba	0.0653338
143	0x3ca352e3	0.019936984
144	0x3b97eb29	0.0046361876
145	0x3dcfec6c	0.10152516
146	0x3dae8bd3	0.08522763
147	0xbd2f2e69	-0.04276887
148	0xb9cab7f1	-0.0003866549
149	0x3c3b4356	0.011429628
150	0x3d31cc45	0.043407697
151	0x3c9a3cce	0.018827822
152	0x3d16ae53	0.036787342
153	0xbdbfeade	-0.09370969
154	0x3d1fb50c	0.03899102
155	0x3c790d68	0.01520095
156	0xbd2065dc	-0.03915964
157	0xbcd5422d	-0.026032532
158	0xbd42737e	-0.047473423
159	0x3d4710f2	0.048600145
160	0xbc7b770a	-0.015348205
161	0x3d206aca	0.039164342
162	0x3df85a2c	0.12126574
163	0x3d376a2f	0.044779
164	0xbdadf78f	-0.08494484
165	0xbcb35814	-0.021892585
166	0xbd80c28b	-0.06287106
167	0xbdcdd4a5	-0.10050324
168	0xbc3c82b5	-0.011505772
169	0xbd3e23ec	-0.046420977
170	0xbc9e72ee	-0.019341912
171	0xbd123bf5	-0.03570171
172	0x3d7bf89e	0.061516397
173	0xbd5cce13	-0.053907465
174	0x3e00b817	0.12570225
175	0xbe1b7864	-0.15182644
176	0x3d4834ef	0.048878606
177	0x3cfc8fb5	0.030830244
178	0x3bb88c9a	0.0056319954
179	0x3d71615a	0.058930732
180	0xbd1de7eb	-0.038551252
181	0xbc7611f1	-0.015018926
182	0xbdbdf8b2	-0.092759505
183	0x3da7e46f	0.08197867
184	0xbdd835ad	-0.10557113
185	0x3d9fae9a	0.077969745
186	0x3c9e07e9	0.019290881
187	0xbdcf4f41	-0.10122538
188	0xbd989231	-0.07449759
189	0xbdbf9608	-0.09354788
190	0xbd440348	-0.04785469
191	0x3d4e8221	0.05041707
192	0x3c410d4e	0.011782957
193	0x3da5af77	0.08090108
194	0xbd61f592	-0.055165835
195	0x3d2818d6	0.04103931
196	0x3d8c03b1	0.068366416
197	0x3d80e974	0.06294528
198	0x3d7fc721	0.062445763
199	0xbda1be70	-0.07897651
200	0x3cc6575f	0.024211584
201	0xbdef9f67	-0.117003255
202	0x3dc8c5eb	0.09803375
203	0x3ace3fe8	0.0015735598
204	0xbd0dc027	-0.03460708
205	0x3d9eb988	0.07750231
206	0x3df084e8	0.117441
207	0x3d8e6c8e	0.06954299
208	0x3d6ea7c5	0.058265466
209	0xbdc44e13	-0.09585204
210	0xbd9b92ee	-0.07596384
211	0xb9213dbe	-0.00015377157
212	0x3d34468b	0.044012588
213	0x3dd8ff2f	0.105955474
214	0xbcc02bf0	-0.023458451
215	0x3bc20af4	0.005921716
216	0x3d7f3ed7	0.062315788
217	0x3d5992ac	0.053118393
218	0xbae14104	-0.0017185514
219	0x3d2ae4de	0.04172217
220	0x3d80aad8	0.06282586
221	0xbcc390bd	-0.023872728
222	0xbd3c9beb	-0.046047132
223	0x3c422216	0.011848947
224	0xbd6df58a	-0.058095492
225	0xbcb67f64	-0.022277541
226	0xbcb98f76	-0.022651415
227	0xbd8a8c98	-0.067650974
228	0xbd843a22	-0.064564005
229	0xbc07674b	-0.008264373
230	0x3d1e8c2c	0.038707897
231	0x3d22ea7a	0.039774396
232	0x3c8a9b45	0.016919741
233	0xbd9bbc5a	-0.076042846
234	0x3d4f227b	0.050569993
235	0x3d865111	0.06558431
236	0x3da1cdf0	0.079006076
237	0xbd01bc14	-0.031673506
238	0x3dd61743	0.104536556
239	0xbd7e42a4	-0.062075272
240	0x3d8be014	0.06829849
241	0xbe0c4ece	-0.13701937
242	0xbdb4e7d6	-0.08833282
243	0x3daec915	0.08534447
244	0x3dbd9ffd	0.09259031
245	0xbd3cd446	-0.046100877
246	0xbdb50f98	-0.08840865
247	0x3cba1a8f	0.022717742
248	0xbca7745f	-0.020441232
249	0xbd4010d3	-0.046891045
250	0x3d0a3820	0.03374493
251	0xbd04e261	-0.032442454
252	0x3c1b1f26	0.009467876
253	0x3c970235	0.01843367
254	0xbd518921	-0.051156167
255	0xbd7e923e	-0.062151186

classfier.fc1.bias f4 [100]
0	0xb4fe3110	-4.7346884e-07
1	0x384c1168	4.86536e-05
2	0xb7bbf2ab	-2.2405138e-05
3	0x37dfb013	2.6665663e-05
4	0xb90ad0f6	-0.0001323855
5	0xb8173c35	-3.6057278e-05
6	0xb807341f	-3.223505e-05
7	0xb5c175df	-1.4413926e-06
8	0xb540f748	-7.1885415e-07
9	0x3935d470	0.00017340644
10	0x36de01cf	6.616326e-06
11	0x361df984	2.354006e-06
12	0xb82245ce	-3.868882e-05
13	0xb79a761c	-1.841323e-05
14	0xb7243160	-9.786658e-06
15	0x390229ea	0.0001241338
16	0xb8820586	-6.199912e-05
17	0xb7418eea	-1.1536971e-05
18	0x3742778e	1.1591137e-05
19	0x389988ee	7.321114e-05
20	0xb7517fc9	-1.2487123e-05
21	0x366f4cef	3.5658556e-06
22	0xb7afd4a2	-2.096064e-05
23	0x379201a0	1.7405313e-05
24	0xb82d1585	-4.1266456e-05
25	0x3759468c	1.2950633e-05
26	0x375023ea	1.2406128e-05
27	0x35d30617	1.5722497e-06
28	0xb68fc523	-4.284682e-06
29	0x395b1dd8	0.00020896585
30	0xb633d73a	-2.6798357e-06
31	0x3733f242	1.07256365e-05
32	0xb75f6307	-1.3314892e-05
33	0xb7b4543e	-2.14969e-05
34	0xb55f88f5	-8.327327e-07
35	0xb76ffc32	-1.4304229e-05
36	0xb6c359db	-5.8219134e-06
37	0xb8808f9d	-6.130266e-05
38	0x378d6ab0	1.685819e-05
39	0x385eb1c4	5.309448e-05
40	0xb848689b	-4.7781137e-05
41	0x375ad31d	1.3042966e-05
42	0xb654f17d	-3.1731026e-06
43	0x35c29d51	1.4499911e-06
44	0x38481c4f	4.771008e-05
45	0x384f68d3	4.945027e-05
46	0xb732bfd4	-1.065429e-05
47	0xb5ebabd8	-1.7558878e-06
48	0x3862e09e	5.409179e-05
49	0xb8e677df	-0.000109895824
50	0x38548eea	5.0677838e-05
51	0xb5b6bfb3	-1.3615849e-06
52	0x35c5c7ea	1.4735826e-06
53	0x3827ea6f	4.0034236e-05
54	0xb63fc2d8	-2.8574632e-06
55	0x3855c8be	5.0970113e-05
56	0xb91b4240	-0.00014806632
57	0x38dec918	0.000106232415
58	0x3752ae6a	1.2557584e-05
59	0xb7938766	-1.7586815e-05
60	0xb5dbf82a	-1.6388997e-06
61	0x38fac716	0.000119580116
62	0xb7a963d5	-2.0192858e-05
63	0xb8b67ccb	-8.701681e-05
64	0xb53e6140	-7.0922033e-07
65	0xb8774c9d	-5.896074e-05
66	0x37c3fe18	2.3364133e-05
67	0xb8870ff9	-6.440277e-05
68	0x391a3d59	0.00014709438
69	0x362825ec	2.5056024e-06
70	0x37bc7bbd	2.2468967e-05
71	0x38bc45a2	8.977509e-05
72	0x3864163d	5.4380147e-05
73	0xb93320b1	-0.00017082949
74	0x36be2be4	5.667551e-06
75	0xb5940ee8	-1.1031198e-06
76	0x388ca006	6.705527e-05
77	0xb82a7e93	-4.064904e-05
78	0x386d862c	5.663016e-05
79	0xb8cc6268	-9.7458076e-05
80	0x375aa8e5	1.3033136e-05
81	0xb81d0981	-3.7440568e-05
82	0xb91131c0	-0.00013846811
83	0xb7170dc2	-9.003505e-06
84	0x37455609	1.1762147e-05
85	0x379a4448	1.8390027e-05
86	0xb4e01f44	-4.1746e-07
87	0x371839fc	9.0734065e-06
88	0x36d79791	6.425144e-06
89	0x36df89cd	6.66196e-06
90	0x3883510d	6.261664e-05
91	0x3812d5e2	3.5008306e-05
92	0xb8c68776	-9.466607e-05
93	0x372c3445	1.0264169e-05
94	0xb7d55b50	-2.54341e-05
95	0xb75b1bd8	-1.30599e-05
96	0xb9272a27	-0.00015942064
97	0xb9b08aa4	-0.0003367263
98	0x377cbdaa	1.506453e-05
99	0xb775537f	-1.4622578e-05

classfier.bn1.weight f4 [100]
0	0x3f704233	0.9385101
1	0x3f6e78ac	0.9315288
2	0x3f7ab86e	0.9793767
3	0x3f654d40	0.89571
4	0x3f6d74f8	0.92756605
5	0x3f721c44	0.9457438
6	0x3f85f385	1.0464941
7	0x3f72900f	0.94751066
8	0x3f6e0745	0.9297984
9	0x3f8175e9	1.0114108
10	0x3f699e3b	0.91257066
11	0x3f6cfd34	0.9257386
12	0x3f75d1ef	0.9602346
13	0x3f77db93	0.9681942
14	0x3f69a95e	0.9127406
15	0x3f8301a1	1.0234872
16	0x3f7f819a	0.9980713
17	0x3f719d11	0.9438029
18	0x3f83b4c7	1.0289544
19	0x3f6ec469	0.9326845
20	0x3f83339f	1.0250129
21	0x3f75bf8d	0.9599541
22	0x3f7b2faa	0.98119605
23	0x3f6cab01	0.9244843
24	0x3f81621c	1.0108066
25	0x3f77552f	0.96614355
26	0x3f839337	1.0279301
27	0x3f7a1683	0.976906
28	0x3f7aed70	0.9801855
29	0x3f7e320b	0.9929511
30	0x3f70806a	0.93945944
31	0x3f6b9dac	0.92037463
32	0x3f70dffa	0.9409176
33	0x3f7fc14a	0.9990431
34	0x3f740e74	0.95334554
35	0x3f84f32a	1.0386708
36	0x3f65d28d	0.897744
37	0x3f859478	1.0435934
38	0x3f7deccc	0.9918945
39	0x3f65fbec	0.8983753
40	0x3f799ef4	0.9750817
41	0x3f6c4ca9	0.92304474
42	0x3f73d57d	0.9524763
43	0x3f6bcd9a	0.921106
44	0x3f86d259	1.0532943
45	0x3f8815d2	1.0631659
46	0x3f8b7761	1.0895807
47	0x3f622a0a	0.88345397
48	0x3f7fa4dc	0.9986093
49	0x3f73310a	0.949967
50	0x3f743c02	0.95404065
51	0x3f6a751b	0.9158494
52	0x3f71d6f5	0.94468623
53	0x3f7fc226	0.9990562
54	0x3f7718cd	0.9652222
55	0x3f8d058b	1.1017317
56	0x3f70f124	0.9411795
57	0x3f7320e5	0.9497207
58	0x3f6fe703	0.9371187
59	0x3f7e5a88	0.9935689
60	0x3f748f12	0.9553081
61	0x3f757b19	0.9589096
62	0x3f8372df	1.0269431
63	0x3f7216ea	0.94566214
64	0x3f7e46fb	0.9932706
65	0x3f75571d	0.9583605
66	0x3f84b01e	1.0366247
67	0x3f7b1ddd	0.9809244
68	0x3f836007	1.026368
69	0x3f728d68	0.9474702
70	0x3f752029	0.957522
71	0x3f7821f9	0.9692684
72	0x3f769259	0.9631706
73	0x3f880391	1.0626088
74	0x3f7beb5f	0.9840602
75	0x3f739ca3	0.95160884
76	0x3f8597fa	1.0437005
77	0x3f806622	1.0031168
78	0x3f7bd216	0.9836744
79	0x3f83eb46	1.0306175
80	0x3f81a257	1.0127667
81	0x3f6874ca	0.90803206
82	0x3f703262	0.9382688
83	0x3f882891	1.063738
84	0x3f6edb19	0.93303066
85	0x3f7000cf	0.93751234
86	0x3f757cbd	0.9589346
87	0x3f7b33c2	0.9812585
88	0x3f6bbbe8	0.920836
89	0x3f71d8dc	0.94471526
90	0x3f791faf	0.9731397
91	0x3f81e1b0	1.0146999
92	0x3f6a56a6	0.91538465
93	0x3f7724fb	0.965408
94	0x3f88374d	1.0641876
95	0x3f818875	1.0119768
96	0x3f80ca3a	1.0061715
97	0x3f69c835	0.91321117
98	0x3f6d8e5a	0.92795336
99	0x3f80eafa	1.0071709

classfier.bn1.bias f4 [100]
0	0xbd2e4f5d	-0.042556155
1	0xbe770b93	-0.24125509
2	0xbdae62f5	-0.08514968
3	0xbe473a9e	-0.19455954
4	0xbe71df44	-0.23620325
5	0xbe88e030	-0.2673354
6	0xbdf2ee49	-0.118618555
7	0x3cd94421	0.026521744
8	0xbd14065c	-0.036138877
9	0xbe9ee2b4	-0.31032336
10	0xbe2fb09d	-0.17157216
11	0xbd8fa8f6	-0.070146486
12	0xbe1a039c	-0.1504044
13	0xbda2c491	-0.07947648
14	0xbda8e440	-0.0824666
15	0xbe8ff11b	-0.28113636
16	0xbddcc54e	-0.107798204
17	0xbdfd4307	-0.123663
18	0xbd1db04b	-0.038498204
19	0xbe81aedd	-0.25328723
20	0xbe6a3865	-0.22873075
21	0xbdc1f775	-0.09471027
22	0xbdaffe7c	-0.08593461
23	0xbe8c0904	-0.27350628
24	0xbe434ec2	-0.19073012
25	0x3b9bef79	0.004758772
26	0xbe123faa	-0.14282098
27	0xbd61f6c1	-0.055166963
28	0x3cfbee9b	0.030753424
29	0xbe9babbf	-0.3040447
30	0xbd784941	-0.060616735
31	0x3be78f95	0.007066677
32	0xbe120ee6	-0.14263496
33	0xbd91a809	-0.07112128
34	0xbe3dae1e	-0.18523452
35	0xbd147507	-0.03624442
36	0xbda12235	-0.078678526
37	0xbe23c315	-0.15992387
38	0xbe0a997d	-0.13535114
39	0xbe9610c2	-0.2930966
40	0xbe8374ad	-0.25674954
41	0x3af1e899	0.001845616
42	0xbd21c7aa	-0.039497055
43	0xbdb2f895	-0.087388195
44	0xbd5af874	-0.0534596
45	0xbe2def61	-0.16985847
46	0xbdf59db7	-0.11992972
47	0xbd440c90	-0.047863543
48	0x3d15f8f9	0.036614392
49	0xbeadccf3	-0.33945426
50	0xbd41c50b	-0.047307055
51	0xbe14100b	-0.14459245
52	0xbda5330f	-0.08066379
53	0x3cab03a9	0.020875769
54	0xbe13e440	-0.14442539
55	0xbd9f03da	-0.077644065
56	0xbe87fb32	-0.26558834
57	0xbe2e230c	-0.17005557
58	0xbe748910	-0.2388041
59	0xbe84546b	-0.25845656
60	0xbe09d46d	-0.1345994
61	0xbe67e94a	-0.22647586
62	0xbe4814c0	-0.19539165
63	0xbec0f301	-0.37685397
64	0xbe1d8bd5	-0.15385373
65	0xbdf09138	-0.11746448
66	0xbde2df2e	-0.110777244
67	0xbe98d6ad	-0.29851285
68	0xbe4a67f7	-0.19766222
69	0xbe80f12d	-0.25184003
70	0xbea76227	-0.32692072
71	0xbe598665	-0.21242674
72	0xbe8fac59	-0.28061178
73	0xbe0f9ee1	-0.14025451
74	0xbd632b9f	-0.055461522
75	0xbd0289ce	-0.031869702
76	0xbe070037	-0.13183676
77	0xbe32cddf	-0.17461346
78	0xbe9d4eb2	-0.30724102
79	0xbdb600eb	-0.08886894
80	0xbe187361	-0.14887764
81	0xbe33b1c4	-0.17548281
82	0xbea5b59d	-0.32365122
83	0xbe7fa061	-0.24963523
84	0xbdfd0c0c	-0.123558134
85	0xbe39785c	-0.1811232
86	0xbe123b1c	-0.14280361
87	0xbd1cca39	-0.038278792
88	0xbd8059b4	-0.062671095
89	0xbdb1f7d0	-0.086898446
90	0xbe3d2058	-0.1846937
91	0xbe6489ab	-0.22318141
92	0xbe710815	-0.2353824
93	0xbe7ab64d	-0.24483605
94	0xbe278f2c	-0.1636321
95	0xbe08421d	-0.1330647
96	0xbe4f0365	-0.20216139
97	0xbe73cb31	-0.2380798
98	0xbe3b372a	-0.18282762
99	0xbc35f253	-0.011105138

classfier.bn1.running_mean f4 [100]
0	0xbe8a591a	-0.27021104
1	0x3d8d9401	0.06912995
2	0x3e443989	0.19162573
3	0xbe21eaff	-0.158123
4	0xbd87c256	-0.066288635
5	0xbe3e47a5	-0.18582018
6	0x3e095f10	0.1341517
7	0x3e80faa5	0.25191227
8	0x3e56a260	0.20960379
9	0xbdadfe54	-0.08495775
10	0x3e258fea	0.1616818
11	0x3eb66803	0.3562623
12	0x3c29e941	0.0103705535
13	0x3e83c9a3	0.25739774
14	0x3e6dfa7c	0.23240083
15	0x3d564a59	0.052316997
16	0x3d44735c	0.047961578
17	0x3eddea26	0.43342704
18	0xbe8fa8a7	-0.2805836
19	0x3e248c09	0.16069044
20	0x3d817df6	0.06322853
21	0xbe5d7910	-0.21628213
22	0x3e860129	0.2617276
23	0xbd4b461b	-0.049627405
24	0xbd9a4a23	-0.07533672
25	0xbe90d626	-0.28288382
26	0xbdde7015	-0.10861222
27	0xbe8f851c	-0.28031242
28	0xbea864f4	-0.3288952
29	0x3d32d4ae	0.04365986
30	0x3edeacd7	0.4349124
31	0x3ee23840	0.4418354
32	0xbea9db01	-0.331749
33	0x3e6061c0	0.21912289
34	0x3d56cf5e	0.052443855
35	0xbe45163b	-0.19246762
36	0x3f700e49	0.937718
37	0x3d395a9a	0.04525242
38	0x3cb734a3	0.022363966
39	0xbe1c11f8	-0.1524123
40	0xbdeb38e0	-0.114854574
41	0x3e084998	0.13309324
42	0x3eb2d3bd	0.34927168
43	0x3fafa02e	1.3720758
44	0xbdf4c59d	-0.11951754
45	0xba8dabce	-0.0010808648
46	0xbd1bf3d4	-0.03807433
47	0x3f824972	1.0178664
48	0x3e331545	0.17488582
49	0x3d6854d5	0.056721527
50	0x3daf45fa	0.08558269
51	0x3e930dfc	0.28721607
52	0xbd10a27f	-0.03531122
53	0xbca73a22	-0.020413462
54	0xbdc967c2	-0.09834243
55	0x3d7b138b	0.061297935
56	0xbe3368c5	-0.17520435
57	0xbdde00d7	-0.10840004
58	0x3c615645	0.013753478
59	0xbde13ced	-0.10997949
60	0x3e241878	0.16024959
61	0xbd7e77e3	-0.06212605
62	0x3db96e97	0.090542965
63	0xbdae7e4d	-0.08520184
64	0x3e0c999e	0.13730475
65	0xbc388b20	-0.011263639
66	0x3d86fee1	0.06591583
67	0xbdb6ec54	-0.08931795
68	0xbda43faa	-0.080199555
69	0xbddf5850	-0.10905516
70	0x3bdb4194	0.006691167
71	0x3dfbd7b6	0.12297003
72	0xbde1c1db	-0.11023303
73	0xbd26f147	-0.040757444
74	0x3e284c59	0.16435374
75	0xbecbcdbb	-0.39805397
76	0xbac6b976	-0.0015161473
77	0xbdad70f2	-0.08468808
78	0xbd98f4ed	-0.07468591
79	0xbcb57ed7	-0.022155209
80	0xbdb0816e	-0.08618437
81	0xbd267462	-0.040638335
82	0xbdd4855c	-0.10376999
83	0xbdc776d7	-0.09739464
84	0x3e85b794	0.26116621
85	0x3c5e98ff	0.013586282
86	0xbc20957a	-0.009801263
87	0xbd0029b2	-0.031289764
88	0x3ef8c04d	0.48584214
89	0xbf1d71e5	-0.61501914
90	0xbe0d431d	-0.13795133
91	0x3e31603e	0.1732187
92	0x3d896b97	0.06709974
93	0xbdcaf500	-0.09910011
94	0x3d8b7188	0.06808764
95	0xbcc1e3ca	-0.023668189
96	0xbe1f7d5c	-0.15575165
97	0xbc56a8da	-0.013101781
98	0xbe070e98	-0.13189161
99	0xbe1c966e	-0.1529176

classfier.bn1.running_var f4 [100]
0	0x3d722276	0.059114896
1	0x3bd985f1	0.0066382815
2	0x3c50c616	0.01274254
3	0x3c8a7ce3	0.016905254
4	0x3c00482d	0.007829708
5	0x3c10c5cf	0.008836224
6	0x3bfb8687	0.007675949
7	0x3d1470dc	0.036240444
8	0x3c8bee3d	0.017081374
9	0x3bca3d08	0.0061718263
10	0x3c96cbcd	0.018407727
11	0x3d0dedb1	0.03465051
12	0x3bed7a0a	0.007247214
13	0x3cbf4f1d	0.023353154
14	0x3cd08137	0.02545224
15	0x3bdeb56f	0.006796531
16	0x3c157bcf	0.009123757
17	0x3d206b29	0.039164696
18	0x3d05fe72	0.03271336
19	0x3c2905af	0.0103162965
20	0x3c13120f	0.0089764735
21	0x3cbb9355	0.022897402
22	0x3c60f378	0.0137299225
23	0x3b95d78c	0.0045728143
24	0x3bdf2220	0.006809488
25	0x3dc22207	0.094791465
26	0x3c8f0e5e	0.017462905
27	0x3d861097	0.06546133
28	0x3d9b2cc6	0.07576899
29	0x3bd269f0	0.00642132
30	0x3d2a24f8	0.041539162
31	0x3d25d37a	0.040484883
32	0x3ce20775	0.027591446
33	0x3c983709	0.01858093
34	0x3c04488f	0.00807394
35	0x3ca45b1a	0.020062972
36	0x3e43b53d	0.19112106
37	0x3bf6d9ae	0.0075332737
38	0x3bd1dc7a	0.0064044567
39	0x3c1d1b97	0.009589097
40	0x3bc86542	0.0061155865
41	0x3c4cd547	0.012502021
42	0x3d097b82	0.03356505
43	0x3e832d4d	0.256205
44	0x3bf7b546	0.0075594513
45	0x3b8d9ceb	0.0043216846
46	0x3be1e44b	0.0068936697
47	0x3e4673dc	0.19380134
48	0x3c350c88	0.011050351
49	0x3bfe838d	0.007767147
50	0x3c231ae3	0.009955141
51	0x3ca04b80	0.019567251
52	0x3bca5efa	0.006175873
53	0x3bdead69	0.0067955744
54	0x3c41f365	0.011837815
55	0x3beeee18	0.0072915666
56	0x3c3df0f2	0.01159309
57	0x3c03f37a	0.008053655
58	0x3c2f2e73	0.010692227
59	0x3c1b1007	0.00946427
60	0x3c0f5c30	0.008750007
61	0x3be08f92	0.0068530524
62	0x3c1ee93b	0.009699161
63	0x3badc2cf	0.005302764
64	0x3c0a1a8b	0.00842918
65	0x3c18b2e3	0.009319994
66	0x3c10d549	0.008839914
67	0x3b9ebffb	0.004844663
68	0x3ba73e51	0.0051038642
69	0x3c114268	0.00886593
70	0x3b943cdb	0.004523856
71	0x3be258e6	0.00690757
72	0x3bb0722e	0.005384705
73	0x3be34499	0.0069356677
74	0x3c9e3928	0.019314364
75	0x3e0295fb	0.12752526
76	0x3bd5fbb2	0.0065302486
77	0x3bddaa34	0.0067646746
78	0x3be7ffd4	0.0070800576
79	0x3ba754c4	0.0051065404
80	0x3c7ca9a3	0.015421304
81	0x3be9aba3	0.0071310564
82	0x3c037c7f	0.008025288
83	0x3bec2ee4	0.0072077382
84	0x3c95fe4d	0.018309737
85	0x3c308354	0.010773499
86	0x3c162339	0.009163671
87	0x3c3eec3a	0.0116530005
88	0x3d31e454	0.04343064
89	0x3de81912	0.11332907
90	0x3c4706dc	0.0121476315
91	0x3c93aaff	0.018025873
92	0x3c15e3f8	0.00914859
93	0x3b90151c	0.0043970477
94	0x3c4590c0	0.012058437
95	0x3c836197	0.016037745
96	0x3bdcac33	0.006734395
97	0x3b8b1a36	0.004245068
98	0x3c1d3e4c	0.009597372
99	0x3c80a0cf	0.01570168

classfier.fc2.weight f4 [50, 100]
0	0x3d2be906	0.041970275
1	0xbd1e5272	-0.038652845
2	0xbd611708	-0.054953605
3	0xbccec7fd	-0.025241846
4	0x3c4d1c0f	0.012518897
5	0xbd9e90ef	-0.07742488
6	0xbd19ff29	-0.037596855
7	0xbd9035b7	-0.07041495
8	0xbdeb00f2	-0.1147479
9	0xbdd6281e	-0.104568705
10	0xbcc7df7e	-0.024398562
11	0xbdcb8e74	-0.0993928
12	0xbdaf1ca3	-0.08550384
13	0xbca093dc	-0.019601755
14	0xbd84ffde	-0.06494115
15	0x3cb1c05b	0.021698168
16	0x3d992ac5	0.07478861
17	0x3d199d37	0.037503447
18	0x3ca70526	0.020388197
19	0x3c36a096	0.011146685
20	0x3d5d9914	0.054101065
21	0x3c964c2e	0.018346872
22	0xbe0595e8	-0.13045466
23	0xbd17bfea	-0.037048258
24	0xbcba9d0d	-0.022779966
25	0xbcc7aa57	-0.024373217
26	0x3c5afe62	0.013366314
27	0xbd044f5e	-0.032302253
28	0xbd88f63e	-0.06687592
29	0x3a627115	0.00086380664
30	0xbd9ade83	-0.07561972
31	0x3d50e68c	0.051001117
32	0x3c7a18ae	0.015264673
33	0xbe0209f3	-0.12699108
34	0xbd9056b8	-0.0704779
35	0x3c97d1fe	0.01853275
36	0xbdb03782	-0.08604337
37	0x3bac4519	0.0052572605
38	0x3dd576b8	0.104230344
39	0xbd3e3814	-0.0464402
40	0xbd924fb4	-0.071441084
41	0x3b7b826f	0.0038377305
42	0xbb76d43c	-0.0037663123
43	0xbcd15ef4	-0.025557972
44	0x3ccd8553	0.025087988
45	0x3c56bce8	0.013106562
46	0x3da2ec90	0.07955277
47	0xbdacdd30	-0.08440626
48	0xbd8fe670	-0.07026374
49	0xbd1fc424	-0.039005414
50	0xbcbf7448	-0.023370877
51	0xbd367b93	-0.044551443
52	0xbdeaa9b0	-0.114581466
53	0x3d65d65d	0.056112636
54	0xbe067a84	-0.13132674
55	0x3da6e7cb	0.0814968
56	0xbd95bcf0	-0.073114276
57	0x3d3f073c	0.04663776
58	0xbd2d8844	-0.04236628
59	0x3cba1894	0.022716798
60	0xbcf3455d	-0.02969616
61	0x3c70451a	0.014664913
62	0xbd8aac5d	-0.06771157
63	0xbce6ec30	-0.028188795
64	0x3d0aad5e	0.033856742
65	0xbdbad352	-0.091223374
66	0xbdb97771	-0.09055985
67	0xbd1881c9	-0.037233148
68	0xbd1df9f1	-0.03856844
69	0xbd025524	-0.031819478
70	0xbd826ce4	-0.063684255
71	0xbd71732b	-0.058947723
72	0xbd67f3a2	-0.05662883
73	0x3c9a89cf	0.01886454
74	0x3d3c66e5	0.045996565
75	0x3c31220c	0.01081134
76	0x3d6478ec	0.055779383
77	0xbd9e22c1	-0.077214725
78	0xbdf42443	-0.11920979
79	0x3d9ccab2	0.076558486
80	0x3be71b5a	0.007052821
81	0x3d3b0957	0.045663204
82	0xbd62d569	-0.055379305
83	0xbe027382	-0.12739375
84	0x3d81199a	0.06303711
85	0xbdd92519	-0.10602779
86	0x3d6fb8b5	0.05852576
87	0x3d8e51c2	0.06949188
88	0xbdc7a219	-0.097477145
89	0xbc223bd9	-0.009901964
90	0xbd98cd11	-0.07460988
91	0xbc99227e	-0.018693205
92	0xbd0b3400	-0.033985138
93	0xbd75ee3a	-0.060041644
94	0x3d163a4d	0.036676694
95	0x3c57b653	0.013166028
96	0xbdcc9ed9	-0.09991235
97	0x3cf93b49	0.030423777
98	0xbb5104e6	-0.003189379
99	0x3cabc83f	0.020969508
100	0xbdbd2ea9	-0.09237415
101	0x3cc78e2f	0.02435979
102	0x3d10b1c3	0.035325777
103	0xbdc06d16	-0.093958065
104	0xbaaef8e0	-0.0013349317
105	0x3d1c6a9e	0.038187616
106	0xbd35bbb8	-0.044368476
107	0xbc5aeadb	-0.013361658
108	0x3da66ed3	0.08126607
109	0xbccab338	-0.024743661
110	0xbc0f6477	-0.00875198
111	0xbd8c6242	-0.06854679
112	0xba6a947a	-0.00089485163
113	0x3d815a59	0.063160606
114	0x3d196525	0.037449975
115	0x3d02012e	0.031739406
116	0xbdb9910e	-0.0906087
117	0xbd928f51	-0.07156242
118	0xbd328f2b	-0.043593567
119	0xbcbec598	-0.02328758
120	0xbc0b38b7	-0.008497409
121	0x3bf33013	0.0074215024
122	0xbda05a80	-0.078297615
123	0xbc8e0442	-0.017336015
124	0xbdfc5047	-0.12319999
125	0xbdc39fa6	-0.09551935
126	0xbd594be9	-0.05305091
127	0xbd82389c	-0.06358454
128	0xbe034fe2	-0.12823442
129	0x3da8c47c	0.082406014
130	0x3cbfd697	0.023417754
131	0x3b1eac61	0.0024211633
132	0xbd92d44c	-0.07169399
133	0x3d8119dd	0.06303761
134	0xbca65f00	-0.020308971
135	0x3c8d29cd	0.017231846
136	0xbc2e073b	-0.010621841
137	0xbd2ae287	-0.04171994
138	0x3d012004	0.031524673
139	0xbdc8314d	-0.097750284
140	0xbdd950ce	-0.106111154
141	0x3db0ccba	0.086327985
142	0x3c85c5e6	0.016329717
143	0xbc629a8b	-0.013830791
144	0x3d160894	0.036629274
145	0x3cb0e110	0.021591693
146	0xbd5681da	-0.05236993
147	0x3d5447f0	0.051826417
148	0x3d75ede6	0.06004133
149	0x3d791323	0.060809266
150	0x3d8808a2	0.066422716
151	0xbd5285a2	-0.051396973
152	0x3dc0f402	0.09421541
153	0xbcbb684b	-0.02287688
154	0xbd397822	-0.045280583
155	0xbd7bba2d	-0.061456848
156	0xbbdf0844	-0.0068064053
157	0x3dcd0d18	0.10012263
158	0x3d62d9ac	0.05538337
159	0x3da35741	0.07975627
160	0xbd89f4f3	-0.067361735
161	0x3e03bcab	0.1286494
162	0xbdd8d8f1	-0.10588253
163	0xbcba2ee3	-0.022727435
164	0x3d8a23e5	0.067451276
165	0x3d286689	0.04111341
166	0xbba684f4	-0.005081767
167	0xbd574183	-0.05255271
168	0xbb0bcf66	-0.0021333336
169	0x3bc7629f	0.0060847546
170	0xba9f4365	-0.0012150822
171	0x3d94af84	0.072600394
172	0xbc99c72c	-0.01877173
173	0xbe15aed2	-0.1461747
174	0xbcac7239	-0.02105056
175	0xbe2adcee	-0.1668584
176	0xbd82372c	-0.063581795
177	0xbdb062f2	-0.08612622
178	0x3c2c8456	0.010529598
179	0xbd8347a4	-0.06410149
180	0x3d5edd94	0.054410532
181	0xbc0c4950	-0.008562401
182	0x3cabd1e7	0.020974113
183	0x3c1f3456	0.009717068
184	0xbd98a5eb	-0.07453521
185	0x3d9b458d	0.07581625
186	0xbe0040b3	-0.12524681
187	0x3d9061c0	0.07049894
188	0x3d176a0f	0.03696638
189	0xbce43f25	-0.02786214
190	0xbda7848e	-0.0817958
191	0xbdba75b8	-0.09104484
192	0x3d62aad4	0.055338696
193	0xbc801cb8	-0.015638694
194	0xbcec1884	-0.028820284
195	0x3c87987c	0.016552202
196	0xbd8d1a28	-0.068897545
197	0xbd1d3b27	-0.03838649
198	0x3d66148e	0.056171946
199	0xbe18d26c	-0.1492402
200	0xbbb1c80d	-0.0054254592
201	0x3d6eb512	0.05827815
202	0xbc72b74c	-0.014814209
203	0x3d11ba2b	0.035577934
204	0x3d8f4503	0.06995585
205	0x3da69124	0.08133152
206	0xbdef2796	-0.11677472
207	0x3d3fe09c	0.046845064
208	0xbcc4de19	-0.024031686
209	0x3cab51cf	0.020913033
210	0xbd5236c6	-0.051321767
211	0xbd66ec92	-0.056377955
212	0x3c4e9f21	0.0126111815
213	0x3c83287b	0.016010514
214	0x3d43bcb6	0.04778739
215	0x3d9cdf85	0.076598205
216	0xbcb76776	-0.022388201
217	0x3b0bbda3	0.002132275
218	0x3c2aa545	0.01041538
219	0x3d5d0da3	0.053968083
220	0xbdae628c	-0.0851489
221	0x3cf49a7f	0.029858826
222	0xbc5ebead	-0.013595265
223	0x3d04377e	0.032279484
224	0x3d08b03c	0.033371195
225	0x3d0a07fa	0.033699013
226	0xbc0f017b	-0.00872838
227	0x3d1b1728	0.03786388
228	0x3d04184d	0.032249738
229	0x3ddcee1d	0.10787604
230	0xbb43e751	-0.0029892514
231	0xbca46b24	-0.02007062
232	0x3addf14c	0.0016932874
233	0xbc5d300b	-0.013500224
234	0x3da9f6e1	0.082990415
235	0x3d455dd2	0.048185177
236	0xbbb55739	-0.0055340794
237	0xbd8c6fc1	-0.06857253
238	0xbdb446ad	-0.08802543
239	0x3cc7a98f	0.024372844
240	0x3d8b812a	0.068117455
241	0xbd0f06f7	-0.03491875
242	0x3cd58c40	0.026067853
243	0xbcd42d34	-0.02590046
244	0x3dc7bc60	0.097527266
245	0xbe130e30	-0.14360881
246	0xbab2beca	-0.0013637182
247	0x3c9128de	0.017719682
248	0x3a98354c	0.0011612563
249	0x3ddd1ae1	0.10796142
250	0xbc32884a	-0.010896752
251	0x3c95850c	0.018251918
252	0xbd4fdeb1	-0.050749484
253	0xbd429fe6	-0.047515772
254	0x3ca4f8fe	0.02013826
255	0xbe06f07b	-0.13177674

classfier.fc2.bias f4 [50]
0	0xb50347bc	-4.890569e-07
1	0xb69b3f8c	-4.626758e-06
2	0x3671780a	3.598167e-06
3	0x362dcea6	2.5899294e-06
4	0x352b506a	6.381948e-07
5	0x36aead12	5.205752e-06
6	0x363c418c	2.8052336e-06
7	0x3788e5be	1.6319445e-05
8	0x3571ca0c	9.0073513e-07
9	0x36d4b4e4	6.339151e-06
10	0xb51df830	-5.884822e-07
11	0xb7307e97	-1.05198915e-05
12	0xb5ba01b7	-1.3858579e-06
13	0x373be330	1.1198965e-05
14	0x372e9c58	1.040761e-05
15	0xb5e2767b	-1.6872795e-06
16	0xb581d0cb	-9.672016e-07
17	0x37108b50	8.615505e-06
18	0x359eae38	1.1822622e-06
19	0x36863088	3.999161e-06
20	0xb7cea7e7	-2.46353e-05
21	0x367ecc00	3.7967693e-06
22	0xb58fb95c	-1.0708277e-06
23	0xb4e78da6	-4.3130166e-07
24	0xb621f817	-2.4135277e-06
25	0x35a7e87a	1.2510129e-06
26	0xb63a5579	-2.7765911e-06
27	0xb585d65a	-9.971657e-07
28	0x379af150	1.84706e-05
29	0xb522196f	-6.0386714e-07
30	0xb5a3b9d9	-1.2198535e-06
31	0xb5b396c7	-1.3380421e-06
32	0x3587f976	1.0130886e-06
33	0x35f98148	1.8589571e-06
34	0xb7847af0	-1.5792873e-05
35	0x36797a15	3.7174952e-06
36	0xb62382e3	-2.4365079e-06
37	0x3698d6be	4.5549523e-06
38	0xb6a7e157	-5.003221e-06
39	0x3700fee0	7.688737e-06
40	0xb784669a	-1.5783404e-05
41	0xb732254b	-1.061831e-05
42	0xb75ce146	-1.3165472e-05
43	0xb44f3482	-1.929748e-07
44	0x36a2d2c8	4.8525144e-06
45	0xb611fedb	-2.175503e-06
46	0xb5608dbf	-8.365277e-07
47	0xb61f9223	-2.377791e-06
48	0x361f7b84	2.3764742e-06
49	0x35369636	6.801887e-07

classfier.bn2.weight f4 [50]
0	0x3f7406ae	0.9532269
1	0x3f60a9de	0.87759197
2	0x3f80dcce	1.0067384
3	0x3f6bc6a3	0.9209997
4	0x3f86eb01	1.0540468
5	0x3f7b5b68	0.9818635
6	0x3f7a3914	0.97743344
7	0x3f8a9b0e	1.0828569
8	0x3f895a79	1.0730735
9	0x3f82d02b	1.0219778
10	0x3f57f20b	0.84353703
11	0x3f772acb	0.9654967
12	0x3f762b38	0.96159697
13	0x3f7a1c13	0.9769909
14	0x3f734704	0.95030236
15	0x3f75bb8e	0.9598931
16	0x3f77ff06	0.9687351
17	0x3f7c5948	0.9857373
18	0x3f8579e6	1.0427825
19	0x3f73c6dd	0.95225316
20	0x3f7b38c6	0.98133504
21	0x3f72b3aa	0.94805396
22	0x3f83540b	1.0260023
23	0x3f7140a3	0.9423925
24	0x3f707ae9	0.93937546
25	0x3f83dd8f	1.0301989
26	0x3f69193f	0.9105415
27	0x3f621a03	0.8832094
28	0x3f63ef96	0.89037454
29	0x3f8463a1	1.0342904
30	0x3f74cba8	0.95623255
31	0x3f68b280	0.9089737
32	0x3f7de0e6	0.9917129
33	0x3f6cc255	0.9248403
34	0x3f79e4a5	0.9761451
35	0x3f737db6	0.95113695
36	0x3f5ef61f	0.870943
37	0x3f7c4903	0.9854891
38	0x3f93f728	1.1559801
39	0x3f7c0e32	0.9845916
40	0x3f869556	1.0514324
41	0x3f74ba79	0.95597035
42	0x3f808d8e	1.0043199
43	0x3f6cfdbc	0.9257467
44	0x3f6a398f	0.9149408
45	0x3f821256	1.0161846
46	0x3f74077e	0.9532393
47	0x3f83b5ea	1.0289891
48	0x3f804e97	1.0023984
49	0x3f6b761c	0.91977096

classfier.bn2.bias f4 [50]
0	0xbd770a85	-0.060312767
1	0xbe34f6f6	-0.17672333
2	0xbe8d6a81	-0.2762032
3	0xbe34f51b	-0.17671625
4	0xbdbbc741	-0.09168864
5	0x3d4f3fd7	0.05059799
6	0xbc61d528	-0.013783731
7	0xbc668eea	-0.014072159
8	0xbcb29b52	-0.021802578
9	0x3ca4a3f0	0.020097703
10	0xbd89747b	-0.0671167
11	0xbe8a5501	-0.27017978
12	0x3b8e720c	0.0043470915
13	0xbe804043	-0.25049028
14	0xbe70fff5	-0.2353514
15	0xbcb21573	-0.021738743
16	0xbe48ffa2	-0.19628766
17	0xbe962dea	-0.29331905
18	0xbc12d738	-0.008962445
19	0xbe4198c7	-0.18905936
20	0xbde7fe2a	-0.11327775
21	0xbe9684af	-0.29398105
22	0xbe2f9303	-0.17145924
23	0xbe980f53	-0.2969919
24	0xbcb36b5f	-0.021901784
25	0xbd8b8cef	-0.0681399
26	0x3c0f2a1e	0.008738069
27	0xbe999666	-0.29997557
28	0xbe98ced7	-0.29845306
29	0xbd563b9e	-0.05230295
30	0xbb39fb5c	-0.0028378582
31	0xbe943606	-0.28947467
32	0xbd8c9308	-0.068639815
33	0xbd1e0540	-0.038579226
34	0xbea2d369	-0.31801918
35	0xbdc5a543	-0.09650662
36	0xbe22598b	-0.1585447
37	0xbe993335	-0.2992188
38	0x3d8d38a1	0.06895567
39	0x3cc50b9f	0.024053393
40	0xb980f80e	-0.00024598878
41	0xbea47062	-0.3211699
42	0xbc0786b0	-0.008271858
43	0xbe3a6b57	-0.1820501
44	0xbe7539f7	-0.23947893
45	0xbd804e34	-0.06264916
46	0xbe25239f	-0.1612687
47	0xbd4780d1	-0.048706833
48	0xbc9a7f7f	-0.018859623
49	0xbd5610c4	-0.052262083

classfier.bn2.running_mean f4 [50]
0	0xbf1baaf6	-0.6080774
1	0xbed1134b	-0.40835032
2	0x3e0406ee	0.12893268
3	0x3c63d8ba	0.013906652
4	0xbf31921c	-0.6936357
5	0xbf579b7c	-0.84221625
6	0xbf4c42ed	-0.7978962
7	0xbf2a2620	-0.66464424
8	0xbf0655eb	-0.5247485
9	0xbf664c75	-0.89960414
10	0x3db02337	0.08600467
11	0xbd906561	-0.070505865
12	0xbf63688b	-0.88831395
13	0xbc29bab3	-0.010359454
14	0x3dde96d6	0.108686134
15	0xbf0cc79a	-0.5499207
16	0xbcc2d7f5	-0.023784617
17	0x3e06dd0f	0.13170265
18	0x3dc8951d	0.09794066
19	0x3eb9aa76	0.36262864
20	0x3dd4db4d	0.10393391
21	0x3dd84c4d	0.10561428
22	0x3ea4bdeb	0.32176146
23	0x3c2028ab	0.009775321
24	0xbf011713	-0.50425833
25	0xbf64af40	-0.8932991
26	0xbf22ff51	-0.6367083
27	0x3e9607ad	0.2930273
28	0xbd76c1a7	-0.060243275
29	0x3e321c37	0.17393576
30	0xbf3a043f	-0.7266273
31	0xbee69e2c	-0.4504255
32	0x3e704353	0.23463182
33	0xbdfc25a2	-0.123118654
34	0xbe074d91	-0.13213183
35	0xbeaab601	-0.33341983
36	0xbebd4c75	-0.36972395
37	0xbdf70c8a	-0.120629385
38	0xbf54f515	-0.83186466
39	0xbf74cc56	-0.9562429
40	0xbf361454	-0.7112477
41	0xbd08e126	-0.033417843
42	0xbf0b151f	-0.54329103
43	0x3ec2035b	0.37893185
44	0x3e0e4317	0.1389278
45	0xbf62ab2a	-0.88542426
46	0xbe679ed5	-0.22619183
47	0xbf1f8438	-0.62311125
48	0xbf4660ab	-0.77491254
49	0xbeb19e66	-0.3469116

classfier.bn2.running_var f4 [50]
0	0x3f6236a8	0.8836465
1	0x3e87d4f5	0.2652966
2	0x3f09a951	0.5377398
3	0x3f288b8c	0.6583793
4	0x3ec57dc8	0.38572526
5	0x3f118eaf	0.5685834
6	0x3f6a773c	0.9158819
7	0x3f40742b	0.7517726
8	0x3f2ef872	0.6834785
9	0x3f7d73f0	0.9900503
10	0x3f06af34	0.5261109
11	0x3f100c00	0.5626831
12	0x3ef9144a	0.48648292
13	0x3f150452	0.5820972
14	0x3f2bd2d7	0.6711859
15	0x3f3a0277	0.7266001
16	0x3f02d2b9	0.5110279
17	0x3f14b5af	0.5808973
18	0x3f58bc67	0.8466248
19	0x3ed9f4a8	0.4256947
20	0x3f205263	0.6262571
21	0x3f162ff2	0.5866691
22	0x3f20b4c1	0.6277581
23	0x3f06dca7	0.5268044
24	0x3f0ffd07	0.56245464
25	0x3f327038	0.6970248
26	0x3eefd32b	0.46840796
27	0x3e76558c	0.24056071
28	0x3f041733	0.515979
29	0x3f0686cb	0.5254943
30	0x3f123239	0.57107884
31	0x3f1b2895	0.606088
32	0x3f1f51a0	0.62233925
33	0x3eed62a0	0.46364307
34	0x3f18b1d4	0.59646344
35	0x3efacede	0.48985952
36	0x3f092ea5	0.535868
37	0x3f27871a	0.65440524
38	0x3f152925	0.58265907
39	0x3ef8ceae	0.48595184
40	0x3ede7ab2	0.43452984
41	0x3f0ba587	0.5454945
42	0x3f29eb7e	0.6637496
43	0x3ebad7a4	0.36492646
44	0x3e863a79	0.26216486
45	0x3f143882	0.57898724
46	0x3f22be65	0.6357177
47	0x3f218837	0.6309847
48	0x3f013624	0.5047324
49	0x3ecaf45b	0.39639553

classfier.fc3.weight f4 [25, 50]
0	0xbdabb8b9	-0.083848424
1	0x3d82eae5	0.06392459
2	0x3e0c4235	0.13697131
3	0xbdf2b528	-0.11850959
4	0xbcbe7c5c	-0.023252659
5	0x3d29b197	0.04142913
6	0xbda23b60	-0.07921481
7	0xbdc6c417	-0.0970537
8	0xbdefdf2e	-0.1171249
9	0xbce030d5	-0.027367035
10	0xbd040a35	-0.032236297
11	0x3c3db384	0.011578444
12	0xbd758cb3	-0.059948634
13	0x3e15b5bd	0.14620109
14	0x3e0e1966	0.13876876
15	0xbc6d26c8	-0.014474578
16	0xbd13a0b5	-0.036041934
17	0xbbc54b9b	-0.0060209758
18	0x3c5ec71f	0.013597279
19	0xbd3dad06	-0.046307586
20	0x3dcba6dc	0.09943935
21	0x3dec4b00	0.115377426
22	0x3d7401c5	0.059572
23	0x3d9bd43e	0.07608841
24	0xbdbc100e	-0.0918275
25	0x3a289fd6	0.0006432509
26	0xbddad3f7	-0.1068496
27	0x3df92b02	0.12166406
28	0x3e027001	0.12738039
29	0xbc937d5e	-0.018004116
30	0xbd2486e2	-0.040167697
31	0x3e092d47	0.13396178
32	0x3c827427	0.015924526
33	0xbc98f617	-0.018672032
34	0x3e19f4ac	0.15034741
35	0xbcaa3e19	-0.020781564
36	0x3c015f4e	0.007896258
37	0x3df4a9bc	0.11946437
38	0xbd8f1786	-0.069869086
39	0xbd4fe2ff	-0.05075359
40	0xbd2ed197	-0.04268035
41	0x3dd52bc5	0.10408739
42	0xbcf413bd	-0.029794568
43	0x3d340bdc	0.043956622
44	0xbccbe9fc	-0.024891846
45	0xbd1e77b1	-0.038688365
46	0x3d36e53f	0.04465222
47	0xbda2c3a8	-0.07947475
48	0xbd08dcee	-0.03341382
49	0xbdea02ec	-0.114263386
50	0xbdb2de55	-0.08733813
51	0x3d32f7d0	0.043693364
52	0x3de5b592	0.112162724
53	0xbda4eab3	-0.08052578
54	0xbd867b5e	-0.06566499
55	0xbd0256ca	-0.03182105
56	0xbceb63ca	-0.028734107
57	0xbdd2eb56	-0.10298793
58	0xbdb7a9c0	-0.08967924
59	0xbd5c8aba	-0.053843237
60	0xbb9fa2b3	-0.00487169
61	0x3ce9896f	0.028507916
62	0xbc570db0	-0.013125822
63	0x3e1d1002	0.15338138
64	0x3dce741d	0.100807406
65	0xbd89c992	-0.067278996
66	0xbdd8acbb	-0.10579821
67	0x3e015460	0.12629843
68	0x3d3525d4	0.04422553
69	0x3d76e094	0.06027277
70	0x3c2cd5c2	0.010549011
71	0x3dd4ef28	0.10397178
72	0x3d8c63a5	0.06854943
73	0x3bfb4c40	0.007669002
74	0xbdc2c5c1	-0.09510375
75	0x3c2e6765	0.010644768
76	0xbd48ae28	-0.048994213
77	0x3dc7265c	0.09724113
78	0x3da4a3f5	0.08039085
79	0xbcb544fe	-0.022127625
80	0xbd6bc1d9	-0.057557914
81	0x3dba0868	0.090836346
82	0x3d841b57	0.06450527
83	0xbdaa2657	-0.08308094
84	0x3d9eb017	0.0774843
85	0xbe1da9ed	-0.15396853
86	0x3b4bf6aa	0.0031122365
87	0xbc92211d	-0.017838055
88	0xbd95ae76	-0.073086664
89	0x3b3cf47a	0.0028832243
90	0x3aa0eb40	0.0012277141
91	0x3dc51f8e	0.09625159
92	0xbd616a85	-0.055033226
93	0x3dac2fa4	0.08407524
94	0x3d91fa7a	0.07127853
95	0xbc98dc67	-0.018659784
96	0x3dd92ebd	0.10604618
97	0xbdb2c287	-0.087285094
98	0xbd609a4b	-0.054834645
99	0xbd38540d	-0.045002032
100	0x3d7c5753	0.061606716
101	0xbddce65d	-0.10786126
102	0xbd406ced	-0.04697888
103	0x3d3e21d7	0.04641899
104	0x3c6e109b	0.014530326
105	0xbe23c50e	-0.15993139
106	0x3dfbf001	0.123016365
107	0x3de0372c	0.10948023
108	0x3da2491d	0.079241015
109	0x3e10cb07	0.14139949
110	0xbd932ae2	-0.071859136
111	0xbd8798c8	-0.066209376
112	0x3d9035e3	0.07041528
113	0xbd3a2557	-0.045445766
114	0xbd5f2807	-0.054481532
115	0x3d05be3d	0.03265213
116	0xbb252de7	-0.0025204362
117	0xbda6f88d	-0.08152876
118	0x3cd30efa	0.025763977
119	0x3c20b448	0.009808607
120	0xbc823a33	-0.015896892
121	0xbd590074	-0.052978948
122	0xbc9f507f	-0.019447563
123	0xbdc6d16c	-0.09707913
124	0x3ccf7b6b	0.025327405
125	0x3dde1976	0.108447
126	0xbe1f7994	-0.15573722
127	0xbccc2438	-0.024919614
128	0xbd46932d	-0.0484802
129	0x3cee7c3d	0.029111976
130	0xbe41b02b	-0.18914859
131	0xbc03f855	-0.008054812
132	0x3c7de2db	0.015495981
133	0xbd1e9a4a	-0.03872136
134	0xbd98cb68	-0.07460672
135	0x3de43602	0.11143114
136	0x3d4cefc9	0.050033364
137	0xbda63917	-0.08116358
138	0xbdfcc696	-0.12342565
139	0xbe418b81	-0.18900873
140	0xbbb0b136	-0.005392219
141	0xbd93fa99	-0.07225532
142	0x3d9789fe	0.07399367
143	0x3b8c5cdc	0.0042835306
144	0xbdc5b26f	-0.09653174
145	0x3e349309	0.17634214
146	0x3c012ed5	0.007884701
147	0x3dda6b91	0.10665048
148	0x3dcbe202	0.09955217
149	0xbd772037	-0.060333457
150	0x3de69f49	0.1126085
151	0xbe1e51c7	-0.15460883
152	0xbd05b9fd	-0.032648075
153	0x3d988e61	0.074490316
154	0x3e2d07af	0.16897462
155	0xbe7e2059	-0.24817027
156	0x3dfb9ab4	0.12285367
157	0x3ce02f48	0.027366295
158	0x3dd9e325	0.106390275
159	0x3cb47b30	0.022031397
160	0xbdf16caf	-0.11788308
161	0xbdb616b3	-0.08891048
162	0xbe2de552	-0.1698201
163	0xbd26bd99	-0.04070816
164	0x3cd6624f	0.026169924
165	0x3e178dee	0.14800236
166	0x3c778eba	0.015109712
167	0xbdf69e5b	-0.12041923
168	0x3bc308f1	0.0059519936
169	0x3c9c2831	0.019062134
170	0xbd14bd01	-0.03631306
171	0xbdef470e	-0.116834745
172	0xbcfa79bd	-0.030575627
173	0xbd963b05	-0.07335476
174	0x3da85690	0.082196355
175	0x3dba929f	0.09109997
176	0x3c50f682	0.012754085
177	0xbcd288f2	-0.025700066
178	0xbdf4b6b6	-0.11948912
179	0x3c95aa1e	0.018269595
180	0xbe2b408f	-0.16723846
181	0xbd1933ff	-0.037403103
182	0x3c7306e0	0.014833182
183	0xbe1a5c32	-0.15074232
184	0xbe05c775	-0.13064368
185	0x3d10145a	0.03517566
186	0xbd0ecb20	-0.034861684
187	0xbd8b6847	-0.06806999
188	0xbe5766a5	-0.2103525
189	0x3d30592f	0.043053802
190	0x3cdbfb6d	0.026853288
191	0xbd43fccd	-0.04784851
192	0x3dc8a38d	0.0979682
193	0x3c95a8a7	0.018268896
194	0xbdb2c1e7	-0.0872839
195	0x3d367d9a	0.044553377
196	0x3c8ac6f3	0.01694057
197	0x3e04105f	0.1289687
198	0x3e6bbf3b	0.23022167
199	0x3d21bc3b	0.03948615
200	0xbce7fd6b	-0.028319081
201	0xbd00acf1	-0.03141493
202	0x3e2e8693	0.17043523
203	0xbe00e3f1	-0.12586953
204	0xbc84cdb8	-0.016211376
205	0xbd2ade2d	-0.04171579
206	0x3c99bae3	0.018765872
207	0xbdee3660	-0.11631465
208	0xbcdab4ac	-0.02669748
209	0xbd82232c	-0.06354365
210	0xbdb9710b	-0.09054764
211	0x3d8f57c7	0.06999164
212	0x3b8dcc5e	0.004327341
213	0xbb20c12e	-0.0024529207
214	0x3e1ae933	0.15128021
215	0xbdb0282e	-0.08601414
216	0xbdd4b617	-0.103862934
217	0x3e09ff35	0.1347626
218	0x3d7c9456	0.0616649
219	0xbd53fc26	-0.05175414
220	0x3d846c18	0.0646593
221	0x3dbed882	0.09318639
222	0x3e3854d0	0.18001103
223	0xbcb3600c	-0.021896385
224	0x3d0bdf08	0.034148246
225	0xbd4ba616	-0.04971894
226	0xbb83cff0	-0.004022591
227	0xbc31cac2	-0.010851564
228	0x3e36a761	0.17837287
229	0x3c99642f	0.01872453
230	0xbc95eeef	-0.018302409
231	0x3e37fba1	0.17967083
232	0x3d0757d4	0.033042744
233	0xbdb9f7bf	-0.09080457
234	0x3d89e61e	0.067333445
235	0xbe061924	-0.13095528
236	0x3d007530	0.03136176
237	0x3e07e0a0	0.13269281
238	0xbda74724	-0.08167866
239	0xbcd3f6b6	-0.025874477
240	0xbcec6c00	-0.028860092
241	0xbc4d3116	-0.01252391
242	0xbd99124f	-0.07474195
243	0xbd871553	-0.06595864
244	0x3da69838	0.08134502
245	0xbdce7d1f	-0.10082459
246	0x3bb78883	0.0056009903
247	0xbd421cc2	-0.047390707
248	0xbd9448bf	-0.07240438
249	0x3c0268e5	0.007959579
250	0xbdc9f7da	-0.09861727
251	0xbd2e4b9a	-0.042552568
252	0x3e25d5b2	0.161948
253	0x3c205ff2	0.0097885
254	0xbdb9c926	-0.09071569
255	0xbb83779b	-0.004012061

classfier.fc3.bias f4 [25]
0	0x3158fc80	3.1575667e-09
1	0x365271fe	3.135879e-06
2	0x3813b5ec	3.521696e-05
3	0x378490b4	1.5803009e-05
4	0x36127f22	2.1829696e-06
5	0x343bb574	1.7481744e-07
6	0x363ebef4	2.8423356e-06
7	0x37aa51ef	2.0303733e-05
8	0xb6b51f25	-5.397846e-06
9	0xb688c410	-4.0759405e-06
10	0xb70f61f8	-8.546274e-06
11	0x38f2a65a	0.000115704446
12	0xb68aee09	-4.1404314e-06
13	0x34d29d6c	3.9230088e-07
14	0xb63e9798	-2.8400445e-06
15	0xb772129e	-1.4428659e-05
16	0xb6746ae4	-3.6421052e-06
17	0xb60fa40f	-2.1404155e-06
18	0x373dea3d	1.1319816e-05
19	0xb64496f0	-2.9294133e-06
20	0x356ef07b	8.9011854e-07
21	0x35f5a7c0	1.8302744e-06
22	0x376f9858	1.428098e-05
23	0xb6ea943f	-6.9910016e-06
24	0xb76270c3	-1.3496904e-05

classfier.bn3.weight f4 [25]
0	0x3f93705e	1.1518667
1	0x3f94890f	1.1604327
2	0x3fa9d66a	1.3268559
3	0x3faafc01	1.3358155
4	0x3f87624d	1.0576874
5	0x3f88e11d	1.0693699
6	0x3f9291da	1.145076
7	0x3fa98bb1	1.3245755
8	0x3fb3a1d9	1.4033767
9	0x3fa82c9d	1.3138615
10	0x3fb1151c	1.3834567
11	0x3fa0e50d	1.2569901
12	0x3f8e3035	1.1108462
13	0x3fa9841b	1.324344
14	0x3f8f0176	1.1172321
15	0x3fa668cf	1.3000735
16	0x3f8c7284	1.0972447
17	0x3f8bd957	1.0925702
18	0x3fa57ba6	1.292836
19	0x3f912c02	1.1341555
20	0x3f8e9574	1.113936
21	0x3f8ab84e	1.0837495
22	0x3fa416f1	1.2819501
23	0x3faa926e	1.3325937
24	0x3fa66b8f	1.3001574

classfier.bn3.bias f4 [25]
0	0xbcc22c8e	-0.023702886
1	0xbc9a1e20	-0.018813193
2	0x3e9b2de6	0.30308455
3	0x3ea9abcc	0.33138883
4	0xbd55e831	-0.052223388
5	0xbd18677f	-0.037208077
6	0xbd0f9ccd	-0.035061646
7	0x3e9f6d57	0.31138107
8	0x3ecc01ab	0.39845023
9	0x3e93c0a2	0.28857905
10	0x3ec45be9	0.38351372
11	0x3e8040fc	0.2504958
12	0xbce55cd8	-0.027998373
13	0x3ea0ddbf	0.3141918
14	0xbd2158f4	-0.039391473
15	0x3e907217	0.28212044
16	0xbd34e198	-0.044160455
17	0xbd1a85aa	-0.03772513
18	0x3e8c16db	0.27361187
19	0xbcea452a	-0.028597433
20	0xbcd01881	-0.02540231
21	0xbd491e06	-0.0491009
22	0x3e8a89ba	0.27058202
23	0x3ea68a57	0.3252742
24	0x3e9b0310	0.30275774

classfier.bn3.running_mean f4 [25]
0	0xbdf7f316	-0.12106912
1	0xbe0bb04d	-0.13641472
2	0xbdd4efdc	-0.10397312
3	0xbde035ab	-0.10947736
4	0xbdf11f98	-0.11773604
5	0xbd977d94	-0.07396999
6	0xbdafa184	-0.085757285
7	0xbf08f0cb	-0.5349242
8	0xbe92778a	-0.28606826
9	0xbeb72cb2	-0.35776287
10	0xbf155df4	-0.58346486
11	0xbf269a66	-0.65079343
12	0xbcc0c41e	-0.023531016
13	0xbf04612c	-0.5171077
14	0xbdd832b1	-0.105565436
15	0xbeedfe53	-0.46483096
16	0xbdb539c2	-0.08848907
17	0xbd962ed8	-0.073331535
18	0xbe97206e	-0.2951693
19	0xbdd36d46	-0.10323577
20	0xbdaaab31	-0.083334334
21	0xbdf79eef	-0.12090861
22	0xbedf54e8	-0.43619466
23	0xbef51249	-0.47865513
24	0xbecf067f	-0.40434644

classfier.bn3.running_var f4 [25]
0	0x3f4bdb9c	0.7963197
1	0x3f3b0501	0.7305451
2	0x3f13c059	0.57715374
3	0x3f39d87d	0.7259596
4	0x3f56ede6	0.83956754
5	0x3f4bfcc1	0.79682547
6	0x3f615a60	0.88028526
7	0x3f432da1	0.762415
8	0x3f151e65	0.58249503
9	0x3eeb08e4	0.4590522
10	0x3f60919c	0.8772218
11	0x3f5ee380	0.8706589
12	0x3f613917	0.8797774
13	0x3f2a05dd	0.66415197
14	0x3f299e21	0.6625691
15	0x3f408ad8	0.7521186
16	0x3f5be05f	0.8588924
17	0x3f658376	0.8965372
18	0x3f1ebab0	0.6200361
19	0x3f667b90	0.9003229
20	0x3f3b3807	0.73132366
21	0x3f52ca32	0.82339776
22	0x3f623f5d	0.88377935
23	0x3f25ddaa	0.6479136
24	0x3edbff97	0.42968437

classfier.fc5.weight f4 [1, 25]
0	0x3e18fb97	0.14939724
1	0x3e117de6	0.14208183
2	0xbe9a39ee	-0.30122322
3	0xbeaaa07f	-0.33325574
4	0x3e74ada6	0.23894367
5	0x3e07f8f5	0.13278563
6	0x3e3cd66c	0.1844117
7	0xbe969117	-0.2940757
8	0xbe91607f	-0.28393933
9	0xbeaa34e3	-0.33243474
10	0xbe8996fa	-0.26872998
11	0xbec65f92	-0.3874479
12	0x3e6d25c9	0.23158945
13	0xbe93adca	-0.28843528
14	0x3e5f0d9d	0.21782537
15	0xbea59f05	-0.32347885
16	0x3e67546d	0.225908
17	0x3e8821b0	0.26588202
18	0xbec65faa	-0.3874486
19	0x3e22d641	0.15902044
20	0x3e512238	0.2042321
21	0x3e50bb0b	0.20383851
22	0xbecdd4a2	-0.40201288
23	0xbe8f2f4e	-0.27965778
24	0xbed29385	-0.41128173
