trained_models/collins/run_14-54-56/dnn_model_fold_1.pt (torch, 89601 bytes, 19 tensors)

classfier.fc1.weight f4 [100, 100]
000000 cd ef 5c 3d c1 30 ab bc e6 c6 0e bd 6d 64 b8 bc
       0.05393963 -0.020897271 -0.034857653 -0.022508824
000010 b8 4a af 3c 3f 6d 5c 3d c7 79 33 3d 97 8a 00 be
       0.021397933 0.053815123 0.043817308 -0.12552868
000020 04 0d 5c 3c ea dd 27 3d c1 54 cb bd e2 f8 3a bd
       0.013430838 0.040983118 -0.09928275 -0.04564751
000030 e5 d0 ae bd 6c 96 4a 3b 92 e1 08 3c 6a 86 3b 3d
       -0.08535937 0.0030912412 0.008354561 0.045782484
000040 6e d7 47 bd 6f c9 c4 bd fe f7 c5 bd 25 5c a2 bc
       -0.048789434 -0.09608733 -0.096664414 -0.019819329
000050 7f 4b 1a bd 3b ee 04 3d 5a 8f 04 3d c1 97 7b bd
       -0.037669655 0.032453757 0.032363273 -0.06142402
000060 0f e7 2d bd 99 ed 83 3c e7 91 e9 bc d0 c9 54 bc
       -0.042456683 0.016104506 -0.028511954 -0.012987569
000070 11 3b 00 bd d9 99 01 3d 1c 79 49 bc 0a 14 23 3d
       -0.03130633 0.03164086 -0.012296941 0.039814033
000080 a5 ef 83 3d b6 a9 a9 bd 9d e6 d4 bd ce ff b1 bc
       0.06442193 -0.08284323 -0.103955485 -0.021728422
000090 29 19 16 bd 2f 27 e8 bc df 62 0e 3e 22 e3 10 3d
       -0.03664509 -0.028338997 0.13904904 0.03537286
0000a0 ef 5f 3b bd a4 d3 d2 3d 29 4b 17 3d 7f b5 8e bd
       -0.045745786 0.102942735 0.036936913 -0.069682114
0000b0 7b 10 91 bd ba bd eb bd 60 df 84 bd e7 f0 b9 3d
       -0.070832215 -0.11510797 -0.06487918 0.090791516
0000c0 f8 ae b9 3c 0e 3b d1 bd be 5f fd 3b 42 09 85 bd
       0.02266644 -0.10216342 0.0077323606 -0.064959064
0000d0 4b ec 97 bd e7 6b 10 3c d5 e8 01 3e 1d 35 b3 bd
       -0.07418116 0.008814788 0.12686475 -0.08750365
0000e0 45 5e 38 bc 34 96 7e bd f5 00 b8 3c d3 fd bf bd
       -0.011252944 -0.062154964 0.022461394 -0.09374585
0000f0 23 78 7f 3d a6 4a 92 bd 0e 54 96 3d 3d 1c 77 bd
       0.06237043 -0.07143144 0.07340251 -0.060329664
000100 1d 48 26 3d dc 70 02 bd ac 3f f6 3c 48 d2 a8 bc
       0.040596116 -0.031845912 0.030059658 -0.020608082
000110 29 7f 70 3d e5 68 c7 bd 90 21 41 bc 40 11 75 3d
       0.05871502 -0.09736804 -0.011787787 0.059830904
000120 f3 cb 34 3d ea d2 78 3d 9e 02 34 3d d6 a4 c7 3b
       0.044139814 0.06074802 0.04394781 0.006092648
000130 6e 65 87 bd 1b 88 a0 3c 63 60 95 3d 1e f5 8d 3c
       -0.06611143 0.01959615 0.07293775 0.017328795
000140 b9 a6 b1 bc 8e 46 64 3d 0d 4a 2b bd e3 30 91 bd
       -0.021685945 0.05573135 -0.041818667 -0.070894025
000150 73 8b 69 3c 1e ed be 3d 15 27 a7 bb b8 29 78 bd
       0.014254439 0.0932257 -0.0051010945 -0.06058666
000160 b6 3a 5e 3d 3b 6a d2 bc 9b 74 24 3d 4a 43 b8 3d
       0.05425521 -0.02568542 0.040150266 0.08997209
000170 a8 f6 43 bd 36 b5 68 3d 31 6f d7 3a 4b 55 da 3a
       -0.04784265 0.05681344 0.0016436336 0.0016657499
000180 da f1 37 bd b1 77 a7 3d 12 4b f6 3c 32 45 1f bc
       -0.044908382 0.08177126 0.030065093 -0.009721087
000190 01 cd 2d 3d a8 40 85 bd d6 0e 52 bd 1e 9e 2e 39
       0.042431835 -0.06506473 -0.05128368 0.00016652836
0001a0 6a 74 d3 bd fd a3 82 bd 04 e5 da bd 43 43 ad bc
       -0.103249386 -0.063789345 -0.106882125 -0.021150237
0001b0 16 4f 46 bd f3 9f b1 bc 12 84 e6 bc de 53 fc 3d
       -0.048415266 -0.021682715 -0.028139148 0.12320684
0001c0 5b 5e 82 bd 56 6b a9 bd ca d7 c6 bd 7c 6a 45 bd
       -0.06365653 -0.08272426 -0.09709127 -0.048197255
0001d0 6e 30 ff 3c e9 44 2a bd e0 37 ed 3d fa 4e e1 bc
       0.031151023 -0.041569624 0.11582923 -0.02750348
0001e0 15 5b 39 3c 27 af 14 bd c7 76 31 3d 55 cd 8b 3d
       0.01131322 -0.03629985 0.043326166 0.06826273
0001f0 0b 70 d1 3c d6 a9 24 bb 33 88 40 3c 6e 8e 82 bd
       0.025566122 -0.0025125644 0.011751222 -0.063748226
000200 ac 93 89 bd f5 10 cf 3d ae 09 06 bd 7d d9 73 bd
       -0.06717619 0.10110656 -0.032724075 -0.059533585
000210 b6 f0 05 3d ab 73 42 3d 96 d4 68 bc 12 f1 3a 3d
       0.032700263 0.04747359 -0.014210841 0.04564006
000220 de 14 73 bc 0f 86 2e bd 7f af 51 bd c5 51 b8 bc
       -0.014836518 -0.042608317 -0.051192757 -0.022499928
000230 89 f6 73 3d d0 84 7d 3d 41 d7 a8 bd e1 57 89 bd
       0.059561286 0.061894238 -0.082441814 -0.06706215
000240 37 6d 6f bd c6 41 fe 3c e3 29 2c bc d8 75 4b 3c
       -0.058453765 0.031037223 -0.010508033 0.012418233
000250 f4 e8 93 3d 84 ed 89 3d 72 90 19 bd cb cd 94 3d
       0.07222167 0.06734756 -0.03749127 0.072658144
000260 ef 22 db 3d 89 37 ad bc cb 3f d0 3c 6d 97 20 bd
       0.107000224 -0.021144645 0.025421044 -0.03920691
000270 46 5a 4b 3d 15 38 71 bd f5 57 5f bd 10 1f 16 3d
       0.04964664 -0.058891375 -0.05452724 0.036650717
000280 01 bc da 3c 08 e9 f7 bd 47 3e 42 bd b6 72 67 bd
       0.026700975 -0.12104994 -0.047422674 -0.05650588
000290 6f 33 b1 3d f6 10 c1 3c dd 3e be bc 76 bb e7 3c
       0.08652388 0.023567658 -0.023223335 0.02828763
0002a0 a8 ee 27 bd 07 28 80 3d 02 e6 0f bc 7d ab fd bc
       -0.040999085 0.062576346 -0.0087828655 -0.030965561
0002b0 1a 47 30 bd 2a af 5a bb f1 c3 ee 3c b9 ac e6 bc
       -0.043036558 -0.0033368566 0.029146167 -0.028158532
0002c0 1d 20 af bd 93 05 83 3b 13 c3 f2 bd 3e a5 cb 3d
       -0.08551047 0.0039984672 -0.11853614 0.09943627
0002d0 3d 30 5c 3d b2 0c 8f 3c 26 97 53 3d 0b be 2c bd
       0.05375694 0.017462108 0.05165782 -0.042173427
0002e0 d4 74 00 bd 65 14 98 3d 3c 1f e4 bc 33 dd 67 3d
       -0.031361416 0.07425765 -0.027846925 0.056607436
0002f0 d0 fe 27 bd 48 5d 14 3d d7 cf 27 be e7 c1 eb 3c
       -0.041014493 0.036221772 -0.16387878 0.028778983
000300 89 3e 21 bd 6b c5 6d bb f0 5e 05 3d c6 26 04 3d
       -0.03936628 -0.0036281 0.032561243 0.03226354
000310 93 93 9a bd 8d ac a5 3d 00 96 20 bd d5 1d 87 3d
       -0.07547679 0.08089552 -0.03920555 0.06597487
000320 9d 4c c2 3d 4d 03 27 3c e2 a0 b0 bd b9 4e b4 3c
       0.09487269 0.010193658 -0.08624436 0.022010194
000330 f9 cf 30 3d 5b 79 47 bd 12 d8 b4 bd 4c 34 31 bd
       0.04316709 -0.048699718 -0.08830275 -0.043262765
000340 e8 b5 d1 3c 49 32 c1 bc ed 65 0d be da 75 af 3d
       0.025599435 -0.023583548 -0.13808413 0.085674
000350 5a 41 cf bd 9d fb 0d 3c 2e 41 f2 bb c6 9e a2 bd
       -0.10119887 0.008665946 -0.007393024 -0.0794044
000360 07 8c 14 bd a6 69 00 bd 13 3d 2e bd 24 fa 8c 3d
       -0.036266353 -0.031350754 -0.042538714 0.06883648
000370 91 e1 b9 bd c1 f9 87 bd bc 67 a3 bd 31 ca c1 3b
       -0.090762265 -0.06639434 -0.0797877 0.0059139957
000380 65 59 9e 3d 6c 4f 17 3e be 31 cc 3c db 69 f6 3d
       0.077318944 0.14776391 0.024926063 0.12031909
000390 65 5b 06 3d 06 87 a3 3d d7 e6 1b bd 7a 83 fa 3b
       0.032802004 0.07984738 -0.038061943 0.0076450678
0003a0 f9 02 db bc e7 2a 42 bc 48 08 98 bd ec e1 95 bc
       -0.026734816 -0.011851049 -0.074234545 -0.018296205
0003b0 8f c0 7c bd da 60 db bc 62 69 0b 3e 82 70 ff 3d
       -0.061707076 -0.02677958 0.13614419 0.12472631
0003c0 1d fe 91 3d ef 26 0b bc d4 ca b5 3c 39 af 9f 3d
       0.071285464 -0.008493169 0.022191443 0.07797093
0003d0 e3 27 b6 bd 1c 53 84 3b 2c 36 23 be 38 b4 98 bd
       -0.088943265 0.0040382277 -0.15938634 -0.07456249
0003e0 36 dd 5d bd cb c8 80 bd 92 34 14 3d 40 ba 66 3d
       -0.05416604 -0.06288298 0.036182947 0.056329966
0003f0 b8 b8 15 3c bd bf b9 3c 3c 2b b8 3d 85 be 17 be
       0.009138279 0.022674436 0.08992621 -0.14818771

classfier.fc1.bias f4 [100]
000000 a2 4c 82 b7 fb 51 0d b5 66 28 c4 36 38 f9 50 b5
       -1.5532893e-05 -5.264589e-07 5.845958e-06 -7.78487e-07
000010 1e a0 93 35 bc c3 3d 37 27 ca 45 b6 ef c7 b0 36
       1.0998954e-06 1.1310851e-05 -2.9472956e-06 5.268484e-06
000020 36 3d 67 b6 61 d9 f9 35 e2 cb b6 b6 63 70 9e b7
       -3.4457312e-06 1.8615211e-06 -5.4477578e-06 -1.8887402e-05
000030 6b 27 c7 b7 ad cc 19 b8 ab 65 2f 39 55 57 b1 37
       -2.3741004e-05 -3.666866e-05 0.00016727175 2.1140711e-05
000040 92 2a 11 37 5f 33 0c b6 2e 8f 7a 36 2a c2 e6 b5
       8.652585e-06 -2.0891528e-06 3.7336245e-06 -1.7192845e-06
000050 58 f2 f4 b6 97 04 f3 b6 ef 26 c1 36 84 3d aa b5
       -7.299979e-06 -7.2424987e-06 5.7563807e-06 -1.268389e-06
000060 d6 fa 40 36 9b a1 82 b6 43 54 a1 35 fc 76 07 36
       2.8756235e-06 -3.8931153e-06 1.2019958e-06 2.0185826e-06
000070 00 50 bb 30 62 76 62 35 59 ad 4d b7 eb f1 7f b6
       1.3628778e-09 8.436383e-07 -1.2259313e-05 -3.8138776e-06
000080 26 7f 7c b6 33 9b 86 37 7e f9 1e 37 07 db 10 35
       -3.7624936e-06 1.6046315e-05 9.475623e-06 5.3962907e-07
000090 d9 54 3f 36 2a 70 99 b6 19 61 10 37 73 61 39 37
       2.8510606e-06 -4.572813e-06 8.605676e-06 1.1049548e-05
0000a0 c4 84 3f 37 28 2b 19 35 e0 a3 bb b7 2f 8d 8b 35
       1.1415399e-05 5.705974e-07 -2.2368447e-05 1.0397397e-06
0000b0 59 08 34 b7 7e 87 8b b8 46 86 a5 b7 cb 80 31 b7
       -1.073078e-05 -6.653274e-05 -1.9732059e-05 -1.0580009e-05
0000c0 ae 6a af b6 a7 7e 9a 36 10 e4 dc b6 36 c4 5b 37
       -5.2278256e-06 4.604302e-06 -6.583061e-06 1.3099101e-05
0000d0 5b 29 a6 37 a9 a2 2e 37 41 31 b2 b6 10 b4 69 36
       1.9808e-05 1.04090805e-05 -5.3105473e-06 3.4824516e-06
0000e0 64 0f 9d 36 30 a6 58 37 60 aa a7 b7 34 18 09 38
       4.6807563e-06 1.2913297e-05 -1.9987288e-05 3.2685886e-05
0000f0 1b 9a 24 b6 be 6f 9b b6 5d 96 34 36 c1 cf 0a b7
       -2.4527606e-06 -4.6323685e-06 2.6909613e-06 -8.273812e-06
000100 a4 11 46 36 40 b8 98 b7 43 4b 04 36 be bc de b3
       2.9514567e-06 -1.820561e-05 1.971334e-06 -1.03720126e-07
000110 1b 98 b0 36 3a 3c 7c b7 67 f7 d6 35 6f b2 93 b5
       5.262916e-06 -1.5034393e-05 1.6016246e-06 -1.1004284e-06
000120 8f 37 35 b7 cd f2 4a b7 c5 c4 99 36 76 d4 50 34
       -1.0801376e-05 -1.209667e-05 4.5826623e-06 1.9448802e-07
000130 9c d6 a1 34 58 6f 12 36 5d 04 45 36 99 31 c3 b6
       3.0144736e-07 2.1820506e-06 2.9357827e-06 -5.817227e-06
000140 74 7b ee b5 3d c8 12 b6 62 b0 29 36 ac 9d 9d b6
       -1.7768311e-06 -2.187225e-06 2.528563e-06 -4.69732e-06
000150 7a 21 84 37 a5 85 5c b7 5f 50 a1 36 f0 22 47 b5
       1.5751215e-05 -1.3144138e-05 4.8075303e-06 -7.418412e-07
000160 20 69 d7 b5 9d bb 66 37 87 12 34 b7 d0 7d 9f 37
       -1.6049344e-06 1.375275e-05 -1.073315e-05 1.9012863e-05
000170 22 04 9d b4 17 1d 49 b6 6c ed a3 36 20 19 6f 37
       -2.9246536e-07 -2.9968267e-06 4.885418e-06 1.425136e-05
000180 78 20 88 36 25 2a b5 b6 fb d5 d9 b5 69 18 4d b8
       4.0568957e-06 -5.3991266e-06 -1.6230036e-06 -4.8898542e-05

classfier.bn1.weight f4 [100]
000000 76 84 7a 3f 13 85 74 3f 83 e1 81 3f 8b e1 7f 3f
       0.9785837 0.95515555 1.0146946 0.99953526
000010 d7 3e 7d 3f 8d bc 7d 3f 94 ac 7b 3f 9e 95 77 3f
       0.9892401 0.9911583 0.9831021 0.9671267
000020 5f 31 73 3f fa 14 77 3f e9 a0 6d 3f 7d 71 7a 3f
       0.9499721 0.9651638 0.92823654 0.9782942
000030 ce 78 76 3f 6a 40 89 3f 81 d5 73 3f 76 cf 7a 3f
       0.96278083 1.0722783 0.95247656 0.9797281
000040 3d 7b 84 3f 33 1d 6b 3f 29 af 7e 3f ca 3e 70 3f
       1.0350109 0.9184143 0.99486023 0.9384581
000050 0a 2f 80 3f 70 53 6d 3f c6 45 82 3f 92 de 74 3f
       1.0014355 0.9270544 1.0177543 0.95652115
000060 4b 56 6f 3f 4d 48 68 3f 44 cd 78 3f 82 c5 6a 3f
       0.9349105 0.9073532 0.9718821 0.91707623
000070 54 84 67 3f 7f fa 70 3f 09 3c 85 3f e9 7a 7b 3f
       0.9043629 0.94132227 1.0408946 0.9823442
000080 8e 34 75 3f 23 7d 84 3f 2f 69 71 3f 97 73 6d 3f
       0.9578332 1.0350689 0.9430112 0.927545
000090 0c 8f 85 3f 41 88 76 3f 4a d5 7b 3f fd 34 76 3f
       1.043428 0.96301657 0.9837233 0.96174604
0000a0 aa b5 81 3f e5 04 76 3f d1 bf 83 3f fa 51 86 3f
       1.0133564 0.9610122 1.0292913 1.0493767
0000b0 ee 96 7e 3f ca 3f 82 3f 2a bc 76 3f c1 3b 7c 3f
       0.9944905 1.0175717 0.96380866 0.9852868
0000c0 07 81 7d 3f d4 50 80 3f e1 c0 80 3f d9 b2 74 3f
       0.99025005 1.0024667 1.0058862 0.955854
0000d0 17 f2 77 3f 6c c5 85 3f 43 4a 7a 3f dd ef 78 3f
       0.96853775 1.0450873 0.97769564 0.97241
0000e0 a2 c7 76 3f 0c 42 72 3f 39 fc 90 3f a4 ff 71 3f
       0.96398365 0.9463203 1.1326972 0.945307
0000f0 13 2a 76 3f 0f 13 80 3f 23 24 80 3f 11 5b 78 3f
       0.9615795 1.0005816 1.0011028 0.97013956
000100 47 39 80 3f a4 a0 75 3f 80 25 79 3f 9f a9 75 3f
       1.001748 0.95948243 0.97322845 0.95961946
000110 93 bb 75 3f 92 ff 84 3f 35 cd 6f 3f c3 e4 80 3f
       0.9598934 1.0390494 0.93672496 1.0069813
000120 e1 c4 81 3f de 74 7c 3f da 79 77 3f b4 28 6a 3f
       1.0138208 0.98615825 0.96670306 0.9146836
000130 f0 eb 73 3f e3 08 72 3f 54 fb 73 3f 3f 16 80 3f
       0.9528189 0.9454481 0.9530537 1.0006789
000140 ca 36 7e 3f 44 71 76 3f a2 08 73 3f 8c f2 80 3f
       0.9930235 0.9626658 0.9493505 1.007402
000150 4c f1 83 3f f1 4a 7d 3f f3 62 73 3f b1 c3 72 3f
       1.0308013 0.98942477 0.9507286 0.9482985
000160 e1 d9 77 3f ba 8e 81 3f 0e 77 81 3f 71 7e 7b 3f
       0.9681683 1.0121682 1.0114458 0.9823981
000170 31 45 7e 3f c6 f0 7a 3f 40 5c 76 3f 2f 23 7f 3f
       0.9932433 0.9802364 0.9623451 0.9966306
000180 0e 22 7b 3f 49 73 74 3f da 9b 68 3f 66 42 80 3f
       0.9809884 0.9548841 0.9086281 1.0020263

classfier.bn1.bias f4 [100]
000000 32 2f 51 bd b1 ab 22 3c d6 43 7c bd 54 7a 90 be
       -0.0510704 0.00992863 -0.06158813 -0.2821833
000010 2d c4 47 be 5c 03 66 be 3a 77 65 be 06 1b 35 be
       -0.19508429 -0.22462219 -0.22408763 -0.1768609
000020 f7 0e 30 bc d8 49 26 bc f3 82 81 be 3e 4d 80 be
       -0.010745755 -0.010149442 -0.2529522 -0.2505893
000030 8b 08 b8 bd 1f 62 66 bd 3b bf 2e be 0a 76 5d be
       -0.089860044 -0.05624592 -0.17065136 -0.2162706
000040 c6 94 47 be 2e 7e c0 bd dd 5a 76 be 30 f2 c9 bd
       -0.19490346 -0.09399067 -0.24058099 -0.09860647
000050 9f 99 b7 bd d0 83 52 be 85 ed 39 be ad 84 c1 3c
       -0.08964848 -0.20558095 -0.18157013 0.023622835
000060 27 e2 4f bd 1b be 24 be 2a 85 bd bd d0 eb c2 bd
       -0.050752785 -0.16088144 -0.09253915 -0.09517634
000070 0a 0b e3 bd f9 09 8a bd 4b 4d 33 bd 9c 92 3b bd
       -0.1108609 -0.067401834 -0.043774884 -0.045794114
000080 da 0b c0 3a d4 f3 8e be 06 48 7e bd ca e7 0d bd
       0.001465197 -0.279204 -0.062080406 -0.03464488
000090 6e 8a de 3c 03 0c 2a be c0 aa 01 bd 60 ff 6b be
       0.027165618 -0.16606145 -0.03165698 -0.23046637
0000a0 03 c5 72 be d4 96 c2 bd 8c 98 65 be 80 51 6b bd
       -0.23707967 -0.095014244 -0.22421473 -0.05745077
0000b0 c1 d9 40 be d6 d1 89 be 47 e0 9c bd 46 e4 42 be
       -0.18833067 -0.26917905 -0.07659965 -0.19032392
0000c0 d7 6b 4e 3c 79 ad 61 bc aa 62 33 be 1b 82 24 be
       0.012598953 -0.013774269 -0.17518106 -0.16065256
0000d0 94 22 50 be f9 70 7e be 79 c3 db 3d 82 e3 f6 bc
       -0.2032569 -0.24847783 0.10730643 -0.030137781
0000e0 ce 20 b1 bd 12 a1 81 be ab 3a b1 3d 7e e7 8f be
       -0.08648835 -0.253182 0.08653768 -0.28106302
0000f0 6f 65 19 bc b2 a5 86 be f2 78 71 be ea 78 83 be
       -0.009362563 -0.2629829 -0.23581293 -0.25678188
000100 f3 57 18 be b7 9b 68 be fe b1 0d be f9 33 ed bb
       -0.148773 -0.2271565 -0.1383743 -0.0072388616
000110 01 9c 90 bc 6e 10 7d be 0e df 94 bd ec 12 95 3b
       -0.017652513 -0.24713299 -0.07269107 0.004549375
000120 df a6 40 be 07 8d 95 bd 2d 72 3a be 19 50 5d 3b
       -0.18813656 -0.073022895 -0.18207617 0.0033769666
000130 b6 6f 0a 3e ea 0e 8f bc 35 00 b1 bc 47 3a 7a be
       0.13519177 -0.017463166 -0.021606544 -0.24436294
000140 ec 1a 5b 3b 9c 1e 58 be 50 ee 8e be 9d 90 4a bd
       0.0033432795 -0.21105427 -0.27916193 -0.04945432
000150 ca ab 89 be 6f 09 54 be 92 b4 2b bd d3 40 08 be
       -0.26888877 -0.20706724 -0.041920252 -0.13305978
000160 50 fa c4 bc 64 f7 46 be ca 7d 83 be dd 01 53 be
       -0.02404514 -0.1943031 -0.25681907 -0.2060618
000170 07 00 89 be ce 55 71 be 39 23 89 bd 17 98 32 be
       -0.26757833 -0.23567888 -0.06696171 -0.1744083
000180 83 e4 04 be 7d a2 83 bd 50 62 b5 bd 08 fb 70 be
       -0.12977795 -0.064274766 -0.08856642 -0.23533261

classfier.bn1.running_mean f4 [100]
000000 9d 8f 7c 3f 3e 1f 89 3f c1 cd 00 40 2f 17 fc be
       0.98656636 1.0712659 2.0125582 -0.49236438
000010 c4 64 85 be 88 f9 c0 be 31 0a ac bd 98 a0 07 3e
       -0.2605344 -0.37690377 -0.08400381 0.13244855
000020 6b 56 dd 3f 9a 4d 27 3f d0 fd cd be 15 7e c6 bd
       1.7291998 0.65352786 -0.40232706 -0.09692017
000030 38 ed e9 bd ec f1 5e bd e9 dc 49 bd fe 48 2a bf
       -0.11422199 -0.054429933 -0.049282942 -0.6651763
000040 2c b6 eb 3d 9d 60 f0 3f 68 0e 19 3e 9e f9 37 3f
       0.11509356 1.8779484 0.14946902 0.7186526
000050 cb 87 b5 bf 47 8e 1b bf 61 a6 a7 be 72 07 ab 3f
       -1.4182066 -0.60763973 -0.32744125 1.3361647
000060 6a e0 b2 3f c7 56 91 bf c9 8c c9 3e 15 79 38 40
       1.3974736 -1.1354607 0.39365223 2.8823903
000070 9b 20 b8 bf bb 40 9a bd 3a 5e 09 3f dd 20 22 3f
       -1.438495 -0.075318776 0.53659403 0.63331395
000080 eb b7 ef 3d 35 41 51 bc 7b 79 2e bf ab 87 3e 40
       0.117050014 -0.012771894 -0.68154114 2.9770305
000090 ed dc 85 3f 1c eb 4a 3f 18 b1 be 3f 2f 56 6c bf
       1.0458046 0.79265 1.4897795 -0.92319006
0000a0 df 03 91 be 0f 48 51 be 2b 2f a5 3d 2a 2e 9c bf
       -0.28323266 -0.20437644 0.08065637 -1.2201588
0000b0 74 9f 02 3f c7 84 91 bb 74 5d 81 3e a2 57 1e 3e
       0.51024556 -0.004440877 0.25266612 0.15463117
0000c0 24 7b a8 3f 74 81 b4 3e 85 61 66 be cc ef 17 3f
       1.316258 0.35255015 -0.22498138 0.59350276
0000d0 ec 75 d8 be 03 55 2e bd 52 08 49 3f 53 9d 1a c0
       -0.42277467 -0.042561542 0.7852832 -2.4158523
0000e0 db e9 22 3d 13 82 04 be 20 87 63 be 24 45 31 bf
       0.039773803 -0.12940244 -0.22219515 -0.69246125
0000f0 ca 4e 9c 3f 72 d5 03 bf ab 43 75 bd db af 01 be
       1.2211545 -0.51497567 -0.059878986 -0.1266474
000100 da 03 5d bf fc f8 59 bf ca 1c 23 40 14 91 9e bf
       -0.86334 -0.85145545 2.5486321 -1.2388024
000110 20 bf 18 40 b1 5b 23 3d f6 f0 4d 3f 30 05 77 3f
       2.3866653 0.039882366 0.804458 0.9649229
000120 19 d3 9c bd 45 be 87 3f 6b af 8b bf f9 b7 80 3f
       -0.07657451 1.0604941 -1.0912908 1.0056144
000130 da 1f b1 3f 90 77 42 40 0b b4 3f 40 5a 89 a4 3d
       1.3837845 3.0385475 2.995364 0.0803401
000140 7e 41 6a bf 81 5a 89 be db b6 8d be 14 56 14 bf
       -0.91506183 -0.26826862 -0.2767857 -0.57943845
000150 ff f9 da 3c 3d 0f c2 be 90 af db 3f aa 1d 5b 3f
       0.026730536 -0.3790225 1.7162952 0.8559214
000160 8b 02 cd 3f fa 8a 18 3d 04 fd bf 3d 07 ed 94 3d
       1.6016401 0.037241913 0.09374431 0.07271772
000170 e8 01 ad bd 24 c3 90 be 15 da 2d 3f b5 6e 02 3f
       -0.08447629 -0.2827388 0.6791089 0.50950176
000180 c8 8b fc be 0c b3 fc 3f c2 bf ad 3f a6 95 92 bd
       -0.49325395 1.9742141 1.3574145 -0.071574494

classfier.bn1.running_var f4 [100]
000000 7b cd f5 3d 1c 66 3c 3e 3e 9a a1 3e 12 29 63 3d
       0.12002083 0.18398327 0.3156299 0.05545909
000010 92 41 e8 3d d2 5f c9 3d 8a 12 8f 3d d8 42 d5 3d
       0.113406315 0.098327294 0.06985958 0.1041314
000020 a9 cd 1b 3f b6 a3 9e 3d c7 21 d2 3d 46 e1 97 3d
       0.6086069 0.07746069 0.10260349 0.074160144
000030 e7 7b fd 3d 7c a6 b2 3c 0f bf 29 3d 39 94 a0 3d
       0.12377148 0.021807902 0.041441973 0.07840771
000040 b1 ee 98 3d 1b 31 00 3f a7 37 69 3d a8 cf e9 3e
       0.07467402 0.5007493 0.05693784 0.45666242
000050 e4 7a 85 3e 55 14 1c 3e a1 36 29 3d 2c 07 e2 3e
       0.2607032 0.15242131 0.041311864 0.44146097
000060 c8 53 d8 3e 82 46 10 3e cc e8 b2 3d e0 fb 28 3f
       0.4225142 0.14089397 0.08735809 0.6600933
000070 77 61 a4 3e 6c 1c ce 3d ea e9 ad 3d 7f 48 17 3e
       0.3210561 0.10064015 0.08491881 0.14773749
000080 af 5a 26 3d d8 6b be 3c 8b 42 e0 3d e8 55 7e 3f
       0.040613826 0.023244783 0.10950192 0.9934983
000090 b0 33 01 3e 9d 95 c1 3d e9 c9 a0 3e 7f 71 5d 3e
       0.12617373 0.094523646 0.31404045 0.21625327
0000a0 3c e1 89 3d ea 06 13 3e 5d 30 18 3d 73 32 2d 3e
       0.06732413 0.14358106 0.037155498 0.16913776
0000b0 a1 d2 61 3e 62 e8 f5 3c 62 8a 56 3d 36 16 a9 3d
       0.22053005 0.030018035 0.052378066 0.082561895
0000c0 22 bb 6d 3e b4 90 91 3d ec 8b 62 3d fe 8d b2 3d
       0.23215917 0.07107678 0.05530922 0.08718489
0000d0 97 65 2f 3d 21 28 c5 3c d0 c5 b6 3d 62 99 3b 3f
       0.042821493 0.024066987 0.089244485 0.7328092
0000e0 fc 4b 00 3e 32 88 3a 3d bf 7a d6 3d c4 c5 e0 3d
       0.12528986 0.045540042 0.10472631 0.10975221
0000f0 e8 39 14 3e 55 75 0c 3e de a2 a1 3d cb 15 02 3d
       0.14475214 0.13716634 0.078923926 0.031759065
000100 1c f0 a9 3e 43 07 dd 3d a7 60 24 3f f7 50 be 3e
       0.33191 0.10792401 0.6420998 0.37171146
000110 1b 51 12 3f 80 b7 01 3d e2 10 25 3e 2e dd 10 3e
       0.5715501 0.03166914 0.16119722 0.14146873
000120 f4 41 f9 3d 2d a2 5b 3e db b3 4d 3e 7d f6 70 3e
       0.12170783 0.21448584 0.2008814 0.23531528
000130 c9 b7 f6 3e b6 93 3f 3f 24 25 3b 3f c6 2a 81 3d
       0.48187092 0.74834764 0.7310355 0.063069865
000140 52 9e 3b 3e af 16 96 3d f6 eb 67 3d 74 01 fa 3d
       0.18322113 0.07328545 0.056621514 0.122073084
000150 41 91 e4 3c 1d bf 85 3d 9d 9d 90 3e c5 94 83 3e
       0.027901294 0.065305926 0.2824525 0.2569944
000160 3a d8 65 3e 23 29 e3 3c c4 e1 1a 3d 1d 79 fd 3d
       0.22445765 0.027729576 0.037812963 0.12376616
000170 07 2a 54 3d df 90 99 3d 9f b2 e3 3d 72 b8 56 3d
       0.051797893 0.07498335 0.11118054 0.052421995
000180 23 ac 02 3e 55 6b 9f 3e 79 44 85 3e ae 72 2f 3d
       0.12760977 0.31136575 0.26028803 0.042833976

classfier.fc2.weight f4 [50, 100]
000000 ca 2b cc 3c 5d 93 30 bd 03 50 d7 bd 8d 56 2e 3d
       0.024923224 -0.043109287 -0.10513308 0.04256301
000010 84 bf 96 3a f1 16 3d bc 97 ac 85 3d 4a de 1e 3d
       0.0011501168 -0.011541114 0.065270595 0.03878621
000020 d0 ad f3 bc 9a 6e 23 3d 6a bd 43 bd 70 ec a0 3d
       -0.029745966 0.0399004 -0.04778806 0.07857597
000030 b8 26 cb 3d a0 e7 7c bc 60 fe dc 3c 6c 69 d6 bc
       0.099194944 -0.015436083 0.026976764 -0.026173316
000040 48 25 be 3c f5 9b 23 3d 95 18 99 3d 71 c4 67 3d
       0.023211136 0.039943654 0.07475392 0.056583825
000050 aa e1 9f 3d 24 3d 02 3d ac d9 99 3d 56 22 af bd
       0.07806714 0.03179659 0.07512221 -0.08551471
000060 95 ba 9b bd c3 b2 3d 3d 8f 97 59 3d b7 04 25 bc
       -0.07603947 0.04631306 0.053123053 -0.010071925
000070 fc db e8 bc 37 b0 6e bd fb 4b 5b bd b0 e1 ef bd
       -0.02842521 -0.05827352 -0.053539257 -0.11712968
000080 3f ff f2 3c b7 98 e5 3d 5f 73 a7 3d f5 37 49 bd
       0.029662726 0.11210769 0.08176302 -0.04912563
000090 a7 01 bc bc a2 4c 17 3b b4 65 c1 bd f3 2c 49 3d
       -0.022950007 0.0023086448 -0.094432265 0.049115133
0000a0 18 85 1d 3d 11 c2 7c 3d 3d 5a 9f 3d 74 2d e1 3d
       0.038457006 0.061708514 0.077808835 0.109949976
0000b0 6b f2 bf 3d 0d 73 03 bc c2 3c 91 3c 92 35 14 bd
       0.093724094 -0.008023036 0.017729167 -0.0361839
0000c0 d1 76 75 bc e2 86 92 bc 7a 6b 81 3d d2 3d 89 bc
       -0.014981941 -0.017886583 0.06319328 -0.016753111
0000d0 5a 2c 22 bd 2a 99 ee 3d bd 78 cf bc 30 27 53 3d
       -0.03959308 0.116503075 -0.025326127 0.051551044
0000e0 38 35 4e 3d e6 5f a9 3d c4 0e 2f 3e d7 99 e3 3b
       0.050343722 0.08270244 0.17095476 0.0069458294
0000f0 eb 49 56 3d 8d 3f 74 3d 18 30 b2 3d 90 2d 93 bc
       0.052316587 0.05963092 0.087005794 -0.017966062
000100 4e 27 65 3d 82 17 86 3d c8 7d e1 39 b0 5c a2 3d
       0.055945687 0.065474525 0.0004300906 0.07927835
000110 2a 99 2b 3d 07 71 9b bc 47 25 13 bd 6f e0 b8 bd
       0.041894116 -0.018974794 -0.035924222 -0.09027182
000120 22 3a 04 bd 57 da 0f be 82 14 ab 3c 2c d6 8c bd
       -0.032282002 -0.14048134 0.020883802 -0.068767875
000130 3c 79 32 bb 21 33 58 bd df 59 f6 bc f7 ab 3c 3d
       -0.0027232906 -0.052783135 -0.03007215 0.046062436
000140 47 df 26 3e 31 2d 5c 3d 06 2e 11 3d 72 01 18 3d
       0.16296111 0.053754035 0.035444282 0.037110753
000150 5c 9f 93 3d b6 f5 6a 3d 33 2a fa bd e6 87 06 bc
       0.0720813 0.057363234 -0.1221508 -0.008211112
000160 1a 8a 64 3b 70 fd 87 bb e9 ba ca 3c 62 39 33 3d
       0.0034872354 -0.004150085 0.024747329 0.043755896
000170 dc 9e 1e bd 26 ed 2a bd d1 46 db bc 01 ce 10 3d
       -0.03872572 -0.04173007 -0.026767166 0.03535271
000180 ec c2 0b bc 80 fb 7e bd db 36 70 bc 04 b6 38 3b
       -0.00853036 -0.062251568 -0.014661516 0.0028184662
000190 5e 5d 0b 3d 00 b1 35 3d ac 17 14 bd 92 33 b3 3b
       0.03402459 0.044358253 -0.036155388 0.005468794
0001a0 5b 47 02 bc d3 9b 19 bd 34 09 d9 bd 27 37 41 3b
       -0.007951583 -0.03750212 -0.105974585 0.0029482336
0001b0 56 b7 77 bd 9d fc 85 bb ee f0 4b bd 54 56 18 bc
       -0.060477577 -0.0040889517 -0.049790315 -0.009297926
0001c0 ce 8e 9a bc 6b ff 31 3d c0 aa 99 bd e0 e7 87 bd
       -0.018866923 0.043456476 -0.07503271 -0.066360235
0001d0 5a ab de bd a8 99 b0 3b 29 aa 24 3d e8 9e 1d 3b
       -0.108725265 0.005389411 0.04020134 0.0024051014
0001e0 3e 1c 83 3d e2 4a 62 3d ac 39 93 3d 73 4d 6d 3d
       0.06401871 0.055247195 0.071887344 0.05793519
0001f0 ec 43 b4 3c 3e e3 b4 bd 4d e8 7d 3c a3 6e 55 3d
       0.022005044 -0.088324055 0.015497279 0.052107465
000200 bc 0c 01 3c 2e 52 5e 3c b7 a8 0e 3d c8 f8 41 3b
       0.007876571 0.013569398 0.034828868 0.0029597748
000210 02 d4 6f 3c ff 8f cf 3c 2a 02 cd bc 32 b9 c5 3d
       0.014637949 0.025337217 -0.025025446 0.09654464
000220 65 7f 59 bd 45 ff a5 bd f4 32 39 bc ac 24 7e bc
       -0.05310001 -0.081053294 -0.011303652 -0.015511673
000230 6a 69 3d bd bd f1 3b bd 0d 78 38 bd d6 d8 ac 3d
       -0.04624311 -0.045884836 -0.045036364 0.08439796
000240 c0 ba 05 be 6d 1b ce bd b0 57 9d bd 62 71 47 bd
       -0.1305952 -0.10063825 -0.07682741 -0.048692115
000250 fe 11 44 bd 6f 42 b6 bd 2c bc a5 3b 6b c2 db bc
       -0.04786872 -0.0889939 0.005057832 -0.026826104
000260 cd d9 af bc 4a fc f3 bc f8 c3 b1 bd e2 78 d5 bc
       -0.02146616 -0.029783387 -0.08679956 -0.026058618
000270 7c db c3 bd 27 b2 cc bd 6c 37 11 3e 6c 1c 43 3c
       -0.09563348 -0.09994917 0.14181298 0.011908632
000280 f0 d7 cf 3c 74 b6 44 3d 9d 61 39 3c 56 ce 83 bd
       0.025371522 0.048025563 0.011314777 -0.0643584
000290 56 41 e5 bb db 42 33 3d a6 1b 02 3d d7 de 80 3d
       -0.006996314 0.04376493 0.03176465 0.06292503
0002a0 9f df 78 3d e7 d6 de bd f0 3b 1b bd 16 33 2b bd
       0.060760137 -0.10880833 -0.037898958 -0.041796766
0002b0 85 c9 87 bd 50 79 b2 3c 24 26 c4 3d e9 f0 3b bd
       -0.06630234 0.021786362 0.09577587 -0.045884047
0002c0 07 73 b5 3c af 57 78 bd 9d cb 14 bd 03 32 57 bd
       0.022149576 -0.060630497 -0.036326993 -0.05253793
0002d0 91 f2 b4 3d 95 e0 ae bd 2e f7 32 bd dd 49 a8 3d
       0.08835328 -0.085389294 -0.04369276 0.08217213
0002e0 03 3d d7 bd 05 df 7d bc 18 13 9b 3a 30 9b d1 bd
       -0.10509684 -0.0154950665 0.0011831252 -0.10234678
0002f0 69 94 c8 3a 08 98 06 be bb 60 31 bd 35 b2 85 bd
       0.0015303019 -0.13143933 -0.04330514 -0.06528131
000300 d7 d4 42 bd 6e b0 34 bd 65 46 b3 bd b4 65 81 bd
       -0.04756626 -0.04411357 -0.08753661 -0.063182265
000310 6b 79 b9 bd 37 86 65 bd ff 4c 28 3d 5e 7f 9d bc
       -0.09056362 -0.0560362 0.041089054 -0.019225772
000320 d7 da 41 bd 00 4b 2a bd b8 8d f4 bd ef 6f 3a bd
       -0.047327843 -0.04157543 -0.11941093 -0.045516904
000330 5b 13 ea 3c 83 77 7a 3d 8d 82 50 3d 79 0c 95 3d
       0.028573683 0.06114913 0.050905753 0.072777696
000340 f9 cc 6b bd 1e c0 78 bd 55 e9 2a 3d 5f 4c ca 3c
       -0.057568524 -0.060730092 0.04172643 0.02469462
000350 33 50 0c 3d 6e 5f e0 bd bc 16 f8 3d a5 55 9b bd
       0.03425617 -0.10955702 0.12113711 -0.07584695
000360 8b 6c d0 3d 91 4d 72 bd 81 6e 2a 3c 26 5b 40 bc
       0.10176953 -0.059156004 0.010402323 -0.0117404815
000370 b7 cc af 3d f0 47 23 bc 18 04 af 3d 1f 0a fb bd
       0.08583968 -0.009965882 0.08545703 -0.1225779
000380 1b f4 82 bc 18 bc fb bc 21 d3 68 bb a0 42 43 3d
       -0.01598554 -0.030729339 -0.0035526233 0.04767096
000390 b8 ba b3 3c a4 92 3b 3d 12 ca 9b bd 8b ff 58 3d
       0.02193962 0.045794144 -0.07606901 0.05297808
0003a0 53 2b cf 3c a8 14 ff ba 46 23 6f 3d b2 ce fb bd
       0.025289213 -0.0019461112 0.05838325 -0.122952834
0003b0 5e d1 df bd aa 9f 20 bd 29 94 33 bd 66 8d 29 3d
       -0.109286055 -0.039214768 -0.04384247 0.041394614
0003c0 76 6b da 3d 89 07 d1 bd cb bf c8 3d 88 03 8f 3d
       0.10665028 -0.10206515 0.098022066 0.069830954
0003d0 49 37 a7 3d 26 da d1 3d 0f dc 25 bd 6f 86 30 bc
       0.08164842 0.10246687 -0.040493067 -0.010774239
0003e0 6e cc 11 bd 3d d3 bd 3d 44 48 95 3d 11 37 9d bc
       -0.03559535 0.09268806 0.07289174 -0.019191297
0003f0 53 56 30 bd 30 ee 8b 3d 6f 7e df bd b4 e3 b4 3d
       -0.043051075 0.0683254 -0.10912787 0.088324934

classfier.fc2.bias f4 [50]
000000 5a 8c a1 b6 d0 c8 b2 35 22 40 a4 36 dc 5f 98 b6
       -4.814513e-06 1.3320478e-06 4.895047e-06 -4.5411125e-06
000010 60 3b bc 35 ef 44 44 35 79 56 1d 36 b2 b1 f8 35
       1.4024372e-06 7.3116e-07 2.3445157e-06 1.8529156e-06
000020 13 e7 22 36 2b e4 10 35 76 c4 01 b4 24 34 8b 35
       2.4274384e-06 5.397621e-07 -1.2085533e-07 1.0371482e-06
000030 9e b0 0d b5 77 1b 93 b5 5e 16 c4 b5 19 47 3b b6
       -5.2783605e-07 -1.0960347e-06 -1.4609648e-06 -2.7906556e-06
000040 8c c1 19 37 a0 d8 a4 b5 ea a1 0e b6 b8 b8 bd b4
       9.164574e-06 -1.2281998e-06 -2.1253895e-06 -3.5338394e-07
000050 1a 4d b5 35 b5 4f ae 35 ba 5a 0b 35 e8 87 e4 b4
       1.350799e-06 1.2987208e-06 5.191356e-07 -4.2567194e-07
000060 ab 23 e6 b5 e2 3f 1c b7 3f bd b6 b6 da 07 28 b6
       -1.7146716e-06 -9.3131985e-06 -5.446054e-06 -2.503852e-06
000070 24 00 ce b6 f3 9c 85 34 ff 1b e8 b5 4e 51 01 b6
       -6.139295e-06 2.4887376e-07 -1.7293495e-06 -1.9269823e-06
000080 2a 6a a0 b5 f4 c7 52 b6 8a 94 e3 b6 08 24 9c b5
       -1.1951827e-06 -3.1408827e-06 -6.7824194e-06 -1.1633392e-06
000090 64 3b 73 b6 60 87 46 b6 ce 5a 0e 37 00 da 8b b6
       -3.6244392e-06 -2.9583098e-06 8.485002e-06 -4.1679014e-06
0000a0 ce 2e e7 b6 bb 7d 4d 36 34 9d b9 b6 13 01 a8 35
       -6.8897853e-06 3.0620565e-06 -5.5317305e-06 1.2517288e-06
0000b0 ef 48 4e b4 39 f1 cc b6 95 02 d8 34 75 41 18 b5
       -1.9211778e-07 -6.107756e-06 4.0235014e-07 -5.6719665e-07
0000c0 15 7a b7 35 2a 81 0b b7
       1.3670093e-06 -8.315119e-06

classfier.bn2.weight f4 [50]
000000 c3 f6 83 3f c6 01 8f 3f 2f d8 6f 3f 3c 47 80 3f
       1.0309681 1.1172416 0.93689245 1.0021739
000010 b6 07 84 3f 46 4f 6f 3f 7a 1a 87 3f dc 59 7a 3f
       1.0314853 0.93480337 1.0554955 0.97793365
000020 5e d7 74 3f c4 6e 67 3f 36 b8 7a 3f 76 0e 79 3f
       0.95641124 0.9040339 0.97937334 0.9728769
000030 aa 8a 6a 3f e6 ca 7a 3f 6c d0 80 3f 29 74 6a 3f
       0.91617835 0.9796585 1.0063605 0.91583496
000040 bf 4d 90 3f f3 10 77 3f f9 76 8c 3f 6a 9b 71 3f
       1.1273726 0.9651024 1.0973808 0.9437777
000050 bc a9 80 3f d7 6c 74 3f c6 82 84 3f e1 24 82 3f
       1.0051799 0.95478576 1.0352409 1.0167505
000060 20 74 5b 3f 6e ae 81 3f a5 09 73 3f b4 e5 85 3f
       0.8572407 1.0131357 0.9493659 1.0460725
000070 9f 77 7f 3f 58 06 70 3f 39 96 6e 3f 42 4f 66 3f
       0.997919 0.9375968 0.9319797 0.8996469
000080 ae d9 73 3f 3d 1c 80 3f 21 5b 7a 3f eb 1b 8a 3f
       0.9525403 1.0008618 0.977953 1.078977
000090 9e 38 7a 3f e8 6a 82 3f a9 aa 80 3f 34 78 79 3f
       0.9774264 1.0188875 1.0052081 0.9744904
0000a0 b8 93 7d 3f e4 e4 7f 3f f8 39 6f 3f 7a 68 70 3f
       0.99053526 0.99958634 0.9344783 0.9390942
0000b0 8f a6 6c 3f 4b a3 7c 3f 7a b7 84 3f 76 e2 6c 3f
       0.9244165 0.98686665 1.0368493 0.9253305
0000c0 58 7f 6e 3f e5 7e 85 3f
       0.9316306 1.042935

classfier.bn2.bias f4 [50]
000000 88 d8 4b bc 1a 8d a3 bc 31 5a a2 bd fe a5 ea 3c
       -0.012441762 -0.019964743 -0.07927359 0.028643604
000010 a0 17 5c be b5 ae 4f be 47 35 b8 3c f2 ab 19 bd
       -0.21493387 -0.20281489 0.022486342 -0.037517495
000020 80 2e f0 ba ae 26 c1 bd 7b f7 40 bc f0 d4 19 bd
       -0.0018324405 -0.09431206 -0.011777754 -0.03755659
000030 a5 c5 3b bd 76 b9 1e 3d c4 fa 34 bc 00 ae 83 bd
       -0.045842785 0.038751088 -0.011046115 -0.06429672
000040 2f 7e 5b 3d b8 ee b4 bd 13 8e af 3d 9e b9 09 bd
       0.053587135 -0.088345945 0.085720204 -0.033624284
000050 e5 6f 6a be bb 0f 13 bc 94 47 df 3d 0d 1d 8f be
       -0.22894247 -0.008975918 0.10902324 -0.2795185
000060 39 31 19 be 3b 10 80 be c8 bc 02 be d5 a8 83 3c
       -0.14960183 -0.25012383 -0.12767327 0.016071716
000070 cb 0b 80 be 2b 28 27 3c a6 f8 49 bd de 6f 71 bd
       -0.25008997 0.010202448 -0.049309395 -0.058944575
000080 4a 52 62 3c 38 ab 7c 3d ca 10 81 be 87 d3 12 bd
       0.013813565 0.061686724 -0.25208122 -0.03584626
000090 f7 ac 0f bd f1 0b 2d 3d f5 94 6a be 43 86 73 be
       -0.03507706 0.042247716 -0.22908385 -0.23781686
0000a0 1d 78 76 be f0 c4 86 be c8 5a 3d be c8 d5 79 be
       -0.24069257 -0.26322126 -0.18491662 -0.24397957
0000b0 34 12 aa bd b4 a6 5d be b4 5a d4 3c 6b e1 51 bd
       -0.08304253 -0.21645623 0.025922157 -0.051240366
0000c0 cf a0 b6 bd 70 99 78 be
       -0.089173906 -0.24277282

classfier.bn2.running_mean f4 [50]
000000 61 84 b0 3e b8 30 f5 be 72 a2 88 bd 19 18 f8 be
       0.34475997 -0.47888732 -0.06671609 -0.48455885
000010 bd 9c 5c 3f df b0 31 3f d8 7d 91 bf 15 1a a5 be
       0.86176664 0.6941051 -1.136653 -0.32246462
000020 d5 16 21 bf cc 07 e5 3d c2 c3 d8 be 9d 13 02 3f
       -0.62925464 0.11183128 -0.4233685 0.5081118
000030 b0 cc f0 be 3f 31 f4 be 77 ae a4 be 6f 98 8c be
       -0.47031164 -0.47693822 -0.32164356 -0.27460048
000040 9f e3 32 bf 1c 75 8c be 75 16 45 bf 8b 19 31 bf
       -0.6987857 -0.27433097 -0.7698739 -0.691796
000050 e2 80 1e 3f c0 8b d7 be cd b8 53 bf 32 ad 20 3f
       0.6191541 -0.42098808 -0.8270386 0.62764275
000060 8a 5a 2a 3e 25 f7 02 3f 71 72 b2 3e 08 22 49 bf
       0.166361 0.5115836 0.34852937 -0.7856755
000070 1d 55 1e 3f a6 1f 21 be 7d f0 f6 3b cb 4b f2 3e
       0.6184862 -0.15734729 0.0075359927 0.4732345
000080 62 19 66 bf df 4f 87 bf ef 6d d6 3e c0 33 b9 3e
       -0.8988248 -1.057125 0.41880748 0.36172295
000090 18 91 21 be 7c ae 55 bf 02 80 dd 3e 2f 43 52 3f
       -0.15778005 -0.8346937 0.43261725 0.82133764
0000a0 75 c1 f1 3e 0b f2 43 3f ca 87 0a 3f 95 47 3a 3f
       0.47217909 0.76541203 0.5411345 0.72765476
0000b0 37 33 bc bd d0 be 14 3f 50 18 86 bf 6e 82 33 bf
       -0.09189456 0.58103657 -1.047617 -0.70120895
0000c0 dd 5f 1c bf 68 71 32 3f
       -0.61083776 0.69704294

classfier.bn2.running_var f4 [50]
000000 a7 15 33 3f 4e ee d3 3e 13 f1 41 3f ad 93 be 3e
       0.69954914 0.4139275 0.75758475 0.37222043
000010 6e 55 15 3f 85 25 b9 3e ac 21 b3 3f 48 6d 0f 3f
       0.5833348 0.36161438 1.3994651 0.56026125
000020 e8 2a ba 3e 33 76 a4 3e a2 8b cb 3e 5b 15 f1 3e
       0.3636086 0.3212143 0.3975497 0.47086605
000030 46 91 96 3e 40 1b af 3e 77 fd b3 3e 58 32 55 3e
       0.2940771 0.34200478 0.35154316 0.20819986
000040 fb a4 0e 3f ba 67 18 3f a8 c0 ea 3e 95 32 12 3f
       0.5572049 0.59533274 0.4585011 0.5710843
000050 55 8c 03 3f f4 2c ac 3e da 2d af 3e 4c af ec 3e
       0.51386005 0.33628047 0.3421467 0.4622749
000060 7e de 1b 3e f4 32 11 3f 18 ca 02 3f 27 3d 77 3f
       0.15221593 0.56718373 0.5108962 0.96577686
000070 4b 6f e4 3e b1 92 b2 3e 2d 4e ef 3e f2 00 92 3e
       0.4461616 0.34877542 0.4673933 0.28516346
000080 9a 57 86 3f 28 8f 8e 3f c8 da de 3e d2 21 e3 3e
       1.0495484 1.1137438 0.43526292 0.4436174
000090 43 a7 b6 3e 5f 24 a1 3e c0 8b 07 3f f2 0b bd 3e
       0.35674486 0.3147306 0.52947617 0.36923176
0000a0 dc d8 e3 3e 32 bb 0b 3f 7d 0e a4 3e b3 2f ea 3e
       0.44501388 0.5458251 0.32042304 0.45739517
0000b0 2e 9c fa 3e 9f b1 e3 3e 5d d7 87 3f e4 46 23 3f
       0.4894728 0.44471452 1.0612599 0.63780046
0000c0 7c 28 b5 3e d0 34 0d 3f
       0.3538245 0.5515871

classfier.fc3.weight f4 [25, 50]
000000 df 4c 2d be e6 34 7e be 89 c4 eb bb 1d 67 a4 3b
       -0.16923855 -0.24824867 -0.0071950597 0.005017175
000010 be 5a d8 bd 5b 22 97 bd ec 52 60 be 8d 4d 49 be
       -0.10564183 -0.073796 -0.21906632 -0.1965849
000020 d2 d2 67 3d 4c d7 8e bd 49 ac ab 3d b7 1c 70 bd
       0.05659754 -0.06974658 0.0838247 -0.058621135
000030 12 a1 83 3c cb 5b 12 3d a1 c8 34 3d ed 03 9f 3d
       0.016068015 0.03573207 0.044136647 0.07764421
000040 61 5b a2 bd 58 77 13 be 6c 15 e6 3d ee 59 0c 3d
       -0.079275854 -0.14400995 0.11234555 0.03426545
000050 1f c7 29 bd af 17 7c 3d 55 d7 bb 3d 04 a1 92 bd
       -0.041449662 0.061546024 0.09171931 -0.071596175
000060 47 08 05 bd 5d ea ed bd b0 55 b7 bd 24 27 2b be
       -0.032478597 -0.11616967 -0.089518905 -0.1671415
000070 c5 55 c8 bd d3 e1 cb 3c 9d 09 2b be 23 a7 2a 3d
       -0.09781984 0.024887955 -0.16702886 0.0416633
000080 69 4d bc 3d a4 8b 6b bb d0 49 38 bd 60 b9 f9 bd
       0.09194452 -0.0035941387 -0.044992268 -0.121935606
000090 7a e7 f6 3a ce d6 0f ba d6 91 5d bd 72 ae c5 bd
       0.0018837296 -0.00054870255 -0.054094158 -0.096524134
0000a0 40 ba c4 bb 01 90 cd bd b3 67 59 ba 06 3f b5 bc
       -0.006003648 -0.10037232 -0.00082933455 -0.022124778
0000b0 29 84 33 3d 4c 39 b2 bd b3 bb 85 be 12 15 8d bd
       0.04382721 -0.08702335 -0.26119766 -0.068887845
0000c0 ce 47 1f 3e be 32 c5 bc ba f2 a2 bc 1c 9b ed 3d
       0.15554735 -0.024072047 -0.019891132 0.116018504
0000d0 f8 6f 71 bd f2 a5 6d bd ce 6a 33 bd 5c a2 f8 bb
       -0.058944672 -0.058019586 -0.04380303 -0.007587714
0000e0 c2 20 21 3c 25 5a 1b bd 6d a6 08 bd bb 6c 2e be
       0.00983447 -0.037927765 -0.03336184 -0.17033665
0000f0 6e fd 23 be fb 15 3d bd e2 45 c0 bd 81 38 02 ba
       -0.16014645 -0.04616354 -0.09388329 -0.0004967526
000100 1b 7c 8a be 2d 46 21 bd 37 df 50 bc e5 a1 8c bd
       -0.2704781 -0.039373565 -0.012748531 -0.068668164
000110 84 2b 46 be cd b2 4a bd 26 84 7b bd c8 4c b8 3c
       -0.19352537 -0.049486924 -0.061405323 0.02249755
000120 ae 63 4b bc 53 06 a6 bd 95 a0 1c 3c 16 ea cd bd
       -0.012413902 -0.08106675 0.00955977 -0.10054414
000130 cd b3 e9 bc 67 bb 01 3e d7 f5 63 bd c4 67 85 bd
       -0.028528119 0.12669145 -0.055654373 -0.06513932
000140 71 40 6d 3c 09 11 a5 bc 33 2a 67 bd 82 2d 77 3c
       0.014480696 -0.020149725 -0.05643673 0.0150865335
000150 98 c2 d1 bd c8 24 cf bb a8 c3 c0 bd 5f f6 95 bc
       -0.10242194 -0.0063215233 -0.094123185 -0.018305955
000160 98 ac ac bd cc b4 fd bc 53 4a 6f bc 94 9e bd bd
       -0.08431357 -0.03097 -0.014605123 -0.09258762
000170 76 1b 86 bd 6e 39 7a bd a2 3a a6 3d 80 15 93 bd
       -0.065482065 -0.061089925 0.08116652 -0.07181835
000180 6c 9c 8f 3d ba b4 b4 3c 2a a6 16 be 5d c9 9d bd
       0.07012257 0.022058833 -0.14711824 -0.077044226
000190 ec 3a 4f 3d 09 8e d6 bd 0d f6 32 3b 64 b1 0c bd
       0.0505933 -0.1047631 0.0027307302 -0.03434886
0001a0 44 c3 a5 3d 7b 19 ce 3d 95 4d cb bc fb 18 29 3d
       0.080938846 0.10063454 -0.024817267 0.04128359
0001b0 09 e8 58 bd cf cd 86 bd d2 d8 f8 bc 34 ac 8e 3d
       -0.05295566 -0.065822236 -0.030376825 0.06966439
0001c0 07 2c 53 3d 27 7d 2f bd 07 27 81 3d df ba e2 3c
       0.05155566 -0.042843964 0.06306272 0.027676998
0001d0 5d ff 16 be 03 7d 0c bc 90 cd 0d bd 01 34 88 3c
       -0.14745851 -0.008574727 -0.034619868 0.01662636
0001e0 24 d1 1f 3d 3a 2b a6 ba 62 8d f2 3b 5b 3a 38 3e
       0.03901781 -0.0012677677 0.007402108 0.17991011
0001f0 db 02 fd bc 75 36 01 3e 8d 43 b9 3d 13 35 8d 3c
       -0.03088515 0.1261843 0.090460874 0.017237222
000200 dc 86 28 3e 30 5a 98 bd bf de d2 bc a0 21 0e bd
       0.16457695 -0.07439077 -0.02574098 -0.034700036
000210 72 45 5a bd 01 54 1d bd 8d d1 34 3e c2 cf 9d bc
       -0.053288884 -0.03841019 0.17658062 -0.019264106
000220 e4 25 a9 bd f2 9a 66 3d 97 17 0a 3e 40 6d 40 3c
       -0.0825918 0.05630011 0.13485561 0.011744797
000230 f6 6c 22 3e 6f cd 07 3e cd 03 d4 3c a9 00 7f 3d
       0.15861878 0.1326196 0.025880719 0.06225649
000240 75 db f1 3c 51 d9 f7 bc 41 fe 59 bd 35 77 0b 3d
       0.02952359 -0.030254992 -0.05322099 0.03404923
000250 52 4e 85 3d 68 1c 27 3e 46 8d 1a be 9e dc 67 be
       0.06509079 0.1631943 -0.15092954 -0.22642753
000260 05 63 4a be 25 1e 9d 3c 5d 1b a3 bd 36 24 6b bd
       -0.19764335 0.019179413 -0.079642035 -0.05740758
000270 f0 ab 27 be 80 ee 64 be ea fe 6a 3c 5f c4 8a bd
       -0.16374183 -0.22356606 0.014343003 -0.06775736
000280 df 39 73 3d 66 12 e6 bc ed 05 77 3d 35 36 56 3c
       0.059381362 -0.028084945 0.060308386 0.013074447
000290 45 98 0b bc d8 4d ee 3b 24 01 ec bd fa 01 17 be
       -0.008520191 0.0072724633 -0.11523655 -0.14746848
0002a0 f6 d0 bf 3d e1 4f bb bd c2 1a 12 bd 3c ac df 3c
       0.09366028 -0.09146095 -0.03567005 0.027303807
0002b0 12 52 09 3e 54 61 c0 bd b2 2d f2 3c 1c dc 6e bd
       0.13410214 -0.09393564 0.029562805 -0.05831538
0002c0 ee 84 d0 bd 0c 38 20 bc 00 6f d2 bd cc f2 8d 3d
       -0.10181604 -0.009778988 -0.10275078 0.069310755
0002d0 17 9d b1 bc e8 19 2b bc a2 c4 73 bd dc 4c 6c be
       -0.021681352 -0.010443188 -0.059513696 -0.23076195
0002e0 e9 50 af bd 0e f4 ed bd 92 c9 f5 3c c4 73 a5 3d
       -0.08560354 -0.11618815 0.030003343 0.08078721
0002f0 d8 db 94 bd 4e 2e 7e bd 1a ea 0f bd a6 b6 a2 3c
       -0.07268494 -0.06205588 -0.035135366 0.019862484
000300 72 c8 cc bb 0d 8a 6f bd 22 95 d6 bc a9 a2 03 bc
       -0.006249481 -0.058481265 -0.026194159 -0.008034387
000310 42 43 06 3e 4f 8e de 3d 3e dd 37 3d 61 3b b5 3b
       0.13111594 0.10866987 0.044888727 0.00553076
000320 ae df 37 bc cc 23 b3 bc 83 9c 5a bb 8e b4 54 be
       -0.011222763 -0.021867655 -0.0033357448 -0.20772001
000330 92 c3 e5 bc 83 54 7f bd 9e 70 6f 3d f7 a4 d4 3c
       -0.028047357 -0.062336456 0.05845701 0.025957568
000340 57 bb aa bc c6 f9 56 3d 14 61 be 3b f2 c0 06 3c
       -0.020841284 0.052484296 0.0058099125 0.008224713
000350 ff 05 30 3d 13 6a 6e bd 9f 2b 34 be db f5 51 bc
       0.04297447 -0.05820663 -0.17594765 -0.012814964
000360 c1 2a 2a 3d d0 46 21 3d 1e 85 55 be 5c 56 0d 3c
       0.04154468 0.039374173 -0.20851561 0.008626547
000370 bd 56 98 bd bc 0a 84 3d f8 ba 73 be e6 2b 83 bd
       -0.07438419 0.0644736 -0.23801792 -0.06404857
000380 55 88 21 bd cf 15 93 bd 69 28 80 bd a9 bd d5 ba
       -0.039436657 -0.07181894 -0.062577076 -0.0016307133
000390 65 ce 8a bd ef 97 a9 3b 9f 81 2f bd 6d ba 0d 39
       -0.06777648 0.0051755826 -0.042848226 0.00013516257
0003a0 56 c6 ba 3c 76 fb a8 3d 8b d5 e9 bc c4 31 ad 3b
       0.022799652 0.08251087 -0.028544208 0.0052854735
0003b0 6f 71 4d bc 73 ea 5e be de 79 8b bd b5 3a 23 bd
       -0.012539252 -0.21769123 -0.06810354 -0.03985091
0003c0 ec c7 9b bd 0c b6 70 bd 1b 0c 8a bd 22 d0 93 bd
       -0.076064914 -0.058767363 -0.0674059 -0.072174326
0003d0 db 51 ae 3d 87 66 57 bd f1 b5 cc 3d 45 76 72 3b
       0.085117064 -0.052588012 0.0999564 0.0036996764
0003e0 36 23 6e 3c 14 5b 49 bd d9 4f 26 be e8 e0 3f be
       0.014534762 -0.049159124 -0.16241397 -0.18738139
0003f0 06 d6 b5 bd c1 18 3a bd 55 cd 2d be 2f 8a ca bd
       -0.08878712 -0.045433763 -0.16972859 -0.09889638

classfier.fc3.bias f4 [25]
000000 67 90 b1 b6 52 b7 3e 36 c3 41 de b7 fc e3 44 38
       -5.2918217e-06 2.8418913e-06 -2.6495085e-05 4.694237e-05
000010 27 79 e8 b6 da c7 5b b6 5d d0 06 b6 91 d6 a2 36
       -6.928243e-06 -3.2749872e-06 -2.008884e-06 4.852955e-06
000020 b6 14 08 b9 39 4b 04 38 b8 90 93 35 6c 31 88 b5
       -0.00012977686 3.154131e-05 1.0994472e-06 -1.0147173e-06
000030 dc 5c fb b6 55 80 78 b9 4c eb 02 b8 e0 40 20 37
       -7.491193e-06 -0.0002369893 -3.1213553e-05 9.551848e-06
000040 f2 6d 6a b6 f5 4d 8c b9 5a e2 6f 35 5f 85 04 37
       -3.4932714e-06 -0.00026760963 8.9363823e-07 7.898866e-06
000050 02 8e 82 b4 0c ef 83 b6 51 0a 33 38 bb 7e 8e 35
       -2.431771e-07 -3.931933e-06 4.2686534e-05 1.0616708e-06
000060 ed b5 19 b8
       -3.6647474e-05

classfier.bn3.weight f4 [25]
000000 13 e2 aa 3f 12 bd a2 3f ce 06 95 3f 68 df a6 3f
       1.3350242 1.271395 1.1642702 1.3036928
000010 49 f8 9d 3f b5 69 a8 3f aa 0a a3 3f ce 17 a0 3f
       1.2341396 1.3157259 1.273763 1.2507265
000020 80 2c 9c 3f de 09 ac 3f 96 f2 9b 3f 82 8c a2 3f
       1.220108 1.3440511 1.2183406 1.269913
000030 69 23 ae 3f 68 3b 9e 3f 9b 8d 9f 3f 0e 4a 9d 3f
       1.3604556 1.2361879 1.246509 1.2288225
000040 82 3b aa 3f 8f d8 ac 3f 7c cd a3 3f fa cd 93 3f
       1.329941 1.3503588 1.2797084 1.1547234
000050 94 5f 93 3f 06 55 9f 3f a3 d5 a0 3f 8b b2 9a 3f
       1.1513543 1.2447822 1.2565197 1.2085737
000060 40 a5 9c 3f
       1.223793

classfier.bn3.bias f4 [25]
000000 b8 26 a8 3e fc 55 89 3e 84 b8 ce bc c1 b8 98 3e
       0.3284204 0.26823413 -0.025234468 0.29828456
000010 f2 e9 67 3e 44 90 a6 3e b1 f7 9c bb 7d 5e 88 3e
       0.22647837 0.3253194 -0.0047902693 0.2663459
000020 7d bf b9 bb 4c 51 aa 3e ac a5 99 bc 84 d7 8d 3e
       -0.005668579 0.3326515 -0.018755756 0.27703488
000030 31 20 b9 3e b4 f8 7e 3e 77 a2 6b 3e a3 4c 4b bc
       0.36157373 0.2489956 0.23011194 -0.012408408
000040 83 49 aa 3e ad 0c af 3e e5 69 81 3e db 91 36 bc
       0.3325921 0.34189358 0.25276104 -0.011143173
000050 46 31 13 bd 5d 4c 7d 3e 01 60 67 3c db cb b9 bb
       -0.035935663 0.24736162 0.01412201 -0.0056700534
000060 af 3a 6e 3e
       0.23264574

classfier.bn3.running_mean f4 [25]
000000 cb 08 29 bf 27 07 32 bf eb 23 8e 3e c4 d1 0c bf
       -0.6602904 -0.69542164 0.27761778 -0.55007577
000010 ff 75 0c bf fa 25 2d bf ba 26 96 3e 1c d8 b3 be
       -0.5486755 -0.6763607 0.2932642 -0.35125816
000020 c9 27 8e 3e a2 e4 3a bf 9c 77 a4 3e 72 7e ff be
       0.2776473 -0.73005116 0.32122505 -0.49901158
000030 98 83 24 bf 53 c0 d6 be 25 17 ce be 8a 02 bd 3e
       -0.64263296 -0.41943607 -0.40252033 0.36916
000040 47 e4 96 be cd 7c 0b bf a2 97 16 bf 75 50 a3 3e
       -0.29471037 -0.54487306 -0.58825123 0.3189732
000050 7b 0a 68 3e 7c ba b9 be c2 39 d9 3e 1b 94 3f 3e
       0.22660248 -0.3627509 0.42426878 0.18708842
000060 f3 06 3b bf
       -0.7305748

classfier.bn3.running_var f4 [25]
000000 6a c2 9a 3f 1a d1 04 3f 48 b8 a0 3f 44 25 6a 3f
       1.209058 0.51881564 1.2556238 0.9146311
000010 ce 51 c2 3e 38 7e b5 3f 4d 3c b4 3f 07 df 52 3f
       0.37953037 1.4179144 1.4080902 0.8237156
000020 fa f5 9f 3f ee 0d 5d 3f 55 89 8f 3f ba ad 10 3f
       1.2496941 0.8634938 1.1213785 0.56515086
000030 17 fc 86 3f 1d dd 73 3f fd 7a 39 3f 0f 08 98 3f
       1.0545682 0.9525927 0.7245329 1.1877459
000040 06 49 a1 3f 57 24 40 3f 34 cc 6b 3f 28 dc 6a 3f
       1.260041 0.7505545 0.92108464 0.9174218
000050 7b 31 9f 3f 9c a8 50 3f 9d 69 be 3f 12 96 6a 3f
       1.2436975 0.8150728 1.4875981 0.9163524
000060 33 d9 58 3f
       0.8470642

classfier.fc5.weight f4 [1, 25]
000000 83 b8 68 be be 39 8c be 7b 32 9b 3e 79 41 90 be
       -0.22726636 -0.27387804 0.3031195 -0.28174952
000010 10 65 cd be 8e e5 94 be 02 3a 99 3e fa c4 ac be
       -0.40116167 -0.29081386 0.2992707 -0.3374403
000020 73 f9 55 3e c5 25 71 be 80 18 72 3e f0 17 a2 be
       0.20895939 -0.23549564 0.23642159 -0.31658888
000030 d6 c1 84 be 8c fe d1 be e5 ec b1 be 39 f9 94 3e
       -0.25929135 -0.41014516 -0.3475105 0.29096392
000040 e2 0e 6f be f7 fe 73 be 04 43 45 be 40 27 29 3e
       -0.23345521 -0.2382773 -0.19263846 0.16518879
000050 08 c8 a3 3e c4 6b c5 be 6f e1 5f 3e 3a 92 19 3e
       0.3198855 -0.3855878 0.2186334 0.14997187
000060 a9 c0 c7 be
       -0.39014176
