trained_models/collins_gasa/run_22-46-43/dnn_model_fold_3.pt (torch, 87489 bytes, 19 tensors)

classfier.fc1.weight f4 [100, 100]
00000000: 34e2 41bd 3a88 92bd fd58 ae3d edc5 a23c
00000010: f36c d9bd f104 2eba 4335 503d a2c3 813d
00000020: 6128 81bd 7d41 d7bb fd36 9e3d d17c 333c
00000030: 76e9 a7bc bb84 a9bc 3586 01bd 10e3 8d3d
00000040: e0c6 48bc f365 50bd 3293 54bd 2252 a3bc
00000050: 35d6 033d bd61 82bd 515b d2bc 629a 64bd
00000060: 0bdd 85bd d7d2 c83d be46 0cbd 84c5 b73d
00000070: c202 08bd bf6c 9dbd dbc7 7dbb a089 70bd
00000080: 7c7c 873c 814b 1f3d cf09 f73c c967 8ebc
00000090: 2e94 9bbc f56a 4ebd 5739 0abb b592 98bc
000000a0: 46ec 8d3d 666f 6b3d 5429 803d 083a 9cbd
000000b0: 7fac 89bd 6437 9cbd 5537 9abc cd1f 8d3d
000000c0: 1b96 ebbd 1ea2 0d3d 9cec 72bd ae0e 98bd
000000d0: 0f85 053d 1775 ddbc 5435 253b fc8b 46bd
000000e0: b2c7 32bd 1ae4 813d 25e4 7fbc f6d3 253d
000000f0: 48f7 4e3d be0a 10bd 8eb7 d7bd abc6 c93d
00000100: 9220 5b3d e9e9 aabc 9262 033e 3bce 5abc
00000110: 2721 933c 18d5 783d 0e1e cd3d 16ee 133a
00000120: 6f08 863c c376 e13c c0c8 883d ae65 48bd
00000130: 9742 8e3d 0356 a5bd b2ea b1bd af73 f7bc
00000140: 2ab2 e53a 10c0 ec3d fbc1 9c3c 66e3 163e
00000150: 8858 e83b 23c0 43bd b8ad d4bc f903 56bc
00000160: 2bfc 4b3d 5825 113d cb3a e03d 51cf bfbd
00000170: 8c96 df3d ffc7 4ebd 1fbd 253d 7e05 6f3c
00000180: d976 093e 9191 99bd 4ca1 e6bb 9b47 63bc
00000190: 24c6 eb3d 1b01 2abd 54db e7bc d9c9 133d
000001a0: d912 bdbd f8bf 563d b975 d63d 9a74 c53d
000001b0: b4a8 bcbc a747 5b3d a8ea 843d fc01 283d
000001c0: 1db2 5f3d 5851 71bd 7246 37bd 3610 bb3d
000001d0: 0a8a e63d eaa3 2cbd b2df a73c 1758 eabc
000001e0: 7acc 6dbb dce3 cdbd 88de 0f3d 7313 003c
000001f0: 6387 f83d 484d 72bd fa53 073d d492 a5bd
00000200: 2ed0 68bd 04e5 a9bd 7b9e 6a3d 0eeb ca3c
00000210: 5bfc 11bd 98b1 583d ee52 c0bd cc0c 4c3c
00000220: 1234 02be 6327 573d 6e97 7a3c 1631 ddbd
00000230: 9006 023d 53b0 b3bd c022 85bd 886e 6cbd
00000240: fc99 29bd f234 2e3d fe37 843d a808 85bd
00000250: 2f7c a5bd f9b4 09bd 3822 c0bc d381 833d
00000260: 2d63 e63d 9cb0 5fbd a7b6 ce3c f270 3dbd
00000270: c645 24bd 7910 923d 237b 2f3d 0c64 91bd
00000280: 95ca 0ebe b9b7 ac3d afc8 7ebd 4623 adbc
00000290: 50b3 03bd c5c9 423d dd63 b0bc aaaf b93d
000002a0: d9af fe3d 24c6 3fbd 5d5e 54bc 9e83 743d
000002b0: aef7 e33c 4cdb a53d 1aae 92bb 0de4 97bd
000002c0: 14ed 33bd 930f 3d3d c798 a83c 6656 e43b
000002d0: 50e0 1fbd fe39 79bb d34a 0abd 04ee 4c3d
000002e0: 6b24 ad3c 1a4b 78bb c091 a03c a98c 2bbd
000002f0: 991a a2bd f6f6 723d 8a5d 733b dfd8 453d
00000300: 77ba 593d 4991 433d bb8d d7bc 8847 0fbe
00000310: c4c2 8fbd c11c c2bd 8936 31bc 53b8 0e3d
00000320: b4b6 063d 0436 9e3d 945f adbc 57f3 0dbd
00000330: 6e1b 90bd 81eb 6dbd 9f07 f4bc 3a6b 463d
00000340: afaa 80bb 21af 063d f11d 11bd 868a 593c
00000350: 635b 06bc 9051 903d d4ac 1cbd ac39 6b3d
00000360: 3efc 103d 56f2 6dbd dd54 c6bd 793a c6bd
00000370: b976 a6bc e67b 97bd c2a1 8d3c 7ae4 5438
00000380: 541f e03c e338 033e 1550 b93d a4f5 453c
00000390: 5128 e53d 7366 c93c b68e c2bd 188a ebbd
000003a0: ba43 b0bd 0eca 86bd b05d 4b3d 4d88 d03b
000003b0: ca27 c0bd 7386 e4bc 3b14 803c 6455 6e3d
000003c0: ca04 cdbc 3c97 5c3d 3ae3 cebd 4333 e9bd
000003d0: aa75 7abc 8e9b 65bd c18e 24bd afe5 25bd
000003e0: 897e 08bd e90a 37bc 9dfb 52bc f8b9 843d
000003f0: 317a 85ba 3a34 8a3d 400c 04bd e4d0 58bd
-0.047334865 -0.071548894 0.08513067 0.019869769 -0.106164835 -0.00066383096 0.050832044 0.06336142
-0.0630653 -0.006569086 0.07725332 0.0109550515 -0.020497065 -0.020693174 -0.03162213 0.06928074
-0.012254447 -0.050878476 -0.05189819 -0.019936625 0.032186706 -0.06366298 -0.025678309 -0.055811293
-0.06536301 0.098058395 -0.034247153 0.0897322 -0.033205755 -0.07686757 -0.003872386 -0.058725
0.016538851 0.038890366 0.030156044 -0.017383473 -0.018991556 -0.05039497 -0.0021091306 -0.018624643
0.06929831 0.057479285 0.06257883 -0.07628256 -0.06722354 -0.076277524 -0.018825212 0.06890831
-0.1150324 0.034578435 -0.05930768 -0.07424675 0.032597598 -0.027033372 0.0025208788 -0.048473343
-0.043647476 0.06342335 -0.015618359 0.040485345 0.050528795 -0.035166495 -0.10533057 0.09852346
0.05349786 -0.02086349 0.1283057 -0.013354833 0.017960144 0.060750097 0.10015498 0.00056430825
0.016361443 0.02752245 0.06678915 -0.048925094 0.06946295 -0.08073046 -0.08687343 -0.03020653
0.001752441 0.115600705 0.019135466 0.14735183 0.007090632 -0.047790658 -0.025961742 -0.013062471
0.049801033 0.035436004 0.10948714 -0.09365714 0.109173864 -0.0504837 0.040463563 0.014588712
0.13424243 -0.07498468 -0.007038271 -0.013872053 0.11512402 -0.04150496 -0.028302826 0.03608117
-0.092321105 0.05242917 0.104716726 0.096413806 -0.023029663 0.05353513 0.0649007 0.041017517
0.05461322 -0.058915466 -0.044744916 0.09133951 0.112567976 -0.042148508 0.020492408 -0.028606458
-0.0036285208 -0.10053226 0.03512433 0.007817137 0.12135198 -0.059155732 0.03303907 -0.08084646
-0.05683916 -0.082956344 0.057280045 0.024770286 -0.035641056 0.05290374 -0.093908176 0.012454223
-0.12715176 0.052527796 0.015294893 -0.10800378 0.03174454 -0.087738656 -0.06500769 -0.0577226
-0.041406617 0.04253096 0.06455992 -0.06495792 -0.08080327 -0.033619855 -0.023453817 0.064212464
0.11249385 -0.054611787 0.02523358 -0.04625029 -0.040105604 0.07132048 0.04284204 -0.070991606
-0.13944466 0.0843348 -0.062203106 -0.021134984 -0.032153428 0.047555704 -0.021531994 0.090667084
0.12435884 -0.04681982 -0.012961951 0.059695832 0.027828064 0.08098468 -0.004476321 -0.07416544
-0.043927267 0.04615743 0.020580662 0.0069683073 -0.03903228 -0.003802895 -0.033762764 0.050031677
0.02113553 -0.003788656 0.019600749 -0.04188219 -0.07915229 0.05931755 0.003713461 0.048302528
0.053156342 0.047745977 -0.0263127 -0.13992131 -0.070195705 -0.094781406 -0.010816225 0.034843754
0.032889083 0.077251464 -0.02116374 -0.034655895 -0.07036482 -0.058085922 -0.02978879 0.048442103
-0.003926597 0.03288186 -0.035428945 0.0132776555 -0.008200499 0.07046807 -0.03825076 0.057428047
0.035396807 -0.058092438 -0.09684155 -0.096791215 -0.020320283 -0.073966786 0.017289046 5.0757524e-05
0.027358688 0.1281467 0.090484776 0.012082491 0.1118933 0.024584984 -0.09499876 -0.11500949
-0.08606668 -0.065815076 0.049649894 0.0063639046 -0.09382589 -0.027896142 0.015634647 0.058186904
-0.025026698 0.053855166 -0.10101934 -0.113867305 -0.015286842 -0.05605655 -0.040175203 -0.040502246
-0.0333238 -0.011172035 -0.012877372 0.06480783 -0.0010183511 0.06748243 -0.032238245 -0.05293359

classfier.fc1.bias f4 [100]
00000000: bfab 41b6 c060 16b6 8b0a afb5 ecd9 80b5
00000010: 7961 a1b6 d713 0fb7 c81d 8c35 8b38 9eb7
00000020: b374 1db6 7eeb a935 254e 8e35 20cc 1135
00000030: 1ae3 bc33 b6c7 0c35 ea5d 7236 783f 00b6
00000040: fd1f 6234 34d1 4637 a540 9d36 8a04 4936
00000050: a230 0db7 385b 24b3 88f7 28b8 b505 4ab6
00000060: b437 7636 bcd4 5d36 890e 4935 2d9c a3b5
00000070: 42b8 c0b4 1202 9a33 298e f834 9933 0e36
00000080: 6be0 bb35 cf98 f635 4a85 dd33 6eeb 3535
00000090: 2628 ab35 cf75 6237 aefa 0db6 b184 a235
000000a0: d3a1 6c37 a74e 15b7 95a4 1a37 7288 0337
000000b0: 201b 0fb7 a6f9 24b7 54e8 f5b4 37a4 a2b6
000000c0: a3ba 2a38 36e4 7637 ea59 edb6 0c99 8036
000000d0: f6bc 7637 11a0 1c35 d3ce 3d37 64f8 80b5
000000e0: 8bff a9b6 1d24 e7b5 a9a4 f437 0eaa e5b5
000000f0: d442 5436 8bdf 9533 06f4 1635 ab27 8536
00000100: c404 69b7 96aa a635 5d30 c136 6783 a335
00000110: a32b dd34 b1ed 4db6 c8b2 5db5 0a94 d7b6
00000120: 5d06 3a36 5867 8db6 ba2f a436 5201 1e36
00000130: 5628 1836 bfdb 22b7 6077 a836 8ada a9b4
00000140: 3c28 aa37 4348 2bb7 8354 9836 569c bc36
00000150: 9290 b9b5 503c d635 9501 bcb5 5867 4636
00000160: 5298 4f36 3b60 94b5 acca 31b6 87e0 de34
00000170: b326 8835 ad28 25b7 9215 9db6 237c c8b6
00000180: 199b 2636 e95f e434 f97c 0ab7 5682 1d37
-2.885921e-06 -2.2408058e-06 -1.3041584e-06 -9.600167e-07 -4.809521e-06 -8.5280835e-06 1.043948e-06 -1.8861398e-05
-2.346275e-06 1.2660018e-06 1.0602567e-06 5.431375e-07 8.795742e-08 5.244468e-07 3.6115475e-06 -1.911043e-06
2.1059527e-07 1.1850429e-05 4.6864902e-06 2.9953976e-06 -8.415578e-06 -3.826719e-08 -4.0284853e-05 -3.0103668e-06
3.668928e-06 3.3055394e-06 7.4899486e-07 -1.21899e-06 -3.5896852e-07 7.1715604e-08 4.6297035e-07 2.1189683e-06
1.39979e-06 1.8372901e-06 1.03153596e-07 6.777035e-07 1.2752178e-06 1.3498079e-05 -2.1156552e-06 1.2108559e-06
1.4104374e-05 -8.899405e-06 9.217435e-06 7.839977e-06 -8.52978e-06 -9.833288e-06 -4.5803847e-07 -4.8470934e-06
4.0704977e-05 1.4715877e-05 -7.073618e-06 3.8325143e-06 1.47067385e-05 5.8347456e-07 1.1313433e-05 -9.609034e-07
-5.0663416e-06 -1.7221352e-06 2.9163743e-05 -1.7111322e-06 3.162936e-06 6.9790154e-08 5.6234455e-07 3.968327e-06
-1.3888992e-05 1.2417611e-06 5.7574784e-06 1.218269e-06 4.1196208e-07 -3.0685735e-06 -8.2589077e-07 -6.4247333e-06
2.7719864e-06 -4.2141583e-06 4.893137e-06 2.3544603e-06 2.2673244e-06 -9.707116e-06 5.0206872e-06 -3.163771e-07
2.0284315e-05 -1.0209219e-05 4.5397915e-06 5.6210365e-06 -1.382565e-06 1.5961796e-06 -1.4007552e-06 2.9564453e-06
3.0934066e-06 -1.1054866e-06 -2.6493026e-06 4.1514087e-07 1.0144053e-06 -9.844237e-06 -4.6814757e-06 -5.974916e-06
2.4826206e-06 4.2538093e-07 -8.254538e-06 9.388275e-06

classfier.bn1.weight f4 [100]
00000000: 9004 833f 7a0c 843f 54a2 7a3f 7787 7b3f
00000010: 97b6 7b3f 4fd0 843f 7198 753f 86a0 833f
00000020: 4066 713f 41d5 803f aa7b 763f 1a94 733f
00000030: 08f1 803f b5b7 723f 12c6 733f 462c 833f
00000040: 4437 7d3f 085d 7d3f 8af0 723f 0106 833f
00000050: 85a5 7e3f 3376 773f c89f 863f c363 833f
00000060: 5166 783f 5467 743f 8eb6 743f 7fe0 7c3f
00000070: db3d 773f 52f1 6a3f 5511 743f 71e0 843f
00000080: 73c1 7e3f 423c 783f 3453 723f 76c0 6f3f
00000090: 927d 853f 9a2f 803f 79dd 813f ccb3 723f
000000a0: f219 813f cb26 823f 9f2e 823f 64d9 7b3f
000000b0: d69a 833f 85f8 813f 8815 813f c69d 803f
000000c0: 41cb 813f 8a5d 873f a5dd 7c3f 50ed 753f
000000d0: 0b1c 733f 79ed 723f 3680 783f 3cbe 803f
000000e0: 2d36 803f bd41 713f 1f31 7f3f d2ee 733f
000000f0: d84a 813f a4ee 783f e373 7e3f 6a44 743f
00000100: 34d5 843f a93c 723f f4d3 7d3f dd76 713f
00000110: ec3e 733f 664a 803f 689b 833f 7073 833f
00000120: 22c8 853f c13e 803f 1d48 7f3f 0479 833f
00000130: 8e2d 723f bc63 7f3f 42c5 7f3f aaf2 7b3f
00000140: 62af 823f c011 853f c3ba 813f c3e2 753f
00000150: bb1c 843f 89a6 7b3f b015 773f 02b9 773f
00000160: eeb7 803f 4575 7c3f 5b24 813f 0fd1 753f
00000170: 748c 793f 52b8 813f c9ab 803f cd4b 783f
00000180: 12c7 813f 87ed 7c3f 9598 803f 5b37 7f3f
1.0235767 1.0316308 0.97903943 0.9825358 0.98325485 1.0376071 0.9593573 1.0283363
0.94296646 1.006508 0.96282446 0.9514786 1.0073557 0.94811565 0.95224106 1.0247886
0.98912454 0.9897008 0.94898283 1.0236207 0.9947131 0.9666473 1.0517511 1.026482
0.9703112 0.95470166 0.95591056 0.98780054 0.9657876 0.91774476 0.95338947 1.0380994
0.9951393 0.96966946 0.9465821 0.9365305 1.0428946 1.0014527 1.0145713 0.948056
1.0086043 1.0168089 1.0170478 0.98378587 1.0281627 1.0153967 1.0084696 1.0048149
1.0140153 1.0575421 0.987757 0.96065235 0.94964665 0.94893605 0.97070634 1.0058055
1.0016533 0.94240934 0.9968433 0.95286286 1.0100965 0.97239137 0.9939558 0.9541689
1.0377564 0.9462381 0.9915154 0.94321996 0.95017886 1.0022705 1.0281801 1.0269604
1.0451701 1.0019151 0.9971941 1.0271306 0.9460076 0.9976156 0.99910367 0.9841715
1.0209773 1.0396042 1.013512 0.96049136 1.0321268 0.9830099 0.9651747 0.96766675
1.0056131 0.9861644 1.008922 0.96022123 0.9747994 1.0134375 1.0052425 0.9699066
1.0138876 0.9879994 1.0046564 0.9969384

classfier.bn1.bias f4 [100]
00000000: 2528 14be 1e05 1ebe 8b5d 64bd d529 9ebd
00000010: aa61 35be 7c02 8dbd 382f 70bd cb46 16be
00000020: 0016 33bd 9e0d 26be ae57 1dbd 0b1e 09bd
00000030: 26ad f9bd d229 8abc 29dd 1ebd c9d0 81bd
00000040: c2dc 3dbd 8450 0bbe 23ea eebd a3e8 34be
00000050: 37ee c7bd 472f 40bd ec5a 1abe 3b4f 4ebe
00000060: 7549 60bd 21d3 6fbd fb4f 91bd 2a8d 0cbe
00000070: 1f7e 3dbd 666e e1bd 6ae7 3cbd f6ea 23be
00000080: 373b 12be 6610 60bd 41e3 10bd d28e 9bbd
00000090: a25e 07be 1fc9 87bd b7ea 06be c7e7 6dbd
000000a0: f206 e2bd d22f 02be 42d5 d6bd 2a88 3ebd
000000b0: 7f62 24bd 1ab5 2dbe 4454 23bd 29bb 1fbe
000000c0: 20f2 40be fadf 4ebe 475e 17be 336d 26bd
000000d0: 23a9 cbbd eede 50bd c29d adbd 673c 65bd
000000e0: 11bd fbbd 05a2 4cbd 0750 25be 7224 6ebd
000000f0: 2275 13be 31d0 c4bc 928f a3bd 74a5 b0bd
00000100: 0967 2abe 1a16 9ebd ad57 0cbe 28dd 90bd
00000110: a0b6 56bd bd89 b9bd 0ed0 c2bd 227c 01be
00000120: c823 1fbe 704b b0bd 34ab 1bbe e201 eabd
00000130: fa75 76bd a327 49be 94ad a2bd 0c16 92bd
00000140: 9354 dfbd ecf9 20be 5352 4bbe 894a efbd
00000150: 16eb 09be 832e f2bc 7742 40bd 3dc4 1cbd
00000160: 83ad ffbd 24e1 e4bc 56ef 30be 5215 1abd
00000170: d721 cbbc 9a08 34be 38c4 aebd 4c42 f1bc
00000180: ff56 17bd ebde 03bd 2d75 c0bd 151d d43b
-0.14468439 -0.1543164 -0.055753272 -0.077228226 -0.17713037 -0.068852395 -0.05863878 -0.14675443
-0.043722153 -0.16216132 -0.038413696 -0.033475917 -0.121912286 -0.016865645 -0.038785134 -0.06338651
-0.04635311 -0.13604933 -0.11665752 -0.17666869 -0.09762233 -0.046920087 -0.15073746 -0.20147412
-0.054757554 -0.058550958 -0.07095333 -0.13725725 -0.046262857 -0.11007385 -0.04611913 -0.16007599
-0.14280401 -0.05470314 -0.035372976 -0.075956 -0.13219693 -0.06630158 -0.13175474 -0.05808237
-0.11036481 -0.12713555 -0.104898944 -0.046516575 -0.040132996 -0.16963616 -0.039875284 -0.1559874
-0.18842363 -0.20202628 -0.14782058 -0.040631484 -0.0994437 -0.050993852 -0.084773555 -0.055965807
-0.12291921 -0.0499592 -0.1614381 -0.058140226 -0.14400151 -0.024025055 -0.07986368 -0.08625308
-0.16640867 -0.07719059 -0.1370532 -0.07073432 -0.05242026 -0.090594746 -0.095123395 -0.12645009
-0.15540993 -0.086081386 -0.15202028 -0.1142614 -0.060171105 -0.19644026 -0.07943264 -0.07133111
-0.10904803 -0.15720338 -0.19855623 -0.11684138 -0.13468584 -0.029563194 -0.046938386 -0.038273085
-0.124842666 -0.027939387 -0.172788 -0.03761799 -0.02479641 -0.17581406 -0.085335195 -0.029450558
-0.0369482 -0.032195013 -0.093973495 0.0064731934

classfier.bn1.running_mean f4 [100]
00000000: 1a47 543d e831 4dbe 4423 ab3f db48 31bf
00000010: cc0a 84bc 7ba0 a63e 1422 1540 025a 17be
00000020: 6d4b 9a3f bcd4 bdbe b5e8 963f 0a28 933e
00000030: ac6f 183e d791 f03f 9286 d5bf b4df e43e
00000040: edab 943b 92b8 a7be d332 82bf bcab cbbe
00000050: dd43 bc3e c16b 25bf cc58 753e 81d8 d7bd
00000060: 9148 81be dae2 213d abaf cf3f 6224 2abf
00000070: f022 0cbf 4e7f d5bf b02d 85bf 0106 87be
00000080: 65a2 a3be 5c95 52bf a731 2b3f b54b 153f
00000090: 1c50 89bc 7e88 863e 4932 a1bd d87a 853f
000000a0: ef36 34be d4f7 bcbe 2370 b3bd 1634 c23d
000000b0: d004 e63e 07a5 b5be a88b b9be 4793 10be
000000c0: a41b 40be 4435 e1be 62fb 0dbf c775 bf3f
000000d0: 2249 cdbe f9f0 da3d e369 fcbe 43f7 92be
000000e0: ab18 0c3f 82b7 e33e 8812 a2bd 06d9 0fbf
000000f0: da61 1ebf 8089 823f b119 b6bd f621 82be
00000100: 95c8 9bbe bdef 0ebf 039d 17be a38d 743f
00000110: 8ad7 e4bf 6013 83bf 684f e5be e0ee 4bb9
00000120: f2f5 59be 381b a4be 03ce 06bf d4cd 01be
00000130: f1c0 72bf 2416 74bc 9eb2 b0be 8649 e1be
00000140: 3d94 9b3b 50f5 2ebe 8de9 abbe 53ce 71bd
00000150: 87b8 12be 2248 d13f 1362 44be ec36 433f
00000160: 46ad c9be 4057 0040 37e9 02bf 67ad 2bc0
00000170: 657f 073f b216 c3be 57bc 813e b213 d1be
00000180: 8dd9 293e dc5e 593e edcc a4be c880 953e
0.05182562 -0.20038569 1.3370137 -0.69251794 -0.01611843 0.32544312 2.330205 -0.14780429
1.2054268 -0.37076366 1.1789767 0.28741485 0.1488635 1.8794507 -1.6681693 0.44701922
0.0045370967 -0.32758003 -1.017176 -0.3977946 0.36770526 -0.64617544 0.23959655 -0.10539342
-0.25250676 0.039522983 1.6225485 -0.66461766 -0.5474081 -1.6679475 -1.0404568 -0.26371768
-0.31959835 -0.82259154 0.6687264 0.58318645 -0.016761832 0.2627601 -0.07870919 1.0428114
-0.1759908 -0.36907828 -0.08761623 0.09482591 0.44925547 -0.35477468 -0.36239362 -0.14118682
-0.18760544 -0.4398595 -0.55461705 1.4957818 -0.40094858 0.10690493 -0.49299535 -0.2870427
0.5472514 0.44475943 -0.07913691 -0.56190526 -0.6186806 1.0198212 -0.08891619 -0.25416535
-0.3042647 -0.5583456 -0.14805989 0.9552862 -1.7878277 -1.0240288 -0.44787145 -0.00019448576
-0.21285227 -0.32052016 -0.526581 -0.12676173 -0.94825655 -0.014897857 -0.34511274 -0.44001406
0.004747896 -0.17085767 -0.33576623 -0.059034657 -0.14328204 1.6350138 -0.19178037 0.7625568
-0.3939001 2.0053253 -0.5113711 -2.6824586 0.52928764 -0.38103253 0.25339004 -0.4083534
0.16586895 0.21227592 -0.32187596 0.29199815

classfier.bn1.running_var f4 [100]
00000000: 8085 2d3d 5a00 793d 52c9 3c3f 7ca2 7c3e
00000010: b025 243d a84c 893d 51c0 513f f323 013d
00000020: 2732 a93e 66a9 873d 6fd7 a73e d3da 623e
00000030: fd12 7e3d 1c98 113f 3351 2d3e bc11 243e
00000040: e1ca 353e 7efb 643d dc2f e83d e194 ac3d
00000050: 2e9b 803d cfac 103e ccbd fd3c 28f4 483d
00000060: 4e21 ed3e 8009 9b3e a269 6a3e 92fc e23d
00000070: 25d6 b83e 39fe 6e3e 91b9 c33e df91 673d
00000080: d2dc 4d3d 94bb 933e 37b4 103e f315 d93d
00000090: d8e5 4a3d 00d0 6c3d c2e4 913d c239 a83e
000000a0: 68d5 3d3d 1d26 7f3d 1b92 413d e85e 1a3e
000000b0: 542a b63d 3592 783d 09e5 693d 2d76 b33d
000000c0: eb36 133d c766 313d 093f d33d 15de 963e
000000d0: b455 bd3d af43 8f3e 4e21 bf3d c986 bc3d
000000e0: a3dd c43d c140 373f 8759 113d 7976 1d3f
000000f0: b398 c13d 18a5 333f b9dd 923d 2f29 f43d
00000100: bf9b 063d 2561 f53d a832 ab3d a28d 913e
00000110: c9dd 623e b737 5a3e 8005 df3d a77d f93d
00000120: 63b2 2f3d 54c7 933d 215c c43d 166f 503d
00000130: 95e4 603e e08f 963d deb3 c43d d31e c83e
00000140: c959 833d a101 1c3d 81fe 183d dcb2 a83d
00000150: f147 283d 1c06 a03e 479c 0b3f 957b bb3d
00000160: 8ddc c43d 7a93 803f b046 f13d dfa2 c33f
00000170: c7cd 983e 4a07 a53d a82d 223d 21d9 0d3f
00000180: 26a7 873e c57d 553e 6010 ec3c c5f8 d13d
0.042363644 0.06079135 0.7374469 0.24671358 0.040075004 0.06704074 0.81934077 0.031528424
0.33046076 0.06624107 0.3278155 0.22153787 0.062029827 0.56872725 0.16925506 0.1602239
0.17753173 0.055903904 0.113372535 0.08426834 0.06279598 0.14128421 0.030974291 0.04906097
0.46314472 0.30280685 0.22891858 0.1108333 0.3610088 0.23339166 0.38227513 0.056535598
0.05025942 0.28854048 0.14131247 0.105998896 0.049535602 0.05781555 0.0712371 0.32856566
0.0463461 0.062292207 0.047258478 0.15075266 0.08894792 0.06068631 0.05710319 0.087627746
0.035941046 0.043310907 0.103147574 0.2946631 0.09244862 0.27981326 0.09332524 0.09205396
0.09612586 0.7158318 0.03548577 0.615089 0.09452953 0.7017379 0.071711965 0.11921918
0.032863375 0.119814195 0.08359271 0.2842837 0.22154917 0.21310316 0.10889721 0.121821694
0.042894732 0.07215753 0.09587885 0.05088719 0.21962197 0.07351661 0.096046194 0.39086017
0.064136095 0.03808749 0.03735209 0.0823724 0.041084234 0.3125466 0.54535335 0.09154431
0.09612379 1.0045006 0.11781061 1.5284079 0.29844496 0.08058031 0.039594322 0.5540944
0.26494712 0.20848759 0.028816402 0.10252527

classfier.fc2.weight f4 [50, 100]
00000000: 952f a33c 6a5d 103d 8382 933d f913 8bba
00000010: 4699 c03d 49d5 523c 1acc 46bd 6a80 9a3d
00000020: 587f a1bc 7707 dc3b 5d02 7dbd 9f91 6d3c
00000030: 232b 06bd b635 213c 4621 88bd 4564 8e3c
00000040: db58 85bd dbc3 d73c 6d0c 8e3d 139a 513d
00000050: f994 2dbd addf 0cbc 76a4 3f3d ea5e 32bc
00000060: 9b54 023d 6a0a f3ba 88fe 273d 27d7 003e
00000070: 9c15 783d 24e5 603b e426 53bc 20ee 963c
00000080: 698e 9c3d dcc7 04bd 8a7b 5abd b180 1fbd
00000090: 25c7 993d ceaa 24bd b15d c23d 7288 96bc
000000a0: 97b6 963d 0758 293c 281f de3d 11c1 543d
000000b0: f3d3 ae3a bfe5 f43d 0311 debd c623 a4bc
000000c0: f928 843c 0a0a d43a 68a7 e03d 0966 69bd
000000d0: 43fd 463a e74b 0a3d a594 64bc 1205 abbc
000000e0: a4e7 733d e6b8 60bd 0295 8dbc 833f dc3b
000000f0: aabb d03c 9c37 803d 6ecc 1dbd 4522 e43d
00000100: 77bf fc3c ce07 243c c09f bc3c 750f 3b3d
00000110: 3848 9ebd baaa 193d 0a1d db3d 377b b43d
00000120: 7cfc b13d 6d2c 083e e7bb a93d 18a1 65bc
00000130: 2578 c23d c97e 2e3b b746 b83a da24 793d
00000140: 9c5c c03b 690b eb3b a871 a73d 5604 cfbc
00000150: 5087 853d 4c78 c23d bf58 38bc c3bb 3bbd
00000160: de58 753d 47b6 663d b2a8 8a3d ec85 9fbd
00000170: 3c19 9dbd b441 4dbc c1a3 cc3d 0cd7 d5bc
00000180: afdd 11ba 047e 7abd 78a5 74bd 220d 0b3d
00000190: 57f0 d83d 00d9 013e 3f10 12bc 3caa a3bc
000001a0: bdf7 8f3a dd62 bbbb c829 bdbc 7bef a2bb
000001b0: 8a7b ce3c 243e 943d a287 74bd e193 7b3c
000001c0: 9c2f 2e3c ac41 2fbd dd30 b3bc ee87 debc
000001d0: 078a 57bd 25a6 a7bc 24e4 7dbd fdd3 7e3d
000001e0: 7974 763d 578c 8d3d aa09 f2bc cc77 cdbc
000001f0: b38e 90bd 0852 a8bd 9046 bebc fd0c 0ebd
00000200: 2b59 a03d 924e 583d 40f5 6f3d 35d8 a93d
00000210: 6f91 683d d6b2 90bd c334 193c 5e18 263b
00000220: 3cb0 5c3d 612f 8ebc 9f0b cb3d c9a6 f73c
00000230: 91d1 0c3d c5af 9b3d 26de 683d 4d05 de3d
00000240: de26 f2bc 68b3 943c 61d0 1ebc 6eed ff3c
00000250: 0a93 da3d 731a c13d 3d69 cb3d a611 5abd
00000260: dbe5 963d 758b b63d d94a 523c 33ab 17bd
00000270: d507 a83c eac2 59bd 0ba9 64bc bf37 11bd
00000280: 7e71 183d f6c3 a0bd 97fb d13c 18b7 943d
00000290: e30c 923d f17e 94bd da36 f43c 5188 7d3d
000002a0: 60ff 1b3d a8ed 4c3d 3bba c83d b637 d3bc
000002b0: 964f 363d 77cc 983d 05bc 983d 3065 e13d
000002c0: 482d d1bc 77fb d43c 2402 2cbb d49c afbb
000002d0: 2f73 bb3d 7710 cd3d 019d b73d 6c3a a13d
000002e0: be83 843d 6777 cc3d c026 3ebd cfb0 683d
000002f0: c52c 903d fa3a 4fbd d74a 123d 7120 053d
00000300: b8bd 17bd 9155 c23d fc65 cd3d ddf9 a53d
00000310: 52a0 843d f498 463c 1fe4 1e3c a1e0 a93a
00000320: 9114 263d 6a79 ef3c 4cf4 a5bb 41a3 f83c
00000330: 8f74 37bd 5cf6 a93c 8100 56bd c0cf 74bd
00000340: 7b66 d1bd 046d d2bd c72c abbd 7000 383d
00000350: 43af a0bd 3c77 b9bd 60e6 09be af16 e8bd
00000360: 9d8c 763d 420d cf3b 1e41 0ebe da17 75bd
00000370: d690 313d fd29 653d c61c 1cbd 0018 9fbd
00000380: ab66 9bbc f7f8 fcbd 8866 7cbd b259 b5bc
00000390: 5daf dcbd f6b6 1d3d 3f03 d93c 35fa e1bc
000003a0: f8ed 943d 4cc6 de3c f9a6 95bd 0574 183c
000003b0: 3509 3ebd 9a6f 5cbd 6d2c f63d c116 c63c
000003c0: 34f2 febc 10bc f73a 9e81 69bd ac71 813d
000003d0: 66ae e1ba e5ee e1bd 99d1 abbd 3b07 3dbc
000003e0: 466c 633c 5a54 98bd 29ee 8dbd 68bb c1bc
000003f0: bb14 483d 6194 5b3d 26e8 103a 8a3e e2bc
0.01992015 0.035245337 0.072026275 -0.0010610811 0.094042346 0.012868234 -0.04853449 0.07544024
-0.019714043 0.006714757 -0.061769832 0.014500051 -0.032755982 0.009839466 -0.066469714 0.017381797
-0.065110885 0.026338508 0.06935964 0.051172327 -0.0423784 -0.00859825 0.0467877 -0.010886887
0.031818967 -0.0018542532 0.041014224 0.12582074 0.060567483 0.0034316266 -0.01288769 0.018424094
0.0764435 -0.032417163 -0.053340472 -0.03894109 0.07508687 -0.040201955 0.094905265 -0.01837561
0.07359045 0.010335929 0.10845786 0.051941935 0.0013338312 0.11957883 -0.108430885 -0.02003659
0.016132819 0.0016177308 0.1096943 -0.056982074 0.00075908395 0.033763792 -0.013951455 -0.020876441
0.05954708 -0.054863833 -0.017282967 0.0067214384 0.02548011 0.06260607 -0.038525037 0.11139349
0.030853016 0.010011626 0.023025393 0.045669038 -0.077286184 0.037516333 0.10698898 0.08812564
0.08690736 0.13298197 0.08287793 -0.0140154585 0.09495572 0.0026625863 0.0014059161 0.06082616
0.005870415 0.007172991 0.08175975 -0.025270622 0.065199494 0.09495601 -0.0112516275 -0.04583336
0.059899203 0.056326177 0.06770457 -0.077892154 -0.07670829 -0.012527872 0.09992171 -0.026103519
-0.00055643445 -0.061155334 -0.059728116 0.03394807 0.10592716 0.12680435 -0.008915006 -0.019978635
0.0010983866 -0.0057185725 -0.023091212 -0.004972396 0.025205392 0.07238415 -0.059699662 0.015355081
0.010631468 -0.04278724 -0.021873886 -0.027164426 -0.052621868 -0.020464966 -0.06198515 0.062213887
0.06016967 0.06911533 -0.029545624 -0.025081538 -0.07058468 -0.08218771 -0.023227006 -0.034680355
0.078295074 0.052809305 0.058583498 0.08293191 0.05677932 -0.0706536 0.009350958 0.0025344114
0.053879008 -0.017356576 0.09914326 0.030230897 0.034379546 0.07601885 0.056852482 0.10840855
-0.029559549 0.018151954 -0.009693236 0.031241145 0.10672577 0.09428873 0.09932182 -0.053239487
0.0736806 0.08913318 0.012835228 -0.037028503 0.020511547 -0.0531644 -0.013956319 -0.035453554
0.03721761 -0.078498766 0.025632663 0.07261485 0.07131364 -0.07250775 0.029811312 0.06189758
0.03808534 0.050031334 0.09801146 -0.025783401 0.044509493 0.074608736 0.07457737 0.11005628
-0.025534287 0.025998814 -0.0026246393 -0.0053592715 0.09152829 0.10012906 0.08965493 0.07872471
0.0647044 0.09983712 -0.046423674 0.056809243 0.07039789 -0.050593354 0.035715904 0.03250164
-0.037046164 0.09488977 0.100292176 0.08104298 0.06475891 0.012121428 0.009697943 0.0012960621
0.040546957 0.0292327 -0.005064523 0.030351283 -0.044788893 0.020747356 -0.052246574 -0.05976844
-0.10224625 -0.10274699 -0.0835815 0.044922292 -0.078459285 -0.09055945 -0.13466787 -0.113324516
0.060192693 0.006318719 -0.13892028 -0.0598372 0.043351017 0.055948246 -0.038113378 -0.077682495
-0.018969854 -0.12352174 -0.06162122 -0.022137497 -0.107756354 0.038504563 0.026490806 -0.027585128
0.072719514 0.027194165 -0.07307238 0.009305005 -0.0463955 -0.05381737 0.12020192 0.024180772
-0.03112135 0.0018900651 -0.05700838 0.06320509 -0.0017218112 -0.11031894 -0.08389587 -0.011537368
0.013880795 -0.07437964 -0.06930191 -0.023648933 0.048847895 0.053608302 0.0005527757 -0.027617712

classfier.fc2.bias f4 [50]
00000000: 83b2 54b6 8806 5536 978f 8b35 980a 4935
00000010: 36f4 9733 b773 e6b5 f1dd 9fb4 c5d5 aa36
00000020: b6ca acb4 3054 8f35 c7ff 3035 feaa e3b4
00000030: 7b4c 0a36 6a16 99b4 cafa 17b4 6fbc b835
00000040: 8b4a da35 1bf3 5ab7 c0c8 4933 84e1 6436
00000050: c629 ccb5 e276 7536 095d 64b6 5cf1 4735
00000060: 199a 1f36 5cde 3135 a8a3 4a35 c2aa 1136
00000070: 9155 a235 fefd 1036 5411 1334 5c16 7336
00000080: 9e66 02b7 f0f7 3033 a4af c435 c189 1fb6
00000090: 98e5 09b5 ca70 f9b5 c2a6 5636 551a 9cb5
000000a0: 81a5 b334 cfc5 dbb6 d4c8 9335 ef86 f635
000000b0: 85f3 3536 7e96 15b6 3c99 32b4 0f01 e434
000000c0: 3b3d 6b35 5115 d135
-3.169437e-06 3.1743275e-06 1.0398097e-06 7.489375e-07 7.075907e-08 -1.7170013e-06 -2.9777541e-07 5.091281e-06
-3.2184988e-07 1.0678832e-06 6.5937314e-07 -4.2406458e-07 2.060812e-06 -2.851478e-07 -1.4154207e-07 1.376391e-06
1.626396e-06 -1.3050415e-05 4.698154e-08 3.4105915e-06 -1.5211342e-06 3.6577044e-06 -3.40288e-06 7.44845e-07
2.3782543e-06 6.6261214e-07 7.5489015e-07 2.1706078e-06 1.2094844e-06 2.1605515e-06 1.3696746e-07 3.6222837e-06
-7.772496e-06 4.120369e-08 1.4654256e-06 -2.377303e-06 -5.137058e-07 -1.8584772e-06 3.198555e-06 -1.1630569e-06
3.3461768e-07 -6.5497366e-06 1.1010802e-06 1.8367699e-06 2.7112849e-06 -2.2290328e-06 -1.6633288e-07 4.246908e-07
8.7633424e-07 1.5577917e-06

classfier.bn2.weight f4 [50]
00000000: a2b5 7a3f 0463 813f be7b 723f c030 5f3f
00000010: fc54 733f 8180 863f 7f2f 6b3f 815a 823f
00000020: 4fdb 6e3f ddb7 653f 85f8 6e3f 4449 883f
00000030: ef69 873f ecbd 6d3f 7a53 673f 5b34 7a3f
00000040: 7864 6d3f f053 8d3f 5c2a 7f3f 3cc5 933f
00000050: ce77 893f 373a 8a3f b086 733f 5aa3 7b3f
00000060: 1709 833f a17c 6e3f cd6e 6f3f 6015 813f
00000070: c349 873f 92a1 763f 2c51 6d3f b89a 843f
00000080: aacb 7f3f 8a57 653f 2d7f 7f3f 8030 763f
00000090: 7fcc 6f3f 1369 863f 510b 8c3f 4785 6d3f
000000a0: 7a34 713f a420 883f fa6d 763f e602 723f
000000b0: 308c 893f 1d18 893f ee61 7c3f 611d 893f
000000c0: 5d13 773f 51f5 6f3f
0.979334 1.0108342 0.94720066 0.8718376 0.9505155 1.0507966 0.9186935 1.018387
0.9330339 0.8973368 0.9334796 1.0647359 1.0579203 0.9286792 0.9036175 0.9773614
0.9273143 1.1041241 0.9967401 1.1544566 1.0739686 1.0799016 0.9512739 0.9829613
1.0237149 0.9315892 0.93528444 1.0084648 1.0569385 0.96340287 0.92701983 1.0359716
0.9992014 0.895867 0.9980343 0.96167755 0.9367141 1.0500816 1.0940953 0.9278149
0.942207 1.0634961 0.9626156 0.9453567 1.0745907 1.0710484 0.9858693 1.0712091
0.9651392 0.937337

classfier.bn2.bias f4 [50]
00000000: 3d77 c2bd 5139 a7bd 4718 43bd ce1d 5d3b
00000010: 06f1 75bd cab2 dfbd 4c48 9bbd d619 e3bd
00000020: b6d4 80bd bc60 97bd 12af 39bd 99d0 f0bd
00000030: c905 c8bd f539 7dbd 947b bdbd 4374 9ebd
00000040: 20bf 69bd 7df7 05be 4681 a0bd 4b0c 033d
00000050: d167 cdbd 3c39 f7bd 57d3 463b 164c 98bd
00000060: a422 f3bd 1500 71bd 96b3 cbbd 2625 b2bd
00000070: efcf 813c 6391 71bd a029 bcbd b938 2fbc
00000080: 7ca3 0cbe 8836 90bd f0b2 cbbd 7ca7 91bd
00000090: f212 39bd c268 f1bd 8073 0fbe 0aa7 5d3c
000000a0: 533b 7abd baa5 e6bd 7426 9ebd dac0 aebd
000000b0: 8395 89bc 0368 febd bfe0 d5bc 0430 edbd
000000c0: fd01 43bd 9ec3 57bd
-0.09495399 -0.08165229 -0.047630575 0.0033739689 -0.06004431 -0.10922773 -0.07582149 -0.11088912
-0.062905714 -0.073914975 -0.045332976 -0.11758537 -0.097667284 -0.06182285 -0.09252086 -0.07737019
-0.057067037 -0.1308269 -0.07837157 0.031994145 -0.10029567 -0.120714635 0.003033837 -0.07436387
-0.118718415 -0.05883797 -0.09946363 -0.08698492 0.01584622 -0.058976542 -0.09187627 -0.010694676
-0.1373424 -0.07041651 -0.09946239 -0.07112023 -0.045184083 -0.11787559 -0.14008904 0.013528595
-0.061091732 -0.112620786 -0.07722178 -0.08532877 -0.016794926 -0.124221824 -0.026108144 -0.11581424
-0.047609318 -0.05267679

classfier.bn2.running_mean f4 [50]
00000000: c0cf 0f3f 6d91 483f 40ab 31bf b721 5dbf
00000010: a7e4 933c daf5 563f ab83 0bbf ab0a 483f
00000020: 6083 8bbe d726 d2be 2c90 ccbe 6a98 6f3f
00000030: 49ed 4c3f ce30 bfbe 845e 9fbe 13d4 3f3f
00000040: d878 9ebc f21c 573f 06dc 4b3f 2cdf 0dbe
00000050: c503 673f c71f 663f c21b 35bf a378 7b3f
00000060: 465e 373f f5ad 36be 4211 773e 24d7 5e3f
00000070: 2abf 93be 6733 b8bd b972 723e 945d e9bd
00000080: 74cb 2b3f 66f4 6bbd a65f 3f3f 7afa 603f
00000090: 40a3 12bf 966f 783f 5c68 573f 58ad 20bf
000000a0: e077 a9be a0bb 5d3f 7290 a53e 687c 3bbe
000000b0: b158 b73d baea 583f 9785 89be 8476 753f
000000c0: 4119 92be 69e5 5dbe
0.56176376 0.783469 -0.6940193 -0.8637957 0.018053366 0.8396889 -0.54497784 0.7814128
-0.2724867 -0.41045257 -0.39953744 0.9359194 0.8004957 -0.37341923 -0.31126797 0.74932975
-0.019344732 0.8402854 0.79632604 -0.13854665 0.90240127 0.8989224 -0.7074548 0.9823095
0.71628225 -0.17839797 0.24127677 0.8704703 -0.28856784 -0.08994179 0.23676576 -0.11394802
0.6710732 -0.057606123 0.7475532 0.87882197 -0.5728035 0.97045267 0.84143615 -0.627645
-0.3309927 0.8661442 0.32336766 -0.18309176 0.089524634 0.84733164 -0.26859733 0.95883965
-0.28534892 -0.21669544

classfier.bn2.running_var f4 [50]
00000000: c774 b33e feb8 cd3e e9cc 0e3f 6c8e 083f
00000010: 36d0 aa3e f0e6 bb3e 7f02 633e 4cdf b93e
00000020: 629f 853e b9dd 623e bec6 9c3e fdf8 d93e
00000030: bcc3 d83e 4902 913e 2b39 ad3e 323c da3e
00000040: 1649 5b3e 7e41 dd3e 4b91 c03e 96ed 553e
00000050: d768 e03e 37e8 e43e b6ee 6b3f d6ed e83e
00000060: eca1 ce3e 9daa de3e fa73 7e3e 9153 e03e
00000070: 5366 933e 015f 853e c3c4 bc3e 110b ef3e
00000080: 31a9 9c3e 1a6c 8c3e 31a2 c33e 87ef bf3e
00000090: e6b3 3c3f 3f65 033f 3511 ec3e 2c69 113f
000000a0: a130 203f 4652 ee3e 3a7b 793e 7e2d 803e
000000b0: cada ad3e 265a ec3e 1357 9d3e fa6c 073f
000000c0: 79f0 bc3e b0b5 9f3e
0.35050032 0.401802 0.5578142 0.5334232 0.33361977 0.3669963 0.22168921 0.36303174
0.26098162 0.22154893 0.30620378 0.42572775 0.42336833 0.28322056 0.33832678 0.4262405
0.21414599 0.4321403 0.3761085 0.20891413 0.43829986 0.44708416 0.9216112 0.45493954
0.40357912 0.43489543 0.24848929 0.43813756 0.28789005 0.26049045 0.36868867 0.4668813
0.30597833 0.27426225 0.3820968 0.37487432 0.73712003 0.51326364 0.46106878 0.56801105
0.625742 0.46547145 0.24363413 0.25034708 0.33955985 0.46162528 0.30730495 0.5290066
0.36902216 0.31193304

classfier.fc3.weight f4 [25, 50]
00000000: cfe9 543d bf5f c3bd 25bc 963d 7870 52bb
00000010: f4f6 e73c 0d1a 833d 2022 0ebd e59c 0e3d
00000020: c12c a1bd 9df4 9e3d af1b 66bc 7d9e 103e
00000030: 6389 883d 5d39 b9bd 0c18 af3d d79b 47bc
00000040: 1caf e9bc 8677 893d a224 b23d 0008 1d3c
00000050: b615 5f3e e514 1f3e fd2a 80bd 42a1 5ebd
00000060: 2a16 093b ba80 2b3d debe 523d 94dc 8fbc
00000070: d5d5 00bd 4cf0 0fbd 7e86 8a3d 1303 b6bd
00000080: ff88 163e 85b2 bdbd b2f7 d43d 1e03 3fbc
00000090: d56f a2bd 16da 2f3e 784d 0f3d 996f 09bc
000000a0: 596d 6c3d 2ffd e33c 302b d9bc 1a97 1bbd
000000b0: 52bf 4539 4af4 163d 9e4c e8bb 22e9 303e
000000c0: 8286 e03b 4e1c b5bc a2dc b93c 8e73 f6bd
000000d0: e2c0 a4bc f1dc 473d 42ff 3e3d df7c fb3b
000000e0: bb5e f0bc 985b 593c c3ad dd3c ac33 dd3d
000000f0: 2960 45bd 56f7 6cbd d564 68bd 49e9 293d
00000100: e131 19be 6de8 87bd d8fa 7ebd dbaa 61bc
00000110: a006 0ebb 39a2 07be 9bcd 4fbe 4c64 b4bd
00000120: b8a9 1d3e ca7f ac3b e0db 37be 9d98 3c3d
00000130: 6660 9d3c 797d 16be 83fc 9ebc fd67 debd
00000140: ad0f 3cbe d49b 373d d20e 92bd d460 d7bc
00000150: 23fa 02be db58 1dbe f084 703d 8fca 56be
00000160: 0269 1dbd 645d 8abd 4c99 b53d 3832 13bd
00000170: 5cee 1fbb e399 703d 983e 063e 72b8 3fbe
00000180: 682a 3b3e 42f8 13be bcb1 a83d 5e5c a13d
00000190: bb02 4abd 08dd 13bc 72e4 d5bd 8b84 243d
000001a0: b45c 913d 690a ecbc 3a20 0f3d 6968 32bd
000001b0: f1c1 7bbd 2ea0 d2bb 1985 b0bc 43a4 1bbd
000001c0: 1916 94bd ebad 363d 3330 a83d 79fa 1abd
000001d0: 476b ed3d a572 b8bd 407a acbd 18e7 b4be
000001e0: 33d4 d4bd 92ec 87bd 431f 76bd c8e0 8f3c
000001f0: e8cd ddbc b1d4 19bd 7ef6 193d e95c bfbd
00000200: ac96 a8bc 41f6 7d3d 8080 cebd 20fc 913d
00000210: f8fb 16bc b5ed 8cbd d12e d1bd 61ee 10bd
00000220: bc0b 90bd 5fd4 9ebd 710a afbd 4f46 d13d
00000230: 4bf6 8fbd 43ef a7bd 73eb d4bc 9466 0bbe
00000240: 391a a3be 5fbc 24bd 86b5 ba3c 4b63 f2bc
00000250: 4ab9 cd3c 36db 2fbe d078 d2bd 1b9a 7e3d
00000260: a2b9 8abd 1bf1 c13b 1a68 72bd 722f 06be
00000270: 646d 8fbb a6c8 eebd b638 7ebc 34fe 04bd
00000280: 637f 0ebd 17a9 05be d3fb c9bc a040 c63d
00000290: 22dd 00bc 11e9 c83a c651 923d 5ac7 0bbe
000002a0: acbc 53bc e78d b43d 3caa 02be 9296 1dbd
000002b0: 3666 183d b69c 0ebd 2911 e0bd e0c9 c53c
000002c0: 549d f1bc 5d57 77bd 1b79 e83c fae5 b4bd
000002d0: 60ce 31bd 3eae 0c3e 4fae 88bd 9767 02be
000002e0: bf76 aabd 5f67 b8bd 394e 233d 415f ccbd
000002f0: 3eca 14be c516 153d 7c10 e4bc a811 8cbd
00000300: 18c2 9c3d 2c57 e03d 2d6d 42bd e159 ffbd
00000310: 9148 3ebe 6ac8 6dbd dda0 81bd a911 95bc
00000320: 3649 1f3e b126 8abd 3b6d df3d dee3 163d
00000330: 6eb4 0fbd 24fa 383e f403 91bd 8c48 d83d
00000340: 853d d1bd 9ad6 b33d 785d bd3d 0615 3dbb
00000350: 7379 393e 16e3 9c3c ccc7 9ebd 54c0 623b
00000360: aa42 c1bd 26ad dd3d 726d 023e 5ea3 77bc
00000370: ed47 c13d 05f4 ac3d 8e34 833d 680a 4abd
00000380: ba61 52bc e3b7 1c3c b97c edbd 4626 0cbc
00000390: 5073 7ebd 3403 00be a1a9 30bd afba 8cbc
000003a0: 80d6 0f3e 6a85 c23d ddca e23d 2c5c 10bc
000003b0: f16e bb3d e174 6ebd 9df6 f73d f7bd 7c3c
000003c0: ba44 673d fa5d 5ebd 9779 463d 8425 0bbc
000003d0: 6f95 4c3d ed83 4c3e a5a3 183d cb72 123e
000003e0: a1fc 163d 64df c23c a78b bc3d d670 a8bc
000003f0: a09d 803c be31 ee3c e07d 8d3c 4364 093e
0.05198079 -0.095397465 0.073601045 -0.0032110494 0.028315999 0.06401453 -0.034700513 0.034817595
-0.07869864 0.077615 -0.014044686 0.14122958 0.066668294 -0.09044144 0.085495085 -0.012183151
-0.028525881 0.067122504 0.086983934 0.009584427 0.21785626 0.15535314 -0.06258199 -0.054353006
0.0020917752 0.04187081 0.051451556 -0.017561235 -0.031453926 -0.035141274 0.067639336 -0.08887305
0.14700697 -0.092625655 0.10398807 -0.011658458 -0.079314865 0.17173037 0.03498599 -0.008388423
0.05772147 0.027830688 -0.026509851 -0.0379859 0.00018858656 0.036854066 -0.0070892116 0.17276433
0.006851972 -0.022108223 0.022688214 -0.12033759 -0.020111505 0.04879469 0.04663015 0.007674798
-0.029342046 0.013266467 0.027060395 0.10800871 -0.04818741 -0.057853065 -0.056736786 0.041482244
-0.14960434 -0.066361286 -0.062250942 -0.013773645 -0.002167143 -0.13245477 -0.20293276 -0.088081926
0.15396774 0.005264257 -0.1795497 0.04604398 0.019211005 -0.14696302 -0.019407516 -0.10859678
-0.18365355 0.044826344 -0.07131733 -0.026291288 -0.12790732 -0.15365927 0.05872053 -0.20975707
-0.03843022 -0.06756094 0.0886713 -0.035936564 -0.0024403548 0.058740508 0.13109815 -0.18722704
0.18277895 -0.14450172 0.08237025 0.07878946 -0.04931901 -0.009024866 -0.10443963 0.040165465
0.0709776 -0.028813558 0.034942843 -0.043556605 -0.061464254 -0.0064277863 -0.02154784 -0.03799845
-0.07230777 0.044599455 0.08212318 -0.037836526 0.11592727 -0.09006242 -0.08421755 -0.3533256
-0.10392036 -0.06636919 -0.060088407 0.017563239 -0.027075723 -0.037556354 0.03758859 -0.09343893
-0.020579658 0.062002424 -0.10083103 0.07128167 -0.0092153475 -0.068812765 -0.10214008 -0.035383586
-0.07033488 -0.0775535 -0.085469134 0.102184884 -0.070293985 -0.081999324 -0.025991177 -0.13613349
-0.31855944 -0.040218707 0.022791635 -0.029588362 0.025112767 -0.17173466 -0.102769494 0.062158685
-0.06773688 0.0059186346 -0.05918131 -0.13104036 -0.004377054 -0.116593644 -0.015516451 -0.03246899
-0.034789454 -0.13052784 -0.024656212 0.09680295 -0.007865222 0.0015328248 0.07144503 -0.13650265
-0.012923401 0.08816128 -0.12760252 -0.038473673 0.03720685 -0.03481742 -0.10940773 0.024144113
-0.029493965 -0.06038605 0.02837806 -0.08832927 -0.043409705 0.13738343 -0.06673872 -0.12734829
-0.0832343 -0.090040915 0.03986952 -0.09979106 -0.14530274 0.036398668 -0.027839892 -0.06839305
0.07654208 0.10954127 -0.0474674 -0.12468315 -0.1858237 -0.058052458 -0.0632951 -0.018196898
0.15555272 -0.06745661 0.10909506 0.036838405 -0.03508418 0.18064171 -0.07080832 0.10560712
-0.10216812 0.087811664 0.092463434 -0.0028851642 0.18112735 0.019151252 -0.07752952 0.00345995
-0.09436543 0.10824041 0.12737063 -0.015114633 0.09437547 0.084449805 0.064065084 -0.04932633
-0.012840683 0.009565326 -0.115960546 -0.008554047 -0.06212169 -0.12501222 -0.04313052 -0.017178861
0.14046669 0.09498103 0.11073849 -0.008811038 0.0915202 -0.058216933 0.121075846 0.0154261505
0.056462027 -0.05428884 0.0484558 -0.008492831 0.0499472 0.199722 0.03726544 0.14301603
0.03686202 0.023788162 0.09206324 -0.020561617 0.015700161 0.029076453 0.017271936 0.13417153

classfier.fc3.bias f4 [25]
00000000: bd25 b837 7104 8bb9 0e95 cb38 e064 82b6
00000010: a31a 8239 a848 f636 72d0 4fb4 63ab 8eb6
00000020: d4e0 8937 d0ed 3d38 70ae 0035 f5fb f336
00000030: 3b8a aeba 8293 e435 7305 3fb5 2155 7b39
00000040: 1476 a6ba a462 bd32 712b 6939 8652 5fb8
00000050: 1775 81b6 80ba beb4 e0ec eb37 e6e3 0535
00000060: faee c635
2.1952083e-05 -0.00026515455 9.707558e-05 -3.8860453e-06 0.00024815378 7.3398296e-06 -1.9354209e-07 -4.251882e-06
1.6436366e-05 4.528259e-05 4.7937556e-07 7.271296e-06 -0.0013316342 1.7030254e-06 -7.1160974e-07 0.00023968938
-0.0012699985 2.2047352e-08 0.00022236795 -5.32442e-05 -3.8581306e-06 -3.5525954e-07 2.8124487e-05 4.9877997e-07
1.4821701e-06

classfier.bn3.weight f4 [25]
00000000: 6200 823f d04c a93f 722d ac3f 17c1 a23f
00000010: f913 803f 7ed7 843f 763b 873f ee9e 803f
00000020: d3f3 9f3f fe3c a23f 3031 9f3f ec79 ad3f
00000030: 88b6 863f 504d 843f 8f1a 833f 6746 a03f
00000040: 18d2 9e3f 079a 823f 46f1 833f 6ca4 853f
00000050: 454c ab3f 376b 853f 2fea 843f d037 8f3f
00000060: edf6 a63f
1.0156367 1.3226566 1.3451369 1.2715176 1.0006095 1.0378263 1.0565021 1.0048501
1.2496284 1.2674863 1.2436886 1.3552833 1.0524454 1.0336094 1.024248 1.2521485
1.2407866 1.0203255 1.0308006 1.0440803 1.3382651 1.0423344 1.0383967 1.1188908
1.3044106

classfier.bn3.bias f4 [25]
00000000: 9b8a 4cbd 5264 af3e f295 ae3e 7e4c 953e
00000010: d050 6bbd 0b82 47bd e7f2 02bd 8646 74bd
00000020: 5827 863e 117a 903e 687b 8c3e 6d3d b93e
00000030: 15e6 02bd 58f8 50bd 0f2a 2abd 26ff 8b3e
00000040: 3e52 863e 98d7 4bbd 2a83 40bd a059 0fbd
00000050: 0ebc b03e 079a 37bd 71c6 3dbd f93b 1d3c
00000060: 39a7 9e3e
-0.049936872 0.34256226 0.34098774 0.2915992 -0.057450116 -0.048708003 -0.03196993 -0.05963757
0.26201892 0.2821813 0.27437901 0.36179677 -0.031957705 -0.05101809 -0.041544016 0.273431
0.2623462 -0.049766153 -0.047000088 -0.034997582 0.34518474 -0.044824626 -0.046331827 0.009596818
0.30986956

classfier.bn3.running_mean f4 [25]
00000000: 3582 c73e 40fa 00bf dcdf 36bf 7fdf 15bf
00000010: 4e40 053f 88c0 e33e fa53 d53e f5b9 a13e
00000020: 494b 02bf 6c49 ebbe 0400 28bf 5eca 25bf
00000030: 9e56 103f 2999 953e d444 d03e d25a 0fbf
00000040: 32a5 febe 7f84 d13e 211e b53e cc87 eb3e
00000050: 5ef8 4cbf 45d7 f23e 98f3 c43e 5ad8 d73e
00000060: fade 18bf
0.38966528 -0.5038185 -0.7143533 -0.5854415 0.52051246 0.44482827 0.41665632 0.31587186
-0.50896126 -0.45954454 -0.65625024 -0.6476191 0.5638217 0.29218414 0.40677512 -0.55997956
-0.4973541 0.409214 0.3537455 0.46002042 -0.8006648 0.47429863 0.38467097 0.4215725
-0.59715235

classfier.bn3.running_var f4 [25]
00000000: 21f1 9b3f 7195 0540 f451 753f 0fbf c83f
00000010: a753 8e3f 2fb3 e23f f5e9 bd3f 4651 af3f
00000020: 6378 9f3f 9702 573f 4931 b23f 0545 923f
00000030: 85c4 0340 060c 6c3f 86c7 8e3f 4c91 cc3f
00000040: e746 ac3f ce96 aa3f 5730 943f f375 9d3f
00000050: 6135 ed3f bb85 b73f 40d7 cc3f dfff c13f
00000060: 0af6 823f
1.2182962 2.0872462 0.95828176 1.5683306 1.1119279 1.7710932 1.4837023 1.3696678
1.2458614 0.83988327 1.3921291 1.1427313 2.0588696 0.92205846 1.115464 1.5981841
1.3459138 1.3327272 1.1577252 1.230162 1.8531915 1.4337686 1.6003189 1.5156211
1.0231335

classfier.fc5.weight f4 [1, 25]
00000000: 2470 2b3e 3119 94be df71 81be a560 a1be
00000010: da72 123e 7a6e 5e3e b245 423e 8429 533e
00000020: f383 dabe e5a0 54be 12d6 41be 75a3 85be
00000030: 5839 1e3e 0587 3f3e b4aa 523e f923 abbe
00000040: 3697 d5be 3cd6 403e 8c26 f13d 8c59 083e
00000050: 568f 8fbe f62e 6d3e 3226 463e 59d0 be3d
00000060: 9c0d a3be
0.16741997 -0.2892547 -0.2528219 -0.31519046 0.14301625 0.21721831 0.18971899 0.20621306
-0.42678794 -0.20764501 -0.18929318 -0.2610127 0.15451562 0.1870385 0.2057293 -0.33425882
-0.41716927 0.18831724 0.1177493 0.1331541 -0.28039044 0.23162445 0.19350508 0.09317083
-0.3184632
