src/trained_models/2025-06-22/run_21-07-11/dnn_ensemble_model.pt (torch, 76083 bytes, 19 tensors)

classfier.fc1.weight f4 [100, 100]
00000000: 419b 1cbc 5d84 22bd f0f7 253e c521 e4bb
00000010: 8eb5 093d 64d9 bdbb 6c59 62bd 9391 94bd
00000020: e3af c9bc 5392 163d 3e18 35bd a24b 1cbc
00000030: 142d 0f3d 7065 f1bb 302b fb3c 5004 343d
00000040: 267f f7bd f384 44bd e616 763c 5375 5dbd
00000050: 3028 71bd 4972 c5bc 8728 9b3a 8cbe 7fbd
00000060: e812 0a3d eb93 9c3c 49cc f4bc 471d 813b
00000070: 5e4a 1d3d 1f7b 0c3e 66fc f43c b80b 74bc
00000080: 2872 51bd 39f5 80bc bd56 0dbd ced5 16bd
00000090: 1825 523c bae7 153d 691b fd3d ff97 84bd
000000a0: cecf 7c3d b3f2 98bd c87b 0a3e 318d b7bd
000000b0: 6940 b13d c601 3b3c a2c1 123d 21a2 c8bd
000000c0: 0e84 34bd 8e94 573d f2c7 b23c aaf5 af3d
000000d0: 4124 003a e603 4fbd 0128 9abd bf4b 9fbd
000000e0: 92b8 babd a21f cd3a bb59 43bc fa9d 8cbd
000000f0: 8be3 e53a c620 43bd 9a0c 27be c856 0fbd
00000100: f4fb 5abc c936 933c b4de 24bd 6cdb de3d
00000110: b942 963d cea9 e9bd 29e1 403c c718 3a3c
00000120: c3b1 87bd db47 8e3d 3863 e2bd 255f 2b3d
00000130: ee1d edbd 1840 8fbd 4d51 66bc 5e6d 87bd
00000140: 1abc d33d 8ee1 143b 88e5 d13c ef38 153c
00000150: a14b 863d e873 0cbc a7ba 183e 4869 cb3d
00000160: 7a25 14bd 4cc3 203c 4a38 86bd 657e 9c3d
00000170: 4faa 86bc 808c f5bd 12f2 ad3c e822 9d3c
00000180: 21dc 663d 8ba0 c13d fb63 973c d75d 89bd
00000190: 43f7 463c d23c a8bd 3bd1 d23d 76d9 1dbd
000001a0: e8d0 093d 5069 643c 74e6 98bd 0d6d da3b
000001b0: 92ff b7bc b1c8 0ebd c843 093d d7ca a5bd
000001c0: c6e2 47bd 67a5 7abc 8742 bf3d c562 71bd
000001d0: c781 d63c 69dc f03c 8806 513d 5066 6bbd
000001e0: 153e 9b3c 208e dd3b 36ca 63bd a822 20bd
000001f0: 5503 56bd 44eb d63d 0883 b8bd 46b8 28bd
00000200: 8ff4 e8bc b130 2b3d df21 313d 3351 5dbd
00000210: 883d 0cbd e63e a13d f376 abbc 6a0c c6bc
00000220: f075 c8bd f476 95bc b493 8c3d 73c2 23bc
00000230: efc8 a9bc 4e1a 4a3d 43b0 883d 2624 c8bc
00000240: 5159 2f3d 0293 edb8 942d 8b3c b7f1 c53b
00000250: 2809 eebc c4f5 473d 59a1 08be 48a2 cf3d
00000260: 52db 06bc 6ac4 993d efba 02be bb47 74bd
00000270: b6c4 b5bb 87ca 723d 2d01 bf3b d02d 8dbc
00000280: e322 f43d 0a70 b13d 1c41 033d 90d2 553d
00000290: 1748 67bb 34df 4bbd c8e9 a43d 555c a63d
000002a0: 3555 cc3c 4192 1bbe 9b7c 90bc 2b57 2f3d
000002b0: e9b8 1abd 5dd4 553d 0558 fd3d 3e60 41bc
000002c0: cdfa 0bbd 9184 9fbc 446d 6bbd 9d30 6bbd
000002d0: 43de 91bd dfbb 353d 3431 e73c e812 723d
000002e0: ad8d a7bd fe1b 03bb 870e 8f3d 1906 e43d
000002f0: 0678 cebb 8dbf 31bd 0f8e bb38 b8e0 00bd
00000300: 8d00 6abc 6dad 83bd 2650 223d a9e2 c23d
00000310: 3370 943d 5052 e5bc 76cb 83bc 983a 3fbd
00000320: c5ed 3ebd efec b93d 56e7 4c3d c253 973d
00000330: 4a78 893c 526a a83b a807 bd3d 6c12 883d
00000340: b733 8abc 612d b0bb fe2e c23d e38c 2c3d
00000350: c690 1a3d 16c7 203d d449 f33d ad93 783d
00000360: b3f5 d5bd fd64 e33c 06cb 5ebd 5c9c c3bd
00000370: d553 0b3e ac9a 0dbd 6384 bfbd 8f2e 013c
00000380: 1a7d 8ebd 0519 39bc b2c7 aabd f44e 863d
00000390: 38f2 a2bc 541e 8fbd 2f73 be3d 4070 12bd
000003a0: 3c5b 06bd 24b3 413d 7bcc 7ebd 4daa 81bd
000003b0: f076 43be fd4c 553d 9772 5d3c 578b 8a3d
000003c0: 9d59 2bbd 8099 3dbd decc dabc 0cc0 58bd
000003d0: 22b3 cd3d 56b4 ef3d e152 083e 458e 4abd
000003e0: 0ce1 67bd 05ce 003d cbab 89bd ab60 f2bc
000003f0: f653 3b3d f0ff 83bd 1c07 aabc 5d43 47bc
-0.0095585 -0.039677013 0.16207862 -0.0069620335 0.03362041 -0.0057937372 -0.05526106 -0.072543286
-0.024620002 0.03676064 -0.044212572 -0.009539517 0.0349551 -0.0073668286 0.030660242 0.043949425
-0.120847985 -0.047978353 0.015020108 -0.054066967 -0.058876216 -0.024102347 0.001183764 -0.06243758
0.033709437 0.019113502 -0.029882567 0.0039402577 0.038401 0.13718842 0.02990551 -0.014895372
-0.05113426 -0.015741931 -0.03450655 -0.036824994 0.012826227 0.036597945 0.12358744 -0.064743035
0.061721615 -0.07468166 0.13523781 -0.08962477 0.086548634 0.011413997 0.035829194 -0.09796549
-0.04407125 0.052631907 0.021823857 0.085917786 0.0004888215 -0.050540827 -0.075271614 -0.07778119
-0.09117235 0.0015649686 -0.011923249 -0.06866069 0.0017539127 -0.047638677 -0.16313401 -0.03499487
-0.013365734 0.01797046 -0.04025145 0.10881695 0.07336945 -0.11409341 0.011772432 0.011358446
-0.06625702 0.06947299 -0.11054081 0.041838784 -0.11577974 -0.06994647 -0.01405747 -0.06612657
0.10338612 0.002271745 0.025622144 0.009107812 0.06557394 -0.008572556 0.14914952 0.0993219
-0.036168553 0.009812187 -0.06553705 0.07641295 -0.016438631 -0.11989689 0.021233592 0.019181684
0.056362275 0.09454449 0.018480292 -0.06707352 0.012143913 -0.082147256 0.10293814 -0.038537465
0.033646494 0.013941124 -0.074658304 0.006665832 -0.022460733 -0.034859363 0.033511907 -0.08095329
-0.048800252 -0.015298224 0.09338861 -0.058932085 0.02618493 0.029401975 0.05103162 -0.05747062
0.018950501 0.0067613274 -0.055612765 -0.03909555 -0.05224927 0.10494092 -0.09009367 -0.04119136
-0.028436927 0.041794483 0.043245193 -0.054032516 -0.03423837 0.07873325 -0.020930743 -0.024175841
-0.0978812 -0.018245198 0.0686411 -0.009995091 -0.020725695 0.049341492 0.06674244 -0.0244313
0.04280979 -0.00011328423 0.016989507 0.0060407775 -0.0290571 0.048818365 -0.13342799 0.101383746
-0.008231001 0.07508166 -0.12766622 -0.05963872 -0.0055471314 0.059275176 0.0058289976 -0.01723376
0.119207166 0.08663948 0.032044515 0.05220276 -0.0035290772 -0.04977341 0.08052403 0.0812308
0.024942974 -0.1519251 -0.017637542 0.04280774 -0.037774 0.05220448 0.12370304 -0.011802731
-0.03417473 -0.019472392 -0.05747725 -0.057419408 -0.07122471 0.04436862 0.028221704 0.05910006
-0.081813194 -0.0020005698 0.06985193 0.111339755 -0.006300929 -0.043395568 8.943315e-05 -0.03146431
-0.014282358 -0.06429563 0.039627217 0.09515888 0.07247963 -0.027993351 -0.016088229 -0.04668674
-0.046613473 0.090783946 0.050025307 0.073890224 0.016780991 0.0051396275 0.09229976 0.06644139
-0.016870363 -0.0053765033 0.09481619 0.042126548 0.037735723 0.039252363 0.11879316 0.06068771
-0.10447254 0.027758116 -0.054392837 -0.095513076 0.13606198 -0.034571335 -0.09351423 0.007884636
-0.06957455 -0.011297469 -0.0833887 0.06558028 -0.01989089 -0.069882065 0.09299313 -0.03575158
-0.03280185 0.047289982 -0.062206727 -0.063313104 -0.1908834 0.052075375 0.01351609 0.06764858
-0.04183351 -0.046288967 -0.026709016 -0.052917525 0.100439325 0.11704318 0.13312866 -0.049452085
-0.056611106 0.031446476 -0.0672222 -0.02958711 0.04573437 -0.064453006 -0.020755343 -0.012162057

classfier.fc1.bias f4 [100]
00000000: b01b eeb7 99cb ebb7 6021 09b6 228b 3e36
00000010: d1ae fe35 e40e ef36 1c76 45b6 4e96 4035
00000020: e6a2 4237 0f97 c536 3cea b035 aabf f5b5
00000030: c5c0 8137 f9a7 2cb7 58e4 fbb6 1881 9db7
00000040: 2992 b837 d4b7 0f37 9030 4ab5 e3dc 19b5
00000050: a77f 2836 947b 55b5 e9d3 45b8 6954 9f36
00000060: 54ad 1ab6 5263 87b6 a8b5 c7b6 03e8 f6b6
00000070: f4bd 34b5 27f9 e535 e01b 25b6 209f aa35
00000080: 319b f1b3 b1a3 fcb5 f5b0 30b5 1194 4935
00000090: 4588 4f36 4102 6ab6 6c94 2d36 0693 30b7
000000a0: 7c45 7fb7 65ec 35b7 5364 6db7 72cc 2238
000000b0: 8cef 60b5 385a 8a36 2721 4737 6faf 1636
000000c0: 3868 93b6 c5cf e237 2b09 b2b6 1f45 12b7
000000d0: cc70 cfb6 5732 8737 f76b 06b9 c76a 7eb7
000000e0: be57 8a36 c786 5136 8d0d ac37 c57a 8836
000000f0: e018 c0b5 95cc a6b5 8fdd 3d36 9ec0 7d34
00000100: 8634 0d37 5a07 adb7 aa84 ff36 61e6 0136
00000110: 48aa 06b7 adf8 96b7 ef80 a436 d798 6cb5
00000120: 8ed3 5cb6 3eda 4db6 a79a 5bb6 3720 1337
00000130: 2663 0337 364b b6b5 f39a 34b6 0423 c9b6
00000140: 1f96 78b6 06b8 d9b6 7079 a6b6 16db feb6
00000150: 4aec 0335 4831 76b6 eab3 92b6 d89e 17b8
00000160: 995c 1cb6 0bf0 98b7 c86b 7d36 f466 4736
00000170: f27f 9fb7 f2dc fb35 a6d5 19b6 21c6 85b6
00000180: e71c dfb4 45e9 c1b5 2fb9 b036 854c 0d36
-2.8384704e-05 -2.810899e-05 -2.0434018e-06 2.8393192e-06 1.8975353e-06 7.1244885e-06 -2.9424036e-06 7.1744296e-07
1.1601229e-05 5.888643e-06 1.3181193e-06 -1.8309704e-06 1.5467764e-05 -1.0291108e-05 -7.5069656e-06 -1.8775972e-05
2.200257e-05 8.566265e-06 -7.532153e-07 -5.7318374e-07 2.5108254e-06 -7.9528513e-07 -4.7165817e-05 4.748396e-06
-2.3048678e-06 -4.034876e-06 -5.9518097e-06 -7.358381e-06 -6.7331644e-07 1.7134342e-06 -2.4603141e-06 1.2712298e-06
-1.1250666e-07 -1.8823104e-06 -6.5822616e-07 7.50938e-07 3.0924723e-06 -3.487003e-06 2.5865402e-06 -1.0524649e-05
-1.52153625e-05 -1.0843481e-05 -1.4149659e-05 3.8814214e-05 -8.379509e-07 4.1232233e-06 1.1869043e-05 2.2453858e-06
-4.393074e-06 2.703805e-05 -5.3058807e-06 -8.718372e-06 -6.182212e-06 1.6116695e-05 -0.00012819456 -1.5164441e-05
4.122935e-06 3.1221878e-06 2.0510308e-05 4.067408e-06 -1.4312354e-06 -1.2427505e-06 2.8292159e-06 2.3632535e-07
8.416484e-06 -2.062663e-05 7.6150363e-06 1.9356596e-06 -8.026669e-06 -1.7997192e-05 4.9025907e-06 -8.813926e-07
-3.2905696e-06 -3.0674414e-06 -3.2723563e-06 8.769383e-06 7.831293e-06 -1.3581946e-06 -2.6912282e-06 -5.994343e-06
-3.7042262e-06 -6.488527e-06 -4.9613227e-06 -7.595295e-06 4.914515e-07 -3.6685542e-06 -4.372084e-06 -3.614914e-05
-2.329971e-06 -1.823159e-05 3.7762675e-06 2.9713237e-06 -1.9013856e-05 1.8765261e-06 -2.2923136e-06 -3.986774e-06
-4.1558016e-07 -1.4447511e-06 5.266767e-06 2.1055178e-06

classfier.bn1.weight f4 [100]
00000000: d0a1 793f 0ad0 663f 0389 753f 4618 6c3f
00000010: b7b4 733f d326 693f 052b 693f 3449 893f
00000020: fafb 833f 7311 733f 6e9b 913f ce51 713f
00000030: 2113 8c3f 076e 6c3f fafb 6f3f c22b 773f
00000040: fbb9 7c3f e4b2 6f3f 2fd9 633f c121 6c3f
00000050: 0113 763f cd85 733f 4fab 763f 7b5d 723f
00000060: c297 7c3f 5cce 7e3f 0cd5 713f 5813 763f
00000070: 9e13 6d3f b803 633f d9e6 813f cea4 983f
00000080: c066 5f3f 8714 6e3f 8511 673f b0e1 7e3f
00000090: 6871 6b3f 63ce 6f3f bf3d 813f 22f8 793f
000000a0: 2595 8c3f 76b4 6d3f 3c7d 763f 4d57 953f
000000b0: 9196 7b3f a0e2 763f d9ca 703f 46fc 723f
000000c0: b2c5 6d3f 8483 703f 2485 753f e6f0 7a3f
000000d0: 059f 743f 85bf 8e3f 3996 793f 7f51 893f
000000e0: 0924 8d3f 5b82 6b3f e8a2 773f b335 723f
000000f0: dd40 6d3f 7e5b 8b3f 68d6 863f c150 683f
00000100: 6eb0 763f dec9 863f c40e 643f cf48 693f
00000110: 3943 6d3f 834a 6a3f 1142 753f 4ec9 653f
00000120: 50e0 603f 7444 723f 3e6e 773f 012a 7f3f
00000130: a5b5 723f d8d0 6f3f 8bd7 723f 2708 793f
00000140: 92aa 673f fe97 6f3f 24ce 703f a48b 693f
00000150: 9e10 6b3f 8cac 7b3f dcfa 643f da6c 8a3f
00000160: 62cd 643f 92d0 7c3f 1937 773f 64f9 853f
00000170: 9685 713f 52a1 803f 89c1 683f 4b9b 683f
00000180: 46ed 6d3f 832f 673f abc8 703f b142 7c3f
0.9751253 0.9016119 0.9591219 0.9222454 0.95197624 0.91074866 0.9108127 1.0725465
1.0311272 0.949485 1.1375558 0.9426545 1.0943338 0.9235539 0.9374386 0.96551144
0.98721284 0.9363234 0.8900327 0.92239004 0.9612275 0.9512604 0.96355146 0.9467389
0.98669064 0.9953363 0.9446571 0.96123266 0.9260806 0.8867755 1.0148574 1.1925294
0.8726616 0.9300007 0.9026111 0.9956312 0.9196992 0.93674296 1.0096968 0.97644246
1.0983015 0.92853487 0.9628484 1.1667267 0.9827662 0.9643955 0.9405952 0.9491619
0.92879784 0.93950677 0.9590628 0.9802383 0.95555145 1.1152197 0.97494847 1.0727996
1.1026622 0.9199578 0.9673295 0.9461319 0.926771 1.0887296 1.0534182 0.9074822
0.9636296 1.0530355 0.8908503 0.9112672 0.926807 0.91519946 0.95803934 0.8976029
0.87842274 0.946357 0.9665259 0.9967347 0.9480842 0.93678045 0.9486014 0.97278064
0.90494645 0.93591297 0.94064546 0.912287 0.9182223 0.9831016 0.8944528 1.0814469
0.8937589 0.98755753 0.9656845 1.0466733 0.9434446 1.0049231 0.9092031 0.9086196
0.92940176 0.9030687 0.94056195 0.98539263

classfier.bn1.bias f4 [100]
00000000: caf7 96be bb0d 81be 7f70 9abe b5fb e1bc
00000010: 6eb4 81be 286a afbe 8a6e b4bd db55 61be
00000020: d616 03bd 2830 36be c829 06be fe88 b0bd
00000030: 4748 26be 23c2 6dbd 8c7f bebd 5d48 37bd
00000040: c1ad 3bbe d6fd 95be 6602 0abe 5983 05be
00000050: 1d4e 5a3d 06d6 df3c d6e0 87be f3cb acbd
00000060: 122c b5bd d401 47bd e2d5 6bbd 8491 aebe
00000070: beb7 263a c2c3 993b e60e 80bd 6759 80bd
00000080: 3d0a 26bd c574 fdbc 5a55 13bd 2b65 8dbe
00000090: 4c54 34be fb84 01be 36a9 6fbd 9d9d 84be
000000a0: 35aa c9bd c246 90be 8362 a1bd ce77 c5bc
000000b0: 4c21 79be 0ba0 99be e02f 40be a2db cfbd
000000c0: 0c85 82be a503 90be 981b 4ebe ad82 2abe
000000d0: 7fcf 00be 13d0 73bd a490 9fbe d942 f8bd
000000e0: 061f 16be a0b1 39be eee8 5ebe e1d1 85be
000000f0: c801 01be 9e1c efbd 1e88 aa3c 526a b6be
00000100: c255 9ebe 1c96 0dbe c6a4 b6bc a0de 983c
00000110: 62b0 3dbe d090 c0bd 64f8 a5be 2806 81bd
00000120: ae2b 1fbe ec79 9ebc fa05 aebe e2ac ccbd
00000130: 29e2 9cbe f152 3ebe a9fa 8abe 67c7 78be
00000140: ae98 7bbe 06da 64be 88e8 0cbe a94a 89be
00000150: 2f51 83be 6465 acbd 4f05 48be 72b9 20be
00000160: 3cdb a4bb 9f99 a4be d865 16be 3e11 d9bd
00000170: a77e a6be a1b5 07be 832d 08be 6d87 3ebe
00000180: ed19 0f3d efe5 94bb cda2 b7be 5f65 8dbe
-0.29485923 -0.25205788 -0.30163953 -0.027585844 -0.2533297 -0.34260678 -0.08810146 -0.22005408
-0.0320042 -0.17791808 -0.13101876 -0.08619879 -0.16238509 -0.05804647 -0.093016714 -0.044746745
-0.18328 -0.29295224 -0.13477477 -0.13038386 0.05329715 0.027323734 -0.26538724 -0.08437338
-0.08846296 -0.048585728 -0.05757702 -0.34095395 0.0006359777 0.0046925256 -0.06252842 -0.06267052
-0.040537108 -0.03093947 -0.03597007 -0.27616248 -0.17610282 -0.12648384 -0.05851098 -0.259015
-0.098469175 -0.28178984 -0.07880118 -0.024104979 -0.24329108 -0.30004916 -0.18768263 -0.101493135
-0.25492132 -0.2812778 -0.20127714 -0.16651411 -0.12579153 -0.059524607 -0.3116504 -0.12122125
-0.14660272 -0.18134165 -0.21768543 -0.26136687 -0.12598336 -0.1167538 0.020816859 -0.3562799
-0.30924803 -0.13826793 -0.022295367 0.018660843 -0.18524316 -0.09402621 -0.3241607 -0.06300002
-0.15544006 -0.019345246 -0.33988935 -0.09993912 -0.30641297 -0.18586327 -0.27144364 -0.24294816
-0.24569961 -0.22348794 -0.13760579 -0.26814774 -0.25647876 -0.08417776 -0.19533275 -0.15695742
-0.0050310176 -0.32148454 -0.14687288 -0.10598992 -0.32518503 -0.1325288 -0.13298611 -0.18606348
0.034936834 -0.004544012 -0.35866395 -0.27616403

classfier.bn1.running_mean f4 [100]
00000000: 81a6 78be eb71 48be 981a 4dbc f4c9 303e
00000010: 790a 97bd 428d 71be b263 be3e 2d9a 34be
00000020: 14a2 e93d d5c8 77be 05c0 20be 0cfb 98bd
00000030: f1e0 3dbd 1139 653e 4e14 1bbf 8490 253f
00000040: 80cd 1c3d 722b 8abe da6b 4e3f 96e2 823e
00000050: d0c2 e73e 56c2 f93e ff1a 8bbe b929 963d
00000060: e370 8cbf 8632 fa3d e58a 123f 6cb5 88be
00000070: c6c2 1ebf 0124 b63f 5a3b d4be 131c ddbd
00000080: 68be 4d3f 33d4 cd3e 181e 873f 5ce7 96be
00000090: d07a dcbc 3b93 363f 83e9 69bf 7ac8 67be
000000a0: ccad 5fbe 37bc 27bb 94f6 bd3e 8463 0abd
000000b0: 0c16 4fbe da0d 38be fc42 b9be 9697 1cbf
000000c0: e51c 72be cd21 73be c0b0 a3be 7856 2cbe
000000d0: 4b04 abbe 1ba4 153d 070c 2cbe d799 1dbf
000000e0: dba3 9f3d 967e b8be e2df d0bc 5d0d 01be
000000f0: 34a7 1dbf fc6e 57be 0a99 0bbf d945 433e
00000100: 5d1a 4dbe f7a3 5d3e e17b bc3e 63a3 d23f
00000110: ef55 4a3e 2eca a33e bda0 cdbd a7b0 a73e
00000120: 6e0a e83e cf73 893e b3f7 c1be 5977 453e
00000130: 81df 8ebd 2738 99be 9aa9 8dbe 2cf4 67be
00000140: b737 2ebe a3fa 4dbd 7c19 353f 250e c3be
00000150: 2079 e4be 29b2 6d3e 0c68 86be e750 86be
00000160: 75b9 1a3e ec4d ccbd 1033 c23e 336e 823d
00000170: 53c1 a3bd 1002 d5be 1e25 1c3e b3b5 b6be
00000180: 52f4 d03f eced fc3e 20ca 6d3d 57a6 68be
-0.24282266 -0.19574706 -0.0125185475 0.17264539 -0.073750444 -0.23589042 0.37185436 -0.17636938
0.11407867 -0.24197705 -0.1569825 -0.074697584 -0.0463571 0.2238505 -0.6057786 0.6467364
0.038281918 -0.2698627 0.8063332 0.25563496 0.45265818 0.4878108 -0.27169034 0.07332177
-1.097195 0.12216668 0.57243186 -0.26700914 -0.6201595 1.4229738 -0.41451532 -0.1079637
0.8036866 0.40200958 1.0556059 -0.29473388 -0.02691403 0.71318406 -0.91371936 -0.2263507
-0.21843642 -0.0025594363 0.37102187 -0.03378631 -0.20223254 -0.17974034 -0.36183918 -0.611688
-0.23643835 -0.23743363 -0.31970787 -0.1682986 -0.33401713 0.036533456 -0.16801463 -0.61562866
0.07794925 -0.36034077 -0.02549738 -0.12602754 -0.61583257 -0.21038431 -0.54530394 0.19069614
-0.20029588 0.21644579 0.36813262 1.6456112 0.19759344 0.31990188 -0.10040424 0.32751963
0.45320457 0.26846167 -0.37884292 0.19283809 -0.06976224 -0.29925653 -0.27668458 -0.22651738
-0.17013441 -0.050287854 0.7074201 -0.3809673 -0.4462366 0.23212494 -0.26251256 -0.262336
0.15109809 -0.099758 0.37929583 0.06368675 -0.07995858 -0.41603136 0.15248534 -0.356855
1.6324561 0.4940027 0.05805409 -0.22719704

classfier.bn1.running_var f4 [100]
00000000: febe 013d 0625 3d3d 8da4 243d cac5 523d
00000010: ea65 723d bf55 093d 6486 143e a41c 3f3d
00000020: e5c6 5d3d 120f 033d f549 e93c 13e1 5f3d
00000030: ecd7 433d 565e cc3d 2c17 023e 1cc0 b23d
00000040: 8f3f 0b3d ef4c 053d 9915 253e f66c cb3d
00000050: c45c c33d 63b4 ed3d bc88 1a3d e1ad 5b3d
00000060: 7b82 b03e 6d37 483d 8073 b63d 105c e23c
00000070: c763 953e 7eb8 3d3f 3d41 0e3e 8c25 3b3d
00000080: b00b 913e f57c 8a3e 9019 b73e 69f5 e73c
00000090: 39d0 863d 066a 073e 6e54 c93e e9c7 7b3d
000000a0: f2dc a93d 9159 163d 9875 443d 55a8 ac3c
000000b0: e52b a73d 6b66 e83c e777 623d c262 963e
000000c0: 7c5d 5c3d 40d9 ec3c 12e6 4c3d 9c1e 013d
000000d0: 1b4b 853d 7580 433d 5b6f bd3c b0d3 fb3d
000000e0: 86d7 b83c a60c b53d e26f 263d a864 663d
000000f0: 291a ba3e 35d9 0e3e 83ac 7f3e df54 4e3d
00000100: 8eb3 463d 7e63 063d a4bd cd3d 30a2 153f
00000110: 07cd 133d ffa3 c63d 9e0e 263d 67b3 cf3d
00000120: 19fa 9b3d 9330 5d3d 45e1 4f3d b261 393d
00000130: b886 2a3d 9696 213d 4e3e 333d cb34 253d
00000140: de48 883d d133 f53c 5540 bd3d d6da 373d
00000150: 6c2f d03d b586 503d 3d21 113d 2fd4 003e
00000160: 86c2 473e 07b2 8f3c cd34 8d3d dd1f 453d
00000170: 7da1 be3c 5b3c 143e aec6 9f3d f76c 7f3d
00000180: 05a4 413f 6a36 083e f349 3d3d df48 e03c
0.031676285 0.046177886 0.04019599 0.051458158 0.059179224 0.03352904 0.14504391 0.046658173
0.05414476 0.031996794 0.028477648 0.054658007 0.04781334 0.09978931 0.12704152 0.08728048
0.03399616 0.032544073 0.1612152 0.09932892 0.09539178 0.11606672 0.037728056 0.05363262
0.3447455 0.048880983 0.089087486 0.02763179 0.29177687 0.7410964 0.13892074 0.045690104
0.2832923 0.2704846 0.3576169 0.028315263 0.06582684 0.13224038 0.39322227 0.061469946
0.08294095 0.03670651 0.04796371 0.02107636 0.08162669 0.02836915 0.05529013 0.2937222
0.05380009 0.028912187 0.0500241 0.031523332 0.06508466 0.047729928 0.023124387 0.122962356
0.022563707 0.08840303 0.040634044 0.056248337 0.36348084 0.13950045 0.24968152 0.050373908
0.04851108 0.032809727 0.10045937 0.58450603 0.0360842 0.096992485 0.040541284 0.1014164
0.07616062 0.054001402 0.050751943 0.045259185 0.041632384 0.03945025 0.04376059 0.04033355
0.06654523 0.029931935 0.09240786 0.044886433 0.10165295 0.050909717 0.03543209 0.12580942
0.19507799 0.017540945 0.068948366 0.04812609 0.023270363 0.14476149 0.07801567 0.062359776
0.756409 0.13302007 0.0462131 0.027378498

classfier.fc2.weight f4 [50, 100]
00000000: 63e2 95bd 6eea e23a 4bb5 7cbc a29e 733d
00000010: 7efd 083d 8f62 85bc fcab 11bc b53c 02bc
00000020: 79f3 8b3d 2345 c8bd 237a ef3b 2106 b13c
00000030: 7936 c9bd a4b8 d6bc 2cc2 5d3d 9831 9dbc
00000040: 4a65 6a3d 6191 5bbd cdce 09bd 9713 c9bc
00000050: 3515 b33d d730 f73b 875f 08be 2736 2fbd
00000060: c52a 02be 6193 0f3d 4ecd 8ebb 6beb 63bd
00000070: 5ca9 86bd 48c7 fb3b 5c70 35be cf1e 0bbe
00000080: 7fe6 03bc fedf 3a3d 96f9 ffbc a138 6dbd
00000090: 38b2 fabc 635b 10bd 2b0c 64bc c6de e4bd
000000a0: 4e5e 223c aa3f 84bc b7a1 2b3d 002e 97ba
000000b0: 30bc 9bbd fbf2 703d acbc 753a 18b8 a7bd
000000c0: 22e3 a5bd bcf4 4fbd 5f19 1ebe f419 803d
000000d0: 23c9 bfbc f6e7 fabc ba5a 29bd 7eb8 e4bd
000000e0: 6085 5ebd bd78 4e3c bb1d 3fbb 4860 013d
000000f0: a54f ba3c c74a 02be 3f3f 4dbe ab88 77bc
00000100: fefe 223c 6dfb 863d 4cef 92bc af0c 983c
00000110: 40f7 e7bd 7c07 e0bc d6a0 2a3c ef16 0abd
00000120: d6c2 1ebd 2f52 55bc 67bf 1dbc c84a 203d
00000130: 08a2 6ebd 5ebb fcbc 082e c6bd ca1d ebbd
00000140: 6425 81bd d39c b2bd 4a89 2e3d 7b20 203d
00000150: f356 193b 7105 b53d de97 7ebb f79d 0ebd
00000160: 8085 c5bd 8d09 d63c 6581 413d 3aba 543d
00000170: f8fe 27bd 09e1 7dbd 0a45 a8bc ca92 85bd
00000180: c061 93bc a6b9 02bc 2a55 5a3d 9968 4abd
00000190: 1fc5 903d 628d 743d 2ab5 20bd c9e8 173a
000001a0: 7643 653d c6ce b13d 759e 64bd b7ff abbd
000001b0: 2ebf 1f3d 0d4a fa3c 79b7 09be 5712 fc3c
000001c0: bcf4 0cbe 2967 003b abb8 0a3d 38d5 cbbb
000001d0: 336f 3bbc 0250 873d e2c7 153c e2cb c03d
000001e0: 1885 9f3c 9917 b3bb 41a1 da3d 9edd 1cbd
000001f0: c827 ad3c 527f 06bb f575 1d3c ea2c 743d
00000200: 8401 0e3d e945 393c 80ad 073d b2a3 21be
00000210: 2202 50bb f2fe 0e3d c87f 4dbd cc66 813d
00000220: ad76 54bd 9993 c2bd f1f8 c9bb 1af5 b73b
00000230: 78dc 16be 8985 eb3c 9105 6fbd 5b8d 02be
00000240: ce0e 673d 1214 363d e234 bc3c dd78 26bd
00000250: 62f8 883d 3947 443d dbb8 17bc c2ab 0e3d
00000260: 3c90 023b ab37 0ebe 4f27 2b3d a8f7 9dbc
00000270: ace6 16be a9bc 9b3d 4220 c8bd c2fa 2c3c
00000280: a4e8 d43b d4b7 edbc 4ceb c73c e120 ccba
00000290: 07af c83d 093f 98bd c3dd 8cbd 7a3e 983c
000002a0: 66dd c0bd aac3 8ebd 1d93 823d 7e47 71bd
000002b0: bca8 843d b665 3abd 26c0 463d c293 3b3a
000002c0: 3553 d23c 75c5 6b3d c472 493d 57d6 d83c
000002d0: 75d3 f83c 8269 573d 5df8 9b3d ee9b bbbc
000002e0: 6833 4e3d 1e7a b53c 6025 f53b 8764 ffbd
000002f0: 9bae aebd 9df2 933d 489e c9bc b3f6 45bd
00000300: a4ba 3b3d d0c3 263d ec47 9d3b 6b78 423d
00000310: b3d0 90bd 6744 473d 9160 a73d bdaa 9b3d
00000320: ff89 d5bb 6251 75bc 472e 03bd 658c 253e
00000330: c210 97bd 3f15 2dbd 3f6c 98bc 12f7 e83d
00000340: b415 973d c544 2dbd aa52 7f3c 62b7 18bd
00000350: 010c fe3c 273b 353d db4f 183d 980c 12bd
00000360: 9915 d13d 4744 97bd f4e1 4abd 892a a83c
00000370: cecc 9d3d c350 20bd 6650 a2bd 4ce9 603b
00000380: ff81 7f3c 1f87 143c d5ac a33d 3a53 8dbd
00000390: 2e3a 2fbb a80c a5bd 8398 5dbd 715c acbd
000003a0: 80e6 15bd 01f2 1abd ab43 453d 2e3f b8bd
000003b0: af2b a7bd c7b3 8ebd c5a3 a7bd 5f32 96bd
000003c0: 29ad 4f3d 0c9f d3bd f459 c23d ca07 193d
000003d0: 0d54 2c3d 3a7b e23d ac4c 0c3d c0ca e2bd
000003e0: 024c 28bd b294 8d3a 69a4 cabd 123e 6f3d
000003f0: 546f dabc 6964 f23c 752b edbc 3863 7dbd
-0.073185705 0.0017312297 -0.015424083 0.059477456 0.033444874 -0.016282348 -0.008891102 -0.007949044
0.06833548 -0.09778812 0.007308261 0.021609368 -0.09824843 -0.02621109 0.054140255 -0.019188687
0.057225503 -0.05360544 -0.033644486 -0.024545474 0.08744279 0.007543664 -0.13317691 -0.042776253
-0.12711628 0.03505266 -0.0043579703 -0.055644434 -0.065752715 0.0076836683 -0.17718643 -0.13585971
-0.00805056 0.04562377 -0.031246942 -0.057915334 -0.03060256 -0.035243403 -0.013918917 -0.11175303
0.009910179 -0.016143639 0.04190227 -0.0011534095 -0.07604253 0.058825474 0.00093741226 -0.0818941
-0.08099963 -0.050770506 -0.15439366 0.0625495 -0.02341134 -0.030628186 -0.04134629 -0.111680016
-0.054326415 0.012602028 -0.0029162008 0.03158596 0.022743056 -0.12723838 -0.20043658 -0.015108268
0.00994849 0.065909244 -0.017936371 0.018560736 -0.11326456 -0.027347319 0.010414323 -0.033713277
-0.03876003 -0.013020082 -0.009628153 0.039133817 -0.058259994 -0.030851062 -0.096767485 -0.11480291
-0.0630596 -0.08721318 0.042611398 0.039093476 0.0023397773 0.088389285 -0.0038847844 -0.034818616
-0.09644604 0.026127601 0.04724254 0.051935412 -0.04101464 -0.06198219 -0.020540733 -0.065221384
-0.017990947 -0.007978832 0.053303875 -0.04941616 0.07068848 0.059705146 -0.03923527 0.00057948806
0.05597254 0.08682017 -0.05581518 -0.08398383 0.039000683 0.030552888 -0.13448896 0.030770464
-0.13765234 0.0019592738 0.03386752 -0.006220486 -0.011440086 0.06607057 0.009141894 0.094138876
0.019472644 -0.0054654595 0.10675288 -0.038297288 0.021137133 -0.0020522666 0.009610643 0.059613146
0.034669414 0.011308172 0.033124447 -0.15785101 -0.0031739553 0.034911104 -0.05017069 0.06318435
-0.05187099 -0.09500808 -0.0061637093 0.005613935 -0.1473254 0.028750198 -0.058354918 -0.12749235
0.056410603 0.044452734 0.022974435 -0.040642608 0.06688 0.047919486 -0.009260382 0.03483177
0.0019922396 -0.13888423 0.041785534 -0.01928313 -0.14736432 0.076043434 -0.09771778 0.010557832
0.0064974595 -0.02901832 0.02440419 -0.0015573764 0.09799009 -0.07433898 -0.06878235 0.018584479
-0.094172284 -0.06970914 0.06375716 -0.05890607 0.06477496 -0.045507155 0.04852309 0.00071555015
0.025674442 0.057561357 0.049181715 0.026469393 0.030374268 0.052590854 0.07615731 -0.022901502
0.050341994 0.022152957 0.007481262 -0.12470346 -0.08529397 0.07224009 -0.024611607 -0.048330974
0.04583229 0.040714085 0.0047998335 0.04747812 -0.07071056 0.048649218 0.081727155 0.07600925
-0.0065166946 -0.014973016 -0.032026555 0.16166838 -0.07376243 -0.04225659 -0.018606303 0.1137525
0.073771864 -0.04230191 0.0155836735 -0.037284262 0.031011583 0.044245865 0.03718553 -0.03565654
0.102091976 -0.0738607 -0.049531892 0.020528095 0.07705079 -0.03913952 -0.07925491 0.0034318743
0.015594958 0.0090654185 0.079919495 -0.0690064 -0.0026737559 -0.080590546 -0.054100525 -0.08416069
-0.036596775 -0.03782845 0.048160236 -0.089964256 -0.08162629 -0.069678836 -0.081855334 -0.07333826
0.050702248 -0.1033307 0.094898134 0.037360944 0.042072345 0.1105866 0.034252807 -0.11073828
-0.04108811 0.0010801761 -0.0989464 0.058408804 -0.026664414 0.029588895 -0.028951386 -0.0618622

classfier.fc2.bias f4 [50]
00000000: eea0 7235 ea3c 81b6 7c13 efb5 f5fb 9a35
00000010: 3bd7 c2b6 1635 0c36 1411 ee35 def0 7b36
00000020: 9c22 7235 1885 c7b5 c079 bd35 0741 78b6
00000030: df73 21b4 e8de dab5 3758 4fb6 f5e1 54b5
00000040: bf59 7d35 ad94 4337 387c a834 08c8 c5b5
00000050: 7645 2435 0c60 f635 300e 5c34 4482 5bb5
00000060: 09d2 0fb6 f806 5434 8f56 9d35 b854 28b3
00000070: 73c7 8eb5 d4fa e334 ac5c b3b5 e9af a935
00000080: 6661 ceb4 0b7e d335 abb6 27b4 fad7 ab35
00000090: 0092 b7b5 2389 9533 7058 f0b5 de80 c634
000000a0: cecd 1736 e4d8 b8b3 d3a8 9db5 0655 9735
000000b0: 0e12 8db6 497a 4334 f87d d735 b8a1 d334
000000c0: fb4e 53b6 42ba abb5
9.038621e-07 -3.851591e-06 -1.7812558e-06 1.1547223e-06 -5.8067067e-06 2.0892526e-06 1.7737352e-06 3.7542118e-06
9.020239e-07 -1.4865391e-06 1.4117031e-06 -3.699273e-06 -1.5036447e-07 -1.630714e-06 -3.0896751e-06 -7.9304965e-07
9.438044e-07 1.1657522e-05 3.138282e-07 -1.473586e-06 6.119584e-07 1.8356382e-06 2.0494258e-07 -8.177342e-07
-2.1430917e-06 1.9746574e-07 1.1722603e-06 -3.91926e-08 -1.0637872e-06 4.2464546e-07 -1.336351e-06 1.2642678e-06
-3.8441357e-07 1.5757408e-06 -1.5619541e-07 1.280335e-06 -1.3677054e-06 6.963298e-08 -1.7907132e-06 3.6974137e-07
2.2620547e-06 -8.60762e-08 -1.1746546e-06 1.1275122e-06 -4.2042293e-06 1.8205277e-07 1.605541e-06 3.9419479e-07
-3.1487423e-06 -1.2794701e-06

classfier.bn2.weight f4 [50]
00000000: 322d 813f 8e68 7a3f 11c4 6b3f d244 783f
00000010: 3d9f 6e3f 115c 613f ebf4 823f 7859 743f
00000020: 8362 7c3f 1b8c 823f d7e8 6c3f 9e45 853f
00000030: 27e6 623f 6646 803f 82f4 823f ea5a 703f
00000040: 4559 653f abf6 813f fc49 653f e36b 783f
00000050: d404 763f 9fa8 7f3f c0cf 723f 4f3c 793f
00000060: 81e1 793f d5ce 6b3f 5298 783f 6fc6 813f
00000070: 96df 753f 94ac 763f 18f6 733f f75b 6b3f
00000080: 2c80 763f 05ce 7f3f f69e 783f b955 823f
00000090: a9b2 663f 388c 553f a9d1 673f 7242 773f
000000a0: e073 753f 8e01 7d3f aa6b 7b3f 0eaa 7f3f
000000b0: c105 723f 77d5 853f 6e51 813f 73df 833f
000000c0: de4d 793f 9db8 663f
1.0091918 0.9781579 0.9209605 0.9698001 0.9321173 0.8803111 1.0230993 0.9544902
0.98587817 1.0199007 0.92542785 1.041187 0.88632435 1.0021484 1.0230868 0.93888724
0.8958934 1.0153402 0.89566016 0.9703962 0.9610112 0.9986667 0.9484825 0.9735765
0.97609717 0.92112476 0.9710742 1.0138682 0.9604429 0.96357083 0.95297384 0.919372
0.96289325 0.99923736 0.97117555 1.018241 0.90116364 0.8341708 0.9055429 0.9658576
0.95879936 0.988305 0.9821116 0.9986886 0.9454003 1.0455769 1.0102975 1.0302566
0.9738444 0.9012545

classfier.bn2.bias f4 [50]
00000000: ce77 f53c dfc3 8dbe 38d3 cbbd b33c b53d
00000010: e8ba 973c b27a 5fbc a8ed a3be d668 3bbd
00000020: c427 91bd 974b 96be a566 b2be c51c babe
00000030: ad5b 3fbd 1d21 9abe bdd1 9dbe f17f 4ebc
00000040: b111 02be 65ad a0be 6b78 79bd 0bb0 97be
00000050: a201 9ebe 4369 87be 6f99 49be 35a6 4cbe
00000060: b25e 25be fefa 10be bca8 32be bbb1 733d
00000070: a18b 9ebe f6c8 c7bc a73b 60be c746 a0bd
00000080: 2355 cfbc 4194 c6be 756a a1bd d53c adba
00000090: d7f0 97bd 17e4 b8bd 8da4 84be fe10 a03c
000000a0: f1e3 5e3d 0481 053d c60c febd 7d10 523d
000000b0: 6210 a8be 10a6 553c 99e0 a0be 84ab 12bd
000000c0: dfcd 0fbe dfd7 df3c
0.029964354 -0.276885 -0.09952396 0.08849468 0.018521741 -0.013640093 -0.32017255 -0.045754276
-0.07087663 -0.29354545 -0.34843937 -0.36350074 -0.04671829 -0.30103388 -0.3082408 -0.012603746
-0.12702061 -0.3138229 -0.060905855 -0.29626498 -0.3086062 -0.26447496 -0.19687437 -0.19985278
-0.16149405 -0.14158246 -0.1744718 0.05949567 -0.30965903 -0.024387818 -0.21897756 -0.07826
-0.025309151 -0.38784984 -0.07881633 -0.0013216982 -0.074189834 -0.0902788 -0.25906792 0.019539353
0.0544166 0.032593742 -0.1240478 0.051285256 -0.32825 0.013040081 -0.31421354 -0.0358081
-0.14043377 0.027324615

classfier.bn2.running_mean f4 [50]
00000000: 308a 21bf 3299 17be f42e 73be 6dc8 43bf
00000010: d271 18bf 32d3 4dbf 7b74 70bd e4ae 3ebf
00000020: e1c6 ca3d 8ae1 18bd b5f4 60be d719 54bd
00000030: d4cd 93be 0003 d6bd a14d 06be 795f 62bf
00000040: 86d6 da3e 2f0d c9bd c4a6 97be 73b8 04be
00000050: 686d 36bc c880 e93b 455d 083f ffdc b23e
00000060: ca14 c33e f827 8ebe 361d 603e 5a72 55bf
00000070: 525c 78be 0553 22bf 4ffa 8d3e 8881 6b3e
00000080: 5bc7 20bf c527 71be 98a4 aabe 8aae 1dbf
00000090: 6a8c ddbe a506 703e 700e 86bd 6315 44bf
000000a0: 8fed 64bf 9541 3ebf 78ee 853b 7161 06bf
000000b0: 6c15 91be e934 4cbf 9831 aabd d216 9cbe
000000c0: eb2e 213e b8b8 12bf
-0.6310148 -0.14804533 -0.2374838 -0.764777 -0.59548676 -0.80400383 -0.058704834 -0.7448561
0.099012144 -0.037324466 -0.21968348 -0.051782455 -0.28867972 -0.10449791 -0.1311555 -0.8842693
0.42741793 -0.09816968 -0.2961942 -0.12960987 -0.011134483 0.0071259476 0.5326732 0.34934232
0.38101798 -0.2776487 0.21886143 -0.8337761 -0.24253967 -0.6340793 0.27730033 0.22998631
-0.6280419 -0.23550327 -0.333287 -0.6159445 -0.4327119 0.23440035 -0.065457225 -0.76595134
-0.89424986 -0.7431882 0.0040872656 -0.52492434 -0.28336656 -0.79768234 -0.083102405 -0.3048616
0.15740554 -0.5731311

classfier.bn2.running_var f4 [50]
00000000: 1e60 b33e 1dd7 e23e 3098 953e e485 f63e
00000010: 032e 1f3f 7ca5 2c3f 81e1 2e3f a7c5 203f
00000020: 3943 093f 990d 1a3f 4463 f13e 1a18 233f
00000030: 7880 bc3e 7455 2e3f 892a 0b3f b82b 5a3f
00000040: 5807 a93e b30a 0d3f b1e2 893e f45d 1b3f
00000050: e626 223f 6253 243f 7a64 af3e 17fc cc3e
00000060: 2866 ee3e 3dcb e23e 2e83 ba3e 55d6 003f
00000070: afc7 093f 373c 033f 5d86 bc3e 6e0e a53e
00000080: b453 f93e 6e0d 133f 10a8 143f f708 103f
00000090: b8b9 0b3f 3edd 153f 88ff 0e3f c51e 483f
000000a0: 0b33 fa3e a3c2 a33f 1fe1 943e 85f1 633f
000000b0: b419 f43e 09a1 093f 1d32 2b3f 56f0 c63e
000000c0: 4f11 a73e 53a4 053f
0.3503427 0.44304743 0.29217672 0.48149025 0.62179583 0.6744001 0.6831284 0.62801594
0.536182 0.60177 0.47146046 0.6370865 0.36816764 0.6809914 0.5436178 0.8522296
0.33013415 0.5509445 0.26930764 0.60690236 0.63340604 0.6418973 0.34256345 0.4003608
0.46562314 0.44295684 0.36428207 0.50327045 0.5382032 0.51263756 0.3682126 0.3223757
0.48696673 0.5744237 0.58068943 0.5626368 0.5458026 0.58540714 0.5585866 0.7817195
0.48867068 1.2793773 0.29078004 0.89040405 0.4767586 0.53761345 0.6687334 0.38855237
0.32630393 0.52203864

classfier.fc3.weight f4 [25, 50]
00000000: 3c82 ccbd 5998 f83d 9c12 f3bc 79e4 d2bd
00000010: 5795 febd 3037 893c 4160 db3d 3c2c 263d
00000020: f15a d03d 0f33 d13c b940 dd3c 1890 8a3d
00000030: 0f98 8ebb eb35 2d3e 0061 f43d a9e2 143d
00000040: ea4e b03c b0d3 503e 5987 563d c084 0d3d
00000050: fb81 c03d 96c0 3f3d 8b4b dd3c fa7b 2fbc
00000060: e57d fabd d8ce 9f3d dd3c 44bd e3ab 9fbb
00000070: e31a 983c 9cfd 53bd 506c e2bd 6aa2 37bb
00000080: 313c c7bd 9249 4f3e 0b1a d8bd 3c3f cebd
00000090: 8ac2 3f3d dcba c73a 2514 333d 40d7 103c
000000a0: a6cc f9bd 2272 1abd 5692 d1bc 2bed 0dbe
000000b0: 0320 643d f331 9abc 990d 443e 9eca 56bb
000000c0: 1001 3abd 6062 963a c34a 8ebd 40b4 fb3d
000000d0: a9c6 fbbc 6936 4fbd 364e 3abc 14d3 743d
000000e0: 80b7 453d 5f19 39bd e94b 733c 6b7f 763d
000000f0: f688 163e b8e2 ee3d 2d34 03bd fc46 0c3e
00000100: 717b a43d 2671 6dbd cbba 60bd de5c bf3d
00000110: 0589 d3bc ebdc e83d 842c 1b3e d769 8e3d
00000120: e714 ae3c 9f58 59bc 56cc b5bd 2153 9b3d
00000130: 1ac0 1fbd e0f5 15bd 9485 043e 2027 0cbd
00000140: 8122 6bbd 4c07 813c f648 26bc fd67 ce3d
00000150: d5ba debd 652b 8dbd 41bd f9bc 0613 0d3d
00000160: b1a9 b13d 3ab2 0ebd 9206 00be cd46 c23d
00000170: 453d 25bc ff3e e5bd f9e5 8b3d 7b93 7fbd
00000180: 199b ce3d e874 adbd 3d03 c9bb 0aa6 d8bd
00000190: 7ad8 50bc ff69 acbd 9582 003d 5a20 873b
000001a0: 2ead bc3c 2db5 78bd 5c14 c5bd aee6 e5bd
000001b0: 002f 24be d05b 88bd 0423 bebd cab4 b8bd
000001c0: 9ee4 05bd 7b54 c3bd b4c5 bbbd 1141 7b3d
000001d0: f466 d9bd 7d59 cabd e697 15bd 2562 a3bd
000001e0: 4681 9fbd df4c afbd 5a96 edbd 17f9 5cbe
000001f0: b9f6 12bd a331 f4bc bd71 90bd e879 733c
00000200: dff1 c2bd c3f3 36bd b307 91be 80e9 153d
00000210: a09e be3b 729f d9bd 7345 3f3d 45db a23d
00000220: 697e d6bd a560 59bc dfd1 43bd f4a6 03be
00000230: 75f4 e33c bb49 2bbd 07c4 89bc 1228 07be
00000240: 0065 77bd e811 fc3c 1bb3 bbbd 37ee 323e
00000250: 3ece aabd ad6a 903c a920 803d ee76 d13b
00000260: 0988 ee3c 1bc1 3a3d 8408 893d 6b65 ec3d
00000270: 0257 8bbd 87c2 e23d b760 34be 9322 afbd
00000280: 0e45 5dbd 5c47 d1bd 39bf 0d3d 9f79 eebd
00000290: 16c9 3fbc b8a1 293d 059d 0bbe 9c02 02be
000002a0: 209d 0b3d 3426 49bd 2409 d3bd b384 eebd
000002b0: 52d7 f3bd dfbb 24be f3aa 14be a3bc bbbc
000002c0: 0a66 adbd fc97 4b3d 18bf 5a3a 1eab 343d
000002d0: abe4 15be 6106 cabb b690 683d da87 69bd
000002e0: 5891 18be 9290 76bd a690 423c 871f 4fbc
000002f0: 8325 6cbd 1dee f8bd 5150 acbb 4e7e 08be
00000300: cbd9 2c3c 7c45 3fbe 9388 f3bd 167e 093d
00000310: 8ab5 50bd cabc 673d b75d 86bd 3f8f 193d
00000320: bd1c 95bd db73 ed3d f375 83bd 6a74 cebc
00000330: 8136 9bbc b33f 4ebd 6277 083e a8f3 643c
00000340: 3d47 cf3d cd0d 293e d348 c53c 2860 233e
00000350: 277a 94bb e838 1a3e 31a0 e03d 264b 9f3a
00000360: c25f 1dbc 6484 603d 8ee1 343d 826c 2b3e
00000370: d2d3 c3bc c780 f63d af73 efbc 7b01 8fbc
00000380: d8dc a8bc 2906 3b3d 75c5 1cbd 20d7 bcbd
00000390: 0aab 333d 344c a9bc da39 99bd 6262 00bd
000003a0: 7f49 acbd d333 503e 6188 80bd f100 16bd
000003b0: 2d7f b2bd be74 913d 3b83 733c df51 07bd
000003c0: 9389 87bd e684 4b3d c755 19bd a1f2 abbd
000003d0: 48ca 203d 5583 de3c b020 77bc 7646 8bbd
000003e0: be31 67bd 5335 eebd 4ece 27be 1008 f6bd
000003f0: a304 3bbe a297 b9bc 43ac 553d 59f6 ca3d
-0.09985778 0.12138433 -0.02967196 -0.10297484 -0.12430828 0.016749948 0.10711718 0.04056953
0.10173596 0.025537042 0.027008401 0.06765765 -0.004351623 0.169151 0.11932564 0.036348972
0.021522004 0.20393252 0.05237517 0.03455043 0.09399792 0.046814524 0.02701356 -0.010710711
-0.12231044 0.07803124 -0.047909606 -0.0048727854 0.018567508 -0.051755533 -0.11055815 -0.002802039
-0.097282775 0.20242909 -0.10551842 -0.10070655 0.046816386 0.0015238184 0.043720383 0.008840382
-0.12197237 -0.0377065 -0.025582474 -0.13860004 0.05569459 -0.018822646 0.19145812 -0.0032774578
-0.04541117 0.001147341 -0.069478534 0.12290239 -0.030734377 -0.050589 -0.011371186 0.059771612
0.048270702 -0.04519021 0.014849641 0.06018011 0.14700684 0.11664337 -0.03203218 0.13698953
0.08031357 -0.057969235 -0.05486564 0.09343885 -0.025822172 0.11370262 0.151537 0.06953781
0.021250201 -0.013265758 -0.088768646 0.07584215 -0.03900156 -0.036611438 0.12941581 -0.034217
-0.057405952 0.01575055 -0.010149231 0.10078428 -0.10875479 -0.068930425 -0.030485751 0.03444197
0.08674944 -0.03483794 -0.12502506 0.094861604 -0.010085409 -0.11193656 0.06830973 -0.062396508
0.10088176 -0.08469564 -0.0061344192 -0.105785444 -0.012746925 -0.08418655 0.031374533 0.0041237297
0.023031797 -0.060719658 -0.09623024 -0.11225639 -0.16033554 -0.06658137 -0.092840225 -0.09018858
-0.03268873 -0.09537598 -0.09168568 0.06134135 -0.1061534 -0.0988035 -0.036521815 -0.07977704
-0.07788329 -0.08559584 -0.11600943 -0.21579395 -0.035879824 -0.029808825 -0.07052944 0.014860608
-0.095187895 -0.044666063 -0.28326187 0.036599636 0.0058172494 -0.10626115 0.04669709 0.079519786
-0.104733296 -0.013267671 -0.04780757 -0.12856656 0.027826527 -0.04181836 -0.016817106 -0.1319888
-0.060399055 0.030770257 -0.09165021 0.17473684 -0.08340119 0.017628992 0.062562294 0.0063923514
0.029117601 0.045594316 0.06691077 0.115427814 -0.06803705 0.110722594 -0.17615019 -0.085515164
-0.054020934 -0.10218689 0.034606192 -0.11644291 -0.0117056575 0.041413993 -0.13634117 -0.12696308
0.034085393 -0.0491087 -0.10304478 -0.11646404 -0.119063035 -0.16087292 -0.14518337 -0.022917097
-0.08466728 0.04970549 0.0008344515 0.044108503 -0.14638011 -0.006165311 0.056778632 -0.057014324
-0.14899194 -0.060196467 0.011875307 -0.012641794 -0.05765296 -0.121547915 -0.005258598 -0.13329431
0.010549973 -0.1867885 -0.11891284 0.03356751 -0.05095438 0.056576528 -0.065608434 0.037490126
-0.07280872 0.11594363 -0.064189814 -0.025201995 -0.018946888 -0.050353717 0.13326791 0.013974108
0.101210095 0.16509171 0.024082577 0.1595465 -0.0045311633 0.1506077 0.10968054 0.0012153133
-0.00960535 0.054813758 0.04416042 0.16740611 -0.023904715 0.12036281 -0.029229967 -0.01745676
-0.020613119 0.04566017 -0.038274247 -0.09220719 0.043864287 -0.02066622 -0.074817374 -0.031343825
-0.08412456 0.2033227 -0.06276012 -0.03662199 -0.08715663 0.07102345 0.014862831 -0.033037063
-0.06618037 0.04968729 -0.03743532 -0.08395887 0.03925541 0.027162233 -0.015083477 -0.06800549
-0.056443922 -0.116312645 -0.16387293 -0.120132565 -0.18263488 -0.022655312 0.052166235 0.09910268

classfier.fc3.bias f4 [25]
00000000: 9654 d5b5 1ac3 4535 7bea c3b7 1aa5 69b8
00000010: 4f3c 33b4 a993 07b7 e482 7036 33d5 65b5
00000020: 147e fcb4 7c29 80b6 fe65 7937 92da a2b6
00000030: 7a7a 0536 b8c7 0833 095b 9b35 b0fb 49b5
00000040: bcfa e3b6 56ab 4bb7 89ae 8a37 96ba e532
00000050: 99de 7234 bc8b 1435 e14e 6135 b6e2 ad35
00000060: 9af9 deb5
-1.5894354e-06 7.367213e-07 -2.3355e-05 -5.570529e-05 -1.6692614e-07 -8.081007e-06 3.5838975e-06 -8.5619394e-07
-4.7030392e-07 -3.8195267e-06 1.48653035e-05 -4.853421e-06 1.9889835e-06 3.184661e-08 1.1574895e-06 -7.524459e-07
-6.7943165e-06 -1.2139635e-05 1.6532156e-05 2.6743958e-08 2.2618987e-07 5.5337637e-07 8.3933816e-07 1.2955486e-06
-1.6612933e-06

classfier.bn3.weight f4 [25]
00000000: 6bf9 913f 3c8a a33f b02f b63f aac4 a93f
00000010: 9d0f 963f 502f af3f 555b ac3f 5a59 903f
00000020: a15c 8e3f 0f89 b73f 965f b83f ee97 b93f
00000030: 22f4 933f c93b 8c3f 4076 8e3f 3520 943f
00000040: 1c8a b83f 0850 b13f 5b52 b53f 1b06 903f
00000050: f0ee 943f 9add 993f ce10 8f3f 64c7 943f
00000060: 628f b03f
1.1404241 1.2776561 1.4233303 1.3263142 1.1723515 1.3686314 1.3465372 1.1277268
1.1122018 1.4338702 1.440417 1.449949 1.1558878 1.0955745 1.1129837 1.1572329
1.4417148 1.3852549 1.4165758 1.1251863 1.1635418 1.2020752 1.1177003 1.1623349
1.3793757

classfier.bn3.bias f4 [25]
00000000: 0512 66bc 11b0 f53c 6237 da3e 6d33 a53e
00000010: bc44 b5bb c01e ad3e 34e0 b33e 8d04 14bd
00000020: 556e 05bd a5ac de3e c136 d03e 1413 f63e
00000030: 5aa7 d1bc f96e 2bbd 2b73 aebc a4ca 91bc
00000040: decf e63e 0678 b93e ed89 d63e 8cc4 05bd
00000050: 6993 6bbc 0762 c03a 4193 d3bc bb76 debc
00000060: fc67 c43e
-0.014042382 0.029991182 0.4262038 0.32265797 -0.0055318754 0.33812523 0.3513199 -0.036137152
-0.032575924 0.43491092 0.40666774 0.4806143 -0.025592495 -0.04185388 -0.02129515 -0.017796822
0.45080465 0.36224383 0.41902104 -0.032658145 -0.014378407 0.0014677652 -0.025827052 -0.027156224
0.38360584

classfier.bn3.running_mean f4 [25]
00000000: dc61 0a3d e16f 9b3c 8057 35bf 0ae0 09bf
00000010: 2e92 403d a578 cdbe 305f 0abf 8881 913d
00000020: aa20 b23b 0034 2ebf fc1b 2ebf aa14 42bf
00000030: 9544 c23d 0bb3 953d 7825 ba3d 0102 533d
00000040: 5ee7 2dbf a6d3 bfbe 33a1 81be 5cf6 823d
00000050: 5c06 c03d 527d a73d 1c56 d83d 00f4 06bb
00000060: b898 16bf
0.033784732 0.018974246 -0.7083664 -0.5385748 0.047014408 -0.40131107 -0.54051495 0.07104784
0.0054360228 -0.68048096 -0.6801145 -0.7581278 0.09485737 0.0730954 0.09089178 0.051515583
-0.67931163 -0.37466162 -0.25318298 0.063946456 0.09376213 0.081782 0.10563299 -0.0020592213
-0.5882678

classfier.bn3.running_var f4 [25]
00000000: 7757 b03f 422b ba3f de4c 763f da5c 833f
00000010: 2731 a33f 5696 823f 2ac1 4b3f 8ac3 a03f
00000020: d541 8e3f c261 893f cf75 263f 08b4 b73f
00000030: 548e ad3f c4b9 893f 64da 813f da3c a03f
00000040: 4dbd 7b3f 149b 0f3f 9910 a93f 7607 963f
00000050: ec04 ba3f 7455 b33f e4d9 a63f 0202 ba3f
00000060: 1686 943f
1.3776692 1.4544451 0.9621104 1.0262711 1.2749375 1.0202129 0.7959162 1.2559674
1.111384 1.0732958 0.6502351 1.4351816 1.355906 1.0759816 1.0144773 1.251857
0.98335725 0.56096005 1.320819 1.1721027 1.4532752 1.4010453 1.3035245 1.4531863
1.160342

classfier.fc5.weight f4 [1, 25]
00000000: aef0 073e f0ea 253e e2fe 9cbe a4c6 dcbe
00000010: 548d 223e a838 c9be 07e9 ccbe 880f 5f3e
00000020: 9a2c 403e 044a a0be b755 9fbe aee4 a8be
00000030: e412 8e3e 6d97 4c3e dd21 383e 767a 333e
00000040: 165a 99be b1bb bdbe 7adb c1be d951 843e
00000050: e418 1a3e cab7 163e c81a 953e a314 403e
00000060: 82bd b7be
0.13275406 0.16202903 -0.3066321 -0.431203 0.15874225 -0.39301038 -0.40021536 0.21783268
0.18767014 -0.3130647 -0.31120083 -0.3298697 0.27748787 0.1997964 0.17981668 0.17527184
-0.29951543 -0.3705726 -0.3786276 0.25843695 0.15048558 0.14718547 0.29121995 0.18757872
-0.3588677
