trained_models/Krogan14k/run_19-21-30/dnn_model_fold_4.pt (torch, 87745 bytes, 19 tensors)

classfier.fc1.weight f4 [100, 100]
0	0x3d24c738	0.040229052
1	0xbdcc377f	-0.099715225
2	0xbdabd102	-0.083894745
3	0x3817468c	3.6066907e-05
4	0x3db2b1c8	0.08725315
5	0xbd887441	-0.06662799
6	0xbd481386	-0.048846744
7	0xbdbe79ad	-0.093005516
8	0xbd8c1b2f	-0.06841122
9	0xbd810076	-0.06298916
10	0x3c9bd712	0.019023452
11	0xbcef85dd	-0.029238636
12	0x3d777c9f	0.060421582
13	0x3d02218d	0.031770278
14	0xbdcc128f	-0.09964477
15	0xbdd93427	-0.106056504
16	0x3dbe14e4	0.09281328
17	0x3d9b0820	0.07569909
18	0xbc812dfc	-0.015768997
19	0x3c9e8b76	0.01935361
20	0x3cd3ce99	0.02585535
21	0xbd1773ee	-0.036975794
22	0xbd4eb570	-0.050466
23	0xbd9bb7c4	-0.0760341
24	0x3d637a13	0.05553634
25	0x3d5864a2	0.052830346
26	0x3d1debc6	0.03855493
27	0xbd81d9e8	-0.063403904
28	0x3c89d7ea	0.016826589
29	0xbc700ec1	-0.014651955
30	0xbc8595d9	-0.016306804
31	0x3e0c9c27	0.13731442
32	0x3d3e28ea	0.046425737
33	0x3bdf8da4	0.006822305
34	0x3d5fc141	0.05462766
35	0xbd33f65c	-0.04393612
36	0x3d9c3a4f	0.07628309
37	0xbd817c64	-0.06322554
38	0xbcd185ac	-0.025576435
39	0xbb5f6c36	-0.0034091598
40	0xbc90d5ac	-0.017680012
41	0xbca166db	-0.019702366
42	0x3d6e3649	0.05815724
43	0xbd2263d7	-0.039645996
44	0x3bdc4611	0.0067222198
45	0x3d01c112	0.031678267
46	0xbd0ecf0b	-0.03486542
47	0xbd93f351	-0.07224143
48	0x3da1ae9b	0.078946315
49	0xbd93dfc2	-0.07220413
50	0x3dfc2192	0.123110905
51	0xbc4941af	-0.012283727
52	0x3c25c81e	0.010118512
53	0x3d93ca7d	0.07216356
54	0x3d3431a6	0.04399266
55	0xbd933cf5	-0.07189361
56	0x3d3075b8	0.043081015
57	0x3d9ee687	0.07758813
58	0xbdf2e175	-0.11859409
59	0xbd2d886e	-0.042366438
60	0x3d8734b5	0.0660185
61	0x3b65c7d3	0.0035061731
62	0x3da0cbe4	0.07851389
63	0xbce893ad	-0.02839073
64	0x3d869f80	0.06573391
65	0xbd881164	-0.06643942
66	0xbcd0c626	-0.02548511
67	0x3cd89a54	0.026440777
68	0xbb52e70a	-0.0032181167
69	0xbd95d12c	-0.07315287
70	0x3de699d8	0.11259812
71	0x3d8a2adf	0.06746458
72	0xbc524099	-0.012832784
73	0xbd3bcbee	-0.04584878
74	0x3c92f1ba	0.01793753
75	0x3ccfc23f	0.025361178
76	0xbd786282	-0.06064082
77	0x3bfc4143	0.0076982095
78	0xbcd7aa96	-0.026326459
79	0x3d99022f	0.074711196
80	0xbd21eb1f	-0.03953087
81	0xbd661bc5	-0.056178827
82	0xbde295b5	-0.110637106
83	0x3c9ef84a	0.019405503
84	0x3d19e8e4	0.037575617
85	0xbc7e3f1e	-0.015517978
86	0x3df2fb54	0.11864343
87	0xbdd5e8b8	-0.10444778
88	0x3cdacf1f	0.026710091
89	0x3d0a28e2	0.033730395
90	0x3d3d41c8	0.046205312
91	0x3d8bb7d9	0.068221755
92	0xbd25e898	-0.04050502
93	0xbdeb150a	-0.11478622
94	0xbd272dff	-0.04081535
95	0x3c9d373a	0.019191373
96	0xbc963542	-0.018335942
97	0x3cb47ed8	0.02203314
98	0x3da7d93a	0.081957296
99	0xbd365c9b	-0.04452191
100	0x3d693b1b	0.056941133
101	0xbd2445aa	-0.0401055
102	0xbd064e20	-0.03278935
103	0xbda3e3ed	-0.08002458
104	0x3d10320a	0.03520397
105	0x3cf7f2d4	0.030267157
106	0x3d7b062c	0.061285183
107	0xbdcf55ee	-0.10123812
108	0x3cbfdfd1	0.023422154
109	0xbd9de964	-0.07710531
110	0xbd0e4c0a	-0.034740485
111	0x3da725aa	0.08161481
112	0x3deb790f	0.114976995
113	0xbd3bf9ee	-0.04589265
114	0x3c64c96d	0.013964039
115	0x3c743231	0.014904545
116	0xbd81b8c6	-0.06334071
117	0xbe20cd8e	-0.15703413
118	0x3ddcab56	0.10774867
119	0x3cfe82c6	0.031068217
120	0xbd3a44c2	-0.04547573
121	0xbccc6dee	-0.024954762
122	0x3c40d424	0.011769328
123	0xbd45e51f	-0.04831421
124	0x3d0504f9	0.032475445
125	0x3cbac313	0.022798097
126	0x3d81498a	0.063128546
127	0xbccfc2f4	-0.025361516
128	0xbd3c7aa8	-0.04601541
129	0x3ca8bcf7	0.020597918
130	0x3d7f4016	0.062316976
131	0x3d3cc77f	0.04608869
132	0x3cd01ba5	0.025403807
133	0xbd8c031d	-0.06836531
134	0xbda1fdae	-0.07909714
135	0xbba86518	-0.0051390044
136	0x3d5ddb91	0.054164473
137	0xbe0b6a47	-0.1361476
138	0x3da668e2	0.081254736
139	0x3d4f0dce	0.050550275
140	0x3d5599ff	0.052148815
141	0xbdb110c7	-0.08645778
142	0x3d9bcfb3	0.07607975
143	0x3da24cf7	0.07924836
144	0xbc3d2ca2	-0.011546286
145	0xbd8428a3	-0.06453063
146	0xbba83bdb	-0.0051340885
147	0xbd5ab928	-0.053399235
148	0x3cefe286	0.02928282
149	0xbdf1998e	-0.11796866
150	0x3c522669	0.0128265405
151	0x3d499b0d	0.049220134
152	0xbd44e7d2	-0.048072644
153	0xbc643d52	-0.0139306355
154	0x3d8b5de1	0.06805015
155	0xbe13ef62	-0.14446786
156	0xbca86a2e	-0.020558443
157	0xbd3a39c8	-0.04546526
158	0x3d9c508d	0.07632551
159	0xbce3e3ab	-0.027818521
160	0x3d3def51	0.046370808
161	0x3df04dce	0.1173359
162	0x3d686c59	0.056743953
163	0xbd6fbb0e	-0.058528
164	0xbd209478	-0.03920409
165	0x3e04e4e8	0.12977946
166	0xbd16fc81	-0.0368619
167	0xbd43907e	-0.04774522
168	0xbd3e49ff	-0.046457287
169	0x3da572e1	0.08078552
170	0x3d44c27b	0.048037034
171	0x3d3840f0	0.044983804
172	0xbd72c603	-0.05927087
173	0xbe09704d	-0.13421746
174	0x3da0cc22	0.07851435
175	0x3d15b67a	0.036550976
176	0x3d18d2ad	0.03731029
177	0x3d0ca741	0.034339193
178	0xbcfcd553	-0.03086344
179	0x3d79788f	0.06090599
180	0xbcf36eae	-0.029715862
181	0x3d4e12dc	0.050310954
182	0xbd8c01ed	-0.06836305
183	0xbd6067d2	-0.05478651
184	0x3d45fc96	0.048336588
185	0xbd8a4f15	-0.06753365
186	0x3df97b84	0.12181762
187	0xbdf65fd7	-0.12029999
188	0x3d7b5a29	0.06136528
189	0xbc6a0b7f	-0.014284967
190	0x3dac9950	0.084276795
191	0xbca6eef8	-0.020377621
192	0x3d4e26ea	0.05033008
193	0xbc2448ba	-0.010027105
194	0xbd601581	-0.054708008
195	0x3d5625e2	0.05228222
196	0xbcd95a72	-0.026532385
197	0xbc973682	-0.018458609
198	0x3c10d283	0.008839252
199	0xbdbcbdb7	-0.09215873
200	0xbca814ca	-0.020517725
201	0x3d6a5d4b	0.057217877
202	0xbde317fe	-0.110885605
203	0xbcaa121f	-0.020760594
204	0x3decd7ed	0.11564622
205	0xbcbbdb56	-0.022931736
206	0x3d39d1c6	0.04536607
207	0x3c48f7f3	0.012266147
208	0x3da19d25	0.07891301
209	0x3c034418	0.00801184
210	0xbd83bcc6	-0.0643249
211	0xbd0cee66	-0.034407042
212	0xbc941821	-0.018077912
213	0xbcc29df2	-0.023756955
214	0x3c9bf1a9	0.019036131
215	0xbdc50716	-0.09620492
216	0x3daedbc0	0.08538008
217	0x3ca00375	0.019532898
218	0x3db815e9	0.08988554
219	0x3db75d8e	0.08953391
220	0xbdadcceb	-0.084863506
221	0xbd8a9aaa	-0.06767781
222	0xbcdb9a76	-0.026807051
223	0xba751e5d	-0.0009350533
224	0x3da8369d	0.08213542
225	0xbd61f075	-0.05516096
226	0xbbcd0ffe	-0.00625801
227	0xbda52d72	-0.08065309
228	0x3d1bac9b	0.038006406
229	0x3cc267e2	0.023731176
230	0xbd582ef4	-0.052779153
231	0xbdd5eac7	-0.10445171
232	0xbc450aac	-0.01202647
233	0x3cebdc24	0.028791495
234	0x3d0b62ac	0.034029648
235	0xbdd68080	-0.10473728
236	0x3d6e0b7e	0.05811643
237	0xbcd3ca91	-0.025853427
238	0xbd9be954	-0.07612863
239	0x3e0074a9	0.12544502
240	0x3d99e909	0.07515151
241	0xbd3efe98	-0.04662952
242	0x3da1c132	0.07898177
243	0xbc219ab2	-0.009863542
244	0x3cf3fed1	0.029784592
245	0x3b768f09	0.0037621877
246	0x3d4a45ad	0.049382854
247	0x3cc71da0	0.024306118
248	0x3cc47300	0.023980618
249	0x3d4a3227	0.049364235
250	0xbd8b528e	-0.068028554
251	0x3d552047	0.052032735
252	0xbd209cd6	-0.03921207
253	0xbdaaecc9	-0.083459444
254	0x3acd8eed	0.0015682854
255	0x3dd83d64	0.10558584

classfier.fc1.bias f4 [100]
0	0x38c21fe1	9.256579e-05
1	0xb683bab8	-3.925841e-06
2	0xb6cd6c3c	-6.1220762e-06
3	0x35a08fb3	1.1962751e-06
4	0xb6b81ae7	-5.486759e-06
5	0xb6b51d0c	-5.397602e-06
6	0xb42ea985	-1.6266684e-07
7	0xb4e86090	-4.3283626e-07
8	0x36d81700	6.439979e-06
9	0x36a79fdc	4.995598e-06
10	0x375005fa	1.2399158e-05
11	0x36f81298	7.3931405e-06
12	0xb7881d47	-1.6226097e-05
13	0xb626cc9a	-2.4855021e-06
14	0xb5388064	-6.8732174e-07
15	0x36479122	2.973779e-06
16	0xb3906372	-6.7236115e-08
17	0xb70314a5	-7.813015e-06
18	0xb78b5930	-1.6611622e-05
19	0x34e38b3d	4.2383354e-07
20	0x34bcd098	3.51695e-07
21	0x342b9370	1.5979253e-07
22	0xb5bc4688	-1.4027619e-06
23	0xb62529cc	-2.4611245e-06
24	0x34e9d2c0	4.3552973e-07
25	0xb623ad53	-2.438978e-06
26	0x363a750f	2.7784297e-06
27	0x38bf8ff9	9.134407e-05
28	0xb682392e	-3.8809585e-06
29	0x35269982	6.20632e-07
30	0x369ec41a	4.731596e-06
31	0xb60899b8	-2.0355055e-06
32	0x359ee8b6	1.1839645e-06
33	0x357df5e6	9.4607674e-07
34	0x361d602f	2.345081e-06
35	0xb49354dc	-2.7442627e-07
36	0xb7071365	-8.051143e-06
37	0xb6c9e5a1	-6.016999e-06
38	0xb786e091	-1.6078617e-05
39	0xb25b56b8	-1.2767195e-08
40	0x37168348	8.971263e-06
41	0x3789b0b5	1.6413958e-05
42	0x35e72546	1.7221689e-06
43	0xb6c6ca5a	-5.9244167e-06
44	0xb5931572	-1.0958595e-06
45	0x37b0e377	2.1086757e-05
46	0xb61ab9b0	-2.3055873e-06
47	0x36d2440d	6.26641e-06
48	0xb78d0668	-1.6811493e-05
49	0xb72ec9c3	-1.04181845e-05
50	0x353d5591	7.05325e-07
51	0xb3f1d069	-1.12603466e-07
52	0x35bc0d12	1.4010895e-06
53	0xb87732b4	-5.893661e-05
54	0x3652fbf0	3.1439085e-06
55	0xb844c22b	-4.6910875e-05
56	0x38ce386a	9.8333534e-05
57	0x3742e3df	1.16163565e-05
58	0x34bceed6	3.5191505e-07
59	0x359d1ab8	1.1705188e-06
60	0x34a1508b	3.004719e-07
61	0xb66f742c	-3.5681396e-06
62	0x368dca5f	4.2256866e-06
63	0x3748dca6	1.1972303e-05
64	0x365eba95	3.3189183e-06
65	0x3624be76	2.4548767e-06
66	0x368a85dd	4.128304e-06
67	0x380550bb	3.1784857e-05
68	0xb6c90d60	-5.991824e-06
69	0x358ad8ad	1.0344862e-06
70	0x373cc236	1.12508915e-05
71	0x36eb463d	7.0117226e-06
72	0xb5d6de2d	-1.6008904e-06
73	0x33cb27c8	9.46016e-08
74	0x3509d620	5.134807e-07
75	0x36f90b79	7.422114e-06
76	0x36332cda	2.6699186e-06
77	0x36a744f5	4.9850155e-06
78	0xb680cb2c	-3.8383496e-06
79	0xb6ab95f4	-5.113654e-06
80	0xb6a587fc	-4.933214e-06
81	0xb6517808	-3.1213294e-06
82	0x36f6ecf6	7.358957e-06
83	0x361c7d4f	2.331875e-06
84	0xb68038cf	-3.8213107e-06
85	0xb5cb4bf0	-1.5146779e-06
86	0xb6905df1	-4.3024706e-06
87	0xb7167b93	-8.969469e-06
88	0x374acb89	1.20875275e-05
89	0x366fa860	3.5711782e-06
90	0xb5cce3b8	-1.5265459e-06
91	0xb52d62f4	-6.459152e-07
92	0x365fc74d	3.3345598e-06
93	0x35f5c4f8	1.8311248e-06
94	0x3642770b	2.8977545e-06
95	0xb75e21c3	-1.3240092e-05
96	0x36884466	4.0610785e-06
97	0x36fb78b9	7.494437e-06
98	0xb60d7d7d	-2.108368e-06
99	0xb5c31197	-1.4533751e-06

classfier.bn1.weight f4 [100]
0	0x3f7edc9d	0.9955538
1	0x3f7d512b	0.9895198
2	0x3f79d02e	0.9758328
3	0x3f832a4e	1.0247285
4	0x3f743aab	0.9540202
5	0x3f757008	0.9587407
6	0x3f734743	0.9503061
7	0x3f6eec9d	0.93329793
8	0x3f796c03	0.9743044
9	0x3f80ea18	1.007144
10	0x3f7424bc	0.9536855
11	0x3f769dd2	0.96334565
12	0x3f835b1f	1.0262183
13	0x3f825975	1.018355
14	0x3f76983f	0.9632606
15	0x3f8268d8	1.0188246
16	0x3f7265c6	0.94686544
17	0x3f70980a	0.93981993
18	0x3f80770e	1.0036333
19	0x3f816ffa	1.0112298
20	0x3f6b1fad	0.9184521
21	0x3f745797	0.9544615
22	0x3f78139e	0.96904933
23	0x3f86911c	1.0513034
24	0x3f73a04d	0.95166475
25	0x3f8267eb	1.0187963
26	0x3f825fd8	1.0185499
27	0x3f7f49b3	0.9972183
28	0x3f767fec	0.96288943
29	0x3f6fa646	0.9361309
30	0x3f7778da	0.9666878
31	0x3f793e36	0.9736055
32	0x3f83a745	1.0285422
33	0x3f6c52ca	0.92313826
34	0x3f6ca4f8	0.9243922
35	0x3f8091b7	1.0044469
36	0x3f8f386e	1.1189096
37	0x3f78bba1	0.971613
38	0x3f925d8c	1.1434798
39	0x3f6e06d0	0.92979145
40	0x3f778fb5	0.96703655
41	0x3f862a81	1.0481721
42	0x3f884bb5	1.0648104
43	0x3f828693	1.0197319
44	0x3f7b9043	0.98267
45	0x3f75823b	0.9590184
46	0x3f6deaa2	0.92936146
47	0x3f7d7e4c	0.9902084
48	0x3f864229	1.048894
49	0x3f7e1675	0.99253017
50	0x3f72d5bc	0.9485738
51	0x3f6d73d6	0.92754877
52	0x3f713174	0.94216084
53	0x3f8c0922	1.0940287
54	0x3f783045	0.96948653
55	0x3f81e270	1.0147228
56	0x3f819980	1.012497
57	0x3f88d47d	1.0689846
58	0x3f828ad4	1.0198617
59	0x3f7b4fcc	0.98168635
60	0x3f712e89	0.9421163
61	0x3f743c73	0.9540474
62	0x3f7affbf	0.9804649
63	0x3f744348	0.95415163
64	0x3f810ecb	1.008264
65	0x3f86632e	1.0499017
66	0x3f7d6985	0.98989135
67	0x3f817859	1.0114852
68	0x3f816b79	1.0110923
69	0x3f7907f1	0.9727774
70	0x3f7aedb1	0.9801894
71	0x3f7de15c	0.99171996
72	0x3f84a3fb	1.0362543
73	0x3f79d943	0.9759714
74	0x3f70ead1	0.941083
75	0x3f877547	1.0582665
76	0x3f7267c7	0.946896
77	0x3f803a98	1.0017881
78	0x3f7ec3ff	0.99517816
79	0x3f85901b	1.0434602
80	0x3f74851e	0.9551562
81	0x3f6e0083	0.9296953
82	0x3f78028b	0.9687888
83	0x3f7503bc	0.95708823
84	0x3f81cd2f	1.0140742
85	0x3f750727	0.9571404
86	0x3f775f9f	0.9663028
87	0x3f7a4eb1	0.97776324
88	0x3f845678	1.0338888
89	0x3f89b7dc	1.0759234
90	0x3f8071bb	1.0034708
91	0x3f74d459	0.95636517
92	0x3f856355	1.0420939
93	0x3f7331cd	0.94997865
94	0x3f791add	0.97306615
95	0x3f839df1	1.0282575
96	0x3f76bb89	0.96379906
97	0x3f834500	1.0255432
98	0x3f851a22	1.03986
99	0x3f76d680	0.9642105

classfier.bn1.bias f4 [100]
0	0xbe62bade	-0.22141597
1	0xbe5d7326	-0.21625957
2	0x3c05ba9c	0.008162167
3	0x3c45f5cc	0.012082528
4	0xbccdf78b	-0.025142452
5	0xbbd1cfa3	-0.006402926
6	0xbe0e7259	-0.13910808
7	0xbe0731ea	-0.13202634
8	0xbe30758b	-0.17232339
9	0xbd236150	-0.039887726
10	0xbe1be904	-0.15225607
11	0xbd7e8173	-0.06213517
12	0xbe46f9b0	-0.19431186
13	0xbbf525e5	-0.007481324
14	0xbe35657a	-0.17714491
15	0xbdb40584	-0.087901145
16	0xbda6fd74	-0.08153811
17	0xbdb8e4d7	-0.09028023
18	0xbcceb114	-0.025230922
19	0xbdb7e12d	-0.08978496
20	0xbd83476d	-0.06410108
21	0xbd0fe670	-0.03513187
22	0xbd9548b3	-0.07289257
23	0xbe107963	-0.14108805
24	0xbdb931df	-0.09042715
25	0xbe5471f4	-0.20746595
26	0xbe5f42bc	-0.21802801
27	0xbe4da977	-0.20084177
28	0xbd4b1c8f	-0.049587782
29	0xbdfb2e89	-0.12264735
30	0xbda4f6b7	-0.080548696
31	0x3c088a33	0.0083337305
32	0xbcdf7fbf	-0.027282594
33	0xbd03b12c	-0.032151386
34	0xbd75d48c	-0.060017154
35	0xbbec6350	-0.0072139874
36	0xbab53876	-0.0013826031
37	0xbe3f6b90	-0.18693376
38	0xbb816d18	-0.0039497726
39	0xbd44f18f	-0.04808193
40	0xbd0ac0b7	-0.033875193
41	0xbd094ec1	-0.03352237
42	0xbd0ffcd3	-0.03515322
43	0xbe40c3c0	-0.18824673
44	0xbc3bfa6b	-0.0114732785
45	0xbe15cc9d	-0.14628835
46	0xbcf142d4	-0.029450811
47	0xbddf5eb5	-0.10906736
48	0xbd61f42b	-0.055164497
49	0xbd08f82c	-0.0334398
50	0xbc69d52d	-0.0142720165
51	0xbde57d91	-0.112055905
52	0xbca10069	-0.019653516
53	0x3c561b73	0.013068068
54	0xbdcb114a	-0.09915407
55	0xbe503f65	-0.20336683
56	0xbe75e41f	-0.24012803
57	0xbd94fb1d	-0.072744586
58	0x3cabacf2	0.02095649
59	0xbdada5c4	-0.08478883
60	0xbdc3ae1e	-0.095546946
61	0xbd51e805	-0.05124666
62	0xbd005180	-0.031327724
63	0xbcacaa25	-0.021077225
64	0xbdd6cf70	-0.10488784
65	0xbd3efeca	-0.046629705
66	0xbd2c96d7	-0.04213604
67	0xbe74b5ee	-0.23897526
68	0xbdfc87e9	-0.1233061
69	0xbd43d688	-0.047812015
70	0xbdf49f90	-0.11944497
71	0xbdfa5a1f	-0.122242205
72	0xbdb10143	-0.08642819
73	0xbb99804c	-0.0046844836
74	0xbd875b1d	-0.06609175
75	0xbc328495	-0.010895868
76	0xbd8f98c3	-0.07011559
77	0xbe4d0187	-0.20020114
78	0xbdf3a930	-0.11897504
79	0xbe1db8e0	-0.15402555
80	0x3ce89dbe	0.02839553
81	0xbccdf0e3	-0.025139278
82	0xbc99d6fc	-0.01877927
83	0xbe19b3ba	-0.15009966
84	0xbcc935ca	-0.024561781
85	0xbe2c0258	-0.16797769
86	0x3c841840	0.016124845
87	0xbe57f405	-0.2108918
88	0xbca17da4	-0.01971323
89	0xbd45516c	-0.048173353
90	0x3c78b88b	0.015180717
91	0xbe131f2f	-0.14367364
92	0xbb0fa130	-0.0021916144
93	0xbda29812	-0.07939161
94	0xbdb29b80	-0.087210655
95	0xbc84448e	-0.01614597
96	0xbd2c6c29	-0.042095337
97	0xbd8305d9	-0.063976
98	0xbd975d2b	-0.07390817
99	0x3c8dc9f2	0.01730821

classfier.bn1.running_mean f4 [100]
0	0xbe96a939	-0.29425982
1	0xbe922b05	-0.28548446
2	0xbed4967b	-0.41521057
3	0xbe73aa92	-0.23795536
4	0xbf885189	-1.0649883
5	0x3f4ec391	0.8076716
6	0xbe6c6b63	-0.2308784
7	0xbf1ae7be	-0.6050986
8	0xbe80c36e	-0.251491
9	0xbf27090c	-0.6524818
10	0xbf2f5576	-0.6848978
11	0x3ec7f97b	0.39057526
12	0xbe0c4ad7	-0.13700424
13	0xbf31505e	-0.69263256
14	0xbebdb197	-0.37049553
15	0xbc57ed10	-0.013179079
16	0x3fc9d759	1.5768844
17	0xbdce5d28	-0.10076362
18	0x3edff6ae	0.4374289
19	0xbd3bbb58	-0.04583296
20	0xbf64e4a6	-0.8941139
21	0xbf8dc933	-1.1077026
22	0x3ed45088	0.4146769
23	0xbe7fd2e6	-0.24982795
24	0x3e12da74	0.14341146
25	0xbea39ca2	-0.3195544
26	0x3d609058	0.054825157
27	0xbe9b65ec	-0.30351198
28	0xbfc65d66	-1.5497253
29	0xbef666cf	-0.48125312
30	0xbf71ed7b	-0.9450299
31	0xbef07631	-0.46965173
32	0x3ea2b930	0.31781912
33	0x3f8ce947	1.100869
34	0x3fc78017	1.5585965
35	0xbd641192	-0.05568082
36	0x3dbf5024	0.093414575
37	0xbecd84f2	-0.40140492
38	0x3e3a3708	0.18185055
39	0x40127929	2.288645
40	0x3f376bd9	0.7164894
41	0x3da5e63a	0.08100553
42	0xbf2a04fc	-0.66413856
43	0xbed99676	-0.42497605
44	0x4039ddad	2.904155
45	0xbeb3b67d	-0.35100165
46	0x3fc4afc5	1.5366141
47	0xbe2aa1b7	-0.16663252
48	0x3de2e3f4	0.11078635
49	0x3ee4941b	0.44644246
50	0x3f013f80	0.5048752
51	0xbf1ce426	-0.61285627
52	0x3f5f9f2b	0.87352246
53	0xbdb2f7d4	-0.08738676
54	0x3de72bf0	0.11287677
55	0xbe5ecc29	-0.21757568
56	0xbe669d65	-0.22520979
57	0x3ed66a46	0.41877955
58	0xbf3539da	-0.707914
59	0xbd1cf426	-0.038318776
60	0xbd0add09	-0.0339022
61	0x3dc96e1b	0.09835454
62	0x3f97353a	1.1813118
63	0x3dd02442	0.10163166
64	0x3dcb5a6a	0.099293545
65	0xbe9bc81a	-0.30426103
66	0x3e301dc9	0.17198862
67	0xbe5d3399	-0.21601714
68	0xbd97a115	-0.07403771
69	0xbf472b81	-0.77800757
70	0xbdf65fab	-0.12029966
71	0xbf0fac95	-0.56122714
72	0xbd552528	-0.052037388
73	0x3e929e9b	0.2863663
74	0x3e3d31f1	0.18476082
75	0x3d91123d	0.07083557
76	0xbe92be0d	-0.28660622
77	0xbe0a1f67	-0.13488542
78	0xbe22d56a	-0.15901724
79	0xbef853c1	-0.485014
80	0x3e964593	0.29349956
81	0x3fe7331b	1.8062471
82	0xbddc07e1	-0.1074369
83	0xbe5a4e06	-0.21318826
84	0xbe52c7c3	-0.20584016
85	0xbed964df	-0.4245977
86	0x3fc834c4	1.5641103
87	0xbe833829	-0.25628784
88	0x3d50d4bf	0.05098414
89	0x3e199350	0.14997602
90	0xbf33ed4c	-0.7028396
91	0x3df7cda6	0.12099771
92	0xbed4d6d3	-0.41570148
93	0xbed61789	-0.4181483
94	0x3f1ac059	0.6044975
95	0xbe2dedf9	-0.1698531
96	0x3ed25937	0.4108369
97	0xbdd0073a	-0.10157628
98	0xbe614982	-0.22000697
99	0x3f27805d	0.6543024

classfier.bn1.running_var f4 [100]
0	0x3d85e294	0.06537357
1	0x3d51950f	0.051167544
2	0x3e2492ee	0.16071674
3	0x3eb8b038	0.36071944
4	0x3e86b215	0.2630774
5	0x3e2e0571	0.16994263
6	0x3da66587	0.081248336
7	0x3dba5b68	0.090994656
8	0x3d48f499	0.04906139
9	0x3e283a8b	0.16428582
10	0x3dd6cf68	0.10488778
11	0x3e4872ae	0.19574997
12	0x3d2d7861	0.04235113
13	0x3e98c1fe	0.29835504
14	0x3dd472ea	0.103734806
15	0x3d711a20	0.058862805
16	0x3f044466	0.5166687
17	0x3d8671ff	0.06564712
18	0x3dd3e6c5	0.1034675
19	0x3daaf701	0.083478935
20	0x3eccacb9	0.39975527
21	0x3e9d9db4	0.3078438
22	0x3dd64aab	0.104634605
23	0x3d4ddc15	0.050258715
24	0x3dc72ff6	0.09725945
25	0x3d17d54d	0.037068654
26	0x3d2d99ed	0.042383123
27	0x3d840836	0.064468786
28	0x3ef63a9f	0.480916
29	0x3d941619	0.07230777
30	0x3e740ec7	0.23833762
31	0x3eebdb58	0.46065784
32	0x3d839008	0.06423956
33	0x3ee5cae7	0.44881365
34	0x3f1e324a	0.61795485
35	0x3da2b164	0.07943991
36	0x3d338357	0.043826427
37	0x3d90a9ba	0.07063623
38	0x3d29a93e	0.041421168
39	0x3fc0fd69	1.5077335
40	0x3e5ab6b9	0.21358766
41	0x3d12c85e	0.035835616
42	0x3e52513e	0.20538804
43	0x3d88007a	0.06640716
44	0x3fcbca64	1.592114
45	0x3d55c29e	0.052187555
46	0x3eefc36b	0.4682878
47	0x3ddebb4b	0.10875567
48	0x3d8826b8	0.0664801
49	0x3dcdb641	0.10044528
50	0x3e203199	0.1564392
51	0x3e0207c1	0.1269827
52	0x3e97bcf7	0.29636356
53	0x3d453dfc	0.048154816
54	0x3d22bbc4	0.03972985
55	0x3d37f905	0.044915218
56	0x3d0d1c44	0.034450784
57	0x3dfa3606	0.122173354
58	0x3ee1abd7	0.44076416
59	0x3d8fbf97	0.07018965
60	0x3df0a38c	0.11749944
61	0x3dbcf82a	0.09227021
62	0x3eafdb66	0.34347075
63	0x3d9e69b3	0.07735004
64	0x3db82ee0	0.08993316
65	0x3dba4134	0.09094468
66	0x3e3e2a6d	0.18570872
67	0x3d442a89	0.047892127
68	0x3d8b7f2d	0.06811366
69	0x3f181185	0.5940173
70	0x3d2b4c2a	0.041820683
71	0x3e37bc7c	0.17942995
72	0x3d8eb3f1	0.06967915
73	0x3db79d69	0.089655705
74	0x3e1731d5	0.14765103
75	0x3db97b1f	0.090566866
76	0x3e085fb8	0.13317764
77	0x3d47ee5b	0.048811298
78	0x3da639c1	0.081164844
79	0x3dd2d968	0.10295373
80	0x3d98cefe	0.074613556
81	0x3f16107d	0.5861891
82	0x3d9b4c23	0.07582881
83	0x3d3504d2	0.04419405
84	0x3dcefe29	0.10107071
85	0x3dbb0385	0.09131531
86	0x3f0d3dd9	0.551725
87	0x3d7831ea	0.060594477
88	0x3d86c177	0.06579869
89	0x3da47789	0.08030612
90	0x3e979c05	0.2961122
91	0x3d76ef39	0.060286734
92	0x3e90a2b2	0.28249127
93	0x3e866704	0.2625047
94	0x3e3f37ef	0.1867368
95	0x3da11222	0.07864787
96	0x3e034b81	0.12821771
97	0x3d937fa7	0.07202082
98	0x3dd1ad01	0.10238076
99	0x3e666ad9	0.22501697

classfier.fc2.weight f4 [50, 100]
0	0xbdbe4042	-0.092896
1	0xbdf78499	-0.12085838
2	0xbd009200	-0.031389236
3	0xbd056526	-0.032567166
4	0x3d8701e9	0.06592161
5	0x3c4d3308	0.012524374
6	0xbd7510e9	-0.05983058
7	0x3ce9562d	0.028483475
8	0x3d4f3622	0.050588734
9	0x3d56b770	0.052421033
10	0xbb1edc86	-0.002424033
11	0xbbfa9352	-0.0076469565
12	0xbdc7e9c6	-0.097613856
13	0x3d7728de	0.06034171
14	0x3d990044	0.07470754
15	0x3d83ece6	0.06441669
16	0x3cac5c63	0.021040147
17	0x3d861924	0.06547764
18	0x3d6b3290	0.057421267
19	0xbd92832a	-0.07153924
20	0x3c5bae24	0.013408218
21	0x3cab0c10	0.020879775
22	0xbd68f300	-0.056872368
23	0x3dbcb0a5	0.0921338
24	0xbd003d4d	-0.03130846
25	0xbde04e2f	-0.10952412
26	0xbd1b0007	-0.037841823
27	0xbd7392c1	-0.059466127
28	0x3c437a2f	0.011930986
29	0x3c81b8ea	0.015835244
30	0xbce9c056	-0.028534096
31	0x3dd7c414	0.10535446
32	0xbd91f746	-0.07127242
33	0xbd338c2b	-0.043834846
34	0x3ca60e8f	0.020270614
35	0x3d99f556	0.07517497
36	0x3d44d4a3	0.04805435
37	0xbd91fa5f	-0.071278326
38	0xbd047454	-0.0323375
39	0xbd9e8b3a	-0.07741399
40	0x3d6a64f8	0.057225198
41	0xbd0ac6f5	-0.033881146
42	0x3cf7409f	0.03018218
43	0xbdb0b859	-0.086289115
44	0xbc2dbd5f	-0.010604232
45	0x3d7c9c6e	0.06167262
46	0xbd908318	-0.07056254
47	0x3da52d45	0.08065275
48	0xbcadabf4	-0.021200158
49	0x3d08c009	0.033386264
50	0xbd814f0d	-0.06313906
51	0x3d0ea224	0.034822598
52	0x3c002562	0.007821413
53	0x3dc8bce0	0.0980165
54	0x3dda590b	0.10661515
55	0x3d140666	0.036138915
56	0xbd834c36	-0.064110205
57	0xbd625ffa	-0.05526731
58	0x3d893af9	0.06700701
59	0xbd0654c9	-0.0327957
60	0xbcbdfe27	-0.023192478
61	0xbd40d8c9	-0.047081742
62	0xbd831186	-0.06399827
63	0x3caf8251	0.021424444
64	0xbd4ba9bb	-0.049722414
65	0x3e0f43c0	0.13990688
66	0x3d8a4706	0.06751828
67	0xbd3c8213	-0.046022486
68	0x3d355fb6	0.04428073
69	0x3d07673a	0.03305743
70	0xbd6ca63f	-0.057775732
71	0x3cfb22b9	0.030656205
72	0xbcd6e3b3	-0.026231622
73	0xbd35b91d	-0.04436599
74	0x3dbe1329	0.09280998
75	0xbc8492b9	-0.016183244
76	0xbd0a1645	-0.033712644
77	0x3d6c18e1	0.057640914
78	0xbd31112b	-0.043229263
79	0xbd62592b	-0.05526082
80	0x3d89d748	0.06730515
81	0x3ad6e3f7	0.0016394843
82	0xbd322848	-0.043495446
83	0xbd89bdab	-0.067256294
84	0x3dc604b6	0.09668867
85	0xbcf85b86	-0.03031708
86	0x3d5b6543	0.053563368
87	0x3c1b957f	0.009496092
88	0x3d4fec97	0.05076274
89	0x3e0a2fd4	0.13494807
90	0xbc341dc8	-0.0109934285
91	0xbc4a7766	-0.012357568
92	0x3e0616e4	0.1309467
93	0x3dc2631b	0.09491559
94	0x3d8c847e	0.068612084
95	0x3d713f6d	0.05889838
96	0x3dad4ec0	0.08462286
97	0x3d6038da	0.054741718
98	0x3d5ec07e	0.054382794
99	0xbb80b3d1	-0.003927686
100	0x3dbd8e12	0.092556134
101	0x3d5cdbaf	0.053920444
102	0x3d76ea60	0.06028211
103	0xbbe8848e	-0.00709588
104	0x3c19dd18	0.009391092
105	0xbc8275a9	-0.015925245
106	0x3d16ae33	0.036787223
107	0x3d79490e	0.060860686
108	0xbc6d807d	-0.014495966
109	0x3bcf90ef	0.006334416
110	0x3db18bed	0.08669267
111	0xbdda7609	-0.10667045
112	0x3dd5f73c	0.10447547
113	0xbcc486da	-0.023990083
114	0x3cc975fe	0.024592396
115	0xbe118b1a	-0.1421322
116	0xbd052180	-0.03250265
117	0x3d595b06	0.053065322
118	0x3c12308c	0.008922707
119	0x3cd2c64a	0.025729317
120	0x3d74674c	0.059668824
121	0xbd2e1235	-0.042497832
122	0x3d284c80	0.04108858
123	0x3dcb8f0e	0.09939395
124	0xbd49d41c	-0.04927455
125	0x3dd8698a	0.10567005
126	0x3d910826	0.07081632
127	0x3cc375f4	0.023859955
128	0x3c757a31	0.014982746
129	0x3d03df13	0.032195162
130	0xbc372db9	-0.011180335
131	0xbd015aa4	-0.031580582
132	0xbcc3977b	-0.023875942
133	0xbb118c73	-0.0022208958
134	0xbd9a7a59	-0.07542867
135	0x3b95460e	0.0045554703
136	0xbdfdc780	-0.12391567
137	0x3cd9dd15	0.026594678
138	0xbb928722	-0.0044716755
139	0x3d86790e	0.06566058
140	0xbd8421c5	-0.064517535
141	0xbdde240e	-0.10846721
142	0x3d81d93e	0.06340264
143	0x3d83a7c8	0.06428486
144	0xbd35042e	-0.04419344
145	0x3d5cf49d	0.05394422
146	0x3d4460a2	0.04794372
147	0x3d1aadb1	0.0377633
148	0xbdb9b116	-0.090669796
149	0xbdd26af8	-0.10274309
150	0x3d1cbf84	0.03826858
151	0xbd7ead2a	-0.06217686
152	0x3c4afcbd	0.012389359
153	0xbe11a1a8	-0.14221823
154	0x3dd3d3a8	0.103431046
155	0x3dc304f1	0.09522427
156	0x3d5e8935	0.05433007
157	0xbb676206	-0.003530623
158	0xbd0000af	-0.031250652
159	0x3d8b4432	0.068001166
160	0xbd0fbd43	-0.035092603
161	0x3ce67584	0.028132208
162	0x3c09a3d4	0.008400876
163	0x3dc1cd10	0.09462941
164	0xbd1cad96	-0.038251482
165	0x3c01ab3b	0.00791436
166	0x3d5f528b	0.05452208
167	0x3ddbbdba	0.10729547
168	0x3c277f79	0.010223263
169	0xbd18675e	-0.037207954
170	0x3d88a626	0.06672315
171	0x3d8a944d	0.067665674
172	0xbdeb37ad	-0.11485229
173	0x3d20862a	0.03919045
174	0x3b8406a7	0.0040291133
175	0xbe0c53a8	-0.13703787
176	0x3da5fd90	0.08105004
177	0x3db5c07c	0.08874604
178	0x3d9ac94e	0.07557927
179	0x3d113e98	0.035460085
180	0xbd241091	-0.04005486
181	0x3d1d1e88	0.038359195
182	0x3ce395f6	0.027781468
183	0x3d619cb1	0.055081073
184	0xbdbe270a	-0.0928479
185	0x3d844c5c	0.06459877
186	0xbcfe49fd	-0.03104114
187	0x3d773b85	0.060359497
188	0xbd0b52d5	-0.03401454
189	0xbd9a3867	-0.07530289
190	0x3d22d202	0.03975106
191	0xbc1cc5b2	-0.009568619
192	0xbc09b18d	-0.008404148
193	0xbcb093e2	-0.021554891
194	0xbca59236	-0.02021132
195	0xbbe5debe	-0.0070150783
196	0x3d14f532	0.03636665
197	0x3c179daa	0.009253899
198	0x3c9be8ae	0.019031849
199	0x3d762356	0.060092293
200	0x3c980fa5	0.018562147
201	0xbcc7a82c	-0.024372183
202	0x39c32cf4	0.0003722679
203	0x3d85c335	0.065313734
204	0xbdd9536c	-0.106116146
205	0x3d8b2125	0.06793431
206	0xbcfe65e3	-0.031054443
207	0xbd95f1ad	-0.073214866
208	0xbdf5b42f	-0.11997258
209	0xbdf2687d	-0.11836336
210	0xbdf55718	-0.119795024
211	0xbda490b7	-0.08035415
212	0xbc39fe4d	-0.011352134
213	0xbdbd2dde	-0.09237264
214	0xbda90994	-0.0825378
215	0x3d866801	0.06562806
216	0xbc74e239	-0.014946514
217	0xbc051b9b	-0.008124257
218	0x3d8ed57c	0.06974313
219	0x3bf3886f	0.0074320356
220	0x3d395b84	0.04525329
221	0xbc7d7cc4	-0.015471641
222	0x3d7f6d3f	0.062360045
223	0x3d35df39	0.044402335
224	0x3c9febb0	0.019521564
225	0xbd575901	-0.052575115
226	0xbcd29714	-0.025706805
227	0x3caf1c3b	0.021375766
228	0xbe02afee	-0.12762424
229	0xbdbb8a92	-0.091572896
230	0xbd7e1463	-0.06203116
231	0x3c661932	0.014044093
232	0x3b9acaf7	0.0047239023
233	0xb9912f65	-0.00027691867
234	0xbaab4eb7	-0.0013069723
235	0x3b025818	0.0019888934
236	0x3dd5e8a1	0.10444761
237	0xbda84941	-0.08217097
238	0x3c79334a	0.015209982
239	0x3d6ed7ad	0.058311153
240	0x3cfcee1c	0.030875258
241	0xbd6d0df7	-0.057874646
242	0xbdf0b0c7	-0.117524676
243	0x3bcea2ba	0.0063060196
244	0xbcc07bbc	-0.023496501
245	0x3b0b1839	0.0021224155
246	0x3cd89de3	0.026442474
247	0x3b86da61	0.0041153883
248	0x3e02576d	0.12728663
249	0xbd5dd799	-0.054160688
250	0x3cd3f03f	0.025871394
251	0x3d3b4baf	0.045726474
252	0x3d65c749	0.056098256
253	0xbc0c0162	-0.008545252
254	0xbd13fd7f	-0.036130425
255	0xbd50dec6	-0.050993703

classfier.fc2.bias f4 [50]
0	0xb6006519	-1.9132333e-06
1	0xb6b9ca0a	-5.53695e-06
2	0x37218f85	9.629764e-06
3	0x3680fc5e	3.8440767e-06
4	0xb68cd4c8	-4.197096e-06
5	0xb699b1e0	-4.5804627e-06
6	0xb5bb45ef	-1.3952939e-06
7	0x34c2006f	3.613563e-07
8	0xb598d793	-1.1387623e-06
9	0xb612c7a2	-2.1871897e-06
10	0xb4ce2a9d	-3.8401495e-07
11	0xb59e7bc6	-1.180794e-06
12	0x3558885a	8.066469e-07
13	0xb5fbfdc3	-1.8774812e-06
14	0xb4a880f8	-3.1386276e-07
15	0x35828f2f	9.727427e-07
16	0x35109085	5.3854484e-07
17	0xb606c8d8	-2.0084462e-06
18	0x36b940cf	5.5209744e-06
19	0xb6b198cd	-5.2927994e-06
20	0xb44acf18	-1.8888056e-07
21	0xb6576611	-3.2096907e-06
22	0x364deb0e	3.06842e-06
23	0xb5a41c79	-1.2227239e-06
24	0x360295b9	1.945866e-06
25	0xb58692f6	-1.0026549e-06
26	0x3616f926	2.2496765e-06
27	0x36d9679a	6.4791648e-06
28	0xb5cc2c4d	-1.5212078e-06
29	0x355f3f65	8.3166225e-07
30	0xb33294f4	-4.1579327e-08
31	0x344ef440	1.9274103e-07
32	0xb51c6c48	-5.82721e-07
33	0x36017e63	1.9296065e-06
34	0xb67384fa	-3.6287224e-06
35	0x339c8ee4	7.290308e-08
36	0x36b79530	5.4711927e-06
37	0xb5b19363	-1.3230423e-06
38	0xb699481d	-4.5681504e-06
39	0xb54095c1	-7.1743494e-07
40	0xb5ff2c22	-1.9011825e-06
41	0xb57e7996	-9.4799304e-07
42	0xb5ef5c39	-1.7833728e-06
43	0x3615fa1f	2.234832e-06
44	0x3566c1b6	8.5963563e-07
45	0xb637d480	-2.7392816e-06
46	0x359feaee	1.1914797e-06
47	0x347530c4	2.2835144e-07
48	0x362f669c	2.6136759e-06
49	0x368c9655	4.189826e-06

classfier.bn2.weight f4 [50]
0	0x3f7d33f0	0.98907375
1	0x3f82385d	1.0173451
2	0x3f82cc70	1.0218639
3	0x3f7ede4d	0.99557954
4	0x3f7aabbb	0.9791829
5	0x3f8be840	1.0930252
6	0x3f6f7546	0.9353832
7	0x3f84a517	1.0362881
8	0x3f74ebad	0.9567211
9	0x3f6dd079	0.9289623
10	0x3f6fd170	0.9367895
11	0x3f88fcea	1.0702183
12	0x3f7546e5	0.958113
13	0x3f5c1788	0.85973406
14	0x3f836f0f	1.0268267
15	0x3f833abb	1.0252298
16	0x3f83ce87	1.0297402
17	0x3f8719db	1.0554765
18	0x3f80f056	1.0073345
19	0x3f708c5c	0.9396417
20	0x3f808c7d	1.0042874
21	0x3f7fc45a	0.99908984
22	0x3f7b2b9f	0.98113436
23	0x3f736f38	0.9509158
24	0x3f884841	1.064705
25	0x3f79a8fb	0.9752347
26	0x3f73b709	0.95201164
27	0x3f7e45c0	0.9932518
28	0x3f73d4bf	0.952465
29	0x3f6e5e46	0.931126
30	0x3f680ee7	0.9064774
31	0x3f8074ac	1.0035605
32	0x3f82ee26	1.0228927
33	0x3f79bbf2	0.97552407
34	0x3f7633e0	0.96172905
35	0x3f708202	0.93948376
36	0x3f821840	1.016365
37	0x3f6d16b8	0.9261279
38	0x3f81c091	1.0136892
39	0x3f87e5a4	1.0616956
40	0x3f81bfa5	1.013661
41	0x3f688851	0.90833
42	0x3f88b71b	1.0680879
43	0x3f7ec109	0.995133
44	0x3f6d60e3	0.9272596
45	0x3f80cd1b	1.0062593
46	0x3f6d38c0	0.9266472
47	0x3f6f31a5	0.93435127
48	0x3f857d23	1.0428814
49	0x3f7a2798	0.97716665

classfier.bn2.bias f4 [50]
0	0xbd88e202	-0.066837326
1	0xbe4a7f2f	-0.19775079
2	0x3cf4a521	0.029863896
3	0x3c7050e9	0.014667728
4	0xbe50d2d2	-0.20392922
5	0x3c5f6632	0.013635205
6	0xbd61fc8f	-0.0551725
7	0xbc606316	-0.013695499
8	0xbd43d5c3	-0.04781128
9	0xbe5a768c	-0.21334285
10	0xbd0594b8	-0.032612532
11	0x3ca040cc	0.019562148
12	0x3c42a8b1	0.0118810395
13	0xbe08762a	-0.13326326
14	0x3c578b77	0.01315581
15	0xbe78b66c	-0.24288338
16	0xbe6bf99f	-0.23044442
17	0x3cd74331	0.026277157
18	0x3c907d79	0.017637955
19	0xbc0c6b0d	-0.008570445
20	0x3d3222df	0.043490287
21	0x3ba5e57c	0.005062757
22	0xbe5b54c8	-0.2141906
23	0xbc0cd1bf	-0.008594929
24	0x3d5191b9	0.051164363
25	0xbc90e2e3	-0.017686313
26	0xbc7e0968	-0.015505172
27	0x3c858b7d	0.016301865
28	0xbd8ba75f	-0.06819033
29	0xbdb13582	-0.08652784
30	0xbd3d565a	-0.04622493
31	0xbe005866	-0.12533721
32	0x3c71250c	0.014718305
33	0xbb9d99d0	-0.0048095956
34	0xbd15e37b	-0.036593895
35	0xbc00db7b	-0.007864828
36	0xbe498d04	-0.196827
37	0xbd8ff14b	-0.07028445
38	0xbe49abe6	-0.1969448
39	0xba9692ef	-0.0011487881
40	0x3d529803	0.0514145
41	0xbd47017b	-0.048585396
42	0x3da87d8f	0.082270734
43	0xbe5e31ff	-0.2169876
44	0xbd1aef24	-0.03782572
45	0xbe68f297	-0.2274879
46	0xbd9b237b	-0.07575127
47	0xbd7c94c6	-0.06166532
48	0xbe6c6a9b	-0.23087542
49	0x3cb527e5	0.02211375

classfier.bn2.running_mean f4 [50]
0	0x3ea35c3a	0.319063
1	0x3e3637f1	0.17794777
2	0xbe69f8bc	-0.22848791
3	0xbeed79b2	-0.4638191
4	0x3d99b7ee	0.07505785
5	0xbe7ddec0	-0.24792004
6	0xbf16cd92	-0.58907425
7	0x3d79faba	0.061030127
8	0x3de525d8	0.11188859
9	0x3dc94cf6	0.09829132
10	0xbf2e1473	-0.67999953
11	0xbd92d8e8	-0.07170278
12	0xbf265b48	-0.64983034
13	0x3ce54813	0.02798847
14	0xbf69ae75	-0.91281825
15	0x3e3dfb95	0.18553002
16	0x3e9d1098	0.30676723
17	0xbf7b6cbb	-0.98212785
18	0xbef37941	-0.47553447
19	0xbf67c5f8	-0.9053645
20	0xbedd7875	-0.43255964
21	0xbea44cdc	-0.3208989
22	0x3e853a5a	0.2602108
23	0xbf60143e	-0.8753089
24	0xbf603f83	-0.8759691
25	0xbf0501d2	-0.519559
26	0xbf1d3b3b	-0.61418504
27	0xbf45952b	-0.7718074
28	0x3ecc2e4c	0.39879072
29	0xbf7669f9	-0.9625545
30	0xbefc12a4	-0.49232972
31	0x3ebe50d3	0.3717104
32	0xbe6aee69	-0.22942509
33	0xbf0b156a	-0.5432955
34	0x3c7c1cda	0.015387738
35	0xbe074a59	-0.13211955
36	0xbb0eb7ba	-0.002177699
37	0xbef55168	-0.4791367
38	0x3df7ae22	0.1209376
39	0xbf4d29c6	-0.80141866
40	0xbf03ba7d	-0.51456434
41	0xbf292ad4	-0.66080976
42	0xbee8b8b9	-0.45453432
43	0x3e6ca5f4	0.23110181
44	0x3cf7ca9f	0.030247984
45	0x3e8d8cbd	0.27646437
46	0xbee172a2	-0.4403277
47	0xbf042888	-0.51624346
48	0x3e86cd94	0.2632872
49	0xbf4ccfc1	-0.8000451

classfier.bn2.running_var f4 [50]
0	0x3ec8ca05	0.3921663
1	0x3f00721b	0.5017411
2	0x3ea8b8de	0.32953542
3	0x3eaa3853	0.33246097
4	0x3ef5e728	0.4802792
5	0x3ec2fc97	0.38083336
6	0x3e989b57	0.29806015
7	0x3eacb67c	0.33732975
8	0x3ee8733b	0.45400414
9	0x3f020e9b	0.50803536
10	0x3ec234e0	0.37930965
11	0x3ee324ab	0.44363913
12	0x3e8c4014	0.27392638
13	0x3e875a76	0.26436204
14	0x3ead4437	0.33841106
15	0x3ef9b013	0.48767146
16	0x3f15e44c	0.5855148
17	0x3f2fb914	0.6864178
18	0x3ec14c64	0.37753594
19	0x3edd2fc9	0.4320052
20	0x3ecfd9dc	0.405959
21	0x3ef1320f	0.47108504
22	0x3f321daa	0.69576514
23	0x3eb0ae2f	0.34507892
24	0x3ee3ae88	0.44469094
25	0x3ec0bf45	0.37645927
26	0x3ed286c5	0.41118446
27	0x3ee30513	0.4433981
28	0x3ec14576	0.37748307
29	0x3eb09a16	0.34492558
30	0x3e92392b	0.2855924
31	0x3f0ac704	0.54209924
32	0x3efc384b	0.49261698
33	0x3e9c4c90	0.30527163
34	0x3ec4605e	0.38354772
35	0x3ee91a90	0.45528078
36	0x3f008f26	0.5021843
37	0x3f0715c9	0.52767617
38	0x3f0554d8	0.52082586
39	0x3f276b7c	0.65398383
40	0x3eef14c7	0.4669554
41	0x3e9d79f6	0.3075711
42	0x3f0b0247	0.5430035
43	0x3f10c85a	0.5655571
44	0x3f0c413e	0.5478705
45	0x3f2cf4b1	0.6756087
46	0x3e8c9ca7	0.27463266
47	0x3edfa3a6	0.4367954
48	0x3f18983e	0.59607303
49	0x3eb44612	0.3520971

classfier.fc3.weight f4 [25, 50]
0	0xbe531ad7	-0.20615707
1	0xbd2170ed	-0.039414335
2	0x3c9b7005	0.018974314
3	0x3d8ca32c	0.0686706
4	0x3c09cbfa	0.008410448
5	0xbcf63019	-0.030052232
6	0xbd903432	-0.070412055
7	0xbe1fe781	-0.15615655
8	0xbe2a95a4	-0.16658646
9	0xbe05f049	-0.13079943
10	0xbc371464	-0.011174295
11	0xbe7a5106	-0.2444497
12	0x3d943e0d	0.07238398
13	0xbd9564d6	-0.072946236
14	0x3dc7be85	0.097531356
15	0xbc3e7fa7	-0.011627114
16	0xbd8f8835	-0.07008401
17	0x3d846c26	0.0646594
18	0x3d638b43	0.055552732
19	0xbd812a17	-0.06306856
20	0x3ccfbd10	0.025358707
21	0xbc13c6fe	-0.009019611
22	0xbdc83653	-0.097759865
23	0x3c8ece67	0.017432405
24	0x3c249fd9	0.010047876
25	0xbd8514f6	-0.064981386
26	0xbd59d749	-0.053183828
27	0xbdd0e845	-0.10200552
28	0xbe0d5022	-0.138001
29	0x3db4adfa	0.08822246
30	0x3d7c50e6	0.06160059
31	0xbdf0709f	-0.11740231
32	0xbd95faf5	-0.07323257
33	0x3c54a4b9	0.012978726
34	0x3d1f2a33	0.038858604
35	0xbe4107d0	-0.18850636
36	0xbd038115	-0.032105524
37	0x3dae6f2c	0.08517298
38	0xbe039685	-0.12850387
39	0x3ca23b2a	0.019803602
40	0x3d63978e	0.055564456
41	0x3d0a286c	0.033729956
42	0x3d05fcc1	0.032711748
43	0xbdf20a13	-0.11818328
44	0xbdb19c33	-0.08672371
45	0xbd8df978	-0.06932348
46	0xbd35677a	-0.044288136
47	0x3da2829f	0.0793507
48	0xbd6c3ddb	-0.057676177
49	0x3d1f0a65	0.038828272
50	0xbddbc1f2	-0.107303515
51	0xbd1a8ad6	-0.03773006
52	0x3d8c54cc	0.06852111
53	0x3d069fda	0.03286729
54	0xbcc50f86	-0.024055254
55	0xbded6e68	-0.11593324
56	0x3d0a25d5	0.033727486
57	0xbe06d671	-0.1316774
58	0xbe2183c8	-0.15772927
59	0xbdf27797	-0.11839216
60	0xbc4d9b5b	-0.012549247
61	0xbe2b0eca	-0.1670486
62	0x3cdbf507	0.026850237
63	0x3cec4182	0.02883983
64	0x3d4ca559	0.049962375
65	0xbda1fc17	-0.079094104
66	0xbdb87c64	-0.09008101
67	0x3df97af9	0.12181658
68	0x3cabb084	0.020958193
69	0xbd9239de	-0.071399435
70	0xbcbf9499	-0.023386287
71	0x3cad924f	0.02118793
72	0xbd9dff46	-0.07714705
73	0x3db098ec	0.086229175
74	0xbc6c0cce	-0.01440735
75	0x3d924578	0.07142156
76	0xbd5ad67b	-0.0534272
77	0xbca3e0c9	-0.020004647
78	0xbdfd6649	-0.12373025
79	0x3d964ae5	0.07338504
80	0xbded910e	-0.115999326
81	0xbd9d8a00	-0.07692337
82	0xbe3974ef	-0.18111013
83	0x3d121282	0.03566218
84	0x3d670eeb	0.05641071
85	0xbe0224c2	-0.12709334
86	0xbd0b079b	-0.0339428
87	0xbd8315ec	-0.06400666
88	0xbde1fdc6	-0.110347316
89	0xbccfedab	-0.025381884
90	0xbce6d11c	-0.028175883
91	0xbe0dbeb2	-0.13842276
92	0x3d85039f	0.06494831
93	0xbdb8e542	-0.090281025
94	0xbc5a615a	-0.0133288745
95	0xbd216812	-0.03940589
96	0x3cde93d6	0.027170103
97	0x3d92801d	0.07153342
98	0xbd89719a	-0.06711121
99	0x3dc871ed	0.097873546
100	0xbda5d704	-0.080976516
101	0x3dcf2c2b	0.10115846
102	0xbd532008	-0.05154422
103	0xbd6d3f98	-0.057921976
104	0x3d6826fa	0.056677796
105	0xbdd3049f	-0.10303616
106	0xbd9e9892	-0.07743944
107	0xbd4f3284	-0.050585285
108	0xbb44084a	-0.0029912167
109	0x3e08bef6	0.13354096
110	0x3d2cad01	0.042157177
111	0xbd9ab2cc	-0.07553634
112	0x3cd34f3c	0.025794618
113	0x3bc1a759	0.005909842
114	0xbd827c7f	-0.06371402
115	0x3e1053ef	0.14094518
116	0x3db69d51	0.089167245
117	0xbd357fb5	-0.044311244
118	0xbd8508d6	-0.06495826
119	0xbd909275	-0.070591845
120	0xbd8a4c2c	-0.0675281
121	0xbd73ec30	-0.059551418
122	0x3e159727	0.14608441
123	0xbd846d0f	-0.06466114
124	0xbcfda818	-0.030963942
125	0x3d691db5	0.056913096
126	0xbbecf9ee	-0.0072319424
127	0xbb3ddfad	-0.0028972432
128	0x3c9c2063	0.019058412
129	0x3da735f6	0.08164589
130	0x3d90be88	0.07067591
131	0x3cf95ed7	0.030440731
132	0xbcf6d6c9	-0.030131714
133	0x3cdc4bb6	0.02689157
134	0x3ce17371	0.027520867
135	0x3c7e805c	0.015533533
136	0x3daa08d7	0.08302467
137	0xbd60fe0e	-0.054929785
138	0x3de9e3f8	0.11420435
139	0xbdb363ab	-0.087592445
140	0xbb3bad31	-0.0028637166
141	0x3ca30a3a	0.019902337
142	0xbd8fa836	-0.070145056
143	0x3e0ea8dd	0.13931604
144	0x3d99d19b	0.07510682
145	0x3dfd00cb	0.12353667
146	0xbc6a768b	-0.014310489
147	0xbd44b8d7	-0.04802784
148	0x3d7e9919	0.062157724
149	0xbda4575b	-0.08024474
150	0xbd67e145	-0.05661132
151	0x3d863f59	0.06555051
152	0xbd109824	-0.035301343
153	0xbd92e86d	-0.07173238
154	0x3e01d763	0.1267982
155	0xbda1dc91	-0.07903398
156	0xbc5dc0bf	-0.013534724
157	0xbdc8fa50	-0.09813368
158	0x3c25a268	0.010109521
159	0x3da0e3ef	0.07855975
160	0xbcd3bdad	-0.02584728
161	0xbd137e8e	-0.036009364
162	0xbc5eb5ff	-0.013593196
163	0x3daf7e4e	0.085690126
164	0x3c399c64	0.01132879
165	0x3d195010	0.03742987
166	0x3c5786f0	0.01315473
167	0xbd21d5ba	-0.039510466
168	0xbcf4b491	-0.029871257
169	0xbdab8cfc	-0.083765
170	0xbd765f03	-0.060149204
171	0xbcfa4c94	-0.030554093
172	0x3d0f0a6a	0.03492204
173	0xbd7b98a4	-0.061424866
174	0xbd47332f	-0.048632797
175	0xbcfa3398	-0.03054218
176	0x3b3ec095	0.0029106487
177	0x3b5fe3d4	0.0034162896
178	0x3c4d1176	0.01251637
179	0xbce115f7	-0.027476294
180	0xbd88211c	-0.0664694
181	0x3db21f26	0.08697347
182	0xbd0cfbd1	-0.03441984
183	0xbb536c20	-0.0032260492
184	0x3d3905b0	0.04517144
185	0x3c8fcc82	0.017553572
186	0x3e13419e	0.143805
187	0x3c9d9856	0.019237678
188	0x3dc6e074	0.0971078
189	0xbd82b212	-0.063816205
190	0x3cccb2ce	0.024987604
191	0x3ca5f834	0.020259954
192	0xbddba26f	-0.10724341
193	0x3cb417c0	0.021983981
194	0x3c068ea7	0.008212722
195	0x3e58fc6b	0.2119004
196	0x3d0c406c	0.034241125
197	0xbd3b74e3	-0.04576577
198	0x3e10f4ed	0.14155932
199	0xbdad5006	-0.08462529
200	0xbcac3ca1	-0.021025004
201	0x3dd2318b	0.10263356
202	0xbd7f31c4	-0.06230332
203	0xbdbc7968	-0.09202844
204	0x3e0a62e7	0.13514291
205	0xbda51d84	-0.0806227
206	0xbd8cc2f8	-0.06873125
207	0xbd36a40c	-0.04459004
208	0x3c66d325	0.014088427
209	0x3e2ab024	0.16668755
210	0xbd0ba5c8	-0.03409365
211	0xbd9df030	-0.07711828
212	0xbc9b3b15	-0.018949071
213	0x3d45a1bd	0.04824995
214	0xbcb01e4b	-0.02149882
215	0x3d936faa	0.071990326
216	0x3e03d3da	0.12873784
217	0xbd17f097	-0.03709468
218	0xbc8ce06a	-0.017196853
219	0x3c1d6751	0.009607152
220	0x3c96b46d	0.01839658
221	0xbd6a0544	-0.057133928
222	0x3e4b0e1a	0.19829598
223	0xbd2adcc4	-0.041714445
224	0xbd16a5c1	-0.03677917
225	0xbc9edd66	-0.01939268
226	0xbd80e66e	-0.06293951
227	0xbd577442	-0.052601106
228	0x3d834a8e	0.064107046
229	0x3dc4f030	0.09616125
230	0x3d3f6d9b	0.046735387
231	0x3cbde559	0.02318065
232	0xbdb187a1	-0.08668447
233	0xbd0b4ba8	-0.0340077
234	0x3b18e1cc	0.0023327945
235	0x3dafaef4	0.085782915
236	0x3d16f20a	0.03685192
237	0xbd93cd24	-0.07216862
238	0x3d36ebf2	0.04465861
239	0xbd9ccbba	-0.07656045
240	0xbce8521e	-0.028359469
241	0x3d1920f6	0.03738495
242	0xbdbe9e67	-0.093075566
243	0x3df8d57f	0.12150096
244	0x3cdf5980	0.027264357
245	0x3c82e918	0.015980288
246	0x3d92d190	0.07168877
247	0x3c0e7de4	0.008697007
248	0x3da37149	0.07980592
249	0xbd88a806	-0.06672673
250	0x3c3d4aab	0.011553447
251	0x3d5280a9	0.05139223
252	0x3d0a3b44	0.033747926
253	0x3d09b15a	0.0336164
254	0xbd534f62	-0.051589377
255	0xbd47d6c0	-0.048788786

classfier.fc3.bias f4 [25]
0	0xb56753a8	-8.617594e-07
1	0xb7cb1d84	-2.421323e-05
2	0xba2e4d73	-0.0006649114
3	0xb50dcc1f	-5.282363e-07
4	0x368dcf4e	4.226261e-06
5	0xb90c65dd	-0.00013389387
6	0x3a07cfdb	0.0005180814
7	0x370ea1c6	8.501525e-06
8	0x3612a0c6	2.1849278e-06
9	0x36b9a77a	5.5329265e-06
10	0x34f2f525	4.525438e-07
11	0xb9d60094	-0.00040817691
12	0x3a906d89	0.0011018972
13	0x3a9a7e29	0.0011786866
14	0x3a310086	0.0006752092
15	0x380f432f	3.4156426e-05
16	0xb710798b	-8.611368e-06
17	0x36447586	2.9274684e-06
18	0xb994ef06	-0.00028406846
19	0x36887779	4.0670243e-06
20	0xb6dfb262	-6.6666844e-06
21	0xb850037b	-4.9594306e-05
22	0x3a130737	0.000560868
23	0xb5ae7b67	-1.2999925e-06
24	0xb546a14c	-7.3995466e-07

classfier.bn3.weight f4 [25]
0	0x3fa1e999	1.2649413
1	0x3f9ef30b	1.2417921
2	0x3f976286	1.1826942
3	0x3f9374f9	1.1520072
4	0x3f94c052	1.1621192
5	0x3f9b577f	1.2136077
6	0x3f9b001c	1.2109408
7	0x3f9b74fd	1.2145077
8	0x3f91e259	1.1397201
9	0x3fa80f04	1.3129582
10	0x3fa830d7	1.3139905
11	0x3f9c4b55	1.221049
12	0x3f9bb176	1.2163532
13	0x3f9b2fba	1.212394
14	0x3fa16690	1.2609425
15	0x3fa14b78	1.2601156
16	0x3f992542	1.1964495
17	0x3f9f01da	1.242244
18	0x3fa4998b	1.2859358
19	0x3f9b5710	1.2135944
20	0x3fa112a9	1.258382
21	0x3fa6399a	1.2986329
22	0x3f939277	1.1529073
23	0x3f956f11	1.167452
24	0x3f9ba586	1.2159889

classfier.bn3.bias f4 [25]
0	0x3e895fe1	0.26830962
1	0x3e72fb17	0.23728596
2	0x3b461878	0.0030226987
3	0x3bdce257	0.006740849
4	0x3bdc0d34	0.006715441
5	0x3e5fd188	0.21857274
6	0x3e5c72fa	0.21528235
7	0x3e60587b	0.21908753
8	0xbc0c3c97	-0.008559368
9	0x3ea2a451	0.31765988
10	0x3e9f50a9	0.31116226
11	0x3e622012	0.22082546
12	0x3e66f79b	0.22555391
13	0x3e529d5c	0.2056784
14	0x3e8e04d8	0.2773807
15	0x3e88a2c1	0.2668667
16	0x3e4ddd23	0.20103888
17	0x3d0e4f23	0.03474344
18	0x3e984f9a	0.2974823
19	0x3e55e92e	0.20889732
20	0x3e8a38d9	0.26996496
21	0x3e9e1d9c	0.30881965
22	0xbc179f79	-0.00925433
23	0x3a84ef21	0.0010142067
24	0x3e5f3211	0.21796443

classfier.bn3.running_mean f4 [25]
0	0xbf088c39	-0.5333896
1	0xbefd4180	-0.49464035
2	0xbc513f9e	-0.012771515
3	0xbd8a2448	-0.06745201
4	0xbc152786	-0.009103661
5	0xbebd23dc	-0.3694142
6	0xbea76f91	-0.32702306
7	0xbed6bdaf	-0.41941592
8	0xbbce2c4c	-0.0062919017
9	0xbed0a793	-0.4075285
10	0xbf0f0ec6	-0.5588192
11	0xbf255487	-0.64582103
12	0xbe88ba1e	-0.26704496
13	0xbf09b066	-0.5378479
14	0xbf16f733	-0.58970946
15	0xbe84245b	-0.25808987
16	0xbe9536a6	-0.29143256
17	0xbdeb0d77	-0.114771776
18	0xbf4f6b5b	-0.81023186
19	0xbed0c932	-0.407785
20	0xbf5b19a7	-0.8558602
21	0xbeb782e7	-0.35842058
22	0xbe159f47	-0.1461154
23	0x3d5b21ce	0.053499036
24	0xbeebf55e	-0.46085638

classfier.bn3.running_var f4 [25]
0	0x3f702463	0.9380552
1	0x3f3617ed	0.7113026
2	0x3f73efa0	0.95287514
3	0x3f4231ad	0.7585705
4	0x3f577245	0.84158736
5	0x3f8aeb94	1.0853143
6	0x3ecfc10b	0.40576968
7	0x3f0a5354	0.540334
8	0x3f83385c	1.0251575
9	0x3f22fe8b	0.6366965
10	0x3f227bdd	0.6347025
11	0x3f910a1e	1.1331213
12	0x3ee4c3f3	0.44680747
13	0x3f1d7d38	0.61519194
14	0x3efb2ad9	0.49056128
15	0x3f382f65	0.7194732
16	0x3f153885	0.58289367
17	0x3f8c470d	1.0959183
18	0x3ec735fe	0.3890838
19	0x3f0d669b	0.5523469
20	0x3f463a7d	0.77432996
21	0x3f5357d5	0.82555896
22	0x3f53f9cc	0.82803035
23	0x3f4ab0a2	0.7917577
24	0x3f67f365	0.90605766

classfier.fc5.weight f4 [1, 25]
0	0xbe7c99bf	-0.24668024
1	0xbe8be443	-0.27322587
2	0x3e9ad4ac	0.3024038
3	0x3e0f25ff	0.13979338
4	0x3e319ed6	0.17345747
5	0xbecc9c55	-0.39963022
6	0xbead130d	-0.33803597
7	0xbebbd49d	-0.3668565
8	0x3e93fe71	0.2890506
9	0xbe4e6cb7	-0.20158659
10	0xbe47eeec	-0.19524735
11	0xbe9c6a3e	-0.30549806
12	0xbebafe76	-0.36522263
13	0xbebf9ebf	-0.374258
14	0xbe697b78	-0.22801006
15	0xbe8a18a0	-0.26971912
16	0xbec311c7	-0.380995
17	0x3e4dc03a	0.2009286
18	0xbe4e8ae2	-0.20170167
19	0xbeabc685	-0.33549896
20	0xbe759d99	-0.239859
21	0xbe65954d	-0.22420235
22	0x3e4b6882	0.19864085
23	0x3e8bf0f8	0.27332282
24	0xbeb1ab6b	-0.34701094
