src/trained_models/2025-06-12/run_12-01-49/dnn_model_fold_4.pt (torch, 75713 bytes, 19 tensors)

classfier.fc1.weight f4 [100, 100]
000000 3d f3 4d 3c 7e 1b 98 3d 4e 42 a2 3d 89 2e 51 bc
       0.0125702 0.07427119 0.07922803 -0.0127674425
000010 96 d8 80 bd a5 2a be bb 62 a6 5b bd 00 5f 4a bc
       -0.062913105 -0.0058034235 -0.053625472 -0.012351751
000020 76 2e ca 3d 2e c7 9f 3c a6 1b 8d bd d1 67 c1 bd
       0.09872143 0.019504156 -0.06890039 -0.094436295
000030 c1 dd ad 3c 05 fd 62 3d 80 57 75 3d 35 a5 ef bc
       0.021223905 0.05541708 0.0598979 -0.029253582
000040 a3 28 18 bd 10 fe aa bd fa a1 a3 bd ef 64 de 3d
       -0.03714813 -0.0834924 -0.07989879 0.10859095
000050 d5 5f 1d bd 3f bd 5d bd 63 71 3b 3c 0f 34 33 3d
       -0.03842147 -0.054135557 0.011440608 0.04375082
000060 a5 62 e3 3c 14 9b 3a 3d bf 0d 22 3d aa 9c a2 bd
       0.027756998 0.04555805 0.03956389 -0.079400375
000070 79 d4 1d 3c 31 aa bd 3d 5e ae 0c bd 1b db 84 3d
       0.009633177 0.09260977 -0.034345977 0.064871036
000080 86 a0 ef 3d 5e 1b b8 3d d7 6e 76 3d 11 f3 bd bd
       0.11700539 0.08989595 0.0601643 -0.09274877
000090 af 23 c1 bd cf 6d a0 3d 8c bc b0 3d 64 08 78 bd
       -0.09430634 0.07833444 0.086297125 -0.060554877
0000a0 d9 95 a8 3d 85 ce b2 bc 2d b4 06 3d 18 0e b7 bd
       0.08231706 -0.021826992 0.032886673 -0.08938235
0000b0 ed 73 6e bd 82 b6 a6 bd f1 4f 39 3d 7c f7 3e bd
       -0.058216024 -0.08140279 0.045242254 -0.04662274
0000c0 48 27 1c 3d 22 e6 ac 3c eb 31 c0 bb ee 65 95 bd
       0.0381234 0.02110583 -0.0058653257 -0.07294832
0000d0 48 7b e7 3d 47 a3 70 3d b8 68 6e bd b3 06 e1 bc
       0.11302811 0.058749463 -0.058205336 -0.027469015
0000e0 3e fd a1 3d 76 cf 72 bd b1 93 1e bd db 4d 40 bd
       0.0790963 -0.05927988 -0.03871507 -0.04694925
0000f0 01 84 93 bd 0a a0 f4 bc 1e ce 3f bd 58 9b 53 3d
       -0.07202912 -0.029861469 -0.046827428 0.05166182
000100 07 04 90 3d 14 91 10 3d af e2 a5 bd e2 15 2c bd
       0.07032018 0.035294607 -0.08099877 -0.042013057
000110 28 9d f3 3c 56 9e c3 bd 01 2b 13 3d 71 d2 e6 3d
       0.029738024 -0.095516846 0.035929684 0.11270607
000120 24 3b a0 3a b1 92 23 bd f8 6e ab 3b d5 c3 dd bc
       0.0012224657 -0.039934818 0.0052317344 -0.027070919
000130 d2 b2 9c bb 16 d1 3d bd 00 66 f1 3d d2 f6 bc bd
       -0.004782059 -0.046341978 0.11787033 -0.09226765
000140 c1 7a ae 3d 0e a8 91 3d e1 e2 68 bd 49 b7 0c bd
       0.08519507 0.07112132 -0.056856994 -0.03435448
000150 cf 69 53 bd 03 76 dd 3c e5 0b 4b bd 75 12 ec 39
       -0.05161458 0.027033811 -0.04957189 0.0004502718
000160 ec 35 b9 bd 46 c7 81 3d bc 04 a6 3d 45 fc 4c bd
       -0.09043488 0.063368365 0.08106372 -0.05004527
000170 10 90 ae bd c2 11 c0 3c 79 f8 69 3d a8 3f ad 3d
       -0.085235715 0.023445968 0.057121728 0.08459407
000180 67 df d4 bc 2d 00 89 3d ed 2d b4 3b 23 2f 3e 3d
       -0.025985433 0.06689487 0.005498639 0.04643167
000190 08 9f d9 bd 54 1f 98 bd 9a b3 9a 3d 81 fd e0 3c
       -0.10626036 -0.0742785 0.075537875 0.02746463
0001a0 99 7d 28 bd e7 d9 38 3d 28 84 84 3a 01 68 6c 3d
       -0.041135404 0.045129683 0.0010110186 0.057716373
0001b0 0f 2e db bd f1 5b 06 3d ae e2 3e 3c 89 b4 e1 3a
       -0.10702144 0.032802526 0.011650724 0.0017219941
0001c0 b7 a6 02 3c 70 1d de 3c c8 4c ce 3d 32 a5 98 3d
       0.007974318 0.027113646 0.100732386 0.074533835
0001d0 a0 9d b0 bd 57 89 95 bd 83 1b a2 3c f2 96 de 3c
       -0.086238146 -0.07301586 0.01978851 0.027171586
0001e0 c3 7d 4b bd a5 d3 a6 bd 58 c7 4c bc 61 93 59 bd
       -0.049680483 -0.08145837 -0.012498699 -0.053119067
0001f0 3b f7 ca 3c 4a 7b 6c bd 1b 46 b9 bd 95 48 43 bd
       0.024776092 -0.057734765 -0.09046575 -0.04767664
000200 d2 e2 51 3d 95 4d dd bd e8 bc a1 3d f8 e7 75 3d
       0.051241703 -0.10805813 0.07897359 0.060035676
000210 cc 15 a5 3b d0 27 23 bc 12 b1 0c 3d fb 44 f3 bc
       0.005037999 -0.0099582225 0.034348555 -0.029695978
000220 4c 20 91 3c 9a b2 b2 3d 2e af e6 3c b4 2e 8c 3c
       0.017715596 0.08725472 0.028159704 0.017112114
000230 41 de 9c 3c 7a 82 81 3d 0b 44 0a bd b6 4d c3 3d
       0.019148948 0.063237146 -0.033756297 0.095363066
000240 9b ed a9 3c 94 98 98 bd c0 bd bf bd d3 0d 6b 3d
       0.020743182 -0.07450977 -0.09362364 0.05738623
000250 fc 21 2a bc cf dd 7d 3d 43 1e 2c 3d 53 19 8b 3c
       -0.010384079 0.06197911 0.042021047 0.016979849
000260 01 66 81 bd 57 d4 4b 3d bf 5e 1a bb bf b1 7b 3c
       -0.06318284 0.04976305 -0.0023555008 0.015362202
000270 4a f3 01 bd d1 1b 4a 3d 2e cb b4 3c 9d d7 9a 3d
       -0.03172616 0.049342934 0.02206954 0.07560656
000280 11 dd d7 bd fd 83 b0 bd 63 11 1b 3d c4 ec bc 3b
       -0.10540212 -0.08618925 0.03785838 0.0057655293
000290 5e 60 85 bd ea 64 51 bd db 32 aa bd 4c e1 dc bd
       -0.06512521 -0.05112163 -0.08310481 -0.107851595
0002a0 d3 82 95 bd 34 ec ac bd 83 25 93 bc 6c 51 2b ba
       -0.07300343 -0.0844349 -0.017962223 -0.0006535265
0002b0 a7 b1 7c 3d ed 4e 63 bd a8 ee f4 3d 37 ee 98 3d
       0.06169286 -0.05549519 0.119595826 0.07467311
0002c0 c2 92 0d bd c6 39 aa 3d 8a c9 82 bd fa 12 96 bd
       -0.034563787 0.08311801 -0.06386097 -0.07327838
0002d0 d2 2f f7 3d bb 3e 9b bd 93 fd 90 3c 29 f8 13 3d
       0.12069668 -0.07580324 0.017699039 0.036125336
0002e0 10 d1 b8 bd 23 74 23 bd da 14 18 bd 93 20 d5 bd
       -0.090242505 -0.03990568 -0.03712926 -0.10406604
0002f0 7d ed 0d 3c 37 5e 83 bc 02 7c c6 3c 31 eb a4 3d
       0.008662579 -0.016036136 0.024229053 0.08052672
000300 45 0f b8 3c 5a 4a 77 bd 4a 9e 65 bd 4a e2 c6 3c
       0.022468219 -0.06037364 -0.05605916 0.024277825
000310 d1 cc 97 bd 30 8f 4f bd 6b 4c 95 bd 2a f0 7e bd
       -0.074121125 -0.050673664 -0.07289966 -0.062240757
000320 59 a4 8b 3d 5e c4 c1 3c bf c3 9b 3d 3c c0 5e bd
       0.06818456 0.023653205 0.07605695 -0.054382548
000330 36 51 67 3d 04 d3 b1 bc 08 84 2a 3c d5 13 94 bd
       0.056473933 -0.021707065 0.010407455 -0.07230345
000340 73 3e d0 bd 52 cf f4 bc f9 83 51 bb a4 ae 65 ba
       -0.10168161 -0.029884014 -0.003196953 -0.000876168
000350 95 34 b0 bd af f6 ad bd 5c 8e 3a bd 15 eb 8f 3c
       -0.08603779 -0.08494317 -0.04554592 0.01756815
000360 df 19 f4 bd ba c1 0d bd 27 84 95 3d be 7b 13 3c
       -0.11918997 -0.03460858 0.07300597 0.00900167
000370 7a 77 85 bd 74 12 e3 bd ed d1 96 bd ed de 72 3d
       -0.06516929 -0.11087504 -0.07364259 0.05929463
000380 83 88 d6 3d ba 65 4c bd d6 d9 ae bd 88 c9 c9 3b
       0.10475256 -0.0499017 -0.08537643 0.0061580576
000390 77 b1 83 3d 38 6f ea 3c 79 81 3d 3d d4 18 59 bd
       0.06430333 0.028617486 0.046266053 -0.053002194
0003a0 77 c7 a8 bd ab fb 46 3d 49 c4 bd 3c 3b d5 8a 3d
       -0.0824117 0.048579853 0.023164885 0.06778952
0003b0 83 f5 28 3d 34 1a fd 3b 83 17 60 bd 0e 01 c3 bc
       0.041249763 0.007724071 -0.054709923 -0.023804214
0003c0 69 dd 09 3d 4e fa 80 bd 52 17 01 3d ea f7 8c bd
       0.03365842 -0.06297742 0.03151638 -0.06883223
0003d0 08 8d 21 bd 98 8d 5a bd ee c5 a3 bd 13 9a 09 bc
       -0.03944114 -0.05335769 -0.079967365 -0.008398551
0003e0 b9 da 21 3d 62 aa 2a bd 0b be 5a bd d5 bd cd bd
       0.03951523 -0.041666396 -0.053403895 -0.10045973
0003f0 ad fe 62 bd c4 e6 df 3c d9 a7 c1 bd 6d ce 8d 3d
       -0.05541866 0.027331717 -0.094558425 0.06924138

classfier.fc1.bias f4 [100]
000000 61 7a 9b 3d 4b a5 ca 3b 1d 36 50 bd ad 51 a1 bd
       0.07591701 0.0061842552 -0.050832856 -0.078769065
000010 20 fd 57 bd 01 94 b6 bc 36 42 ee 3b 9e 3e 91 bd
       -0.052731633 -0.02228737 0.0072710766 -0.070920214
000020 87 b3 ef bc c1 0f 96 bc b4 1f 45 3d 60 05 db bc
       -0.02926041 -0.018318059 0.048125938 -0.026735961
000030 3b 28 13 3d 8b 92 bc 3d 65 b9 0e bd 42 a4 be 3d
       0.03592704 0.09207638 -0.034844775 0.093086734
000040 b1 3f e6 3c b9 e1 0c bd bb 34 ac 3d 75 59 6b bd
       0.028106542 -0.034394953 0.08408495 -0.05745836
000050 f1 a5 95 ba a4 20 57 3d df 39 98 bd 88 7c 68 bc
       -0.0011417252 0.052521363 -0.07432913 -0.014189847
000060 5d b2 c3 bd aa f3 be bd 18 03 ba 3d e3 17 a3 bc
       -0.095555045 -0.09323819 0.09082621 -0.019908851
000070 44 0c 57 bd b8 e7 b5 bd e6 60 59 bc 8c bb c4 3d
       -0.05250193 -0.088820875 -0.013267731 0.09606084
000080 c2 9d 17 3d d7 df 78 bd e0 65 87 bb bb ba 79 3d
       0.037015684 -0.060760345 -0.0041320175 0.060969096
000090 2e 30 91 bd b3 c7 d6 3c ec 4e 0b bc 9e 77 a3 3d
       -0.07089268 0.02621827 -0.008502703 0.079817995
0000a0 0a b9 0e bc de 74 3c 3d 1d 47 92 bd 89 7b 55 3d
       -0.008711109 0.04600989 -0.0714247 0.052119765
0000b0 54 88 c1 3d 0f eb 64 3d 8e 4e a9 bd 3d 8b 91 bd
       0.09449831 0.05588823 -0.08266936 -0.07106636
0000c0 6b 75 c6 bc 7e ad 98 3b 14 16 0e bd 3d ac 25 3d
       -0.024225911 0.0046593538 -0.034689024 0.040447462
0000d0 ac eb 1e bd 16 68 aa 3d 50 e4 ca 3d a6 cd 34 3d
       -0.038798973 0.08320634 0.099068284 0.044141434
0000e0 b1 5d 12 bd 0d 08 bc bd 09 68 8f 3d e9 e2 38 3c
       -0.035733882 -0.09181223 0.07002265 0.011284568
0000f0 fa 71 ba bd 4e 15 62 bd 67 43 aa bc d3 52 b6 bd
       -0.091037706 -0.0551961 -0.020784093 -0.08902516
000100 e3 26 bf bd 36 86 b7 bd 34 df 59 3d 91 9f ca bd
       -0.09333589 -0.089611456 0.05319138 -0.09893716
000110 79 f4 76 3d ff 57 8c bb aa 08 b4 3d 27 28 ea 3c
       0.06029174 -0.004282951 0.08790715 0.0285836
000120 e1 cf 89 3d 1c 06 8d bd 31 7a a4 3d 8f 18 84 3d
       0.06729103 -0.06885931 0.08031119 0.06449997
000130 53 ae 34 bd 76 6d c6 3d ac a7 8c bd 6f 4a 41 bd
       -0.04411156 0.09688847 -0.06867918 -0.047190126
000140 70 b6 bf 3c 21 97 7a bd 26 e1 74 3d 37 be a8 bd
       0.023402423 -0.061179284 0.05978503 -0.082394056
000150 c1 cf 77 3d 7f 5a 87 bd 31 9c f4 bc f7 2f 63 bd
       0.060500864 -0.06609058 -0.029859634 -0.055465665
000160 d3 2d 48 3d 3e 54 5b 3d a4 ed 05 bd 5a af 94 ba
       0.048871826 0.053547136 -0.032697335 -0.0011343763
000170 5d 78 a6 bd 49 8f 2b bd f1 6b cd 3c a6 c7 ca bc
       -0.08128426 -0.041884694 0.025075885 -0.024753403
000180 32 07 c9 3d b9 da 9b 3d 0f cc bf bc e4 bf c5 3d
       0.098158255 0.076100774 -0.023412732 0.09655741

classfier.bn1.weight f4 [100]
000000 5e 23 86 3f a1 99 77 3f 70 30 79 3f 89 a9 87 3f
       1.0479543 0.96718794 0.97339535 1.0598613
000010 e4 97 84 3f 9d 40 84 3f f9 9d 85 3f c6 bc 84 3f
       1.0358853 1.0332218 1.0438834 1.0370109
000020 c1 9a 76 3f 42 db 70 3f 8d 55 77 3f c3 b7 7d 3f
       0.96329886 0.9408456 0.96614915 0.99108523
000030 af 52 7e 3f 00 c4 7b 3f 2c 1f 80 3f 62 22 84 3f
       0.99344915 0.9834595 1.0009513 1.0322993
000040 53 ff 77 3f f2 1a 81 3f ee 9b 7a 3f ff 38 75 3f
       0.9687397 1.0086348 0.9789418 0.95790094
000050 f4 65 77 3f 7a bc 82 3f 14 5a 7b 3f 33 ca 76 3f
       0.96639943 1.0213768 0.98184323 0.9640228
000060 89 24 7a 3f ae 2d 86 3f b0 53 7a 3f d6 96 83 3f
       0.97712 1.048269 0.97783947 1.0280406
000070 7d 7f 80 3f c2 0a 88 3f 06 59 79 3f 9a 27 81 3f
       1.0038906 1.0628283 0.97401464 1.009021
000080 d4 43 81 3f 49 c2 74 3f b6 52 76 3f 96 6c 79 3f
       1.0098825 0.95608956 0.96219957 0.97431314
000090 5e 1f 7e 3f ec 92 8a 3f ec 07 82 3f 44 62 80 3f
       0.9926661 1.0826087 1.0158668 1.0029988
0000a0 a8 c7 76 3f f8 de 74 3f 01 19 7b 3f 13 b2 85 3f
       0.963984 0.95652723 0.9808503 1.0444969
0000b0 48 4d 77 3f fd a4 7c 3f 3b e2 77 3f 7a 7d 85 3f
       0.96602297 0.9868925 0.96829575 1.0428917
0000c0 a6 8e 80 3f b7 80 86 3f 45 1a 84 3f 20 68 71 3f
       1.0043533 1.0508031 1.0320517 0.9429951
0000d0 8d 9d 74 3f c8 89 72 3f 51 81 77 3f ff 88 70 3f
       0.95552903 0.9474149 0.96681696 0.9395904
0000e0 a9 3d 7d 3f d4 94 7c 3f 5e 0f 7a 3f d5 a1 83 3f
       0.9892221 0.98664594 0.976797 1.0283762
0000f0 e5 d7 72 3f f5 02 7d 3f 12 80 7d 3f 1e 02 7c 3f
       0.9486068 0.9883264 0.99023545 0.9844073
000100 e2 be 88 3f e9 24 7a 3f d3 79 83 3f 54 d3 7a 3f
       1.0683253 0.9771257 1.0271553 0.9797871
000110 dc 10 78 3f 26 5d 7c 3f da 5a 7f 3f a3 26 7e 3f
       0.96900725 0.98579633 0.99748003 0.99277705
000120 4a 8e 81 3f b3 07 76 3f 84 f3 83 3f 7c a6 86 3f
       1.0121548 0.961055 1.030869 1.0519557
000130 32 25 74 3f 7a 9b 86 3f e9 0c 79 3f 85 b6 73 3f
       0.95369256 1.0516198 0.97285324 0.9520038
000140 50 87 80 3f 25 9b 7c 3f 16 70 7c 3f be 00 78 3f
       1.0041294 0.9867423 0.9860853 0.9687613
000150 c9 ba 81 3f 4c d0 77 3f 2e c7 8f 3f 22 5c 7f 3f
       1.0135127 0.9680221 1.123266 0.9974996
000160 c2 b5 72 3f 64 d7 7b 3f d7 f8 7a 3f b3 b2 80 3f
       0.9480859 0.98375535 0.9803595 1.0054535
000170 65 60 77 3f f6 7a 82 3f ab 34 7a 3f 36 92 80 3f
       0.9663146 1.0193775 0.97736615 1.004462
000180 41 f0 81 3f 73 48 78 3f 47 25 74 3f c5 07 81 3f
       1.0151445 0.9698555 0.9536938 1.0080496

classfier.bn1.bias f4 [100]
000000 f1 44 c7 39 84 a5 40 bd 3f 92 6e bc 25 d7 9f bd
       0.00038007603 -0.047032848 -0.014561235 -0.078047074
000010 d6 55 86 bd de 84 cd bd ab 6b 33 bd d4 49 d7 bd
       -0.06559341 -0.10035108 -0.043803852 -0.105121285
000020 f3 7b 1d bb 1c 48 9f bd 62 cc b6 bd 55 d0 c5 bb
       -0.0024030178 -0.07777426 -0.08925702 -0.006036798
000030 ac 68 a2 bd fa 3d 6d bd dd b4 d3 3a 0c 88 e2 bb
       -0.07930121 -0.057920434 0.0016151924 -0.0069131907
000040 24 d8 fc bb f0 92 9a bd cc c2 04 bd fe 40 11 3b
       -0.0077161957 -0.07547557 -0.032412335 0.0022163983
000050 98 bd 55 bc 57 7a 03 bd b9 8e 2c bd 8e 8e e9 bc
       -0.013045691 -0.032099094 -0.0421283 -0.028510358
000060 e0 d5 c0 3c 9f 6a c9 bd f0 9d 79 3b a0 c8 94 bd
       0.023539484 -0.098347895 0.0038088523 -0.07264829
000070 0b 14 43 bd c2 e5 9a 3b e9 93 ad bc 86 e2 87 bd
       -0.047626536 0.0047270963 -0.021188693 -0.06635003
000080 c4 42 bb 39 b6 15 7e bd fb 9c 8a bd c6 26 ae 3b
       0.00035717164 -0.062032424 -0.06768223 0.0053146807
000090 68 80 ea 3b f0 b9 be bd 83 e6 5d bc 47 51 5b bd
       0.0071564205 -0.093128085 -0.013543728 -0.05354431
0000a0 1b 8e 73 bd ce c1 7f bd 78 3e 11 3c 40 52 8a bd
       -0.059461694 -0.062440686 0.008864991 -0.06753969
0000b0 ca 42 75 bd 24 5c 0e bc 96 d1 0a bd 5b 1d 44 bd
       -0.05987815 -0.00868896 -0.033891283 -0.047879558
0000c0 3b 87 2b bc 98 27 b1 bd 74 89 d8 3c a9 4b 88 bd
       -0.010469253 -0.0865013 0.02643273 -0.06655056
0000d0 0d db 3f bc 62 9e 00 bd 09 b2 1e bd d4 c4 9b bd
       -0.011709941 -0.031401046 -0.038744006 -0.07605901
0000e0 75 c6 99 bc fd 6e a5 bd 8a 7c 2d bd a2 5d bd bd
       -0.01877139 -0.0807781 -0.042355098 -0.09246375
0000f0 af 88 e5 bc b6 32 07 bd d4 b4 3f bc 9a 78 e6 bc
       -0.028019277 -0.033007346 -0.011700828 -0.02813368
000100 dc 57 8c bd 83 47 82 bd 17 4e 5e 3c a9 17 19 bc
       -0.06852695 -0.06361296 0.013568423 -0.00934402
000110 a1 a1 16 bd f8 28 86 bd 86 a8 fa bc a0 99 6c bc
       -0.036775235 -0.06550783 -0.030597936 -0.014440924
000120 f6 35 c0 3c db 98 b7 bd d4 de 8e 3c 93 35 ca bd
       0.02346323 -0.08964702 0.017440237 -0.098735
000130 97 fd fb bc dd ad b3 bd 68 18 6e bd 4a 04 80 bd
       -0.03076057 -0.08773396 -0.058128744 -0.06250818
000140 94 71 8e bd 53 1b 4d bd 6a 14 2c bd cf 6e 80 bd
       -0.06955257 -0.050074887 -0.042011656 -0.06271135
000150 5e 17 90 3c a0 2f 8f bd 48 15 46 3d 10 07 86 bd
       0.017589267 -0.069915056 0.04836014 -0.06544316
000160 a9 49 81 bd c1 1f a6 bd 91 cf d5 bc 6a f3 14 bd
       -0.06312878 -0.08111525 -0.026099952 -0.03636495
000170 b6 98 c7 ba 6c b1 75 3d c6 01 e9 bc 92 2c aa bd
       -0.0015228007 0.059983656 -0.028443228 -0.08309282
000180 26 dd a9 bd 7c f2 cb bc ef 1c 30 bd 4b a4 94 bc
       -0.08294134 -0.024895899 -0.042996343 -0.018144747

classfier.bn1.running_mean f4 [100]
000000 29 dd ff be a9 86 c1 3f d6 91 2d 3f 67 9d 9c be
       -0.4997342 1.511922 0.67800653 -0.30588838
000010 e1 be 07 bf d6 79 36 be 14 2d b9 bd a8 a0 86 bd
       -0.53025633 -0.17819914 -0.09041801 -0.065736115
000020 dc c0 ba 3e 39 8f 8c bf 80 a9 74 be 65 1a 02 bf
       0.36475265 -1.0981208 -0.23892784 -0.50821525
000030 fb 7e ab be ba 95 1e bf f6 72 bf 3e e7 31 83 3e
       -0.33495316 -0.61947215 0.37392396 0.2562401
000040 88 e5 a5 3f e9 c3 67 be 34 db 02 bf 94 69 a4 3d
       1.2960672 -0.22633328 -0.5111573 0.0802795
000050 ea c7 96 3f f8 41 6b bf 12 c9 b1 be aa 2d 9e be
       1.1779759 -0.91897535 -0.34723717 -0.30894214
000060 74 08 cd 3f 47 91 87 be 49 d0 d5 bd cb 2b 8b be
       1.6018205 -0.26478025 -0.10440118 -0.2718185
000070 09 7b 25 3f b5 f2 54 bd 54 3e 01 bf d1 0b 0a be
       0.6464086 -0.051989276 -0.5048573 -0.1348107
000080 db 57 f0 3d fd 2c 68 3f 68 49 0d bf d4 e1 8b 3f
       0.11735507 0.90693647 -0.55190134 1.0928292
000090 c4 ba 50 3f cb d9 11 be 60 25 cb bd d8 de 56 bd
       0.8153498 -0.14243238 -0.09919238 -0.052458614
0000a0 10 57 9f bf 08 5a a7 bf 54 78 19 40 e0 ed 45 be
       -1.2448444 -1.307435 2.3979692 -0.19329023
0000b0 32 63 0c 3f 03 7c 33 bf 72 79 aa 3f 59 b6 21 be
       0.5483886 -0.701111 1.3318312 -0.15792216
0000c0 09 79 ca 3e a2 e4 3f be 66 ed 0a bc 10 70 23 bf
       0.39545467 -0.1873956 -0.008479452 -0.6384287
0000d0 cb 03 e4 bf 2f 1e f3 3e 58 5c 4b 3d f6 85 c1 bf
       -1.7813658 0.47483966 0.049648613 -1.5119007
0000e0 1f cd 50 be d6 93 c4 be 5c 90 9e 3e 32 42 96 be
       -0.20390747 -0.3839404 0.30969512 -0.29347378
0000f0 e8 2b a3 3f 78 6a 67 bf 6c 94 06 3e c8 b0 7d 3e
       1.2747774 -0.90396833 0.13142556 0.24774468
000100 7a 82 9f be 72 37 99 3f d6 40 57 bf 82 29 2c bf
       -0.31154233 1.1970046 -0.84083307 -0.67250836
000110 f5 8b 42 40 e9 aa d6 be 6b b5 34 bf 90 e3 7c bd
       3.0397923 -0.4192727 -0.7058932 -0.061740458
000120 b5 b9 b2 bd 49 20 87 be ff b8 d6 3e e7 3f 9f be
       -0.08726827 -0.2639182 0.41938016 -0.3110344
000130 62 6f 97 3f 30 1d 95 bd dd 21 bd bf 15 07 d1 be
       1.1830866 -0.07280958 -1.4775959 -0.40825716
000140 e9 01 64 be 93 a0 ac bf 6d 8f 37 bf e3 8d 00 c0
       -0.22266354 -1.3486503 -0.71703225 -2.00866
000150 21 52 5c be 18 45 58 bf 12 39 fb 3c 31 d7 b7 be
       -0.21515705 -0.8448043 0.030666862 -0.35906366
000160 25 28 90 bf 67 04 9a be af 42 d3 bb ae 62 f0 bc
       -1.1262251 -0.30081484 -0.0064471583 -0.02934393
000170 92 05 91 bf d8 f3 09 3f f7 f5 0d bf e8 c3 27 be
       -1.1329825 0.538877 -0.5545344 -0.16383326
000180 2d 35 4d be fe 10 40 3f 23 ec 99 bf 8f 21 97 3e
       -0.20039816 0.7502593 -1.2025188 0.2951779

classfier.bn1.running_var f4 [100]
000000 7d 75 e8 3e 44 4f 47 3f ca 7c 8d 3e 10 ab 3c 3d
       0.45402136 0.77855325 0.2763427 0.046061575
000010 ed a0 ee 3d e4 8e 48 3d b3 d8 5e 3d bf 4c 89 3d
       0.11651788 0.048964396 0.05440588 0.06704091
000020 6b af be 3d ea 74 65 3f 8a 81 09 3e 3e 00 e1 3e
       0.09310802 0.8963152 0.13428321 0.43945497
000030 a5 4b 92 3d 3a 2a 9c 3e 3e 5a c5 3d 03 4a 71 3d
       0.07143334 0.30500966 0.09636353 0.058908474
000040 6d 0d 4e 3f af c4 81 3d 9d 51 87 3e db ac f7 3d
       0.80489236 0.063363425 0.26429453 0.120935164
000050 0c 46 c7 3e b7 3a 29 3f 94 ab ef 3d 91 76 2a 3e
       0.3892063 0.66105217 0.11702648 0.16646792
000060 58 df 96 3f c0 2f 41 3d be 91 7b 3e 35 d9 52 3d
       1.1786909 0.04716468 0.24567315 0.051476676
000070 86 ed 12 3e 38 55 9a 3d d0 cb 48 3e c5 e2 cf 3d
       0.1434842 0.075357854 0.19608998 0.10150675
000080 b1 01 90 3d c5 34 24 3f cf 66 cb 3d 6c 3a 77 3e
       0.070315726 0.6414302 0.099317186 0.2414338
000090 6d df b2 3e 4b 91 b0 3c 53 5f f2 3c 31 95 c0 3d
       0.34936085 0.021553656 0.02958647 0.09403456
0000a0 58 47 05 3f 32 60 5a 3f 63 42 b9 3f 92 09 89 3d
       0.52061987 0.8530303 1.4473385 0.066912785
0000b0 82 1d e9 3d 5f 62 f4 3e d1 d2 47 3f a1 a6 01 3d
       0.11382581 0.477313 0.78056055 0.03165305
0000c0 30 46 0e 3e ee f9 0c 3d 59 5a a5 3d fe 87 52 3e
       0.13893962 0.03441804 0.08073873 0.2055969
0000d0 5d d9 ba 3f 89 cf 47 3e a7 51 74 3e 28 15 01 3f
       1.4597584 0.19512762 0.23859273 0.50422907
0000e0 32 c0 7d 3e 5a c6 64 3d 1c ca 45 3d 41 cf a6 3d
       0.24780348 0.055853225 0.04828845 0.08144999
0000f0 6c 46 d5 3e d9 97 f0 3e f1 a5 77 3d 9c 58 c0 3d
       0.4165529 0.4699085 0.06046099 0.09391901
000100 61 44 03 3d 68 81 27 3f 82 fd 4e 3f 73 0b ec 3e
       0.032047633 0.65431833 0.8085557 0.46102485
000110 82 cb 2f 40 4a 75 40 3e b4 15 12 3f 96 5f 69 3d
       2.7467961 0.18794742 0.57064366 0.056975923
000120 49 1a a0 3d 6b 7e 95 3d cf 0e cc 3d be 52 69 3d
       0.078175135 0.07299503 0.09963762 0.056963675
000130 a6 a2 1a 3f 70 77 46 3d ba 90 fc 3e f5 20 03 3e
       0.6040443 0.04845375 0.49329168 0.12805541
000140 18 95 82 3d f2 8a 6b 3f 05 d9 9e 3e d2 ff 4b 3f
       0.063760936 0.9200889 0.31024948 0.79687226
000150 96 7c 42 3e f7 5e 71 3e 74 a4 6e 3d 19 36 04 3e
       0.18992838 0.23571382 0.058262303 0.12911262
000160 a7 b5 18 3f 67 cc cc 3d 0e fe 7b 3e 9e e9 85 3d
       0.5965218 0.09999924 0.24608633 0.065386996
000170 0f 00 08 3f ae 43 6a 3e d0 d7 56 3e c1 cd 4f 3d
       0.5312509 0.2287738 0.20980763 0.05073333
000180 3b 55 9c 3d 6b 50 80 3e 8d 97 70 3f 3d b5 33 3e
       0.07633444 0.25061354 0.9398125 0.17549606

classfier.fc2.weight f4 [50, 100]
000000 16 fd 31 bd f6 0d b3 bd 8e ad ea bd 20 12 ad bd
       -0.043454252 -0.08742897 -0.11458884 -0.08450723
000010 8c 1a 41 bd 74 ed 48 bd 39 f4 8f 3c 60 4a df 3d
       -0.047144458 -0.049054578 0.01757251 0.10902858
000020 58 dd 9c bc 96 00 aa bc d2 bc 3c bc 45 18 ab bd
       -0.019148514 -0.020752233 -0.011519628 -0.083542384
000030 97 a1 bf 3c 93 62 14 bb 00 ed ac bd 99 58 81 3d
       0.023392482 -0.0022641763 -0.08443642 0.06315727
000040 d4 6f f8 bc 09 26 9f bc 2b 6a d6 bc 64 0e 71 bd
       -0.030326761 -0.019427316 -0.026173672 -0.058851615
000050 e4 89 c9 bd 7e 12 34 3d 96 4d b9 bd 61 73 c5 3d
       -0.09840754 0.043962948 -0.090480015 0.096411474
000060 58 03 1c 3d bc 19 3b 3d 7d 39 6f 3d 5e d9 90 3d
       0.038089126 0.04567884 0.058404434 0.070727095
000070 ba ad 98 bd 8e 15 eb 3c ce 35 8c bc 70 bf 88 3d
       -0.07455011 0.028696802 -0.0171155 0.06677139
000080 19 c2 af 3c 25 c5 2b 3d 45 80 aa bd b6 48 9f bd
       0.021454858 0.04193606 -0.08325247 -0.077775404
000090 9c cf b3 3b e5 f7 36 bd 68 32 97 bd 4f 99 b3 bd
       0.0054873955 -0.044670004 -0.07382661 -0.08769476
0000a0 9c 4a 99 3d c7 bc 4d 3d 9a 7e 80 3d af f9 9c bd
       0.07484934 0.05022886 0.06274147 -0.07664811
0000b0 17 dc 54 3d 47 c1 b3 bd 28 ce de 3b d5 10 84 bc
       0.051967707 -0.08777099 0.006799478 -0.016121307
0000c0 b6 65 98 3d d0 25 0e 3d ce 9b 92 3d 6e fd d9 3a
       0.07441275 0.03470403 0.07158624 0.0016631314
0000d0 40 ea 44 bd 08 1a 26 3d 61 8c 2a 3d fe ed 92 bc
       -0.04807496 0.04055217 0.041637782 -0.01793575
0000e0 2a 5b cf 3c 15 3a 9c bd 58 f4 2e bd 07 a4 d2 3b
       0.025312025 -0.07628266 -0.042713493 0.006428245
0000f0 2b 6a 74 bd 6e 04 a2 bd 05 15 d2 bd cd c5 ca bd
       -0.059671562 -0.07911001 -0.102579154 -0.09901009
000100 7c 67 df bd 99 81 b9 bd c1 74 de 3d 20 fd 48 bd
       -0.1090841 -0.09057922 0.10862113 -0.049069524
000110 8d 9d 8d 3d 39 49 a1 bd c7 46 42 bb cb 16 95 bd
       0.06914816 -0.07875294 -0.0029644237 -0.07279738
000120 43 06 90 3d fd ae 6e bd 04 d3 c5 3a 20 80 c6 3c
       0.07032444 -0.05827235 0.0015092795 0.024231017
000130 97 b2 ac 3d c3 88 39 3b 87 44 87 3d ba 7f 9d bd
       0.08432501 0.0028310276 0.066048674 -0.076903775
000140 95 db a9 3d 22 fd 2a 3d bc 61 16 bc 1d df ad bd
       0.08293835 0.041745313 -0.009178575 -0.08489821
000150 85 3b 2d 3c 18 f3 16 bc 1f 51 a1 3c d5 3c 76 3d
       0.010573273 -0.0092132315 0.019692002 0.060116608
000160 eb 44 64 3d 80 43 a8 bd c4 59 3b bd 5a 52 99 bd
       0.055729788 -0.082159996 -0.045739904 -0.074864104
000170 65 c0 1d bc 40 d0 4b 3d 72 d4 99 bd 04 dc ba bd
       -0.00962839 0.04975915 -0.07511224 -0.09123996
000180 1e 18 f3 bc 03 8b 8e 3d 94 a8 8e 3d 52 25 c2 3d
       -0.029674586 0.06960108 0.069657475 0.094797745
000190 76 c4 a3 3d ec c4 1b 3c 5e 55 b6 3d 91 15 5e bd
       0.07996456 0.009507399 0.08903001 -0.054219786
0001a0 1f d0 95 bd b2 c8 32 3d 7c 50 b8 bc 17 d6 8f bd
       -0.073150866 0.04364843 -0.022499315 -0.07023256
0001b0 0d ac 40 3d d5 ea 0d bd 66 39 3e 3d 20 74 b7 3d
       0.04703908 -0.03464778 0.04644146 0.08957696
0001c0 6f 69 8f bd b6 7f b3 bd 19 13 59 3d 9c 7d 92 3d
       -0.07002532 -0.08764593 0.05299673 0.07152864
0001d0 a2 e0 72 3b 0b 97 7d 3d 1c 38 b0 bd 87 ea 9e bd
       0.003706016 0.061911624 -0.08604452 -0.07759576
0001e0 3f 97 34 bd c6 3b d5 3d da dc cc bd 94 c2 64 3c
       -0.044089552 0.104117915 -0.100030616 0.013962407
0001f0 c5 4e 70 bd 2a aa aa bd 70 61 02 bd a1 d3 a6 bd
       -0.05866887 -0.083332375 -0.031831205 -0.08145834
000200 c9 14 96 3d 35 9f bb bc fd b5 a1 bd bb 73 ba bc
       0.07328183 -0.022903064 -0.0789604 -0.022760263
000210 1a a7 63 bd 03 20 13 3d 07 de 3d bd 78 2e ef 3d
       -0.055579282 0.0359192 -0.04635432 0.11678785
000220 81 12 9c bc 8a 31 16 3a ed 53 53 bd 2a ea 87 3d
       -0.019051792 0.0005729428 -0.05159371 0.0663646
000230 64 83 56 bc aa a3 02 3d 8f 81 05 3d ee 9a 8b bd
       -0.013092849 0.031894363 0.03259426 -0.0681666
000240 69 90 95 bc 29 5a b3 bc 1d 24 31 3d 01 e2 96 bc
       -0.018257337 -0.021893578 0.04324733 -0.018418314
000250 65 3f 98 3c 79 2a 6d bc 4f 76 06 3d 62 83 78 bd
       0.018584916 -0.014475458 0.03282767 -0.06067217
000260 93 ea 93 bd 66 a4 cc bc a2 9a f4 3c 7a 42 89 bc
       -0.07222476 -0.024980735 0.02985889 -0.016755331
000270 08 a8 64 bc bd 9a 65 bd 8a 0c c0 3d 71 23 0c bb
       -0.013956077 -0.056055773 0.09377392 -0.002138343
000280 37 4e 49 3c 11 6b 63 bc 4b 3a 55 3d 41 74 ac 3d
       0.012286714 -0.013880507 0.052057546 0.08420611
000290 c2 b8 27 bd 6a 2f f6 3c 5b 3b 88 3c e5 35 2e 3d
       -0.040947683 0.030051906 0.016629865 0.042531867
0002a0 2c 3b 5a 3c 7e a8 68 bd f8 84 7e 3d 09 f9 86 bd
       0.013319772 -0.05680131 0.062138528 -0.065904684
0002b0 ed e7 4f bc 76 44 ea bd af d2 af bd 8f 96 ee 3c
       -0.012689573 -0.11438839 -0.085851066 0.029124526
0002c0 2c 90 08 bc f0 cc 20 3d cd a5 7e bb 51 8f ce 3b
       -0.0083351545 0.039257944 -0.003885615 0.0063037057
0002d0 af b0 a7 bd 01 16 b8 3b e1 3e 5b 3d 58 f7 9f 3d
       -0.081879966 0.0056178574 0.053526763 0.07810849
0002e0 0e 6c b0 3d 43 e2 93 3d db 88 a0 3d ef a1 8c 3d
       0.0861436 0.072208904 0.07838603 0.06866824
0002f0 a0 b1 e8 3c 22 c5 33 3d f2 d8 aa bc 0f 46 16 3d
       0.02840501 0.043889172 -0.0208554 0.036687907
000300 e0 d5 1d bd 10 d4 47 bd 00 71 4b 3b e1 0c 69 3c
       -0.038534045 -0.048786223 0.0031042695 0.014224262
000310 a6 fb 7c 3b af 17 96 3d bf 90 a8 bc 3d f4 4f bd
       0.0038602143 0.07328736 -0.020576833 -0.050770033
000320 b6 9f a5 bd 6d 70 fb bc ea 3a f3 bb 45 ca a7 bd
       -0.08087103 -0.030693257 -0.0074227946 -0.08192877
000330 e3 84 4b bd a0 bd a6 3d 0b 13 bd bb 10 9d 54 bd
       -0.049687278 0.08141637 -0.0057700924 -0.0519076
000340 9d 67 68 3c ab 7d b1 bd 6f 09 fe bb 2e 24 4f bd
       0.01418486 -0.086665474 -0.0077525894 -0.050571613
000350 e7 50 b6 bd ad c8 c8 bd 5f e2 e0 bd d4 79 83 bd
       -0.0890215 -0.09803901 -0.10980677 -0.06419721
000360 dc f4 c2 3c 9a a5 a6 bd ed c8 d8 bd b6 61 ea 3c
       0.023798399 -0.08137055 -0.105851986 0.028611045
000370 84 4e 8c bd 3b b1 f4 3b 23 5b 11 3c 72 5f 1c 3d
       -0.06850913 0.0074674166 0.008871826 0.03817696
000380 3c 85 80 3d 6a b4 e6 3b f9 df f5 bc fa 51 9e bd
       0.062754124 0.00704055 -0.030014025 -0.077304795
000390 b5 d0 96 3b b9 23 d7 3c a3 76 15 3d 31 46 a2 bc
       0.0046025165 0.026262151 0.036490094 -0.01980886
0003a0 af 26 98 bd 54 fd 0b 3c 24 c0 77 bd 68 2f cd bd
       -0.07429253 0.008544285 -0.060485974 -0.10018808
0003b0 3d 58 4a 3b 62 20 0e bd 17 02 57 3d 99 04 ab 3b
       0.0030875348 -0.03469885 0.052492227 0.005219054
0003c0 85 eb d4 bd 67 ef 0b bd 28 53 d2 bd 16 b9 45 bc
       -0.10396484 -0.03416386 -0.10269767 -0.012068054
0003d0 cd 14 97 3d c7 06 e0 3c 08 d4 31 3c d0 60 2d bd
       0.07377014 0.027346982 0.010853775 -0.042328656
0003e0 0f c3 40 3d 72 26 ba bd 5e fb be 3c 55 09 e3 bd
       0.047061022 -0.09089364 0.02331322 -0.11085764
0003f0 c1 87 f4 bd aa 04 df 3c a8 b7 d3 3c 8c b1 66 bd
       -0.119399555 0.027223904 0.02584441 -0.056321666

classfier.fc2.bias f4 [50]
000000 bf 7b 3c bd 20 df 9e 3d b1 1e a1 bd f3 51 e3 bc
       -0.04601645 0.077574015 -0.07867182 -0.027749037
000010 a2 10 6f 3d 07 ed dd bc a1 c9 3a bd 1f 35 af 3d
       0.05836547 -0.027090563 -0.045602445 0.08555054
000020 c8 6c c7 bd 18 ac 5b 3d 86 65 5d bd 21 6f c6 bc
       -0.09737545 0.05363092 -0.0540519 -0.024222912
000030 c6 3c ac bd cd d3 23 bd e0 ca 68 bd 78 68 bc bd
       -0.08410029 -0.03999691 -0.0568341 -0.09199613
000040 0c 4e 2e 3d fe e4 2d 3d bc 22 88 3c ff a8 15 bd
       0.0425549 0.042454712 0.016618125 -0.03653812
000050 79 f5 8e 3d 91 ab b0 3c 01 d2 6b 39 b8 01 b8 3d
       0.06980414 0.021566184 0.00022489579 0.08984703
000060 90 93 1a bd 70 db 63 ba 0d 67 cb 3d 65 4a 4b 3d
       -0.037738383 -0.00086920615 0.09931765 0.049631495
000070 71 2f 92 bd 92 7c 12 3d 0f fa b0 bd 20 36 08 bd
       -0.07137955 0.03576333 -0.08641445 -0.033254743
000080 23 ff 2e bd e8 cb 5f 3d 58 89 a7 bd e8 9c 38 bd
       -0.042723786 0.05463782 -0.08180493 -0.045071512
000090 5f 9f ad bc cc a4 8f 3c c8 01 7b 3c ca 5f a0 3c
       -0.021194158 0.017534636 0.015320249 0.019576926
0000a0 ff f4 cf bc ec 42 63 bd dd d1 ad bb f8 f1 a9 3d
       -0.025385378 -0.055483744 -0.0053045587 0.08298105
0000b0 40 d6 60 bd a4 bb 67 3d 40 e9 b6 bd 0f c5 cd 3c
       -0.054891825 0.056575432 -0.08931208 0.025118379
0000c0 7c 22 93 3c 83 f2 08 bc
       0.01796078 -0.008358601

classfier.bn2.weight f4 [50]
000000 67 3d 81 3f ad b7 70 3f 0e f6 78 3f 2f b8 7a 3f
       1.0096864 0.94030267 0.9725045 0.9793729
000010 84 d1 81 3f db 72 83 3f a7 1b 81 3f 78 fd 7c 3f
       1.0142064 1.0269426 1.0086564 0.9882426
000020 fb 19 71 3f 35 b5 80 3f 9f 03 87 3f 35 10 7e 3f
       0.9418027 1.00553 1.054798 0.9924348
000030 5c 54 7f 3f 75 cb 84 3f 7b f8 73 3f 68 95 77 3f
       0.997381 1.037459 0.95301026 0.9671235
000040 3b e3 82 3f 8f 26 83 3f 25 4a 84 3f 71 f8 83 3f
       1.0225595 1.0246142 1.0335127 1.0310193
000050 27 16 77 3f 43 5d 7b 3f d3 1f 84 3f b6 e9 86 3f
       0.96518177 0.9818918 1.0322212 1.0540073
000060 dc 2d 73 3f 73 71 7d 3f d9 60 75 3f 19 42 78 3f
       0.9499185 0.99001235 0.958509 0.96975857
000070 83 00 7f 3f 95 90 7c 3f a6 28 76 3f 92 7d 71 3f
       0.99610156 0.98658115 0.96155775 0.9433223
000080 85 c5 82 3f ac 21 88 3f 99 92 6e 3f 52 a3 87 3f
       1.0216528 1.0635276 0.9319244 1.0596716
000090 0d 06 75 3f 0a 4f 80 3f f4 ac 7a 3f 62 b6 7d 3f
       0.9571236 1.0024121 0.97920156 0.9910642
0000a0 e1 57 85 3f 8b 78 84 3f 84 84 84 3f 73 da 75 3f
       1.0417444 1.0349287 1.035294 0.9603645
0000b0 df 29 74 3f 48 9d 89 3f 9b de 8a 3f 1e 8d 72 3f
       0.9537639 1.0751123 1.0849184 0.9474658
0000c0 e5 02 89 3f 71 d1 73 3f
       1.0704008 0.9524146

classfier.bn2.bias f4 [50]
000000 45 47 b8 3c 3a 3f 45 bd 7c 64 a3 3b 3d fa 8b bd
       0.022494921 -0.048156 0.004986344 -0.068348385
000010 35 9c bb bd 06 67 c4 3c 04 7a 62 bd 87 ba 09 bd
       -0.091606535 0.023974907 -0.055292144 -0.033625152
000020 fb 24 c7 bd 21 03 98 3d 5f 4c 0d 3d 93 cf 20 bd
       -0.0972385 0.07422472 0.03449666 -0.03926046
000030 4e 7f 93 bd d2 25 85 bd da b4 21 bd b5 3a 95 bd
       -0.07202016 -0.06501354 -0.039479114 -0.07286588
000040 e9 f6 bb 3c 69 b8 83 bd a3 fd f3 3c a2 24 8d 3d
       0.022944884 -0.06431658 0.02978403 0.06891753
000050 5e 1a d1 bc 29 c9 4b 3c 64 ea af 3d 78 77 81 3d
       -0.025525268 0.012438097 0.08589628 0.06321615
000060 40 ff dd bc b3 33 8d bd 00 b2 4b bd 8e 61 3f bd
       -0.027099252 -0.068946265 -0.0497303 -0.046723895
000070 23 85 c5 bd 08 e3 b8 bd 91 fc b7 bd 80 06 e5 bc
       -0.096445344 -0.09027678 -0.0898372 -0.027957201
000080 b0 51 72 3d be 2c 44 3d bf dc 34 bd 37 1d 73 3d
       0.059159935 0.047894232 -0.044155832 0.059354033
000090 0a f5 a0 bd b3 34 64 3d 65 4a 1e bd 1f ba a4 3c
       -0.078592375 0.05571432 -0.038645167 0.02010828
0000a0 bf 18 d1 3c b3 0d 89 3d 77 ac b2 bd 98 64 e5 bc
       0.025524495 0.06692066 -0.08724301 -0.028002068
0000b0 08 3d 2e bd 54 61 c2 3d 2c 0d ac 3d b4 03 07 bd
       -0.042538673 0.0949122 0.0840095 -0.032962516
0000c0 88 ff c1 bd 01 b0 b4 bd
       -0.09472567 -0.088226326

classfier.bn2.running_mean f4 [50]
000000 74 be b8 be ee ae e0 3d c4 b4 6d bf 7a b1 90 3e
       -0.36082804 0.10970865 -0.9285395 0.28260404
000010 f5 97 25 3f f2 5f cd be b7 37 99 ba 90 34 de 3e
       0.64684993 -0.40112263 -0.0011689578 0.43399477
000020 d8 66 81 3e b4 c2 c5 be 12 c6 56 be 1a 58 86 3d
       0.25273776 -0.3862511 -0.20973995 0.06559773
000030 c4 ef 8a 3e 56 6b 67 3e 10 3a c3 3e 52 22 84 3e
       0.27136052 0.22599539 0.38130236 0.25807434
000040 39 d6 ae bb eb 14 09 3f 75 74 84 be 8e 64 27 bf
       -0.005335596 0.53547543 -0.258701 -0.6538781
000050 0e ef b2 be 56 4c 2d bf 3c c0 12 bf 0e 54 89 be
       -0.3494801 -0.67694604 -0.57324576 -0.2682194
000060 8c 0f 73 bf 8e 39 38 3e ba 03 c2 3d ce c9 58 3e
       -0.949456 0.17990705 0.09473367 0.21170732
000070 54 c6 a8 3e da 5b 9e 3e 8d 63 fb 3e 76 f7 ac be
       0.32963812 0.30929452 0.4909939 -0.33782548
000080 d9 39 51 bf e4 b6 0d bf c6 3a 27 bd 92 83 29 bf
       -0.81728894 -0.55357194 -0.040827535 -0.66216385
000090 a4 26 e4 3e e0 8d 79 bf de 8a bb 3d 83 38 e8 be
       0.4456073 -0.9748211 0.09157346 -0.45355615
0000a0 1f 87 13 bf 89 59 6c bf 2e 5a d6 3e b8 d7 a9 3d
       -0.57628053 -0.9232412 0.41865677 0.08293098
0000b0 f4 ac c4 be 25 9a 4c bf c1 70 f7 be cf 65 4b be
       -0.38413203 -0.79922706 -0.48328212 -0.19863056
0000c0 3f 2d ec 3e f2 4f 9b 3e
       0.4612827 0.3033443

classfier.bn2.running_var f4 [50]
000000 72 c8 8e 3e de 9e 83 3e ed 12 03 3f 7d c8 8e 3e
       0.27887303 0.25707144 0.51200753 0.27887335
000010 46 4e d6 3e 17 fb e3 3e 1d ab bc 3e cb 26 7c 3e
       0.41856593 0.44527504 0.368493 0.24624173
000020 bb 93 6e 3e 24 9c a5 3e 30 d7 15 3f 2a 15 06 3f
       0.23298542 0.32345688 0.58531475 0.52376044
000030 d7 47 b4 3e ef ed 9b 3e c3 5e 9b 3e c7 e2 c1 3e
       0.3521106 0.30454966 0.30345735 0.3786833
000040 3e 51 cf 3e 1b 5a be 3e 4c af 12 3f e9 ac d1 3e
       0.4049167 0.3717812 0.5729873 0.40952232
000050 72 55 61 3e c0 8f 1e 3f d5 56 bb 3e 97 04 14 3f
       0.22005251 0.61938095 0.36589685 0.57819504
000060 12 41 f8 3e dc e5 57 3e cc 74 12 3f 2a ee a1 3e
       0.48487145 0.21083778 0.5720947 0.31627017
000070 c6 1c a2 3e c6 73 95 3e 0b 5e c5 3e ec 6a 95 3e
       0.31662577 0.2918989 0.38548312 0.29183137
000080 10 c3 94 3e 3f d1 80 3e 7d 02 88 3e 0b d3 80 3f
       0.2905507 0.25159642 0.26564398 1.0064405
000090 85 ef d0 3e 1e 38 9e 3f 35 56 91 3e 1d 87 08 3f
       0.4080774 1.2360876 0.28386083 0.53331167
0000a0 4f 03 82 3e 8e 41 68 3f 4d 47 a5 3e fd 89 bb 3e
       0.2539315 0.9072503 0.3228096 0.36628714
0000b0 cc f1 0b 3f d0 99 c4 3e 33 eb 1d 3f 45 78 ac 3e
       0.5466583 0.383986 0.6168701 0.33685508
0000c0 18 ee e5 3e 63 29 95 3e
       0.44908214 0.29133138

classfier.fc3.weight f4 [25, 50]
000000 53 06 c9 bb 31 48 e6 bc 06 54 da 3d 2e 4c 3e bd
       -0.006134787 -0.028110595 0.106605574 -0.04645937
000010 89 7e c6 3d 8f 84 3a bd 93 91 42 3b 5e 9b 91 bd
       0.096921034 -0.045536574 0.002968882 -0.07109712
000020 0b d4 dc 39 26 69 d5 3c 90 67 2f bd 06 59 e5 3d
       0.00042119654 0.026051115 -0.042823374 0.111986205
000030 eb cb 0b bd ed 5c 78 3c 9a a9 89 39 64 42 0e 3e
       -0.03413002 0.015158874 0.0002625704 0.13892514
000040 8a 5d ab bc be 49 26 3e df fc 0b bd d6 b4 be bd
       -0.020918626 0.16239068 -0.034176704 -0.093118355
000050 d5 f0 d9 3c 8b 4d 0e bd dd 2d 31 3c 39 ac d3 bd
       0.026604095 -0.03474192 0.010814157 -0.10335583
000060 ce 8e 5c 3c 89 5d b5 3d 43 a8 ff 3d 54 3f 86 3d
       0.013461782 0.08855731 0.12483265 0.06555048
000070 63 32 30 3e ee 62 4c 3d 6a 6f 23 3e 2e 26 05 bd
       0.17206721 0.049899034 0.1596047 -0.032507114
000080 f3 b8 04 bb b4 40 a8 bc 0a 1a cb 3d 26 ac 93 bc
       -0.002025184 -0.020538665 0.09917076 -0.018026423
000090 37 d3 07 3d c2 14 06 bd ad 70 5c bd 18 81 86 bd
       0.033160415 -0.03273464 -0.053818393 -0.065675914
0000a0 cc 43 32 bd f0 d6 b7 bd 99 ab 2d 3e be 06 d4 bd
       -0.043521687 -0.08976543 0.1695999 -0.103528485
0000b0 c1 a5 8c bc 5a 0c ff bc e6 b0 37 bd f8 13 93 3c
       -0.017168881 -0.03113382 -0.044846438 0.017953858
0000c0 7e 68 d3 3c d2 58 d4 bc 09 7f 36 be af d9 6b 3d
       0.025806662 -0.02592126 -0.17821898 0.057580646
0000d0 af 35 d8 bd 90 e8 87 bd b5 2a 04 3c 35 29 7c bc
       -0.10557114 -0.06636155 0.008066823 -0.015390684
0000e0 ac a2 35 bd 60 e9 be 3c 4d 85 e4 bd df 1c 58 3d
       -0.04434459 0.023304641 -0.111582376 0.05276191
0000f0 a9 35 3e 3c 6f 3a 96 3c 5c 39 88 3c 2a 0d 03 be
       0.011609473 0.01833841 0.016628914 -0.1279799
000100 56 30 2e bd ee ff e3 bd 91 8b f7 3d 00 2b 03 bd
       -0.042526565 -0.11132799 0.12087167 -0.03202343
000110 24 1d b0 3d 58 25 51 be da 2d 18 bd 1b ea ae 3d
       0.08599308 -0.20424402 -0.037153102 0.08540746
000120 6f 57 19 be 40 cd 40 bd 56 7d 33 bd 56 07 02 bd
       -0.1497476 -0.04707074 -0.0438207 -0.031745277
000130 59 72 12 3d 16 cb 3b bd d7 55 a1 bd 37 75 a3 bd
       0.03575358 -0.045847975 -0.07877701 -0.07981341
000140 30 19 b5 bd c6 fb cd bd a5 4b 10 be ad c9 bf bd
       -0.08842695 -0.100577876 -0.14091356 -0.093646385
000150 1c be d7 bd ff 4d c9 3d e6 c8 d7 3b b8 03 c7 3c
       -0.10534307 0.0982933 0.0065852283 0.024293765
000160 1e 4c 1f bd bd 3e 37 bd b7 e1 ee 3d 02 ed 01 3e
       -0.03889095 -0.044737566 0.116641454 0.12688068
000170 59 15 9f bd 3e 7a 5a bc 01 6a 31 be e4 d9 c7 bd
       -0.077677436 -0.013334809 -0.17325594 -0.09758356
000180 05 c6 ea 3d 67 81 dc 3d 92 6a a1 ba 05 f1 d9 bd
       0.114635505 0.10766869 -0.0012315086 -0.10641674
000190 03 20 ab 3d 02 7a 22 3d 66 97 b1 bb 4d 63 ba bd
       0.08355715 0.039667137 -0.0054196594 -0.09100971
0001a0 bb a6 69 3c 94 d6 43 ba a0 71 51 3d a8 e3 de 3b
       0.014260943 -0.00074706343 0.051133752 0.006802041
0001b0 03 ad 81 3c 08 16 84 bc 0f 41 a6 bd 81 09 89 3c
       0.015829569 -0.016123787 -0.08117878 0.016728165
0001c0 89 0b 39 bd 61 13 4e bd 93 0e 72 bd 7d ff 34 bc
       -0.045177016 -0.05031145 -0.05909593 -0.011047241
0001d0 c5 e6 53 bd f8 27 fb bc b5 b8 25 be 03 59 06 be
       -0.05173375 -0.030658707 -0.16183741 -0.13119893
0001e0 03 f9 62 3d bc da ac 3d a3 c4 58 bc f2 67 29 be
       0.055413257 0.08440158 -0.013230476 -0.16543558
0001f0 6a 91 bd 3d 5f 08 b8 bd 7c 1d 8e 3d 69 67 a6 3c
       0.09256251 -0.08985972 0.069392174 0.020312982
000200 a7 da 94 bd 3d 09 e2 bd 4c 90 21 bd 42 07 80 3d
       -0.07268267 -0.11036918 -0.039444253 0.06251384
000210 4a 8f 4d 3d 2a 6d 42 bd 3d 1c ce bd 8a 32 ee 3d
       0.05018548 -0.04746739 -0.1006398 0.11630733
000220 3c dc a1 bb 15 8d a8 3d e8 fa 84 bd a1 c4 14 3e
       -0.004939584 0.08230034 -0.06493169 0.14528133
000230 76 55 90 3c bf 81 99 3d 2e 72 99 bd ed 05 aa bd
       0.017618876 0.0749545 -0.07492481 -0.083019115
000240 a3 63 18 be 0c ec 12 3d fa a0 05 3e 08 f4 e9 bd
       -0.14881758 0.035869643 0.13049689 -0.114234984
000250 0f 02 5d bd 39 27 be bd 51 ab 1a bd 1e 17 b5 3d
       -0.05395704 -0.09284825 -0.037761036 0.088423
000260 25 17 57 3d 28 df 52 3d 5b b1 87 bc 33 e3 91 bd
       0.052512307 0.05148235 -0.016564062 -0.07123413
000270 24 2e a8 bd 1f bc b1 bd e5 cd f2 bd 7d 77 cf 3d
       -0.082119256 -0.086784594 -0.118556775 0.101302125
000280 60 fe bd 3c af 0d 2d bc 1d a1 0c be 16 5c 00 bc
       0.023192585 -0.010562344 -0.13733335 -0.007834455
000290 cd 9c 25 3d d8 c3 04 be 1d 7f fa bd b0 33 dc bd
       0.04043274 -0.12965333 -0.12231276 -0.10752046
0002a0 29 7a 83 3c c6 15 12 3e 55 fa 83 3d c4 cb 9d bd
       0.016049461 0.14266118 0.064442314 -0.07704881
0002b0 e8 65 3c 3d 29 ad 8a 3d 2c c5 65 3d 78 d0 4d 3d
       0.045995623 0.06771309 0.05609624 0.05024764
0002c0 79 cf 0c be f3 67 14 be f2 0e 6d bb 6f 8a e3 bd
       -0.1375102 -0.14492778 -0.0036172238 -0.111103885
0002d0 35 d4 f1 bd 8f 3c dd 3c 7a e8 27 3e 26 b6 12 3e
       -0.118080534 0.027006416 0.16397277 0.14327297
0002e0 40 a8 c7 3d 06 cd f4 bd 47 2e c0 bd 39 af 64 bc
       0.09748888 -0.119531676 -0.09383827 -0.013957792
0002f0 f2 16 e2 bd 04 32 23 be 8c e3 06 3e 01 1f 4a bd
       -0.11039533 -0.15937048 0.1317274 -0.049345974
000300 eb 2e e0 3c d4 38 8d bd 97 ad 7a 3d f8 5c 91 3d
       0.027366122 -0.06895605 0.061200704 0.070978105
000310 1f ae 45 be 49 4d 40 bd 9a 14 8d bd a0 a5 ca 3d
       -0.19304703 -0.046948705 -0.06888695 0.09894872
000320 29 51 37 bd 14 e9 04 3d 64 64 9e bc 2b a0 18 be
       -0.044755135 0.032448843 -0.01933498 -0.14904849
000330 3d 19 cd bb fb 76 aa bd 42 e2 bb bd 35 0d 9e bd
       -0.006259112 -0.08323475 -0.09174015 -0.07717363
000340 e9 7b da bd 49 89 bf 3c 14 cb 08 bd aa 41 31 bc
       -0.10668165 0.023380892 -0.033396795 -0.010818878
000350 23 c7 1c bd 54 0e a6 bd 3d c4 e5 bd f0 18 ee bd
       -0.03827585 -0.081082016 -0.1121907 -0.1162585
000360 0b 18 32 bd ef d1 b0 bd d3 24 f6 3d b9 eb eb 3d
       -0.04347996 -0.08633792 0.120187424 0.1151957
000370 07 bb 1c be 9e 0a 70 3d ce 5c 1b bd 40 b6 c4 3d
       -0.1530572 0.058603875 -0.037930302 0.09605074
000380 d6 1d cb 3d af 09 fa bc 9b d4 8d 3d d7 25 90 bb
       0.099178 -0.030522196 0.06925317 -0.004399042
000390 cc 16 8e 3c cc ec 84 3d 33 73 23 bc 5f a1 32 3c
       0.017344855 0.06490478 -0.009976196 0.010902732
0003a0 77 4c 86 bd 66 70 0c be c2 75 22 be 78 19 15 3e
       -0.06557553 -0.13714752 -0.15865234 0.14560497
0003b0 44 a9 b3 3a fd 9e 7e 3d 57 f7 c5 3d 4b 04 dd bc
       0.0013707061 0.06216334 0.09666317 -0.026979586
0003c0 f2 8b 75 be f0 6e a2 3a 80 fc 89 bd 98 0c 24 be
       -0.23979166 0.0012392681 -0.06737614 -0.16020429
0003d0 30 ea df 3d f0 ac 0a 3b 56 d0 e7 bd 07 aa 06 3e
       0.109333396 0.0021160208 -0.11319034 0.13150798
0003e0 61 c1 4f 3b 4c 30 a4 bd 0d f7 f0 3c e0 01 dd bd
       0.0031700956 -0.080170244 0.029414678 -0.10791373
0003f0 aa 32 64 bd a7 6a 85 3b 7f d8 25 3e 58 4d 9f bc
       -0.05571238 0.004071552 0.16195868 -0.01944606

classfier.fc3.bias f4 [25]
000000 b3 fa cb 3c ea da ea 3d ee d7 07 3e 52 f2 05 3e
       0.024899816 0.11467536 0.13265964 0.13080719
000010 ae b1 a0 3d e7 0e b4 bd 7b 28 c8 3c 66 04 d1 3d
       0.0784639 -0.08791905 0.024433365 0.10205917
000020 45 fd 87 3d f1 60 08 3d 47 cd ec bd 23 01 09 bd
       0.06640104 0.033295576 -0.11562591 -0.03344835
000030 2a 3d b9 3d 6b e9 4d 3d 52 81 c9 3d 69 3b df 3c
       0.09044869 0.050271433 0.09839119 0.027250009
000040 7b f8 fd bd c7 b8 31 bd 71 1e 00 be db b9 6e bd
       -0.124009095 -0.043389108 -0.12511612 -0.058282714
000050 e0 34 db 3d 54 6d d5 3c d4 ca b2 bc 54 60 9c 3b
       0.107034445 0.026053108 -0.021825232 0.0047722254
000060 36 b2 bc bc
       -0.023034196

classfier.bn3.weight f4 [25]
000000 a2 83 7d 3f bd ed 90 3f 62 97 91 3f 82 08 93 3f
       0.9902898 1.1322552 1.1374323 1.1486971
000010 94 b8 91 3f 4b 21 7c 3f 9c e2 91 3f 2f 87 7b 3f
       1.1384454 0.984883 1.1397281 0.9825315
000020 3a 64 92 3f f9 4b 94 3f 09 2a 7f 3f 38 59 7f 3f
       1.1436837 1.1585685 0.99673516 0.9974551
000030 da 9f 96 3f 8c 1e 7c 3f a2 d6 7b 3f 8a 00 92 3f
       1.1767533 0.9848411 0.9837438 1.1406415
000040 9e 2a 93 3f 1e e5 7e 3f a6 51 93 3f cb 3c 92 3f
       1.1497381 0.99568355 1.1509292 1.1424803
000050 4a c2 77 3f d9 24 92 3f c0 e1 93 3f 75 66 79 3f
       0.96780837 1.1417495 1.1553268 0.9742196
000060 86 41 91 3f
       1.1348121

classfier.bn3.bias f4 [25]
000000 13 84 5e bd e2 16 00 3e f6 fb 0e 3e dd eb 15 3e
       -0.054325175 0.12508729 0.13963303 0.14640756
000010 72 13 18 3e a9 3c 61 bd 28 d2 0d 3e 3f 96 54 bd
       0.14851168 -0.05498949 0.138497 -0.0519011
000020 7d a5 16 3e aa 2b 24 3e 63 f4 56 bd ab 03 58 bd
       0.14711566 0.16032282 -0.05247916 -0.052737873
000030 0a bb 35 3e 89 03 59 bd ab 39 41 bd 21 6a 0c 3e
       0.17747131 -0.052981887 -0.047174137 0.1371236
000040 7a 9e 1c 3e 07 53 3b bd 10 cd 16 3e 4f 44 0b 3e
       0.15294829 -0.045733478 0.14726663 0.13600276
000050 bb 8f 4e bd 06 d2 14 3e a8 f9 25 3e 76 66 74 bd
       -0.05043004 0.14533243 0.16208518 -0.059668027
000060 dc 4c 07 3e
       0.13212913

classfier.bn3.running_mean f4 [25]
000000 f8 9e 2a 3e e2 e4 d1 be 88 85 e7 bd 03 e4 b4 bd
       0.16662204 -0.40994936 -0.11304766 -0.08832552
000010 80 8d 96 be 08 7f 3b 3e 3b c7 4f be ac 3f a5 3e
       -0.2940483 0.18310177 -0.20290844 0.3227514
000020 e3 aa c9 bd 5e 4d 07 bf 13 58 d7 3e 5c f5 8a 3e
       -0.09847047 -0.5285243 0.42059383 0.2714032
000030 9b 67 0c be 9a 2f 09 3f b7 ff 36 3f c4 a5 2a bf
       -0.13711397 0.5358826 0.7148394 -0.6665919
000040 ef 02 17 bf 30 4d 93 3e a4 aa 97 be de 59 09 bf
       -0.5898885 0.28769827 -0.29622376 -0.5365275
000050 be 69 81 3e 42 bb 2c bf ec 83 1c bf 20 e5 84 3e
       0.25275987 -0.6747323 -0.61138797 0.25956059
000060 8e e5 a5 be
       -0.324017

classfier.bn3.running_var f4 [25]
000000 b6 6e 3b 3f b3 2e 4d 3f 02 8f d6 3e 50 2f 73 3f
       0.73215806 0.8014938 0.4190598 0.9499407
000010 dc ee d3 3e ed e8 49 3f 33 37 25 3f 08 61 43 3f
       0.41393173 0.7887104 0.6453735 0.7631993
000020 b4 d0 15 3f 18 43 49 3f 1b 8b 8a 3f 22 b6 ae 3f
       0.5852158 0.78618 1.0823702 1.3649333
000030 71 00 3d 3f f2 d9 36 3f 3e 76 51 3f fe b5 28 3f
       0.738288 0.7142631 0.8182105 0.659027
000040 48 04 13 3f 4b 31 59 3f a9 37 13 3f 0b 44 45 3f
       0.5742841 0.8484084 0.57506806 0.7705695
000050 aa 2c fb 3e 23 18 a2 3e ad a0 8b 3e fc e1 26 3f
       0.49057513 0.3165904 0.27271023 0.65188575
000060 89 ac 31 3f
       0.6940389

classfier.fc5.weight f4 [1, 25]
000000 cf ea 12 3e 82 32 a3 be 61 79 97 be 59 a1 81 be
       0.14347385 -0.31874472 -0.29584792 -0.2531841
000010 b6 d0 5b be f6 c4 19 3e 49 f8 8f be 0c d7 81 3d
       -0.21466336 0.15016541 -0.28119114 0.06339845
000020 f0 d2 e6 bd 37 9f 34 be 5e fa 48 3e 13 e1 3f 3e
       -0.11270702 -0.1763886 0.19626758 0.18738203
000030 dc f5 11 be f8 ed 8a 3d 5a cf 46 3d 53 2c 92 be
       -0.14253944 0.0678367 0.04853759 -0.28549442
000040 e3 f3 58 be 8d d1 75 3d 85 40 ef bd e6 fc 88 be
       -0.21186785 0.060014296 -0.11682228 -0.26755446
000050 ef 75 20 3d 16 d1 51 be da 15 2c be 1b fd 1a 3e
       0.03917497 -0.20489916 -0.1680521 0.15135615
000060 03 15 9f be
       -0.31070718
