trained_models/collins_cssa/run_18-20-43/dnn_model_fold_2.pt (torch, 85121 bytes, 19 tensors)

classfier.fc1.weight f4 [100, 100]
0	0x3c84f925	0.016232083
1	0x3d9ce115	0.076601185
2	0xbd944ee1	-0.072416075
3	0x3d2fa2b1	0.042879764
4	0xbd83cf13	-0.06435981
5	0xbd4a704d	-0.049423505
6	0x3cd5a991	0.026081832
7	0x3d735b49	0.05941323
8	0xbd93d7e3	-0.072189115
9	0x3c670ae0	0.014101714
10	0x3cebb57d	0.028773064
11	0xbdcb6f99	-0.09933395
12	0xbbc89ed9	-0.0061224517
13	0x3d3de177	0.0463576
14	0xbd349826	-0.044090413
15	0xbd86e56f	-0.0658673
16	0xbd62a1d7	-0.055330124
17	0xbd89c1f6	-0.06726448
18	0x3d2bbe88	0.04192975
19	0xbbfe4086	-0.0077591566
20	0xbded56a0	-0.11588788
21	0x3a8a890f	0.0010569411
22	0x3de4089f	0.11134457
23	0x3d957a02	0.07298662
24	0xbbcee3fe	-0.0063138
25	0x3d2291ec	0.039689943
26	0x3c5097d7	0.012731514
27	0x3caa263d	0.020770187
28	0x3d8025ec	0.06257233
29	0x3d6f9944	0.058495775
30	0xbb93c431	-0.004509472
31	0x3cc195ac	0.02363094
32	0x3bfba02d	0.0076790066
33	0xbdb8a8fc	-0.09016606
34	0xbd8ad077	-0.06778043
35	0xbd6fe0bf	-0.058563944
36	0x3cad2634	0.02113638
37	0x3d8f46b8	0.069959104
38	0x3d19e76e	0.037574224
39	0xbced9d20	-0.029005587
40	0x3dc420ce	0.095765695
41	0x3d55e26a	0.05221788
42	0xbc4109c9	-0.011782118
43	0x3d160ddc	0.03663431
44	0x3d82e624	0.06391552
45	0x3ca60f50	0.020270973
46	0xbd47dddc	-0.048795566
47	0x3d262b62	0.040568717
48	0xbd5557c8	-0.052085668
49	0xbdc4b361	-0.09604526
50	0x3cba306f	0.022728173
51	0xbad581fb	-0.0016289348
52	0xbda0ea07	-0.07857137
53	0xbd967c25	-0.073478974
54	0xbd860eea	-0.065458134
55	0xbd868fd2	-0.065704
56	0xbdeaf644	-0.11472753
57	0x3b3841de	0.0028115432
58	0x3d6ff126	0.058579586
59	0x3d99cc70	0.075096965
60	0xbc67a09d	-0.014137414
61	0x39bbf2b1	0.0003584824
62	0xbc641d36	-0.01392298
63	0xbde6833d	-0.112555005
64	0xbccb1b33	-0.024793243
65	0xbd143a48	-0.036188394
66	0xbafaf800	-0.0019147396
67	0xbd9ee16e	-0.07757841
68	0x3dc33802	0.09532167
69	0x3cae2645	0.021258483
70	0xbd93238f	-0.07184517
71	0xbd841059	-0.064484306
72	0xbd1b87ff	-0.037971493
73	0xbddcd6a6	-0.107831284
74	0xbd2f3c1a	-0.042781927
75	0x3daa2671	0.08308113
76	0x3d0dc86a	0.034614958
77	0xbd23cd2e	-0.039990596
78	0xbda59831	-0.08085669
79	0xbd155ef5	-0.03646751
80	0xbd2d6959	-0.042336795
81	0x3da12d8b	0.07870015
82	0x3d85057f	0.06495189
83	0xbc2839be	-0.010267673
84	0x3bd6590c	0.006541377
85	0xbdaab301	-0.083349235
86	0xbd8b1292	-0.067906514
87	0x3d3b436b	0.04571859
88	0x3aa94b3b	0.0012916097
89	0xbd6bbce6	-0.057553194
90	0xbd28c7be	-0.041206114
91	0x3ba3779f	0.004988625
92	0xbc9d0c55	-0.01917092
93	0xbd36b0c9	-0.04460219
94	0x3cb8eedd	0.022574836
95	0xbd3e646b	-0.046482485
96	0x3db79cd5	0.0896546
97	0xbd0e4625	-0.034734864
98	0x3d3c4f69	0.04597417
99	0xbc3329ee	-0.01093529
100	0x3da04e08	0.07827383
101	0x3d15d04d	0.036575604
102	0x3dae92dc	0.08524105
103	0x3c483b19	0.012221121
104	0xbd4ff39c	-0.050769433
105	0x3c1a6ff2	0.009426104
106	0xbd815828	-0.063156426
107	0x3d482942	0.04886747
108	0xbda8feff	-0.08251762
109	0xbde5da90	-0.11223328
110	0x3d76a429	0.06021515
111	0xbd88543d	-0.06656692
112	0xbd8fc375	-0.07019702
113	0x3c31a244	0.01084191
114	0xbd193a2b	-0.03740899
115	0x3d56eee6	0.052473925
116	0xbc9a38b6	-0.01882587
117	0x3be5dd22	0.0070148865
118	0xbd1812dd	-0.037127364
119	0x3c3b655b	0.011437739
120	0x3c51f04e	0.012813641
121	0x3dab4ea1	0.08364607
122	0xbd13f349	-0.036120687
123	0x3d734373	0.059390496
124	0x3d743464	0.059620276
125	0x3d6021e8	0.054719836
126	0x3b89e97f	0.004208743
127	0x3dbc501e	0.09194969
128	0xbd5ff3e8	-0.054675967
129	0xbd1450c2	-0.03620983
130	0xbb4dd38f	-0.0031406616
131	0xbda46d9c	-0.08028719
132	0xbd89fab9	-0.06737275
133	0x3c7f3eec	0.015578967
134	0x3d950527	0.07276373
135	0xbd3372e9	-0.04381076
136	0x3c9ba41d	0.018999154
137	0xbcfea583	-0.031084782
138	0xbdbee5af	-0.093211524
139	0xbd93ed6f	-0.07223021
140	0x3c47ef4c	0.012203049
141	0x3c93bf38	0.018035516
142	0xbd3cd017	-0.046096887
143	0x3d7a0176	0.06103655
144	0x3bb99964	0.0056640375
145	0xbd5c8e92	-0.053846903
146	0xbcaa420f	-0.020783452
147	0xbd728cc7	-0.059216287
148	0x3d91e933	0.07124557
149	0xbd18c032	-0.037292667
150	0xbe074f16	-0.13213763
151	0x3d86b4f1	0.065774806
152	0xbd8de993	-0.06929316
153	0x3d205f6e	0.03915351
154	0x3d325cd0	0.043545544
155	0x3db236ab	0.08701833
156	0x3d216f6a	0.039412893
157	0x3dd01319	0.101598926
158	0xbd79d1e2	-0.060991175
159	0xba65eb9e	-0.00087707664
160	0xbdf4f29a	-0.11960335
161	0xbc096b37	-0.008387378
162	0xbd389fbc	-0.04507421
163	0x3d716072	0.058929868
164	0x3d18cabd	0.03730272
165	0x3db62d85	0.08895401
166	0x3d88099a	0.06642456
167	0xbb777a1e	-0.0037761997
168	0x3cf8a2ea	0.030351121
169	0xbdf35b82	-0.11882688
170	0xbca5bf2c	-0.02023276
171	0xbb4fb3f2	-0.003169295
172	0x3d5eedf6	0.054426156
173	0x3cc5f302	0.024163727
174	0xbd484b43	-0.0488999
175	0xbc145587	-0.009053594
176	0xbd526afe	-0.051371567
177	0xbd9d4fcc	-0.07681236
178	0x3de9265c	0.113842696
179	0x3c586e96	0.0132099595
180	0x3d8ec18f	0.06970512
181	0x3bf987f1	0.0076150824
182	0x3d05c8f9	0.032662366
183	0x3d8044e7	0.06263142
184	0xbd93651e	-0.07197021
185	0xbb8b8003	-0.0042572035
186	0x3d8f671e	0.0700209
187	0xbdd901e8	-0.10596067
188	0xbbafdd31	-0.0053669442
189	0x3cfdca7c	0.030980341
190	0x3d73ec87	0.059551742
191	0x3d86e845	0.06587271
192	0x3dac332d	0.084081985
193	0x3d58723e	0.052843325
194	0x3d32cc92	0.043652125
195	0xbd44f3a1	-0.048083905
196	0xbda12348	-0.078680575
197	0x3d4a2c06	0.04935839
198	0x3dc5fe07	0.096675925
199	0x3d892cde	0.06698011
200	0xbdd88caf	-0.10573708
201	0xbd37ed5b	-0.044904094
202	0x3cf97970	0.030453414
203	0x3c00d818	0.007864021
204	0x3da490d0	0.08035433
205	0xbc882377	-0.016618473
206	0x3b9914e0	0.004671678
207	0xbd0e42b3	-0.034731578
208	0x3d3b96c6	0.045798086
209	0x3d9fbdda	0.07799883
210	0x3bdfca8b	0.006829565
211	0xbc877056	-0.016533058
212	0x3c9ccf09	0.01914169
213	0x3d354941	0.044259313
214	0xbd423729	-0.047415886
215	0xbd218f27	-0.03944316
216	0xbcd8c02d	-0.026458824
217	0xbaa0a285	-0.0012255466
218	0x3d9fff46	0.078123614
219	0xbdabe7ad	-0.08393798
220	0x3d3f8073	0.046753358
221	0xbd7ed075	-0.06221052
222	0xbc49da4a	-0.012320111
223	0xbd1b1761	-0.037864093
224	0xbc423391	-0.011853115
225	0x3c7cd899	0.0154325
226	0xbdd46126	-0.10370092
227	0x3d0792c3	0.033098947
228	0xbd365173	-0.04451127
229	0x3da246ad	0.079236366
230	0xbd11d587	-0.035604026
231	0xbce29bcc	-0.02766218
232	0x3d159bc6	0.03652551
233	0x3c6305e5	0.013856386
234	0xbd79335f	-0.060840007
235	0x3ce2c0c5	0.02767981
236	0xbba83621	-0.005133406
237	0x3d02b971	0.031915132
238	0xbd47c0b4	-0.04876776
239	0xbc790858	-0.015199743
240	0x3bc633d7	0.0060486603
241	0x3dd10815	0.1020662
242	0x3c7de526	0.015496528
243	0xbb062e14	-0.0020474242
244	0xbe078613	-0.13234739
245	0xbdbea8c2	-0.09309532
246	0xbbf994ef	-0.007616631
247	0x3c858e12	0.016303096
248	0x3d4ab89c	0.049492463
249	0xbdb7c63b	-0.08973356
250	0xbac56f15	-0.0015063012
251	0x3d636507	0.05551627
252	0x3c960360	0.018312156
253	0xbdace5b8	-0.08442253
254	0x3bb497a1	0.0055112396
255	0x3c39f10e	0.011348976

classfier.fc1.bias f4 [100]
0	0xb5bbd702	-1.3995161e-06
1	0x3584c18d	9.891097e-07
2	0xb8505b44	-4.9676062e-05
3	0x37700640	1.430657e-05
4	0xb6c5bac6	-5.892801e-06
5	0x36a9a894	5.0562176e-06
6	0x3599fd3d	1.147309e-06
7	0x3743ee48	1.1678385e-05
8	0x3527d227	6.251816e-07
9	0xb727890b	-9.9858835e-06
10	0x360e5f7a	2.1215224e-06
11	0x364fb064	3.0948077e-06
12	0xb7d57d8e	-2.5450045e-05
13	0xb68cdeb2	-4.1982503e-06
14	0x38af7e71	8.368202e-05
15	0xb6f84296	-7.3987276e-06
16	0xb59c0b1b	-1.1626138e-06
17	0x374078d0	1.1472221e-05
18	0x35c55478	1.4702227e-06
19	0x345de812	2.0666656e-07
20	0x390b01c3	0.0001325673
21	0xb52f2d3e	-6.5258416e-07
22	0x370e57cc	8.484301e-06
23	0xb7b63b5c	-2.1723732e-05
24	0xb691e16d	-4.3475798e-06
25	0x39593781	0.0002071541
26	0xb76a9631	-1.3982456e-05
27	0xb8e3450a	-0.00010837063
28	0x3611db78	2.1734431e-06
29	0xb691572c	-4.331485e-06
30	0xb83d1451	-4.5080033e-05
31	0x35ecbc08	1.7638095e-06
32	0xb79fc7a8	-1.904725e-05
33	0xb7a7fbbe	-2.0025178e-05
34	0x37320de4	1.0612861e-05
35	0xb56f918e	-8.924625e-07
36	0xb529197e	-6.29945e-07
37	0xb63aa71b	-2.7813428e-06
38	0xb782d41d	-1.559598e-05
39	0x35072da0	5.035781e-07
40	0xb501baba	-4.832797e-07
41	0x36d75654	6.4175492e-06
42	0xb78e2548	-1.694508e-05
43	0xb601fdea	-1.9370295e-06
44	0x388909bc	6.534482e-05
45	0xb530b82a	-6.5833103e-07
46	0x3750681e	1.2422008e-05
47	0x369a8132	4.604598e-06
48	0x369b5513	4.629264e-06
49	0xb6d685d5	-6.393277e-06
50	0xb78a821f	-1.6511474e-05
51	0xb5084c52	-5.077501e-07
52	0xb69a7f1a	-4.604354e-06
53	0xb69fa22e	-4.7574495e-06
54	0x35e97b5c	1.7395755e-06
55	0x3880c83b	6.1408115e-05
56	0xb8e602dd	-0.00010967788
57	0xb6cc5e03	-6.090618e-06
58	0xb96a3a1b	-0.00022337625
59	0xb561ee3a	-8.4165697e-07
60	0xb6d75be4	-6.418197e-06
61	0x3634acd0	2.692268e-06
62	0xb7bc4188	-2.2441862e-05
63	0xb593c29a	-1.100899e-06
64	0x3699addd	4.5799957e-06
65	0xb64e9db9	-3.0788199e-06
66	0xb592f658	-1.0949543e-06
67	0x36f0123a	7.154679e-06
68	0xb55693b4	-7.993615e-07
69	0xb7879531	-1.6162727e-05
70	0xb69ed76d	-4.733846e-06
71	0xb6972678	-4.504629e-06
72	0x36f41bb5	7.274992e-06
73	0x38e4c3b1	0.000109083376
74	0x371160c2	8.665202e-06
75	0xb6d2d97e	-6.283807e-06
76	0xb63c4204	-2.805261e-06
77	0x36fee966	7.596961e-06
78	0xb5cf92d2	-1.5465432e-06
79	0x379ccb19	1.8691224e-05
80	0x359d3b23	1.1714623e-06
81	0xb91d052a	-0.0001497461
82	0xb51bd002	-5.804469e-07
83	0xb73190fa	-1.0583777e-05
84	0xb7445f05	-1.1704634e-05
85	0x373c0384	1.1206492e-05
86	0xb610d1f8	-2.157989e-06
87	0xb8077b1b	-3.230116e-05
88	0xb86f74d4	-5.7090845e-05
89	0x36760c6e	3.6664092e-06
90	0xb6491c1f	-2.9967703e-06
91	0x35bcd210	1.4068228e-06
92	0x360f45ce	2.1349292e-06
93	0xb6cf34f2	-6.1752444e-06
94	0xb5182767	-5.668175e-07
95	0xb4b2780a	-3.3242424e-07
96	0xb5485711	-7.4632504e-07
97	0xb7cda3c2	-2.451416e-05
98	0xb72f35c0	-1.04433275e-05
99	0x370b8c5d	8.3177265e-06

classfier.bn1.weight f4 [100]
0	0x3f7f7bc5	0.9979823
1	0x3f7bc8cd	0.9835327
2	0x3f823b24	1.0174298
3	0x3f816c05	1.011109
4	0x3f84bbd9	1.0369827
5	0x3f815e1b	1.0106844
6	0x3f7f0e59	0.9963127
7	0x3f82f0c2	1.0229723
8	0x3f76a323	0.96342677
9	0x3f8019f4	1.000792
10	0x3f7ef173	0.9958717
11	0x3f71536c	0.94267917
12	0x3f7daaed	0.9908894
13	0x3f7addf2	0.9799491
14	0x3f8351a4	1.025929
15	0x3f8371a2	1.0269053
16	0x3f863ee5	1.0487944
17	0x3f826f6c	1.0190253
18	0x3f71a1a8	0.9438729
19	0x3f73cfb4	0.95238805
20	0x3f8001a4	1.0000501
21	0x3f7fcbd7	0.9992041
22	0x3f731d2b	0.9496638
23	0x3f7bac41	0.98309714
24	0x3f81fa55	1.015452
25	0x3f7c563d	0.9856909
26	0x3f74eb80	0.95671844
27	0x3f82ae6b	1.0209478
28	0x3f7825b2	0.9693252
29	0x3f810ab2	1.0081389
30	0x3f80e939	1.0071174
31	0x3f8177d4	1.0114694
32	0x3f7705bb	0.9649312
33	0x3f7d057a	0.9883648
34	0x3f75170a	0.9573828
35	0x3f74dcf8	0.9564967
36	0x3f7ca049	0.98682076
37	0x3f7726b5	0.9654344
38	0x3f782a16	0.9693922
39	0x3f80727d	1.0034939
40	0x3f78c151	0.9716998
41	0x3f7fb0b6	0.99879014
42	0x3f7b6877	0.98206276
43	0x3f794d6c	0.9738376
44	0x3f84b624	1.0368085
45	0x3f868028	1.050786
46	0x3f80c9b1	1.0061551
47	0x3f8323bd	1.0245281
48	0x3f87cdb2	1.0609648
49	0x3f8181fd	1.0117794
50	0x3f860469	1.0470096
51	0x3f7d29e6	0.98892057
52	0x3f7a43e2	0.9775983
53	0x3f7339e1	0.9501019
54	0x3f7a1612	0.97689927
55	0x3f7e47be	0.9932822
56	0x3f83d337	1.0298833
57	0x3f83df9f	1.0302619
58	0x3f7b7f43	0.9824106
59	0x3f805470	1.0025768
60	0x3f7f9ca4	0.9984839
61	0x3f7c1292	0.98465836
62	0x3f730e55	0.94943744
63	0x3f81e326	1.0147445
64	0x3f7be0c2	0.9838983
65	0x3f7da381	0.9907761
66	0x3f7af16a	0.9802462
67	0x3f8436b7	1.0329198
68	0x3f776e7f	0.9665298
69	0x3f80dc5d	1.006725
70	0x3f7928f1	0.97328097
71	0x3f7f65e5	0.99764854
72	0x3f8183cc	1.0118346
73	0x3f7dbe26	0.9911827
74	0x3f80ac5c	1.00526
75	0x3f78f1c1	0.9724389
76	0x3f751881	0.95740515
77	0x3f7b5283	0.9817278
78	0x3f7b5845	0.98181564
79	0x3f7ceaa4	0.98795533
80	0x3f7c7bf7	0.98626655
81	0x3f82be73	1.021437
82	0x3f7e6c73	0.9938423
83	0x3f82b6b9	1.0212013
84	0x3f74604b	0.9545943
85	0x3f83a581	1.0284883
86	0x3f759810	0.95935154
87	0x3f7d7da3	0.9901983
88	0x3f7dcf87	0.99144787
89	0x3f8221d1	1.016657
90	0x3f791e54	0.973119
91	0x3f78d249	0.9719587
92	0x3f792efc	0.9733732
93	0x3f7ed51c	0.9954393
94	0x3f7764e1	0.96638304
95	0x3f766df4	0.96261525
96	0x3f8111e3	1.0083584
97	0x3f825846	1.0183189
98	0x3f84dddc	1.0380206
99	0x3f84b022	1.0366251

classfier.bn1.bias f4 [100]
0	0x3cf4e7eb	0.029895743
1	0xbdce130f	-0.10062229
2	0xbe0cd731	-0.13753964
3	0xbdf8bd57	-0.12145489
4	0xbdd7e2db	-0.10541316
5	0xbdcbf43c	-0.099586934
6	0xbd5acc12	-0.053417273
7	0xbd9bcd5a	-0.07607527
8	0xbb126e86	-0.002234371
9	0xbbb2b0da	-0.0054532113
10	0xbe1298a4	-0.1431604
11	0xbd748420	-0.059696317
12	0xbddaa655	-0.106762566
13	0xbd852f40	-0.06503153
14	0xbdbb2244	-0.09137395
15	0xbdd15879	-0.10221953
16	0xbd94989d	-0.07255671
17	0xbdff75c6	-0.124736354
18	0x3bda48ee	0.006661526
19	0xbdf4bc38	-0.119499624
20	0xbdb4682f	-0.08808934
21	0x3b8c38e3	0.0042792424
22	0xbd7c3fb3	-0.061584186
23	0xbdf02f05	-0.11727718
24	0xbd80a28d	-0.06281004
25	0xbd341eee	-0.04397481
26	0xbd00b2d0	-0.03142053
27	0x3cfb499c	0.030674748
28	0xbd0e93c8	-0.034808904
29	0xbde900a1	-0.11377073
30	0xbe072414	-0.13197356
31	0xbdc15c5c	-0.09441444
32	0xbd4b63a0	-0.049655557
33	0xbdabff03	-0.08398249
34	0xbdc99297	-0.09842413
35	0xbcf2ba97	-0.029629989
36	0xbdd26bdb	-0.10274478
37	0xbc5d8bb3	-0.013522076
38	0xbcf25738	-0.029582605
39	0x3c24587a	0.01003086
40	0xbd80bcb4	-0.06285992
41	0xbdaa1035	-0.083038725
42	0xbc7caeea	-0.015422562
43	0xbb4ce2b4	-0.0031263055
44	0xbe0b65f6	-0.13613114
45	0x3d1f39c3	0.038873445
46	0xbbf8b680	-0.007590115
47	0xbe0bcb6f	-0.13651823
48	0xbdab70bd	-0.083711125
49	0xbdb12e50	-0.086514115
50	0xbcd60e1f	-0.02612978
51	0xbb3c01da	-0.0028687627
52	0xbc29b50c	-0.010358106
53	0xbda69223	-0.08133342
54	0xbcfc5133	-0.030800438
55	0xbd9a0bb1	-0.07521761
56	0xbe08d2cf	-0.13361667
57	0xbd7a764c	-0.061147973
58	0xbcb944ed	-0.022615874
59	0xbcbc263a	-0.022967447
60	0xbd492621	-0.04910863
61	0xbccc578e	-0.024944093
62	0xbd1a276f	-0.037635263
63	0xbdbee0f0	-0.09320247
64	0x3b1d4849	0.0023999384
65	0xbdeec4c7	-0.11658626
66	0xbc7a37a2	-0.015272053
67	0xbdcd896f	-0.10035979
68	0xbdf5c0c4	-0.11999658
69	0xbdcfffcf	-0.101562135
70	0xbcf25793	-0.029582774
71	0xbe06921b	-0.13141672
72	0xbe0ce4cd	-0.13759156
73	0xbd46cff5	-0.048538167
74	0xbe0498ee	-0.12948963
75	0xbd9ef01c	-0.07760641
76	0xbc9b109e	-0.018928822
77	0xbdce58ef	-0.100755565
78	0xbdc21541	-0.0947671
79	0xbdddf9f1	-0.10838688
80	0xbd8f76b0	-0.0700506
81	0xbdbd02eb	-0.09229072
82	0xbdf57108	-0.119844496
83	0xbdcfb297	-0.10141485
84	0xbd9c09da	-0.076190665
85	0xbe08c514	-0.1335643
86	0xbcd9d728	-0.026591852
87	0xbd679e2b	-0.056547325
88	0xbe009985	-0.12558563
89	0xbded43ab	-0.11585172
90	0xbd889132	-0.06668319
91	0xbc81d167	-0.015846921
92	0xbcc2a535	-0.023760417
93	0x3ace697e	0.0015747992
94	0xbd22d241	-0.039751295
95	0xbcc63d5a	-0.024199177
96	0xbd0a2759	-0.03372893
97	0xbda54206	-0.080692336
98	0xbcc2e010	-0.023788482
99	0xbde4506d	-0.111481525

classfier.bn1.running_mean f4 [100]
0	0x3f72d63e	0.9485816
1	0xbea90497	-0.33011314
2	0xbdad4282	-0.08459951
3	0x3eaff014	0.34362853
4	0x3cb3273a	0.02186929
5	0xbe4a45f7	-0.19753252
6	0x3fb4f8ca	1.4138424
7	0xbe48af79	-0.19598188
8	0x3f8ca9a6	1.0989273
9	0xbfd9097a	-1.6956017
10	0xbd9099ae	-0.07060562
11	0xbf5108a7	-0.8165383
12	0xbf145c2d	-0.5795315
13	0x3eec4b76	0.46151322
14	0x3d133bc2	0.03594566
15	0x3e8501ce	0.2597794
16	0xbf1798f3	-0.59217757
17	0xbe6398f1	-0.22226311
18	0x3fb20d21	1.3910257
19	0xbe63b71a	-0.22237816
20	0x3e7b9cea	0.24571577
21	0xbea37c49	-0.3193076
22	0xbf0080dc	-0.50196624
23	0xbe708bb7	-0.23490797
24	0xbe138403	-0.14405827
25	0x3f74db5e	0.9564723
26	0x3f4e94ac	0.80695605
27	0x3fc76947	1.5579003
28	0x3f39fc57	0.72650665
29	0xbe8f635e	-0.280055
30	0x3e638cab	0.2222163
31	0x3ca3edab	0.02001079
32	0xbeec2554	-0.4612223
33	0x3d6c5623	0.057699334
34	0xbecece6c	-0.40391862
35	0x3ea2e85a	0.31817895
36	0x3d4e7c1d	0.050411332
37	0x3f57d20e	0.84304893
38	0x3f70e92e	0.94105804
39	0x3ee7349c	0.45157325
40	0xbfd968ed	-1.6985146
41	0xbf16a0b8	-0.5883899
42	0x3f453eda	0.7704903
43	0x3cc91e2f	0.024550525
44	0xbdd57b26	-0.10423879
45	0x3f134f76	0.5754312
46	0x3e595c15	0.21226533
47	0xbe1a4198	-0.15064085
48	0x3e048168	0.1293999
49	0x3e5cd7d6	0.2156671
50	0xbfa1afa8	-1.2631731
51	0xbfa4dd5a	-1.2880051
52	0xbf58d430	-0.8469877
53	0x3e479ae9	0.19492687
54	0xbe762ea8	-0.24041235
55	0x3e28cda2	0.16484693
56	0x3dd8b7e2	0.10581948
57	0xbf160b88	-0.58611345
58	0x3f3eb995	0.74501926
59	0xbf6cd360	-0.9251003
60	0x3e5b40b6	0.21411404
61	0x3ec89f32	0.39183956
62	0x3f999c5a	1.200084
63	0xbf01499c	-0.50502944
64	0xbfbd0f48	-1.4770288
65	0x3ce9cb69	0.028539376
66	0x3f6cc027	0.924807
67	0xbedfcefd	-0.43712607
68	0x3de245d2	0.110484734
69	0x3e9d145c	0.30679595
70	0x3f5cfdfd	0.86325055
71	0x3c547dfe	0.012969492
72	0x3ef7a4d1	0.48367932
73	0xbdcbb965	-0.099474706
74	0xbf20c397	-0.62798446
75	0x3edfd8b8	0.4372003
76	0xbea97369	-0.33095863
77	0xbf3b781e	-0.7323016
78	0x3d29f150	0.0414899
79	0x3e2b6ad8	0.16739976
80	0x3e93f374	0.28896677
81	0xbe89873d	-0.2686099
82	0xbdfdb1f8	-0.123874605
83	0x3dd1385a	0.10215826
84	0x3f50e751	0.8160296
85	0xbe845a4a	-0.25850135
86	0x3f03c42c	0.5147121
87	0xbf9ccc3f	-1.2249831
88	0x3dca5a80	0.09880543
89	0xbe26856d	-0.16261835
90	0xbffe22b3	-1.9854339
91	0x3f12e15d	0.5737513
92	0x3f2dfb64	0.67961717
93	0x3f828f1c	1.0199924
94	0xbe7d61f5	-0.24744399
95	0x3f4c9222	0.7991048
96	0x3eb825b0	0.35966253
97	0xbcd5f21c	-0.026116423
98	0x3f2df363	0.67949504
99	0x3d55722c	0.052110836

classfier.bn1.running_var f4 [100]
0	0x3d9985ef	0.07496249
1	0x3d88d6aa	0.06681569
2	0x3d4c7a96	0.049921595
3	0x3db69654	0.089153916
4	0x3d22a341	0.039706472
5	0x3d4f33de	0.050586574
6	0x3e57fa99	0.21091689
7	0x3d9966d2	0.074903145
8	0x3e3c96e0	0.18416929
9	0x3e66d220	0.22541094
10	0x3d203ac6	0.03911855
11	0x3e2ab7d8	0.16671693
12	0x3debdf7f	0.11517238
13	0x3e095289	0.13410391
14	0x3d16ac04	0.03678514
15	0x3d8581c3	0.06518891
16	0x3d4b97f7	0.04970547
17	0x3d5566a1	0.052099828
18	0x3ecf1e6d	0.404529
19	0x3db74822	0.08949305
20	0x3d855585	0.06510452
21	0x3e6317dd	0.22177072
22	0x3d945e57	0.072445564
23	0x3d5dece4	0.054180995
24	0x3d511f5b	0.051055294
25	0x3d9e9d97	0.077449016
26	0x3d81bace	0.06334458
27	0x3e36c1b6	0.17847332
28	0x3e077075	0.13226493
29	0x3d639c96	0.055569254
30	0x3d8a52d0	0.067540765
31	0x3dbaab94	0.09114757
32	0x3d829d7c	0.06377694
33	0x3d7eefe7	0.062240507
34	0x3d4c8324	0.049929753
35	0x3dbbd22d	0.09170947
36	0x3d4a4c59	0.049389217
37	0x3dacebc2	0.08443405
38	0x3de260a4	0.11053589
39	0x3e1addea	0.15123716
40	0x3eaa34e5	0.3324348
41	0x3de55654	0.111981064
42	0x3e360783	0.17776303
43	0x3e128b86	0.14311036
44	0x3d2a3f16	0.04156407
45	0x3dda11a3	0.10647895
46	0x3d8225aa	0.0635484
47	0x3cee6444	0.029100545
48	0x3d2b3aa3	0.041803967
49	0x3d914f31	0.07095183
50	0x3e444c07	0.19169627
51	0x3e1d22e6	0.15345344
52	0x3dce0989	0.100604124
53	0x3d8f417e	0.069949135
54	0x3e08df80	0.13366508
55	0x3d4d4fc0	0.050124884
56	0x3cf59d1e	0.029982146
57	0x3db8fc24	0.09032467
58	0x3e06ea97	0.13175426
59	0x3da19336	0.078894064
60	0x3d9dfe76	0.0771455
61	0x3d93a564	0.0720928
62	0x3e718bb6	0.23588452
63	0x3d4512f4	0.04811378
64	0x3e4c179f	0.19930886
65	0x3d02782e	0.031852894
66	0x3e4419bf	0.19150446
67	0x3d6ebc87	0.058285262
68	0x3d79f9fd	0.061029423
69	0x3d72ecaa	0.05930773
70	0x3dddd11b	0.10830899
71	0x3d8048d4	0.06263891
72	0x3db69b31	0.08916319
73	0x3da5e323	0.080999635
74	0x3da43efd	0.080198266
75	0x3dac943c	0.08426711
76	0x3e1a31fd	0.15058132
77	0x3dcac2d1	0.099004395
78	0x3d63030e	0.055422835
79	0x3d4b232f	0.0495941
80	0x3d977b21	0.07396532
81	0x3d772735	0.060340125
82	0x3d87cc75	0.06630794
83	0x3d7815d9	0.06056771
84	0x3d77409e	0.060364358
85	0x3d83e06c	0.064392895
86	0x3df7b15d	0.12094376
87	0x3df2de54	0.11858812
88	0x3d475698	0.048666567
89	0x3d89465b	0.06702872
90	0x3eb0a1d7	0.34498474
91	0x3dbc56f7	0.09196275
92	0x3ddb1df6	0.10699074
93	0x3e1a2d98	0.15056455
94	0x3d79d57a	0.060994603
95	0x3d8c1f22	0.068418756
96	0x3e24d3f8	0.16096485
97	0x3d2bfadc	0.041987285
98	0x3dc8f3c7	0.09812122
99	0x3dba1b72	0.09087266

classfier.fc2.weight f4 [50, 100]
0	0x3dc38922	0.095476404
1	0xbd694d43	-0.05695845
2	0xbdd050c3	-0.10171654
3	0xbd31b83a	-0.043388583
4	0x3d0ebd21	0.034848336
5	0x3ca92f11	0.020652326
6	0x3baa95fb	0.0052058673
7	0xbd2135e8	-0.03935805
8	0xbce36ee1	-0.027762832
9	0x3c883bb3	0.01663003
10	0x3bbad454	0.005701581
11	0x3b028b01	0.0019919279
12	0xbdc310bc	-0.09524676
13	0xbd95ec35	-0.073204435
14	0xbc0dcfb3	-0.008655476
15	0xbd9c0d55	-0.076197304
16	0xbd81efab	-0.06344541
17	0xbd261de7	-0.04055586
18	0xbd556f68	-0.0521082
19	0xbd84980a	-0.06474312
20	0x3d3b8cc8	0.045788556
21	0x3d8cae8a	0.06869228
22	0x3d8fdfed	0.07025132
23	0xbd74f376	-0.059802495
24	0x3c89f858	0.016842052
25	0xbb87c1f2	-0.004142993
26	0x3ddc9778	0.10771078
27	0x3dbaa3d6	0.091132805
28	0xbd2d3eed	-0.04229634
29	0x3d99c783	0.07508757
30	0x3c9bb870	0.019008845
31	0xbd834d0b	-0.06411179
32	0xbdac503b	-0.0841374
33	0x3d7db295	0.061937887
34	0x3d762b9e	0.06010019
35	0x3c9c33fe	0.01906776
36	0xbcafddc6	-0.021468055
37	0x3dcce371	0.100043185
38	0x3d240c63	0.040050875
39	0xbce52c2b	-0.027975162
40	0xbcd64942	-0.026157979
41	0xbdb0c9d8	-0.08632249
42	0x3d726797	0.059180822
43	0x3dc25936	0.09489672
44	0x3d3fa083	0.046783935
45	0xbd564bad	-0.052318264
46	0x3d0b2858	0.03397402
47	0x3cbdc502	0.02316523
48	0xbdb4d5e4	-0.08829859
49	0xbdebdc9a	-0.11516686
50	0xbcf0de44	-0.02940286
51	0xbe08829b	-0.13331072
52	0xbbf2bab0	-0.007407509
53	0x3d8bd793	0.06828227
54	0xbd8f11cb	-0.069858156
55	0x3d7ceafe	0.061747544
56	0x3bd7c038	0.0065841936
57	0xbcdedce6	-0.027204942
58	0x3d055b6c	0.03255789
59	0xbe0092be	-0.12555978
60	0xbc78d9ea	-0.0151886735
61	0x3d52b542	0.051442392
62	0xbd971dcf	-0.073787324
63	0xbd93a276	-0.07208721
64	0xbd4a4a41	-0.04938722
65	0xbca332ee	-0.019921746
66	0xbdacbaa9	-0.0843404
67	0x3b5175b4	0.0031961026
68	0x3d153f28	0.036437184
69	0xbcd762c0	-0.026292205
70	0x3de192cb	0.11014327
71	0x3cc0f1b7	0.023552759
72	0xbdfcb57f	-0.12339305
73	0xbd5941f2	-0.053041406
74	0x3d12fc4d	0.035885144
75	0xbcfa7a3b	-0.030575862
76	0x3cb409fd	0.021977419
77	0xbd71b52b	-0.059010666
78	0x3d22f15c	0.03978096
79	0x3d832ae5	0.06404666
80	0x3d11d26d	0.03560107
81	0x3d202d85	0.03910591
82	0x3d545f6c	0.051848814
83	0xbd98730b	-0.07443818
84	0xbd0aab17	-0.03385457
85	0xbddf12d8	-0.10892266
86	0x3cee1cbe	0.02906644
87	0x3c6d49eb	0.014482955
88	0x3b349aae	0.0027558017
89	0xbd8ef681	-0.06980611
90	0xbd880f2d	-0.066435196
91	0x3d9f20c9	0.07769925
92	0x3db1d316	0.086828396
93	0xbd5468eb	-0.05185787
94	0xbbf1f152	-0.007383504
95	0x3d83e9f9	0.06441111
96	0xbdb3ef9d	-0.08785937
97	0x3d920f26	0.071317956
98	0xbd8d8a7f	-0.06911182
99	0xbc035373	-0.008015501
100	0xbd6a90fe	-0.05726718
101	0x3e044ac1	0.12919141
102	0xbd83c750	-0.064345
103	0xbd571422	-0.052509435
104	0xbd5f1888	-0.054466754
105	0x3ceac1b8	0.028656825
106	0xbdd4d344	-0.10391858
107	0xbdad9fae	-0.08477722
108	0xbd749d28	-0.05972019
109	0xbc0b7e33	-0.008513975
110	0xbda9ca1c	-0.082905024
111	0x3cb90b0e	0.02258828
112	0x3c67bd89	0.01414431
113	0x3d97e4d9	0.07416696
114	0xbcec8caa	-0.028875668
115	0x3d11c5b3	0.03558893
116	0xbda3cf4a	-0.079985216
117	0xbd9b9265	-0.07596282
118	0xbd60fbb2	-0.054927535
119	0x3daa2482	0.083077446
120	0xbc37616d	-0.011192662
121	0xbd8ad717	-0.067793064
122	0x3d9efd28	0.077631295
123	0x3ca427b6	0.020038467
124	0x3d0615ea	0.032735743
125	0xbbc8c1ec	-0.006126633
126	0x3da52277	0.08063214
127	0xbdbad60e	-0.09122859
128	0xbdc778df	-0.09739851
129	0x3b8c08bb	0.0042735017
130	0x3c7e965b	0.015538777
131	0xbb5fdebb	-0.0034159857
132	0xbd454d50	-0.048169434
133	0x3b8b11a5	0.0042440468
134	0xbaf86353	-0.0018950499
135	0x3d434116	0.047669493
136	0xbd4e92e7	-0.050433066
137	0xbd8eda1f	-0.06975197
138	0xbdb7e499	-0.089791484
139	0xbce866f5	-0.028369406
140	0x3d8ecf05	0.069730796
141	0x3d8cd157	0.06875866
142	0xbdecab25	-0.11556081
143	0xbd1b720e	-0.037950568
144	0x3d7766a2	0.060400613
145	0xbdac00c4	-0.083985835
146	0xbcc05c66	-0.023481559
147	0x3ce8ae98	0.028403565
148	0xbbab6e72	-0.005231672
149	0xbbd33242	-0.0064452
150	0xbd0d240c	-0.034458205
151	0x3da153bd	0.078773
152	0xbdcb5780	-0.09928799
153	0xbc5bb243	-0.0134092
154	0xbd542fc1	-0.051803354
155	0x3d695ae6	0.056971453
156	0x3d9fa622	0.07795359
157	0xbdb20de6	-0.08694057
158	0x3d48f1cc	0.04905872
159	0x3dd8e7ad	0.10591064
160	0xbb370ac0	-0.0027929991
161	0xbdaaa8da	-0.08332987
162	0xbd5fff49	-0.05468682
163	0x3cc7392b	0.024319252
164	0x3d78badb	0.060725074
165	0xbd700c5c	-0.058605537
166	0xbdecefc7	-0.115691714
167	0xbdf4ebef	-0.11959063
168	0x3c2ed537	0.010670952
169	0xbbab5438	-0.0052285455
170	0x3d160038	0.036621302
171	0xbcdcf707	-0.02697326
172	0xbdb509b1	-0.08839739
173	0xbd6c9e20	-0.057767987
174	0xbd87179c	-0.065963
175	0x3d753e97	0.059874143
176	0xbdb538e6	-0.08848743
177	0x3d49e892	0.049294062
178	0xbd645206	-0.055742286
179	0xbd94f605	-0.07273487
180	0xbd2fa69b	-0.042883497
181	0xbd41daf3	-0.047327947
182	0xbd4bdfa6	-0.049773835
183	0xbd2ac802	-0.04169465
184	0x3d442dd8	0.047895283
185	0x3c3c4216	0.0114903655
186	0x3da63116	0.08114831
187	0xbd65c88f	-0.05609947
188	0x3d795cba	0.060879447
189	0x3cbd7a07	0.023129476
190	0xbda367b2	-0.07978763
191	0xbd60d28f	-0.054888304
192	0xbdb31d2c	-0.087457985
193	0x3d9f40d4	0.07776037
194	0x3ce92039	0.028457748
195	0x3cc76ea6	0.024344753
196	0xbd5e7d02	-0.054318435
197	0x3dcd1577	0.1001386
198	0x3da90136	0.08252184
199	0xbda61565	-0.081095494
200	0xbc951299	-0.018197345
201	0x3c18c4a8	0.00932423
202	0xbd85167b	-0.064984284
203	0xbdb4594c	-0.088060945
204	0x3cdf9b5b	0.027295759
205	0xbdc0cec3	-0.09414437
206	0xbde37223	-0.11105754
207	0xbd84bd2f	-0.064813964
208	0xbdfd365e	-0.12363885
209	0x3d960b87	0.073264174
210	0xbdd557ad	-0.104171135
211	0xbd2653ec	-0.040607378
212	0xbdb52fa9	-0.08846981
213	0xbd42b9c5	-0.047540445
214	0xbddec0ad	-0.10876594
215	0xbd0054d0	-0.031330884
216	0x3b082b7e	0.0020777876
217	0x3c19d627	0.009389437
218	0x3bd3e83f	0.006466895
219	0xbc55f0f2	-0.013057934
220	0xbda97e78	-0.08276075
221	0xbdef4d5f	-0.11684679
222	0xbd2cb21b	-0.042162042
223	0xbd64a2c0	-0.055819273
224	0x3b15e3a0	0.002287127
225	0x3d032ae5	0.03202333
226	0xbdb733a3	-0.08945396
227	0x3cba999c	0.022778325
228	0xbbf23528	-0.0073915906
229	0xbda9d8a5	-0.08293275
230	0xbd90d4ab	-0.07071813
231	0x3c39ab13	0.011332291
232	0xbda90628	-0.08253127
233	0x3d943f01	0.072385795
234	0xbd6473fd	-0.055774678
235	0xbd10ee39	-0.035383437
236	0xbd80f556	-0.06296794
237	0x3b001d70	0.0019548796
238	0x3d6a7d5e	0.057248466
239	0x3cd04434	0.025423147
240	0xbdc8ac19	-0.0979845
241	0xbca278be	-0.019832965
242	0xbdb2cf3d	-0.08730934
243	0xbbc78055	-0.0060882964
244	0xbd3f9d96	-0.046781145
245	0x3d09f3e4	0.033679858
246	0xbd95bede	-0.07311796
247	0xbd1fe0c0	-0.039032698
248	0x3c2e8fc8	0.010654397
249	0xbd7f9127	-0.062394287
250	0xbd276552	-0.04086811
251	0x3d0f8a78	0.035044163
252	0xbdbae3c4	-0.09125474
253	0x3d1a7f0f	0.03771883
254	0xbe0a7cb9	-0.1352414
255	0xbd0ae209	-0.03390697

classfier.fc2.bias f4 [50]
0	0xb6304220	-2.6264534e-06
1	0x35926b39	1.0909054e-06
2	0xb59a6834	-1.1504221e-06
3	0x38453edd	4.7027006e-05
4	0xb8352369	-4.318674e-05
5	0x362d6280	2.5836343e-06
6	0x36a168dd	4.8103816e-06
7	0xb68c5e82	-4.1833273e-06
8	0x38c2a1b2	9.280759e-05
9	0x35162845	5.5937954e-07
10	0xb6f8df1f	-7.4169507e-06
11	0xb6c7cf2a	-5.954779e-06
12	0xb6b933ba	-5.5194514e-06
13	0x369ccf60	4.673304e-06
14	0x375aa26e	1.3031631e-05
15	0x38f933d4	0.00011882899
16	0xb619e58e	-2.2932395e-06
17	0x389e7ab0	7.5568794e-05
18	0xb63a5394	-2.7764809e-06
19	0x34a4984d	3.0658194e-07
20	0xb3aa8e5e	-7.942138e-08
21	0xb492f5b4	-2.7373392e-07
22	0xb72c09cb	-1.0254279e-05
23	0x363a4b27	2.7759904e-06
24	0xb5512876	-7.7917446e-07
25	0xb555a8dd	-7.959441e-07
26	0xb496a4e4	-2.805965e-07
27	0xb6254c82	-2.463145e-06
28	0xb67ebcad	-3.7958773e-06
29	0x32c226d8	2.2602237e-08
30	0x360f8658	2.1386859e-06
31	0x35988164	1.136254e-06
32	0x35ee1cc2	1.7740751e-06
33	0xb5468078	-7.3947695e-07
34	0xb54309a7	-7.2657207e-07
35	0xb5ae517d	-1.2987726e-06
36	0x366c00fa	3.5167309e-06
37	0xb67dd48c	-3.7823656e-06
38	0x35896fb5	1.0239806e-06
39	0x35e5ef7a	1.7131526e-06
40	0xb66e5166	-3.5512144e-06
41	0x352aeb9d	6.36728e-07
42	0x3782a3e9	1.5573534e-05
43	0xb91062c9	-0.0001376971
44	0xb949404e	-0.00019192809
45	0x398c7f33	0.00026797652
46	0x36042139	1.968887e-06
47	0x37cdc9e7	2.4531922e-05
48	0xb5ba21c7	-1.386791e-06
49	0x36a41658	4.890182e-06

classfier.bn2.weight f4 [50]
0	0x3f816765	1.0109679
1	0x3f6e9dc2	0.9320947
2	0x3f7a50f6	0.97779787
3	0x3f8693a1	1.0513803
4	0x3f705141	0.93873984
5	0x3f84d0d4	1.0376229
6	0x3f7b2a23	0.9811117
7	0x3f7d2437	0.98883384
8	0x3f6de9b5	0.92934734
9	0x3f7f64cf	0.99763197
10	0x3f7f7fe1	0.998045
11	0x3f8b2a5e	1.0872304
12	0x3f7ada61	0.9798947
13	0x3f7241a1	0.9463139
14	0x3f8b8537	1.0900029
15	0x3f74ff86	0.957024
16	0x3f7768e4	0.96644425
17	0x3f8a013a	1.0781624
18	0x3f6cf107	0.9255528
19	0x3f8b2a44	1.0872273
20	0x3f7fc51b	0.99910134
21	0x3f847e4f	1.0351046
22	0x3f6e8f93	0.93187827
23	0x3f726d18	0.94697714
24	0x3f754c73	0.9581978
25	0x3f87c785	1.0607764
26	0x3f6f38b4	0.934459
27	0x3f77dbb4	0.96819615
28	0x3f81b93b	1.0134653
29	0x3f795642	0.97397244
30	0x3f8aea32	1.0852721
31	0x3f6fc21e	0.93655574
32	0x3f7cb224	0.9870932
33	0x3f69b180	0.9128647
34	0x3f6eb153	0.93239325
35	0x3f6f524e	0.9348496
36	0x3f820817	1.0158719
37	0x3f720888	0.9454427
38	0x3f73ee47	0.9528546
39	0x3f76042f	0.96100134
40	0x3f881d4b	1.063394
41	0x3f738199	0.95119625
42	0x3f8359ea	1.0261815
43	0x3f7149eb	0.94253415
44	0x3f77a214	0.96731687
45	0x3f84f8a7	1.0388383
46	0x3f80dde1	1.0067712
47	0x3f73b27d	0.95194227
48	0x3f8bc3a1	1.0919076
49	0x3f8baef8	1.0912771

classfier.bn2.bias f4 [50]
0	0x3c2c4fbb	0.010517056
1	0xbd8b8ccf	-0.068139665
2	0x3c80a09d	0.015701586
3	0xbe1bbb3e	-0.15208146
4	0xbd85844d	-0.06519375
5	0xbe17570b	-0.14779298
6	0xbdca58ba	-0.098802045
7	0x3c7683a0	0.01504603
8	0xbd44de1c	-0.048063383
9	0x3ad071c5	0.0015903047
10	0x3aaab803	0.001302481
11	0x3da1bf3f	0.078978054
12	0xbae8f178	-0.0017772159
13	0xbded1525	-0.115762986
14	0xbdecb8fe	-0.11558722
15	0xbc9906ed	-0.01868006
16	0xba62e01a	-0.00086546096
17	0xbdf93553	-0.12168374
18	0xbd9b3e2b	-0.07580217
19	0x3cc19537	0.023630721
20	0xbc9e6692	-0.019336019
21	0xbdbe73da	-0.09299441
22	0xbdb06c28	-0.08614379
23	0xbd5cd5a1	-0.05391467
24	0xbd333752	-0.04375393
25	0xbdb160cd	-0.086610414
26	0xbd5127d8	-0.05106339
27	0xbd5311e6	-0.05153074
28	0xbdf925d0	-0.12165415
29	0xbdae85dd	-0.08521626
30	0x3d0e432a	0.03473202
31	0xbd7336c9	-0.05937842
32	0x3d0a4106	0.033753417
33	0xbda322ef	-0.079656474
34	0xbd2dc8eb	-0.04242794
35	0xbd581377	-0.052752938
36	0x3bad0913	0.0052806227
37	0xbd3d71ce	-0.04625111
38	0xbd763916	-0.060113035
39	0xbcecf329	-0.028924542
40	0x3c9029d0	0.017598063
41	0xbc0a07b0	-0.008424684
42	0x3d21fff3	0.039550733
43	0xbd2f90b1	-0.042862598
44	0xbd0ae02f	-0.033905204
45	0xbde2994e	-0.11064397
46	0xbddcd83e	-0.107834324
47	0xbd638571	-0.05554718
48	0x3d3ffda3	0.046872746
49	0xbdc4db9a	-0.09612198

classfier.bn2.running_mean f4 [50]
0	0xbe72306f	-0.23651288
1	0xbf0089d7	-0.50210327
2	0xbf836325	-1.0264632
3	0x3f80bbc4	1.0057302
4	0x3e3603ba	0.17774859
5	0x3f89e2c9	1.0772334
6	0x3f5b960e	0.8577584
7	0xbf5555a4	-0.833338
8	0xbec0f2f0	-0.37685347
9	0xbf40bd31	-0.75288683
10	0xbea72f6e	-0.32653373
11	0xbee8f563	-0.45499715
12	0xbf26fa0c	-0.6522529
13	0x3f462f77	0.77416176
14	0x3f748ba5	0.9552558
15	0xbe9116d9	-0.28337744
16	0xbeaf7b1b	-0.3427361
17	0x3f850d09	1.0394603
18	0x3cc6a6ce	0.02424946
19	0xbf5aad50	-0.85420704
20	0xbe798115	-0.24365647
21	0x3f7978d6	0.97450006
22	0x3f1b66ca	0.6070372
23	0xbe7132a0	-0.23554468
24	0x3f0f1e3e	0.5590552
25	0x3f882b77	1.0638264
26	0xbdced6e6	-0.100995824
27	0x3f16d40c	0.5891731
28	0x3f827b3e	1.019386
29	0x3f57b9d3	0.8426792
30	0xbe8dab4b	-0.2766975
31	0xbc4f5826	-0.012655294
32	0xbe983103	-0.29724893
33	0xbf029c16	-0.5101942
34	0xbf657b98	-0.89641714
35	0xbead698c	-0.33869588
36	0xbee695fc	-0.45036304
37	0xbdb5828e	-0.08862792
38	0xbee24f32	-0.44201046
39	0x3c96eb6b	0.018422803
40	0xbf2a6e17	-0.66574234
41	0xbf359680	-0.7093277
42	0xbf1d15bd	-0.61361295
43	0xbe81c77a	-0.253475
44	0xbe00e614	-0.12587768
45	0x3f6f1745	0.9339488
46	0x3f85084d	1.0393158
47	0x3f24ade3	0.6432783
48	0xbf2718da	-0.65272295
49	0x3f8afe5f	1.0858878

classfier.bn2.running_var f4 [50]
0	0x3ec8733d	0.3915042
1	0x3ea1c720	0.31597233
2	0x3ef7ef98	0.48424983
3	0x3f055a5a	0.5209099
4	0x3e70d7ec	0.23519868
5	0x3f06e4b4	0.52692723
6	0x3ed9ac71	0.42514375
7	0x3ed91f5a	0.42406732
8	0x3ec35b08	0.3815539
9	0x3e98f9c7	0.29878065
10	0x3eb16931	0.34650567
11	0x3ee5bcb6	0.44870538
12	0x3e9ed25b	0.31019863
13	0x3e9df8bb	0.3085383
14	0x3f0bc613	0.5459911
15	0x3eb6b863	0.3568755
16	0x3ea6cc3d	0.32577696
17	0x3f1e9d26	0.6195854
18	0x3eb1feb6	0.34764642
19	0x3f158194	0.58400846
20	0x3ef4f70b	0.4784473
21	0x3edee093	0.43530712
22	0x3e7eed94	0.24895316
23	0x3eec5604	0.46159375
24	0x3ed0d730	0.40789175
25	0x3f0928c6	0.5357784
26	0x3eb80061	0.3593779
27	0x3ee257f3	0.44207725
28	0x3f01afcd	0.50658876
29	0x3ec8d61e	0.39225858
30	0x3eb93288	0.36171365
31	0x3e85c61c	0.26127708
32	0x3ee50b99	0.4473541
33	0x3ea44042	0.32080275
34	0x3e991fec	0.29907167
35	0x3e6b6202	0.22986606
36	0x3e67eaba	0.22648135
37	0x3e745a3b	0.23862545
38	0x3ec1225f	0.37721536
39	0x3eda4529	0.4263089
40	0x3edb30ad	0.42810574
41	0x3efe9c1d	0.4972848
42	0x3ed95b91	0.42452672
43	0x3e746c0a	0.23869339
44	0x3e89b4df	0.26895806
45	0x3ecf846d	0.4053072
46	0x3f1cdf6f	0.6127843
47	0x3ecb89b9	0.39753512
48	0x3efa89f0	0.48933363
49	0x3f138b28	0.5763421

classfier.fc3.weight f4 [25, 50]
0	0xbce6f67a	-0.028193701
1	0x3da103ba	0.07862039
2	0x3cb0fce1	0.021604957
3	0xbe14a572	-0.14516237
4	0x3d310ca1	0.043224934
5	0xbc6b1b16	-0.0143497195
6	0xbd8d3541	-0.06894923
7	0x3dd15696	0.10221593
8	0xbe2151d6	-0.15753874
9	0xbd26ec73	-0.04075284
10	0x3de481d2	0.11157574
11	0x3d6eb6f3	0.058279943
12	0x3d2edde1	0.04269207
13	0xbb313573	-0.0027039915
14	0xbdc8542e	-0.09781681
15	0x3d34a9dd	0.044107307
16	0xbcb6a509	-0.022295492
17	0xbe0d2bfb	-0.13786308
18	0xbe0a286c	-0.13491982
19	0xbe0477e0	-0.12936354
20	0x3d9dccb2	0.07705058
21	0xbcf83811	-0.030300172
22	0xbbcfe05d	-0.006343885
23	0xbb7392b8	-0.0037166309
24	0x3a68edc7	0.0008885529
25	0xbd166317	-0.036715593
26	0xbb0ead62	-0.0021770825
27	0xbe34d046	-0.17657575
28	0xbe0c1455	-0.13679631
29	0xbc7a64fb	-0.015282865
30	0x3d84bec7	0.064817004
31	0x3bdfd0c1	0.0068303053
32	0x3d4118af	0.04714268
33	0x3cdcd057	0.026954813
34	0x3d8104e0	0.06299758
35	0x3d586374	0.05282922
36	0x3b202f9b	0.0024442438
37	0x3d658cb9	0.056042407
38	0xbc275a49	-0.010214397
39	0xbd102133	-0.03518791
40	0xbe99ffac	-0.30077875
41	0xbb975d29	-0.00461926
42	0x3de739f9	0.11290354
43	0xbd099bde	-0.033595912
44	0x3d06035a	0.03271804
45	0xbc0285d5	-0.007966478
46	0xbd5ca3bc	-0.053867087
47	0xbd5f19b3	-0.054467868
48	0xbe94415f	-0.28956124
49	0xbdc4b15f	-0.09604143
50	0xb997d285	-0.00028957814
51	0xbafa9911	-0.0019119104
52	0xbd04a7cf	-0.032386597
53	0x3e292dd9	0.16521396
54	0x3d4b2a2c	0.049600765
55	0x3d1ebb3d	0.038752783
56	0xbd1be3ea	-0.038059153
57	0xbc3b8d34	-0.01144724
58	0x3d2c0da1	0.042005185
59	0x3da1334f	0.078711145
60	0xbd6fe012	-0.0585633
61	0x3bc18b0d	0.0059064687
62	0xbd25ccfe	-0.0404787
63	0x3d3359c8	0.043786794
64	0x3e062f0c	0.13103884
65	0xbdb43afa	-0.088003114
66	0xbd30ac7f	-0.043133255
67	0x3e25d784	0.16195494
68	0x3d8a390b	0.06749161
69	0x3c8f54c3	0.017496472
70	0x3d5cabd9	0.053874824
71	0xbc7aaa6f	-0.015299424
72	0x3d7445e0	0.05963695
73	0xbd3db6c4	-0.046316877
74	0x3d8e7a5a	0.069569305
75	0x3e317b90	0.17332292
76	0x3d8546da	0.065076545
77	0xbbc93dee	-0.006141416
78	0x3e45a950	0.19302869
79	0x3d148fcb	0.036269944
80	0xbd2a3389	-0.041553054
81	0x3ccbc12b	0.024872383
82	0xbd2bbbd4	-0.041927174
83	0x3d977f8f	0.07397377
84	0x3d5fddb4	0.054654792
85	0x3d4f242c	0.050571606
86	0x3c10db86	0.008841401
87	0xbd53796b	-0.051629465
88	0x3cc1f7f0	0.023677796
89	0x3dbef749	0.0932451
90	0xbce5bda0	-0.028044522
91	0xbd9ddca2	-0.07708098
92	0xbd4fa353	-0.050692867
93	0xbcf3936a	-0.029733378
94	0xbd075614	-0.033041075
95	0x3e2d78a8	0.16940558
96	0x3e223920	0.15842104
97	0x3beeb466	0.0072846888
98	0xbdda1dc0	-0.106502056
99	0x3d6eab06	0.05826857
100	0xbcf39d1a	-0.029737998
101	0x3d1178ec	0.03551571
102	0xbdb7a658	-0.089672744
103	0xbce49a56	-0.027905624
104	0xbc655a6f	-0.013998612
105	0x3e387a70	0.18015456
106	0xbb956fcc	-0.0045604464
107	0xbdae8ab6	-0.08522551
108	0xbdbb0142	-0.09131099
109	0xbc6357ca	-0.013875911
110	0x3c61c24c	0.013779234
111	0xbd26498e	-0.04059749
112	0xbd6fcf3c	-0.058547243
113	0x3dca5453	0.09879365
114	0x3dee0062	0.11621167
115	0x3d45cce1	0.04829109
116	0xbd34ab1e	-0.044108503
117	0x3e1fa125	0.15588816
118	0xbb1f00ea	-0.002426202
119	0xbda419fd	-0.08012769
120	0xbd249e13	-0.040189814
121	0x3d873df3	0.06603613
122	0x3d6240eb	0.05523769
123	0x3dafe87e	0.08589266
124	0x3d2e814b	0.042603772
125	0x3e423dc4	0.18968874
126	0x397df2bb	0.00024218384
127	0x3daccb8c	0.08437261
128	0x3e2f589c	0.17123646
129	0x3d3b2c16	0.04569634
130	0xbda2693b	-0.07930227
131	0xbd203017	-0.039108362
132	0xbd90a273	-0.07062235
133	0x3cb5e603	0.022204405
134	0x3db2cc7f	0.08730411
135	0xbd5852bb	-0.052813273
136	0x3b5948ac	0.0033154888
137	0x3bc9891f	0.0061503793
138	0xbdb8f380	-0.09030819
139	0x3d505d73	0.05087037
140	0xbdc58603	-0.09644701
141	0xbb920741	-0.004456431
142	0xbd906db4	-0.07052174
143	0x3da00167	0.078127675
144	0x3c8aa523	0.016924446
145	0x3e0f0c4f	0.13969539
146	0x3cc06967	0.02348776
147	0xba79b8ec	-0.00095261517
148	0xbd966c03	-0.0734482
149	0x3d6c7066	0.05772438
150	0xbe2d7263	-0.16938166
151	0xbdc6e184	-0.097109824
152	0x3c0c0e30	0.008548304
153	0xbd55fdf8	-0.052244157
154	0x3d7719bd	0.06032728
155	0xbdc8559c	-0.09781954
156	0xbe05ed94	-0.1307891
157	0xbd657b32	-0.05602569
158	0x3cbf783c	0.023372762
159	0xbcd6ac43	-0.026205188
160	0xbe47fa24	-0.19529015
161	0xbe6639da	-0.22483006
162	0x3d8a8fa4	0.067656785
163	0xbac1f333	-0.001479721
164	0xbc7d3f6a	-0.015457014
165	0xbe15b73d	-0.14620681
166	0xbd18f6d7	-0.03734478
167	0xbdc8ca21	-0.09804178
168	0x3cceda97	0.025250716
169	0xbd47505d	-0.048660625
170	0x3d812ae9	0.063070126
171	0xbdde4636	-0.108532354
172	0xbd19f53b	-0.037587386
173	0x3cbd611d	0.023117596
174	0xbd65df46	-0.056121133
175	0xbd1c6026	-0.03817763
176	0xbce2c881	-0.027683498
177	0xbaad0057	-0.0013198954
178	0xbde48a06	-0.111591384
179	0xbdcf2b84	-0.10115722
180	0xbe071e88	-0.1319524
181	0x3da3c8f2	0.07997312
182	0xbdc464e3	-0.09589555
183	0xbda2fe9a	-0.07958718
184	0x3dda3170	0.10653961
185	0xbe4a2e0c	-0.19744128
186	0x3dab1548	0.083536685
187	0x3beac060	0.007164046
188	0x3e16bd61	0.1472068
189	0x3d914a37	0.070942335
190	0xbcf2e7fc	-0.029651634
191	0xbe4b8865	-0.19876249
192	0x3cba1a69	0.022717671
193	0x3ce00905	0.02734805
194	0x3ccdc90e	0.025120284
195	0xbdd73518	-0.10508174
196	0xbdf95837	-0.12175029
197	0xbd8e1eb0	-0.06939447
198	0x3df9a921	0.12190462
199	0xbbc3dc1d	-0.0059771673
200	0x3e06e6ba	0.13173953
201	0xbdc079b0	-0.0939821
202	0x3d8eacbd	0.06966541
203	0xbc88e54b	-0.016710898
204	0x3d70a045	0.058746595
205	0xbcf816b1	-0.030284258
206	0x3bf499ff	0.007464647
207	0x3d3fa76f	0.046790536
208	0x3b242f74	0.0025052698
209	0x3c8d90bf	0.017280934
210	0x3c01c7a8	0.007921137
211	0x3d6be91f	0.05759537
212	0xbe425d1d	-0.18980832
213	0x3c370ab0	0.011171982
214	0xbd52755a	-0.051381446
215	0x3dd21862	0.10258557
216	0x3c65c7f8	0.014024727
217	0xbd85ec90	-0.06539261
218	0x3dbc08be	0.09181355
219	0x3e673191	0.22577502
220	0xbdc0c7c2	-0.09413101
221	0xbe06852a	-0.13136736
222	0xbcae6b0b	-0.021291276
223	0x3dc81296	0.0976917
224	0xbdbd55fb	-0.09244915
225	0xbe01641a	-0.12635842
226	0x3df8cf96	0.12148969
227	0x3cb5ae69	0.022177892
228	0xbd8c4b5e	-0.06850313
229	0xbe124976	-0.14285836
230	0x3d7b5d17	0.061368074
231	0x3d7f80d7	0.06237873
232	0x3d1db9d7	0.03850731
233	0x3d890316	0.06690042
234	0x3d0dc40a	0.034610786
235	0x3e10b284	0.14130598
236	0x3d45eb55	0.048320133
237	0x3dc4e68a	0.09614284
238	0xbe2302ff	-0.15919112
239	0x3d8a947b	0.06766602
240	0xbd9c93ee	-0.07645403
241	0x3e17a5cd	0.14809342
242	0x3e1dc3ef	0.15406774
243	0x3d8e789a	0.06956597
244	0x3e0d4405	0.13795479
245	0xbc58616f	-0.013206824
246	0xbd9a0ed4	-0.075223595
247	0xbe31a28c	-0.17347163
248	0x3e2e93d9	0.17048587
249	0xbdfcb69b	-0.12339517
250	0xba260468	-0.0006333054
251	0x3dd65ba5	0.104666986
252	0x3dfc93c1	0.12332869
253	0xbe0ef04b	-0.13958852
254	0xbdf82979	-0.12117285
255	0xbd490c65	-0.049084086

classfier.fc3.bias f4 [25]
0	0xb6319028	-2.6458965e-06
1	0x3b44c487	0.0030024366
2	0xb649779b	-3.0020954e-06
3	0x367f24b9	3.8019336e-06
4	0x3507e0f0	5.0618746e-07
5	0xb3e81b10	-1.08082645e-07
6	0xb9bed6ed	-0.00036399756
7	0xb7210dd6	-9.599569e-06
8	0xb72955bb	-1.0093146e-05
9	0x3543928a	7.2856403e-07
10	0xb63ea43e	-2.8407808e-06
11	0xba75ef73	-0.0009381689
12	0x3519dfcf	5.7322626e-07
13	0xb5e496dd	-1.7031231e-06
14	0xb981f523	-0.00024787438
15	0xb6c210b7	-5.7835964e-06
16	0x39bed84e	0.00036400784
17	0x39958d5e	0.0002852482
18	0xb7915830	-1.7326412e-05
19	0xba173380	-0.0005767867
20	0x3b6bea54	0.0035997825
21	0xb6a5e054	-4.9434984e-06
22	0x399279e4	0.00027938106
23	0xb9095f2f	-0.00013100797
24	0x362983fc	2.5259787e-06

classfier.bn3.weight f4 [25]
0	0x3fa34d91	1.2758046
1	0x3f927c74	1.144423
2	0x3f90dfbe	1.1318281
3	0x3fa1b954	1.2634683
4	0x3fa1bab8	1.2635107
5	0x3f96fdd7	1.1796216
6	0x3f9891e7	1.1919526
7	0x3f995ac3	1.1980823
8	0x3f7f8189	0.9980703
9	0x3f8a0486	1.078263
10	0x3f981e1d	1.188419
11	0x3f9733b6	1.1812656
12	0x3f8b868e	1.0900438
13	0x3f93274f	1.1496371
14	0x3f99722b	1.1987966
15	0x3f9ed3dc	1.2408404
16	0x3fa0ab34	1.2552247
17	0x3f8fcef1	1.1235029
18	0x3f9839e0	1.1892662
19	0x3f9cdc6a	1.2254765
20	0x3f9501b7	1.1641148
21	0x3fa05a36	1.252753
22	0x3f9e2405	1.2354742
23	0x3fa181c6	1.2617729
24	0x3f9aa806	1.2082527

classfier.bn3.bias f4 [25]
0	0x3e906891	0.28204778
1	0xbb8c72dd	-0.0042861537
2	0xbc8ab076	-0.016929846
3	0x3e861130	0.26184988
4	0x3ea15bf9	0.31515482
5	0x3e3d1029	0.18463196
6	0x3e41aa5a	0.1891264
7	0x3e4cb3a6	0.19990405
8	0x3b027f46	0.0019912287
9	0xbcd0af10	-0.025474101
10	0x3e44ec83	0.19230847
11	0x3e3cbf88	0.18432438
12	0xbcc8fad2	-0.024533663
13	0x3c780a0d	0.015139115
14	0x3e4f713c	0.20258039
15	0x3e771e61	0.24132682
16	0x3e83e72b	0.25762305
17	0xbc977690	-0.018489152
18	0x3e4aaece	0.19793245
19	0x3e69d751	0.22836043
20	0xbc141914	-0.009039182
21	0x3e833c2f	0.25631854
22	0x3e74ffc5	0.23925693
23	0x3e874e59	0.26426962
24	0x3e5b970a	0.21444336

classfier.bn3.running_mean f4 [25]
0	0xbee76d1b	-0.45200428
1	0x3edc4380	0.43020248
2	0x3e3660f9	0.1781043
3	0xbf31300f	-0.69213957
4	0x3e89486e	0.26813072
5	0xbf02b1c3	-0.5105249
6	0xbf1ad03a	-0.6047398
7	0xbef02934	-0.46906435
8	0xbdd0a3ec	-0.101875156
9	0x3e438b99	0.19096221
10	0xbec0b335	-0.37636724
11	0xbf3dd814	-0.74157834
12	0x3e2dd019	0.16973914
13	0x3e90c2ba	0.28273565
14	0xbe9c7746	-0.30559748
15	0xbf157f02	-0.58396924
16	0xbed31ba3	-0.41232023
17	0x3e1a4d60	0.15068579
18	0xbf0104b3	-0.50397795
19	0xbf073a46	-0.52823293
20	0x3eb3e58b	0.35136065
21	0xbf39b627	-0.7254357
22	0xbee1f91a	-0.44135362
23	0xbf24cb44	-0.6437266
24	0xbf24a32e	-0.6431149

classfier.bn3.running_var f4 [25]
0	0x3f447c7a	0.76752436
1	0x3f9f9345	1.2466818
2	0x3fa3ffbd	1.281242
3	0x3f392054	0.72314954
4	0x3f838fef	1.02783
5	0x3f33b719	0.7020126
6	0x3f168935	0.5880311
7	0x3f2c2cdb	0.67255944
8	0x3ebe33c7	0.37148878
9	0x3f5255b3	0.82162017
10	0x3f510232	0.81643975
11	0x3f72ea7e	0.94889057
12	0x3f894a29	1.0725757
13	0x3fd6e1ee	1.6787698
14	0x3f012a51	0.50455195
15	0x3f286d59	0.6579185
16	0x3f5ab96d	0.8543919
17	0x3fbbd380	1.467392
18	0x3f1d821d	0.6152666
19	0x3f395674	0.7239754
20	0x3fa9d74c	1.3268828
21	0x3eb3b851	0.3510156
22	0x3f9ae4cd	1.2101074
23	0x3f258763	0.6465971
24	0x3f800423	1.0001262

classfier.fc5.weight f4 [1, 25]
0	0xbe507fd1	-0.20361258
1	0x3e99d296	0.30043477
2	0x3e928ee7	0.2862465
3	0xbe4caee2	-0.19988587
4	0xbe54c186	-0.20776948
5	0xbeacf54a	-0.3378089
6	0xbe9b2748	-0.30303407
7	0xbe979ce2	-0.2961188
8	0xbd8c85da	-0.06861468
9	0x3e11f251	0.14252593
10	0xbea43618	-0.3207252
11	0xbe9d10b7	-0.30676815
12	0x3e3238cb	0.17404477
13	0x3e03abfa	0.12858573
14	0xbeaa2e85	-0.33238617
15	0xbe56fe61	-0.20995475
16	0xbe385d3c	-0.18004316
17	0x3e8f7912	0.28022057
18	0xbea201cb	-0.31641993
19	0xbe8abf53	-0.27099094
20	0x3e892368	0.26784825
21	0xbe2dd51c	-0.16975826
22	0xbe32d692	-0.17464665
23	0xbe325992	-0.17416981
24	0xbe764786	-0.24050722
