src/trained_models/2025-06-12/run_11-58-27/dnn_model_fold_2.pt (torch, 75713 bytes, 19 tensors)

classfier.fc1.weight f4 [100, 100]
0	0xbd487981	-0.048944
1	0xbb1503f3	-0.002273795
2	0xbd1db2ad	-0.038500477
3	0x3b491809	0.0030684492
4	0x3db59e3b	0.08868071
5	0xbcd89378	-0.026437506
6	0xbd94adcc	-0.072597116
7	0xbd732c9c	-0.059368715
8	0x3dc0cfe5	0.09414653
9	0xbdc28b85	-0.094992675
10	0x3ae81a3c	0.0017708014
11	0xbc126f68	-0.008937694
12	0x3d2862d2	0.041109867
13	0xbb0b7392	-0.0021278602
14	0x3d6e562b	0.058187645
15	0x3ddfc109	0.109254904
16	0xbd2c0384	-0.04199554
17	0xbdb38f83	-0.08767607
18	0xbd909e19	-0.07061405
19	0xba550c34	-0.00081271236
20	0xbde4a8c2	-0.111650005
21	0x3d433b54	0.047664
22	0x3dc0157e	0.09379099
23	0x3c9ab896	0.018886846
24	0x3b25fd86	0.0025328114
25	0x3d27eb4e	0.04099589
26	0x3cefb371	0.029260369
27	0x3bad0d43	0.005281122
28	0x3d23efb5	0.040023524
29	0x3c464b7e	0.01210296
30	0x3b089f91	0.0020847062
31	0x3d89c948	0.067278445
32	0x3df27241	0.118381985
33	0xbd7cbce1	-0.061703566
34	0xbe22abe9	-0.15885891
35	0x3ad12e8d	0.0015959308
36	0xbe00c410	-0.12574792
37	0xbd7bd9c4	-0.061486974
38	0xbc2d4229	-0.010574856
39	0x3cb145a0	0.021639645
40	0x3c4f783f	0.012662946
41	0xbdd916d6	-0.10600059
42	0xbcdfe1df	-0.027329383
43	0xbdb27fe1	-0.08715797
44	0x3dab3147	0.08359008
45	0x3d565779	0.052329514
46	0xbd8c6ab7	-0.06856292
47	0xbcb0674b	-0.021533629
48	0x3d6aadc2	0.057294615
49	0x3dd190e3	0.10232713
50	0x3c8340fc	0.016022198
51	0xbda3fe13	-0.08007445
52	0x3d6b3fd3	0.057433914
53	0x3dac402a	0.08410676
54	0x3de74a2f	0.11293446
55	0xbd99e045	-0.07513479
56	0x3d3cbde1	0.04607952
57	0x3c931151	0.017952593
58	0x3d17d348	0.037066728
59	0xbbdb2d16	-0.0066887243
60	0x3d3abeec	0.045592234
61	0x3d921495	0.07132832
62	0xbdd43562	-0.103617445
63	0x3cf3818d	0.02972486
64	0xbe094536	-0.13405308
65	0x3ca6c4d2	0.020357523
66	0x3b07de34	0.0020731809
67	0x3dae18eb	0.085008465
68	0x3cab1a8e	0.020886686
69	0x3aa5181d	0.0012595687
70	0x3c3d8105	0.011566405
71	0xbd673822	-0.056450017
72	0xbdb6f119	-0.089327045
73	0xbcd9cd21	-0.02658707
74	0xbd70e848	-0.05881527
75	0x3e0f19d1	0.13974692
76	0xbc942f5b	-0.018088987
77	0xbe0bffef	-0.1367185
78	0xbd79fca8	-0.061031967
79	0x3cf17d0d	0.029478574
80	0xbd7b1991	-0.06130368
81	0x3df6aaf7	0.12044328
82	0xbce74244	-0.02822984
83	0xbd09dbe4	-0.03365697
84	0x3d588b26	0.052867077
85	0xbde6d64d	-0.112713434
86	0x3b8b4625	0.0042503052
87	0xbd1f3fa2	-0.038879044
88	0x3ce2bc60	0.027677715
89	0x3d59b240	0.053148508
90	0xbd020c18	-0.031749815
91	0x3c8a9881	0.016918423
92	0x3dd06343	0.10175183
93	0xbd8ee524	-0.06977299
94	0xbd2dfc35	-0.04247685
95	0x3d6c7632	0.057729907
96	0x3de35b4b	0.11101397
97	0x3d39d64d	0.04537039
98	0x3ca47817	0.020076795
99	0xbc1ad439	-0.009450012
100	0x3d5e9874	0.05434461
101	0x3d11b3a8	0.035571724
102	0x3ce9cc69	0.028539853
103	0x3e0dfc2d	0.13865729
104	0x3d0c5d9c	0.03426896
105	0xbd541fdd	-0.0517882
106	0x3c5bb421	0.013409645
107	0x3d48d0c9	0.049027238
108	0xbce3db1d	-0.027814442
109	0x3b192fc5	0.002337442
110	0x3b9e96df	0.0048397626
111	0x3c7dd4b2	0.015492605
112	0xbd92dbdd	-0.07170842
113	0x3cabceb9	0.020972596
114	0xbdb51e66	-0.08843689
115	0x3db01406	0.08597569
116	0x3dc4b9d2	0.09605755
117	0x3d9f2a5f	0.077717535
118	0x3d30f7b5	0.04320498
119	0xbe0240b6	-0.12719998
120	0xbd9d290c	-0.07673845
121	0x3da0a967	0.07844811
122	0x3c6c28d4	0.014414031
123	0x3cba719f	0.022759257
124	0x3dbf746b	0.09348377
125	0xbd641705	-0.055686016
126	0x3ca972ec	0.020684682
127	0xbbded8d9	-0.0068007526
128	0xbce19113	-0.027534997
129	0x3d46d208	0.048540145
130	0x3dbe0b0f	0.09279453
131	0xbdca987d	-0.09892366
132	0x3d08268f	0.033239897
133	0x3be3beba	0.0069502266
134	0xbdcac5fb	-0.09901043
135	0xbbc38289	-0.0059664887
136	0x3cbc00f8	0.02294968
137	0x3daa70dd	0.08322308
138	0xbd798b60	-0.060923934
139	0xbd87ec0f	-0.066368215
140	0x3d988a10	0.07448208
141	0x3d980fa2	0.07424857
142	0xbdb79bc7	-0.08965259
143	0xbca870fe	-0.020561691
144	0xbd07c68a	-0.033148326
145	0xbd036085	-0.03207447
146	0xbcd2681d	-0.02568441
147	0x3d2926b5	0.04129668
148	0x3cd235eb	0.025660476
149	0xbd156254	-0.036470726
150	0xbd41cf94	-0.047317103
151	0xbd8edac6	-0.069753215
152	0x3ccca32b	0.024980148
153	0x3d967e61	0.073483236
154	0xbbce3cb3	-0.006293857
155	0x3d2592c4	0.04042317
156	0x3dd208c0	0.10255575
157	0xbd4918ba	-0.049095847
158	0x3d8b94d0	0.06815493
159	0x3c24ddd3	0.010062653
160	0xbd8e2968	-0.06941491
161	0xbcf1b8e2	-0.029507104
162	0xbd14ac1f	-0.03629696
163	0x3c9b71c7	0.018975152
164	0xbd2f576c	-0.04280798
165	0xbc39ee57	-0.011348329
166	0x3d2f3d34	0.042782977
167	0x3cf4e462	0.029894058
168	0x3d8b3c26	0.06798582
169	0xbce2dec3	-0.027694112
170	0x3d824536	0.06360857
171	0xbe1d6b3b	-0.15372936
172	0xbdc1080b	-0.09425362
173	0x3dc4552f	0.0958656
174	0x3d1a19a4	0.03762211
175	0xbc5d6c05	-0.013514523
176	0x3d183401	0.03715897
177	0xbd745a3e	-0.059656374
178	0x3d49d997	0.049279775
179	0xbcfc6805	-0.03081132
180	0x3c1002b8	0.008789711
181	0x3c6e9d95	0.014563938
182	0xbdc7da43	-0.09758427
183	0x3caa54fe	0.02079248
184	0x3caa7d1b	0.020811608
185	0xbbbd8d54	-0.00578467
186	0x3b8dc7f3	0.0043268143
187	0x3d8c2401	0.06842805
188	0x3cab8b59	0.02094047
189	0x3d8a6e00	0.06759262
190	0x3c7ed34c	0.015553307
191	0xbdd197ed	-0.10234056
192	0x3d348c4d	0.044079114
193	0xbc6bcd07	-0.014392144
194	0x3c524513	0.012833851
195	0x3d75c422	0.0600015
196	0xbcac3079	-0.021019207
197	0x3d9b0dac	0.07570967
198	0xba971296	-0.0011525925
199	0xbd97c5cd	-0.074107744
200	0x3c6b4093	0.014358657
201	0xbd6a4b25	-0.05720057
202	0xbdf0d4ec	-0.117593616
203	0x3cd88b84	0.026433714
204	0x3da5d29c	0.08096811
205	0xbdb3b01c	-0.087738246
206	0xbd40aacb	-0.04703788
207	0xbd192c83	-0.037395965
208	0xbd973b7f	-0.07384395
209	0xbd31a8c0	-0.043373823
210	0x3d9d3c1d	0.07677481
211	0x3e220c83	0.15825085
212	0xbdb0cb63	-0.08632543
213	0xbdabab1b	-0.08382245
214	0x3cfd8a0e	0.030949619
215	0x3ca3e899	0.020008372
216	0x3d82f5c8	0.06394535
217	0xbd4e4a27	-0.050363686
218	0x3d9afb40	0.075674534
219	0x3d86873f	0.06568765
220	0xbae96a53	-0.0017808176
221	0xbc637e79	-0.013885134
222	0x3d8a5d8f	0.06756126
223	0x3db230b0	0.08700693
224	0x3d80c04a	0.06286676
225	0xbceb9467	-0.028757287
226	0x3dc4c9cb	0.096088015
227	0x3dbe4692	0.09290804
228	0x3d1972ca	0.037462987
229	0x3dce7020	0.1007998
230	0xbb3e21ea	-0.0029011914
231	0x3cff1404	0.031137474
232	0x3da58ff4	0.080840975
233	0x3bf3c4fa	0.007439253
234	0xbca21a45	-0.019787917
235	0x3c7626b8	0.01502388
236	0xbc5ccb6b	-0.013476233
237	0xbd60a9c8	-0.054849416
238	0x3d2b5720	0.041831136
239	0x3973ac38	0.00023238442
240	0xbd4d2ea1	-0.050093297
241	0x3d96e2cd	0.073674776
242	0xbd010131	-0.031495277
243	0xbdb3166b	-0.0874451
244	0xbd866ba0	-0.065634966
245	0xbb728be1	-0.0037009644
246	0xbd7b756c	-0.06139128
247	0x3cce8f7f	0.025214909
248	0x3d33743c	0.04381202
249	0x3d8df192	0.069308415
250	0xbe16bcec	-0.14720505
251	0x3b6e9e59	0.00364103
252	0x3d0d02ce	0.034426503
253	0xbd9fc3ce	-0.07801019
254	0x3e000a69	0.12503971
255	0x3c28406a	0.010269264

classfier.fc1.bias f4 [100]
0	0x3dcaee63	0.0990875
1	0xbd697e1b	-0.05700503
2	0xbc046a7d	-0.008082029
3	0x3d9afbc0	0.07567549
4	0xbd7fb3e7	-0.062427428
5	0x3cf4e2d8	0.029893324
6	0xbdc4b3d1	-0.0960461
7	0xbda68fad	-0.08132873
8	0x3d2cd759	0.04219756
9	0x3d341287	0.04396298
10	0xbd3b95ca	-0.045797147
11	0x3d8b3d74	0.06798831
12	0xbd868500	-0.065683365
13	0x3db2730b	0.08713349
14	0x3c4b6bb8	0.012415819
15	0xbdc047c9	-0.09388692
16	0x3cb2ec8d	0.021841312
17	0x3d40f04f	0.047104176
18	0xbdbeb363	-0.09311559
19	0xbda33599	-0.07969207
20	0x3ae05008	0.0017113695
21	0xbcd3ae61	-0.025839986
22	0xbc54c02e	-0.012985272
23	0x3d44f759	0.04808745
24	0xbd29a9b1	-0.041421596
25	0xbd0cac98	-0.034344286
26	0x3d9a2643	0.07526829
27	0xbcc8b5be	-0.024500724
28	0x3ad7b75f	0.0016457847
29	0x3b5e5daa	0.003393034
30	0xbc6dbbdb	-0.01451012
31	0x3d1963e4	0.03744878
32	0x3c1db205	0.009624963
33	0x3d0f8049	0.03503445
34	0x3cc61bb8	0.02418314
35	0xbd916bbb	-0.07100626
36	0x3d2d6cd9	0.042340133
37	0x3d3862c3	0.04501606
38	0x3d198e4a	0.037489213
39	0xbd3d06c0	-0.046149015
40	0xbd36c978	-0.04462573
41	0xbbba0425	-0.0056767636
42	0xbdaee76a	-0.085402325
43	0xbd0589ae	-0.032602005
44	0x3a07e9b3	0.0005184665
45	0x3b3b8702	0.0028614406
46	0x3c10ff66	0.008849954
47	0xbd331dae	-0.043729477
48	0x3b74b30e	0.003733817
49	0xbd6945c4	-0.0569513
50	0xbd0b3631	-0.033987228
51	0xbc7ad5e2	-0.015309783
52	0x3d002dbe	0.031293623
53	0xbc9c57d0	-0.019084841
54	0xbd14d9a9	-0.03634039
55	0x3bd9f38d	0.006651348
56	0xbd37d08d	-0.044876624
57	0xbcb23d0c	-0.021757625
58	0xbd363e2e	-0.044492893
59	0x3daf0969	0.08546717
60	0x3cf8f98c	0.03039243
61	0xbd80d4a5	-0.06290559
62	0xbda23505	-0.07920269
63	0xbd86c699	-0.06580848
64	0xbd921791	-0.07133401
65	0xbd17f2c9	-0.037096772
66	0xbc52fe2d	-0.012877983
67	0x3d2efe44	0.042722955
68	0xbd3f4f30	-0.04670638
69	0xbce4d138	-0.027931795
70	0xbafe2ef8	-0.001939266
71	0x3d89061a	0.06690617
72	0x3d9e7615	0.07737366
73	0x3d83203f	0.06402635
74	0xbb9975db	-0.004683239
75	0x3ca860c2	0.02055395
76	0x3a73965c	0.00092921196
77	0x3d5e4c4b	0.054271977
78	0x3c98aa22	0.018635813
79	0xbd33e6fa	-0.04392145
80	0x3cb1b233	0.021691417
81	0xbd1091fd	-0.035295475
82	0x3d904a79	0.070454545
83	0x3cf6f82d	0.030147636
84	0xbd4c2e52	-0.049848862
85	0xbd8e78b9	-0.0695662
86	0x3dac8b3f	0.084249966
87	0xbd0e29b9	-0.03470776
88	0x3d224725	0.03961863
89	0x3c4a1099	0.012333059
90	0xbc8c9cec	-0.01716467
91	0x3da2b674	0.079449564
92	0x3da741e1	0.08166862
93	0x3b981e0c	0.0046422537
94	0xbd65db84	-0.05611755
95	0x3d5a17a2	0.053245194
96	0xbc92f46c	-0.017938815
97	0xbcfdf436	-0.031000238
98	0x3d8a984c	0.067673296
99	0x3ca20f44	0.01978267

classfier.bn1.weight f4 [100]
0	0x3f838e2a	1.027776
1	0x3f7125ca	0.94198287
2	0x3f7d1b93	0.988702
3	0x3f7406c3	0.9532282
4	0x3f8787c8	1.0588312
5	0x3f7ece08	0.9953313
6	0x3f7210e6	0.94557035
7	0x3f7b8c41	0.98260885
8	0x3f7d725c	0.99002624
9	0x3f79cf08	0.9758153
10	0x3f86ab69	1.052106
11	0x3f8130a8	1.0092974
12	0x3f764d53	0.9621174
13	0x3f772301	0.96537787
14	0x3f7bb8f0	0.9832907
15	0x3f8174b9	1.0113746
16	0x3f817ae2	1.0115626
17	0x3f7b8c1c	0.98260665
18	0x3f7c3942	0.9852487
19	0x3f829948	1.0203028
20	0x3f78bee4	0.97166276
21	0x3f84aa09	1.0364391
22	0x3f874192	1.0566885
23	0x3f7fc835	0.99914867
24	0x3f7c7bc1	0.98626333
25	0x3f80b3b3	1.005484
26	0x3f7c6dc1	0.9860497
27	0x3f819e52	1.012644
28	0x3f80a09f	1.0049018
29	0x3f81c730	1.0138912
30	0x3f73fb88	0.9530568
31	0x3f7ff5b7	0.99984306
32	0x3f7f20fd	0.9965971
33	0x3f80340d	1.0015885
34	0x3f84b962	1.0369074
35	0x3f795ba0	0.97405434
36	0x3f77f201	0.96853644
37	0x3f8201cf	1.0156802
38	0x3f830867	1.0236939
39	0x3f73e9c9	0.952786
40	0x3f734edf	0.9504222
41	0x3f81ec5e	1.0150259
42	0x3f7b8f82	0.9826585
43	0x3f854200	1.0410767
44	0x3f818b1e	1.012058
45	0x3f7dbfdf	0.991209
46	0x3f878e0a	1.0590222
47	0x3f8139c2	1.0095751
48	0x3f84cefa	1.0375664
49	0x3f7a4bad	0.9777172
50	0x3f86b511	1.0524007
51	0x3f863a0a	1.0486462
52	0x3f79bca1	0.9755345
53	0x3f718592	0.9434444
54	0x3f8848dd	1.0647236
55	0x3f7f9e2a	0.99850714
56	0x3f78d95c	0.97206664
57	0x3f728da4	0.94747376
58	0x3f7c8acc	0.9864929
59	0x3f85a7c9	1.0441829
60	0x3f8bdb0d	1.0926224
61	0x3f7650b1	0.96216875
62	0x3f7463b0	0.9546461
63	0x3f74f8e9	0.95692307
64	0x3f7ffc86	0.99994695
65	0x3f865a80	1.0496368
66	0x3f79f338	0.9763675
67	0x3f81a388	1.0128031
68	0x3f7bca79	0.98355824
69	0x3f84dbcc	1.0379577
70	0x3f833478	1.0250387
71	0x3f80f86a	1.007581
72	0x3f75d254	0.9602406
73	0x3f78a4ef	0.9712667
74	0x3f76cb0e	0.96403587
75	0x3f721b29	0.94572693
76	0x3f75d0b6	0.9602159
77	0x3f812ab6	1.0091159
78	0x3f7f45e7	0.9971604
79	0x3f841a2d	1.0320488
80	0x3f7a5d42	0.9779855
81	0x3f7dc6d8	0.99131536
82	0x3f8027e9	1.001218
83	0x3f7ee23b	0.9956395
84	0x3f794418	0.9736953
85	0x3f7e6492	0.9937221
86	0x3f756055	0.95850116
87	0x3f7f69c9	0.9977079
88	0x3f7a33d9	0.97735363
89	0x3f75b814	0.95984006
90	0x3f772d2c	0.965533
91	0x3f78a77d	0.97130567
92	0x3f78aead	0.97141534
93	0x3f733e8f	0.9501733
94	0x3f83b878	1.029067
95	0x3f8683f4	1.0509019
96	0x3f7d033b	0.98833054
97	0x3f7d20e7	0.9887833
98	0x3f7e17a9	0.9925485
99	0x3f89c297	1.0762509

classfier.bn1.bias f4 [100]
0	0xbdae0cd7	-0.08498543
1	0xbdcf972f	-0.10136258
2	0xbd8fcd0e	-0.07021533
3	0xbc8599bf	-0.016308663
4	0xbdbfb401	-0.09360505
5	0x3aaf12e5	0.0013357071
6	0xbcc5cdf7	-0.024146063
7	0xbdae73ca	-0.08518179
8	0xbdbd06ff	-0.0922985
9	0xbd853620	-0.06504464
10	0xbc37d496	-0.011220118
11	0x3c07f2a0	0.008297592
12	0xbd1d4d7c	-0.038403973
13	0xbcb85c0d	-0.02250483
14	0xbd5c5758	-0.053794235
15	0xbd5535e9	-0.052053366
16	0xbddb04c7	-0.106942706
17	0xbc043399	-0.008068942
18	0x3ca3de8c	0.02000358
19	0xba9ce15c	-0.0011969018
20	0xbd5d692b	-0.054055374
21	0x3d439483	0.047749054
22	0x3b92d058	0.004480403
23	0xbdc06e9e	-0.093960986
24	0x3c2076a7	0.009793914
25	0x3c9e3f8d	0.019317413
26	0xbc863442	-0.01638234
27	0xb9d274ed	-0.00040141438
28	0xbd7e0fd1	-0.062026802
29	0xbd5c16ee	-0.053732805
30	0xbd18e6d6	-0.037329517
31	0xbc31b2f0	-0.010845885
32	0xbc498a71	-0.012301073
33	0xbe0078c3	-0.12546067
34	0xbd54131b	-0.051776033
35	0xbc4bffe6	-0.012451148
36	0xbb0c61db	-0.002142063
37	0xbdce66e8	-0.100782216
38	0xbcf191f8	-0.029488549
39	0xbd93824b	-0.07202586
40	0xbd52ac7f	-0.051434036
41	0xbd9d9b65	-0.07695655
42	0xbc163df9	-0.009170049
43	0xbdbdb8db	-0.09263774
44	0x3c132fea	0.008983592
45	0xbd8afb3e	-0.06786202
46	0x3c80846b	0.015688142
47	0xbda7dce3	-0.08196428
48	0xbdc4d919	-0.096117206
49	0xbb49e300	-0.0030805469
50	0x3d700756	0.058600746
51	0xbddf3929	-0.10899574
52	0x3c15651e	0.0091183465
53	0xbda1c16e	-0.07898222
54	0x3c4441ae	0.01197855
55	0xbd2fb192	-0.042893954
56	0xbc0ea712	-0.008706825
57	0xbd574ef2	-0.052565522
58	0xbdf3c285	-0.11902336
59	0xbdd4ebde	-0.103965506
60	0x3d4aeb87	0.049541023
61	0xbd967978	-0.07347387
62	0xbd98db3d	-0.074636914
63	0xbdb3f197	-0.08786314
64	0x3be5e3a4	0.0070156623
65	0xbd69a75c	-0.057044372
66	0xbd34468e	-0.0440126
67	0xbdb1a99b	-0.08674928
68	0xbd913087	-0.07089334
69	0xbbca56f6	-0.0061749173
70	0x3bf5d28f	0.007501907
71	0x3c8b3ca5	0.016996691
72	0xbcfd2807	-0.030902876
73	0xbc52681e	-0.012842206
74	0xbce04a8e	-0.0273793
75	0xbc8aefa9	-0.016959982
76	0xbc8ef0bf	-0.017448781
77	0x3c757db2	0.014983581
78	0xbd9f4f21	-0.077787645
79	0xbd869e08	-0.06573111
80	0xbcb3f026	-0.021965098
81	0x3d041d43	0.03225447
82	0xbca79d24	-0.020460673
83	0xbdcc7eae	-0.099851
84	0xbd508ce8	-0.05091563
85	0x3c55b37a	0.013043279
86	0xbd457c5c	-0.0482143
87	0x3d4494a7	0.04799333
88	0x3d0c7367	0.034289744
89	0xbd32ac0b	-0.043621104
90	0xbde0360d	-0.10947809
91	0xbcfe2a81	-0.031026127
92	0x3d48c84c	0.049019143
93	0xbd878437	-0.06617015
94	0x3ce8c1a1	0.028412642
95	0xbe0b6931	-0.13614346
96	0xbd127fbd	-0.035766352
97	0x3bdd51ca	0.006754135
98	0xbd933296	-0.07187383
99	0x3d166d1f	0.03672516

classfier.bn1.running_mean f4 [100]
0	0xbe6a1cab	-0.22862498
1	0xbf510c97	-0.81659836
2	0xbf249164	-0.6428435
3	0x3f16e8cc	0.5894897
4	0xbec68a33	-0.38777313
5	0x3f604f4e	0.8762101
6	0x3f3720f4	0.7153466
7	0xbf28be61	-0.65915495
8	0xbe84b3e4	-0.25918496
9	0x3efcea44	0.4939748
10	0xbf6fe733	-0.93712157
11	0xbed2af70	-0.41149473
12	0x3e52dcc8	0.20592034
13	0xbcde55d4	-0.027140535
14	0xbe378c30	-0.17924571
15	0xbe9b1d8b	-0.30295977
16	0xbdd78214	-0.10522857
17	0xbe978228	-0.2959149
18	0xbed9d5fb	-0.42546067
19	0xbe2bb261	-0.16767265
20	0x3e9932fa	0.29921705
21	0xbe95bc98	-0.29245448
22	0xbe1e6a92	-0.15470341
23	0xbeba74d4	-0.36417258
24	0x3fb8d17b	1.4438928
25	0x3fc056c0	1.5026474
26	0x3f9b9b96	1.2156856
27	0xbe5be31d	-0.21473356
28	0xbf07ba76	-0.5301889
29	0xbe67e4ef	-0.22645925
30	0x3e48cea2	0.19610074
31	0x3e81b8b3	0.25336227
32	0x3fb109f9	1.3831168
33	0xbe4f5d72	-0.2025049
34	0x3e901c17	0.2814643
35	0x3ffec46c	1.9903693
36	0x3fba749f	1.456684
37	0xbe1a22d7	-0.15052353
38	0x3ca39aff	0.019971369
39	0x3f27700f	0.6540536
40	0x3f4a4d37	0.7902407
41	0xbe9f2aa6	-0.31087226
42	0x40050943	2.0786903
43	0xbe490bcf	-0.19633411
44	0xbe076a43	-0.1322413
45	0xbed0a852	-0.40753418
46	0xbe286817	-0.16445957
47	0xbf0489c8	-0.5177274
48	0xbe82578f	-0.25457427
49	0xbf0d8c85	-0.5529254
50	0x3dceb035	0.100922026
51	0xbead2274	-0.33815348
52	0x3ecf2308	0.40456414
53	0xbf965e85	-1.1747595
54	0x3c2111ee	0.009830935
55	0x3ed7ed19	0.4217308
56	0xbe8d4a0c	-0.27595556
57	0x40105808	2.255373
58	0xbe372f32	-0.17889097
59	0xbdc037cf	-0.09385645
60	0x3d30c411	0.043155733
61	0x3f37e472	0.71832955
62	0x3fb5741e	1.4176061
63	0xbeb8d945	-0.36103263
64	0x3ef7a4e3	0.48367986
65	0xbe8feca5	-0.28110233
66	0x3fc867e6	1.5656707
67	0xbe7c7b6f	-0.24656461
68	0x3f380847	0.7188763
69	0xbe77bc18	-0.24192846
70	0xbef99df1	-0.48753312
71	0x3e99d415	0.30044618
72	0xbde5dbc0	-0.112235546
73	0xbeac76f5	-0.33684507
74	0x3f99bb1e	1.2010229
75	0x3fc119a2	1.5085948
76	0x3f335889	0.7005697
77	0x3f8eee7a	1.1166527
78	0xbdf8ffb3	-0.12158146
79	0xbee1262a	-0.4397443
80	0xbebc2239	-0.3674486
81	0xbd5db7fa	-0.05413053
82	0xbe887dcb	-0.26658472
83	0xbef642a8	-0.4809773
84	0x3e5324f0	0.2061956
85	0x40281c00	2.626709
86	0xbed00fdb	-0.40637097
87	0x3fb36838	1.401618
88	0x3f1bf00d	0.60913163
89	0xbebc3589	-0.36759594
90	0xbf0e2137	-0.5551943
91	0x3db9be8b	0.09069546
92	0x3fc19ab2	1.5125334
93	0x3f08b385	0.53398925
94	0xbe837ab5	-0.25679556
95	0xbe26cfec	-0.16290253
96	0x3f3ce977	0.7379374
97	0xbfd30572	-1.6486037
98	0xbe87d098	-0.26526332
99	0xbe99a055	-0.30005136

classfier.bn1.running_var f4 [100]
0	0x3de3bdbd	0.11120174
1	0x3e54a38e	0.20765516
2	0x3e41e2d2	0.18934181
3	0x3ddaa6d3	0.106763504
4	0x3db8f7bb	0.09031626
5	0x3e957ece	0.29198307
6	0x3f4cfd1a	0.800737
7	0x3e9474bd	0.28995314
8	0x3e30dcfe	0.17271802
9	0x3dab8fd1	0.0837704
10	0x3eca5b71	0.3952289
11	0x3f2c93ac	0.6741283
12	0x3dfd201a	0.123596385
13	0x3d6e467e	0.058172695
14	0x3db45016	0.08804338
15	0x3dbd2a63	0.092366
16	0x3d52309c	0.05131589
17	0x3e6d8b46	0.2319766
18	0x3e826ed3	0.25475177
19	0x3d568bce	0.052379422
20	0x3e05c1bf	0.1306219
21	0x3f1a35be	0.60238254
22	0x3d4d59b0	0.05013436
23	0x3db2ad60	0.08724475
24	0x3f4a20a6	0.7895607
25	0x3fce3c4a	1.6112149
26	0x3f137b93	0.57610434
27	0x3e663b36	0.22483525
28	0x3e8deab3	0.27718124
29	0x3d6ff19b	0.058580022
30	0x3dc260fa	0.09491153
31	0x3dbaa6e0	0.0911386
32	0x3ebe6bb8	0.37191558
33	0x3d8ae35c	0.067816466
34	0x3d317a95	0.043329794
35	0x3f6da9d6	0.92837274
36	0x3ee60055	0.44922128
37	0x3d9c1d50	0.076227784
38	0x3d2b46f4	0.041815713
39	0x3f80763c	1.0036082
40	0x3f6fc1cd	0.9365509
41	0x3d99427d	0.07483385
42	0x3fecfdcd	1.8514954
43	0x3d498e76	0.049208127
44	0x3dbd5469	0.092446156
45	0x3db8eb31	0.09029234
46	0x3dd3b3a0	0.10336995
47	0x3db95dca	0.09051092
48	0x3d3fb586	0.046803974
49	0x3e3d7131	0.1850021
50	0x3dafcc01	0.085838325
51	0x3dc41a74	0.09575358
52	0x3ef43dfc	0.4770354
53	0x3ea73a1e	0.32661527
54	0x3d556bbe	0.052104704
55	0x3e1a600a	0.15075698
56	0x3e3a8a68	0.1821686
57	0x3ff459a6	1.9089859
58	0x3d9651b3	0.07339802
59	0x3d17e223	0.037080895
60	0x3dc13849	0.09434564
61	0x3f1f83ae	0.623103
62	0x3f9d807e	1.2304838
63	0x3dabc70f	0.08387577
64	0x3e80befb	0.25145707
65	0x3d5e8df4	0.054334596
66	0x3fbe8146	1.4883201
67	0x3d83caac	0.06435141
68	0x3e665ff6	0.22497544
69	0x3d6b7ecb	0.057493966
70	0x3f2dad48	0.6784253
71	0x3df47174	0.11935702
72	0x3e8a8f11	0.27062276
73	0x3ea2a7a4	0.31768525
74	0x3f1b1dc8	0.6059232
75	0x3efcae61	0.4935179
76	0x3e6b08b0	0.22952533
77	0x3e941545	0.28922477
78	0x3e3647fe	0.178009
79	0x3e174d23	0.14775519
80	0x3e73adc8	0.23796761
81	0x3e989129	0.29798248
82	0x3d9922e3	0.07477357
83	0x3e1b6d49	0.15178408
84	0x3d9769ff	0.07393264
85	0x404848a0	3.1294327
86	0x3dfcb710	0.12339604
87	0x3fcca7de	1.5988729
88	0x3e90a208	0.2824862
89	0x3e0b0ad8	0.13578355
90	0x3e1cf0d6	0.15326247
91	0x3e19c30c	0.1501581
92	0x3f53cf24	0.82737947
93	0x3e6c8eaf	0.23101304
94	0x3e076a20	0.13224077
95	0x3d048898	0.03235683
96	0x3f1ca226	0.6118492
97	0x3f8bf578	1.0934286
98	0x3e12cb86	0.1433545
99	0x3ee5b6dc	0.44866073

classfier.fc2.weight f4 [50, 100]
0	0x3d391663	0.045187365
1	0x3d947f37	0.07250827
2	0x3d1c67bb	0.038184863
3	0x3d7adc88	0.06124547
4	0x3b9b480e	0.004738814
5	0xbcf77a9e	-0.030209836
6	0x3da5bd69	0.08092768
7	0x3d63bdf0	0.05560106
8	0x3db91426	0.09037046
9	0xbd5d0553	-0.053960156
10	0x3d9a9e62	0.075497404
11	0x3c9acc58	0.018896267
12	0xbd649c26	-0.055812977
13	0x3d8d7ccd	0.069085695
14	0x3d8948d3	0.06703343
15	0xbd8f91fc	-0.07010266
16	0x3da87043	0.08224537
17	0x3ce2f512	0.02770475
18	0xbd9f3989	-0.07774646
19	0x3ab9ee9d	0.0014185492
20	0xbcf1855e	-0.02948254
21	0x3d579c0e	0.05263906
22	0xbdfc6595	-0.12324063
23	0x3c94df18	0.018172786
24	0xbd3334a0	-0.04375136
25	0x3d2183fe	0.03943252
26	0xbbd2b620	-0.0064304024
27	0xbda2c683	-0.07948019
28	0xbd93521c	-0.071933955
29	0xbd4a1b34	-0.04934235
30	0x3d7c3fc4	0.06158425
31	0xbd287558	-0.041127533
32	0x3da25ff0	0.07928455
33	0x3dcf068b	0.1010867
34	0x3d097b75	0.033565003
35	0xbda4c617	-0.08045595
36	0x3d067ee5	0.03283586
37	0x3dcd34a6	0.100198075
38	0xbdca0799	-0.098647304
39	0xbdb0ae21	-0.086269625
40	0xbb612d0e	-0.003435913
41	0xbd03ceba	-0.03217957
42	0xbba036f1	-0.004889362
43	0xbc8165a0	-0.015795529
44	0xbd9f49ce	-0.07777749
45	0x3d1d8f3c	0.038466677
46	0xbcad0636	-0.021121126
47	0x3dbd7ee6	0.092527196
48	0x3db21414	0.08695236
49	0xbd0284eb	-0.03186504
50	0xbd757085	-0.05992176
51	0x3dd5d849	0.10441644
52	0xbd4f48f3	-0.05060668
53	0xbda857d6	-0.082198784
54	0xbdb82159	-0.089907356
55	0xbe04bb4f	-0.12962078
56	0xbd98f2ed	-0.074682094
57	0x3cd56f55	0.026054064
58	0x3ce68719	0.028140591
59	0xbd61574f	-0.055014905
60	0xbe081652	-0.13289765
61	0xbddce155	-0.10785166
62	0xbc44167a	-0.011968249
63	0x3d898992	0.067156926
64	0x3dabbd48	0.08385712
65	0x3da519d2	0.080615655
66	0xbd944f45	-0.07241682
67	0xbc4ac714	-0.0123765655
68	0xbd97eeda	-0.07418604
69	0xbd09492e	-0.033517055
70	0xbd93245d	-0.0718467
71	0xbd3bc48b	-0.045841735
72	0x3cc6e684	0.02427984
73	0xbdc0e575	-0.094187655
74	0xbd4e9511	-0.05043513
75	0x3d51ebf8	0.051250428
76	0xbcb1fd1a	-0.021727134
77	0x3d40e480	0.047092915
78	0xbc1f5c75	-0.009726633
79	0xbb2466e9	-0.0025085753
80	0xbd8af1a6	-0.06784372
81	0x3916650c	0.00014342758
82	0x3d648a93	0.055796217
83	0xbb9cfd2b	-0.004790922
84	0x3cf292e3	0.029611057
85	0xbcf64da1	-0.030066313
86	0xbcc076a1	-0.023494067
87	0x3cb8f81f	0.02257925
88	0xbd2a0f3a	-0.041518427
89	0xbd43b88f	-0.04778343
90	0xbd0d65b7	-0.03452083
91	0xbd4a8267	-0.049440768
92	0x3c4b8501	0.012421847
93	0xbd6e4835	-0.05817433
94	0x3d6d49d1	0.057931725
95	0x3d0cba17	0.034357157
96	0xbd9488fe	-0.07252692
97	0xbda3955a	-0.07987471
98	0x3da71b35	0.08159486
99	0xbde43b6d	-0.11144147
100	0x3de444b2	0.11145915
101	0x3d78a829	0.060707245
102	0x3dcb9e7a	0.099423364
103	0x3b3194e2	0.0027096798
104	0x3d11abe8	0.035564333
105	0x3aae2152	0.0013285077
106	0xbd46c440	-0.048527002
107	0xbd2e8d61	-0.0426153
108	0x3db01b19	0.085989185
109	0x3d9ef5b6	0.077617094
110	0xbc793c26	-0.015212094
111	0xbd574bf2	-0.05256266
112	0xbd0e96e7	-0.03481188
113	0xbdb73c0e	-0.089470014
114	0x3d555076	0.052078687
115	0x3cd3bc65	0.02584667
116	0x3bbb567f	0.0057170982
117	0x3da65252	0.0812117
118	0xbd299293	-0.04139955
119	0xbc4efdfd	-0.012633798
120	0xbd727866	-0.059196852
121	0xbca3e7e1	-0.02000803
122	0x3cf8f641	0.03039086
123	0x3d8f3c3f	0.06993913
124	0xbccd9d99	-0.025099562
125	0x3d2d42c2	0.042299993
126	0xbd3178f6	-0.043328248
127	0xbd975802	-0.07389833
128	0x3d2288d3	0.039681267
129	0x3d5d1f87	0.053985145
130	0x3d90ef7b	0.07076927
131	0xbd9d2c25	-0.076744355
132	0x3d04788a	0.032341518
133	0x3dfc669c	0.12324259
134	0x3d15d954	0.036584213
135	0xbcf5ff70	-0.030029029
136	0x3d99723b	0.07492491
137	0x3da216ca	0.07914503
138	0x3d382086	0.04495289
139	0xbd039882	-0.032127865
140	0x3da2dc7e	0.07952212
141	0xbbe8d799	-0.0071057794
142	0xbcdb567e	-0.026774641
143	0x3e01a37c	0.1266002
144	0xbc2b8442	-0.010468544
145	0x3c5b0c66	0.013369655
146	0xbd59364e	-0.053030305
147	0x3cab45f9	0.020907389
148	0x3dc13094	0.09433094
149	0xbce8664e	-0.028369095
150	0xbe0e4a05	-0.13895424
151	0x3d819a60	0.06328273
152	0xb9689aa1	-0.00022182848
153	0x3d5484cb	0.051884454
154	0xbde15e7a	-0.11004348
155	0xbdbd390b	-0.09239396
156	0x3d2356c2	0.03987766
157	0xbb9a6323	-0.004711525
158	0x3d83ba30	0.06431997
159	0x3da80d73	0.0820569
160	0xbdcf2d15	-0.101160206
161	0xbd62004c	-0.055176064
162	0xbd4978f8	-0.04918763
163	0xbce1dd08	-0.027571216
164	0x3d8080fd	0.062746026
165	0x3ddc1e2d	0.10747943
166	0xbbfb90e7	-0.007677186
167	0x3db9c132	0.09070052
168	0xbce72cc0	-0.02821958
169	0xbd8b1153	-0.06790414
170	0x3d2a893e	0.04163479
171	0xbd678978	-0.056527585
172	0xbd3bb5f9	-0.04582784
173	0xbd21d20a	-0.03950695
174	0x3d4538d7	0.04814991
175	0x3b73cccc	0.0037200926
176	0x3caf51ab	0.021401247
177	0x3d07cade	0.033152454
178	0x3c718f38	0.014743619
179	0x3d9afb48	0.07567459
180	0x3d12475a	0.035712577
181	0x3c2c40be	0.010513483
182	0x3d49e3a5	0.049289364
183	0x3b9a5fce	0.004711128
184	0xbdca934b	-0.09891375
185	0x3d6670c3	0.05625988
186	0x3dc68b5c	0.096945494
187	0xbc88d325	-0.016702244
188	0xbd490f54	-0.049086884
189	0xbd69e762	-0.05710543
190	0x3dcf37f5	0.10118095
191	0xbd6a6942	-0.057229288
192	0x3d4982b7	0.049196925
193	0xbdd232fc	-0.10263631
194	0xbdc1c141	-0.094606884
195	0xbc3337d6	-0.010938605
196	0x3d1be8e5	0.038063902
197	0xbdb1cb99	-0.08681411
198	0xbcbfffc8	-0.023437396
199	0xbc764e26	-0.0150332805
200	0x3cd9f8e8	0.026607946
201	0xbcf3c0bd	-0.02975499
202	0xbd131b4c	-0.035914704
203	0x3d6b4d62	0.057446845
204	0xbd2abce5	-0.04168405
205	0xbc2d2d08	-0.010569818
206	0x3d3ae844	0.045631662
207	0xbdc8594f	-0.09782659
208	0xbcf7fd18	-0.030272052
209	0xbd3a04cd	-0.045414735
210	0xbdaa4ba7	-0.08315211
211	0xbe0f2cd9	-0.13981952
212	0x3dc90980	0.09816265
213	0xbd674541	-0.05646253
214	0x3d82ac4f	0.063805215
215	0xbceeabd5	-0.02913467
216	0xbdef0d23	-0.116724275
217	0xbda53c7e	-0.080681786
218	0x3db07036	0.086151525
219	0x3d066854	0.03281434
220	0xbdaf27e6	-0.08552532
221	0x3d0824c5	0.03323819
222	0xbd556de9	-0.05210677
223	0x3d623eb6	0.055235587
224	0x3d89ca86	0.067280814
225	0x3d69d0b0	0.057083786
226	0x3da958e4	0.08268908
227	0x3d43c85d	0.047798503
228	0xbd6308cf	-0.055428322
229	0x3ca34a9f	0.019933043
230	0xbd65e070	-0.056122243
231	0x3d91e22b	0.07123216
232	0xbd840b7c	-0.06447503
233	0xbcc78928	-0.024357393
234	0xbdbbae4f	-0.09164106
235	0xbdb16c21	-0.08663202
236	0x3ca24689	0.019809024
237	0xbc3c6d50	-0.0115006715
238	0xbd48bee4	-0.049010172
239	0x3c439994	0.011938471
240	0x3d0991f8	0.033586472
241	0xbc1035dc	-0.008801904
242	0xbd91f2fa	-0.07126422
243	0x3c7644ea	0.015031079
244	0xbd077f14	-0.033080176
245	0xbd08f757	-0.033439007
246	0xbc9d355b	-0.019190481
247	0x3d078b9c	0.033092126
248	0x3d7405fa	0.059576012
249	0x3c9b943f	0.018991588
250	0x3b5fe706	0.00341648
251	0xbcb92431	-0.022600265
252	0x3c38644b	0.01125438
253	0x3d975b7b	0.073904954
254	0xbcda9972	-0.026684497
255	0x3ca558e1	0.020183982

classfier.fc2.bias f4 [50]
0	0x3da5aa4c	0.08089122
1	0x3b929bb8	0.0044741295
2	0x3c86fb41	0.01647723
3	0x3d7637a8	0.06011167
4	0xbc1f6566	-0.009728765
5	0x3dbdc273	0.09265604
6	0xbceccb9a	-0.028905679
7	0x3d2f5918	0.042809576
8	0x3da4fb30	0.08055723
9	0x3d1a9f6c	0.037749693
10	0x3c57a24d	0.013161254
11	0x3c5e982a	0.013586083
12	0x3dad3872	0.08458032
13	0x3ccb93e1	0.024850788
14	0x3d46ebae	0.048564605
15	0xbd8358d4	-0.06413427
16	0xba3e2fae	-0.00072550296
17	0xbcfa8a7e	-0.030583616
18	0xbb109499	-0.0022061227
19	0x3d844a34	0.064594656
20	0x3dc2207d	0.09478853
21	0xbd2b9089	-0.041885886
22	0xbd5cc0b3	-0.05389471
23	0x3d5dc776	0.0541453
24	0xbc98e40a	-0.018663425
25	0x3c8f7d28	0.017515734
26	0xbca53e16	-0.020171206
27	0x3d0adbec	0.03390114
28	0x3d43b50c	0.04778008
29	0x3d9c7d61	0.07641102
30	0xbbaae794	-0.0052155945
31	0x3b630ec1	0.0034646245
32	0xbd4f5d3d	-0.05062603
33	0xbc25fb46	-0.010130709
34	0x3cc8c504	0.024508007
35	0xbd080e90	-0.033217013
36	0xbb8b626c	-0.004253676
37	0xbdaffd0b	-0.08593186
38	0xbd99375b	-0.07481261
39	0x3d17010c	0.036866233
40	0x3d419e3d	0.04727005
41	0xbd235a52	-0.039881058
42	0x3bdf866c	0.0068214443
43	0xbcd25a3a	-0.025677789
44	0x3d1aff5b	0.037841182
45	0xbc39f4e8	-0.011349894
46	0xbc83de15	-0.016097108
47	0x3d9ee7d4	0.077590615
48	0x3dc867e6	0.09785442
49	0x3b49bde1	0.0030783343

classfier.bn2.weight f4 [50]
0	0x3f6f2b06	0.93425024
1	0x3f88f5d5	1.0700022
2	0x3f72e02e	0.9487332
3	0x3f7678aa	0.9627787
4	0x3f7fada5	0.99874336
5	0x3f800f3d	1.000465
6	0x3f80bdc2	1.005791
7	0x3f74d780	0.95641327
8	0x3f7631ce	0.96169746
9	0x3f6b9eaf	0.92039007
10	0x3f6debe9	0.92938095
11	0x3f84bffd	1.037109
12	0x3f6ebfbe	0.93261325
13	0x3f7fb4f9	0.9988552
14	0x3f7dd327	0.9915032
15	0x3f85739c	1.0425906
16	0x3f69478d	0.911248
17	0x3f87a3e1	1.0596887
18	0x3f77078d	0.96495897
19	0x3f76f8db	0.96473473
20	0x3f8212c4	1.0161977
21	0x3f857ca7	1.0428666
22	0x3f6be638	0.9214816
23	0x3f72966b	0.9476077
24	0x3f822929	1.0168811
25	0x3f860fcd	1.0473572
26	0x3f79791e	0.97450435
27	0x3f8672e0	1.0503807
28	0x3f6dbe67	0.92868656
29	0x3f78eee7	0.97239536
30	0x3f8344e1	1.0255395
31	0x3f751662	0.9573728
32	0x3f80e1a3	1.0068859
33	0x3f6c2e86	0.9225849
34	0x3f89845c	1.0743518
35	0x3f70ca75	0.94058925
36	0x3f8d9687	1.1061562
37	0x3f869980	1.0515594
38	0x3f84a670	1.0363293
39	0x3f79b9a8	0.97548914
40	0x3f82f686	1.0231483
41	0x3f860de7	1.0472993
42	0x3f7732c5	0.96561843
43	0x3f8247df	1.0178183
44	0x3f8d3d65	1.1034361
45	0x3f85d86b	1.045667
46	0x3f6fcb99	0.9367004
47	0x3f7ba181	0.9829331
48	0x3f7a84a7	0.9785866
49	0x3f8a4a2b	1.0803884

classfier.bn2.bias f4 [50]
0	0xbdb26c4c	-0.08712062
1	0xbe0915b3	-0.13387184
2	0xbb20985f	-0.0024504883
3	0x3bc672b7	0.0060561555
4	0xbdda0ff1	-0.10647572
5	0xbd9a23a5	-0.0752633
6	0x3cf2d5a4	0.029642887
7	0xbd9d563a	-0.07682462
8	0xbc931ee6	-0.01795907
9	0xbdb8ba72	-0.090199366
10	0xbc9d9f42	-0.01924098
11	0xbdf26949	-0.11836488
12	0xbd3edaff	-0.04659557
13	0x3ae1feb4	0.0017242045
14	0xbc948442	-0.018129472
15	0xbe0962f0	-0.13416648
16	0xbd9296fa	-0.07157703
17	0x3d99c0b8	0.07507461
18	0xbca1b4a4	-0.019739456
19	0xbc934b95	-0.017980376
20	0xbdcb82cd	-0.09937058
21	0xbd180c81	-0.0371213
22	0xbd4d719a	-0.050157167
23	0xbd82f790	-0.06394875
24	0xbd931eca	-0.07183607
25	0x3db48bf0	0.088157535
26	0xbcda81ae	-0.026673164
27	0x3d7fa84b	0.062416356
28	0xbd9e42cb	-0.077275835
29	0xbd06c7a6	-0.032905243
30	0x3d363986	0.044488452
31	0xbd562c9b	-0.052288633
32	0x3dc73734	0.09727326
33	0xbd5b428c	-0.05353026
34	0x3dcb33c2	0.099219814
35	0xbc8bdc43	-0.017072802
36	0x3dd58119	0.10425014
37	0x3d8762bc	0.06610629
38	0x3d8e734e	0.069555864
39	0xbcc6820c	-0.024231933
40	0x3d7d37e9	0.0618209
41	0xbd8c06ee	-0.06837259
42	0xba9ac827	-0.0011808918
43	0x3cc22c27	0.023702694
44	0x3dae5c06	0.08513646
45	0xbdec03f1	-0.11524189
46	0xbdd13713	-0.10215583
47	0x3cbd85f6	0.023135167
48	0xbc9598de	-0.01826137
49	0xbdd001fc	-0.101566285

classfier.bn2.running_mean f4 [50]
0	0xbe47726f	-0.19477247
1	0x3e4f04b0	0.20216632
2	0xbcd648a0	-0.026157677
3	0xbf1ba102	-0.60792553
4	0x3e8f4cf2	0.27988392
5	0x3f0a6ac6	0.54069173
6	0xbf169768	-0.5882478
7	0xbc965851	-0.01835266
8	0x3e8a4944	0.27009022
9	0x3cc6c272	0.02426264
10	0x3ea1d090	0.31604433
11	0x3e8d3558	0.2757976
12	0xbc3cfa94	-0.011534352
13	0x3e6ef769	0.23336567
14	0x3e6ead1e	0.23308226
15	0x3e87e0f4	0.26538813
16	0x3e4a3fd7	0.19750915
17	0xbf3a990b	-0.72889775
18	0xbf0d923e	-0.5530127
19	0x39989bd0	0.0002910779
20	0x3edf75e0	0.4364462
21	0x3da50754	0.08058038
22	0xbe301243	-0.17194466
23	0xbd3efb0c	-0.046626136
24	0x3eda166a	0.42595226
25	0xbf5df718	-0.8670516
26	0x3e101a58	0.1407255
27	0xbea594ce	-0.3234009
28	0x3e903d3f	0.28171727
29	0x3f179b42	0.5922128
30	0xbf693ef0	-0.9111166
31	0x3e47484e	0.19461176
32	0xbf62a2ba	-0.8852955
33	0xbdc684c1	-0.096932895
34	0xbebadb02	-0.36495215
35	0x3d34567b	0.044027787
36	0xbea62067	-0.32446596
37	0xbf7784aa	-0.96686804
38	0xbf333169	-0.6999727
39	0xbf156978	-0.5836406
40	0x3dfdd41a	0.12393971
41	0x3e79f704	0.24410635
42	0x3f0bc202	0.5459291
43	0xbf174eaa	-0.59104407
44	0xbe0de7ef	-0.13858007
45	0x3eb4e440	0.3533039
46	0x3ce37b7d	0.027768845
47	0xbee9f708	-0.45696282
48	0x3e6f3576	0.23360237
49	0x3e694f64	0.22784191

classfier.bn2.running_var f4 [50]
0	0x3ea744e3	0.32669744
1	0x3ec5bd77	0.38621113
2	0x3f112ed6	0.5671209
3	0x3eabc3ef	0.33547923
4	0x3e8f4071	0.27978852
5	0x3ebbe139	0.3669527
6	0x3e97213a	0.29517537
7	0x3e6c2b76	0.23063454
8	0x3ee3c34a	0.4448493
9	0x3eb9ca4c	0.36287153
10	0x3ea43422	0.32071024
11	0x3eca2cda	0.39487344
12	0x3ec789a2	0.38972193
13	0x3eccc3f8	0.39993262
14	0x3f286e7d	0.6579359
15	0x3e9f9b72	0.31173283
16	0x3f04bc76	0.5185007
17	0x3f161533	0.586261
18	0x3ecdc079	0.40185907
19	0x3f0abba7	0.54192585
20	0x3ea42a0c	0.3206333
21	0x3ea4c068	0.32178044
22	0x3e73892d	0.23782797
23	0x3e8af8bd	0.27142897
24	0x3eb05c5d	0.34445468
25	0x3f33710c	0.7009437
26	0x3ec53fad	0.38525143
27	0x3efdcd95	0.4957091
28	0x3edd4e7c	0.4322394
29	0x3ecc2103	0.39868936
30	0x3ee5b0b8	0.44861388
31	0x3ebb9cfa	0.366432
32	0x3ee75a59	0.45186117
33	0x3f0c9058	0.5490775
34	0x3f2537f8	0.64538527
35	0x3f2dc5d1	0.6787997
36	0x3f482a9a	0.78190005
37	0x3eead858	0.45868182
38	0x3f58647d	0.8452833
39	0x3f0e39d0	0.55556965
40	0x3f179ad4	0.59220624
41	0x3ec55cef	0.38547465
42	0x3f4394c0	0.7639885
43	0x3f4ddb6e	0.8041295
44	0x3eea3b30	0.4574828
45	0x3ea6f402	0.32608038
46	0x3e78f96a	0.24313894
47	0x3ec90b10	0.39266253
48	0x3ec719af	0.38886783
49	0x3ece347b	0.40274414

classfier.fc3.weight f4 [25, 50]
0	0xbb7f03dd	-0.0038912215
1	0xbde6840f	-0.11255657
2	0x3dc3cb5f	0.09560274
3	0xbe08b5a1	-0.13350536
4	0x3d305068	0.04304543
5	0x3a230a40	0.0006219484
6	0xbd808382	-0.06275083
7	0xbb87c616	-0.0041434867
8	0xbd4039dd	-0.046930183
9	0xbe1ecdb4	-0.15508157
10	0x3d06448e	0.032780223
11	0x3ba5a50c	0.0050550755
12	0x3d360273	0.04443593
13	0xbd789fd7	-0.06069931
14	0xbdbe046d	-0.09278188
15	0xbd270e63	-0.040785205
16	0xbd6ed580	-0.05830908
17	0x3e14c746	0.14529142
18	0xbd004e2e	-0.031324558
19	0x3c22e5de	0.0099425
20	0xbd43928d	-0.047747184
21	0xbe369e6f	-0.17833875
22	0x3c96800a	0.0183716
23	0xbdc848e7	-0.0977953
24	0xbd882c31	-0.06649054
25	0x3e0a9b65	0.13535841
26	0xbdf6d011	-0.12051404
27	0xbd522e72	-0.051313825
28	0xbda38b4b	-0.079855524
29	0x3d502305	0.050814647
30	0xbe5256de	-0.2054095
31	0x3d26c2d9	0.040713165
32	0xbd7f86d8	-0.062384456
33	0xbdf6d207	-0.12051778
34	0x3d94321b	0.07236119
35	0x3d16f3d2	0.03685362
36	0xbde462bc	-0.111516446
37	0xbe46335a	-0.19355527
38	0x3da3978d	0.079878904
39	0xbddd0cc1	-0.10793448
40	0x3de42de0	0.111415625
41	0xbd984883	-0.074357055
42	0xbde90021	-0.11376978
43	0x3e153bfb	0.14573662
44	0xbca4a43c	-0.020097844
45	0x3d21cd1d	0.039502252
46	0xbdd70b6e	-0.10500227
47	0xbe34877b	-0.17629807
48	0x3c813d1b	0.015776208
49	0xbd4bb0b1	-0.049729053
50	0x3e0aa752	0.1354039
51	0x3da9567d	0.082684495
52	0x3d468433	0.04846592
53	0x3d5ed426	0.05440154
54	0x3bb10d60	0.0054032058
55	0x3e04a194	0.12952262
56	0x3d813bd9	0.06310243
57	0x3dd80ce4	0.10549334
58	0xbda4e2f4	-0.080511004
59	0x3dab96c8	0.083783686
60	0x3d0e64ba	0.03476403
61	0x3e276551	0.16347243
62	0x3d0fa5e8	0.03507033
63	0x3c629867	0.013830281
64	0xbd08acce	-0.033367924
65	0xbc0d4d8b	-0.008624445
66	0xbd9c4fce	-0.07632409
67	0x3b8ce81c	0.0043001305
68	0x3dc1b942	0.09459163
69	0x3ccab379	0.024743782
70	0x3de8a42e	0.1135944
71	0x3c346b9a	0.011011982
72	0xbd094309	-0.033511195
73	0x3cf32edc	0.02968543
74	0x3e32d111	0.17462565
75	0x3c783a75	0.015150656
76	0x3d0344cc	0.03204803
77	0x3d814c79	0.06313414
78	0x3e0e946a	0.13923803
79	0xbc6765b2	-0.014123367
80	0x3cf9158b	0.03040578
81	0x3d0590f5	0.032608945
82	0xbc84a3fb	-0.016191473
83	0x3bbc4389	0.0057453555
84	0x3da46d41	0.08028651
85	0xbd7be9cd	-0.061502267
86	0xbd82ced2	-0.06387104
87	0xbcd47783	-0.025935894
88	0xbd81ee24	-0.0634425
89	0x3e022117	0.12707935
90	0xbcf32830	-0.029682249
91	0x3e25701a	0.16156045
92	0x3d91a041	0.07110644
93	0xbcfc72f4	-0.030816533
94	0x3d8d631e	0.06903671
95	0x3d836de0	0.06417441
96	0x3beec957	0.007287185
97	0x3c86c761	0.016452493
98	0x3a2ab42e	0.0006511834
99	0x3daf9a5f	0.08574366
100	0x3cf846b0	0.030307144
101	0xbd8727e3	-0.06599405
102	0xbaeed4ed	-0.0018221416
103	0x3c0d2299	0.008614206
104	0xbc451dbc	-0.012031015
105	0xbdffa7a8	-0.1248315
106	0x3ddab750	0.10679495
107	0x3cf185cc	0.029482745
108	0xbc8515ab	-0.016245684
109	0xbdbc90f6	-0.092073366
110	0xbdca819c	-0.09888002
111	0xbd2b437a	-0.041812398
112	0x3cd01dc0	0.02540481
113	0xbd3618e5	-0.044457335
114	0x3d84d22a	0.06485398
115	0x3ccf350e	0.025293853
116	0x3dd600d5	0.104493774
117	0xbd18084a	-0.03711728
118	0xbd84d7f9	-0.06486506
119	0xbd20a37b	-0.039218407
120	0xbd86c0f2	-0.0657977
121	0xbdb3652f	-0.087595336
122	0x3da8dfad	0.08245788
123	0xbdb1daff	-0.08684348
124	0xbcf9c71c	-0.03049045
125	0xbc875449	-0.016519682
126	0xbe12ae16	-0.14324221
127	0xbe1a916b	-0.15094535
128	0xbe1fa961	-0.15591957
129	0xbc93d4c5	-0.018045792
130	0x3d2f45bb	0.04279111
131	0xbdd7719e	-0.10519718
132	0xbc98833c	-0.018617265
133	0x3b8f24be	0.0043683937
134	0xbc4f34b0	-0.012646839
135	0x3cf91287	0.030404342
136	0x3de701eb	0.11279663
137	0x3cfdc630	0.030978292
138	0x3dd8f8e2	0.10594346
139	0x3d697593	0.056996893
140	0xbdc88506	-0.09790997
141	0xbde6b21f	-0.11264443
142	0xbd6036e6	-0.054739855
143	0x3d98e49b	0.07465478
144	0xbe7bc4d7	-0.24586807
145	0xbb9b3a4b	-0.0047371737
146	0xbd2a47e9	-0.041572485
147	0xbe113f82	-0.14184383
148	0xbdc31bd6	-0.09526794
149	0x3d19c2b1	0.037539188
150	0x3d7650ce	0.060135655
151	0x3e3f8d50	0.1870625
152	0x3d1075f3	0.035268735
153	0x3d51dc74	0.05123563
154	0x3e1eb756	0.15499625
155	0xbd37e8db	-0.044899803
156	0x3cc4c6ac	0.024020515
157	0x3e24209f	0.16028069
158	0xbd2ee58b	-0.042699378
159	0x3de6e5a1	0.11274267
160	0xbd5ccb3d	-0.05390476
161	0x3e12b541	0.14326955
162	0xbdae3251	-0.08505691
163	0x3df0b093	0.11752429
164	0xbc91b8ec	-0.017788373
165	0x3e1cbccb	0.15306394
166	0xbd3a5077	-0.045486894
167	0x3d028f8b	0.031875174
168	0xbce0fdf9	-0.027464854
169	0x3be02bbc	0.006841151
170	0xbd1aa31b	-0.037753206
171	0x3d85855b	0.06519576
172	0x3d6e3252	0.058153458
173	0x3da326cd	0.07966385
174	0x3dae68bf	0.085160725
175	0x3d128c6b	0.035778444
176	0x3dd315da	0.10306902
177	0xbda4ec3d	-0.080528714
178	0xbbc9bf56	-0.006156842
179	0x3dd20423	0.10254695
180	0x3baf7cce	0.005355454
181	0xbb969512	-0.0045954073
182	0xbca99c8a	-0.020704526
183	0xbddcb230	-0.10776174
184	0x3d8cd9cf	0.06877481
185	0x3d14925f	0.036272403
186	0x3db66ea6	0.08907823
187	0xbdc397ec	-0.09550461
188	0xbdc516e1	-0.096235044
189	0x3dcd52d9	0.100255676
190	0xbdda9050	-0.10672057
191	0x3db066c1	0.08613349
192	0x3bf259d2	0.0073959613
193	0xbd90e27c	-0.070744485
194	0x3ba42684	0.005009474
195	0x3df27794	0.11839214
196	0x3c3af558	0.011411034
197	0xbdfbc8b6	-0.12294142
198	0xbd7cb6ee	-0.061697893
199	0x3dc0c813	0.09413161
200	0x3c02ca5a	0.007982815
201	0xbdd5f196	-0.104464695
202	0x3d33a8f6	0.043862306
203	0x3dac665f	0.08417963
204	0xbd8e9388	-0.06961733
205	0xbdb016fd	-0.08598135
206	0x3dc64ec2	0.096829906
207	0xbc3d4ee0	-0.01155445
208	0x3da7344a	0.0816427
209	0x3da7e313	0.08197608
210	0xbd9df618	-0.07712954
211	0xbda50dbd	-0.08059261
212	0x3d270523	0.040776383
213	0xbd7dab6f	-0.06193107
214	0x3c275b68	0.010214664
215	0xbdba59ed	-0.09099183
216	0xbc698f15	-0.014255305
217	0x3e0a71a6	0.13519916
218	0x38c0f364	9.2006085e-05
219	0x3db21b79	0.08696646
220	0xbd1d541d	-0.038410295
221	0xbc0ad2d9	-0.008473122
222	0xbd45706a	-0.04820291
223	0xbd907358	-0.0705325
224	0xbc09fdd1	-0.008422331
225	0x3b7327d9	0.0037102608
226	0xbe114e08	-0.14189923
227	0xbe2cc17e	-0.16870686
228	0xbd175ce1	-0.03695381
229	0xbdec4e96	-0.115384266
230	0x3e0a14f4	0.13484555
231	0xbe4394f1	-0.19099785
232	0x3d85c0de	0.06530927
233	0xbdc8f97b	-0.098132096
234	0xbe63a81b	-0.22232096
235	0xbdb56f7e	-0.08859156
236	0xbda42494	-0.08014789
237	0xbdd362aa	-0.10321553
238	0xbe0c6e6b	-0.13713996
239	0xbdd7a175	-0.10528842
240	0xbdfe652a	-0.12421639
241	0xbd4850a0	-0.048905015
242	0x3dd15eed	0.10223184
243	0xbe12e2ca	-0.14344326
244	0xbdab069d	-0.08350871
245	0x3c790137	0.015198044
246	0xbe209728	-0.15682662
247	0x3cad9eca	0.02119388
248	0xbd885ff9	-0.0665893
249	0xbd6daff2	-0.058029123
250	0x3e21233e	0.157361
251	0x3e1b2ae3	0.15153079
252	0xbda74b4b	-0.08168658
253	0x3dac053c	0.08399436
254	0x3e3253e3	0.17414813
255	0xbd10006d	-0.035156656

classfier.fc3.bias f4 [25]
0	0x3d1b2e50	0.037885964
1	0xbddba87b	-0.107254945
2	0xbcde0805	-0.027103433
3	0xbd4ae0f3	-0.049530935
4	0x3bbbd152	0.00573174
5	0xbddc2163	-0.107485555
6	0xbd6ce640	-0.05783677
7	0xbd8b13aa	-0.0679086
8	0x3dcbba6b	0.09947666
9	0xbd9b2779	-0.07575888
10	0x3de54816	0.1119539
11	0xbc215212	-0.009846227
12	0x3cef898f	0.029240398
13	0x3df7bceb	0.1209658
14	0xbe03ca93	-0.12870245
15	0xbc86d5c5	-0.016459355
16	0xbd8d241d	-0.06891654
17	0xbc53ebc7	-0.012934632
18	0x3da8b034	0.08236733
19	0xbd81482e	-0.06312595
20	0x3cfe0a89	0.031010883
21	0x3d8f88a8	0.07008487
22	0xbc1e7c2d	-0.0096731605
23	0xbdfa2285	-0.12213615
24	0x3e050f79	0.12994184

classfier.bn3.weight f4 [25]
0	0x3f95c129	1.1699573
1	0x3f7b2271	0.9809943
2	0x3f9329d6	1.1497142
3	0x3f7e2cf7	0.9928736
4	0x3f91cf29	1.1391345
5	0x3f7b8198	0.9824462
6	0x3f9202a2	1.1407053
7	0x3f9266ed	1.143766
8	0x3f7d6be9	0.9899278
9	0x3f935c37	1.1512517
10	0x3f7b7098	0.9821868
11	0x3f7f7d3f	0.99800485
12	0x3f92b8a1	1.1462594
13	0x3f92f320	1.1480446
14	0x3f939593	1.1530021
15	0x3f921735	1.1413332
16	0x3f92d563	1.147137
17	0x3f96802e	1.1757867
18	0x3f7b4fda	0.9816872
19	0x3f94fd76	1.163985
20	0x3f91fb8c	1.1404891
21	0x3f92c2b9	1.1465675
22	0x3f79b604	0.9754336
23	0x3f7a1ee0	0.9770336
24	0x3f7b33cb	0.98125905

classfier.bn3.bias f4 [25]
0	0x3e2c26a8	0.16811621
1	0xbd4c56b4	-0.049887374
2	0x3e1b90a5	0.15191896
3	0xbd769eb8	-0.06020996
4	0x3e09f025	0.13470514
5	0xbd68f83b	-0.056877356
6	0x3e0d9679	0.13826932
7	0x3e120ecb	0.14263456
8	0xbd6828fe	-0.05667972
9	0x3e1fd08b	0.15606897
10	0xbd7fd3dd	-0.062457908
11	0x3ac03527	0.0014664278
12	0x3e1466b5	0.14492305
13	0x3e109ad2	0.1412156
14	0x3e220fae	0.15826294
15	0x3e17621e	0.14783522
16	0x3e154afe	0.14579388
17	0x3e344b34	0.17606813
18	0xbd7fdcf7	-0.062466588
19	0x3e277ed6	0.16356978
20	0x3e0db54d	0.13838692
21	0x3e16baac	0.14719647
22	0xbd26ae85	-0.04069378
23	0xbd7ca8a3	-0.061684262
24	0xbd550dfd	-0.052015293

classfier.bn3.running_mean f4 [25]
0	0xbeffe1d5	-0.49976984
1	0x3f04830b	0.51762456
2	0xbef41d4a	-0.47678596
3	0x3eb93303	0.3617173
4	0xbf28a81e	-0.65881526
5	0x3e390268	0.18067324
6	0xbf049ae5	-0.5179885
7	0xbf3950c4	-0.72388864
8	0x3edb78e1	0.4286566
9	0xbedb0060	-0.42773724
10	0x3ed56ab8	0.41682982
11	0xbd89004c	-0.0668951
12	0xbd0f71c7	-0.035020616
13	0xbe844ffc	-0.25842273
14	0xbdd284d9	-0.10279245
15	0xbe8a41c5	-0.27003303
16	0xbf0486b4	-0.5176804
17	0xbf5a2869	-0.8521791
18	0x3f08ebea	0.53484976
19	0xbeb66ec3	-0.3563138
20	0xbf4e3387	-0.80547374
21	0xbed4d58a	-0.41569167
22	0x3eee47f4	0.4653927
23	0x3ef46872	0.47735935
24	0x3ef62c30	0.48080587

classfier.bn3.running_var f4 [25]
0	0x3ee70cd9	0.4512699
1	0x3f1c72ce	0.6111268
2	0x3ea02443	0.31277665
3	0x3f6dd952	0.9290973
4	0x3f1d681f	0.61487
5	0x3f39a236	0.7251314
6	0x3f2e9679	0.68198353
7	0x3eb140d7	0.3461978
8	0x3f5be031	0.85888964
9	0x3f665c77	0.8998484
10	0x3f68e5f9	0.9097591
11	0x3f0526e4	0.5201247
12	0x3f1a2313	0.6020977
13	0x3ef7f579	0.48429468
14	0x3f45c40b	0.7725226
15	0x3f75cfc7	0.9602017
16	0x3ecdddca	0.40208274
17	0x3f141773	0.5784828
18	0x3f717cd9	0.9433113
19	0x3ee38d0e	0.44443554
20	0x3edff9ec	0.43745363
21	0x3f049d6a	0.51802695
22	0x3ef6960a	0.48161346
23	0x3f4e40d5	0.80567676
24	0x3f39d4ad	0.7259014

classfier.fc5.weight f4 [1, 25]
0	0xbe2533e7	-0.1613308
1	0x3d37251f	0.044713136
2	0xbe5b401a	-0.21411172
3	0x3e07c422	0.13258412
4	0xbe8117cb	-0.25213465
5	0x3db048af	0.08607613
6	0xbe9648ba	-0.2935236
7	0xbe6fb58e	-0.23409101
8	0x3e2e7c6e	0.17039654
9	0xbe478bb9	-0.19486894
10	0x3e37ed40	0.17961597
11	0xbd390980	-0.045175076
12	0xbe86c5ee	-0.26322883
13	0xbe7c59c1	-0.24643613
14	0xbe74f72a	-0.2392241
15	0xbe7bda58	-0.2459501
16	0xbdf2e08a	-0.11859234
17	0xbe225263	-0.1585174
18	0x3e2d10a7	0.16900884
19	0xbe3f5579	-0.18684949
20	0xbdea585b	-0.11442634
21	0xbe76532f	-0.2405517
22	0x3d02961a	0.03188143
23	0x3dec816e	0.11548124
24	0x3d5e900a	0.054336585
