src/trained_models/2025-06-12/run_06-58-40/dnn_model_fold_1.pt (torch, 75713 bytes, 19 tensors)

classfier.fc1.weight f4 [100, 100]
0	0xbdbe5650	-0.092938066
1	0xbd7f4f17	-0.062331285
2	0xbda62ab5	-0.081136145
3	0xbdb26147	-0.087099604
4	0xbd8b7471	-0.06809319
5	0x3d8733c9	0.06601674
6	0x3ce447a8	0.0278662
7	0xbd788b1f	-0.06067955
8	0xbd780860	-0.060554862
9	0x3b56fa19	0.0032802878
10	0x3dd2fa31	0.103016265
11	0xbd9e8c72	-0.077416316
12	0xbd5be985	-0.0536895
13	0x3d66ee69	0.05637971
14	0xbd866ca3	-0.065636896
15	0x3cee9d44	0.029127724
16	0x3dae24b7	0.085030966
17	0xbd907cef	-0.07055079
18	0xbd5e610c	-0.05429177
19	0xbc8ccd54	-0.017187752
20	0x3cd91faa	0.026504356
21	0x3df8e2b1	0.12152613
22	0xbd176e66	-0.03697052
23	0xbd704538	-0.058659762
24	0x3d03afe4	0.032150164
25	0xbca33eec	-0.019927464
26	0xbd070f4c	-0.032973573
27	0x3d9b17e9	0.0757292
28	0x3bc4c85c	0.00600533
29	0xbd30e2dd	-0.043185104
30	0x3c220f44	0.009891335
31	0xbd281a5c	-0.041040763
32	0xbc0d04a2	-0.008607062
33	0xbce6dc11	-0.028181108
34	0xbba21787	-0.0049466523
35	0x3cd0763f	0.02544701
36	0xbdb4b9a4	-0.08824471
37	0x3d0e1832	0.034691043
38	0x3d25610d	0.040375758
39	0x3d61376c	0.054984495
40	0xbd87efa4	-0.06637505
41	0x3d9419a0	0.0723145
42	0x3db3b475	0.08774654
43	0x3d6749e1	0.05646694
44	0x3cee9867	0.029125405
45	0xbd17295c	-0.036904678
46	0xbd79a0e3	-0.06094445
47	0x3d496619	0.049169634
48	0xbd996de2	-0.074916616
49	0xbd58c94b	-0.052926343
50	0x3d63770f	0.055533465
51	0x3c524957	0.012834868
52	0x3c0886c9	0.008332917
53	0x3d9a7aaf	0.07542931
54	0xbcdbad1b	-0.026815942
55	0x3d9bb7dc	0.07603428
56	0xbdd4a123	-0.10382297
57	0x3c9d666e	0.019213881
58	0xbdb87aa8	-0.0900777
59	0x3b55120e	0.0032511982
60	0x3d503e38	0.050840586
61	0x3d9745fa	0.07386394
62	0xbd4ba91e	-0.04972183
63	0xbd29391f	-0.04131424
64	0x3d9f4468	0.07776719
65	0xbcf1acc6	-0.02950133
66	0xbc73d59f	-0.014882474
67	0xbc9a8981	-0.018864395
68	0xbcf78ea3	-0.030219382
69	0xbcb55739	-0.022136318
70	0xbb94cdcc	-0.0045411345
71	0xbb192edc	-0.0023373878
72	0xbd496a04	-0.04917337
73	0x3d6c758e	0.057729296
74	0xbcc14d17	-0.02359633
75	0x3d100b9c	0.03516732
76	0x3c6c509c	0.014423516
77	0xbdd6fdd2	-0.10497631
78	0x3dcfd648	0.10148293
79	0x3baaf21e	0.005216851
80	0x3d459a08	0.0482426
81	0xbd3c5ed7	-0.045988884
82	0x3c74ef9c	0.014949705
83	0xbd7dd295	-0.061968405
84	0xbcf2b498	-0.02962713
85	0xbd9ae3a4	-0.0756295
86	0x3d32393f	0.043511625
87	0x3d84fe53	0.06493821
88	0xbcf1b3b0	-0.029504627
89	0x3d948a61	0.07252956
90	0xbc74cf39	-0.014941984
91	0x3d01b371	0.03166527
92	0x3da0d686	0.07853417
93	0x3c599103	0.013279202
94	0xbd9ccaf1	-0.076558955
95	0xbcb9e0ee	-0.022690263
96	0xbc8c4811	-0.017124208
97	0xbc84d3cc	-0.016214274
98	0xbd7e7fe6	-0.062133692
99	0x3dab6532	0.08368911
100	0xbdf9c4a3	-0.121957086
101	0x3c8b2c1a	0.016988803
102	0xbdb0330d	-0.08603487
103	0xbcda4062	-0.026642028
104	0x3c22303c	0.009899195
105	0x3da1754a	0.07883699
106	0x3da12cfb	0.078699075
107	0x3d3cffa8	0.04614225
108	0x3d4711c1	0.048600916
109	0xbdcc01f6	-0.099613115
110	0x3d15824a	0.036501206
111	0xbdc94c77	-0.09829038
112	0x3d844e20	0.06460214
113	0x3deb8270	0.11499488
114	0xbd99d7d8	-0.07511872
115	0x3d6c8112	0.05774028
116	0x3d3ff868	0.046867758
117	0x3d961cd7	0.073297195
118	0xbd37f2ca	-0.044909276
119	0xbd09d2c8	-0.033648282
120	0xbb10095e	-0.002197824
121	0x3dc1c442	0.09461261
122	0xbd93cc95	-0.07216755
123	0xbca4a3eb	-0.020097693
124	0xbde8430d	-0.11340914
125	0x3cd1b3fa	0.025598515
126	0xbda3d958	-0.080004394
127	0x3c295bb9	0.01033681
128	0x3d3a172c	0.045432255
129	0xbc26f940	-0.010191262
130	0xbd3ecdf2	-0.046583124
131	0x3b7bc515	0.003841703
132	0x3b84dc31	0.004054569
133	0xbdbfd0ce	-0.09365998
134	0x3d6e9e72	0.058256574
135	0xbd5371ad	-0.05162208
136	0xbd7830df	-0.060593482
137	0xbc2edb34	-0.010672379
138	0x3c2395cb	0.009984444
139	0x3d52cb9e	0.051463716
140	0x3ddd4ce2	0.1080568
141	0xbd849fb1	-0.06475771
142	0x3db6e4af	0.08930337
143	0x3d408f70	0.047011793
144	0xbb8620fc	-0.0040932875
145	0xbd14cd5e	-0.036328666
146	0x3d00d256	0.031450592
147	0x3c3239de	0.010878054
148	0x3d2764f0	0.040867746
149	0xbd6d8c11	-0.057994906
150	0x3d348f5b	0.044082027
151	0xbcc08855	-0.023502508
152	0x3d1c3802	0.03813935
153	0x3d433543	0.047658216
154	0x3c6b1d78	0.014350288
155	0x3d03a197	0.032136526
156	0x3ca15877	0.019695504
157	0x3cef5f36	0.029220205
158	0x3d496083	0.049164306
159	0xbc9eaad3	-0.019368565
160	0x3c361325	0.011112963
161	0xba986cb6	-0.0011629078
162	0xbdcc3012	-0.09970106
163	0xbdb1f4ee	-0.08689295
164	0x3d0806e7	0.033209708
165	0xbdb079ca	-0.086169794
166	0xbdfce3c8	-0.12348133
167	0xbd5af1a8	-0.053453118
168	0xbcd7b72d	-0.026332462
169	0x3d0f4be9	0.034984503
170	0xbbcf3613	-0.006323585
171	0x3b56d6ce	0.0032781842
172	0x3d5d5159	0.054032657
173	0xbd71c191	-0.05902249
174	0x3da5390f	0.08067524
175	0x3d17df00	0.037077904
176	0x3d108e97	0.035292234
177	0xbd2f93b0	-0.042865455
178	0xbdada343	-0.08478405
179	0xbd942a0c	-0.07234582
180	0xbd259897	-0.040428724
181	0xbdbe50a3	-0.09292724
182	0x3d90366a	0.07041629
183	0xbdb0bd71	-0.08629883
184	0x3c67de2c	0.014152091
185	0xbcd1a8e4	-0.025593229
186	0x3dbf9f6d	0.0935658
187	0xbc737b04	-0.014860872
188	0x3d340ed3	0.04395945
189	0x3d4ff5d0	0.050771534
190	0x3da80514	0.082040936
191	0xbd6e29e0	-0.058145404
192	0xbdb21174	-0.08694735
193	0xbd95dce2	-0.07317521
194	0xbdba1ab1	-0.09087122
195	0xbd9e05f6	-0.07715981
196	0xbd1f1e65	-0.038847346
197	0xbd8e7f81	-0.06957913
198	0xbdd9bc4e	-0.106316194
199	0x3dc3fad9	0.0956933
200	0x3d14a8a6	0.03629365
201	0xbd9ea68b	-0.07746609
202	0x3cb12629	0.021624641
203	0x3c80b908	0.01571323
204	0xbd4e3b4b	-0.050349515
205	0x3daa3b93	0.08312144
206	0x3d808826	0.06275968
207	0x3d978a65	0.073994435
208	0xbd64b834	-0.055839732
209	0xbdd9f036	-0.1064152
210	0xbd590343	-0.052981626
211	0xbd0a37fd	-0.0337448
212	0xbc418501	-0.011811496
213	0x3db576db	0.088605605
214	0x3db2be42	0.08727695
215	0xbbe3a9f3	-0.0069477498
216	0xbdc82fba	-0.09774728
217	0xbdc73816	-0.097274944
218	0xbca03113	-0.01955465
219	0xbd5128e0	-0.051064372
220	0xbdcd2aee	-0.10017954
221	0xbd727054	-0.059189156
222	0x3dc468ae	0.095902786
223	0xbdc5fa14	-0.09666839
224	0x3d233d14	0.03985317
225	0x3d4e1ee5	0.050322432
226	0x3d34d69d	0.044149984
227	0x3d9894f8	0.074502885
228	0xbc4b9737	-0.012426189
229	0xbdddb6df	-0.108258955
230	0xbd12b4b4	-0.035816863
231	0x3d3748ef	0.04474729
232	0xbd97c26a	-0.074101284
233	0x3d9b2ff6	0.07577507
234	0xbcfd4705	-0.030917654
235	0x3d65033d	0.05591129
236	0xba99bbd4	-0.0011728951
237	0x3da02174	0.07818881
238	0xbce32f3e	-0.027732488
239	0xbdea1f25	-0.114317216
240	0xbd3cc652	-0.04608757
241	0xbbf278fa	-0.0073996754
242	0xbd3cf0b5	-0.046127994
243	0xbda70d8b	-0.0815688
244	0xbd8b2d79	-0.067957826
245	0xbdda15ea	-0.10648711
246	0xbd6c9e7d	-0.057768334
247	0x3c36d32d	0.011158747
248	0xbdead6c5	-0.11466745
249	0xb90f5896	-0.00013670544
250	0x3d70243d	0.05862831
251	0xbdd9989d	-0.10624812
252	0x3dcbf8a6	0.09959535
253	0x3b5e85a8	0.0033954177
254	0xbd0d9670	-0.034567297
255	0x3ca851e2	0.020546857

classfier.fc1.bias f4 [100]
0	0x3d7be8ea	0.06150142
1	0x3d902c05	0.07039646
2	0x3d56b523	0.05241884
3	0x3be27afd	0.006911634
4	0xbdb8e646	-0.09028296
5	0xbdaebfc4	-0.0853267
6	0xbcdc41eb	-0.0268869
7	0x3d22ffe7	0.03979483
8	0xbd727a2e	-0.05919855
9	0xbaeeb1d6	-0.0018210958
10	0x3d91e2f4	0.07123366
11	0xbd8e32f3	-0.069433115
12	0xbc96761b	-0.018366864
13	0xbcf249d6	-0.029576223
14	0x3d445ecb	0.047941964
15	0xbc31b962	-0.010847421
16	0x3ce72057	0.028213663
17	0xbd8411e5	-0.064487256
18	0x3c0e8388	0.008698352
19	0xbca5d628	-0.02024372
20	0xbdc16601	-0.09443284
21	0x3d69cfb6	0.057082854
22	0xbd6e552a	-0.058186688
23	0x3d9a8de9	0.075465985
24	0x3daaaebf	0.083341114
25	0x3d1a4e48	0.03767231
26	0x3ced5bcb	0.028974434
27	0x3d14d3a4	0.03633465
28	0x3cdfae14	0.027304687
29	0xbd5d3a90	-0.054010928
30	0xbcb4eae6	-0.022084665
31	0x3dc6e597	0.097117595
32	0xbb8876b1	-0.0041645397
33	0xbc81de6c	-0.01585313
34	0x3ccc9fc5	0.024978528
35	0xbd39b08d	-0.045334388
36	0xbdc8496e	-0.097796306
37	0x3ce7e4c3	0.028307324
38	0xbdab03c3	-0.08350327
39	0xbd8f1676	-0.06986706
40	0x3d05bcb4	0.032650664
41	0xbd983e21	-0.07433725
42	0x3da72a20	0.081623316
43	0xbd943688	-0.072369635
44	0x3c151d92	0.009101288
45	0x3cfd5cd9	0.030928062
46	0x3cfe8f92	0.031074319
47	0xbdc7df90	-0.09759438
48	0x3d807adf	0.06273436
49	0x3c77ae74	0.015117276
50	0x3cd22284	0.025651224
51	0x3bd74a64	0.0065701474
52	0xbdc536ef	-0.096296184
53	0x3dc20e0b	0.09475335
54	0x3c957c7e	0.018247839
55	0xbd569373	-0.052386712
56	0xbd8d396d	-0.06895719
57	0x3d87ff4a	0.066404894
58	0x3dcb386d	0.09922872
59	0x3d88144b	0.066444956
60	0x3d968555	0.0734965
61	0x3da5bc4a	0.08092554
62	0xbd9914ea	-0.07474692
63	0xbd9c07f0	-0.076187015
64	0x3da52f53	0.08065667
65	0x3d253f03	0.040343296
66	0x3d590120	0.05297959
67	0x3c1f1475	0.009709467
68	0xbd5613ba	-0.052264906
69	0x3c9e6349	0.019334452
70	0x3dc427ce	0.09577905
71	0xbd822aa1	-0.06355787
72	0xbd9a1c41	-0.0752492
73	0x3d8b4c36	0.068016455
74	0xbcb19720	-0.021678507
75	0xbd83499c	-0.06410524
76	0xbd995001	-0.07485963
77	0x3d202ac9	0.039103303
78	0xbdcbddec	-0.099544376
79	0x3d0fd998	0.035119623
80	0xbdc817c7	-0.0977016
81	0x3d8f2ae3	0.06990602
82	0xbd4e4238	-0.05035612
83	0xbd014c7d	-0.031567086
84	0xbbfda87a	-0.0077410312
85	0x3dca4339	0.09876103
86	0xbd7cc9dc	-0.061715946
87	0x3d2f40a1	0.042786244
88	0xbc6f30ee	-0.014599068
89	0x3c9b66a9	0.01896985
90	0xbc054005	-0.008132939
91	0xbda576ea	-0.08079322
92	0xbd94bf45	-0.07263044
93	0xbc63df24	-0.013908181
94	0xbdc0533a	-0.09390874
95	0x3cb8ea8f	0.022572784
96	0xbd4f8bd0	-0.050670445
97	0xbbc2cc4f	-0.0059447656
98	0x3ccbaa5b	0.024861505
99	0xbc4a49da	-0.012346709

classfier.bn1.weight f4 [100]
0	0x3f837a43	1.0271686
1	0x3f85c3cf	1.0450381
2	0x3f777347	0.96660274
3	0x3f77f626	0.9685997
4	0x3f85843c	1.043098
5	0x3f79217a	0.97316706
6	0x3f8713aa	1.0552876
7	0x3f83ddef	1.0302104
8	0x3f7a6598	0.9781127
9	0x3f823816	1.0173366
10	0x3f7ab54b	0.9793288
11	0x3f773df7	0.96578926
12	0x3f7cfb01	0.988205
13	0x3f844bf9	1.0335685
14	0x3f77c2b2	0.96781456
15	0x3f773ffe	0.9658202
16	0x3f7d4cc4	0.9894526
17	0x3f806b76	1.0032794
18	0x3f7b30d8	0.98121405
19	0x3f78c97c	0.9718244
20	0x3f75642f	0.95855993
21	0x3f7bed6e	0.98409164
22	0x3f7643c0	0.9619713
23	0x3f89d03c	1.0766673
24	0x3f819276	1.0122821
25	0x3f7bdda9	0.983851
26	0x3f801794	1.0007195
27	0x3f7a5136	0.9778017
28	0x3f80bc6a	1.00575
29	0x3f796f3b	0.9743535
30	0x3f7d965c	0.99057555
31	0x3f7b822f	0.9824552
32	0x3f7c0494	0.98444486
33	0x3f8285f8	1.0197134
34	0x3f7c3b60	0.985281
35	0x3f7d13d2	0.9885837
36	0x3f7b9cf8	0.9828639
37	0x3f801d08	1.000886
38	0x3f814ea8	1.0102129
39	0x3f862c49	1.0482265
40	0x3f800557	1.000163
41	0x3f797ab7	0.97452873
42	0x3f79c4bc	0.9756582
43	0x3f7e9efa	0.9946133
44	0x3f75a58e	0.9595574
45	0x3f7668a0	0.96253395
46	0x3f7b57b8	0.98180723
47	0x3f845039	1.0336982
48	0x3f812566	1.0089538
49	0x3f8333a3	1.0250133
50	0x3f82c107	1.0215157
51	0x3f843f79	1.033187
52	0x3f7eeaae	0.9957684
53	0x3f7f8db0	0.9982557
54	0x3f7c9a49	0.9867292
55	0x3f7d98ef	0.99061483
56	0x3f7757cf	0.9661836
57	0x3f761907	0.9613194
58	0x3f861161	1.0474054
59	0x3f81dd99	1.0145751
60	0x3f856b97	1.0423459
61	0x3f844298	1.0332823
62	0x3f860744	1.0470967
63	0x3f8014ae	1.0006311
64	0x3f7f1ffc	0.9965818
65	0x3f814d5c	1.0101733
66	0x3f8301e7	1.0234956
67	0x3f81db5e	1.014507
68	0x3f808f57	1.0043744
69	0x3f7d2418	0.988832
70	0x3f7b5e51	0.9819079
71	0x3f77c9e1	0.9679242
72	0x3f7ebad4	0.9950383
73	0x3f8a0402	1.0782473
74	0x3f789d79	0.97115284
75	0x3f7f452b	0.99714917
76	0x3f7779ac	0.9667003
77	0x3f81bca5	1.0135695
78	0x3f7a1930	0.97694683
79	0x3f75fc72	0.96088326
80	0x3f7e75ca	0.9939848
81	0x3f77eaac	0.96842456
82	0x3f7e6d8b	0.993859
83	0x3f80505d	1.0024525
84	0x3f82d93a	1.0222542
85	0x3f7cc966	0.9874481
86	0x3f7fc14e	0.99904335
87	0x3f813db1	1.0096952
88	0x3f822bcb	1.0169615
89	0x3f834fa5	1.025868
90	0x3f822cd5	1.0169932
91	0x3f781779	0.96910816
92	0x3f860817	1.0471219
93	0x3f833f2b	1.0253652
94	0x3f86cac7	1.0530633
95	0x3f74a35e	0.9556178
96	0x3f7c95c6	0.98666036
97	0x3f7b8123	0.9824392
98	0x3f7d8a6f	0.9903936
99	0x3f82884c	1.0197845

classfier.bn1.bias f4 [100]
0	0xbd68311b	-0.056687456
1	0xbda2ccca	-0.07949217
2	0xbcec3c5b	-0.028837373
3	0xbc09f3af	-0.008419915
4	0x3bdd1919	0.0067473766
5	0xbd2d3eeb	-0.04229633
6	0xbd936ed0	-0.0719887
7	0xbdae15e1	-0.08500267
8	0xbd768717	-0.060187425
9	0xbdca1104	-0.09866527
10	0xbdb9ad8b	-0.09066304
11	0xbd934822	-0.071914926
12	0xbd23f577	-0.040029015
13	0x3c9dab03	0.019246584
14	0xbd92e302	-0.071722046
15	0xbd46b673	-0.04851384
16	0xba8b3e85	-0.0010623491
17	0xbcb3b304	-0.021935947
18	0xbcf74157	-0.030182524
19	0xbd5f8318	-0.05456838
20	0xbd160db4	-0.036634162
21	0xbcd0b446	-0.025476586
22	0xbd105c4b	-0.035244267
23	0xbd88060e	-0.0664178
24	0xbdca238f	-0.098700635
25	0xbda852e0	-0.08218932
26	0x3ba7880a	0.0051126527
27	0xbc9e2b1d	-0.019307667
28	0xbd76864d	-0.060186673
29	0xbd5be129	-0.053681526
30	0xbcfcbd3e	-0.030851956
31	0xbcccb990	-0.024990827
32	0xbd4cfefd	-0.050047863
33	0xbcba9d99	-0.022780227
34	0xbc84b629	-0.016200142
35	0xbce65477	-0.028116448
36	0xbd051357	-0.032489147
37	0xbdae8119	-0.08520717
38	0xbdb8fe06	-0.09032826
39	0xbdb26126	-0.08709936
40	0xbd97b743	-0.07408001
41	0xbcc9a945	-0.024616847
42	0xbd744e5a	-0.059645034
43	0xbcaccdb0	-0.021094173
44	0xbd7d6ded	-0.06187241
45	0xbd1fc12a	-0.039002575
46	0xbdab483f	-0.08363389
47	0xbdaa007f	-0.08300876
48	0x3d03fb43	0.032222044
49	0xbd3774f1	-0.04478926
50	0xbd67e020	-0.056610227
51	0xbc7c0397	-0.015381715
52	0xbd6567ed	-0.056007314
53	0xbd96d032	-0.07363929
54	0xbd160301	-0.03662396
55	0xbbf094cc	-0.0073419567
56	0xbd273941	-0.040826086
57	0xbd115dcf	-0.035489853
58	0xbdace804	-0.08442691
59	0xbd24e5af	-0.040258106
60	0xbd6d15ed	-0.05788224
61	0xbd1b1a69	-0.037866984
62	0xbd9a414d	-0.075319864
63	0xbd86a78a	-0.06574924
64	0xbd07f879	-0.033195946
65	0xbcd5b82f	-0.026088802
66	0xbdbdbb28	-0.09264213
67	0xbc3d22ab	-0.01154391
68	0xbc78629c	-0.015160229
69	0xbcb6904e	-0.022285607
70	0xbc98f0e7	-0.018669559
71	0xbcd80cac	-0.02637323
72	0xbd1a9b9a	-0.03774605
73	0x3c855eb5	0.016280511
74	0xbd1024c6	-0.03519132
75	0xbca947cb	-0.020664116
76	0x3c68b56f	0.014203413
77	0x3bbce2e9	0.0057643545
78	0x3c0d822a	0.008636991
79	0xbd39093c	-0.045174822
80	0xbd2cfcaf	-0.042233165
81	0xbca85d4c	-0.0205523
82	0xbcfc57db	-0.030803612
83	0xbc8ae42c	-0.016954504
84	0xbd5e1b40	-0.054225206
85	0xbd9b3db1	-0.07580126
86	0xbcf172c0	-0.029473662
87	0xbd8125e9	-0.06306059
88	0xbcf18c5d	-0.029485876
89	0xbd523220	-0.051317334
90	0xbdc9f5e3	-0.09861352
91	0x3a7a6b9a	0.0009552777
92	0xbdd3adba	-0.1033587
93	0xbd90e616	-0.070751354
94	0xbdb22210	-0.08697903
95	0xbd0c35ac	-0.034230873
96	0xbd824c53	-0.06362214
97	0xbd3fb581	-0.046803955
98	0xbd206d13	-0.03916652
99	0xbc321893	-0.010870117

classfier.bn1.running_mean f4 [100]
0	0x3e3f824b	0.18702047
1	0x3ee33f47	0.44384214
2	0x3f9a3b38	1.2049322
3	0x3fb8a2e3	1.4424709
4	0xbf49eb58	-0.7887473
5	0x3ed1f116	0.41004246
6	0xbd5c17ff	-0.053733822
7	0x3e3c1a68	0.18369448
8	0x3f703ff8	0.9384761
9	0x3d430c3e	0.047619097
10	0xbe86ed13	-0.26352748
11	0x3f8a73f0	1.0816631
12	0x40164e7e	2.3485408
13	0x3f0963c6	0.5366787
14	0x3e911aec	0.28340852
15	0x3f1c3d90	0.61031437
16	0xbeba462d	-0.36381665
17	0x3ea54539	0.32279375
18	0x3f42bcbe	0.7606925
19	0xc0132909	-2.2993796
20	0xc00a4418	-2.160406
21	0x3d9e3277	0.07724469
22	0x3e853508	0.26017022
23	0x3e047bad	0.12937804
24	0xbb7dd358	-0.0038730707
25	0xbe88154a	-0.26578742
26	0x3e391470	0.18074203
27	0xbce1332d	-0.027490223
28	0x3e1454a6	0.14485416
29	0x3ec2e650	0.3806634
30	0xbfb6801e	-1.4257848
31	0x401bd15a	2.4346528
32	0x3b2d2380	0.0026418865
33	0xbfb8b1f5	-1.4429308
34	0xbf94aabe	-1.1614606
35	0xbede24f1	-0.4338756
36	0x3fbceb35	1.475928
37	0xbeb948c7	-0.36188337
38	0xbf5bf5ac	-0.8592174
39	0xbe09e785	-0.13467224
40	0xbd75647b	-0.05991028
41	0x3f7540bb	0.95801896
42	0x3e39b96b	0.18137138
43	0xbe99874e	-0.29986042
44	0x40304324	2.754098
45	0x3fa282d6	1.2696178
46	0xbed2a0da	-0.41138345
47	0xbf8d8b71	-1.1058179
48	0x3f47ce61	0.78049284
49	0x3eb31bc8	0.34982133
50	0xbed630bb	-0.41834053
51	0x3e689ff1	0.22717263
52	0xbf32eba6	-0.6989082
53	0x3daabf83	0.08337309
54	0x3eef161c	0.46696556
55	0xc009836a	-2.1486459
56	0x40596027	3.3964937
57	0x3ffcc986	1.9749
58	0xbd51de17	-0.051237192
59	0x3e9ee589	0.31034496
60	0xbe275d15	-0.16344102
61	0x3e66ec5b	0.225511
62	0xbe978bb4	-0.29598773
63	0xbe387b5e	-0.18015811
64	0xc00621ea	-2.09582
65	0xbf50e65f	-0.8160152
66	0xbe929c44	-0.28634846
67	0xbf2f44cd	-0.68464357
68	0xbf8f83b5	-1.1212069
69	0xbff92d4a	-1.9466946
70	0x3e822b85	0.25423828
71	0x3fa5f318	1.2964811
72	0x401ce4cb	2.4514644
73	0xbdda5654	-0.10660997
74	0x3f943568	1.1578798
75	0xbf0b09f9	-0.5431209
76	0x3ffb7c4c	1.9647307
77	0x3fbef01e	1.4917028
78	0x3fba3519	1.4547454
79	0x3e90a235	0.28248754
80	0xbf3a51d0	-0.72781086
81	0x3f016436	0.50543535
82	0xbf39548b	-0.7239463
83	0xbf668de8	-0.9006028
84	0x3daeaf6d	0.085295536
85	0x3d40fae8	0.047114283
86	0xbf902942	-1.1262591
87	0xbf8e3c16	-1.1112087
88	0xbc0cebd3	-0.008601147
89	0xbe63f99a	-0.22263184
90	0xbedaab34	-0.42708743
91	0x3fa66de6	1.3002288
92	0xbe7acf33	-0.24493103
93	0xbf416713	-0.75547904
94	0xbed3bafe	-0.413536
95	0xbf2b888b	-0.67005223
96	0xbee96910	-0.4558797
97	0x3d498eb9	0.049208377
98	0xbfa758ee	-1.3074014
99	0x3f0b02d3	0.54301184

classfier.bn1.running_var f4 [100]
0	0x3daf8bf5	0.085716166
1	0x3db28f9e	0.08718799
2	0x3e619b92	0.22032002
3	0x3e1856f4	0.1487692
4	0x3db3b887	0.0877543
5	0x3db3a295	0.087712444
6	0x3d2e8c3f	0.042614218
7	0x3dbbacdc	0.0916383
8	0x3e7c9e38	0.2466973
9	0x3d507401	0.05089188
10	0x3da06945	0.078325786
11	0x3e7ea6ce	0.24868318
12	0x3f333901	0.70008856
13	0x3df82908	0.12117201
14	0x3dd2c3b9	0.102912374
15	0x3eb9b850	0.36273432
16	0x3d4ed232	0.050493427
17	0x3d63c23f	0.05560517
18	0x3db9c106	0.090700194
19	0x3f2e4a0d	0.6808174
20	0x3ee35ff3	0.4440914
21	0x3d8539bf	0.06505155
22	0x3dab19ec	0.083545536
23	0x3d1f0c70	0.03883022
24	0x3d8568dc	0.06514141
25	0x3d39d9ba	0.045373656
26	0x3e20d113	0.15704755
27	0x3ebf73a9	0.3739293
28	0x3d86801f	0.06567406
29	0x3e8440b5	0.25830618
30	0x3e7259e8	0.23667109
31	0x3f1dde9a	0.6166779
32	0x3e035763	0.12826304
33	0x3e966f7f	0.2938194
34	0x3dfbaa2e	0.122883186
35	0x3d7a1293	0.06105287
36	0x3eea3010	0.45739794
37	0x3d70846a	0.05872003
38	0x3dbdc6a7	0.092664056
39	0x3d827ea0	0.06371808
40	0x3d64c63d	0.055853117
41	0x3f3f9eec	0.7485187
42	0x3d68f930	0.05687827
43	0x3e2f0707	0.17092524
44	0x3ff59ca0	1.9188423
45	0x3e6ccc6b	0.23124854
46	0x3d6e4688	0.058172733
47	0x3eceb90a	0.4037555
48	0x3d5ab307	0.05339339
49	0x3e2aaab0	0.16666675
50	0x3e5fedbd	0.21868034
51	0x3da67b75	0.08129016
52	0x3e949592	0.29020363
53	0x3d9904a1	0.07471586
54	0x3da361e3	0.07977655
55	0x3eeea7bb	0.46612343
56	0x3f68f90f	0.91005033
57	0x3f35b98f	0.70986265
58	0x3d0cb3fd	0.034351338
59	0x3daf84a7	0.08570223
60	0x3d9c577f	0.07633876
61	0x3d333ced	0.043759275
62	0x3d2e3e21	0.04253972
63	0x3deeaed8	0.116544425
64	0x3fa66735	1.3000246
65	0x3e324f79	0.17413129
66	0x3d5d0d5f	0.05396783
67	0x3eaa0135	0.33204046
68	0x3eb8efd0	0.36120462
69	0x3eac979a	0.33709413
70	0x3df443a7	0.11926966
71	0x3e3448f8	0.1760596
72	0x3fca7200	1.581604
73	0x3c9ec57d	0.01938128
74	0x3ebef639	0.37297228
75	0x3e47bbe9	0.19505276
76	0x3f27152f	0.652667
77	0x3e1b3cec	0.15159959
78	0x3e11b760	0.14230108
79	0x3db03271	0.08603371
80	0x3ecab065	0.39587703
81	0x3d8a9867	0.0676735
82	0x3e928cc5	0.28623024
83	0x3e2b78d9	0.16745318
84	0x3ce20a97	0.02759294
85	0x3ded5f27	0.115904145
86	0x3e0e6e5c	0.13909286
87	0x3e21ca0e	0.15799734
88	0x3daa1570	0.0830487
89	0x3ecdabdc	0.4017018
90	0x3d93f7ca	0.072249964
91	0x3ec03850	0.37542963
92	0x3d9151f7	0.07095712
93	0x3e909069	0.28235176
94	0x3d97f8c4	0.07420495
95	0x3ef05e73	0.4694706
96	0x3e8557f9	0.2604368
97	0x3d75991b	0.059960466
98	0x3e832744	0.25615895
99	0x3dd034f7	0.10166352

classfier.fc2.weight f4 [50, 100]
0	0x3d66ab99	0.056315992
1	0xbd16e5b2	-0.03684015
2	0xbc1daa99	-0.009623193
3	0x3d9179a3	0.071032785
4	0xbd8e6d55	-0.06954447
5	0xbdd39ec6	-0.10333018
6	0x3ce59ec1	0.028029801
7	0x3da9749a	0.08274193
8	0x3c7be745	0.015374963
9	0x3cf49811	0.029857667
10	0xbdb80384	-0.089850456
11	0xbda1b86b	-0.07896503
12	0xbd961917	-0.07329004
13	0x3d84646d	0.06464467
14	0x3d8d752c	0.069071144
15	0x3d112502	0.035435684
16	0x3cde11b6	0.027108055
17	0xbb7c0e1b	-0.0038460556
18	0xbc029736	-0.007970622
19	0x3d29233c	0.041293368
20	0x3d6bcf30	0.057570636
21	0x3d268bb6	0.040660582
22	0xb88aa3ad	-6.61084e-05
23	0x3c541ac5	0.0129458355
24	0x3c6dd834	0.014516879
25	0xbd0f611c	-0.03500472
26	0x3d72a58f	0.05923992
27	0xbcaa310f	-0.020775346
28	0x3d9935f7	0.07480996
29	0x3b8b746a	0.004255821
30	0xbcc10ffe	-0.023567196
31	0xbdceea0b	-0.10103234
32	0x3d914943	0.07094052
33	0xbc0050f3	-0.0078318
34	0x3d25853e	0.040410273
35	0x3d8c2530	0.068430305
36	0x3d2a6e80	0.041609287
37	0x3bf19ce5	0.0073734396
38	0x3c293713	0.010328072
39	0x3db08ebb	0.08620974
40	0xbdc58441	-0.09644366
41	0xbd6df78a	-0.0580974
42	0x3da369ec	0.07979187
43	0xbb834d50	-0.004007019
44	0xbbf81ea6	-0.007572013
45	0xbc0ae34a	-0.0084770415
46	0x3d4bb235	0.0497305
47	0xbda196d5	-0.07890097
48	0x3cf38dc3	0.029730683
49	0xbd9ebfff	-0.07751464
50	0xbc89a2fb	-0.016801348
51	0xbbb81d9a	-0.005618763
52	0xbd32f2e4	-0.04368867
53	0x3daf93e2	0.08573128
54	0x3c18858d	0.009309185
55	0x3847c660	4.763005e-05
56	0xbd85981d	-0.06523154
57	0xbbd70072	-0.0065613324
58	0xbdd99554	-0.10624185
59	0x3c1e22b9	0.009651833
60	0x3d92301f	0.071380846
61	0xbdcb25fd	-0.09919355
62	0xbcd366f1	-0.025805922
63	0x3d4f1457	0.050556507
64	0xbc8f6c39	-0.01750766
65	0x3da74027	0.08166533
66	0x3c45ebb9	0.012080126
67	0xbbcf422a	-0.006325026
68	0x3dabb7ae	0.083846435
69	0xbcfbacf3	-0.030722117
70	0xbc461e5d	-0.0120922
71	0x3d84d157	0.06485241
72	0xbd51b1cf	-0.051194962
73	0xbe0b79cb	-0.13620679
74	0xbcf6afa9	-0.030113058
75	0xbd5cb702	-0.053885467
76	0xbd073f35	-0.033019263
77	0x3d11cccb	0.035595696
78	0xbcd30143	-0.025757438
79	0xbd8f64d4	-0.07001653
80	0x3d8609d3	0.065448426
81	0x3ce1e483	0.027574783
82	0xb92bbdac	-0.00016378489
83	0xbd5f38ef	-0.054497655
84	0xbd3dd716	-0.0463477
85	0x3dbd2cae	0.092370376
86	0xbd812004	-0.063049346
87	0xbcd6f760	-0.026241004
88	0xbd8059f0	-0.06267154
89	0x3d98be25	0.07458142
90	0x3d11b648	0.035574228
91	0x3d4c57cf	0.04988843
92	0x3dc3091f	0.09523224
93	0x3b923bc2	0.00446269
94	0x3da31687	0.07963281
95	0xbc8e25e2	-0.017352048
96	0x3b8b9b81	0.004260481
97	0xbd0e2085	-0.03469898
98	0x3d319545	0.043355245
99	0x3d0b33ba	0.033984877
100	0xbd228304	-0.039675727
101	0xbd6d3d1e	-0.057919614
102	0xbd696fb4	-0.056991294
103	0x3cd72a04	0.026265152
104	0xbd3a618c	-0.045503184
105	0xbdb99c52	-0.09063019
106	0x3df9a0f0	0.121888995
107	0x3d24769b	0.040152173
108	0xbd09f121	-0.033677224
109	0xbd02a18a	-0.031892337
110	0x3c050a54	0.008120138
111	0x3d9edecf	0.07757341
112	0xbda92aab	-0.082600914
113	0xbda32c2a	-0.07967408
114	0x3d7ccbae	0.06171768
115	0x3d776dba	0.060407378
116	0xbcee2da8	-0.029074505
117	0x3d1ba562	0.03799952
118	0xbd930142	-0.07177974
119	0x3de72a25	0.11287335
120	0x3d2bce3e	0.041944735
121	0xbdcbf94e	-0.099596605
122	0x3d14ce8f	0.036329802
123	0x3d801165	0.06253318
124	0x3db3fbf3	0.0878829
125	0x3d0f1f1c	0.034941778
126	0xbcae0fbc	-0.021247737
127	0xbda4d787	-0.08048921
128	0xbd278969	-0.04090253
129	0xbcfa7a2f	-0.03057584
130	0x3d806ffe	0.06271361
131	0x3c823d5f	0.015898405
132	0xbd3f2099	-0.046661947
133	0xbd0ede00	-0.034879684
134	0x3da1baec	0.07896981
135	0xbdc7f0dc	-0.09762737
136	0x3d1347bf	0.035957094
137	0x3d05098b	0.032479804
138	0x3d76b971	0.060235444
139	0xbdb2135a	-0.08695097
140	0xbdbc92a3	-0.09207656
141	0xbdb38169	-0.087649174
142	0x3bfb1021	0.007661835
143	0xbc4c9cfa	-0.012488598
144	0x3d0c04a8	0.034184128
145	0xbda0e2bc	-0.07855746
146	0xbc3eb748	-0.011640377
147	0x3dd9c8f4	0.10634032
148	0xbd9220f1	-0.07135189
149	0xbd59b05b	-0.0531467
150	0xbd7387d8	-0.059455723
151	0xbd24fa6b	-0.04027788
152	0xbd487eb7	-0.04894897
153	0xbd4ee6c2	-0.050513037
154	0x3d0260f4	0.031830743
155	0x3e19214d	0.1495411
156	0xbc1afd29	-0.009459772
157	0xbd4d2574	-0.050084546
158	0xbd6cc25a	-0.057802536
159	0xbdc20c87	-0.09475046
160	0xbda0f583	-0.07859328
161	0xbd64760e	-0.05577665
162	0x3d4673de	0.048450343
163	0x3bd3b25a	0.00646047
164	0x3db0ef8e	0.086394414
165	0x3d464019	0.048400972
166	0x3dbf00f1	0.093263514
167	0x3de0a731	0.10969389
168	0x3b85981a	0.00407697
169	0x3d78da4c	0.06075506
170	0xbd610aad	-0.05494182
171	0xbc7ed127	-0.0155527955
172	0xbcb63e7b	-0.02224659
173	0x3e063924	0.13107735
174	0xbc853eab	-0.016265234
175	0x3d9d870f	0.07691776
176	0x3cea53b2	0.028604362
177	0xbdd25fee	-0.102722034
178	0x3ce79ea0	0.02827388
179	0xbc3bee2d	-0.01147036
180	0x3d27f42a	0.041004337
181	0xbcb6dfbc	-0.022323482
182	0x3c23b02d	0.009990734
183	0x3d666c5e	0.05625569
184	0xbd03f99d	-0.03222047
185	0xbd9f68ea	-0.07783683
186	0x3d8e8d91	0.069605954
187	0x3d951b88	0.07280642
188	0x3d348564	0.044072524
189	0xbc2e04cc	-0.010621261
190	0x3d3055de	0.04305064
191	0xbcf82a72	-0.030293677
192	0x3cb03cd0	0.021513373
193	0x3d578d99	0.052625272
194	0x3a9eb60f	0.0012108701
195	0xbcdd2239	-0.026993858
196	0xbd4502be	-0.04809832
197	0x3c25c4ec	0.010117751
198	0x3d62c98a	0.055367984
199	0x3ca61960	0.020275772
200	0xbd0a1198	-0.033708185
201	0x3d9fd70f	0.07804691
202	0xbd10e4e5	-0.03537454
203	0x3a0272b0	0.0004976196
204	0x3db710bc	0.08938739
205	0x3c730a2a	0.014833966
206	0x3dc6fe87	0.09716516
207	0x3d00bced	0.031430174
208	0x3db71325	0.089391984
209	0x3e01c437	0.12672506
210	0xbcb9bf9c	-0.022674374
211	0x3db85157	0.08999889
212	0x3dd5e17c	0.10443398
213	0xbd2f1f82	-0.042754658
214	0x3cab8666	0.02093811
215	0x3d0fe473	0.035129976
216	0x3d31fcd4	0.043454006
217	0x3de15864	0.11003187
218	0xbd5d4f81	-0.0540309
219	0x3df6b75f	0.12046694
220	0xbd001ef0	-0.031279504
221	0x3dcd38cd	0.100205995
222	0xbd1cbdbb	-0.03826688
223	0xbd5950a9	-0.05305544
224	0xbd917f04	-0.071043044
225	0x3ccb8da3	0.024847811
226	0xbcc99553	-0.024607336
227	0x3cd13220	0.025536597
228	0xbda320d6	-0.07965247
229	0xbdacd436	-0.084389135
230	0x3d0969fb	0.033548336
231	0x3d6ceb30	0.05784148
232	0x3c5b5107	0.013386018
233	0x3d7de07e	0.06198167
234	0xbbd2133d	-0.006410985
235	0x3a43e415	0.00074726465
236	0x3cd89125	0.026436398
237	0x3d0e3615	0.034719545
238	0x3d8493ce	0.06473504
239	0x3d646cfc	0.055767998
240	0xbd7edbcd	-0.062221337
241	0xbda5024f	-0.08057081
242	0xbda848e9	-0.082170315
243	0xbd912b13	-0.07088294
244	0xbd86154b	-0.0654703
245	0x3bed3dd8	0.0072400384
246	0xbd31c797	-0.043403234
247	0xbc952904	-0.018208034
248	0x3d8801a9	0.06640942
249	0x3d9bbeeb	0.07604774
250	0x3ce96e81	0.028495075
251	0xbcc97d9c	-0.024596028
252	0x3dda188d	0.10649214
253	0x3d46f666	0.048574828
254	0xbda0f8d4	-0.0785996
255	0x3d4c5e02	0.04989434

classfier.fc2.bias f4 [50]
0	0xbda29426	-0.07938413
1	0x3c8f71d6	0.017510336
2	0xbd6a7c45	-0.05724742
3	0x3dc7cf66	0.09756355
4	0xbb2372e9	-0.0024940318
5	0x3d87508b	0.06607159
6	0xbd9ba198	-0.07599181
7	0xbd82411c	-0.06360075
8	0x3c998650	0.018740803
9	0x3dafe476	0.08588497
10	0x3d1cdbb7	0.038295474
11	0xbb0ca830	-0.0021462552
12	0xbd39c17a	-0.04535053
13	0xbd5f4aa1	-0.05451453
14	0x3d01ea39	0.031717513
15	0xbd5be477	-0.053684678
16	0x3b888a3f	0.004166871
17	0xbdaef218	-0.085422695
18	0x3da8ef90	0.08248818
19	0x3d28efe2	0.041244395
20	0x3c783cd5	0.015151222
21	0xbd8989b4	-0.06715718
22	0xbda70c76	-0.081566736
23	0xbda1c26b	-0.078984104
24	0xbdb3df52	-0.08782829
25	0x3d9bcfb6	0.07607977
26	0x3c5290da	0.012851918
27	0x3d8a7a09	0.067615576
28	0x39689a10	0.00022182637
29	0x3d499d8c	0.049222514
30	0x3d1d2ca6	0.03837266
31	0xbce74786	-0.028232347
32	0xbd9c2f73	-0.07626238
33	0x3da620df	0.081117384
34	0x3d82ea29	0.06392319
35	0x3d9eeb70	0.0775975
36	0x3da6ad88	0.08138567
37	0x3da9cb84	0.08290771
38	0xbda0f27c	-0.0785875
39	0x3d634733	0.055487823
40	0x3d989a7a	0.07451339
41	0x3cb0c524	0.021578379
42	0x3d566d62	0.05235041
43	0xbd9c12e8	-0.076207936
44	0x3da2042b	0.07910951
45	0x3cb3fbf4	0.021970727
46	0xbd8312ab	-0.06400045
47	0xbdca32aa	-0.09872945
48	0x3c87d7ea	0.016582448
49	0x3d672b63	0.05643786

classfier.bn2.weight f4 [50]
0	0x3f713d70	0.9423437
1	0x3f8f2fb3	1.1186432
2	0x3f72eb9f	0.9489078
3	0x3f7b4d39	0.9816471
4	0x3f71142e	0.94171417
5	0x3f7cc119	0.98732144
6	0x3f895d2a	1.0731556
7	0x3f7dae93	0.99094504
8	0x3f763027	0.96167225
9	0x3f7d2ab7	0.988933
10	0x3f736708	0.9507909
11	0x3f72f3d4	0.949033
12	0x3f75f47f	0.96076196
13	0x3f85d507	1.0455636
14	0x3f85b172	1.0444777
15	0x3f7af44f	0.98029035
16	0x3f87eaf7	1.061858
17	0x3f78b0c8	0.97144747
18	0x3f74a5de	0.95565593
19	0x3f849548	1.0358057
20	0x3f87cc9f	1.060932
21	0x3f811b2a	1.0086415
22	0x3f7a0838	0.9766879
23	0x3f8552d1	1.0415899
24	0x3f76bb55	0.96379596
25	0x3f8714d3	1.055323
26	0x3f827b30	1.0193844
27	0x3f8b16ad	1.0866295
28	0x3f897f5b	1.0741991
29	0x3f7c25e5	0.9849532
30	0x3f7b8363	0.98247355
31	0x3f7c99fb	0.98672456
32	0x3f76a79f	0.9634952
33	0x3f77f6ee	0.9686116
34	0x3f7452ba	0.9543873
35	0x3f71e007	0.94482464
36	0x3f89a721	1.0754129
37	0x3f876826	1.0578659
38	0x3f86504c	1.0493255
39	0x3f738b1e	0.9513415
40	0x3f6ff3fa	0.93731654
41	0x3f73edcd	0.9528473
42	0x3f715fd8	0.9428687
43	0x3f75d68e	0.9603051
44	0x3f772cae	0.9655255
45	0x3f7a1048	0.97681093
46	0x3f73facf	0.9530458
47	0x3f79b470	0.9754095
48	0x3f7cd231	0.98758227
49	0x3f80efd8	1.0073195

classfier.bn2.bias f4 [50]
0	0xbd4a4a84	-0.04938747
1	0x3db4ba21	0.08824564
2	0xbd3849ad	-0.044992138
3	0xbd3bd60b	-0.045858424
4	0xbd5e0eea	-0.054213442
5	0xbca81d27	-0.020521713
6	0x3d65270c	0.05594544
7	0xbc2a11a1	-0.01038018
8	0xbcb7448f	-0.022371558
9	0x3cfd78ff	0.030941484
10	0xbd1e6076	-0.03866621
11	0x3be04a9a	0.0068448307
12	0xbd865c7a	-0.06560607
13	0xbd83906c	-0.06424031
14	0xbd201556	-0.039082848
15	0x3d5100e8	0.051026255
16	0xbd9a9d3c	-0.07549521
17	0xbd126493	-0.035740446
18	0xbda6a3d7	-0.08136719
19	0xbd97e52e	-0.074167594
20	0xbd8277a8	-0.06370479
21	0x3c89de95	0.016829768
22	0xbcf7310d	-0.030174756
23	0x3c8e7e76	0.017394286
24	0xbcc2697b	-0.023731938
25	0xbda97dce	-0.082759485
26	0x3d984c28	0.07436401
27	0xbd47e97c	-0.048806652
28	0xbd823ec6	-0.06359629
29	0xbc14155f	-0.009038298
30	0x3af32d29	0.0018552887
31	0xbda91af8	-0.08257097
32	0xbd818df0	-0.063259006
33	0xbb6c382c	-0.0036044223
34	0xbd9263f2	-0.07147969
35	0xbd78fa06	-0.060785316
36	0x3d75a54a	0.059972085
37	0xbd846eb3	-0.06466427
38	0xbd21040d	-0.039310504
39	0xbd366a92	-0.044535227
40	0xbdac8be5	-0.0842512
41	0xbd3a556c	-0.04549162
42	0xbd9638ca	-0.073350504
43	0xbd948778	-0.07252401
44	0xbd226f7d	-0.039657105
45	0xbd831426	-0.064003274
46	0xbd446449	-0.047947202
47	0xbc8780d8	-0.01654093
48	0x3b5d0f3a	0.0033731
49	0xbd5506d0	-0.05200845

classfier.bn2.running_mean f4 [50]
0	0x3b8112ab	0.003938993
1	0x3bc4df1e	0.006008043
2	0x3e736ad7	0.23771225
3	0x3e61ebdc	0.2206263
4	0x3e099dd4	0.13439113
5	0x3e2c7e6f	0.16845106
6	0xbecb377e	-0.39690775
7	0xbeabeb80	-0.3357811
8	0xbf0497b2	-0.5179397
9	0xbeae8891	-0.34088567
10	0x3e0159eb	0.12631957
11	0x3d7cbc95	0.061703283
12	0x3ef6ee65	0.48228756
13	0x3f090113	0.53517264
14	0x3f19700a	0.59936583
15	0xbf124e81	-0.5715104
16	0x3f2bbd3e	0.67085636
17	0xbec6978b	-0.38787493
18	0x3f403787	0.7508473
19	0x3f07fb9d	0.53118306
20	0x3f2eb61f	0.68246645
21	0xbe8a29eb	-0.26985106
22	0x3e56c9f6	0.2097548
23	0xbe97e0ae	-0.29663604
24	0xbec5e85e	-0.38653845
25	0x3f3558a4	0.7083838
26	0xbed7d71a	-0.42156297
27	0x3f5abba7	0.85442585
28	0x3f27dc6d	0.6557072
29	0x3dc5f9dd	0.09666798
30	0x3e93da7e	0.28877634
31	0x3edd34f7	0.4320447
32	0x3f319bc3	0.693783
33	0xbeb118f8	-0.34589362
34	0x3ea48625	0.32133594
35	0x3dcbd397	0.09952467
36	0xbde149da	-0.11000414
37	0x3f194000	0.5986328
38	0x3f18304b	0.5944869
39	0xbf22c513	-0.6358196
40	0x3efb665e	0.49101537
41	0x3e017baa	0.1264483
42	0x3ec1ff12	0.37889916
43	0x3dddc948	0.10829407
44	0x3c936c0d	0.017995859
45	0x3eb78c68	0.3584931
46	0xbd9b91e6	-0.07596187
47	0xbefbc587	-0.4917414
48	0x3dbc50fd	0.09195135
49	0x3ea2d164	0.31800377

classfier.bn2.running_var f4 [50]
0	0x3e624e5c	0.22100204
1	0x3eb856e4	0.36003792
2	0x3e576b26	0.21036968
3	0x3e820c0a	0.2539981
4	0x3e2ee0da	0.17077962
5	0x3e663bd2	0.22483757
6	0x3ec4f491	0.3846784
7	0x3e8d95fb	0.2765349
8	0x3f46c709	0.77647454
9	0x3e9c2662	0.30498034
10	0x3e3ad748	0.18246186
11	0x3e8c1cc7	0.27365705
12	0x3e874b33	0.2642456
13	0x3e89bcd3	0.26901874
14	0x3eb0a287	0.34499
15	0x3eee490d	0.46540108
16	0x3ed97427	0.4247143
17	0x3e71cd14	0.23613387
18	0x3eabc8ea	0.33551723
19	0x3e9896fd	0.29802695
20	0x3e952360	0.2912855
21	0x3e9b9100	0.30384064
22	0x3edf53da	0.4361866
23	0x3e85133e	0.25991243
24	0x3e54001c	0.20703167
25	0x3ed4b61c	0.41545188
26	0x3ec2408c	0.3793987
27	0x3ee6bbf4	0.45065272
28	0x3eb1892e	0.34674972
29	0x3e8a8b12	0.27059227
30	0x3e661bf7	0.22471605
31	0x3e969ebd	0.29417983
32	0x3e9cd7de	0.30633444
33	0x3e9357ee	0.28778023
34	0x3e7e83c7	0.24854957
35	0x3ec0ac74	0.3763157
36	0x3e8fd81a	0.2809456
37	0x3eb3d249	0.35121372
38	0x3ea97448	0.33096528
39	0x3f22ba5b	0.63565606
40	0x3e85d0c2	0.26135832
41	0x3e7b9587	0.24568759
42	0x3e9502cc	0.29103696
43	0x3e559b06	0.20859918
44	0x3e83ce34	0.25743258
45	0x3e9073e3	0.28213415
46	0x3edfe694	0.43730605
47	0x3ec7949b	0.38980564
48	0x3e8a8694	0.270558
49	0x3e71f5e3	0.23628955

classfier.fc3.weight f4 [25, 50]
0	0xbd8ba3d2	-0.068183556
1	0xbcabd992	-0.020977769
2	0xbd4bf5ae	-0.049794845
3	0x3d91ad9b	0.07113191
4	0xbdc02a88	-0.09383112
5	0xbda31207	-0.07962423
6	0xbdd20e17	-0.10256594
7	0xbdd4fddc	-0.10399982
8	0x3b1249c1	0.0022321793
9	0x3c9c54dd	0.019083435
10	0xbbf30277	-0.0074160653
11	0x3d73cb8b	0.059520286
12	0xbc82f74a	-0.015987057
13	0x3d4e3852	0.05034668
14	0x3da658dc	0.08122417
15	0xbd8de4a8	-0.06928378
16	0x3e385c65	0.18003996
17	0xbd858480	-0.06519413
18	0xbd70d22e	-0.058794193
19	0x3b98c388	0.004661981
20	0x3af56087	0.0018720784
21	0xbd2cc931	-0.04218406
22	0x3e08bb0b	0.13352601
23	0xbb23ec89	-0.0025012812
24	0xbd9e1cfd	-0.07720373
25	0x3d83cfca	0.06436117
26	0x3c5aa420	0.0133447945
27	0x3e3db02c	0.18524235
28	0x3e306ec6	0.17229757
29	0xbdad98a7	-0.08476382
30	0x3cab436f	0.020906178
31	0x3ce4e875	0.027942875
32	0x3e38bc6c	0.18040627
33	0xbcb40e01	-0.021979334
34	0x3e095075	0.13409598
35	0xbd79930f	-0.06093126
36	0x3b99e220	0.0046961457
37	0x3c24becd	0.010055256
38	0x3ce9b726	0.028529715
39	0x3dc64716	0.09681527
40	0x3e071092	0.13189915
41	0xbc9c34ec	-0.019068204
42	0xbacbacca	-0.0015539166
43	0x3df3ce09	0.119045325
44	0xbd9ab84d	-0.07554684
45	0xbaa315b4	-0.0012442381
46	0x3de15a20	0.11003518
47	0x3ad4494e	0.0016196163
48	0xbd31b710	-0.043387473
49	0x3d11ce6d	0.035597254
50	0xbe0ad98b	-0.13559549
51	0xbe0e500f	-0.13897727
52	0xbd40cc3c	-0.047069773
53	0x3d0d916d	0.034562517
54	0xbd7723b0	-0.06033677
55	0xbdd34d1c	-0.10317442
56	0xbc5d88fd	-0.01352143
57	0x3e3035c6	0.17208013
58	0x3d9df09a	0.07711907
59	0xbd6e86e6	-0.058234118
60	0x3d9d7519	0.0768835
61	0xbdad8116	-0.08471887
62	0xbc651daa	-0.013984123
63	0x3d2a91b4	0.04164286
64	0xbe2cbf9e	-0.16869971
65	0xbd226a29	-0.039652023
66	0xbe1bb8f6	-0.15207276
67	0x3dff4bc6	0.124656245
68	0xbced9397	-0.02900104
69	0x3b5cce8c	0.0033692447
70	0xbe06bac7	-0.13157187
71	0xbdc66369	-0.0968693
72	0x3da8bbac	0.082389206
73	0x3dbdaa3d	0.09260986
74	0x3cd8e1e8	0.026474908
75	0xbd4094c8	-0.04701689
76	0x3ddf630e	0.10907565
77	0xbe1e237f	-0.15443228
78	0xbd2d8312	-0.042361327
79	0x3deba1fd	0.11505506
80	0x3dbcde8e	0.092221364
81	0xbd55d75e	-0.052207343
82	0x3db103b4	0.086432844
83	0xbddb0db5	-0.10695974
84	0x3c0e1a1d	0.008673218
85	0x3b66b604	0.0035203705
86	0x3e610379	0.21973981
87	0x3da899e2	0.08232476
88	0x3c574853	0.013139802
89	0x3e1ea029	0.15490784
90	0x3bb3be50	0.0054853335
91	0x3dcc8e93	0.099881314
92	0xbcc02fb9	-0.023460256
93	0xbe073f19	-0.13207664
94	0x3dc20f3a	0.094755605
95	0x3d0f5bf3	0.0349998
96	0x3d7dc40b	0.06195454
97	0xbe16a838	-0.14712608
98	0xbdfa0712	-0.1220838
99	0xbd3dd7c5	-0.046348352
100	0x3d8f37b6	0.06993048
101	0x3ce777f3	0.028255438
102	0x3c5ea620	0.013589412
103	0x3c2fa4c9	0.01072044
104	0x3d034fc4	0.032058492
105	0xbb3abe49	-0.0028494766
106	0xbd461512	-0.048359938
107	0xbd8065f0	-0.06269443
108	0xbd95289a	-0.07283135
109	0xbdb03ba5	-0.08605126
110	0x3cb655ff	0.022257803
111	0x3d4f42ca	0.050600804
112	0x3e1ced6c	0.15324944
113	0x3e118686	0.14211473
114	0xbc15e8e3	-0.009149763
115	0xbd3ad285	-0.045610923
116	0x3e1f9e2e	0.15587685
117	0x3a996eb0	0.0011705961
118	0xbd8da06c	-0.06915364
119	0x3da6926f	0.08133399
120	0x3db01cd1	0.08599246
121	0xbd5c78a0	-0.053825974
122	0x3df954f5	0.121744074
123	0xbd6863a0	-0.056735635
124	0xbcedfca3	-0.02905113
125	0xbc594f60	-0.013263553
126	0xbdc2fe33	-0.09521141
127	0x3e260457	0.16212593
128	0x3c7dd64f	0.01549299
129	0x3db0b22c	0.086277336
130	0xbc7d67c0	-0.01546663
131	0x3d27a15a	0.04092536
132	0x3c0cb7fa	0.008588785
133	0x3c4e7a69	0.012602427
134	0x3d659903	0.056054126
135	0x3d982126	0.074281976
136	0xbdc75c71	-0.09734429
137	0x3e3696ab	0.17830913
138	0x3c971bc4	0.018445857
139	0x3db58a87	0.088643126
140	0x3d99f1a8	0.075167954
141	0x3df327cc	0.11872825
142	0xbc02b3f9	-0.007977479
143	0xbd0d3a55	-0.034479458
144	0x3b6c01e5	0.0036011871
145	0x3e05944d	0.13044854
146	0x3dd1329f	0.10214733
147	0x3c08c6ba	0.008348161
148	0xbdafc4db	-0.08582469
149	0xbd27530f	-0.040850695
150	0xbe0ea9a4	-0.139319
151	0x3deda3e2	0.11603524
152	0xbcfa77e1	-0.03057474
153	0xbd2c6c74	-0.042095616
154	0x3d934b00	0.071920395
155	0xbdd0c6ab	-0.10194143
156	0xbc356be9	-0.011073091
157	0x3d8b769b	0.068097316
158	0xbc9b7c6e	-0.018980231
159	0xbd1bff74	-0.038085416
160	0xbd1b919d	-0.037980665
161	0xbe2446b3	-0.16042595
162	0x3d589990	0.052880824
163	0xbe1367d3	-0.14395075
164	0x3c986688	0.018603578
165	0xbe1398a8	-0.14413702
166	0xbdd30b06	-0.10304837
167	0xbce3c638	-0.027804479
168	0xbe0e6202	-0.13904575
169	0x3cd0cdd1	0.025488766
170	0xbdde08be	-0.10841511
171	0xbda5c2f1	-0.08093823
172	0xbdc21519	-0.0947668
173	0xbb0f2b78	-0.0021845978
174	0x3cb1f8bc	0.021725051
175	0x3cd453f4	0.025918938
176	0xbdbbf3c9	-0.09177358
177	0xbb502953	-0.0031762912
178	0xbe17b248	-0.14814103
179	0xbc5ce2c0	-0.013481796
180	0xbe1ff1d9	-0.15619601
181	0xbdc0c37c	-0.09412286
182	0xbcfd749b	-0.03093939
183	0xbddfb36e	-0.10922895
184	0xbbbd74c6	-0.0057817427
185	0xbdbb4b37	-0.091452055
186	0xbce17de3	-0.027525848
187	0xbd27f8ca	-0.041008748
188	0xbdfd6368	-0.12372476
189	0xbdc5a66f	-0.09650885
190	0xbd5c0b44	-0.05372168
191	0x3d86a862	0.06575085
192	0xbda5973a	-0.08085485
193	0xbde87cf8	-0.11351961
194	0x3d8d8e68	0.069119275
195	0x3ba3fe83	0.0050047054
196	0xbe315759	-0.17318477
197	0x3c8e9918	0.017406985
198	0xbe2ffffd	-0.17187496
199	0x3d2ba2ea	0.041903414
200	0x3d265358	0.040606827
201	0xbc96fe3c	-0.018431775
202	0xbc8e2cdb	-0.017355373
203	0x3e0a36d6	0.13497481
204	0xbd632386	-0.0554538
205	0xbdc98394	-0.0983955
206	0x3d87e5ed	0.06635652
207	0xbd295dd8	-0.041349262
208	0xbdb91751	-0.090376504
209	0xbc87afb2	-0.01656327
210	0xbdad89a7	-0.08473521
211	0xbd2f85e2	-0.04285229
212	0xbd7c937d	-0.061664093
213	0x3e24971e	0.16073272
214	0x3d1cd764	0.03829135
215	0xbdbb1954	-0.0913569
216	0xbc0f3f0d	-0.00874306
217	0x3b7ab72e	0.0038256156
218	0x3e165f81	0.1468487
219	0x3e3b8433	0.18312149
220	0x3ddefd2e	0.10888134
221	0xbda85a92	-0.082204
222	0xbd07085c	-0.032966956
223	0x3d10a686	0.03531506
224	0xbd117529	-0.035512123
225	0x3c4c8de3	0.012485
226	0x3b709ac8	0.003671335
227	0x3bb51e00	0.005527258
228	0x3e1c3d83	0.1525784
229	0x3d2ba3b6	0.041904174
230	0x3d975620	0.07389474
231	0x3c8a38ce	0.01687279
232	0xbd2131e8	-0.039354235
233	0xbd5cd298	-0.053911775
234	0x3dc9c139	0.098513074
235	0x3d92c2bc	0.07166049
236	0x3d602de6	0.054731272
237	0x3e1e44d1	0.15455939
238	0x3cab77cf	0.020931153
239	0xbd9fa81e	-0.07795738
240	0xbc6bf5a3	-0.014401826
241	0x3de66e4d	0.11251507
242	0x3d017818	0.03160867
243	0x3d242e83	0.04008342
244	0xbde52bb2	-0.11189975
245	0x3dc9b4ec	0.09848961
246	0x3c153460	0.009106725
247	0xbda0447e	-0.07825564
248	0xbd97b7cc	-0.07408103
249	0x3e1f12e6	0.15534553
250	0x3d2e0f93	0.04249532
251	0xbe38c67d	-0.18044467
252	0x3d0e8cb8	0.03480217
253	0x3d54d606	0.05196192
254	0xbd00bcde	-0.031430118
255	0xbe017247	-0.1264125

classfier.fc3.bias f4 [25]
0	0xbd61acb6	-0.05509635
1	0xbe00e30d	-0.12586613
2	0xbb6c634a	-0.0036069923
3	0x3c50c72c	0.012742799
4	0x3e067cad	0.13133498
5	0xbbf4940b	-0.007463937
6	0x3df09769	0.11747629
7	0xbd1ab99a	-0.03777466
8	0xbd982c9e	-0.07430385
9	0xbd96c2ea	-0.07361396
10	0x3d86b92c	0.065782875
11	0xbcd6393b	-0.026150336
12	0xbd2d2be7	-0.042278197
13	0x3c7b56ec	0.015340548
14	0xbdb0c31d	-0.08630965
15	0x3d885fad	0.06658874
16	0xb9de7a3d	-0.00042434214
17	0xbd059e41	-0.032621626
18	0x3de90443	0.11377766
19	0xbd7ee1a1	-0.062226895
20	0x3c3a4af7	0.011370412
21	0xbb9942ea	-0.004677166
22	0xbd3f5908	-0.046715766
23	0xbdd1e0e7	-0.10247975
24	0x3df66a72	0.120320216

classfier.bn3.weight f4 [25]
0	0x3f8055aa	1.0026143
1	0x3f86155f	1.0475272
2	0x3f830eab	1.0238851
3	0x3f93143a	1.1490548
4	0x3f7f0676	0.99619234
5	0x3f95a63e	1.1691358
6	0x3f91d144	1.1391988
7	0x3f948d1e	1.1605566
8	0x3f84c2d9	1.0371963
9	0x3f82bc83	1.0213779
10	0x3f85c1da	1.0449784
11	0x3f979ffb	1.1845697
12	0x3f973cb9	1.1815406
13	0x3f81b74d	1.0134064
14	0x3f938601	1.152527
15	0x3f84e293	1.0381645
16	0x3f936806	1.151612
17	0x3f96ade9	1.1771823
18	0x3f965274	1.1743913
19	0x3f936f4c	1.151834
20	0x3f82e868	1.0227175
21	0x3f82fc70	1.0233288
22	0x3f84d25e	1.0376699
23	0x3f7c86b6	0.9864305
24	0x3f948ba0	1.160511

classfier.bn3.bias f4 [25]
0	0xbd622f8a	-0.055221118
1	0x3d768822	0.06018842
2	0xbd5e65ad	-0.054296184
3	0x3e1bbb69	0.1520821
4	0xbd6b5431	-0.057453338
5	0x3e2c75d4	0.16841823
6	0x3e14c96a	0.14529958
7	0x3e253571	0.16133668
8	0xbd53f444	-0.05174662
9	0xbd4c34f6	-0.049855195
10	0xbd471f97	-0.04861411
11	0x3e3bf05f	0.18353413
12	0x3e3ee653	0.18642549
13	0xbd4f3820	-0.050590634
14	0x3e19a274	0.15003377
15	0xbd4714ff	-0.048604008
16	0x3e1f8f1c	0.15581936
17	0x3e38f74f	0.1806309
18	0x3e36a984	0.17838103
19	0x3e1efcd8	0.1552614
20	0xbd5b331a	-0.05351553
21	0xbd4c0b84	-0.04981567
22	0xbd462d6f	-0.048383173
23	0xbcaeffb2	-0.02136216
24	0x3e1f63e5	0.1556545

classfier.bn3.running_mean f4 [25]
0	0x3e2b39f1	0.16721322
1	0xbe459148	-0.19293702
2	0x3eb34903	0.3501664
3	0xbf4257c4	-0.7591517
4	0x3edde045	0.43335167
5	0xbf2ea114	-0.68214536
6	0xbeb66670	-0.3562503
7	0xbf02fde8	-0.5116868
8	0x3e92bce0	0.28659725
9	0x3e54e286	0.20789537
10	0x3f0ed387	0.55791515
11	0xbf272730	-0.6529417
12	0xbf130905	-0.5743564
13	0x3e932fe3	0.28747472
14	0xbf002805	-0.50061065
15	0x3ee51e9f	0.44749925
16	0xbeb90ff1	-0.36144975
17	0xbf3d46f1	-0.73936373
18	0xbefc9dab	-0.4933904
19	0xbd229fc6	-0.039703153
20	0x3ebd7253	0.37001285
21	0x3e986669	0.29765633
22	0x3ed0cf03	0.40782937
23	0x3e51beca	0.20482937
24	0xbf0de4b7	-0.55427116

classfier.bn3.running_var f4 [25]
0	0x3f539075	0.826423
1	0x3ea6f936	0.32612008
2	0x3f598905	0.849747
3	0x3f2d56f6	0.67710817
4	0x3f6603be	0.8984946
5	0x3f3358e6	0.70057523
6	0x3f2a03b9	0.6641193
7	0x3f1d3dac	0.6142223
8	0x3f4ca522	0.7993947
9	0x3f444371	0.7666541
10	0x3f88aeec	1.0678382
11	0x3f2d87fe	0.6778563
12	0x3f4832e9	0.7820268
13	0x3f553878	0.8328929
14	0x3f002a4f	0.5006456
15	0x3f82dddc	1.0223956
16	0x3f3b0e25	0.7306846
17	0x3f452a3c	0.7701757
18	0x3f54360d	0.82894975
19	0x3f36b142	0.71364224
20	0x3f4aed3b	0.79268235
21	0x3f4ea6a2	0.8072301
22	0x3f486365	0.78276664
23	0x3e642c51	0.2228253
24	0x3f14ddee	0.5815114

classfier.fc5.weight f4 [1, 25]
0	0x3de64819	0.1124422
1	0xbd74ad0b	-0.05973534
2	0x3dd69b91	0.10478891
3	0xbe5f76fd	-0.21822734
4	0x3e24cbed	0.16093417
5	0xbe36c788	-0.17849553
6	0xbea33426	-0.31875724
7	0xbe4758ad	-0.19467421
8	0x3e02c939	0.12772073
9	0x3e169030	0.1470344
10	0x3e49662d	0.19667883
11	0xbe0f4130	-0.13989711
12	0xbe136a2b	-0.14395969
13	0x3e49288a	0.1964437
14	0xbe81f737	-0.25383922
15	0x3dbb0317	0.09131449
16	0xbe85e6c4	-0.26152623
17	0xbe1aeb06	-0.15128717
18	0xbe2d9b7c	-0.16953844
19	0xbe9d89af	-0.30769107
20	0x3e5bd42a	0.21467653
21	0x3df92617	0.12165468
22	0x3dce5a9b	0.10075875
23	0xbd204fe6	-0.039138697
24	0xbe7c15ac	-0.24617642
