src/trained_models/2025-05-29/run_23-30-27/dnn_model_fold_1.pt (torch, 75713 bytes, 19 tensors)

classfier.fc1.weight f4 [100, 100]
-0.03322406 -0.09235989 0.09986022 0.03624935 0.030086463 -0.07670568 0.041319285 0.004338898
0.0104584275 -0.021199724 0.030416852 -0.059428386 -0.08883158 0.13109025 0.035226677 -0.101700224
-0.10902291 0.117713206 0.03730707 0.003892877 0.04026016 -0.050249416 -0.09502354 0.0067648273
0.0284883 0.043496408 -0.07912702 0.0042354916 -0.008608125 -0.10959133 0.017871931 0.054021508
-0.027525267 0.09277202 0.119496524 0.03291946 0.11994898 0.01493608 -0.040640578 0.044376597
0.104050145 0.059013892 0.055775132 -0.01349698 0.08762416 0.09143825 -0.07438951 -0.060366485
-0.06565344 -0.08312799 0.04456166 0.003807239 -0.049875226 0.00067766965 -0.019375538 -0.09381448
-0.017598657 0.028406972 -0.04607972 -0.041602165 -0.018918976 0.024385663 -0.041015122 0.1132848
0.018171497 0.08507373 0.0017746749 -0.050135788 0.004348168 -0.01487364 0.06513834 0.08132968
0.037565425 -0.06532776 0.0404024 -0.030916058 0.080421306 0.025899636 -0.08574791 0.08315231
0.042724915 0.06791928 -0.04011145 0.07141792 0.097226605 -0.07966603 -0.018056238 -0.07458631
0.07267415 -0.039239787 -0.009623163 0.011771028 0.025275081 0.038401265 -0.06674547 0.0763021
0.010682944 0.04158729 -0.036398172 -0.08051472 -0.032239825 0.035231926 0.015552546 0.10808442
-0.082855545 0.06048928 0.04570865 0.029754404 0.06674456 0.0174664 0.098812155 0.01215851
0.07488127 0.009271763 -0.054003518 0.09436716 0.046915725 0.0032297748 -0.122647405 -0.009658269
0.06854767 -0.09818331 -0.075158834 -0.039634842 -0.008172276 0.08345954 0.07358775 0.014279677
0.115991965 -0.024291087 0.085589476 -0.043057427 -0.055759147 0.09733678 0.0943938 -0.09369124
0.09550802 -0.08343289 -0.010017941 -0.060339876 0.019670969 -0.011867432 -0.023285747 -0.04604407
-0.09777378 -0.045229536 -0.04058882 -0.032844692 0.0680411 -0.06987757 0.085226566 0.011586434
-0.013238457 0.07978862 0.024408014 0.048294134 -0.07781634 -0.0061856345 -0.12442823 -0.092428796
0.07990523 -0.003404755 -0.13927957 -0.02286344 -0.051373374 -0.058168128 -0.0033973476 0.027668092
0.11820338 -0.06483397 0.00608347 -0.05468491 0.04492733 -0.064165324 0.06353992 0.1109936
0.02676272 -0.09379446 0.032852996 0.0061157625 -0.0615876 -0.053821787 0.007919608 0.07576832
0.08800921 0.061202213 0.07897872 0.0919168 0.08507347 -0.021939995 -0.09734061 0.029813595
-0.051900834 -0.0651982 0.06722874 0.023933904 -0.039586607 0.005716009 -0.02175406 0.00080388034
0.04803391 -0.01799964 -0.0024780354 0.011124823 -0.09053369 0.07158629 -0.0011121875 -0.01704224
0.03199336 -0.079659775 0.11726796 -0.017778022 -0.07534687 -0.06188817 0.069526 -0.025283309
0.0612108 0.018976709 -0.016607149 -0.080855146 0.016331084 -0.039619077 -0.05508585 0.0015071923
0.019275801 -0.089531265 -0.04622916 0.045206904 -0.013907236 0.06631001 0.094770014 0.012368305
-0.008904114 0.008193053 0.031220293 0.07371079 0.05297427 -0.02172727 -0.00093802524 -0.07153219
-0.10806441 -0.015344784 0.045569252 -0.0021662763 0.042864025 -0.021613337 -0.021045422 0.015943935
0.0033223256 -0.0066638896 -0.038011838 -0.031044964 0.02679739 0.07619834 0.058192164 -0.016703313
00000000: f415 08bd 2f27 bdbd 8483 cc3d 337a 143d
00000010: e377 f63c de17 9dbd 693e 293d 512d 8e3b
00000020: d359 2b3c 0bab adbc c32c f93c 2e6b 73bd
00000030: 55ed b5bd 863c 063e d949 103d 3548 d0bd
00000040: 6747 dfbd 9f13 f13d 4ccf 183d a31f 7f3b
00000050: d6e7 243d 55d2 4dbd b49b c2bd 7cab dd3b
00000060: 4c60 e93c 4a29 323d 590d a2bd e1c9 8a3b
00000070: 1809 0dbc 6b71 e0bd 2868 923c a845 5d3d
00000080: ab7c e1bc 42ff bd3d 98ba f43d 8ed6 063d
00000090: d0a7 f53d 76b6 743c bc76 26bd 3cc4 353d
000000a0: 3e18 d53d 8db8 713d 7774 643d 7022 5dbc
000000b0: 4c74 b33d fa43 bb3d 8759 98bd d942 77bd
000000c0: 5075 86bd 023f aabd 4a86 363d df82 793b
000000d0: f749 4cbd a4a5 313a 73b9 9ebc ce21 c0bd
000000e0: 0f2b 90bc bdb5 e83c 17be 3cbd 0867 2abd
000000f0: f8fb 9abc 71c4 c73c 79ff 27bd dc01 e83d
00000100: 64dc 943c 233b ae3d 359c e83a 2f5b 4dbd
00000110: 147b 8e3b 91b0 73bc 4067 853d 2d90 a63d
00000120: 34de 193d 90ca 85bd fd7c 253d ac43 fdbc
00000130: edb3 a43d 792b d43c 9a9c afbd c24b aa3d
00000140: 5200 2f3d 4319 8b3d e74b 24bd 8f43 923d
00000150: be1e c73d f227 a3bd adea 93bc b5c0 98bd
00000160: 2fd6 943d e6b9 20bd 79aa 1dbc 45db 403c
00000170: b00d cf3c a54a 1d3d d9b1 88bd 4744 9c3d
00000180: 8407 2f3c 6f57 2a3d 4016 15bd e7e4 a4bd
00000190: e80d 04bd 5a4f 103d 1bd0 7e3c 5d5b dd3d
000001a0: 2bb0 a9bd 9bc3 773d fe38 3b3d 82bf f33c
000001b0: 5fb1 883d b215 8f3c 075e ca3d 7d34 473c
000001c0: 5a5b 993d 98e8 173c cb32 5dbd 9243 c13d
000001d0: b42a 403d a1aa 533b 902e fbbd b73d 1ebc
000001e0: b962 8c3d 5514 c9bd e0ec 99bd 2558 22bd
000001f0: 03e5 05bc d6ec aa3d 2db5 963d 4ef5 693c
00000200: 328d ed3d 1afe c6bc 8949 af3d fc5c 30bd
00000210: b463 64bd 8158 c73d 8951 c13d 31e1 bfbd
00000220: b599 c33d ddde aabd 4a22 24bc f226 77bd
00000230: 0325 a13c 9e6f 42bc c0c1 bebc b598 3cbd
00000240: 9f3d c8bd 9b42 39bd 7640 26bd 2888 06bd
00000250: 2259 8b3d f91b 8fbd 448b ae3d 07d5 3d3c
00000260: 1de6 58bc 3768 a33d 51f3 c73c 12d0 453d
00000270: 2c5e 9fbd ddb0 cabb 3ad4 febd 4f4b bdbd
00000280: 5aa5 a33d 4f22 5fbb 4e9f 0ebe 1c4c bbbc
00000290: e36c 52bd b441 6ebd 09a6 5ebb 32a8 e23c
000002a0: 9d14 f23d acc7 84bd d857 c73b 49fd 5fbd
000002b0: b805 383d 1c69 83bd 3821 823d 9d50 e33d
000002c0: 7e3d db3c 4f17 c0bd dd90 063d bc66 c83b
000002d0: 4743 7cbd 3c74 5cbd 3ec1 013c 6c2c 9b3d
000002e0: 2c3e b43d 2caf 7a3d 98bf a13d e03e bc3d
000002f0: 003b ae3d 81bb b3bc 845a c7bd a43b f43c
00000300: f895 54bd a286 85bd 39af 893d 0911 c43c
00000310: 9125 22bd 5c4d bb3b 9235 b2bc 7fbb 523a
00000320: 35bf 443d fb73 93bc 8966 22bb e444 363c
00000330: ba69 b9bd d59b 923d d2c6 91ba 2b9c 8bbc
00000340: 780b 033d aa24 a3bd 2f2a f03d 37a3 91bc
00000350: 764f 9abd 737e 7dbd a663 8e3d f11e cfbc
00000360: 2db8 7a3d 0b75 9b3c b70b 88bc 6297 a5bd
00000370: c4c8 853c 9d47 22bd b3a1 61bd fb8c c53a
00000380: 49e8 9d3c 2b5c b7bd ca5a 3dbd e02a 393d
00000390: 2ddb 63bc 8bcd 873d c816 c23d 6ea4 4a3c
000003a0: 90e2 11bc 283c 063c b3c1 ff3c aff5 963d
000003b0: 8cfb 583d 63fd b1bc cfe5 75ba 787f 92bd
000003c0: e050 ddbd b068 7bbc d3a6 3a3d 16f8 0dbb
000003d0: 3092 2f3d 740e b1bc 7367 acbc db9c 823c
000003e0: 60bb 593b c25c dabb 4db2 1bbd 0252 febc
000003f0: 3386 db3c e00d 9c3d e85a 6e3d 63d5 88bc

classfier.fc1.bias f4 [100]
0.01602315 -0.040516607 -0.0685149 -0.017516786 0.036430255 -0.016707333 -0.027807591 -0.010744669
0.0030053107 0.08442807 -0.09856435 0.052788608 -0.026870834 0.023738747 -0.011254894 0.00029016353
0.0406884 0.09290124 -0.06443889 -0.09346574 -0.029729016 0.023436224 -0.07894634 0.03604427
-0.025902623 0.05628701 0.025895448 0.022187924 -0.07294608 -0.07776733 0.0060862424 -0.043121647
-0.020174153 -0.034255847 -0.012436316 -0.054231107 0.064035736 -0.005939818 0.0592177 -0.09563943
0.0069149686 0.042448103 0.07575481 0.03607758 0.03057414 -0.060533516 -0.0058761714 -0.06653478
-0.002942703 0.044346772 -0.07681839 -0.06689184 -0.070833996 0.093154855 0.03496921 -0.0846828
0.0922745 -0.09935298 0.010157845 0.08417467 0.048563756 0.08216293 -0.020016875 -0.004427306
-0.09276811 0.052070893 0.015008392 -0.031974424 0.01401365 0.032946542 -0.043451134 -0.0042012082
0.08888179 -0.096953675 0.06202293 -0.056536123 0.061350886 0.07890434 -0.07955673 0.016431794
-0.035550557 -0.049634118 -0.065800026 0.084449664 0.0012471526 0.0102520045 -0.053675286 0.03766953
-0.093690164 -0.024842167 -0.06274563 -0.040519528 0.06883806 0.0824225 0.01158472 -0.042916067
-0.07197022 -0.025136728 0.013228674 0.059558332
00000000: fb42 833c bef4 25bd 8a51 8cbd 5d7f 8fbc
00000010: e437 153d d1dd 88bc bfcc e3bc 680a 30bc
00000020: bff4 443b a0e8 ac3d 1bdc c9bd de38 583d
00000030: 3920 dcbc c377 c23c 7266 38bc 1721 9839
00000040: e1a8 263d 0143 be3d 89f8 83bd f76a bfbd
00000050: 448a f3bc 53fd bf3c 9eae a1bd 28a3 133d
00000060: bd31 d4bc 358d 663d b122 d43c 73c3 b53c
00000070: c164 95bd 7a44 9fbd 1a6f c73b 53a0 30bd
00000080: 4444 a5bc dc4f 0cbd b1c1 4bbc 7021 5ebd
00000090: 2b25 833d cea2 c2bb 428e 723d 9bde c3bd
000000a0: f696 e23b 10de 2d3d 5625 9b3d 16c6 133d
000000b0: 9e76 fa3c fef1 77bd e68c c0bb 6343 88bd
000000c0: 5dda 40bb f6a4 353d f652 9dbd 97fe 88bd
000000d0: 6a11 91bd f9c7 be3d e03b 0f3d 2d6e adbd
000000e0: 6afa bc3d 9379 cbbd 176d 263c c563 ac3d
000000f0: caea 463d 0a45 a83d 6efa a3bc ef12 91bb
00000100: 35fd bdbd 4a48 553d c2e5 753c 9df7 02bd
00000110: 8299 653c f4f2 063d d1f9 31bd 4aaa 89bb
00000120: a807 b63d a68f c6bd c10b 7e3d 6c92 67bd
00000130: 114b 7b3d 9998 a13d a4ee a2bd f89b 863c
00000140: 769d 11bd 254d 4bbd 2ac2 86bd f2f3 ac3d
00000150: 7f77 a33a 06f8 273c 9eda 5bbd 5d4b 1a3d
00000160: a1e0 bfbd cd81 cbbc c880 80bd cef7 25bd
00000170: f8fa 8c3d 21cd a83d d6cd 3d3c c2c8 2fbd
00000180: 1f65 93bd 8aeb cdbc 15bd 583c 70f3 733d

classfier.bn1.weight f4 [100]
0.9873735 0.9788083 0.9703473 0.9879075 0.9591899 1.0135002 0.9906557 0.96544677
1.0547608 1.0183963 1.0011207 1.0388917 0.99588454 0.96657044 1.0283093 1.0212145
0.95731276 0.98282003 1.0021528 0.9607972 0.9754743 0.9896866 1.0000753 0.981232
0.99437785 0.9699938 1.0257812 1.0306882 0.9664271 0.9570146 0.9707828 1.0100414
1.0313486 0.9653317 1.0579083 0.99415594 1.0134009 0.97393256 1.0422024 0.98551244
1.0333558 0.98025197 1.0441794 1.011749 1.0165291 0.9822448 0.98728114 0.9975867
0.96862483 0.99839866 0.9590446 1.0146645 1.04051 0.9886756 0.9576562 0.99813163
1.0239512 0.9803227 0.98922515 0.95128435 0.9477955 1.037739 1.068004 1.0047168
0.9687587 0.98196626 1.0486364 0.96253055 0.98910654 0.97694737 1.0061095 0.95473576
1.0166185 1.0054072 0.99461204 0.9434477 1.0351324 0.9830172 0.9719342 1.0055611
1.0200758 0.977547 0.97136825 1.0299039 1.009521 0.96829957 0.9842389 0.9970691
0.9794215 0.9538663 1.0286776 0.97714484 0.96342355 1.0153469 1.0010965 0.95526505
0.9552955 0.985471 0.96934414 0.9489319
00000000: 82c4 7c3f 2e93 7a3f ae68 783f 82e7 7c3f
00000010: 788d 753f 60ba 813f 9d9b 7d3f 8527 773f
00000020: 6702 873f cf5a 823f b924 803f 67fa 843f
00000030: 4af2 7e3f 2971 773f a49f 833f 28b7 823f
00000040: 7312 753f 189a 7b3f 8b46 803f cef6 753f
00000050: afb8 793f 1a5c 7d3f 7802 803f 0532 7b3f
00000060: 8c8f 7e3f 8451 783f cc4c 833f 97ed 833f
00000070: c467 773f e9fe 743f 3985 783f 0949 813f
00000080: 3b03 843f fa1f 773f 8a69 873f 0181 7e3f
00000090: 1fb7 813f a553 793f e366 853f 8b4a 7c3f
000000a0: 0145 843f cbf1 7a3f aca7 853f fe80 813f
000000b0: a01d 823f 6574 7b3f 75be 7c3f d861 7f3f
000000c0: ccf7 773f 0e97 7f3f f283 753f 87e0 813f
000000d0: 6f2f 853f d819 7d3f f528 753f 8e85 7f3f
000000e0: d510 833f 6ef6 7a3f dc3d 7d3f 5f87 733f
000000f0: baa2 723f a2d4 843f 5bb4 883f 8f9a 803f
00000100: 9200 783f 2462 7b3f b839 863f 6768 763f
00000110: 1636 7d3f 3919 7a3f 32c8 803f 9069 743f
00000120: 8e20 823f 2fb1 803f e59e 7e3f ca85 713f
00000130: 387f 843f 04a7 7b3f aed0 783f 3ab6 803f
00000140: d891 823f 8540 7a3f 97ab 783f e4d3 833f
00000150: fc37 813f 7be2 773f 15f7 7b3f ec3f 7f3f
00000160: 5ebb 7a3f 9530 743f b5ab 833f 2a26 7a3f
00000170: eda2 763f e3f6 813f ee23 803f 408c 743f
00000180: 3f8e 743f d447 7c3f f026 783f 33ed 723f

classfier.bn1.bias f4 [100]
-0.034573436 -0.08244698 -0.04124109 -0.07435024 -0.02475072 -0.10646463 -0.08801899 -0.045091752
-0.09513521 -0.09283186 -0.030429142 -0.111888796 -0.07577841 -0.047435865 -0.11575342 -0.09102409
-0.045177713 -0.09025097 -0.083854236 -0.007315952 -0.032926187 -0.10754706 -0.062312037 0.006872814
-0.07132921 -0.035950843 -0.03828657 -0.05280582 -0.088164784 -0.08428434 -0.04024691 -0.092649266
-0.10358892 -0.047296643 -0.081102245 -0.0076169744 -0.04981477 -0.0805291 -0.11937286 -0.014882039
-0.1313631 -0.08566745 -0.082822785 -0.0900001 -0.12141732 -0.11059777 -0.09578901 -0.05263546
-0.07276652 -0.057345916 -0.04453333 -0.096133344 -0.10650848 -0.13738522 -0.04207916 -0.08179983
-0.11344539 -0.074513346 -0.07462222 -0.0072568785 -0.039231233 -0.06635187 0.0014683222 -0.0074167284
-0.044786476 -0.059163388 -0.09734821 -0.011012612 -0.01760323 -0.015641293 -0.08484578 -0.019757032
-0.11515713 -0.07199712 -0.109493 -0.049807955 -0.10139214 -0.06743825 -0.054039028 -0.08687469
0.079065844 -0.098232664 -0.02935065 -0.11159505 -0.1308299 -0.021364368 -0.07617015 -0.10966004
-0.08473997 -0.097146265 -0.056263555 -0.05824669 -0.05478785 -0.09135339 -0.08438264 -0.019614888
-0.05359718 -0.03976229 -0.044064336 -0.064579405
00000000: e09c 0dbd f6d9 a8bd 6bec 28bd f044 98bd
00000010: 06c2 cabc 210a dabd 4d43 b4bd 21b2 38bd
00000020: 40d6 c2bd a11e bebd 8946 f9bc f425 e5bd
00000030: b631 9bbd 1c4c 42bd 2110 edbd d76a babd
00000040: 440c 39bd 80d5 b8bd c5bb abbd a7ba efbb
00000050: 9cdd 06bd a241 dcbd e83a 7fbd 5835 e13b
00000060: 0d15 92bd 3141 13bd 61d2 1cbd ea4a 58bd
00000070: bd8f b4bd 459d acbd f2d9 24bd e6be bdbd
00000080: 6d26 d4bd 20ba 41bd ef18 a6bd d097 f9bb
00000090: 930a 4cbd 71ec a4bd c279 f4bd ccd3 73bc
000000a0: 0c84 06be 6b72 afbd fe9e a9bd f951 b8bd
000000b0: a5a9 f8bd 1581 e2bd 072d c4bd 4898 57bd
000000c0: 9d06 95bd 8de3 6abd 9568 36bd 8fe1 c4bd
000000d0: 1e21 dabd b6ae 0cbe 335b 2cbd ab86 a7bd
000000e0: 0e56 e8bd 749a 98bd 89d3 98bd 1ccb edbb
000000f0: eeb0 20bd 7de3 87bd b874 c03a 0708 f3bb
00000100: 0672 37bd 4f55 72bd 805e c7bd 3e6e 34bc
00000110: a634 90bc 2b22 80bc a0c3 adbd 80d9 a1bc
00000120: 80d7 ebbd 3a73 93bd de3d e0bd 6d03 4cbd
00000130: afa6 cfbd 111d 8abd 0758 5dbd 5ceb b1bd
00000140: 46ed a13d 352e c9bd c670 f0bc f28b e4bd
00000150: 46f8 05be 5404 afbc 18ff 9bbd 7195 e0bd
00000160: 268c adbd 9ff4 c6bd 9d74 66bd 1594 6ebd
00000170: 3969 60bd 7c17 bbbd ced0 acbd 67af a0bc
00000180: b788 5bbd c8dd 22bd ce7c 34bd 3542 84bd

classfier.bn1.running_mean f4 [100]
-0.89235574 -0.4277553 1.5554829 -1.6164167 1.2817175 -0.40938303 -0.9487547 0.09899876
-0.30045733 0.3520045 -0.7281277 0.07718174 -0.12480757 -1.14037 -0.23808138 -0.515165
0.1289418 -0.32903922 -0.7611716 1.2816516 1.3865345 -0.012883163 -0.87064147 0.97690845
-0.017944202 2.2249126 -0.11063483 -0.1994921 -1.1127728 -0.18866344 -0.3316534 0.27009028
-0.31811565 0.300345 -0.30946463 0.09962601 -0.2180354 -0.24011473 -0.07843391 0.027123071
-0.107522756 -0.020856105 0.17136912 -0.3418661 -0.25789064 -0.30536973 0.01773843 0.109686784
-0.71897995 -0.05271311 2.0367668 -0.6401019 -0.35443786 -0.28355587 1.0159827 -0.2679744
-0.10550525 -0.39134598 0.20846376 1.5077215 0.44438204 -0.13434379 -0.41403574 0.7010921
-0.5285539 -1.1055311 -0.11746836 3.0812943 -1.068943 2.020434 -0.03637974 1.723929
-0.45099497 -0.7780116 0.004206181 -1.5185112 -0.22601931 -0.8146123 -0.86870664 -0.22285683
1.4526818 -0.18272644 -0.23502591 0.26111203 -0.112206824 1.6264099 -0.24767868 0.035457823
-0.5433318 -0.21832958 -0.24154173 -0.3775472 -0.5396572 0.116576456 -0.27329588 2.4438329
2.4848232 -2.5059783 -2.693639 1.4820204
00000000: 6d71 64bf be02 dbbe 101a c73f bee6 cebf
00000010: 520f a43f a79a d1be 97e1 72bf ddbf ca3d
00000020: 8bd5 99be ef39 b43e 9466 3abf 7611 9e3d
00000030: 1c9b ffbd a5f7 91bf 9bcb 73be dae1 03bf
00000040: 5209 043e d477 a8be 24dc 42bf 290d a43f
00000050: f679 b13f e713 53bc 5ce2 5ebf ac16 7a3f
00000060: b8ff 92bc f864 0e40 8494 e2bd a847 4cbe
00000070: 576f 8ebf fd30 41be 79ce a9be 4649 8a3e
00000080: 0ee0 a2be d2c6 993e 2672 9ebe b908 cc3d
00000090: ac44 5fbe a3e0 75be f5a1 a0bd 3431 de3c
000000a0: e434 dcbd 6cda aabc 637b 2f3e 1309 afbe
000000b0: 3e0a 84be 6c59 9cbe 2f50 913c 77a3 e03d
000000c0: 120f 38bf b4e9 57bd 635a 0240 b8dd 23bf
000000d0: e178 b5be 3c2e 91be b90b 823f f133 89be
000000e0: 2313 d8bd 805e c8be 8677 553e 05fd c03f
000000f0: 0b86 e33e 6b91 09be 7efc d3be c67a 333f
00000100: 4f4f 07bf 0b82 8dbf 4093 f0bd ed33 4540
00000110: 20d3 88bf ca4e 0140 ec02 15bd b5a9 dc3f
00000120: d0e8 e6be c52b 47bf 01d4 893b 935e c2bf
00000130: 9b71 67be 6f8a 50bf 8f63 5ebf 9534 64be
00000140: 7af1 b93f a41c 3bbe a2aa 70be 7ab0 853e
00000150: b1cc e5bd 332e d03f 7b9f 7dbe 393c 113d
00000160: cb17 0bbf ca91 5fbe b756 77be de4d c1be
00000170: f926 0abf a3bf ee3d 70ed 8bbe c267 1c40
00000180: 5807 1f40 f361 20c0 9564 2cc0 d8b2 bd3f

classfier.bn1.running_var f4 [100]
0.09768271 0.08044163 0.23652446 0.7726924 0.1893849 0.06489884 0.16247977 0.15246549
0.03545723 0.08987926 0.16264024 0.06928707 0.117078505 0.16323748 0.10675388 0.093340896
0.13771662 0.2777769 0.21407469 0.17165317 0.21576379 0.047352992 0.17656396 0.10910366
0.06960665 0.5141478 0.086178735 0.079405956 0.73120254 0.28189248 0.15666658 0.06816881
0.057911225 0.12269568 0.09665101 0.13826887 0.14869095 0.07762119 0.048863918 0.11048838
0.051205255 0.09368536 0.1438544 0.108496174 0.08015486 0.08805987 0.098392956 0.057563096
0.30225754 0.23408154 0.59155774 0.16825904 0.10180571 0.1305141 0.1762973 0.2060782
0.0762317 0.096055545 0.07212922 0.44070938 0.080089495 0.07669989 0.07772878 0.068369
0.12726161 0.18551391 0.05460136 0.6556639 0.18900968 0.6988579 0.10299513 0.32474485
0.31648389 0.15618965 0.14138897 0.5610711 0.075939275 0.2673262 0.19372667 0.055595275
0.1679029 0.17309405 0.19504295 0.10067459 0.044401675 0.16815323 0.06049976 0.078198105
0.14720947 0.17226854 0.07995638 0.08136135 0.12313263 0.059581663 0.10612504 0.9102951
0.69456166 1.3776238 1.2559115 0.44044983
00000000: df0d c83d 95be a43d 7833 723e 2bcf 453f
00000010: 1dee 413e afe9 843d 1961 263e ea1f 1c3e
00000020: 9a3b 113d 9e12 b83d 2a8b 263e 61e6 8d3d
00000030: dbc6 ef3d ba27 273e c7a1 da3d 8329 bf3d
00000040: 9605 0d3e c638 8e3e 6536 5b3e d9c5 2f3e
00000050: 2ff1 5c3e 36f5 413d 2fcd 343e bd71 df3d
00000060: ee8d 8e3d 319f 033f 7a7e b03d 979f a23d
00000070: 1730 3b3f 3654 903e 346d 203e 179c 8b3d
00000080: 5234 6d3d df47 fb3d f7f0 c53d 5b96 0d3e
00000090: 7142 183e dcf7 9e3d 8825 483d bb47 e23d
000000a0: 9abc 513d 1cde bf3d 914e 133e 3e33 de3d
000000b0: 3b28 a43d bc58 b43d 3f82 c93d 48c7 6b3d
000000c0: 80c1 9a3e 12b3 6f3e 5470 173f 194c 2c3e
000000d0: 837f d03d 7da5 053e 4887 343e 2a06 533e
000000e0: 5e1f 9c3d c5b8 c43d 7cb8 933d a9a4 e13e
000000f0: f605 a43d d514 9d3d 4430 9f3d 0c05 8c3d
00000100: de50 023e 5cf7 3d3e ada5 5f3d 97d9 273f
00000110: c18b 413e 5ae8 323f 1cef d23d f544 a63e
00000120: 2d0a a23e 2ef0 1f3e 45c8 103e 5ba2 0f3f
00000130: 0d86 9b3d fbde 883e 4960 463e dfb7 633d
00000140: bdee 2b3e 913f 313e 57b9 473e 7b2e ce3d
00000150: 88de 353d 5c30 2c3e 99ce 773d 5426 a03d
00000160: 14be 163e 2a67 303e 2cc0 a33d c8a0 a63d
00000170: f62c fc3d e70b 743d 1658 d93d 1a09 693f
00000180: cbce 313f fa55 b03f b5c1 a03f a482 e13e

classfier.fc2.weight f4 [50, 100]
0.0046442724 0.056940824 0.058488782 0.0038871698 0.012502579 -0.013657256 0.092543274 0.014869688
0.116615735 -0.0069777016 0.045339722 0.06277041 0.06029257 -0.068091735 -0.020436877 0.024548361
0.084589526 0.06568617 0.0035132451 0.049618218 0.07834929 0.04921029 0.045322046 -0.082428865
-0.021188268 -0.02712495 -0.0018357185 0.06704315 0.104547076 -0.035774373 -0.07116639 0.08725956
0.07192528 0.008190712 0.08813041 0.029133623 0.10068065 0.0072444007 0.057755005 0.008462046
0.11987348 0.07675336 -0.03774319 0.015877286 0.0042500966 0.048417106 0.094772324 0.084381394
0.09120968 -0.024808448 0.016496757 0.10465791 0.13248642 -0.0334498 -0.009363409 0.045321323
-0.024464287 0.007795166 0.034493487 -0.014502809 0.093702056 0.020661725 -0.09106401 0.038556136
-0.028120823 0.0683432 0.11951853 -0.033722803 -0.070914306 -0.04973293 0.08661068 0.03740784
0.079103135 0.017111825 0.10082351 0.02622002 0.0682433 -0.0062397933 0.065047905 0.12736584
-0.06526901 0.08030079 0.008497999 0.05723028 0.06255157 -0.08075514 0.092325136 0.034544382
-0.03394865 0.045599483 0.1039872 0.071148604 0.05164881 0.054590527 0.030185385 0.06657717
-0.075104356 0.052838057 -0.029668326 0.032032035 0.05164483 -0.030292245 -0.01977163 -0.023777522
-0.08176353 0.08973851 0.060782265 0.009739454 0.118643396 -0.051843222 0.06080116 0.10331579
0.022127591 0.07609554 0.035167173 0.041866258 0.009163071 0.04049129 0.01467477 0.0490793
0.06979302 0.09643485 0.019640785 0.00043852665 0.0001649439 0.046114445 0.10734159 0.04769348
-0.027160022 -0.041754328 0.045628108 -0.048018076 0.11154293 -0.057065796 0.11175848 -0.031451765
0.105984084 0.012201539 0.0922045 0.035342462 0.0112036755 -0.055319607 0.098767936 0.106685854
-0.037544053 0.017196327 0.04978143 -0.07034106 0.0375983 0.046110537 -0.047123555 -0.0033083207
0.04915345 0.062265765 0.056462318 0.08589398 0.03847903 0.018553568 0.021840371 0.037648015
-0.028799787 0.06109974 -0.011911233 0.07573924 0.041254234 -0.05774031 0.07920007 0.0142817
-0.07321104 -0.06702821 0.078902066 0.07586635 0.018522754 0.11444121 0.02611072 -0.0496769
0.031996883 -0.060648575 -0.044669304 -0.018885067 -0.032984946 0.0061573186 0.002561518 -0.028485905
0.013635795 -0.014324309 0.12354664 -0.0044167484 0.09381531 -0.044387992 0.085974485 -0.076380335
0.059874885 0.09584519 0.05327153 0.047522563 0.013926748 0.046214588 0.052579604 -0.012417242
-0.02554341 0.0747337 0.025148304 0.024341922 -0.050230198 0.037666913 0.09657193 -0.004270867
-0.014493964 -0.027414445 -0.09399695 0.018534485 -0.07906157 0.07232929 -0.05030555 0.03154202
0.047144152 0.058916878 -0.036425885 0.07018627 -0.029116068 -0.0063837315 -0.04471297 0.060281515
0.04841907 -0.015364915 -0.04181938 -0.03998294 0.049521964 0.007944988 0.07033194 -0.011227659
-0.043143865 -0.014087409 -0.0266061 0.047103923 -0.035229653 -0.026950685 -0.1084778 -0.033876825
-0.05912528 -0.10363639 -0.041290727 -0.062862694 0.005283018 0.06489369 -0.016831767 -0.1334151
0.08119183 0.00019726061 -0.082812384 0.1044126 -0.045849737 -0.08289524 -0.022376891 0.08316554
00000000: fb2e 983b c83a 693d ef91 6f3d e3bf 7e3b
00000010: 9ed7 4c3c afc2 5fbc 5487 bd3d fe9f 733c
00000020: 3bd4 ee3d 34a5 e4bb 25b6 393d c68d 803d
00000030: 58f5 763d ae73 8bbd 3d6b a7bc a519 c93c
00000040: 463d ad3d 7886 863d 793e 663b 793c 4b3d
00000050: 9875 a03d bb90 493d 9ca3 393d 77d0 a8bd
00000060: 0593 adbc 2535 debc 7e9c f0ba eb4d 893d
00000070: c71c d63d 2688 12bd afbf 91bd 24b5 b23d
00000080: 904d 933d 5632 063c b77d b43d a3a9 ee3c
00000090: a831 ce3d 7062 ed3b 8390 6c3d 65a4 0a3c
000000a0: 3a80 f53d de30 9d3d 9a98 1abd 1511 823c
000000b0: 6544 8b3b 0451 463d fe17 c23d 27d0 ac3d
000000c0: 24cc ba3d 163b cbbc 3524 873c e356 d63d
000000d0: 85aa 073e a802 09bd fc68 19bc daa2 393d
000000e0: 5469 c8bc 986e ff3b 0b49 0d3d 319d 6dbc
000000f0: dde6 bf3d c742 a93c c57f babd 0aed 1d3d
00000100: a45d e6bc 85f7 8b3d 22c6 f43d ec20 0abd
00000110: 853b 91bd c2b4 4bbd f160 b13d f738 193d
00000120: d300 a23d 192e 8c3c 8e7c ce3d 5ecb d63c
00000130: 25c3 8b3d 2e77 ccbb d637 853d 316c 023e
00000140: c2ab 85bd be74 a43d 313b 0b3c 4c6a 6a3d
00000150: 0a1b 803d f362 a5bd f614 bd3d 697e 0d3d
00000160: bd0d 0bbd 86c6 3a3d 3ef7 d43d 5cb6 913d
00000170: b48d 533d 519a 5f3d 5747 f73c 9c59 883d
00000180: 50d0 99bd b86c 583d fd0a f3bc 0634 033d
00000190: 8789 533d 7127 f8bc 1df8 a1bc 14c9 c2bc
000001a0: a373 a7bd d3c8 b73d d3f6 783d 3b92 1f3c
000001b0: 4ffb f23d 8f59 54bd a30a 793d 3b97 d33d
000001c0: ec44 b53c fad7 9b3d 740b 103d f47b 2b3d
000001d0: b520 163c 32da 253d 726e 703c 6007 493d
000001e0: a5ef 8e3d a27f c53d b6e5 a03c 0dea e539
000001f0: caf4 2c39 80e2 3c3d e8d5 db3d 3d5a 433d
00000200: b27e debc 9606 2bbd 8ae4 3a3d 9aae 44bd
00000210: 9f70 e43d d3bd 69bd a1e1 e43d 91d3 00bd
00000220: 2f0e d93d f7e8 473c b7d5 bc3d 42c3 103d
00000230: 9f8f 373c d096 62bd d846 ca3d 1d7e da3d
00000240: cbc7 19bd 50df 8c3c 9de7 4b3d f90e 90bd
00000250: ad00 1a3d 67de 3c3d a104 41bd 69d0 58bb
00000260: 2155 493d 630a 7f3d 0845 673d 2fe9 af3d
00000270: 309c 1d3d a7fd 973c 94ea b23c ce34 1a3d
00000280: 88ed ebbc b943 7a3d 5527 43bc 2d1d 9b3d
00000290: 33fa 283d 1a81 6cbd a533 a23d cbfd 693c
000002a0: abef 95bd 1646 89bd 6897 a13d d15f 9b3d
000002b0: 08bd 973c 2760 ea3d 26e6 d53c 017a 4bbd
000002c0: 2a0f 033d a46a 78bd 29f7 36bd dbb4 9abc
000002d0: 391b 07bd 55c3 c93b 24df 273b 465b e9bc
000002e0: ab68 5f3c 82b0 6abc 0506 fd3d 5fba 90bb
000002f0: 3e22 c03d 2fd0 35bd 6413 b03d 4b6d 9cbd
00000300: 5e3f 753d 7c4a c43d 3f33 5a3d 05a7 423d
00000310: 042d 643c 824b 3d3d b65d 573d b071 4bbc
00000320: 6a40 d1bc fb0d 993d d103 ce3c b668 c73c
00000330: 2ebe 4dbd 9f48 1a3d 81c7 c53d a1f2 8bbb
00000340: 1778 6dbc 4294 e0bc 7981 c0bd a2d5 973c
00000350: 08eb a1bd 6121 943d 310d 4ebd 3532 013d
00000360: 3a1a 413d d352 713d 4f33 15bd d2bd 8f3d
00000370: d284 eebc 9f2e d1bb f224 37bd c0e9 763d
00000380: 1353 463d 20bd 7bbc cc4a 2bbd 27c5 23bd
00000390: 8bd7 4a3d b22b 023c 310a 903d 37f4 37bc
000003a0: 9fb7 30bd e0ce 66bc 09f5 d9bc 0bf0 403d
000003b0: f84c 10bd afc7 dcbc 9c29 debd 6dc2 0abd
000003c0: 592d 72bd 513f d4bd 7720 29bd 28be 80bd
000003d0: 2b1d ad3b fce6 843d c6e2 89bc f89d 08be
000003e0: e747 a63d bed7 4e39 8a99 a9bd 46d6 d53d
000003f0: efcc 3bbd fbc4 a9bd be4f b7bc b252 aa3d

classfier.fc2.bias f4 [50]
-0.05027638 -0.09163933 0.040964067 0.06029835 0.069022566 -0.08309704 -0.026290763 0.07250491
0.020883027 -0.017462002 0.050399687 0.08406542 -0.09411489 0.0419455 0.07132957 0.035786767
-0.00011776379 -0.05412786 -0.042066522 -0.039239623 0.07272312 0.08916208 -0.07664692 -0.05362313
-0.034519333 -0.06889349 -0.06784233 0.095564626 0.04318743 0.08116174 -0.008641483 -0.081668675
-0.053890213 -0.08919543 -0.05244027 -0.044241313 0.003815261 0.04835931 -0.08546734 0.020109292
-0.004551685 0.017087765 -0.012741183 -0.047102623 -0.059314944 0.05607689 0.009475378 0.037429918
0.050905 -0.095367886
00000000: 9bee 4dbd 67ad bbbd f0c9 273d 67fb 763d
00000010: b45b 8d3d c82e aabd ba5f d7bc 747d 943d
00000020: e212 ab3c 790c 8fbc e76f 4e3d 7e2a ac3d
00000030: 4fbf c0bd 0bcf 2b3d 3d15 923d 2595 123d
00000040: f4f7 f6b8 2db5 5dbd f24d 2cbd bab9 20bd
00000050: dcef 943d 9c9a b63d 0ff9 9cbd eda3 5bbd
00000060: 2564 0dbd 0818 8dbd ebf0 8abd 63b7 c33d
00000070: 4de5 303d 2038 a63d 0295 0dbc e841 a7bd
00000080: fcbb 5cbd 18ac b6bd 9ccb 56bd 6136 35bd
00000090: 7509 7a3b 6914 463d 8009 afbd 3ebc a43c
000000a0: 4d26 95bb a4fb 8b3c 65c0 50bc aeee 40bd
000000b0: 3af4 72bd e2b0 653d 9e3e 1b3c 1d50 193d
000000c0: c381 503d 3d50 c3bd

classfier.bn2.weight f4 [50]
1.0463189 0.9467826 0.996196 1.049991 0.98757434 0.9358447 0.96797425 0.971783
1.0210528 1.0434519 0.9658034 1.0727288 0.95516 0.91439104 0.9538171 0.94344324
1.0320984 0.97995615 1.0262707 1.0011287 0.95545363 1.0043377 0.9651011 1.0071371
0.99488163 1.0334036 1.0741104 0.94864184 1.0552192 1.049414 0.9366505 1.0873728
1.0136247 1.0059094 0.97406715 1.015841 1.022342 0.9459293 0.9327207 0.979658
1.0579641 0.94514465 0.96744746 0.9972877 0.9190888 0.95954365 1.0604532 1.0473337
0.9517711 0.95395607
00000000: c7ed 853f 5860 723f b306 7f3f 1b66 863f
00000010: acd1 7c3f 8593 6f3f 29cd 773f c5c6 783f
00000020: dcb1 823f d58f 853f e43e 773f 2d4f 893f
00000030: 5e85 743f 8815 6a3f 5c2d 743f 7f85 713f
00000040: cd1b 843f 68de 7a3f d75c 833f fc24 803f
00000050: 9c98 743f 238e 803f de10 773f dee9 803f
00000060: 90b0 7e3f 9246 843f 737c 893f 31da 723f
00000070: 6c11 873f 3353 863f 54c8 6f3f 082f 8b3f
00000080: 74be 813f a4c1 803f 775c 793f 1407 823f
00000090: 1adc 823f 6c28 723f c9c6 6e3f deca 7a3f
000000a0: 5e6b 873f 00f5 713f a3aa 773f 3f4e 7f3f
000000b0: 6749 6b3f a7a4 753f eebc 873f 080f 863f
000000c0: 45a7 733f 7736 743f

classfier.bn2.bias f4 [50]
-0.09066046 -0.095365725 0.026802357 -0.11571728 -0.07291938 -0.062390175 0.014539667 -0.03172664
-0.08798184 -0.07135313 -0.026207201 0.045056924 -0.08583668 -0.06732645 0.014801249 -0.0557119
0.046445444 -0.06362282 -0.13107008 0.000107719214 0.048606753 0.05365375 -0.043171056 -0.0058782864
-0.09077198 -0.10160415 -0.11406709 -0.0580362 -0.07673635 0.11262058 -0.060053978 0.020262187
-0.12032211 0.0011987747 -0.07772888 -0.10412335 -0.12874694 -0.08484772 -0.061023384 -0.1254636
-0.12886962 -0.04960743 -0.07522435 0.00013846043 -0.06514166 -0.033929106 -0.11004543 -0.10074918
-0.09319901 -0.05177164
00000000: 31ac b9bd 1b4f c3bd 9e90 db3c 2efd ecbd
00000010: c256 95bd d78c 7fbd c937 6e3c cbf3 01bd
00000020: d32f b4bd 9721 92bd 7cb0 d6bc 9c8d 383d
00000030: 24cb afbd 73e2 89bd f080 723c 2932 64bd
00000040: 943d 3e3d ae4c 82bd 3c37 06be 50e7 e138
00000050: e017 473d 09c4 5b3d 22d4 30bd a49e c0bb
00000060: a9e6 b9bd d615 d0bd 029c e9bd 5eb7 6dbd
00000070: f327 9dbd 9ea5 e63d 29fb 75bd e3fc a53c
00000080: 706b f6bd 3420 9d3a 5230 9fbd 9f3e d5bd
00000090: 3dd6 03be a4c4 adbd a8f3 79bd 8879 00be
000000a0: 66f6 03be 2931 4bbd 390f 9abd b02f 1139
000000b0: fe68 85bd 3ff9 0abd 805f e1bd 9655 cebd
000000c0: 1fdf bebd 800e 54bd

classfier.bn2.running_mean f4 [50]
0.942773 0.7053038 -0.33101243 0.7573914 0.8277141 0.0039857524 0.008935171 -0.29757416
0.86899215 0.71174365 -0.14432235 0.08330161 0.8191906 -0.009425836 -0.7911929 0.513013
-0.7086864 0.64393646 0.7673046 -0.21872608 -1.0021597 -0.32271805 -0.055456452 0.012410206
0.6574247 0.9097758 0.7562046 0.77860755 0.8937273 -0.53335077 -0.012302507 0.046942357
0.78442115 -0.27947134 0.66430646 0.5089712 0.7798072 0.687549 0.31364328 0.8150257
0.82572585 -0.6007723 0.5255408 -0.23009646 0.31960344 -0.19306135 0.7736792 0.7318977
0.56207997 -0.234487
00000000: 9259 713f ca8e 343f 767a a9be 67e4 413f
00000010: 12e5 533f ea9a 823b d364 123c a45b 98be
00000020: 4576 5e3f d534 363f 3dc9 13be 099a aa3d
00000030: 7ab6 513f d26e 1abc 9e8b 4abf d254 033f
00000040: 796c 35bf 05d9 243f 136e 443f bbf9 5fbe
00000050: c546 80bf 4d3b a5be 4e26 63bd 2d54 4b3c
00000060: fc4c 283f 11e7 683f a096 413f d352 473f
00000070: 50cb 643f ad89 08bf 7490 49bc a146 403d
00000080: d3cf 483f de16 8fbe fd0f 2a3f f04b 023f
00000090: 72a1 473f 3603 303f da95 a03e 86a5 503f
000000a0: c562 533f 37cc 19bf d889 063f 689e 6bbe
000000b0: 10a3 a33e e0b1 45be d70f 463f a65d 3b3f
000000c0: 79e4 0f3f 5c1d 70be

classfier.bn2.running_var f4 [50]
0.52315986 0.38698286 0.35135514 0.36495674 0.43875006 0.3038472 0.28304583 0.25126624
0.47862455 0.3524226 0.24740027 0.29624215 0.32368827 0.31058338 0.68276453 0.28836012
0.37759525 0.322314 0.36342323 0.25506166 0.5024788 0.42876238 0.23351659 0.18130259
0.36724812 0.41066253 0.47350407 0.35538507 0.37646413 0.39776555 0.2702288 0.25668997
0.38716015 0.23376773 0.39995816 0.32497096 0.49624458 0.3182424 0.1993952 0.3882501
0.4157327 0.30383688 0.27642798 0.3305572 0.21994099 0.2132398 0.3616022 0.46537316
0.3789771 0.1857803
00000000: ceed 053f 9e22 c63e d2e4 b33e 9cdb ba3e
00000010: d9a3 e03e dc91 9b3e 62eb 903e f8a5 803e
00000020: 470e f53e bc70 b43e 7f56 7d3e 0dad 973e
00000030: 78ba a53e c904 9f3e a8c9 2e3f f0a3 933e
00000040: 2a54 c13e 5706 a53e 9c12 ba3e 7197 823e
00000050: 73a2 003f be86 db3e f91e 6f3e 63a7 393e
00000060: f207 bc3e 5c42 d23e 206f f23e 08f5 b53e
00000070: e8bf c03e eda7 cb3e 6e5b 8a3e de6c 833e
00000080: db39 c63e cf60 6f3e 51c7 cc3e 9862 a63e
00000090: c513 fe3e abf0 a23e 412e 4c3e b8c8 c63e
000000a0: ebda d43e 8290 9b3e f887 8d3e cb3e a93e
000000b0: 3638 613e 895b 5a3e ec23 b93e 6445 ee3e
000000c0: 4909 c23e 313d 3e3e

classfier.fc3.weight f4 [25, 50]
-0.06730361 0.1200446 0.08579578 0.14507444 0.14703026 0.05601743 0.070400834 0.051769655
0.07824549 0.110521674 0.023703564 -0.057340514 0.12412616 -0.025636304 0.013251437 -0.084749684
0.096041344 0.114528455 -0.008722618 0.053647295 0.016869336 0.07979528 -0.072208196 -0.03361498
0.119719386 0.056312628 0.18135567 0.0042971997 0.07164598 -0.020427886 0.10821458 -0.108204044
0.13386741 -0.02882592 -0.06477099 0.047453806 0.15033685 0.14960188 -0.06302992 0.14638948
0.13124174 0.0059109847 0.042332415 0.09739985 0.05015114 -0.077131815 0.042594224 0.14124079
0.10986798 0.06971506 -0.11045403 0.006124129 0.045168534 -0.028986307 -0.051291786 0.06201653
0.081310965 0.07085657 -0.13506874 -0.008346045 -0.055151787 -0.017865708 -0.045946937 0.027008522
0.08593652 -0.13478576 -0.025935374 -0.15772754 -0.16357411 -0.06251187 0.022687636 -0.09634858
0.07834926 0.096660934 0.0706674 -0.19394803 0.06608208 -0.007976298 -0.031008936 0.027462007
-0.08845583 0.15667588 -0.09330896 -0.10435794 -0.12361086 -0.04606487 -0.10733061 -0.061446887
-0.030715372 -0.12746331 -0.04112606 -0.17597437 -0.015606824 0.015498224 0.08835305 -0.08686875
-0.0977219 -0.04169259 -0.023099184 -0.1046152 0.12429543 -0.067234986 -0.02034214 0.15969165
0.07899878 0.052931238 -0.04959088 0.063107654 0.09940556 -0.054243553 -0.05822576 -0.035793874
0.08907672 0.10674198 0.044525847 -0.0080960225 0.017437527 0.024037411 0.1220415 0.064079314
0.073725805 -0.01890794 0.02841276 0.028369933 0.12841743 0.097169064 -0.029158846 0.045597095
0.015829155 0.12615478 -0.101043075 -0.048800997 0.09206413 -0.07943548 -0.03260584 -0.010706118
0.11502857 0.16462824 -0.016656093 0.15212077 0.069441624 0.12467427 0.034961537 0.06962485
-0.046642143 0.04527221 0.124376774 0.043494083 0.057294555 0.03522962 -0.11412788 0.041665453
-0.02591521 -0.049420364 -0.062301833 0.011016514 -0.13797815 -0.04702374 0.030717257 -0.07935123
0.03619272 -0.0828583 -0.14961916 0.050754234 0.062120408 -0.061016817 0.14298846 -0.050350204
-0.12560585 -0.08578734 0.004367197 -0.20999229 0.09264166 0.090812206 -0.0447416 -0.115720965
-0.03242843 -0.0840539 -0.05235874 0.11423668 0.041190896 -0.13292073 -0.030593343 0.019941643
0.035346262 -0.025208764 -0.13986334 -0.09544793 0.01433723 -0.09260979 -0.07622852 0.055465918
0.07165043 -0.096908204 -0.018409675 0.085820265 -0.015846044 0.07746046 0.07414246 -0.15848099
0.07373407 0.05532522 -0.04513858 0.037820198 -0.016975114 0.056494016 -0.11832469 -0.009864069
0.14646307 0.048155233 0.08880328 0.027190862 -0.05633467 0.05661091 0.06295549 -0.05649525
0.06431837 0.08893708 0.08087665 -0.0045262435 0.07668309 -0.044520326 0.057150103 -0.044403695
0.030957956 0.087966405 -0.022015864 0.1119084 0.11782451 0.06291856 0.040751424 -0.017677372
0.124909684 -0.0071371333 -0.01929158 -0.030470598 0.15043138 0.09480933 0.0689135 0.0007206043
0.12370201 0.07051371 0.023948722 0.058521677 -0.047888044 0.08134455 0.1471451 0.024736177
-0.0104951365 0.018089065 0.13860188 -0.06251313 0.15193883 0.0824048 0.040393606 -0.05217204
00000000: 7ad6 89bd f1d9 f53d b3b5 af3d 658e 143e
00000010: 1a8f 163e 8872 653d 502e 903d 6b0c 543d
00000020: 2c3f a03d 3059 e23d fa2d c23c e3dd 6abd
00000030: db35 fe3d 3a03 d2bc 8e1c 593c 3e91 adbd
00000040: 53b1 c43d e58d ea3d 50e9 0ebc 44bd 5b3d
00000050: 9031 8a3c b56b a33d e4e1 93bd dcaf 09bd
00000060: 702f f53d 12a8 663d 4db5 393e 86cf 8c3b
00000070: 21bb 923d 6258 a7bc 9b9f dd3d 159a ddbd
00000080: 8a14 093e 5624 ecbc a7a6 84bd ec5e 423d
00000090: e7f1 193e 3c31 193e d515 81bd 20e7 153e
000000a0: 3c64 063e efb0 c13b c164 2d3d 9379 c73d
000000b0: 486b 4d3d 49f7 9dbd 4877 2e3d 6da1 103e
000000c0: 7702 e13d c5c6 8e3d b935 e2bd ebac c83b
000000d0: a402 393d b174 edbc 5617 52bd 0c05 7e3d
000000e0: 5d86 a63d 401d 913d 764f 0abe dabd 08bc
000000f0: d7e6 61bd 1b5b 92bc db32 3cbd fa40 dd3c
00000100: 7cff af3d 4705 0abe 6c76 d4bc 5483 21be
00000110: f97f 27be 3906 80bd 6cdb b93c 6852 c5bd
00000120: 9475 a03d 2bf6 c53d 12ba 903d 509a 46be
00000130: 0b56 873d 05af 02bc 7406 febc 01f8 e03c
00000140: 5528 b5bd a46f 203e c518 bfbd 9eb9 d5bd
00000150: b127 fdbd 84ae 3cbd 27d0 dbbd bbaf 7bbd
00000160: ce9e fbbc be85 02be cd73 28bd a032 34be
00000170: c4b3 7fbc 43ec 7d3c 72f2 b43d 3ee8 b1bd
00000180: 6b22 c8bd d9c5 2abd 803a bdbc 7e40 d6bd
00000190: 9a8e fe3d 7fb2 89bd 8fa4 a6bc 3586 233e
000001a0: 1dca a13d 6dce 583d ce1f 4bbd 963e 813d
000001b0: 2495 cb3d 7d2e 5ebd 227e 6ebd 999c 12bd
000001c0: db6d b63d 8a9b da3d bc60 363d 2ea5 04bc
000001d0: 25d9 8e3c 1bea c43c e5f0 f93d 043c 833d
000001e0: 8efd 963d d3e4 9abc e0c1 e83c 1068 e83c
000001f0: dc7f 033e 9300 c73d 88de eebc 05c4 3a3d
00000200: 25ac 813c b82e 013e acef cebd 8ee3 47bd
00000210: 1e8c bc3d 12af a2bd b48d 05bd b768 2fbc
00000220: 1994 eb3d 4e94 283e 5c72 88bc 8cc5 1b3e
00000230: 6937 8e3d 3955 ff3d d433 0f3d 7997 8e3d
00000240: d50b 3fbd 5a6f 393d 40b9 fe3d da26 323d
00000250: b2ad 6a3d ef4c 103d e1bb e9bd 65a9 2a3d
00000260: 224c d4bc 026d 4abd 3530 7fbd 9c7e 343c
00000270: 254a 0dbe f79b 40bd c2a2 fb3c e682 a2bd
00000280: d13e 143d 9db1 a9bd c435 19be ace3 4f3d
00000290: f871 7e3d c5ec 79bd 916b 123e 043c 4ebd
000002a0: d29e 00be 46b1 afbd b41a 8f3b 3808 57be
000002b0: e9ba bd3d c0fb b93d f842 37bd 1dff ecbd
000002c0: acd3 04bd 7324 acbd 1e76 56bd ecf4 e93d
000002d0: c9b7 283d 5f1c 08be e49e fabc a85c a33c
000002e0: 3ec7 103d 9c82 cebc 5638 0fbe 347a c3bd
000002f0: b3e6 6a3c 34aa bdbd b31d 9cbd 3b30 633d
00000300: 76bd 923d cf77 c6bd e3cf 96bc 89c2 af3d
00000310: 90cf 81bc 97a3 9e3d 01d8 973d d748 22be
00000320: e301 973d b39c 623d 3be3 38bd 5ae9 1a3d
00000330: 650f 8bbc 4566 673d 3754 f2bd e79c 21bc
00000340: 6afa 153e 6c3e 453d 7ede b53d 5fbf de3c
00000350: 2fbf 66bd d7e0 673d cfee 803d 9067 67bd
00000360: 59b9 833d a524 b63d a8a2 a53d e250 94bb
00000370: 060c 9d3d f25a 36bd 3a16 6a3d a6e0 35bd
00000380: 8a9b fd3c bb27 b43d 9d5a b4bc 3b30 e53d
00000390: fa4d f13d 72db 803d f7ea 263d 23d0 90bc
000003a0: a6d0 ff3d 9dde e9bb 6009 9ebc 7a9d f9bc
000003b0: af0a 1a3e 652b c23d 8522 8d3d f0e6 3c3a
000003c0: 7b57 fd3d 7e69 903d 1c30 c43c 6db4 6f3d
000003d0: 4126 44bd f997 a63d 35ad 163e 86a3 ca3c
000003e0: cbf3 2bbc 852f 943c a7ed 0d3e e206 80bd
000003f0: da95 1b3e d9c3 a83d c473 253d 59b2 55bd

classfier.fc3.bias f4 [25]
-0.045253124 -0.088537574 -0.13318731 0.09942055 -0.08051292 -0.0051693483 0.066390775 -0.07411046
0.12960675 0.015394624 -0.054131273 -0.13730638 0.13478984 0.040320102 0.07521099 -0.13706371
-0.026571622 -0.12068153 -0.0056171366 0.14123179 -0.08135993 -0.07464961 0.014321579 0.06251938
-0.08384336
00000000: 575b 39bd 3053 b5bd 4162 08be 009d cb3d
00000010: f5e3 a4bd a363 a9bb e3f7 873d 3ac7 97bd
00000020: a2b7 043e bc39 7c3c c1b8 5dbd 0b9a 0cbe
00000030: 5906 0a3e b126 253d 3808 9a3d 6e5a 0cbe
00000040: bbac d9bc e127 f7bd f50f b8bb 119f 103e
00000050: 09a0 a6bd e5e1 98bd 0ea5 6a3c 290a 803d
00000060: 11b6 abbd

classfier.bn3.weight f4 [25]
0.9888919 1.163051 0.98865813 1.1640917 0.9798943 0.98446584 1.1519381 0.9721428
1.1553757 0.9608307 0.9747964 0.9728139 0.98813766 0.9760911 1.1507243 0.98087645
1.1566191 0.99384075 1.1491715 1.1740775 1.1734484 1.2000842 0.98858017 1.1628878
1.1504908
00000000: 0528 7d3f dbde 943f b318 7d3f f500 953f
00000010: 5ada 7a3f f405 7c3f b572 933f 5ade 783f
00000020: 5ae3 933f 00f9 753f 428c 793f 550a 793f
00000030: 97f6 7c3f 1be1 793f ef4a 933f b81a 7b3f
00000040: 180c 943f 596c 7e3f 0d18 933f 2c48 963f
00000050: 8f33 963f 5c9c 993f 9713 7d3f 82d9 943f
00000060: 4843 933f

classfier.bn3.bias f4 [25]
-0.06757139 0.1703344 -0.06422942 0.16908732 -0.05240038 -0.012738939 0.15752074 -0.056919053
0.15595129 -0.053343803 -0.06185907 -0.052935883 -0.06740588 -0.056621507 0.15648535 -0.061704714
0.15607016 -0.062874466 0.15586871 0.17448348 0.18212338 0.20345281 -0.063840486 0.16587274
0.1581636
00000000: de62 8abd 246c 2e3e b78a 83bd 3a25 2d3e
00000010: c8a1 56bd fcb6 50bc 1e4d 213e f423 69bd
00000020: b2b1 1f3e 087f 5abd f05f 7dbd 4cd3 58bd
00000030: 180c 8abd f4eb 67bd b23d 203e 15be 7cbd
00000040: dbd0 1f3e 54c4 80bd 0c9c 1f3e ccab 323e
00000050: 8d7e 3a3e ef55 503e cdbe 82bd 8bda 293e
00000060: a4f5 213e

classfier.bn3.running_mean f4 [25]
0.7960553 -0.6422589 0.55651706 -0.3515889 0.56560624 -0.14073738 -0.40799972 0.5530887
-0.49250677 0.40519872 0.6190146 0.36302698 0.6203593 0.47894308 -0.3969489 0.46261737
-0.6389144 0.8606409 -0.37045538 -0.5536633 -0.53948 -0.8230112 0.7783078 -0.6578317
-0.19293152
00000000: 48ca 4b3f 146b 24bf e777 0e3f 7603 b4be
00000010: 92cb 103f 761d 10be 57e5 d0be 3997 0d3f
00000020: d929 fcbe 3576 cf3e be77 1e3f acde b93e
00000030: decf 1e3f 0738 f53e e33c cbbe 2fdc ec3e
00000040: e58f 23bf f652 5c3f 54ac bdbe e1bc 0dbf
00000050: 5c1b 0abf ddb0 52bf 2e3f 473f a967 28bf
00000060: d78f 45be

classfier.bn3.running_var f4 [25]
1.9117532 1.0489771 1.0291125 0.7403185 0.802224 0.22721635 0.50854623 1.0739794
0.55780107 0.714657 0.93430495 0.6847498 1.2829907 0.91348886 0.5439816 1.099963
0.699464 1.5835502 0.72929066 0.6861667 1.4652752 0.86188453 1.3005468 0.5317054
1.0973606
00000000: 54b4 f43f e244 863f f5b9 833f 8385 3d3f
00000010: 8d5e 4d3f 67ab 683e 1630 023f 2878 893f
00000020: 0dcc 0e3f c3f3 363f 9c2e 6f3f c34b 2f3f
00000030: 0a39 a43f 68da 693f 6142 0b3f 96cb 8c3f
00000040: 1310 333f c6b1 ca3f cbb2 3a3f 9fa8 2f3f
00000050: 238e bb3f 77a4 5c3f 5178 a63f d81d 083f
00000060: 5076 8c3f

classfier.fc5.weight f4 [1, 25]
0.13256161 -0.17293651 0.1401714 -0.21887419 0.042609517 -0.033852562 -0.21129481 0.06360614
-0.2555571 0.03149922 0.13471358 0.05779728 0.14053461 0.08780834 -0.12672119 0.15927948
-0.13032533 0.08423009 -0.23536739 -0.17279834 -0.17886984 -0.15208612 0.16119342 -0.1890151
-0.32299542
00000000: 3bbe 073e 4516 31be 1789 0f3e 8e20 60be
00000010: 5187 2e3d fca8 0abd ab5d 58be f043 823d
00000020: 61d8 82be 5305 013d 5bf2 093e d7bc 6c3d
00000030: 4ee8 0f3e dcd4 b33d 33c3 01be 291a 233e
00000040: 0174 05be d380 ac3d 2604 71be 0cf2 30be
00000050: a829 37be 77bc 1bbe e30f 253e 2d8d 41be
00000060: a85f a5be
