src/trained_models/2025-06-21/run_03-26-18/dnn_model_fold_3.pt (torch, 87617 bytes, 19 tensors)

classfier.fc1.weight f4 [100, 100]
-0.011110815 -0.019806629 0.03006945 0.06877276 0.101383366 0.077294365 0.036134593 -0.028901145
0.06464487 -0.035205316 -0.06783289 -0.043056913 0.11427618 0.06036088 0.038811993 -0.055601317
-0.097861916 -0.050080553 0.117268465 0.0548439 0.009221724 0.016051503 -0.08475497 -0.026492197
0.03171835 -0.024267143 0.030544465 0.065442815 0.047308467 -0.07739235 -0.08242517 -0.076811165
-0.023952993 0.10510044 0.054084413 0.08192385 -0.005974597 0.009543467 -0.01778878 -0.021055572
-0.0072800936 -0.09632853 0.02493033 0.005734963 0.035255924 -0.09492469 -0.04463347 -0.05285595
0.01570476 -0.09739078 -0.12905535 -0.03224445 0.015771318 0.03891193 0.002005592 -0.0070526833
0.05427055 0.062124077 0.10074183 0.04070031 -0.14448608 0.093622655 -0.059511542 0.15375657
0.08188189 -0.05702784 0.02964094 0.020091474 0.020195829 0.063889734 0.06671344 -0.05050285
-0.06474205 -0.06738421 -0.058006417 -0.011047518 0.033547923 -0.08223148 0.13640766 -0.059163343
-0.04928505 0.055909254 0.009499121 -0.009227616 0.063342124 -0.07015725 0.020973539 -0.014503525
-0.023133298 -0.12928867 -0.05509418 0.070442 -0.09683384 0.09003756 0.030687038 -0.1086721
0.056913655 -0.03417908 0.14937261 0.015795464 0.04039795 -0.0047666132 -0.09086331 0.12793455
0.046512496 -0.011136936 -0.020434149 -0.053427637 -0.08082985 0.0745187 0.08668226 0.07437902
0.087254524 0.09345641 0.003858482 -0.033757567 -0.07824568 0.0858989 -0.091553174 0.022370309
0.08808882 -0.08583467 -0.010007011 -0.083005354 0.015440508 0.10361277 -0.052761145 -0.07747963
-0.094050534 0.03905602 0.06852237 0.03519459 0.029192159 0.02060245 -0.060785104 0.08264538
-0.055561345 0.05929574 -0.044835124 -0.0148477685 -0.087562874 -0.022052972 0.0690043 -0.055330765
-0.050782844 -0.0646138 -0.07049321 -0.022190405 -0.0049298233 -0.06501318 0.038172398 -0.017087502
-0.049871787 -0.026454214 -0.012035032 0.07049809 -0.062011275 -0.011980324 0.10339851 -0.016558243
0.088692375 -0.05579323 0.09860877 -0.014931313 -0.07312317 -0.021243976 0.14298488 0.050749
-0.04760463 0.05538032 0.08703409 -0.06980401 -0.07027639 0.03483147 -0.0022907555 0.06737458
0.042758103 0.021238884 -0.07527561 0.081362836 0.11014976 -0.081367455 -0.08898097 0.026042307
-0.0028367597 0.09562712 -0.025127545 0.054656837 -0.048918568 -0.04362114 -0.08262976 0.03995444
0.090231486 -0.08828522 0.085964724 -0.039899137 -0.011025223 -0.015699405 -0.05249401 -0.049725268
-0.030084841 0.0059892195 0.025477344 0.03818823 0.07912912 0.025718536 -0.042576626 -0.06597846
-0.042802464 0.08732206 -0.08779055 0.014910584 0.04743833 -0.056210596 -0.03892028 -0.009019921
0.05320834 0.019263206 0.11067244 0.10144762 0.051367596 0.030714238 -0.0766663 -0.045028597
-0.042969435 -0.03550424 0.08832929 0.08930742 0.063592196 -0.0048115673 0.020515457 -0.0150202615
0.034507092 0.090738885 -0.030353736 -0.019584065 0.012656907 0.00055395364 -0.07657794 0.053666223
0.040842462 -0.0053524165 -0.0107478425 0.10021354 0.0065699313 -0.09281908 -0.10480377 0.032923967
-0.06161908 -0.0799583 -0.013574548 -0.059312098 -0.020461002 0.05213433 -0.035023317 -0.040434018
00000000: 230a 36bc 8341 a2bc 3554 f63c bcd8 8c3d
00000010: 15a2 cf3d 824c 9e3d de01 143d 18c2 ecbc
00000020: 8864 843d 7333 10bd f8eb 8abd 725c 30bd
00000030: a109 ea3d f83c 773d 53f9 1e3d 35be 63bd
00000040: d46b c8bd 4421 4dbd 732a f03d ffa3 603d
00000050: b716 173c 717e 833c 0494 adbd 2a06 d9bc
00000060: 1aeb 013d e3cb c6bc 6338 fa3c e206 863d
00000070: 86c6 413d e17f 9ebd 87ce a8bd 2c4f 9dbd
00000080: 1139 c4bc e63e d73d 9e87 5d3d b1c7 a73d
00000090: 8dc6 c3bb 345c 1c3c c7b9 91bc bc7c acbc
000000a0: da8d eebb e447 c5bd b13a cc3c 5bec bb3b
000000b0: 8468 103d e067 c2bd 96d1 36bd 7b7f 58bd
000000c0: 45a7 803c d174 c7bd 1627 04be c212 04bd
000000d0: da32 813c 1e62 1f3d 4070 033b 321a e7bb
000000e0: cc4a 5e3d d175 7e3d bc51 ce3d 5eb5 263d
000000f0: 29f4 13be 3cbd bf3d 60c2 73bd 5d72 1d3e
00000100: b1b1 a73d 0696 69bd 8ed1 f23c e096 a43c
00000110: b971 a53c 9fd8 823d 0ea1 883d 14dc 4ebd
00000120: 7b97 84bd bc00 8abd 2398 6dbd a600 35bc
00000130: 8c69 093d fa68 a8bd 73ae 0b3e 4355 72bd
00000140: 1fdf 49bd 1a01 653d 34a2 1b3c 6d2f 17bc
00000150: 84b9 813d 9bae 8fbd b3d0 ab3c 31a0 6dbc
00000160: 0b82 bdbc 4064 04be 6faa 61bd e543 903d
00000170: d250 c6bd 9d65 b83d 6263 fb3c 7a8f debd
00000180: 4b1e 693d 5dff 0bbd 22f5 183e 7d65 813c
00000190: 5278 253d 4031 9cbb 8b16 babd 4601 033e
000001a0: e383 3e3d b277 36bc 8465 a7bc f0d6 5abd
000001b0: 1f8a a5bd 439d 983d 7886 b13d 0754 983d
000001c0: 80b2 b23d 1366 bf3d 96de 7c3b 6045 0abd
000001d0: 453f a0bd c3eb af3d 3b80 bbbd f041 b73c
000001e0: e967 b43d 16ca afbd 72f4 23bc b6fe a9bd
000001f0: 2ffa 7c3c ef32 d43d 121c 58bd a4ad 9ebd
00000200: 919d c0bd 35f9 1f3d 7555 8c3d 3428 103d
00000210: 6524 ef3c 78c6 a83c cdf9 78bd fb41 a93d
00000220: 4b94 63bd 17e0 723d 09a5 37bd 0e44 73bc
00000230: 2a54 b3bd 6fa8 b4bc 2052 8d3d 83a2 62bd
00000240: ac01 50bd 3d54 84bd be5e 90bd a7c8 b5bc
00000250: 5b8a a1bb a125 85bd a95a 1c3d 17fb 8bbc
00000260: 5c46 4cbd 82b6 d8bc 952e 45bc 4d61 903d
00000270: 89ff 7dbd 1f49 44bc 99c2 d33d 27a5 87bc
00000280: 59a4 b53d 7187 64bd 65f3 c93d 77a2 74bc
00000290: 9ac1 95bd d907 aebc a16a 123e 2fde 4f3d
000002a0: 13fd 42bd 79d6 623d ee3e b23d 68f5 8ebd
000002b0: 11ed 8fbd 72ab 0e3d 8020 16bb affb 893d
000002c0: 1f23 2f3d 2bfd ad3c 192a 9abd 8fa1 a63d
000002d0: 3396 e13d fba3 a6bd a83b b6bd ad56 d53c
000002e0: eee8 39bb 27d8 c33d 48d8 cdbc d9df 5f3d
000002f0: d65e 48bd 15ac 32bd cb39 a9bd 44a7 233d
00000300: 49cb b83d e2ce b4bd 460e b03d 476d 23bd
00000310: 23a3 34bc 0a9c 80bc f603 57bd b9ac 4bbd
00000320: 7c74 f6bc 3741 c43b ddb5 d03c 436b 1c3d
00000330: 730e a23d aeaf d23c d464 2ebd b71f 87bd
00000340: a351 2fbd e8d5 b23d 88cb b3bd 864b 743c
00000350: b24e 423d 153d 66bd df6a 1fbd 4ac8 13bc
00000360: fdf0 593d dfcd 9d3c 3ba8 e23d c5c3 cf3d
00000370: d466 523d 6d9c fb3c 3903 9dbd e86f 38bd
00000380: b800 30bd e56c 11bd fde5 b43d cfe6 b63d
00000390: a03c 823d 5aaa 9dbb 0810 a83c 8b17 76bc
000003a0: 4f57 0d3d 4fd5 b93d 66a8 f8bc c36e a0bc
000003b0: ea5e 4f3c 3337 113a e5d4 9cbd 1dd1 5b3d
000003c0: 6d4a 273d 5363 afbb b817 30bc c23c cd3d
000003d0: 9448 d73b ee17 bebd 5ca3 d6bd 48db 063d
000003e0: 4a64 7cbd 2dc1 a3bd c867 5ebc 3ef1 72bd
000003f0: d59d a7bc cf8a 553d 9c74 0fbd 249e 25bd

classfier.fc1.bias f4 [100]
-0.00020010304 -2.1332992e-06 -0.00041879917 4.5155633e-05 2.5713562e-05 1.2359074e-05 -1.7832992e-05 6.1372845e-07
3.8423527e-06 -6.578531e-05 -2.5579582e-05 -5.1672927e-05 -0.0001936256 0.00012651616 -0.00020681704 -0.00026385978
3.7327867e-05 -4.2368585e-05 -5.5606497e-06 -6.836177e-06 -7.0914625e-06 0.00044055164 -1.4458715e-06 4.544767e-05
0.00016207444 9.59329e-05 -1.6002723e-06 0.00041122406 -0.00024999474 -0.0005464537 4.059044e-06 -7.62656e-05
-8.585155e-07 -4.6936297e-05 4.6966947e-05 -4.853544e-05 -1.01281175e-05 -0.00011466774 -1.7049431e-05 -0.000300045
-9.1859874e-05 2.0245443e-05 -4.3007345e-05 -5.359736e-05 -0.00011928663 -0.000324024 0.0013495322 -7.027778e-05
1.8815725e-05 0.00014980636 8.3505845e-05 2.156772e-05 -0.0003940537 0.00018780958 1.3164998e-05 -0.00024728163
-4.39648e-05 -0.00031339264 -0.00014867063 -1.5122259e-06 2.1052454e-05 -2.8721954e-05 2.8155362e-05 -4.8476495e-06
4.446943e-05 4.7049707e-06 -1.4233691e-05 -3.5537756e-05 6.325693e-05 0.00031481922 -0.0001594211 7.904692e-05
9.078657e-07 -3.8881713e-05 7.5241146e-06 -1.9461222e-05 -1.4101806e-06 -3.8298756e-05 3.6685713e-05 9.201804e-05
4.1875766e-05 0.00013452925 -5.9493414e-05 4.95974e-05 -7.648678e-05 1.5540345e-06 -1.4307534e-05 1.0946409e-05
2.7207934e-06 6.562956e-05 -3.0912364e-05 0.0005245091 -3.84351e-05 3.4849716e-05 -8.003713e-06 -9.6878444e-05
3.144922e-05 7.286575e-05 0.00018193749 7.36865e-05
00000000: c0d2 51b9 cd29 0fb6 4692 dbb9 7e65 3d38
00000010: 74b3 d737 d259 4f37 0f98 95b7 19bf 2435
00000020: 8fed 8036 38f6 89b8 bc93 d6b7 62bb 58b8
00000030: fa07 4bb9 6ca9 0439 07dd 58b9 a956 8ab9
00000040: 7e90 1c38 ecb4 31b8 9e95 bab6 5062 e5b6
00000050: 33f3 edb6 d7f9 e639 c40f c2b5 109f 3e38
00000060: 87f2 2939 952f c938 f0c8 d6b5 8f99 d739
00000070: ba11 83b9 e33f 0fba ec32 8836 c8f0 9fb8
00000080: bc74 66b5 77dd 44b8 60fe 4438 8892 4bb8
00000090: efeb 29b7 c679 f0b8 6005 8fb7 5c4f 9db9
000000a0: e5a4 c0b8 c2d4 a937 c962 34b8 bacd 60b8
000000b0: 8629 fab8 c4e1 a9b9 c9e2 b03a 1962 93b8
000000c0: 76d6 9d37 5715 1d39 dc1f af38 53ec b437
000000d0: fe98 ceb9 c0ee 4439 3cdf 5c37 94a5 81b9
000000e0: d866 38b8 d94e a4b9 78e4 1bb9 b0f7 cab5
000000f0: cd99 b037 edef f0b7 2e2f ec37 fea8 a2b6
00000100: b084 3a38 64df 9d36 3dcd 6eb7 600e 15b8
00000110: cea8 8438 520e a539 472a 27b9 fec5 a538
00000120: 0eb4 7335 ec14 23b8 a777 fc36 a840 a3b7
00000130: 7045 bdb5 faa2 20b8 fcde 1938 cff9 c038
00000140: c3a3 2f38 6c10 0d39 9188 79b8 ce06 5038
00000150: 8767 a0b8 3894 d035 640a 70b7 78a6 3737
00000160: e096 3636 9aa2 8938 e6a7 01b8 367f 093a
00000170: 6035 21b8 992b 1238 b047 06b7 382b cbb8
00000180: 58e8 0338 80cf 9838 79c6 3e39 2388 9a38

classfier.bn1.weight f4 [100]
0.9792763 0.91750175 1.0073936 1.0063179 0.9408137 0.96641594 1.0071845 0.9260445
0.9604617 1.0085541 1.0037498 0.95166653 1.0480376 1.0631157 1.0864842 0.9619197
0.9938038 0.9726478 0.95909727 0.9614351 0.90761954 1.0231725 0.92880636 0.91106063
1.0991812 1.0327808 0.9395225 0.9944844 1.0943348 1.113102 1.0328069 1.0173239
0.9441814 0.96676207 0.96561486 1.0161005 0.9386261 0.9432566 0.9367556 0.9983442
1.0376526 0.94381326 0.97734874 0.99562526 0.9613933 0.9949775 0.9960256 0.96651727
1.0547355 0.987084 0.9733993 0.9514708 0.97932464 1.0020692 1.0111405 0.9986436
1.008354 0.9653916 1.0031112 0.94294477 0.9318067 0.93482745 1.0019624 0.9568859
0.9697424 0.9074846 0.98063874 0.9975641 1.0107278 0.95355433 0.9289131 1.0365815
0.90197515 1.0106436 0.92277277 0.97027224 0.9533638 0.9847505 1.0392349 0.94537836
0.9490358 1.0117068 0.9997827 0.95875305 0.9932858 1.0701413 0.95406353 0.95842296
1.0043019 1.0251708 0.9833787 0.9982339 0.9786111 1.024165 0.97214663 1.0011804
0.99084085 1.0198861 0.98973954 0.97287506
00000000: dab1 7a3f 65e1 6a3f 46f2 803f 06cf 803f
00000010: 2bd9 703f 0967 773f 6ceb 803f 4111 6d3f
00000020: d1e0 753f 4d18 813f e07a 803f 6ba0 733f
00000030: 1926 863f 2d14 883f ea11 8b3f 5f40 763f
00000040: ed69 7e3f 72ff 783f 6687 753f 9c20 763f
00000050: c159 683f 51f7 823f 41c6 6d3f 453b 693f
00000060: f8b1 8c3f 2932 843f 8c84 703f 8896 7e3f
00000070: 2a13 8c3f 207a 8e3f 0433 843f ab37 823f
00000080: dfb5 713f b87d 773f 8932 773f 950f 823f
00000090: cd49 703f 4479 713f 37cf 6f3f 7c93 7f3f
000000a0: cdd1 843f bf9d 713f 8733 7a3f 4ce1 7e3f
000000b0: df1d 763f d8b6 7e3f 89fb 7e3f ad6d 773f
000000c0: 9301 873f 89b1 7c3f b230 793f 9793 733f
000000d0: 05b5 7a3f ce43 803f 0d6d 813f 1ba7 7f3f
000000e0: be11 813f e723 773f f365 803f d464 713f
000000f0: e28a 6e3f da50 6f3f 4e40 803f 79f6 743f
00000100: 0a41 783f e950 683f 240b 7b3f 5c60 7f3f
00000110: 875f 813f 231c 743f 40cd 6d3f b4ae 843f
00000120: d8e7 663f c55c 813f d63a 6c3f c363 783f
00000130: a60f 743f 9c18 7c3f a605 853f 5104 723f
00000140: 03f4 723f 9c7f 813f c2f1 7f3f d770 753f
00000150: fa47 7e3f 64fa 883f 823d 743f 355b 753f
00000160: f78c 803f cc38 833f b5be 7b3f 428c 7f3f
00000170: 4286 7a3f d717 833f 9ade 783f ae26 803f
00000180: bfa7 7d3f a18b 823f 925f 7d3f 570e 793f

classfier.bn1.bias f4 [100]
-0.18933392 0.002396094 -0.105222106 -0.120488085 -0.03841647 0.037751555 -0.11136514 -0.07990776
-0.046978213 -0.30418423 -0.20884399 -0.15889277 -0.08947193 0.007023792 0.028048987 -0.14065559
-0.02007533 -0.065008484 -0.049203753 -0.074804515 0.0076773595 -0.08973207 -0.106383525 -0.020202748
-0.11215919 -0.18955849 -0.10849188 -0.16779958 -0.08285581 -0.06951055 -0.144233 -0.06358873
0.031112455 -0.06737283 0.0006457366 -0.20682006 -0.095377095 -0.08697302 -0.08828793 -0.18763576
-0.10536612 -0.08542102 -0.050638516 -0.11388901 -0.04507322 -0.18153541 -0.25016809 -0.09908007
-0.072800264 -0.121813014 -0.06191717 -0.1316053 -0.10911305 -0.27504486 -0.1774371 -0.19160686
-0.05099311 -0.085308656 0.009929053 -0.050456036 0.0153483385 -0.07386497 -0.07357766 0.031479925
-0.15612063 -0.028888162 -0.071242616 -0.08294667 -0.010158185 -0.12127923 -0.053612385 -0.04400303
0.004099854 -0.2227546 -0.0040993425 0.028702134 0.023303311 0.005293165 0.0042675515 -0.26911795
-0.16190673 -0.20038149 -0.17470573 -0.18974689 -0.08544675 0.028004842 0.03665127 -0.08722598
-0.12599184 -0.037815433 -0.095668755 -0.051271837 -0.1858493 -0.15464965 0.044266615 -0.14757544
0.0051386026 -0.1448262 -0.16020766 -0.22615731
00000000: c0e0 41be c907 1d3b b07e d7bd 75c2 f6bd
00000010: 975a 1dbd 60a1 1a3d 6813 e4bd aea6 a3bd
00000020: 3a6c 40bd 09be 9bbe 33db 55be c9b4 22be
00000030: 0f3d b7bd d627 e63b fdc6 e53c 0508 10be
00000040: 0575 a4bc 2b23 85bd e089 49bd 1c33 99bd
00000050: 5c92 fb3b 73c5 b7bd 9bdf d9bd 3c80 a5bc
00000060: b8b3 e5bd 9f1b 42be fe30 debd a7d3 2bbe
00000070: 4fb0 a9bd 8c5b 8ebd d1b1 13be cf3a 82bd
00000080: 8cdf fe3c c4fa 89bd a646 293a a3c8 53be
00000090: 1155 c3bd e91e b2bd 4dd0 b4bd 9723 40be
000000a0: 31ca d7bd 37f1 aebd 556a 4fbd a43e e9bd
000000b0: b29e 38bd 6be4 39be 0816 80be 7eea cabd
000000c0: 4e18 95bd 1a79 f9bd dc9c 7dbd 8ac3 06be
000000d0: aa76 dfbd aed2 8cbe 12b2 35be 9734 44be
000000e0: 27de 50bd 4eb6 aebd 77ad 223c fdaa 4ebd
000000f0: 9977 7b3c 8446 97bd e2af 96bd 18f1 003d
00000100: 16de 1fbe dea6 ecbc a6e7 91bd f2df a9bd
00000110: 846e 26bc 3f61 f8bd a998 5bbd 853c 34bd
00000120: 1158 863b c819 64be c753 86bb bd20 eb3c
00000130: 96e6 be3c 4972 ad3b d1d6 8b3b d4c9 89be
00000140: e1ca 25be ce30 4dbe 0fe6 32be 024d 42be
00000150: b5fe aebd 696a e53c a41f 163d 89a3 b2bd
00000160: 0104 01be 5be4 1abd fbed c3bd 6b02 52bd
00000170: 474f 3ebe 7a5c 1ebe e950 353d 041e 17be
00000180: b961 a83b 524d 14be 7a0d 24be c895 67be

classfier.bn1.running_mean f4 [100]
-0.017213438 0.07580652 -0.008291273 -0.030046243 0.0018151917 0.2263072 -0.08650022 0.7544822
0.70662636 -0.027780153 -0.0426616 -0.02294949 0.042377867 -0.04174773 0.04213277 -0.045574293
-0.13154097 0.013095945 0.35606217 0.12266749 -0.4831646 -0.08722263 0.021333426 0.2580665
0.02964648 -0.018372418 -0.10507286 -0.03254288 0.048050422 0.013843562 0.0403322 -0.034451865
-0.91315883 0.065916225 0.09816857 -0.026431283 0.30508718 0.25067544 -0.24150229 0.011402113
0.06664523 0.2148916 -0.2203109 0.0067871185 0.028486043 -0.026641238 -0.039595254 -0.0029120937
0.025202494 -0.0878806 -0.041004427 0.07275452 -0.018206721 -0.028365832 -0.026017148 -0.045933355
0.070161015 0.07672562 -0.051104307 -0.5526722 0.22376336 0.29534566 -0.018598162 -0.43081027
0.016153758 0.18036243 -0.413765 -0.056506384 0.01599379 -0.00895708 0.043324098 0.02135408
-0.52857196 -0.07061115 0.2258353 0.30395213 0.32781738 -0.1433584 0.03152001 -0.046751373
0.054722987 -0.016813945 -0.05604904 -0.0638764 0.036627598 -0.02825712 -0.19460312 0.038155176
-0.034779426 0.03512809 -0.07420639 0.038581483 -0.0022602591 -0.044554852 0.3843168 -0.015664427
-0.12217595 0.002617679 -0.029783577 -0.064375676
00000000: 3203 8dbc 7340 9b3d 1fd8 07bc 8a23 f6bc
00000010: baeb ed3a 13bd 673e 0727 b1bd bf25 413f
00000020: 77e5 343f 3493 e3bc eebd 2ebd 9200 bcbc
00000030: 6a94 2d3d abff 2abd 6993 2c3d 1cac 3abd
00000040: adb2 06be 6090 563c c84d b63e 1839 fb3d
00000050: 5a61 f7be c7a1 b2bd 70c3 ae3c 4b21 843e
00000060: 2ddd f23c c181 96bc 7130 d7bd af4b 05bd
00000070: 85d0 443d 1cd0 623c 6033 253d 661d 0dbd
00000080: c7c4 69bf 16ff 863d 9a0c c93d 6b86 d8bc
00000090: 6334 9c3e 8858 803e 604c 77be eecf 3a3c
000000a0: 4b7d 883d 8b0c 5c3e 2e99 61be 7a66 de3b
000000b0: 905b e93c ba3e dabc a22e 22bd d3d8 3ebb
000000c0: 7675 ce3c befa b3bd 42f4 27bd 5200 953d
000000d0: 4326 95bc 765f e8bc ea21 d5bc 9d24 3cbd
000000e0: 94b0 8f3d 5222 9d3d c052 51bd ed7b 0dbf
000000f0: 3922 653e 8c37 973e 2c5b 98bc 2a93 dcbe
00000100: e354 843c eeb0 383e 02d9 d3be 3d73 67bd
00000110: 6905 833c b7c0 12bc 9c74 313d c0ee ae3c
00000120: 7e50 07bf 949c 90bd 5e41 673e 9d9f 9b3e
00000130: aed7 a73e 8bcc 12be 201b 013d 5e7e 3fbd
00000140: 3625 603d 66bd 89bc ae93 65bd a1d1 82bd
00000150: d206 163d 7a7b e7bc 0a46 47be 9a48 1c3d
00000160: df74 0ebd 79e2 0f3d 85f9 97bd 9e07 1e3d
00000170: db20 14bb 267f 36bd 2cc5 c43e af52 80bc
00000180: 6237 fabd 5e8d 2b3b b0fc f3bc 65d7 83bd

classfier.bn1.running_var f4 [100]
0.00083219213 0.0019964708 0.0007850814 0.0010257949 0.0015226782 0.00913672 0.0020247549 0.08479414
0.06892931 0.0005833636 0.0010855546 0.00083980686 0.0018589315 0.0013573945 0.0012501004 0.0013102386
0.0035903978 0.0015609703 0.018704774 0.0034895523 0.036647428 0.001860372 0.0017116076 0.010120419
0.0006679025 0.00086949137 0.0021195244 0.00059369596 0.0011330234 0.00057788944 0.0011931177 0.0011688872
0.12401081 0.0011726113 0.0029003406 0.0006720571 0.0135189 0.012009245 0.010034734 0.0007002955
0.0012823789 0.0077180634 0.007817079 0.00076283736 0.0012884038 0.0011207885 0.0007446636 0.0010202857
0.0006870074 0.0014563894 0.0021562919 0.0024375215 0.0008099786 0.00092583755 0.0009722423 0.00089481124
0.001897047 0.0016635504 0.0018337773 0.045144603 0.008573386 0.013095007 0.0016908314 0.029331189
0.00088871794 0.004165805 0.026222147 0.0015184374 0.0009883243 0.0008801388 0.0010582295 0.0013570862
0.0409855 0.0014339375 0.008123768 0.0150432205 0.017680863 0.0046885563 0.0008175164 0.0011209808
0.0021596574 0.0010042782 0.0012143786 0.0013043425 0.0012437331 0.0009654806 0.00721306 0.0019966708
0.0005910819 0.0011927078 0.0015645424 0.0011402678 0.000928646 0.0008736143 0.022425259 0.0010874793
0.003160281 0.0008694477 0.00078790175 0.0012268961
00000000: 7827 5a3a 39d7 023b eccd 4d3a f773 863a
00000010: 9a94 c73a 2eb2 153c c0b1 043b 8da8 ad3d
00000020: cf2a 8d3d deec 183a 2b49 8e3a 7c26 5c3a
00000030: 64a7 f33a 9aea b13a 69da a33a 50bc ab3a
00000040: e14c 6b3b 7999 cc3a c13a 993c f9b0 643b
00000050: 9d1b 163d bad7 f33a 0558 e03a 1dd0 253c
00000060: 2e16 2f3a 94ee 633a b8e7 0a3b 43a2 1b3a
00000070: f581 943a 817d 173a 6362 9c3a 5935 993a
00000080: 61f9 fd3d 4eb2 993a a413 3e3b fd2c 303a
00000090: 607e 5d3c 6dc2 443c ba68 243c 0994 373a
000000a0: 7f15 a83a cfe7 fc3b 3513 003c 26f9 473a
000000b0: a8df a83a 6ce7 923a 8735 433a 1bbb 853a
000000c0: 4918 343a 52e4 be3a 9350 0d3b d3be 1f3b
000000d0: be54 543a e8b3 723a 14de 7e3a c491 6a3a
000000e0: 56a6 f83a 7d0b da3a 5b5b f03a 8ce9 383d
000000f0: 6377 0c3c 718c 563c e39e dd3a f647 f03c
00000100: daf8 683a 4e81 883b d4cf d63c 4e06 c73a
00000110: a98a 813a 1db9 663a 4ab4 8a3a 42e0 b13a
00000120: 69e0 273d f5f2 bb3a 8d19 053c d777 763c
00000130: 75d7 903c 76a2 993b 994e 563a e0ed 923a
00000140: 0a89 0d3b fca1 833a c92b 9f3a 79f6 aa3a
00000150: c204 a33a 4e18 7d3a 885b ec3b 94da 023b
00000160: d6f2 1a3a a254 9c3a 5511 cd3a 0a75 953a
00000170: 6170 733a 4303 653a 2db5 b73c c089 8e3a
00000180: b81c 4f3b a6eb 633a 318b 4e3a cdcf a03a

classfier.fc2.weight f4 [50, 100]
0.015371538 0.052600563 0.011822231 -0.11173677 0.05651154 -0.047887024 0.0025978405 -0.06390758
0.037254337 -0.0049449117 -0.04336865 -0.121526666 -0.00070011953 -0.011882732 0.012371683 -0.09310157
-0.018108698 -0.060823753 -0.05862702 0.037494216 -0.078003876 -0.046051204 0.014595406 0.059011783
0.0428933 0.016631955 0.031824067 0.024693469 0.040505137 -0.085234605 -0.010706917 -0.0678973
-0.09624856 -0.0076923002 -0.021184653 0.010343552 -0.036672805 0.046014618 0.047715597 -0.043946624
0.0466487 -0.043836236 -0.08114692 -0.05270408 0.08039802 -0.11416085 -0.077801295 -0.059084844
-0.078175 0.018714322 0.051709797 -0.02980009 0.10398297 -0.040461008 -0.091280974 -0.043404806
0.092500255 0.04547179 0.07970755 -0.035578515 0.084511615 0.026051255 -0.19648263 -0.065277554
0.031979434 0.064182475 0.037314914 -0.083914146 0.061187666 -0.082064845 -0.011179812 0.08235233
-0.039366968 0.0064649903 0.051113132 -0.045239802 0.0692973 0.05357025 -0.019767756 0.04618598
-0.009608436 0.08381678 0.040606167 0.046332363 -0.09392162 -0.021641111 0.012705967 -0.09617018
-0.113744795 -0.025409153 0.0491276 0.034181308 -0.15398669 -0.080020964 -0.036993995 0.03985161
-0.092311606 -0.07159473 -0.0915565 0.02576994 0.015589213 -0.035311762 0.07810752 0.06046775
0.015716515 0.037780315 0.061820302 0.057585843 0.076949485 -0.025996247 -0.06152204 -0.044219445
0.03890266 0.02853796 0.07060517 -0.0027687165 -0.007827671 -0.059051245 0.07680325 -0.039319083
0.060312774 -0.042999744 0.036132887 0.11020484 0.042995565 0.051437914 -0.0052674995 -0.01466769
0.054812368 -0.055340838 -0.007543263 -0.055825457 0.0076551205 0.10095745 0.11298532 -0.09470969
0.061690085 0.0024818527 0.11125037 -0.029142575 0.023253858 -0.07010214 0.046535682 -0.04630586
0.10565136 -0.047861584 0.037682403 0.045697603 0.103355214 -0.016464654 0.16128387 -0.06957833
-0.08979888 -0.012467873 0.001410695 0.12762329 -0.07381818 0.06718263 0.029205048 0.028572332
-0.010560137 -0.068690576 0.0072080884 -0.019732676 -0.042193685 0.066634856 0.073337056 0.045297667
0.045856275 0.06742282 -0.0010715794 -0.056939196 0.031002525 0.054940585 -0.036366917 0.0020642048
-0.04766408 -0.011481078 -0.07312235 -0.018928088 -0.03040988 0.069395185 0.029301843 0.0015346255
0.0951724 0.090124995 0.016687652 0.037553694 0.0516533 0.106315956 0.016691064 0.06093454
-0.024309244 -0.05689612 -0.01470829 -0.039542858 0.101682015 -0.111101136 0.01717993 -0.028872117
0.0570424 0.06071056 0.0010532486 -0.02072837 0.017875358 -0.055159424 0.08435997 -0.08097309
-0.07163588 0.017034959 0.10725876 0.05845972 -0.09900405 0.00848847 -0.12585327 0.07098183
-0.03625689 0.021789499 0.035396837 0.03291144 0.04398968 0.06870012 -0.041643187 0.0115374485
-0.15008806 0.107365996 0.020194089 0.09586478 -0.064180344 -0.16210042 -0.060627934 -0.0402812
0.024774093 0.035549454 0.0652984 -0.0034202617 -0.0139831295 0.04886226 0.0101523595 0.08138626
-0.090555 -0.058097947 -0.003460477 -0.1385 -0.023585012 0.0760044 0.019338762 0.050449517
-0.09702212 0.05011044 -0.07194871 0.046898313 0.10069726 0.061587334 0.0031556105 -0.015965661
00000000: e7d8 7b3c b073 573d 08b2 413c 3fd6 e4bd
00000010: a578 673d 2f25 44bd 8840 2a3b fae1 82bd
00000020: 0198 183d ed08 a2bb 53a3 31bd f9e2 f8bd
00000030: 3a88 37ba caaf 42bc 99b2 4a3c 09ac bebd
00000040: b158 94bc 5422 79bd e322 70bd 8993 193d
00000050: 7fc0 9fbd 30a0 3cbd 9221 6f3c 57b6 713d
00000060: e3b0 2f3d bd3f 883c f459 023d f549 ca3c
00000070: b7e8 253d 7b8f aebd 116c 2fbc bd0d 8bbd
00000080: f71d c5bd b10f fcbb 708b adbc 0078 293c
00000090: 3936 16bd d379 3c3d 6e71 433d 6001 34bd
000000a0: b512 3f3d a08d 33bd 5b30 a6bd 3ce0 57bd
000000b0: b8a7 a43d 2acd e9bd 4956 9fbd f302 72bd
000000c0: 371a a0bd c74e 993c a7cd 533d 511f f4bc
000000d0: 06f5 d43d 71ba 25bd 85f1 babd 3dc9 31bd
000000e0: c670 bd3d a140 3a3d b63d a33d c7ba 11bd
000000f0: 6d14 ad3d 7169 d53c be32 49be 3db0 85bd
00000100: defc 023d 1a72 833d 86d7 183d 2edb abbd
00000110: eb9f 7a3d 9d11 a8bd 882b 37bc 57a8 a83d
00000120: 423f 21bd 45d8 d33b 015c 513d 5f4d 39bd
00000130: beeb 8d3d 7a6c 5b3d fdef a1bc 832d 3d3d
00000140: b46c 1dbc 22a8 ab3d a752 263d 01c7 3d3d
00000150: fa59 c0bd b348 b1bc b02c 503c dff4 c4bd
00000160: 08f3 e8bd db26 d0bc 063a 493d b301 0c3d
00000170: b0ae 1dbe 08e2 a3bd 0487 17bd 713b 233d
00000180: de0d bdbd 42a0 92bd f981 bbbd 7b1b d33c
00000190: e669 7f3c 11a3 10bd d6f6 9f3d 08ad 773d
000001a0: ecbf 803c 88bf 1a3d 4937 7d3d 22df 6b3d
000001b0: b197 9d3d 15f6 d4bc 89fe 7bbd 731f 35bd
000001c0: 6558 1f3d 71c8 e93c 7299 903d 5b73 35bb
000001d0: a23f 00bc b8df 71bd 064b 9d3d 0c0d 21bd
000001e0: 870a 773d 8020 30bd 1400 143d 13b3 e13d
000001f0: 1e1c 303d 90b0 523d fd9a acbb c050 70bc
00000200: ef82 603d 13ad 62bd 7a2d f7bb 3ca9 64bd
00000210: ced7 fa3b c8c2 ce3d d964 e73d 27f7 c1bd
00000220: beae 7c3d 94a6 223b 3cd7 e33d 69bc eebc
00000230: e07e be3c b691 8fbd 339c 3e3d 37ab 3dbd
00000240: bd5f d83d 820a 44bd dd58 1a3d 692d 3b3d
00000250: e6ab d33d e2e0 86bc 9927 253e 157f 8ebd
00000260: 7ae8 b7bd 0d46 4cbc 12e7 b83a aeaf 023e
00000270: fc2d 97bd 0c97 893d 6d3f ef3c 8610 ea3c
00000280: 6d04 2dbc a5ad 8cbd d431 ec3b 6ca6 a1bc
00000290: 49d3 2cbd db77 883d bd31 963d 0c8a 393d
000002a0: cad3 3b3d fa14 8a3d 3d74 8cba 1339 69bd
000002b0: 02f9 fd3c 6109 613d 7af5 14bd 9c47 073b
000002c0: 693b 43bd 221b 3cbc 2cc1 95bd 140f 9bbc
000002d0: 241e f9bc 101f 8e3d 6b0a f03c 7d25 c93a
000002e0: bfe9 c23d 7493 b83d 8bb4 883c e7d1 193d
000002f0: 6992 533d 2ebc d93d b3bb 883c 7f96 793d
00000300: 2e24 c7bc e80b 69bd 0afb 70bc b1f7 21bd
00000310: a93e d03d fe88 e3bd edbc 8c3c 3885 ecbc
00000320: 4ba5 693d a3ab 783d 290d 8a3a 8bce a9bc
00000330: 586f 923c d9ee 61bd ecc4 ac3d 38d5 a5bd
00000340: d5b5 92bd e68c 8b3c 7baa db3d 7673 6f3d
00000350: a3c2 cabd 3913 0b3c aedf 00be ec5e 913d
00000360: 1b82 14bd e47f b23c 46fc 103d 25ce 063d
00000370: 862e 343d a6b2 8c3d 0c92 2abd 9107 3d3c
00000380: afb0 19be b4e2 db3d 136e a53c c154 c43d
00000390: fc70 83bd a7fd 25be ff54 78bd e6fd 24bd
000003a0: 0af3 ca3c 4e9c 113d 2bbb 853d 7826 60bb
000003b0: 7f19 65bc cb23 483d 1556 263c d7ad a63d
000003c0: e674 b9bd 1df8 6dbd 2cc9 62bb f2d2 0dbe
000003d0: 5b35 c1bc 32a8 9b3d 536c 9e3c 27a4 4e3d
000003e0: 89b3 c6bd 9b40 4d3d d859 93bd 7218 403d
000003f0: 5d3a ce3d 0043 7c3d 5cce 4e3b 6bca 82bc

classfier.fc2.bias f4 [50]
3.8190474e-06 8.443661e-06 -4.663091e-06 -1.8489447e-05 2.5747142e-06 -2.9888366e-07 2.7736392e-06 -1.4643497e-05
9.681863e-06 7.6194688e-06 4.7617327e-06 -2.8306542e-05 -1.6682245e-07 -4.452571e-06 -2.9911826e-06 2.4660678e-06
-2.8858244e-06 2.0688085e-06 4.5309122e-08 -3.5078067e-06 -2.0941445e-05 -7.6295455e-06 -1.9280214e-06 3.6386125e-06
5.598086e-06 -1.6362616e-06 3.143091e-06 -5.9989566e-06 -1.2741331e-05 -1.815974e-07 -1.5079747e-06 -3.285718e-05
9.901711e-07 -1.0961102e-06 2.7673514e-06 -1.0634257e-05 -1.7298972e-06 7.645987e-06 3.316458e-06 7.751047e-06
-9.010125e-07 2.0491478e-05 -6.280158e-05 -2.199045e-05 1.6998604e-06 7.2950047e-07 1.3997967e-06 2.008116e-06
7.636078e-06 1.9366282e-06
00000000: 5e25 8036 3fa9 0d37 a677 9cb6 c919 9bb7
00000010: 41c9 2c36 4276 a0b4 c222 3a36 57ad 75b7
00000020: 496f 2237 bdaa ff36 f9c6 9f36 d673 edb7
00000030: ce1f 33b4 4b67 95b6 20bc 48b6 b97e 2536
00000040: 16aa 41b6 dcd5 0a36 e899 4233 a967 6bb6
00000050: 69ab afb7 a600 00b7 2863 01b6 e32e 7436
00000060: 31d7 bb36 859d dbb5 e4ed 5236 a54a c9b6
00000070: 9ac3 55b7 1dfd 42b4 9e65 cab5 21d0 09b8
00000080: 05e6 8435 0f1e 93b5 bcb6 3936 c969 32b7
00000090: d12e e8b5 4447 0037 5190 5e36 7e0a 0237
000000a0: 1cdd 71b5 1de5 ab37 57b4 83b8 2278 b8b7
000000b0: c226 e435 e4d2 4335 a6e0 bb35 2cc3 0636
000000c0: b51c 0037 05f7 0136

classfier.bn2.weight f4 [50]
1.0893922 0.9263575 1.0541295 1.0216663 1.0483025 0.9064855 0.9817194 0.9437163
0.9698467 0.91106206 1.1307087 1.0327209 1.0335848 1.0387282 1.0028553 0.98883563
0.9329564 0.9240282 0.96198136 0.9937974 0.9678995 1.013213 1.0576912 0.9452239
1.0831921 1.0314118 1.0191995 0.96698755 1.0043435 0.9826083 1.0078574 0.97194934
0.94574064 0.95231193 0.909272 0.9500036 0.936243 1.0141639 1.0071992 0.96230763
0.9738458 1.0265796 1.0351025 1.1012203 1.0622531 1.1486188 0.9480207 0.95535606
0.89887655 1.0429963
00000000: 3471 8b3f c425 6d3f b7ed 863f f6c5 823f
00000010: c72e 863f 6f0f 683f f651 7b3f 6497 713f
00000020: e047 783f 5d3b 693f 10bb 903f 3330 843f
00000030: 824c 843f 0cf5 843f 905d 803f 5524 7d3f
00000040: 3bd6 6e3f 1d8d 6c3f 6944 763f 8269 7e3f
00000050: 43c8 773f f7b0 813f 6d62 873f 32fa 713f
00000060: 0aa6 8a3f 4d05 843f 2175 823f 7f8c 773f
00000070: 548e 803f 388c 7b3f 7901 813f acd1 783f
00000080: 0f1c 723f b7ca 733f 0dc6 683f 7033 733f
00000090: 9fad 6f3f 1fd0 813f e7eb 803f cb59 763f
000000a0: f54d 793f f666 833f 3d7e 843f c9f4 8c3f
000000b0: e9f7 873f f105 933f 7cb1 723f 3792 743f
000000c0: c61c 663f e780 853f

classfier.bn2.bias f4 [50]
0.05957012 -0.13370103 -0.22132869 -0.023822827 0.078163475 -0.17042683 0.055451754 -0.06902489
-0.16793592 -0.15572508 0.05433463 -0.18616708 -0.19319996 0.06936244 -0.14618497 -0.039488617
-0.023133285 -0.041201595 -0.038058847 -0.13400808 -0.0054290555 -0.17446369 0.07684444 -0.0342048
0.022465475 0.049775507 -0.1644629 -0.057436418 -0.16074853 0.008511168 -0.21195513 -0.11466431
-0.017352851 0.0004218482 -0.076588094 -0.16254593 -0.06994628 -0.21821707 -0.1463182 -0.080912925
0.011582742 0.007179872 -0.17006469 0.06627923 0.018839292 0.095715836 -0.031003729 -0.0210125
-0.11580049 0.02693072
00000000: ccff 733d ece8 08be fda3 62be 1728 c3bc
00000010: 2c14 a03d 5f84 2ebe 6121 633d ec5c 8dbd
00000020: 65f7 2bbe 6576 1fbe fd8d 5e3d 95a2 3ebe
00000030: 36d6 45be e50d 8e3d 83b1 15be d1be 21bd
00000040: 0482 bdbc 01c3 28bd 98e3 1bbd 6a39 09be
00000050: 38e6 b1bb 9ca6 32be 9e60 9d3d 551a 0cbd
00000060: 8409 b83c 67e1 4b3d f668 28be 7342 6bbd
00000070: 439b 24be 6d72 0b3c c40a 59be 1fd5 eabd
00000080: 9127 8ebc 822b dd39 38da 9cbd 7172 26be
00000090: ff3f 8fbd 4c74 5fbe 70d4 15be adb5 a5bd
000000a0: 8bc5 3d3c 2245 eb3b 7025 2ebe 68bd 873d
000000b0: dc54 9a3c aa06 c43d 88fb fdbc 6822 acbc
000000c0: cf28 edbd d09d dc3c

classfier.bn2.running_mean f4 [50]
-0.38288233 0.5122659 0.09288929 -0.56293446 -0.94346946 0.32276016 -0.6499506 0.2125176
0.33199704 0.44644526 -0.7576898 0.03621063 0.2967159 -0.90385425 0.06947705 -0.29606673
-0.4112311 -0.00015117577 -0.49024323 0.09248376 -0.5700149 0.24090661 -0.8317872 -0.7018005
-0.18732375 -0.6418356 0.16540322 0.10959024 -0.062297408 -0.4361467 0.18438655 0.37876046
-0.2789505 -0.82250154 -0.5171411 0.28398517 0.14391 0.052544728 0.020118248 -0.13693504
-0.2920847 0.23605816 0.020832235 -0.63555557 -0.835489 -0.8109308 -0.89639 -0.8153984
0.13574569 -0.34270346
00000000: 2709 c4be dc23 033f bd3c be3d 791c 10bf
00000010: 3787 71bf d240 a53e 2a63 26bf 379e 593e
00000020: 84fb a93e 7994 e43e f5f7 41bf 9951 143d
00000030: 25eb 973e fe62 67bf fc49 8e3d 0f96 97be
00000040: e28c d2be f084 1eb9 2901 fbbe 2068 bd3d
00000050: 7fec 11bf 39b0 763e 02f0 54bf 33a9 33bf
00000060: ccd1 3fbe 564f 24bf 765f 293e d970 e03d
00000070: 912b 7fbd 9f4e dfbe d4cf 3c3e e4ec c13e
00000080: 9ad2 8ebe 768f 52bf 5c63 04bf 8166 913e
00000090: 255d 133e 2439 573d 06cf a43c b338 0cbe
000000a0: 208c 95be 3bb9 713e 5da8 aa3c c5b3 22bf
000000b0: 9be2 55bf 2999 4fbf d179 65bf f3bd 50bf
000000c0: eb00 0b3e d476 afbe

classfier.bn2.running_var f4 [50]
0.36834526 0.25696543 0.75391585 0.35939857 1.2733908 0.43708482 0.56222886 0.19386998
0.5530688 0.5259533 0.51773393 0.7368818 0.55569434 0.47364157 0.4787888 0.55917275
0.3809255 0.4763431 0.23919214 0.44857946 0.29284605 0.59036684 0.45595878 0.33349282
0.5202499 0.33816373 0.5604554 0.44974327 0.37193513 0.34539634 0.5925894 0.4168292
0.31271315 0.3682112 0.41508758 0.24239472 0.3592241 0.6083701 0.60665786 0.49168983
0.7861623 0.42559 0.54667854 0.7799926 0.54840964 0.58443576 0.7184082 0.7716652
0.4252587 0.5099049
00000000: c097 bc3e f990 833e a100 413f 1703 b83e
00000010: 78fe a23f 95c9 df3e 3bee 0f3f da85 463e
00000020: eb95 0d3f e0a4 063f 368a 043f 49a4 3c3f
00000030: fc41 0e3f 2681 f23e ce23 f53e f225 0f3f
00000040: ab08 c33e 3ee3 f33e c9ee 743e 35ac e53e
00000050: ebef 953e 4822 173f 6e73 e93e 92bf aa3e
00000060: 192f 053f cc23 ad3e 017a 0f3f c044 e63e
00000070: 486e be3e cad7 b03e f0b3 173f a36a d53e
00000080: f01b a03e 2e86 bc3e 5c86 d43e 5236 783e
00000090: 39ec b73e 25be 1b3f ee4d 1b3f c5be fb3e
000000a0: ef41 493f efe6 d93e 20f3 0b3f 98ad 473f
000000b0: 9364 0c3f 959d 153f 9ae9 373f da8b 453f
000000c0: 82bb d93e 2189 023f

classfier.fc3.weight f4 [25, 50]
-0.13003214 -0.06300619 -0.044951655 0.029616024 0.045777064 -0.12523374 0.016526861 -0.17767826
-0.05861277 0.026165446 0.071246594 -0.047414593 -0.077668466 -0.019710522 -0.08638121 0.054241743
-0.031282574 -0.044001233 -0.00449913 -0.0645593 0.033846594 -0.053487103 0.07396991 -0.028251693
-0.22167411 0.0075757857 -0.07629914 -0.007832707 -0.091842465 0.022438755 -0.07441102 -0.007054206
-0.17854196 0.01909426 -0.12267784 -0.1485912 0.05265341 -0.061181996 -0.074962616 0.08978175
0.090542585 -0.11998367 -0.05218097 0.03727264 0.0489474 0.011426177 -0.05811736 0.05170177
-0.04571146 -0.13201652 -0.05659039 -0.11868678 0.10675986 -0.0674315 -0.064298615 0.09158496
0.00377193 0.04223844 0.017735228 0.152182 -0.096457385 0.12940295 0.13968678 0.013403702
0.10668901 -0.039370786 -0.0978637 -0.058707602 -0.01697747 0.12234682 -0.051013134 0.112483814
0.07418588 -0.07244099 -0.060360886 -0.00086622755 -0.013250635 -0.024869338 0.021590825 -0.040222116
0.09860988 -0.048385922 0.029449236 0.08337143 -0.049154054 0.03992561 -0.061266962 0.18949924
0.112533115 -0.092604525 -0.054547563 0.055042252 0.1441495 -0.095385656 -0.06680384 -0.024611808
0.0005837044 0.021826802 0.043905146 -0.063333504 -0.02960144 -0.04313552 0.17200714 -0.08389213
-0.0268653 0.036646154 0.045384884 -0.014294223 0.06515585 0.025702693 -0.0076356153 0.017054226
-0.020314645 0.022509204 -0.019127596 0.015049243 0.04754154 -0.018819192 -0.06912255 0.067517176
0.08607443 0.15361801 0.012562546 0.021918144 -0.053071734 -0.050931755 0.18656732 -0.13056774
0.07990045 -0.0873476 0.058675427 0.12384881 -0.0876468 0.030815747 0.08336842 0.10418275
0.010933295 0.028719526 0.12518713 0.0044741994 0.050021958 -0.06794637 0.182728 -0.11117679
-0.09996556 -0.03408506 0.03731492 -0.08902074 0.009602299 -0.06579175 -0.009924208 -0.078492485
0.18117662 0.03884699 -0.080508694 -0.013518008 -0.057511434 -0.010771909 0.14775518 0.16223215
-0.06308868 0.08502248 0.18413663 -0.0019484113 0.16380545 -0.12495314 -0.12947454 0.05455267
-0.02191314 0.057417497 -0.08443219 0.0008375339 -0.03557257 -0.007973675 -0.054746952 0.080782875
-0.027938707 -0.04168566 0.15673034 0.043336954 0.15441248 0.044743977 -0.12756822 0.030027552
0.0068440647 0.109335534 -0.059876654 -0.023271702 0.11796118 0.006498611 0.01183397 -0.031267587
-0.0062310942 -0.11250259 -0.0071769245 -0.020197805 -0.067640275 -0.01947014 -0.10287619 -0.06138068
0.003929489 -0.10539078 0.15472521 -0.09134264 -0.12156616 0.0065972703 -0.07659649 -0.0026042454
0.12023039 -0.042469885 -0.07290353 0.062080577 0.14726242 0.044082385 0.09260309 -0.13666138
-0.005159088 0.053875003 -0.014611639 0.16829103 -0.050614446 0.03594136 0.013666218 0.056667745
0.0064464724 0.05747743 0.12024052 -0.041477583 0.052275047 -0.010726345 0.14291634 0.07184029
-0.080224425 0.054725546 -0.06441918 -0.04554623 -0.089823216 0.1667746 0.10458152 0.04623197
0.016500974 0.034436807 0.07414825 -0.12246383 -0.034775015 -0.029557262 -0.028275339 -0.075716935
-0.08438156 0.03685148 -0.07906003 -0.05717445 0.05465863 -0.104571655 -0.13229102 0.1370759
00000000: 2527 05be 6409 81bd 3a1f 38bd 4e9d f23c
00000010: bb80 3b3d 463d 00be 5763 873c 4af1 35be
00000020: f213 70bd eb58 d63c bce9 913d ce35 42bd
00000030: a510 9fbd f677 a1bc a2e8 b0bd 972c 5e3d
00000040: 2822 00bd a33a 34bd 706d 93bb ab37 84bd
00000050: baa2 0a3d 4b15 5bbd 897d 973d 1870 e7bc
00000060: 8afe 62be 4c3e f83b b942 9cbd c154 00bc
00000070: e717 bcbd 7bd1 b73c ce64 98bd f826 e7bb
00000080: b4d3 36be 916b 9c3c 853e fbbd 4b28 18be
00000090: 1aab 573d f999 7abd 0086 99bd 7fdf b73d
000000a0: 646e b93d 00ba f5bd b6bb 55bd 32ab 183d
000000b0: 127d 483d dc34 3b3c 780c 6ebd 3cc5 533d
000000c0: f13b 3bbd 572f 07be 53cb 67bd 0e12 f3bd
000000d0: eaa4 da3d 8719 8abd feae 83bd e590 bb3d
000000e0: 7c32 773b 3702 2d3d 7849 913c 99d5 1b3e
000000f0: 738b c5bd 3582 043e 0d0a 0f3e 339b 5b3c
00000100: c57f da3d 4343 21bd c36c c8bd 6277 70bd
00000110: 5614 8bbc f890 fa3d 26f3 50bd ea5d e63d
00000120: c4ee 973d f15b 94bd fa3c 77bd 8c13 63ba
00000130: 3119 59bc c8ba cbbc 3edf b03c f2bf 24bd
00000140: faf3 c93d 5130 46bd 863f f13c a4be aa3d
00000150: c355 49bd 0989 233d 11f3 7abd 170c 423e
00000160: c377 e63d 71a7 bdbd 446d 5fbd fc73 613d
00000170: ed9b 133e 8e59 c3bd 74d0 88bd b49e c9bc
00000180: bd03 193a 1fce b23c e2d5 333d ffb4 81bd
00000190: b87e f2bc dfae 30bd a422 303e a3cf abbd
000001a0: 9e14 dcbc 471a 163d 80e5 393d 5132 6abc
000001b0: 6e70 853d 748e d23c 2f34 fabb 4eb5 8b3c
000001c0: e66a a6bc 3965 b83c 7ab1 9cbc 1a91 763c
000001d0: ebba 423d b52a 9abc 2090 8dbd 7246 8a3d
000001e0: ca47 b03d 0a4e 1d3e 23d3 4d3c ae8d b33c
000001f0: bf61 59bd d19d 50bd 810b 3f3e 8db3 05be
00000200: d9a2 a33d 4ce3 b2bd a555 703d 72a4 fd3d
00000210: 2a80 b3bd 4e71 fc3c 10bd aa3d c45d d53d
00000220: 9021 333c 3645 eb3c 0e31 003e 4e9c 923b
00000230: d3e3 4c3d 7727 8bbd 0d1d 3b3e a8b0 e3bd
00000240: beba ccbd c79c 0bbd 88d7 183d 8150 b6bd
00000250: f652 1d3c d3bd 86bd 2599 22bc abc0 a0bd
00000260: 5d86 393e 051e 1f3d bee1 a4bd a37a 5dbc
00000270: 1c91 6bbd a97c 30bc 224d 173e 2f20 263e
00000280: a334 81bd 4420 ae3d 508e 3c3e d661 ffba
00000290: 9ebc 273e 6fe7 ffbd f994 04be 9f72 5f3d
000002a0: 2f83 b3bc 9c2e 6b3d c9ea acbd f38d 5b3a
000002b0: 8bb4 11bd 04a4 02bc 573e 60bd 7e71 a53d
000002c0: b7df e4bc 95be 2abd eb7d 203e 1782 313d
000002d0: 4e1e 1e3e 7645 373d 3ea1 02be 57fc f53c
000002e0: 2d44 e03b 4feb df3d 3941 75bd 4ca4 bebc
000002f0: a295 f13d 4df2 d43b 45e3 413c 7112 00bd
00000300: 352e ccbb c267 e6bd 682c ebbb de75 a5bc
00000310: fc86 8abd d87f 9fbc c0b0 d2bd 4f6a 7bbd
00000320: f1c2 803b 1fd7 d7bd 4970 1e3e da11 bbbd
00000330: aef7 f8bd ea2d d83b 9fde 9cbd fdab 2abb
00000340: 5a3b f63d e7f4 2dbd 724e 95bd 3448 7e3d
00000350: f6cb 163e bb8f 343d b0a6 bd3d f6f0 0bbe
00000360: 910d a9bb 09ac 5c3d a865 6fbc 7c54 2c3e
00000370: 1851 4fbd 3f37 133d 46e8 5f3c 701c 683d
00000380: ee3c d33b 746d 6b3d a940 f63d 66e4 29bd
00000390: 5c1e 563d 8dbd 2fbc a958 123e 0121 933d
000003a0: b44c a4bd e527 603d 34ee 83bd af8e 3abd
000003b0: 3cf5 b7bd f6c6 2a3e d62e d63d bc5d 3d3d
000003c0: 0d2d 873c 9c0d 0d3d 0adb 973d 51ce fabd
000003d0: 3f70 0ebd 1222 f2bc afa1 e7bc 7b11 9bbd
000003e0: 3dd0 acbd 94f1 163d 3aea a1bd c22f 6abd
000003f0: bae1 5f3d aa29 d6bd 4c77 07be a05d 0c3e

classfier.fc3.bias f4 [25]
7.0861956e-06 2.2494817e-06 7.579443e-06 7.950727e-07 -3.1624586e-06 -8.157535e-06 -0.00088291406 3.117483e-05
-2.4108285e-05 1.8270176e-06 5.078853e-06 -0.0010368422 -1.7748622e-06 2.9124271e-06 1.3823913e-05 -2.2456327e-06
2.5673276e-06 2.3744797e-06 -3.508169e-05 -3.993813e-05 -2.818999e-06 1.1144459e-05 -2.0449046e-05 -0.0005412706
0.0010327287
00000000: f5c5 ed36 cdf5 1636 eb52 fe36 fb6c 5535
00000010: a03a 54b6 59dc 08b7 5c73 67ba b8c1 0238
00000020: 263c cab7 d937 f535 046b aa36 a7e6 87ba
00000030: cd37 eeb5 1e73 4336 41ed 6737 adb3 16b6
00000040: 5a4a 2c36 4059 1f36 ae24 13b8 3e83 27b8
00000050: 092e 3db6 16f9 3a37 fe89 abb7 0ee4 0dba
00000060: a05c 873a

classfier.bn3.weight f4 [25]
1.2182047 1.0488003 1.0023965 1.0287868 1.0454136 1.0215276 1.0542554 1.2406754
1.2836865 1.0047448 1.2903899 1.2671192 1.033193 1.2284088 1.2434651 1.0335289
1.0332373 1.2431935 1.2217097 1.014552 1.0236866 1.2085743 1.2201705 1.2610329
1.2225511
00000000: 22ee 9b3f 173f 863f 874e 803f 49af 833f
00000010: 1dd0 853f 6bc1 823f d7f1 863f 74ce 9e3f
00000020: d74f a43f 7a9b 803f 7f2b a53f f630 a23f
00000030: ab3f 843f 803c 9d3f dd29 9f3f ad4a 843f
00000040: 1f41 843f f720 9f3f fc60 9c3f d7dc 813f
00000050: 2a08 833f 90b2 9a3f 8c2e 9c3f 8769 a13f
00000060: 8e7c 9c3f

classfier.bn3.bias f4 [25]
0.22153926 -0.04799232 -0.05752309 -0.05201889 -0.051215317 -0.0543001 -0.048638027 0.24684249
0.27695727 -0.055644408 0.29582942 0.26773503 -0.037362892 0.22017017 0.23569633 -0.044952124
-0.044978444 0.2406368 0.21976475 -0.0440993 -0.052548066 0.22598335 0.24781956 0.2677949
0.21489713
00000000: 30db 623e 9893 44bd 559d 6bbd c211 55bd
00000010: 27c7 51bd c869 5ebd ab38 47bd 47c4 7c3e
00000020: 58cd 8d3e 64eb 63bd f476 973e 9114 893e
00000030: d509 19bd 4a74 613e 615a 713e b81f 38bd
00000040: 513b 38bd 7e69 763e 030a 613e 78a1 34bd
00000050: a43c 57bd 2e68 673e 69c4 7d3e 6a1c 893e
00000060: fe0d 5c3e

classfier.bn3.running_mean f4 [25]
-0.5159579 0.078687474 0.1421721 0.036628406 0.118004665 0.13141301 0.008943527 -0.31955197
-0.367883 0.15725134 -0.59076506 -0.26278985 0.049900323 -0.34729007 -0.4248076 0.20138927
0.20438585 -0.19943975 -0.32875443 0.12727387 0.141364 -0.1633829 -0.35765633 -0.4471382
-0.30417866
00000000: d115 04bf e626 a13d 9095 113e ab07 163d
00000010: 6eac f13d 2291 063e df87 123c 519c a3be
00000020: 295b bcbe 7f06 213e 613c 17bf 648c 86be
00000030: 4864 4c3d 01d0 b1be 6280 d9be fd38 4e3e
00000040: 864a 513e ef39 4cbe 8052 a8be 1554 023e
00000050: b9c1 103e d94d 27be bb1e b7be 4cef e4be
00000060: 4ebd 9bbe

classfier.bn3.running_var f4 [25]
0.47931063 1.1080431 0.8441388 1.0572921 1.0858111 1.0232075 1.1413319 0.47606593
0.4649115 0.9419586 0.43757227 0.5294847 0.91624206 0.82839376 0.8176686 1.5534683
1.0813086 0.6275847 0.49742943 1.0845555 0.8799985 0.7130422 1.1799676 0.60965765
0.66312134
00000000: 3468 f53e 5bd4 8d3f 7b19 583f 5955 873f
00000010: dcfb 8a3f 77f8 823f 2a17 923f eabe f33e
00000020: e108 ee3e 3324 713f 7909 e03e 4f8c 073f
00000030: d78e 6a3f 9d11 543f bb52 513f 0dd8 c63f
00000040: 5268 8a3f 64a9 203f 12af fe3e b7d2 8a3f
00000050: 9547 613f ef89 363f 2e09 973f 8612 1c3f
00000060: 52c2 293f

classfier.fc5.weight f4 [1, 25]
-0.37384304 0.20718 0.20201482 0.16301735 0.19895601 0.2070545 0.19401883 -0.38948655
-0.2538473 0.11765919 -0.28127715 -0.3082335 0.09618024 -0.38657197 -0.34268785 0.20963441
0.09581718 -0.35696185 -0.40810132 0.12608601 0.1577543 -0.16141407 -0.3346557 -0.36239058
-0.37700388
00000000: 5b68 bfbe fe26 543e f9dc 4e3e 05ee 263e
00000010: 20bb 4b3e 1806 543e dfac 463e c86a c7be
00000020: 46f8 81be 4df7 f03d 8f03 90be c8d0 9dbe
00000030: 25fa c43d c3ec c5be c874 afbe 67aa 563e
00000040: cc3b c43d b4c3 b6be a8f2 d0be b11c 013e
00000050: 588a 213e bb49 25be fe57 abbe 428b b9be
00000060: a706 c1be
