trained_models/2025-06-22/run_20-42-55/dnn_model_fold_3.pt (torch, 88065 bytes, 19 tensors)

classfier.fc1.weight f4 [100, 100]
0.048005424 -0.07207791 0.03510057 0.014587582 0.013847605 0.06418841 0.082600065 -0.04316301
0.09743183 -0.026142048 0.11396509 0.017215284 0.070819706 0.10459428 -0.06519274 -0.040414605
0.11473237 0.0741397 -0.037240576 0.035969216 0.0010981152 0.007314974 -0.06405034 -0.093701676
0.08274464 0.050721455 0.12168731 -0.06375289 0.104660116 -0.038192492 0.08978954 -0.060139388
-0.08219149 0.033439636 0.012152888 -0.05877692 -0.036317345 -0.07149189 0.08703115 -0.046922356
-0.083758816 -0.0047754794 -0.025522552 0.07663568 -0.12008871 0.05466837 -0.048561104 -0.0075150733
-0.050367523 -0.04033336 0.10252112 -0.02835414 0.018131437 0.08213136 -0.00250852 -0.01272152
-0.11429332 -0.04645819 0.092607915 -0.024616363 -0.08793898 -0.001645796 0.033734363 -0.07308745
0.03134556 0.020631075 0.041304108 -0.022058485 -0.04655138 0.11907956 0.094115876 0.010939889
-0.033617735 0.04895377 0.039006513 -0.030577997 0.029491352 0.013659763 -0.09194323 0.0095229475
0.11864491 -0.10791342 -0.04845392 -0.017922362 0.043334413 0.02037663 -0.0072240587 -0.062338725
-0.008061249 -0.03357382 0.041050978 -0.012513141 0.042490207 0.100086935 -0.106804304 0.09759673
-0.0039895456 -0.061394036 0.019178389 0.09262459 -0.012555146 -0.10278189 -0.008175542 -0.05289674
-0.02218687 0.080412135 0.09559428 0.015014092 -0.00749372 -0.025255611 0.06657964 -0.07272047
-0.012666943 -0.039970357 0.009316497 0.034567546 -0.034247003 -0.03753001 -0.0056548766 -0.021324115
0.023632199 0.00058858166 0.06310613 0.046037305 0.080637895 -0.031544093 -0.09073624 -0.06792021
0.0027778565 0.085476674 0.06435789 -0.0775932 -0.026615305 0.016133064 0.040684626 0.065573156
-0.044501524 0.019435285 -0.07704206 0.042140346 0.020603621 0.099486284 0.018864226 0.058510628
-0.0028230066 -0.07610802 -0.0042783334 -0.005976967 0.033805266 0.0027513115 -0.027143987 0.0035345769
0.052836377 0.051159322 0.04455797 -0.08471483 0.08528336 -0.027780324 -0.05199377 -0.0093768565
-0.04182824 -0.08003313 -0.066677846 -0.040508103 0.057831433 0.028062295 -0.087501146 0.06917927
0.051356606 -0.0806815 0.05021796 -0.0029650058 -0.097052835 0.03282739 -0.053765114 -0.109437495
0.014085524 -0.029407017 -0.022098653 -0.06500136 0.061249185 -0.049147777 -0.015011402 -0.040961362
-0.032665517 0.0062095793 -0.062189944 0.07567929 0.05328148 -0.09241307 -0.018104393 0.036302615
0.070242606 -0.004401804 0.0063364976 0.026147602 0.017589886 -0.06812232 -0.0924532 -0.014924579
-0.02065155 0.06793534 0.03874606 -0.018033488 0.067207076 -0.04018597 -0.13057384 -0.058234386
-0.037439056 -0.07363275 -0.019149167 -0.032795984 -0.06577539 0.0042282483 0.014333887 -0.026119497
-0.0032634658 -0.09617768 -0.07358686 0.06579393 0.07618386 -0.028320994 0.028316742 0.0878393
0.12500864 -0.06916021 -0.044726525 -0.045220528 0.024124881 0.07884994 -0.00012795495 0.062519975
0.05609515 0.06640488 -0.011855349 -0.07126915 0.035283543 0.07684696 0.074635334 0.034757506
-0.041626025 -0.002800632 0.042165738 0.015484039 -0.00842299 0.026338253 -0.09631324 -0.0063599944
0.03256647 -0.057817586 -0.0018666823 -0.012303203 -0.04594122 0.06112124 -0.050345182 -0.06562885
00000000: 56a1 443d 959d 93bd 9ec5 0f3d c100 6f3c
00000010: 11e1 623c 3775 833d 392a a93d b2cb 30bd
00000020: 578a c73d d927 d6bc 8766 e93d 1107 8d3c
00000030: ec09 913d 8735 d63d c583 85bd c989 25bd
00000040: cef8 ea3d 8ed6 973d 9389 18bd 7554 133d
00000050: a2ee 8f3a 73b2 ef3b d32c 83bd aae6 bfbd
00000060: 0676 a93d 4dc1 4f3d 3237 f93d e090 82bd
00000070: 0b58 d63d bb6f 1cbd 94e3 b73d b854 76bd
00000080: 0354 a8bd 00f8 083d e81c 473c 11c0 70bd
00000090: 7fc1 14bd 576a 92bd 633d b23d a831 40bd
000000a0: be89 abbd a07b 9cbb ac14 d1bc 2bf3 9c3d
000000b0: 12f1 f5bd f1eb 5f3d 02e8 46bd 0141 f6bb
000000c0: 2d4e 4ebd 9834 25bd 98f6 d13d f146 e8bc
000000d0: 6188 943c 7d34 a83d fb65 24bb ec6d 50bc
000000e0: 9e12 eabd f14a 3ebd 38a9 bd3d 41a8 c9bc
000000f0: 5a19 b4bd c0b7 d7ba 0b2d 0a3d dfae 95bd
00000100: 3464 003d 8002 a93c 7f2e 293d ffb3 b4bc
00000110: a9ac 3ebd fcdf f33d d3bf c03d 383d 333c
00000120: c0b2 09bd c083 483d 4bc5 1f3d b57e fabc
00000130: d997 f13c 33cd 5f3c bb4c bcbd 2306 1c3c
00000140: 1afc f23d b601 ddbd 9e77 46bd ebd1 92bc
00000150: 6d7f 313d e4ec a63c ccb7 ecbb e456 7fbd
00000160: 5413 04bc b484 09bd 1225 283d eb03 4dbc
00000170: 360a 2e3d 61fa cc3d 37bc dabd cbe0 c73d
00000180: bcba 82bb 5078 7bbd ff1b 9d3c f6b1 bd3d
00000190: 19b4 4dbc 507f d2bd b5f2 05bc 41aa 58bd
000001a0: 3dc1 b5bc 1eaf a43d efc6 c33d abfd 753c
000001b0: e18d f5bb dbe4 cebc e85a 883d 78ee 94bd
000001c0: 0289 4fbc f5b7 23bd 38a4 183c b396 0d3d
000001d0: 9646 0cbd 11b9 19bd 8b4c b9bb e9af aebc
000001e0: 5098 c13c 0c4b 1a3a c93d 813d 9d91 3c3d
000001f0: 7b25 a53d 6134 01bd ecd3 b9bd c019 8bbd
00000200: b30c 363b 650e af3d 12ce 833d 2fe9 9ebd
00000210: 5708 dabc 7d29 843c eca4 263d 384b 863d
00000220: 3b47 36bd bf36 9f3c 3ac8 9dbd 5b9b 2c3d
00000230: edc8 a83c 77bf cb3d 2689 9a3c d7a8 6f3d
00000240: 3102 39bb 86de 9bbd 4331 8cbb 6fda c3bb
00000250: 6477 0a3d 594f 343b 115d debc 5ca4 673b
00000260: f56a 583d 708c 513d 6b82 363d f87e adbd
00000270: 0ba9 ae3d 9093 e3bc 6bf7 54bd 63a1 19bc
00000280: 1754 2bbd 69e8 a3bd 658e 88bd d3eb 25bd
00000290: a7e0 6c3d e6e2 e53c cd33 b3bd dcad 8d3d
000002a0: 4e5b 523d 583c a5bd 59b1 4d3d 8b50 42bb
000002b0: a3c3 c6bd 0376 063d cf38 5cbd c420 e0bd
000002c0: f8c6 663c fce6 f0bc 3c08 b5bc 6f1f 85bd
000002d0: 6de0 7a3d 2e4f 49bd 62f2 75bc 1ac7 27bd
000002e0: 47cc 05bd ba79 cb3b e2ba 7ebd befd 9a3d
000002f0: ae3d 5a3d 1043 bdbd aa4f 94bc 0db2 143d
00000300: 5bdb 8f3d 023d 90bb 65a2 cf3b 7f33 d63c
00000310: aa18 903c b783 8bbd 1a58 bdbd 3986 74bc
00000320: 702d a9bc af21 8b3d 30b4 1e3d f7ba 93bc
00000330: dda3 893d 0b9a 24bd 26b5 05be 2e87 6ebd
00000340: b259 19bd c4cc 96bd b7de 9cbc 1555 06bd
00000350: 3fb5 86bd 1e8d 8a3b aed8 6a3c 8ef8 d5bc
00000360: dfdf 55bb cef8 c4bd b5b4 96bd f8be 863d
00000370: 4906 9c3d 6e01 e8bc 83f8 e73c 17e5 b33d
00000380: 4402 003e dea3 8dbd 2933 37bd 2939 39bd
00000390: 8ba1 c53c 147c a13d a52b 06b9 790a 803d
000003a0: 07c4 653d 48ff 873d f03c 42bc 8ff5 91bd
000003b0: 7a85 103d f061 9d3d 69da 983d e35d 0e3d
000003c0: 0d80 2abd cf8a 37bb fbb5 2c3d c4b0 7d3c
000003d0: 9500 0abc 52c3 d73c e03f c5bd 8067 d0bb
000003e0: 6b64 053d 22d2 6cbd 77ab f4ba 6093 49bc
000003f0: dc2c 3cbd 445a 7a3d c036 4ebd 6b68 86bd

classfier.fc1.bias f4 [100]
-1.8021533e-06 -3.699795e-07 2.7184844e-06 -1.6516802e-05 -1.4575123e-05 8.813791e-06 1.8000438e-06 -8.91733e-07
7.117206e-07 -1.3151342e-05 -1.207216e-06 -3.262505e-07 1.0791287e-05 3.1012742e-06 -6.020724e-06 -1.6106162e-05
3.3100954e-05 4.1207997e-05 -3.858541e-06 -4.1347084e-06 1.5653372e-06 -1.1491402e-06 2.9653656e-05 -5.3589188e-06
-2.0194736e-07 -1.9490397e-05 2.340387e-05 -7.225961e-07 5.66638e-06 -5.5085784e-06 4.5729535e-05 -3.179923e-06
6.8850466e-07 -1.674421e-06 4.6565e-06 8.316245e-06 2.403462e-06 4.1493468e-06 5.7110753e-07 -2.5612683e-06
-6.90319e-07 -5.7519687e-06 9.059254e-06 -1.0848494e-05 -1.3075708e-05 -1.0295488e-06 -0.000113973045 -3.7800276e-06
-5.8335365e-07 1.6218171e-06 4.960194e-05 -4.1651147e-05 7.3329047e-06 1.5456785e-06 6.1314256e-07 -2.0785324e-06
-2.8189476e-07 1.932563e-06 0.00014288185 8.293257e-06 9.685535e-06 2.6455969e-06 1.9732293e-05 -2.419926e-05
2.7232281e-06 -2.1253147e-06 -3.2344794e-06 1.9635127e-05 2.5332341e-05 2.348805e-06 -2.971538e-06 -2.9485012e-05
-1.3620842e-06 1.3695076e-05 -6.0394436e-06 -8.380987e-07 -4.6483888e-06 -7.906787e-06 -3.4624355e-07 -1.0049907e-06
1.2597915e-05 4.8824227e-06 -3.4346558e-06 1.3536924e-06 1.9941785e-06 -3.5586402e-06 -8.550278e-06 2.462668e-06
-2.1482216e-05 -1.1156831e-05 -6.788711e-07 2.4680546e-06 -2.1215476e-06 -2.740906e-05 2.836089e-05 2.3622637e-05
7.2548264e-06 -2.5791442e-05 3.3490574e-07 -3.5126384e-05
00000000: 84e1 f1b5 98a1 c6b4 356f 3636 908d 8ab7
00000010: ad87 74b7 f2de 1337 0999 f135 6d5f 6fb5
00000020: 110d 3f35 95a4 5cb7 a007 a2b5 8727 afb4
00000030: 3a0c 3537 7c1f 5036 a005 cab6 b81b 87b7
00000040: e1d5 0a38 c0d6 2c38 9d78 81b6 e0bc 8ab6
00000050: 9418 d235 283c 9ab5 bec0 f837 c3d0 b3b6
00000060: ded6 58b4 4f7f a3b7 6e53 c437 6df8 41b5
00000070: d521 be36 54d6 b8b6 b7cd 3f38 a966 55b6
00000080: aed1 3835 abbc e0b5 083f 9c36 0086 0b37
00000090: 2a4b 2136 9e3a 8b36 364e 1935 41e2 2bb6
000000a0: 5c4e 39b5 0901 c1b6 33fd 1737 ed01 36b7
000000b0: bd5f 5bb7 072f 8ab5 d004 efb8 61ac 7db6
000000c0: c297 1cb5 36ad d935 ad0b 5038 94b2 2eb8
000000d0: 2c0d f636 1c75 cf35 d696 2435 ea7c 0bb6
000000e0: 5257 97b4 2eb1 0136 8ed2 1539 4523 0b37
000000f0: 0e7f 2237 028b 3136 c786 a537 84ff cab7
00000100: b4c0 3636 a1a0 0eb6 ef0f 59b6 1db6 a437
00000110: ca80 d437 2aa0 1d36 a26a 47b6 9556 f7b7
00000120: dbd0 b6b5 e7c3 6537 6da6 cab6 b4f9 60b5
00000130: 5bf9 9bb6 64a7 04b7 5ae3 b9b4 38e3 86b5
00000140: a25b 5337 b1d3 a336 f07e 66b6 84b0 b535
00000150: bad3 0536 f9d0 6eb6 2a73 0fb7 5044 2536
00000160: b534 b4b7 392e 3bb7 ab3b 36b5 dba0 2536
00000170: e95f 0eb6 82ec e5b7 8ce8 ed37 3a29 c637
00000180: 7c6e f336 b35a d8b7 18cd b334 ab54 13b8

classfier.bn1.weight f4 [100]
1.0408442 0.91954666 0.9335116 1.0465457 1.0493248 0.9603877 0.96202457 0.9356113
0.9477252 0.92519534 0.99815553 0.93433267 1.1011162 1.0067698 0.9283634 1.0958551
0.9511194 1.0819138 0.9880375 0.99867797 0.9202948 0.9324138 1.0144348 0.96423423
0.9516657 1.0021228 1.044412 0.9589616 0.9518053 0.9712436 1.0060512 0.926387
0.92196697 0.9352212 0.9526769 1.1068909 1.0265082 1.0235201 0.94219524 0.95118433
0.9228552 1.0000523 1.0815121 0.9341103 0.9581446 0.9184711 1.0365298 1.0718563
1.0081153 0.9581558 1.0548295 0.95616984 0.96380734 1.0136356 0.9592326 0.93033624
1.0021914 1.0109301 1.0086539 0.99841404 0.9975778 0.9429732 1.123112 0.98037523
0.9991828 0.98041046 1.0008181 0.9680893 1.1068999 1.0219283 0.97737926 0.996949
0.9185966 0.97235256 0.936635 0.9657643 0.9907783 1.0085812 1.0084302 0.97411907
1.0305343 0.9839403 0.9775139 0.9390706 1.005085 0.95640236 0.9620427 0.9841561
0.9973283 1.0918804 0.93866485 0.9112858 0.9182824 0.91179734 0.9414128 1.0805881
1.0099915 1.0550405 0.9576183 0.9367638
00000000: 623a 853f 6967 6b3f 9efa 6e3f 36f5 853f
00000010: 4650 863f f8db 753f 3e47 763f 3984 6f3f
00000020: 1e9e 723f 9ad9 6c3f 1f87 7f3f 6d30 6f3f
00000030: 60f1 8c3f d5dd 803f 39a9 6d3f fb44 8c3f
00000040: 907c 733f 277c 8a3f 07f0 7c3f 5ca9 7f3f
00000050: 7198 6b3f acb2 6e3f 00d9 813f 0ed8 763f
00000060: 5da0 733f 8f45 803f 4baf 853f 827e 753f
00000070: 83a9 733f 6ca3 783f 49c6 803f b327 6d3f
00000080: 0706 6c3f a86a 6f3f a2e2 733f 9aae 8d3f
00000090: 9f64 833f b502 833f b533 713f d180 733f
000000a0: 3d40 6c3f b701 803f fd6e 8a3f da21 6f3f
000000b0: f748 753f ec20 6b3f 02ad 843f 9632 893f
000000c0: ec09 813f b349 753f a704 873f 8cc7 743f
000000d0: 14bc 763f d0be 813f 4590 753f 842a 6e3f
000000e0: cf47 803f 2866 813f 921b 813f 1098 7f3f
000000f0: 4261 7f3f b166 713f 22c2 8f3f dff9 7a3f
00000100: 72ca 7f3f 2efc 7a3f cf1a 803f b3d4 773f
00000110: e5ae 8d3f 8cce 823f 8735 7a3f 0d38 7f3f
00000120: 2629 6b3f 19ec 783f 50c7 6f3f 543c 773f
00000130: a6a3 7d3f 3019 813f 3e14 813f de5f 793f
00000140: 8ce8 833f 83e3 7b3f 5a3e 7a3f ee66 703f
00000150: a0a6 803f c9d6 743f 6e48 763f a7f1 7b3f
00000160: e850 7f3f bdc2 8b3f 574c 703f 074a 693f
00000170: 8e14 6b3f 8d6b 693f 6e00 713f b650 8a3f
00000180: 6747 813f 910b 873f 7926 753f c1cf 6f3f

classfier.bn1.bias f4 [100]
-0.10039188 -0.083158486 -0.094799735 -0.12700301 -0.14208974 -0.11314324 -0.028945364 -0.10547546
-0.035327144 -0.047592748 -0.23799615 -0.044665713 0.032528117 -0.07694491 -0.08150662 -0.03481863
-0.15473402 -0.03479447 -0.08279132 -0.045098063 -0.042287115 -0.078872085 -0.18057425 -0.062420677
-0.044548515 -0.17512023 -0.06804959 -0.08658175 -0.091019705 -0.05229838 -0.23130397 -0.04142711
-0.08774243 -0.17269456 -0.017678699 0.006237339 -0.21196368 -0.0735876 -0.13907494 -0.19539607
-0.0456839 -0.20886347 -0.055169165 -0.13026287 -0.20082301 -0.029623274 -0.023052484 -0.05678784
-0.10469526 0.031756587 -0.014087819 -0.22558817 -0.23247612 -0.029051438 -0.03962113 -0.12593402
-0.027221452 -0.037310284 -0.21137358 -0.19645816 -0.15264128 -0.038395487 -0.086624235 -0.21044195
-0.047066204 -0.08426071 8.2105864e-05 -0.021068528 -0.065816686 -0.12710586 -0.045731302 -0.27078182
-0.026283152 -0.2615871 -0.18263486 0.026494252 -0.19432434 -0.04303307 0.04330546 -0.03618011
-0.15120783 -0.19227298 -0.06724315 -0.10642175 -0.012558356 -0.09019605 -0.1594648 0.03097023
-0.17700703 0.038488686 -0.060261235 -0.10620894 -0.16624604 -0.14620629 -0.1932623 -0.08790926
-0.20203221 -0.20920978 -0.082265474 -0.17105666
00000000: 429a cdbd ff4e aabd 5d26 c2bd 140d 02be
00000010: f97f 11be a5b7 e7bd d41e edbc 8503 d8bd
00000020: 32b3 10bd 9df0 42bd 43b5 73be 65f3 36bd
00000030: 343c 053d 4b95 9dbd f1ec a6bd fb9d 0ebd
00000040: 9872 1ebe a584 0ebd 7f8e a9bd bfb8 38bd
00000050: 4135 2dbd b087 a1bd 75e8 38be d3ac 7fbd
00000060: 8178 36bd b852 33be 955d 8bbd c651 b1bd
00000070: 8a68 babd d336 56bd f3da 6cbe 79af 29bd
00000080: 4eb2 b3bd d8d6 30be ebd2 90bc 9862 cc3b
00000090: 020d 59be 18b5 96bd a969 0ebe e815 48be
000000a0: 0b1f 3bbd 4ee0 55be 10f9 61bd a163 05be
000000b0: 8ca4 4dbe 82ac f2bc 90d8 bcbc 5e9a 68bd
000000c0: 786a d6bd 3213 023d 98d0 66bc 9600 67be
000000d0: 380e 6ebe 48fd edbc c449 22bd d9f4 00be
000000e0: 86ff debc abd2 18bd 5172 58be 542c 49be
000000f0: ff4d 1cbe 9644 1dbd 0c68 b1bd 187e 57be
00000100: 7ec8 40bd e190 acbd 4030 ac38 e897 acbc
00000110: e6ca 86bd 0a28 02be bf50 3bbd eaa3 8abe
00000120: c44f d7bc bfee 85be a204 3bbe 790a d93c
00000130: f6fc 46be 7243 30bd 1161 313d 9831 14bd
00000140: 3ad6 1abe 35e3 44be c7b6 89bd a5f3 d9bd
00000150: 90c1 4dbc b5b8 b8bd be4a 23be 48b5 fd3c
00000160: 5541 35be 50a6 1d3d 7cd4 76bd 1384 d9bd
00000170: 673c 2abe 1ab7 15be 8de6 45be c509 b4bd
00000180: 88e1 4ebe 173b 56be cd7a a8bd 7a29 2fbe

classfier.bn1.running_mean f4 [100]
-0.05115322 0.33118626 0.41376057 -0.14842458 0.2484068 0.4259658 0.21212399 -0.54316455
1.8490127 0.5526147 -0.12710527 0.54191834 -0.013172077 -0.33168945 -0.195559 -0.10723991
-0.14556926 0.015146647 0.08994159 -0.018910551 0.6501484 -0.9160102 -0.23169056 -0.18292175
-1.1323034 -0.24344122 0.089178935 0.40594316 -0.38163558 -0.9527733 -0.12975676 0.3773234
1.1257228 0.13734625 -0.8061459 -0.09073772 -0.1767762 0.14577259 0.28164998 0.010054711
0.9147143 -0.17072286 0.010802204 0.23749758 -0.22144717 1.0553222 0.061037652 -0.4201925
-0.42255962 0.35645598 -0.07899035 -0.04536297 -0.2744749 -0.7369862 -0.37956712 0.035505153
-0.55364245 0.2541661 -0.20501858 -0.25895858 -0.3130653 1.1617982 -0.17244372 -0.32095248
-0.54865944 -0.2547563 -0.9292964 0.14933898 0.27642274 -0.38409603 0.33305845 -0.1986673
1.0840586 -0.18082258 -0.5460199 0.43638605 -0.29301453 -0.3153732 -1.0635933 0.8186421
-0.30514127 -0.52229524 -0.10222013 0.15510958 -0.2613061 0.092812166 0.024496064 -0.917865
-0.018977968 -0.33703056 0.2410236 -0.28052387 -0.098922715 -0.030006867 -0.21589313 -0.10951209
-0.11773924 0.03062583 0.43889531 -0.06416096
00000000: 0a86 51bd 3f91 a93e 6dd8 d33e 9dfc 17be
00000010: 5a5e 7e3e 3018 da3e 0837 593e d50c 0bbf
00000020: 73ac ec3f 2878 0d3f e227 02be 29bb 0a3f
00000030: b2cf 57bc 33d3 a9be 9e40 48be 99a0 dbbd
00000040: 1c10 15be a429 783c 4c33 b83d 4dea 9abc
00000050: 2070 263f a57f 6abf 4a40 6dbe d74f 3bbe
00000060: 51ef 90bf a848 79be 72a3 b63d c8d7 cf3e
00000070: bd65 c3be f3e8 73bf f5de 04be 8830 c13e
00000080: af17 903f 7fa4 0c3e 945f 4ebf b3d4 b9bd
00000090: d204 35be 6945 153e 6d34 903e 84bc 243c
000000a0: b72a 6a3f f9d1 2ebe bafb 303c 9132 733e
000000b0: 0cc3 62be cc14 873f 9e02 7a3d 7923 d7be
000000c0: bc59 d8be 6681 b63e b1c5 a1bd 86ce 39bd
000000d0: f987 8cbe 21ab 3cbf 9f56 c2be da6d 113d
000000e0: 83bb 0dbf 0f22 823e 64f0 51be 3896 84be
000000f0: 184a a0be ceb5 943f 1695 30be e253 a4be
00000100: f274 0cbf 6b6f 82be 5ee6 6dbf 51ec 183e
00000110: 4887 8d3e 3ca8 c4be a386 aa3e 716f 4bbe
00000120: 6fc2 8a3f 8e29 39be f6c7 0bbf fe6d df3e
00000130: 0006 96be 9978 a1be d323 88bf 8792 513f
00000140: 7a3b 9cbe 24b5 05bf ca58 d1bd 0cd5 1e3e
00000150: eac9 85be 4e14 be3d f8ab c83c 33f9 6abf
00000160: af77 9bbc 458f acbe e4ce 763e d3a0 8fbe
00000170: fe97 cabd f6d0 f5bc 1713 5dbe e047 e0bd
00000180: 4521 f1bd 05e3 fa3c e3b6 e03e d266 83bd

classfier.bn1.running_var f4 [100]
0.04883148 0.128133 0.15675017 0.051921304 0.052179217 0.1159121 0.12868164 0.12085132
0.7323103 0.06342552 0.043119706 0.51166105 0.04317898 0.18090664 0.055833634 0.0408634
0.039306752 0.021832312 0.056234166 0.09428441 0.16424465 0.19769517 0.034237072 0.17307027
0.32403347 0.037191987 0.026321571 0.11809286 0.06409121 0.25579056 0.028840344 0.066948794
0.23867276 0.10994741 0.25006565 0.047630444 0.022441346 0.03515606 0.037520986 0.06621032
0.14637382 0.022225134 0.03741336 0.07996894 0.06152669 0.34323716 0.043257345 0.09499936
0.100772165 0.043462127 0.06998656 0.030089691 0.026061492 0.44177455 0.16453417 0.109092034
0.25510523 0.059674185 0.017888337 0.029913694 0.056192048 0.19460559 0.032787435 0.047508948
0.23178817 0.06775925 0.3408638 0.043351557 0.03609043 0.09804164 0.08757161 0.03061267
0.28922686 0.028576238 0.06664536 0.098246105 0.048340198 0.21608514 0.69215685 0.12661129
0.041269235 0.09195022 0.10399955 0.08452244 0.17023852 0.046870675 0.045343637 0.4523684
0.02567176 0.10797711 0.09967619 0.064839415 0.032592196 0.07599954 0.04027726 0.040592898
0.026647674 0.026840664 0.044695012 0.060171027
00000000: 8503 483d 4c35 033e 1e83 203e 6fab 543d
00000010: e0b9 553d 5363 ed3d 1fc5 033e e680 f73d
00000020: b078 3b3f 3de5 813d 4a9e 303d 38fc 023f
00000030: 71dc 303d 973f 393e cfb1 643d 6160 273d
00000040: 1e00 213d add9 b23c cc55 663d 2f18 c13d
00000050: c02f 283e 9a70 4a3e 2c3c 0c3d 5539 313e
00000060: b7e7 a53e a056 183d 56a0 d73c abda f13d
00000070: 4142 833d fbf6 823e 9642 ec3c 731c 893d
00000080: a266 743e 1c2c e13d 9b08 803e 2418 433d
00000090: ead6 b73c cdff 0f3d 9baf 193d 4799 873d
000000a0: 05e3 153e 7c11 b63c c03e 193d c1c6 a33d
000000b0: 6903 7c3d c8bc af3e 9d2e 313d 068f c23d
000000c0: a361 ce3d 5805 323d 1d55 8f3d a87e f63c
000000d0: e97e d53c 4630 e23e a57b 283e a56b df3d
000000e0: 279d 823e eb6c 743d 908a 923c 900d f53c
000000f0: a229 663d b046 473e 1e4c 063d be98 423d
00000100: e159 6d3e 5dc5 8a3d b385 ae3e 6791 313d
00000110: 8fd3 133d 0eca c83d bf58 b33d 6cc7 fa3c
00000120: 8b15 943e b718 ea3c 5d7d 883d 4135 c93d
00000130: 5f00 463d 6c45 5d3e 3131 313f 64a6 013e
00000140: ee09 293d 6650 bc3d b7fd d43d 1a1a ad3d
00000150: 0253 2e3e 77fb 3f3d 40ba 393d d59c e73e
00000160: 954d d23c 1a23 dd3d 0823 cc3d 87ca 843d
00000170: 657f 053d a6a5 9b3d c5f9 243d bd44 263d
00000180: 394c da3c f4e0 db3c 1e12 373d e575 763d

classfier.fc2.weight f4 [50, 100]
-0.047999617 0.09027572 -0.045918915 0.028456327 -0.023288261 -0.050854817 0.010862023 -0.07640346
0.07692034 -0.02502532 0.061701834 -0.006023463 0.041017096 0.03407707 0.06205524 0.04703839
-0.06473865 0.08467791 -0.02183542 0.08523254 -0.0031861912 0.06360693 -0.11462108 0.018678026
0.074100316 -0.03973726 -0.003533348 -0.06586795 0.024304558 0.08520052 -0.02817231 0.007436468
0.0738663 -0.002236379 0.034650914 0.08341831 -0.096228875 -0.11050796 -0.038768563 -0.023074528
-0.09713341 0.0057794848 0.035551004 -0.07457519 0.079908594 -0.044858847 0.025539408 0.022640847
0.14430667 -0.011928098 0.10381679 -0.002185606 -0.026849227 0.024014229 -0.08668858 0.0620182
0.10596459 0.012564245 -0.058088556 -0.111025825 -0.11838117 0.021739505 0.05127713 -0.077871546
0.08891472 0.034549408 0.06980541 -0.04749223 0.051758796 -0.057905108 0.02187654 -0.090205126
-0.05982351 0.022109244 -0.07866501 0.050593443 0.012619189 0.051961612 0.13840641 0.07873889
0.03449427 -0.032687876 -0.015613075 0.006782871 0.03054237 -0.08159449 0.07137879 -0.077414624
0.034161486 0.014575491 0.08401588 -0.027237428 0.018556574 0.008593056 -0.04912936 0.00771343
-0.023285434 -0.022899145 -0.057039704 0.03076881 0.0071786176 -0.089664795 0.03602099 0.053496614
0.047669042 -0.032086335 0.0017216124 -0.04984097 -0.018479377 -0.07211962 -0.020167064 -0.08365994
-0.030170845 0.030164942 -0.004423817 0.024601981 0.004094851 0.004915424 0.027091067 -0.007960847
-0.07284969 0.04621428 -0.1414049 -0.0034425925 0.049105752 -0.020558886 0.044032574 0.055957846
-0.020765316 0.02008273 -0.07718064 0.0059981607 -0.041454993 -0.0019987514 0.04624189 0.08542846
-0.119068526 -0.1214262 -0.049914885 -0.004018435 0.07043168 -0.024898894 0.010538259 -0.025064247
0.058061726 0.0021598316 0.010928297 0.090535186 0.006601576 -0.0021968915 0.034523234 -0.037366666
-0.04370849 0.06756835 -0.095081516 -0.07363428 -0.0008692775 0.04035606 -0.15011108 -0.030923294
-0.106803924 -0.06049265 -0.0043609445 -0.10007141 -0.03793466 -0.032279707 0.10894622 0.008162973
0.064458705 0.055853423 -0.03541144 -0.13681962 0.028981935 -0.019237107 -0.0076842555 0.016797256
-0.057192747 0.04084364 0.024611205 0.051840816 -0.016728358 0.049128376 -0.00650861 0.0419358
0.038556326 -0.067159615 0.022774974 -0.0010845691 -0.11936672 0.018383808 0.04678572 0.047311354
-0.03534517 0.0006983075 -0.0039638598 0.058575444 -0.05890026 -0.06453944 -0.099636614 0.006543274
-0.08024596 -0.047761954 -0.0057600434 -0.090881534 -0.06465316 0.08598158 0.043153208 0.05101084
0.046219155 -0.04746248 0.007843765 -0.031194357 -0.058565106 0.052820064 0.08103069 -0.080413885
-0.002220512 -0.10799617 -0.032944802 -0.09522657 0.004223692 0.036822457 0.07280355 -0.02829944
0.03627235 0.058014613 -0.028295377 0.10831744 0.08049602 0.040448993 0.012495802 0.022708453
-0.04253738 -0.027900802 -0.0022054885 -0.058168635 0.07774839 0.04565463 -0.008081002 0.13977566
0.057532903 0.02437964 -0.10110451 0.0912577 0.03617976 -0.032895476 -0.054194964 0.038553365
0.05661615 0.0057302504 0.010602668 0.118602306 0.093213215 0.042790838 -0.017447544 -0.036309328
00000000: 3f9b 44bd 7ae2 b83d 7915 3cbd 3e1d e93c
00000010: 06c7 bebc 244d 50bd a0f6 313c 6b79 9cbd
00000020: 6988 9d3d e601 cdbc 10bb 7c3d 7860 c5bb
00000030: 8b01 283d 6694 0b3d a32d 7e3d 54ab 403d
00000040: b395 84bd 9d6b ad3d 32e0 b2bc 668e ae3d
00000050: 6bcf 50bb 5a44 823d 75be eabd a902 993c
00000060: e8c1 973d 8ac3 22bd be8f 67bb c7e5 86bd
00000070: 5a1a c73c 9c7d ae3d 9ec9 e6bc 9dad f33b
00000080: 3747 973d 3790 12bb 1eee 0d3d 38d7 aa3d
00000090: a513 c5bd ff51 e2bd c9cb 1ebd cb06 bdbc
000000a0: e2ed c6bd d561 bd3b ee9d 113d e1ba 98bd
000000b0: 1ea7 a33d e9bd 37bd 0538 d13c 4c79 b93c
000000c0: 21c5 133e 126e 43bc e69d d43d 623c 0fbb
000000d0: e9f2 dbbc 7db9 c43c c889 b1bd cc06 7e3d
000000e0: f703 d93d 43da 4d3c 44ee 6dbd 8261 e3bd
000000f0: d471 f2bd 0c17 b23c f807 523d 1e7b 9fbd
00000100: ec18 b63d ae83 0d3d 24f6 8e3d 3687 42bd
00000110: 0801 543d e82d 6dbd 6e36 b33c 77bd b8bd
00000120: 7f09 75bd 721e b53c 1f1b a1bd 123b 4f3d
00000130: b7c0 4e3c b3d5 543d 69ba 0d3e db41 a13d
00000140: dd49 0d3d b9e3 05bd fccd 7fbc d942 de3b
00000150: fe33 fa3c 031b a7bd 0b2f 923d 8f8b 9ebd
00000160: eaec 0b3d 0ace 6e3c 8510 ac3d 0721 dfbc
00000170: f503 983c e4c9 0c3c de3b 49bd f1c0 fc3b
00000180: 18c1 bebc fd96 bbbc 77a2 69bd df0e fc3c
00000190: 9c3a eb3b 2da2 b7bd bf8a 133d 441f 5b3d
000001a0: 9d40 433d f66c 03bd baa7 e13a 0c26 4cbd
000001b0: 1062 97bc 74b3 93bd 6635 a5bc e755 abbd
000001c0: d928 f7bc 781c f73c abf5 90bb 188a c93c
000001d0: 1a2e 863b 9111 a13b 16ee dd3c 366e 02bc
000001e0: 3832 95bd 2f4b 3d3d 72cc 10be 1e9d 61bb
000001f0: 1d23 493d 1c6b a8bc 805b 343d 0e34 653d
00000200: 061c aabc 8a84 a43c e210 9ebd 388c c43b
00000210: b6cc 29bd 7cfd 02bb 2368 3d3d 1ef5 ae3d
00000220: 33da f3bd 4dae f8bd 8d73 4cbd 13ad 83bb
00000230: 7c3e 903d c4f8 cbbc a9a8 2c3c 8953 cdbc
00000240: 22d2 6d3d f68b 0d3b 9a0c 333c 836a b93d
00000250: 0952 d83b b9f9 0fbb 3c68 0d3d ca0d 19bd
00000260: ac07 33bd 4661 8a3d 19ba c2bd 92cd 96bd
00000270: 3ae0 63ba 654c 253d b8b6 19be d952 fdbc
00000280: 04bc dabd 24c7 77bd 41e6 8ebb 3df2 ccbd
00000290: 6061 1bbd ba37 04bd 321f df3d febd 053c
000002a0: ed02 843d 8fc6 643d 960b 11bd 711a 0cbe
000002b0: 866b ed3c 2397 9dbc 35cc fbbb 669a 893c
000002c0: f142 6abd a94b 273d 709d c93c 0957 543d
000002d0: e909 89bc d63a 493d 2e46 d5bb e0c4 2b3d
000002e0: 3ded 1d3d fb8a 89bd 9592 ba3c 1a28 8eba
000002f0: 8a76 f4bd a499 963c 62a2 3f3d 8dc9 413d
00000300: 19c6 10bd a00e 373a 44e3 81bb ceec 6f3d
00000310: 6641 71bd 412d 84bd 480e ccbd f668 d63b
00000320: fe57 a4bd 0aa2 43bd bfbe bcbb 1920 babd
00000330: e068 84bd 1c17 b03d 6bc1 303d bef0 503d
00000340: 4c50 3d3d 0468 42bd 2383 003c 4f8b ffbc
00000350: f7e1 6fbd da59 583d 6bf3 a53d 09b0 a4bd
00000360: 0286 11bb 192d ddbd 21f1 06bd 2606 c3bd
00000370: e666 8a3b 25d3 163d 071a 953d 3ad4 e7bc
00000380: 5192 143d bba0 6d3d b5cb e7bc 89d5 dd3d
00000390: 19db a43d d8ad 253d 31bb 4c3c 1407 ba3c
000003a0: ad3b 2ebd 3990 e4bc f589 10bb 3c42 6ebd
000003b0: 8c3a 9f3d 5900 3b3d 2e66 04bc 5a21 0f3e
000003c0: 9fa7 6b3d d0b7 c73c e20f cfbd 51e5 ba3d
000003d0: 3a31 143d 68bd 06bd 8afb 5dbd 22ea 1d3d
000003e0: 56e6 673d d3c4 bb3b d0b6 2d3c c4e5 f23d
000003f0: 92e6 be3d 7245 2f3d 27ee 8ebc 17b9 14bd

classfier.fc2.bias f4 [50]
-3.3941371e-06 -1.0951468e-06 -1.3389813e-06 5.621391e-06 -5.986363e-06 -9.475928e-07 -1.985365e-06 2.8235547e-06
4.0446885e-06 5.3194634e-07 -9.651262e-07 -1.8170181e-06 1.9402082e-06 -5.302909e-07 -3.838997e-06 4.6886744e-06
7.0689584e-06 2.142757e-06 -9.3724117e-07 -1.8235232e-06 3.968701e-06 -1.2289386e-06 -4.2802094e-06 5.52428e-07
-8.347307e-07 -1.5209974e-06 -1.3798754e-06 1.8618351e-06 4.413524e-06 -2.5090827e-08 -3.970979e-07 2.5116226e-06
-4.7650487e-06 -3.5516046e-06 -6.6401714e-07 8.95483e-06 9.747603e-07 1.4449517e-06 1.0210384e-05 -6.740727e-07
-2.400613e-06 -6.045966e-06 1.2381336e-06 7.2308615e-07 5.3691275e-07 -2.2393053e-06 -1.1915254e-06 -1.1945015e-06
-1.977508e-06 1.9421216e-06
00000000: d5c6 63b6 f5fc 92b5 0cb7 b3b5 629f bc36
00000010: 77de c8b6 155e 7eb5 503c 05b6 4d7c 3d36
00000020: 9cb7 8736 13cb 0e35 7c89 81b5 44e0 f3b5
00000030: 8634 0236 5059 0eb5 bcd0 80b6 6853 9d36
00000040: e431 ed36 49cc 0f36 b996 7bb5 c8bf f4b5
00000050: e22a 8536 02f2 a4b5 b89e 8fb6 904a 1435
00000060: 4212 60b5 1325 ccb5 2834 b9b5 2be4 f935
00000070: e217 9436 5087 d7b2 b830 d5b4 598d 2836
00000080: 75e3 9fb6 1a58 6eb6 e93e 32b5 b43c 1637
00000090: 82d4 8235 2af0 c135 444d 2b37 ecf1 34b5
000000a0: 381a 21b6 74de cab6 f22d a635 1a1a 4235
000000b0: 5d20 1035 f946 16b6 80ec 9fb5 c252 a0b5
000000c0: 54b5 04b6 6555 0236

classfier.bn2.weight f4 [50]
0.95075595 1.0621741 0.9979589 0.98075646 1.031565 0.9067333 0.9413139 1.0555142
1.1324736 0.9269134 0.9885671 1.0220913 0.96885 0.90669715 1.0616149 0.96555716
1.0102861 1.1208019 1.0274506 0.92768466 0.9644119 0.8973338 0.9460207 1.0094695
0.9704591 0.9989039 0.90215445 0.92542356 0.9325581 0.94702595 1.0756463 0.87690574
0.94107306 0.9263412 1.0679258 1.0673934 0.9790006 0.883253 0.95660204 1.045655
0.96294695 1.0267735 0.98069185 1.0314574 1.1074277 0.9249879 0.98231393 1.0128633
0.9501842 0.9381538
00000000: be64 733f 52f5 873f 3c7a 7f3f db12 7b3f
00000010: 520a 843f ac1f 683f f3f9 703f 171b 873f
00000020: e5f4 903f 324a 6d3f bc12 7d3f e3d3 823f
00000030: 8e06 783f 4e1d 683f ffe2 873f c12e 773f
00000040: 0e51 813f 7076 8f3f 8083 833f be7c 6d3f
00000050: b3e3 763f abb7 653f 6a2e 723f 4c36 813f
00000060: 0270 783f 2ab8 7f3f 98f3 663f 8fe8 6c3f
00000070: 21bc 6e3f 4b70 723f c7ae 893f e57c 603f
00000080: 2aea 703f b224 6d3f cbb1 883f 59a0 883f
00000090: c99f 7a3f de1c 623f dfe3 743f 06d8 853f
000000a0: b183 763f 506d 833f 9f0e 7b3f cc06 843f
000000b0: 31c0 8d3f 02cc 6c3f ed78 7b3f 81a5 813f
000000c0: 463f 733f d92a 703f

classfier.bn2.bias f4 [50]
-0.07940613 0.036005255 -0.19749601 -0.03784403 -0.19332178 -0.058803234 -0.025451079 0.09539443
0.049489077 -0.04459508 0.02659291 -0.22069833 0.066913374 -0.08600924 -0.06540154 -0.08483379
0.0018554765 0.019801283 -0.22371991 -0.044971123 -0.22354719 -0.056567363 -0.19683379 -0.062133104
0.040533494 0.09847967 -0.08694058 -0.055459417 -0.017718345 -0.036071047 0.02133821 -0.09447749
-0.17350045 -0.050173376 0.016402895 -0.21279229 -0.16704135 -0.112023056 -0.19296964 -0.023613255
-0.20986953 0.018653572 -0.04117739 -0.17930919 0.016105006 -0.19090505 0.0106050605 -0.0070236404
-0.19626762 -0.029617878
00000000: ae9f a2bd 3f7a 133d 653c 4abe 5702 1bbd
00000010: 25f6 45be a9db 70bd c87e d0bc 285e c33d
00000020: 0fb5 4a3d 55a9 36bd 60d9 d93c befe 61be
00000030: e109 893d 9d25 b0bd 3ef1 85bd 57bd adbd
00000040: 7633 f33a 4d36 a23c d516 65be a433 38bd
00000050: 8ee9 64be 2eb3 67bd cc8e 49be 487f 7ebd
00000060: 7306 263d b6af c93d e70d b2bd 6a29 63bd
00000070: 1026 91bc 3cbf 13bd 78cd ae3c 6a7d c1bd
00000080: 1aaa 31be 9982 4dbd 5d5f 863c 39e6 59be
00000090: e30c 2bbe 586c e5bd d599 45be 9670 c1bc
000000a0: 0ae8 56be 60cf 983c 9fa9 28bd d49c 37be
000000b0: a5ee 833c 9d7c 43be d9c0 2d3c 9126 e6bb
000000c0: 61fa 48be 31a1 f2bc

classfier.bn2.running_mean f4 [50]
0.18336055 -0.20425162 0.22441325 -0.78140044 0.20696174 -0.47717237 -0.4876454 -1.0773377
-0.82874626 0.582653 -0.75815296 -0.04342594 -0.8220785 -0.68135506 0.5869247 -0.4742729
-0.4795626 0.530136 -0.008061362 -0.90939057 0.14626282 -0.6840979 -0.09749252 0.15846287
-0.79744166 -1.0231802 -0.31494308 -0.18760243 -0.74182284 -1.0218456 -0.8568406 -0.69481367
0.12073579 -0.87019926 -1.0040519 0.03812138 0.016475584 -0.5315262 0.1616418 0.29236877
-0.047212966 -0.67625713 -0.44074827 0.13014105 0.35832527 -0.3216857 -0.59146875 -0.7192636
0.031610474 -0.54997456
00000000: dec2 3b3e 5627 51be 96cc 653e dc09 48bf
00000010: c7ed 533e f04f f4be a8ac f9be 34e6 89bf
00000020: b728 54bf bf28 153f 5016 42bf 66df 31bd
00000030: bd73 52bf 496d 2ebf b240 163f e6d3 f2be
00000040: 3b89 f5be feb6 073f ce13 04bc d2cd 68bf
00000050: ecc5 153e 0a21 2fbf 29aa c7bd 1744 223e
00000060: 2325 4cbf 92f7 82bf 3840 a1be da1a 40be
00000070: 1ae8 3dbf d6cb 82bf e859 5bbf 4fdf 31bf
00000080: 5344 f73d 61c5 5ebf c684 80bf 2a25 1c3d
00000090: cef7 863c 1a12 08bf 6e85 253e 5cb1 953e
000000a0: 6262 41bd 301f 2dbf c2a9 e1be b243 053e
000000b0: 6976 b73e fdb3 a4be 7f6a 17bf a921 38bf
000000c0: fc79 013d 22cb 0cbf

classfier.bn2.running_var f4 [50]
0.38940603 0.4571755 0.5717416 0.4445053 0.68275297 0.3640076 0.34103513 0.3795036
0.55156916 0.31274945 0.75922847 0.48696837 0.36806798 0.27072972 0.5259309 0.3630037
0.4336821 0.61886406 0.5641265 0.48044506 0.617857 0.39216825 0.5070643 0.5277097
0.4619731 0.47828895 0.30253425 0.46545494 0.6810927 1.0110538 0.4597459 0.33251733
0.502407 0.45551997 0.34736305 0.5886263 0.63258034 0.3160348 0.52989364 0.4737253
0.60800284 0.8909046 0.29491723 0.60642 0.5381114 0.4549579 0.6661653 0.49434218
0.43220067 0.47067827
00000000: 3a60 c73e e812 ea3e a85d 123f 3396 e33e
00000010: e6c8 2e3f 345f ba3e 289c ae3e 4c4e c23e
00000020: a333 0d3f b220 a03e cc5c 423f eb53 f93e
00000030: 6873 bc3e 169d 8a3e 68a3 063f 9fdb b93e
00000040: 950b de3e e06d 1e3f 986a 103f e5fc f53e
00000050: e02b 1e3f 47ca c83e f7ce 013f fc17 073f
00000060: bd87 ec3e 4ae2 f43e c5e5 9a3e 1c50 ee3e
00000070: 175c 2e3f 366a 813f d163 eb3e b63f aa3e
00000080: bf9d 003f ea39 e93e 92d9 b13e 37b0 163f
00000090: c9f0 213f 50cf a13e 1ca7 073f 1f8c f23e
000000a0: 13a6 1b3f 5312 643f 64ff 963e 573e 1b3f
000000b0: abc1 093f 3ef0 e83e cf89 2a3f 6b1a fd3e
000000c0: 6849 dd3e befc f03e

classfier.fc3.weight f4 [25, 50]
-0.1265752 -0.21256697 -0.06610722 0.07183317 -0.03507432 0.021480542 0.06150757 0.07476272
0.08012648 -0.119313486 -0.06747789 -0.067657515 0.0028228068 -0.0638113 -0.02321201 0.021906542
-0.14526148 -0.124526374 -0.04998614 0.0016380379 -0.026174808 0.039823174 -0.07755501 -0.11704667
0.047168523 0.05197113 0.09183364 0.0023428374 -0.0011007256 0.095644645 0.07969844 0.06261133
-0.08455261 -0.0027902003 0.015251408 -0.049115732 -0.08945822 -0.026666455 -0.094340794 -0.15921585
0.026703017 0.14717297 0.07423413 -0.081391916 -0.20149615 -0.02312498 0.013764359 0.06882208
-0.02118437 -0.013229894 -0.087036 -0.0044201673 0.010291071 -0.030537369 0.049895097 -0.07171788
-0.111155115 -0.06739656 -0.031645574 0.03421572 -0.106401384 0.14058559 0.002160557 0.058839414
-0.076667316 0.10142091 -0.09818775 0.063050956 0.16690311 -0.035762124 0.08840933 0.015818065
0.05674554 0.0980811 -0.112056345 0.0032348894 -0.107768506 -0.019973746 0.010823137 -0.06265266
-0.06991011 0.03896804 0.095738746 -0.031322103 -0.0067600086 0.16071244 0.13870683 -0.030974353
-0.02694518 -0.08852351 0.14650065 -0.07586111 -0.008571693 0.14456467 -0.054183636 0.15859325
-0.08806553 -0.06209754 0.041850664 0.010457113 0.0123231225 -0.074301444 0.107190765 -0.0150846625
0.0651745 -0.10365057 -0.082685106 -0.031104948 -0.082497284 0.038064472 -0.0892531 0.1908362
-0.009370558 0.059221055 -0.025085509 0.076314874 -0.10533526 0.044498432 0.07626014 -0.014111935
0.13929288 -0.03632402 0.1821698 -0.024981186 -0.04944487 -0.0061682183 -0.07572013 -0.011827839
-0.003857731 0.043695502 -0.02180398 -0.016981708 0.12130723 -0.0888195 -0.005728554 0.07293278
0.129516 -0.030682003 0.13626075 -0.10964202 0.07258163 -0.07722288 -0.0057429033 0.002783609
-0.044681374 -0.01984785 -0.11341503 -0.061139964 0.010109572 -0.017604854 0.055028483 -0.03621153
-0.059627302 -0.02827758 -0.0552501 0.027668754 -0.04460822 -0.37308916 0.051304836 -0.016089654
0.100604236 -0.07986151 -0.025906922 -0.024305137 -0.00894156 -0.05925125 0.053166974 -0.015315928
-0.066687204 -0.16156682 -0.056180988 -0.050039068 -0.080682494 -0.031032244 0.049384613 -0.189106
-0.08620954 0.024885304 -0.048724156 0.079208076 -0.060361292 0.01832102 -0.041414805 -0.12162613
0.01979513 -0.046025347 -0.04147252 0.002959212 -0.07270813 0.075107574 -0.071875945 -0.16729338
0.071816504 -0.049077168 0.04818921 -0.064857826 0.025233407 0.050969787 -0.038167097 0.08860127
-0.16343214 -0.0853241 0.0015800832 0.03738151 -0.10094941 0.067834854 0.0832753 0.07987057
0.09356398 -0.08930336 0.049920246 -0.043095883 0.11301546 0.07678222 -0.21857402 0.016040964
0.050905634 -0.111967884 -0.06962864 0.12645592 -0.034464866 0.03197787 0.030150248 -0.08220004
0.033950996 0.09639792 -0.089113496 0.04458184 -0.11113491 -0.18796277 0.07037673 0.12153787
-0.005030149 0.039706133 -0.07512282 -0.049558885 -0.09650149 -0.03719735 -0.08958428 -0.09504489
-0.014931171 0.027679037 0.13243636 -0.11399671 -0.07044802 -0.06828219 -0.1360451 0.05093047
-0.09832188 0.0019909546 0.054790664 -0.12288331 0.15540443 0.00066127686 -0.019288914 0.008106223
00000000: ee9c 01be 28ab 59be 3963 87bd 451d 933d
00000010: 17aa 0fbd f6f7 af3c 5def 7b3d 321d 993d
00000020: 5a19 a43d a15a f4bd d931 8abd 0690 8abd
00000030: d7fe 383b 80af 82bd 1d27 bebc 5975 b33c
00000040: 6dbf 14be af07 ffbd 44be 4cbd 6eb3 d63a
00000050: 8d6c d6bc a01d 233d 29d5 9ebd 2ab6 efbd
00000060: c833 413d aedf 543d 4713 bc3d 4a8a 193b
00000070: 3946 90ba 57e1 c33d f038 a33d 5e3a 803d
00000080: eb29 adbd cbdb 36bb 0be1 793c 942d 49bd
00000090: df35 b7bd 9c73 dabc bf35 c1bd 7b09 23be
000000a0: 49c0 da3c 83b4 163e 1008 983d ceb0 a6bd
000000b0: 0255 4ebe 9970 bdbc e883 613c 97f2 8c3d
000000c0: d88a adbc 33c2 58bc ee3f b2bd 0dd7 90bb
000000d0: e19b 283c 8129 fabc cd5e 4c3d d3e0 92bd
000000e0: 4ba5 e3bd 3507 8abd ca9e 01bd c825 0c3d
000000f0: f8e8 d9bd abf5 0f3e 2298 0d3b 9901 713d
00000100: c103 9dbd c4b5 cf3d a916 c9bd dc20 813d
00000110: a6e8 2a3e 4e7b 12bd f30f b53d e394 813c
00000120: 036e 683d bede c83d cc7d e5bd 7000 543b
00000130: bcb5 dcbd fb9f a3bc 8753 313c 0a50 80bd
00000140: 082d 8fbd f49c 1f3d ad12 c43d 9b4b 00bd
00000150: 1083 ddbb cd91 243e 2a09 0e3e edbd fdbc
00000160: 23bc dcbc d04b b5bd 4404 163e 125d 9bbd
00000170: 4970 0cbc c308 143e a9ef 5dbd 4566 223e
00000180: b35b b4bd fd59 7ebd 9a6b 2b3d 5054 2b3c
00000190: ece6 493c 5b2b 98bd d586 db3d a925 77bc
000001a0: 357a 853d c046 d4bd cf56 a9bd cecf febc
000001b0: 56f4 a8bd 7ee9 1b3d 54ca b6bd 916a 433e
000001c0: f886 19bc c791 723d 2080 cdbc f94a 9c3d
000001d0: 03ba d7bd fd43 363d 472e 9c3d bf35 67bc
000001e0: cba2 0e3e 7fc8 14bd b88a 3a3e 58a5 ccbc
000001f0: b486 4abd c41e cabb 2813 9bbd 8dc9 41bc
00000200: fcd1 7cbb 0efa 323d 439e b2bc 391d 8bbc
00000210: ed6f f83d ffe6 b5bd 98b6 bbbb c85d 953d
00000220: d89f 043e d358 fbbc f087 0b3e ff8b e0bd
00000230: ada5 943d 0827 9ebd f72e bcbb 366d 363b
00000240: d103 37bd f597 a2bc 2446 e8bd e66d 7abd
00000250: 9ea2 253c 0e38 90bc 8c65 613d 8b52 14bd
00000260: c23b 74bd 62a6 e7bc ee4d 62bd 95a9 e23c
00000270: 1cb7 36bd 8b05 bfbe 0525 523d 73ce 83bc
00000280: 9809 ce3d 6e8e a3bd c13a d4bc 911b c7bc
00000290: 9f7f 12bc 70b1 72bd 9dc5 593d a8ef 7abc
000002a0: 4d93 88bd c671 25be 091e 66bd c4f5 4cbd
000002b0: dd3c a5bd 5537 febc 8547 4a3d 01a5 41be
000002c0: a18e b0bd 44dc cb3c fb92 47bd d837 a23d
000002d0: 673d 77bd f715 963c 92a2 29bd 1f17 f9bd
000002e0: 6529 a23c 1385 3cbd 17df 29bd 57ef 413b
000002f0: 00e8 94bd 00d2 993d b233 93bd f54e 2bbe
00000300: 8814 933d 2405 49bd 0d62 453d 2ed4 84bd
00000310: 4ab6 ce3c b2c5 503d 1a55 1cbd 9574 b53d
00000320: c15a 27be 67be aebd cb1a cf3a 5b1d 193d
00000330: 90be cebd 00ed 8a3d 3e8c aa3d 2e93 a33d
00000340: 799e bf3d aee4 b6bd 2c79 4c3d 4f85 30bd
00000350: a674 e73d ff3f 9d3d ded1 5fbe 5768 833c
00000360: 6d82 503d 6b4f e5bd 7699 8ebd a97d 013e
00000370: 082b 0dbd 3afb 023d a7fd f63c 7f58 a8bd
00000380: 3310 0b3d 466c c53d 2381 b6bd 739b 363d
00000390: b39a e3bd 5079 40be ad21 903d d9e8 f83d
000003a0: f3d3 a4bb e6a2 223d fed9 99bd 42fe 4abd
000003b0: 93a2 c5bd 405c 18bd f777 b7bd e5a6 c2bd
000003c0: dfa1 74bc 26bf e23c 669d 073e 1b77 e9bd
000003d0: 0d47 90bd 88d7 8bbd 684f 0bbe 789c 503d
000003e0: fb5c c9bd ad7a 023b 2d6c 603d 3faa fbbd
000003f0: 5722 1f3e 8a59 2d3a c903 9ebc f7cf 043c

classfier.fc3.bias f4 [25]
0.00018954543 -5.074321e-07 4.0524983e-06 2.9289524e-05 0.0008856763 -1.5037922e-06 1.8730325e-06 4.0028785e-06
3.4507513e-05 -9.744427e-07 -1.4774333e-06 -0.00010903374 1.2182183e-05 2.1364558e-06 -1.269751e-06 0.00047732217
2.370358e-06 -2.920338e-05 -7.5526377e-06 1.4660066e-06 -3.8422545e-06 1.7142858e-05 -0.00017209465 2.9940818e-05
-0.00036723915
00000000: b7c0 4639 7836 08b5 b2fa 8736 c6b2 f537
00000010: bb2c 683a e8d5 c9b5 e864 fb35 7750 8636
00000020: 29bc 1038 99c9 82b5 394c c6b5 0ba9 e4b8
00000030: 1462 4c37 0860 0f36 506c aab5 1941 fa39
00000040: 7112 1f36 c8f9 f4b7 aa6c fdb6 9ac3 c435
00000050: b7ec 80b6 02ce 8f37 4e74 34b9 6b29 fb37
00000060: 018a c0b9

classfier.bn3.weight f4 [25]
1.2247306 1.1529496 1.1048121 1.3221955 1.2444465 1.0900584 1.2369632 1.327126
1.2787458 1.0527858 1.0698556 1.0356961 1.339732 1.2862184 1.0900769 1.2639103
1.0796307 1.2247785 1.2289051 1.1085806 1.2506515 1.2495157 1.2193195 1.0611963
1.3148376
00000000: f9c3 9c3f da93 933f 7c6a 8d3f b43d a93f
00000010: 064a 9f3f 0987 8b3f cf54 9e3f 44df a93f
00000020: f1ad a33f afc1 863f 07f1 883f b191 843f
00000030: 577c ab3f cea2 a43f a487 8b3f d0c7 a13f
00000040: 5731 8a3f 8bc5 9c3f c34c 9d3f f8e5 8d3f
00000050: 5915 a03f 21f0 9f3f a912 9c3f 48d5 873f
00000060: 994c a83f

classfier.bn3.bias f4 [25]
0.21916035 -0.0044117044 -0.02309911 0.32188997 0.23835197 -0.022550443 0.23322482 0.32340378
0.25999522 -0.030407805 -0.038054343 -0.036489412 0.33245957 0.26552135 -0.017080072 0.2520038
-0.02431534 0.21427031 0.22219215 -0.02599172 0.23631622 0.24263744 0.21553467 -0.037713
0.31681034
00000000: 926b 603e 0f90 90bb 583a bdbc c3ce a43e
00000010: 8a12 743e b5bb b8bc 7dd2 6e3e 2e95 a53e
00000020: 181e 853e ca19 f9bc dfde 1bbd ec75 15bd
00000030: 2438 aa3e 6af2 873e 82eb 8bbc a406 813e
00000040: f730 c7bc ad69 5b3e 5786 633e 96ec d4bc
00000050: e1fc 713e f375 783e 1fb5 5c3e f278 1abd
00000060: f734 a23e

classfier.bn3.running_mean f4 [25]
-0.32294255 -0.0046973005 -0.053837012 -0.5294713 -0.22663824 0.17343532 -0.5261816 -0.54179484
-0.65196925 0.062052287 0.040377904 0.12244039 -0.6204438 -0.7258759 0.0334702 -0.4183994
0.03243869 -0.53192747 -0.49300617 0.09103976 -0.5792577 -0.38134468 -0.51972765 0.054280233
-0.46789923
00000000: ba58 a5be d0eb 99bb 3384 5cbd 6e8b 07bf
00000010: db13 68be 0799 313e d6b3 06bf 11b3 0abf
00000020: 75e7 26bf 8a2a 7e3d 4d63 253d 07c2 fa3d
00000030: 68d5 1ebf 01d3 39bf 0c18 093d 7238 d6be
00000040: 6fde 043d 662c 08bf 4e6b fcbe 0e73 ba3d
00000050: 3c4a 14bf 9c3f c3be df0c 05bf f354 5e3d
00000060: 7d90 efbe

classfier.bn3.running_var f4 [25]
0.90773755 1.4015198 1.1251717 0.39984208 0.9120433 1.4393759 1.2550734 1.2024366
0.58502096 1.0770731 1.339017 1.0317589 1.0383444 0.6767643 0.97701365 1.0039325
1.3141351 0.66246307 0.6602903 1.1178404 0.51939154 0.538564 0.6036981 1.1447145
0.73242253
00000000: 7d61 683f 0065 b33f a005 903f 1ab8 cc3e
00000010: ab7b 693f 783d b83f 3fa6 a03f 71e9 993f
00000020: efc3 153f 88dd 893f e964 ab3f ad10 843f
00000030: 78e8 843f 6d40 2d3f 911d 7a3f dc80 803f
00000040: 9435 a83f 2e97 293f c908 293f 6515 8f3f
00000050: d8f6 043f 55df 093f f58b 1a3f 0186 923f
00000060: 0b80 3b3f

classfier.fc5.weight f4 [1, 25]
-0.40590414 0.1435631 0.1805201 -0.22842462 -0.36639276 0.22305824 -0.3533189 -0.22430849
-0.2569889 0.12781437 0.26331604 0.16513829 -0.22811799 -0.25838032 0.11784701 -0.30300167
0.20613992 -0.39598045 -0.35988396 0.25466877 -0.3132935 -0.2950769 -0.4013324 0.22675693
-0.22183761
00000000: abd2 cfbe 3502 133e 43da 383e 25e8 69be
00000010: d597 bbbe 6169 643e 37e6 b4be 20b1 65be
00000020: 0d94 83be c5e1 023e 5cd1 863e 031a 293e
00000030: c397 69be 6d4a 84be c659 f13d 0923 9bbe
00000040: 5816 533e f3bd cabe b642 b8be f263 823e
00000050: 0168 a0be 5214 97be 717b cdbe f832 683e
00000060: 6629 63be
