trained_models/2025-06-27/run_23-44-17/dnn_model_fold_3.pt (torch, 86721 bytes, 19 tensors)

classfier.fc1.weight f4 [100, 100]
000000 55 ec 90 3d e2 81 16 bd c8 6a fe 3d fa 81 06 3d
       0.07076327 -0.03674496 0.12422711 0.0328388
000010 4e c2 b3 bd 39 21 96 3d b9 cd 01 be 5c 38 17 3d
       -0.08777295 0.073305555 -0.12676133 0.036918983
000020 ec 93 55 b9 2a 91 7e bd 51 0e 85 bd ce 9c 98 3d
       -0.00020368368 -0.062150158 -0.06496871 0.07451783
000030 cd a8 b3 3d fb d3 8f bd 5d 22 05 3e 26 f5 df bd
       0.087724306 -0.07022854 0.1300139 -0.1093543
000040 89 08 c6 bd 99 89 4a bd 6f 0c ae 3d 00 54 db 3c
       -0.09669597 -0.04944763 0.08498465 0.026773453
000050 ff 8c 20 3c 90 ae 38 bd 49 e3 2f 3d 42 76 d7 3c
       0.009799241 -0.04508835 0.042941365 0.026301507
000060 6e 0a bb 3b 28 72 e1 bc b6 70 67 bd bf a2 a4 3d
       0.0057080304 -0.027520254 -0.056503974 0.08038854
000070 cf 44 72 bd 49 aa 3d bd a8 05 e5 3d bc a9 90 bd
       -0.059147652 -0.046304975 0.111827195 -0.07063624
000080 a2 df 20 3d 92 ea 7f bd 5b 8c 1c bd 80 27 e8 bd
       0.039275773 -0.062479563 -0.03821979 -0.11335659
000090 ca 5f 05 3c 19 1d 66 bd 74 e7 10 3d 60 05 b7 3d
       0.008140514 -0.056180093 0.03537698 0.08936572
0000a0 01 ba 8e bb bb 3c 40 bd f6 bb 57 bb 84 18 83 bc
       -0.0043556695 -0.046932917 -0.003291843 -0.0160029
0000b0 17 7e 8d 3d 73 3d 37 bd ee 44 cd 3d 0c 0a 0c 3e
       0.06908815 -0.044736337 0.10022913 0.13675708
0000c0 9b c7 9b 3d 75 7b d4 ba bc 51 92 3c 65 61 6e bd
       0.07606431 -0.001621111 0.01786124 -0.05819835
0000d0 a4 18 d9 bd 75 7f b1 bc 39 40 12 3c 33 5d c5 bd
       -0.10600403 -0.021667222 0.008926445 -0.09636917
0000e0 eb fa 3e 3d 23 12 a9 3d c0 10 60 bd 04 b9 ad bd
       0.046626013 0.082554124 -0.054703474 -0.084825546
0000f0 a4 6a 9e 3d f2 7d 7c 3d 55 3e 80 bc 20 43 aa 3c
       0.07735184 0.06164355 -0.015654722 0.02078396
000100 de e4 cd bc 6d 65 93 bd d7 f8 1f 3c b7 89 4e bd
       -0.025133546 -0.0719708 0.009763918 -0.050424304
000110 b9 fb 29 bd a0 61 55 3c 19 45 a7 bc cb 26 2d 3d
       -0.041499827 0.013023764 -0.02041869 0.042273324
000120 3d 7a b5 3d 4d 0a 6b 3d 7b b8 9d bd ff a5 07 3d
       0.08861206 0.05738287 -0.077012025 0.03311729
000130 f8 c7 91 3d ac 14 10 bd a0 d4 e9 3b 95 73 82 3d
       0.07118219 -0.035175964 0.0071359426 0.06369702
000140 9f 24 26 bd 87 80 96 3d 37 4a a7 bd bc 44 38 bd
       -0.04056227 0.073487334 -0.08168452 -0.044987425
000150 c0 0d 86 3d 80 50 16 3d b4 d7 10 3d cd db ce bc
       0.06545591 0.036697865 0.03536196 -0.025251294
000160 67 c3 95 3d 7c ee 26 bc 17 7f 89 bd 29 d8 c2 bd
       0.07312661 -0.010188695 -0.067136936 -0.095138855
000170 ed 40 b6 bd ea 3b ea 3d 83 59 5d 3d 7c 29 72 3d
       -0.08899102 0.11437209 0.054040443 0.059121594
000180 cc 47 8f 3d 6e c2 62 3c 2e db 9e bd 32 c5 b1 3c
       0.06996116 0.013840301 -0.07756649 0.021700475
000190 eb 4b 84 bd 88 7e c7 3c bc 9b 9f bd d3 f8 c7 3c
       -0.06459793 0.024352327 -0.07793376 0.02441064
0001a0 ee 74 d0 bc 6b e7 36 bd 40 6c a5 3d f9 9f 19 3d
       -0.025446381 -0.04465429 0.08077288 0.037506077
0001b0 76 0a 24 3d cc 4c e4 3c 70 44 b6 bd 8d 9c 96 bd
       0.04004904 0.02786865 -0.08899772 -0.073540784
0001c0 e7 fe 40 3a 37 53 71 3d fd 01 c3 3c cb ea 8f 3d
       0.0007362202 0.05891725 0.023804659 0.07027205
0001d0 9b 80 9b bd 72 9e af 3d 77 1e 93 bd 4a a2 bd bc
       -0.07592889 0.08575143 -0.07183545 -0.023148675
0001e0 65 4b 2c bc 5f 81 80 3d 38 c4 18 3d 23 77 d6 bd
       -0.010516022 0.062746756 0.037296504 -0.10471942
0001f0 f1 10 1e 3d ca e3 2d 3d 54 cb 75 bd bd bd 9d bd
       0.038590375 0.042453565 -0.060008362 -0.07702205
000200 01 bf 27 3d 78 c0 d1 bd 08 38 25 bc 51 e4 11 bc
       0.04095364 -0.102417886 -0.01008416 -0.0089045325
000210 ab 9c cf bb 50 9d 19 bd 1f ab c8 bd 20 95 79 bd
       -0.006335815 -0.03750354 -0.09798264 -0.060933232
000220 5d 94 6f bd a4 2e 23 bb 17 5a 85 bd 71 39 b9 bd
       -0.0584911 -0.0024899626 -0.06511324 -0.09044159
000230 96 e9 91 3d 97 75 8c bd 57 b3 a4 bd 58 74 c4 bd
       0.07124631 -0.06858366 -0.08042019 -0.09592503
000240 1c 99 d9 3d 75 a5 49 3b 99 8e 4e bc a1 00 92 3d
       0.106249064 0.0030768786 -0.01260724 0.07129026
000250 82 92 aa 3d b2 fe 90 3d 05 80 71 bd 1b b3 9d 3d
       0.083287254 0.07079829 -0.05895998 0.07700177
000260 e3 e3 b0 bc 3b 73 5b 3d 58 c3 13 bb aa 8c 85 bd
       -0.02159304 0.05357669 -0.0022546854 -0.0652097
000270 4b da 88 bd e2 30 20 3d 5d 3d a3 bd 59 ee 9f bd
       -0.06682261 0.03910912 -0.079706885 -0.07809133
000280 43 c5 5f 3d 9f 09 c8 bd a5 a5 0c 3c 84 8e c9 ba
       0.054631483 -0.0976746 0.008584415 -0.0015377556
000290 22 a4 06 3c fe d6 80 bb 27 c4 11 3c 04 0a 63 bd
       0.008217843 -0.003931879 0.008896864 -0.055429474
0002a0 ab c6 6b 3c d4 b4 bc bc 18 62 2f 3d 90 e3 2e 3b
       0.014390628 -0.023035444 0.04281816 0.002668593
0002b0 6d e5 28 3d 55 17 a0 bc a3 68 3d bd 77 a7 ae 3d
       0.041234422 -0.019542376 -0.046242367 0.08528035
0002c0 32 d5 22 bd 33 30 18 bc 74 a1 be bc 87 60 19 3c
       -0.0397541 -0.009288835 -0.023270346 0.009361393
0002d0 9f 09 8f 3d 86 63 19 bd 38 3c 50 3d a2 3f 64 3c
       0.06984257 -0.03744843 0.05083868 0.013931187
0002e0 be 31 4c 3d 63 b4 92 3d 4b 9b e8 bc 69 98 38 bd
       0.049852125 0.07163312 -0.028394362 -0.045067225
0002f0 54 e1 e5 3b 47 12 1e 3d 54 b7 08 3d dd e9 52 bd
       0.0070153866 0.03859165 0.03337796 -0.05149256
000300 8b 92 f5 3c 6b 68 94 bd 7c c0 4b 3d 8f 0e 98 3d
       0.029977104 -0.07246479 0.049744114 0.07424652
000310 7d f2 95 3c 22 2b 9f 3c c8 3c 68 bd 7b 09 ff bc
       0.018304104 0.019429747 -0.05669859 -0.03113245
000320 f0 44 af bd b2 a5 96 bd 0c 3f d1 3d 44 23 1c 3d
       -0.08558071 -0.073558226 0.10217103 0.03811957
000330 71 0f fc 3c c3 9c 66 3d be f6 7c bd a9 e6 22 3d
       0.030769082 0.056301843 -0.06175875 0.039770756
000340 c9 25 39 bb f3 46 25 bb 58 ca 23 bd e9 1e 23 bd
       -0.0028251281 -0.002521929 -0.039987892 -0.0398244
000350 0e 4d be 3d 31 5b ba 3c 4a a6 53 bd c4 10 f1 bb
       0.09292041 0.022748562 -0.051672257 -0.007356735
000360 17 30 f0 3c 2a 43 e7 bd f8 cf fd bc 13 6f d6 3d
       0.029319806 -0.112921074 -0.030982956 0.104704045
000370 b7 17 e6 3c 18 2c bf 3b 06 a3 8a bc e0 d5 ba 3d
       0.02808748 0.005834114 -0.016923439 0.09122825
000380 d3 35 55 bd 5e bb 84 bd 6c f4 95 3b 4b b9 dd bc
       -0.052053284 -0.0648105 0.0045762565 -0.027065894
000390 83 79 4e bd ad 76 84 3d 9a 0a 2b b9 cd b4 d4 3b
       -0.05040885 0.06467948 -0.0001631178 0.0064912797
0003a0 af 96 c8 3c 66 ba 9a bd 42 fe a1 3c ee 5f 68 bd
       0.024485914 -0.07555084 0.01977456 -0.05673211
0003b0 b0 10 2e ba d1 75 f4 3b 99 57 94 bc 4b dc 91 3d
       -0.000664006 0.007460334 -0.018108176 0.07122096
0003c0 a0 80 24 bd 4a 5a 9a bc c4 02 b8 bd 70 92 e6 bc
       -0.04016173 -0.018841881 -0.089849025 -0.028145999
0003d0 9b 09 21 bb ae 43 81 3d b4 0d e0 bc 4f 7f 4e 3d
       -0.0024572376 0.06311737 -0.027350284 0.05041438
0003e0 de 0e b5 3d 6d 58 bf bc fb 4a cb 3d 16 a4 3a 3d
       0.08840726 -0.023357594 0.09926411 0.04556664
0003f0 00 da fa bc 60 45 03 be 12 d5 49 3d cf e4 36 3c
       -0.030621529 -0.12819433 0.049275465 0.011162951

classfier.fc1.bias f4 [100]
000000 5c af 25 b8 ad af 6b 37 24 7b df 39 ba 1b 7f b5
       -3.950238e-05 1.4047994e-05 0.0004262562 -9.503525e-07
000010 7c 4f 33 b8 79 7d e2 36 8e a2 6a b7 45 56 6c b8
       -4.275095e-05 6.749932e-06 -1.3985335e-05 -5.634713e-05
000020 9b 26 00 b7 a3 fd f2 b8 7d 60 22 38 b1 9f a1 b7
       -7.638383e-06 -0.00011586703 3.871367e-05 -1.9267058e-05
000030 5e a2 00 b6 e7 bb 60 b7 ae bd 5e b8 24 97 b4 b7
       -1.9167996e-06 -1.339519e-05 -5.3105578e-05 -2.1528052e-05
000040 52 85 4d b6 46 e9 7f 38 2a f4 b4 37 7b c3 f6 35
       -3.0624983e-06 6.101399e-05 2.157137e-05 1.8385321e-06
000050 38 3e 80 37 41 c9 e4 b7 ee 2c 0e 39 a5 27 00 b9
       1.5287762e-05 -2.7273434e-05 0.00013558913 -0.000122218
000060 66 a8 15 38 b7 23 4f 38 dc cf 3b b5 d0 e4 83 37
       3.56812e-05 4.9385908e-05 -6.9965404e-07 1.5722966e-05
000070 ae 65 48 37 4f 5c 93 b6 7e 0d 47 39 7d 20 02 37
       1.1944603e-05 -4.3916875e-06 0.00018983145 7.756168e-06
000080 1a 22 9f 36 00 b7 ef 33 7f 67 04 38 b9 82 2b 39
       4.742539e-06 1.1162592e-07 3.156764e-05 0.00016356529
000090 d3 70 d4 38 b9 87 bf b6 94 a3 ad b7 ad 9f 92 35
       0.00010129963 -5.708044e-06 -2.069938e-05 1.092432e-06
0000a0 09 b3 43 b8 6d 60 42 b9 b7 70 06 39 fa 2f c4 37
       -4.6658362e-05 -0.00018537203 0.00012821225 2.3387362e-05
0000b0 9c 2e df b8 cd 0f 8e 37 a0 f9 c6 b5 92 be 0d 38
       -0.0001064215 1.6935077e-05 -1.48248e-06 3.3794502e-05
0000c0 b1 70 a8 b6 c1 97 fd b6 57 f5 cb 36 df ce 5c b6
       -5.019909e-06 -7.557654e-06 6.0784328e-06 -3.290297e-06
0000d0 64 4b fc b8 3b dc 05 b9 11 b0 a9 b8 38 a8 e7 b7
       -0.00012030339 -0.0001276591 -8.091343e-05 -2.7615679e-05
0000e0 07 54 dc b8 c0 33 9d 37 f4 73 a9 b7 c9 c0 b1 b6
       -0.00010506069 1.8739956e-05 -2.0200365e-05 -5.297454e-06
0000f0 27 c1 96 b9 68 68 8d 37 47 9a 02 37 4e 2b 34 b8
       -0.0002875414 1.6857128e-05 7.784524e-06 -4.2955675e-05
000100 f8 09 15 b8 33 38 0e b9 d3 5b 11 b8 b7 64 74 36
       -3.5533652e-05 -0.00013563111 -3.4656212e-05 3.6417457e-06
000110 bc 9d d8 37 51 c8 85 b7 9f b2 9c b4 20 99 68 38
       2.5822657e-05 -1.5948115e-05 -2.9187228e-07 5.545572e-05
000120 7c 6b e0 37 cb b4 f1 b6 28 9d 14 39 bf 62 1f b7
       2.6752932e-05 -7.2034068e-06 0.00014172925 -9.50013e-06
000130 3e 0a 4b 39 78 2f 94 38 f0 ea 44 b9 ca 52 07 b7
       0.00019363404 7.066032e-05 -0.00018779538 -8.065903e-06
000140 c0 6b 5d b9 9b 58 54 38 c8 69 15 b7 00 cb 95 b7
       -0.00021116342 5.062726e-05 -8.905721e-06 -1.7856713e-05
000150 30 37 94 b6 87 da 1e b9 ad 74 b6 b6 11 5e b0 b6
       -4.4171684e-06 -0.00015149462 -5.4376055e-06 -5.2561595e-06
000160 e7 68 38 37 7a 14 84 b9 df 4b e8 37 c8 21 c8 b8
       1.0991679e-05 -0.00025192258 2.7691885e-05 -9.5430354e-05
000170 61 65 aa 38 f1 eb 84 38 08 94 87 b7 67 19 3a 39
       8.125115e-05 6.338198e-05 -1.6162187e-05 0.00017747805
000180 96 6e 02 ba 7e 52 03 36 58 92 3e 39 be 14 0b b9
       -0.0004975585 1.9568538e-06 0.0001817433 -0.000132638

classfier.bn1.weight f4 [100]
000000 04 0f 7e 3f 40 df 6b 3f 02 b6 82 3f 9b 57 78 3f
       0.9924166 0.9213753 1.0211794 0.97008675
000010 2c 25 7b 3f 93 d9 79 3f 48 95 75 3f 61 5b 80 3f
       0.98103595 0.97597617 0.9593091 1.0027887
000020 f9 f9 6c 3f 7c c1 88 3f 91 ed 7b 3f 90 32 75 3f
       0.9256893 1.0684047 0.9840937 0.9578028
000030 e3 30 80 3f d0 c8 6f 3f b7 22 82 3f 04 c5 70 3f
       1.0014919 0.9366579 1.0166844 0.9405062
000040 8f 54 7c 3f 80 81 7c 3f 9a a5 79 3f d8 d1 7d 3f
       0.98566526 0.986351 0.9751831 0.9914832
000050 98 8b 74 3f 6a 91 73 3f aa 74 7c 3f 99 88 86 3f
       0.95525503 0.9514376 0.98615515 1.0510436
000060 c7 29 6e 3f b1 3a 79 3f 42 be 6f 3f 89 6a 7a 3f
       0.930325 0.9735518 0.93649685 0.9781881
000070 e1 e8 88 3f f2 f9 6d 3f e5 16 78 3f fb 28 78 3f
       1.0696069 0.9295951 0.96909934 0.9693753
000080 db 9c 7e 3f d3 6b 75 3f 4e 30 7b 3f 55 e9 7b 3f
       0.9945809 0.9586765 0.9812058 0.9840291
000090 95 a5 82 3f 03 51 6f 3f a7 3e 85 3f 53 e6 7a 3f
       1.0206782 0.9348299 1.0409745 0.98007697
0000a0 b3 f5 82 3f c5 e5 81 3f 3f 80 82 3f 8b 2c 7b 3f
       1.0231231 1.0148245 1.0195388 0.9811484
0000b0 4f 6d 8f 3f 03 57 7a 3f 55 e5 71 3f db 03 73 3f
       1.1205233 0.9778902 0.9449056 0.9492776
0000c0 ac c7 6d 3f a4 21 81 3f ea 11 71 3f 0a 78 73 3f
       0.928828 1.0088391 0.9416796 0.9510504
0000d0 14 d3 72 3f 99 bc 83 3f 90 f7 78 3f e4 37 72 3f
       0.9485333 1.029193 0.9725275 0.9461653
0000e0 3c 14 83 3f a7 fe 7f 3f 55 85 6c 3f ce 01 72 3f
       1.024055 0.99997944 0.9239095 0.94534004
0000f0 93 84 8d 3f 93 35 81 3f c4 f4 72 3f af 0b 83 3f
       1.1056083 1.0094475 0.9490473 1.023794
000100 13 ee 7d 3f d5 2a 88 3f 8f 67 6e 3f 96 98 75 3f
       0.991914 1.0638071 0.9312677 0.9593595
000110 9e 34 75 3f 5b ff 73 3f a4 8a 71 3f 90 e6 83 3f
       0.9578341 0.95311517 0.94352174 1.0304737
000120 ec 90 75 3f fe 30 73 3f 59 7b 87 3f 6d c1 75 3f
       0.9592426 0.9499663 1.0584518 0.9599827
000130 de 4a 78 3f d5 38 74 3f 43 1d 81 3f 78 bc 6e 3f
       0.9698924 0.9539922 1.0087055 0.9325633
000140 af 6c 7b 3f 13 f1 7a 3f b6 8c 77 3f 40 d8 75 3f
       0.98212713 0.980241 0.9669908 0.96033096
000150 d2 5b 86 3f 51 16 89 3f 2f e4 68 3f 72 44 83 3f
       1.0496771 1.0709935 0.9097318 1.0255263
000160 e8 c4 79 3f b4 66 89 3f c3 f7 7a 3f 77 7c 77 3f
       0.9756608 1.0734468 0.98034304 0.96674293
000170 5a 04 80 3f 17 80 88 3f 7d 77 74 3f ef df 7c 3f
       1.0001328 1.066409 0.95494825 0.98779196
000180 93 1a 90 3f 31 37 6a 3f 0e e2 87 3f 66 0e 84 3f
       1.125811 0.91490465 1.0615861 1.0316894

classfier.bn1.bias f4 [100]
000000 20 84 e2 bd 6a ba 2e bd e7 d5 5e be 61 e0 0e be
       -0.11060357 -0.042658247 -0.21761285 -0.13952781
000010 2a 70 15 be 09 d3 b4 bd 48 fc bf bc 42 9e 2b be
       -0.14593568 -0.08829314 -0.023435727 -0.1675959
000020 f4 f2 71 bd de cc 20 be a1 f6 37 bd 6d fe 36 be
       -0.05906959 -0.1570315 -0.044912938 -0.17870493
000030 8e 97 7e bc 57 e5 0c be 6f 11 59 be 79 af 06 bd
       -0.015539063 -0.13759361 -0.21198057 -0.032882188
000040 25 31 34 be 76 de 14 bd 9b f6 a2 bd 21 f3 48 bc
       -0.17596872 -0.036344968 -0.079571925 -0.012264998
000050 8a 47 3a bd 20 23 29 bd c3 8d 14 be 82 a7 24 be
       -0.04547838 -0.041293263 -0.14507203 -0.16079524
000060 db c6 96 bd ab f9 72 be 15 3e 25 bc 2c eb 99 bd
       -0.073621474 -0.23728053 -0.010085602 -0.075155586
000070 90 6b 78 3d 53 46 ca bd 46 d4 80 bd 6d 6b eb bd
       0.060649455 -0.098766945 -0.06290488 -0.11495099
000080 ae ea 3b 3d e6 96 91 bd 7f 30 07 3d bd 8a 8d 3c
       0.045878105 -0.0710886 0.033005234 0.01727807
000090 7d 7b f9 bd 59 bd e2 bd 91 4f 3a bd 72 a7 f0 3b
       -0.12181757 -0.110712714 -0.045486037 0.00734418
0000a0 c6 f8 23 be 20 bb 27 3d 62 73 30 be a9 7f ab bd
       -0.16012868 0.04094994 -0.17231515 -0.083739586
0000b0 00 e3 a6 3d f3 f9 11 be 2c 2f 9a bd f5 0f 8c bd
       0.081487656 -0.14255504 -0.075285286 -0.06838981
0000c0 79 39 7b bd 6e 35 4c be 69 2a 2e bd 48 c0 9b bd
       -0.061334107 -0.19942257 -0.042520914 -0.07605034
0000d0 44 67 40 bd f6 8f e4 bb f2 7e 35 be 3e 91 52 be
       -0.04697348 -0.0069751693 -0.17724207 -0.20563218
0000e0 22 c9 ab bd 15 e0 33 be b5 8f 81 3c 90 2f 5d bd
       -0.083879724 -0.1756595 0.015815595 -0.054000437
0000f0 8e 5d f2 bb 4e 77 39 bd 9f 49 76 b8 3c 2c e7 bc
       -0.0073964065 -0.045279793 -5.8719535e-05 -0.028219335
000100 a6 8a 61 be c7 b8 f1 bc 16 09 f0 bd 1f a7 6d bd
       -0.22025546 -0.029507054 -0.11720483 -0.058020707
000110 5f 7c 87 bb f8 74 8a bd cd 21 c3 bd 6d 4c 1d bd
       -0.0041346992 -0.06760591 -0.09527931 -0.038402963
000120 63 6c 47 3c d7 e0 8e bd 95 ff 6f bd cb 20 8a bb
       0.0121718375 -0.069764785 -0.05859335 -0.004215335
000130 66 1f 29 be c7 02 aa bd 02 f0 71 be 93 7b e5 3a
       -0.16515884 -0.08301311 -0.23626712 0.0017508141
000140 97 48 22 be e9 a3 b0 bc b3 b3 5f bd 77 e4 6e 3b
       -0.15848003 -0.021562533 -0.054614734 0.0036452094
000150 82 57 dc bd 19 cc 2f bd 0f 4d 29 bd df 40 e9 3b
       -0.10758878 -0.042919252 -0.041333254 0.007118329
000160 c8 fd 03 bd 4e 1e 25 be e7 9c 5c be 58 71 2c be
       -0.032224447 -0.16124842 -0.21544228 -0.16840112
000170 61 b5 c7 bd 07 12 9c bd 85 72 f8 bc 6a cd 46 be
       -0.09751392 -0.07620626 -0.030328045 -0.19414297
000180 3f 78 bf bc 37 f1 3a bd 04 e2 3e bb cd c0 ab 3d
       -0.023372767 -0.045640197 -0.0029126415 0.08386383

classfier.bn1.running_mean f4 [100]
000000 da 4f 9a bd 31 8b a9 3e 0c ca e7 bc fa fd 97 3d
       -0.07534762 0.33114007 -0.028294586 0.07421489
000010 2a aa cd bd 5a 78 20 be 98 7b 2e be 8c aa c1 bd
       -0.10042222 -0.1567091 -0.17039335 -0.09456357
000020 5d 8d 14 3f a1 48 8a bc 66 c2 94 be 8c 28 b0 bd
       0.58028203 -0.016880335 -0.29054564 -0.08601484
000030 4b f8 ac be 87 b2 3b 3e 3c c4 1a bd 8d be aa 3e
       -0.33783183 0.18329822 -0.0377848 0.33348504
000040 27 92 b9 bd fe 26 2c 3e 35 4c a2 3e 1a a4 ab bf
       -0.090610795 0.1681175 0.31698766 -1.3409455
000050 57 93 a1 be ba 48 c8 bd 2d 81 ce bd 93 86 2e bc
       -0.31557724 -0.097794965 -0.10083232 -0.010652202
000060 f1 12 a5 3f 29 80 c7 bd f1 2a 08 3f ba 48 81 bd
       1.2896405 -0.097412415 0.53190523 -0.063126996
000070 34 82 9e bc 0a 01 94 bf 4e 9b 99 3c 27 c2 c5 3e
       -0.019349195 -1.1562817 0.018750813 0.3862469
000080 1a 23 6c 3e 10 f5 85 3e 90 5a 46 be 06 53 90 3d
       0.23060265 0.2616353 -0.19370484 0.070470855
000090 27 16 9e bc ab 6d 08 bf 6a aa 88 3d b8 78 45 3e
       -0.019297672 -0.5329234 0.06673129 0.19284332
0000a0 d1 fd 7b bc d3 fa a0 be a9 a4 54 bd 24 08 e6 be
       -0.015380339 -0.31441364 -0.051914845 -0.44928086
0000b0 1e e9 ec 3c b4 2b 98 3d cb 2e 68 bf f1 75 10 be
       0.028919753 0.07430211 -0.906964 -0.14107491
0000c0 0e d2 8e 3f 4b 49 68 bc 62 e2 e5 be 27 0d b6 3e
       1.1157854 -0.014177631 -0.4489928 0.3555691
0000d0 e7 57 e2 3d c9 ca b1 bc 62 b1 9e bd a3 7d b2 bd
       0.11051922 -0.02170314 -0.07748677 -0.087153696
0000e0 2a 00 69 3c c2 d8 90 bd 28 25 f1 be 79 de 91 be
       0.0142212305 -0.07072593 -0.4709866 -0.28490046
0000f0 38 18 a1 bc 59 5c 71 3e ae 76 34 3f cc 6a 91 be
       -0.019664869 0.23570384 0.7049359 -0.28401792
000100 30 2e 12 bd ee 3f 0d 3d ca 1f 17 3e ce 60 e5 3e
       -0.03568858 0.034484796 0.1475822 0.4480042
000110 ed 57 82 be 21 2f bf 3d 8e 5c 01 40 0b f6 5f 3c
       -0.25457707 0.09335161 2.021274 0.013669501
000120 bd ea 68 be b4 99 8d 3f 57 ee ae 3d 0a d1 0b 3f
       -0.22745796 1.1062531 0.085415535 0.54615843
000130 92 e0 3c bd b3 aa 8f bd 65 a9 1f bd fa 3e 03 3f
       -0.046112604 -0.0701498 -0.038979907 0.5126797
000140 d9 98 d6 bc d3 97 5e 3e c6 27 18 3f cd 49 9e 3e
       -0.02619593 0.21737604 0.5943569 0.3091568
000150 3c 08 95 bd 0f 19 4e 3d c4 b0 9d 3f ea 25 7c bf
       -0.07276961 0.050316866 1.231957 -0.9849535
000160 6b 5e 50 be 14 37 12 bd ae 39 08 bd 11 91 5b bd
       -0.20348518 -0.035697058 -0.033258133 -0.053605143
000170 08 b9 6b bd 39 cc 65 3d df 90 99 be 71 5a 1d bd
       -0.057549506 0.056102965 -0.2999334 -0.03841633
000180 15 11 33 bc 84 2d a0 bf d8 80 b5 3d d5 d7 ec bc
       -0.010929366 -1.251389 0.088624656 -0.02891151

classfier.bn1.running_var f4 [100]
000000 5f 05 9e 3b c5 70 a4 3c 52 02 b6 3a 6e 19 87 3b
       0.0048224176 0.020073304 0.001388619 0.0041229045
000010 2d a2 5a 3b aa 7a f6 3b e7 39 f9 3b 54 5b 28 3b
       0.0033360824 0.007521947 0.0076057795 0.0025689201
000020 70 11 70 3d 71 06 86 3a d4 67 93 3c dd aa 50 3b
       0.05861038 0.0010225308 0.017993845 0.0031840124
000030 4b b7 b3 3c 65 09 24 3c 72 8a df 3a 6a 39 8c 3c
       0.021937987 0.010012005 0.001705481 0.01711722
000040 10 78 f6 3a b1 f8 c0 3b 38 2c b3 3c bf 48 97 3e
       0.0018804092 0.0058890213 0.021871671 0.29547688
000050 af 00 ac 3c e3 b1 bc 3b 6f 98 4c 3b e7 9a 06 3b
       0.02099642 0.0057585104 0.0031218787 0.0020539106
000060 78 70 90 3e e9 b0 4b 3b e4 f2 3a 3d cf ed fe 3a
       0.28210807 0.0031080788 0.045641795 0.0019449535
000070 b7 e6 be 3a 1f a0 65 3e 55 c3 32 3b 9e 06 fa 3c
       0.0014564608 0.22424363 0.0027277071 0.030520733
000080 ff 4f 43 3c a7 0c 94 3c a7 8b e2 3b b5 22 16 3b
       0.011920928 0.01807244 0.0069136205 0.002290887
000090 8c e7 f0 3a 05 e8 48 3d 2b 61 2c 3b 40 91 00 3c
       0.0018379553 0.049049396 0.0026303034 0.00784713
0000a0 63 ff 05 3b 94 06 96 3c 01 89 cb 3a 06 a2 ef 3c
       0.0020446412 0.018313684 0.0015528501 0.029252063
0000b0 cd 17 0b 3b 5b 02 4b 3b d1 10 04 3e 7b 94 69 3b
       0.0021223903 0.0030976746 0.1289704 0.003564148
0000c0 fe 94 4f 3e 8a ea 87 3a b7 d9 12 3d e9 03 cc 3c
       0.2027168 0.0010369581 0.03585216 0.024904208
0000d0 f2 24 81 3b 13 35 fa 3a fa 2c 29 3b 60 35 46 3b
       0.003941172 0.0019089304 0.0025814162 0.0030244216
0000e0 24 e0 08 3b 4f dc 17 3b 41 15 2b 3d 43 dc 6e 3c
       0.0020885551 0.0023172086 0.041768316 0.014578882
0000f0 62 35 ff 3a d3 b0 4e 3c 7d fa a9 3d 01 ed 57 3c
       0.0019470865 0.0126154 0.0829973 0.013179065
000100 96 23 dd 3a d8 b6 ae 3a 63 51 d2 3b a5 91 0e 3d
       0.0016871567 0.0013329638 0.0064183935 0.034806866
000110 bc 2f 65 3c c2 8f a1 3b 91 13 29 3f 14 12 c0 3b
       0.013988432 0.0049304673 0.6604548 0.00586153
000120 09 68 90 3c 5c 3e 5a 3e fb 8a 21 3b 49 ed 49 3d
       0.017627733 0.2131285 0.002464949 0.04929856
000130 4b 18 c0 3a e3 a1 1b 3b ea bf f1 3a 1d 5c 32 3d
       0.0014655677 0.0023747615 0.0018444036 0.043544877
000140 0c 61 21 3b 33 cc 29 3c 08 3e 62 3d 16 83 87 3c
       0.0024624495 0.010363626 0.05523494 0.016541999
000150 7c 9f 0b 3b 5e 81 02 3b 48 c6 82 3e c6 5c 26 3e
       0.0021304777 0.0019913535 0.25541902 0.16246328
000160 66 59 f7 3b eb 32 a9 3a 18 51 13 3b f9 a6 b0 3a
       0.007548499 0.0012908851 0.0022478756 0.0013477496
000170 8e d5 81 3b cc ee 11 3b 4a f2 92 3c 3a 73 20 3b
       0.0039622253 0.0022267578 0.017937798 0.0024482743
000180 70 09 4c 3b 28 7a 83 3e 6e 03 29 3b 6b c9 f0 3a
       0.0031133555 0.25679135 0.0025789398 0.0018370574

classfier.fc2.weight f4 [50, 100]
000000 fc 34 31 3b d8 a6 71 bd 2e 1f f7 3c a8 ac 85 3d
       0.0027039638 -0.058997005 0.030166235 0.06527072
000010 08 4f d5 bc 56 49 c7 3c 69 fa 05 3d c5 55 90 3d
       -0.026038662 0.024326961 0.032709513 0.07047609
000020 a7 36 a0 bc 79 48 cd 3d ba d2 d9 3b 65 a5 6c 3b
       -0.01955731 0.10023589 0.006647435 0.0036109325
000030 10 2b 41 3d d1 bd 51 bc 18 d2 c9 3c 06 e0 99 3c
       0.04716021 -0.012801603 0.024636313 0.01878358
000040 c2 fc 0d 3d 65 3e 44 3c 03 b3 4c bd af 47 60 3c
       0.034664877 0.011977767 -0.049975406 0.013688966
000050 78 de af bd 56 50 dc 3c d8 e6 c1 3d ad 5e 4f 3d
       -0.085873544 0.026893776 0.09467858 0.0506274
000060 8d 99 fb bc ac b3 e1 3d e1 17 b3 bd d6 5b 80 3d
       -0.030712867 0.11020598 -0.08744789 0.06267516
000070 c5 2a 23 be 30 34 53 3d fc f6 42 bd 47 69 2e 3d
       -0.15934284 0.05156344 -0.047598824 0.04258087
000080 b4 fa 8a bd 16 90 05 3d ef 36 85 bc 44 f2 50 3a
       -0.06786099 0.032608114 -0.016261546 0.00079706707
000090 aa b2 05 3d bd 04 27 bd 9b 43 c2 bd db 98 76 bd
       0.03264109 -0.040776003 -0.09485551 -0.060204368
0000a0 24 d8 00 3d df 59 0f bd 05 99 99 3d b7 44 a4 3c
       0.031456128 -0.034997817 0.07499889 0.020052297
0000b0 f5 6f 60 be ab cf b4 3d dd 99 b1 bb 82 fc 54 3d
       -0.21917708 0.08828672 -0.0054199533 0.051998623
0000c0 51 58 4e bd f5 17 a3 3d 54 8b 41 bd 1e 8d f3 bb
       -0.050377194 0.07963554 -0.047252014 -0.007432594
0000d0 81 f2 a8 bd 4e 48 e2 bd 2b 18 bf 3d 18 c8 63 3d
       -0.08249379 -0.11048947 0.093307815 0.055610746
0000e0 86 2e 86 3d 4e 02 5f 3c fa df b3 3c f9 2b 47 3c
       0.065518424 0.013611389 0.021957386 0.01215648
0000f0 17 72 22 be d9 4c 11 3d f4 1f 99 3d 97 fc 93 3d
       -0.15863834 0.03547368 0.07476798 0.07225912
000100 4a 0e d6 3d e5 e0 00 be ad 64 71 bc 36 46 43 3d
       0.10451944 -0.1258579 -0.014733476 0.04767438
000110 b9 92 2f 3d 80 d7 d0 3c 28 88 ff 3c fb 68 c7 bc
       0.042864535 0.025493383 0.031192854 -0.02434205
000120 82 20 3c bc d3 51 a4 3d aa 8f e2 bc 54 e0 0f 3b
       -0.01148236 0.08023419 -0.027656395 0.0021953778
000130 ee 69 4f 3d 72 31 a6 bb ac 8c 9a 3d a2 f1 8f 3d
       0.05063813 -0.0050718123 0.07546362 0.0702851
000140 c9 51 41 3d 26 3f 97 3b d6 c3 c0 3d 20 09 09 bd
       0.047197137 0.004615682 0.09412353 -0.033455968
000150 06 17 84 3d d1 51 fc bd b4 65 73 3c 22 f0 6c 3c
       0.06449704 -0.12320293 0.014855791 0.014461549
000160 8b bd a6 bd 26 94 d5 3d 38 59 bb 3d fc 52 70 3d
       -0.08141621 0.10428648 0.091478765 0.05867289
000170 e8 9f 83 bc fb 03 df bd 7a a4 92 bc db 85 98 3d
       -0.01606746 -0.10889431 -0.017900694 0.07447406
000180 d6 12 e7 bd 31 82 93 3d 68 66 13 bd 05 d4 af 3b
       -0.112828895 0.072025664 -0.035986334 0.005365851
000190 39 79 a6 3d 90 5a c9 bd b0 fd 6c 3d a4 e4 3f 3d
       0.0812859 -0.098317266 0.057859123 0.046848908
0001a0 4f a7 b1 bd 87 51 3b bd eb 0a af 3d 37 23 66 3b
       -0.0867449 -0.045732047 0.08547004 0.0035116205
0001b0 45 30 16 bd d5 9f 00 bd ec a7 0e 3e 99 72 3d bd
       -0.036667127 -0.031402428 0.13931245 -0.046251867
0001c0 48 93 11 3b 83 e1 ac 3c e8 b4 cd 3c 79 08 c4 bd
       0.002221303 0.021103626 0.025110677 -0.095719285
0001d0 df 80 9f 3d ca 1e 30 3d ec be 55 bd 0c b9 91 3d
       0.07788252 0.042998113 -0.05218403 0.07115373
0001e0 bf 62 60 3c c3 c3 0c 3e 18 4a f7 3c 6e f2 87 3b
       0.013695418 0.13746552 0.030186698 0.004148773
0001f0 89 65 f1 bc fc d6 0a be 8b f9 56 3c b0 ea 83 3b
       -0.029467361 -0.13558573 0.013121019 0.0040257797
000200 69 66 a6 3d 1b e1 a3 3d de f8 f8 bc 21 e9 99 3c
       0.08125002 0.0800192 -0.030392107 0.018787922
000210 db f3 99 bd d4 7b fd 3b 74 fa a9 3d d3 d6 91 3d
       -0.07517215 0.0077357087 0.08299723 0.071210526
000220 1d 62 ad bc 95 da ae bc f3 c7 c1 bd c0 fd d2 bd
       -0.021164948 -0.021344462 -0.094619654 -0.10302305
000230 83 f5 86 bc 0a 1f fa bb 3d e9 00 3d d4 bc 68 3d
       -0.016474491 -0.0076330947 0.031472433 0.056820706
000240 df dd 4a 3d 24 17 93 bb 88 b8 b6 3d ce f1 66 bd
       0.049528 -0.0044888426 0.08921915 -0.056382947
000250 ba 07 7b 3d 8c f9 e9 3b 91 57 a0 3d 18 71 b4 bc
       0.061286665 0.007140344 0.07829202 -0.022026584
000260 e3 08 1d bd 8a ac 99 bd 79 9f 15 bd 43 ac 3f bd
       -0.038338553 -0.07503612 -0.036529038 -0.04679514
000270 c4 71 ba 3c d2 15 1d 3d 36 4f a0 bd ad 02 81 3d
       0.022759326 0.038350888 -0.07827608 0.062993385
000280 93 4a c4 3c b8 73 de bd 49 00 8a bd 98 45 84 bd
       0.023961341 -0.10861915 -0.06738336 -0.064585865
000290 2a 4f 77 bd 14 1a 08 bd fa 67 9a 3c 03 65 9d bd
       -0.06037823 -0.033227995 0.018848408 -0.07685282
0002a0 03 d5 a0 3d d1 1b 78 bd 30 0d c7 bd 49 dd 83 bd
       0.07853129 -0.060573403 -0.09719312 -0.06438691
0002b0 15 d6 6d 3d 63 70 01 bd 52 14 05 bd 65 04 21 bd
       0.058065493 -0.03160132 -0.032490082 -0.03931083
0002c0 27 e5 80 bd 16 f3 38 3d bc f9 5e bd a3 6d c8 bd
       -0.06293707 0.0451537 -0.054437384 -0.097865365
0002d0 5b e6 d5 bd 8d c7 d8 bc b6 5d 45 bd 35 8b 0b bd
       -0.104443274 -0.02646234 -0.048185073 -0.034068305
0002e0 8f 0c 42 3d f6 28 30 bc 88 b9 90 3d 71 a2 59 3d
       0.047375258 -0.010751953 0.07066637 0.05313343
0002f0 3a 0e 56 3d 66 bc 01 3d af 80 b0 3d 00 c8 7e bd
       0.05225966 0.03167381 0.086182944 -0.062202454
000300 76 9c f1 3c 70 fc 8e bd 7e bd c2 3d 9b c0 e6 bd
       0.029493552 -0.069817424 0.09508799 -0.11267205
000310 46 36 5d 3d 8a 0f 89 3d de 27 85 bd 1e e3 c6 3c
       0.054006837 0.06692417 -0.06501745 0.02427822
000320 8b b0 87 bd aa 09 1a bc cd ab cc bd 06 3d c2 bb
       -0.0662547 -0.009401718 -0.09993706 -0.0059276847
000330 30 ef 81 bd 2f 64 64 bd 85 82 3a 3c d6 0b d5 bc
       -0.063444495 -0.055759605 0.011383657 -0.02600662
000340 72 8e c2 3c 9a de 17 bd b1 90 2d 3d 22 3e 4b 3c
       0.023749564 -0.037077524 0.042374317 0.01240495
000350 4b 3b 01 be ff 9e e4 bc 21 c2 d5 bd 7c 80 2b bb
       -0.12620275 -0.027907846 -0.10437418 -0.0026169112
000360 e7 15 68 bb 80 30 8d 3b 9d 34 0c 3c 83 29 99 bb
       -0.0035413445 0.00430876 0.008557466 -0.004674138
000370 25 c3 64 bc d7 5e b3 bc 8a 68 ac bd 3b b2 d4 ba
       -0.013962542 -0.02189581 -0.08418377 -0.0016227433
000380 4e 22 f6 bb 8c a6 21 3d 38 ea 51 bc 1d 63 87 3d
       -0.0075114137 0.039465472 -0.01281219 0.06610701
000390 4a 2c dc 3b 85 7b 8d 3d a7 75 49 bc 3d e7 74 bd
       0.006719147 0.06908325 -0.012296117 -0.05979084
0003a0 09 d4 8f bc 9e d4 8d 3d 2d b7 03 be c2 33 bc 3d
       -0.01755716 0.06925319 -0.12862845 0.091895595
0003b0 5c b5 65 3d 2c e9 4a bd 8c fc 24 3c 68 ec c1 3d
       0.05608116 -0.049538776 0.0100699775 0.09468919
0003c0 f9 b8 21 bd f3 b3 0f be f3 c1 a6 bc 11 a4 88 bd
       -0.039483044 -0.14033489 -0.020356154 -0.06671918
0003d0 6d 9e 22 3d a9 df c2 bd 36 25 0f bd 71 1a 10 3c
       0.039701868 -0.09515316 -0.034947596 0.008795367
0003e0 72 d7 1d 3c 09 f4 c9 bd fd f7 4e 3d 5c c0 1d 3d
       0.009633886 -0.09860999 0.05052947 0.038513526
0003f0 17 4b b0 3d 0e f3 14 bd 87 76 fa bc c3 86 c0 bd
       0.08608072 -0.036364608 -0.030574096 -0.09400704

classfier.fc2.bias f4 [50]
000000 91 3e 98 b7 4f f9 7e 36 39 87 1c b7 0c cd c1 35
       -1.8148947e-05 3.7994066e-06 -9.329809e-06 1.4439297e-06
000010 a2 d1 8b b6 1f 0b 06 b7 b6 94 d3 b6 56 5d 5f b7
       -4.1669273e-06 -7.989612e-06 -6.3056023e-06 -1.3313567e-05
000020 e8 d7 a4 b5 66 29 7d 35 96 56 eb 33 92 a8 70 36
       -1.2281789e-06 9.431009e-07 1.095879e-07 3.5860908e-06
000030 62 8f e4 34 1f 73 30 b6 0c db e4 b6 ee 46 94 36
       4.2572634e-07 -2.6293053e-06 -6.82043e-06 4.419001e-06
000040 a3 d0 0f b7 40 03 d0 b5 e0 89 68 35 5c 0f 28 b7
       -8.572041e-06 -1.5498154e-06 8.662737e-07 -1.00171565e-05
000050 3b f0 ed 35 37 27 82 34 a7 6d be 37 c5 65 43 b6
       1.7727792e-06 2.424292e-07 2.2700826e-05 -2.9116502e-06
000060 2a e5 ef b6 7c f9 1f b4 e8 1c 24 b7 e8 0c 50 37
       -7.1494333e-06 -1.4898791e-07 -9.781892e-06 1.2400771e-05
000070 62 13 0c 37 39 16 0f b6 94 48 35 36 37 d0 e7 b5
       8.349163e-06 -2.1321596e-06 2.7013348e-06 -1.727144e-06
000080 e6 52 fe 36 d6 c4 4b b5 77 2c ac b5 a9 41 2f b7
       7.5794405e-06 -7.5909827e-07 -1.282794e-06 -1.04461005e-05
000090 d2 92 0f b6 38 25 f7 35 3a 61 7e b5 0f 61 27 35
       -2.1394121e-06 1.8413766e-06 -9.4763857e-07 6.2353587e-07
0000a0 17 d9 ca 37 23 ca ac 37 92 ae b5 37 3f 99 51 35
       2.4181367e-05 2.0598125e-05 2.1658172e-05 7.808157e-07
0000b0 51 b5 09 36 cc f8 b1 35 95 c0 cd 37 4e 38 98 36
       2.052013e-06 1.3259937e-06 2.4527582e-05 4.5365077e-06
0000c0 43 c9 86 37 e3 32 68 b5
       1.6067765e-05 -8.6500785e-07

classfier.bn2.weight f4 [50]
000000 45 61 83 3f 0e 85 83 3f db 0e 81 3f 7a 70 75 3f
       1.0264059 1.027498 1.0082659 0.9587475
000010 12 c9 7f 3f 5d f9 7f 3f bc 56 73 3f 1c eb 6b 3f
       0.99916184 0.99989873 0.9505422 0.92155623
000020 f3 b4 87 3f 27 be 88 3f f3 61 70 3f be 16 69 3f
       1.0602096 1.068303 0.9389946 0.91050327
000030 d2 5e 8d 3f 99 44 76 3f 52 db 75 3f 37 05 76 3f
       1.1044562 0.9619842 0.9603778 0.9610171
000040 6b c6 87 3f 2a b3 8c 3f 17 a4 7b 3f 43 19 84 3f
       1.0607427 1.0992177 0.98297256 1.0320209
000050 51 6d 8c 3f be dd 80 3f 29 8a 71 3f 9f 3e 6b 3f
       1.0970861 1.006767 0.9435144 0.9189243
000060 cd 2d 7b 3f 9f 6b 82 3f eb 95 75 3f 66 78 7b 3f
       0.9811676 1.0189093 0.9593188 0.9823059
000070 d4 36 70 3f 9f 79 89 3f 21 f4 7f 3f ff 6c 7c 3f
       0.9383366 1.0740241 0.99981886 0.98603815
000080 d8 d8 73 3f 86 2e 72 3f df a4 77 3f 9c 7e 79 3f
       0.9525275 0.9460224 0.9673595 0.97458816
000090 44 ec 71 3f 8c be 84 3f ff 3c 7a 3f 10 bd 6f 3f
       0.9450114 1.037065 0.9774932 0.9364786
0000a0 ce 2b 6f 3f 00 2a 72 3f 9c ce 77 3f 60 9d 8e 3f
       0.93426216 0.94595337 0.96799636 1.1141777
0000b0 3a 41 81 3f 0d da 7b 3f 9f 9f 7d 3f c0 8c 7c 3f
       1.009803 0.98379594 0.9907169 0.9865227
0000c0 50 4b 82 3f 63 b6 69 3f
       1.0179234 0.91293925

classfier.bn2.bias f4 [50]
000000 0c 18 62 be 0c 42 23 3d 8d 3c fe 3c 15 80 46 be
       -0.22079486 0.03985791 0.031034732 -0.19384797
000010 5c 17 2f be 24 52 57 be 2e fb 14 3d ae 2b da bd
       -0.17098755 -0.21027428 0.036372356 -0.106528625
000020 dc b3 6e 3b 77 b0 4d 3d 66 d8 14 bd 6d eb 35 be
       0.0036423123 0.050217118 -0.036339186 -0.17765589
000030 f4 80 30 3d 99 9b 4e bc d9 63 02 be de 3f 3b be
       0.04309173 -0.01261034 -0.12733401 -0.18286082
000040 78 4a 3f be 8e 51 79 3c d8 d0 f8 3c 41 9b 1d be
       -0.18680751 0.015217198 0.030373022 -0.15391256
000050 27 9f 0b 3d a1 3d 22 3d e2 ae 66 bd 72 e3 35 bd
       0.034087326 0.039609555 -0.056319125 -0.044406362
000060 45 e4 39 be e6 71 72 3c 50 8a 87 bc 07 86 29 be
       -0.18153484 0.014797663 -0.016545445 -0.16555034
000070 02 ed eb bc e2 c7 91 3d 3e f9 75 3d 26 e7 19 bc
       -0.028799538 0.07118203 0.06005215 -0.009393489
000080 7f 79 98 bd 42 07 08 be c2 f8 b2 bb 5f 60 4e be
       -0.074450485 -0.13284019 -0.005461783 -0.2015395
000090 7b f7 c5 bd 07 e3 da 3d a8 22 67 bd 31 b3 08 be
       -0.09666344 0.10687833 -0.056429535 -0.13349606
0000a0 f3 da 62 be e0 9c 3b bd 3e 64 89 3d 64 fd 92 3d
       -0.22153835 -0.045803905 0.06708573 0.07177237
0000b0 5a b8 ed 3c 65 b6 50 3d b4 cc d8 3b b5 32 ea bd
       0.02901857 0.050955195 0.0066161994 -0.11435453
0000c0 33 42 10 be 3a 06 41 bd
       -0.14087753 -0.04712508

classfier.bn2.running_mean f4 [50]
000000 b1 f8 a4 3d 80 ea c7 bd 21 c3 e1 be d7 f5 a4 3e
       0.080552466 -0.09761524 -0.44094184 0.3221881
000010 8a f5 85 3e ce d0 d9 bd 3c 4f 84 bf 0c 92 a4 3e
       0.26163894 -0.106355295 -1.033668 0.32142675
000020 77 8c 7b bf f7 8a 5b bf 8a c8 9c be 0c af 9c 3e
       -0.9826121 -0.8575892 -0.3062175 0.306023
000030 01 67 5d bf b8 c3 cd be f5 f1 02 be 5c 33 7d bc
       -0.86485296 -0.40188384 -0.12787612 -0.01545414
000040 66 6f 00 3e 05 fe 88 bf 29 c6 44 bf 81 16 b4 3e
       0.12542495 -1.0702521 -0.7686487 0.3517342
000050 61 23 9a bf e0 f1 70 bf 30 29 5d bf d8 cc ac be
       -1.2042047 -0.9411907 -0.8639097 -0.33750033
000060 03 a3 7c 3e ba b3 7f bf b1 e9 02 be 11 1a d0 3e
       0.24671559 -0.99883616 -0.12784459 0.40644887
000070 9e 06 4d bf 7a ba bc bf 5b 1c d8 be 0e 5e 60 be
       -0.8008822 -1.4744408 -0.42209134 -0.21910879
000080 68 fa 5a bf 5a 31 0f 3f 78 d6 36 3e 40 14 55 3e
       -0.8553834 0.5593468 0.17855251 0.20808506
000090 af 9a 8f 3d eb cc 49 bf 60 54 37 bf 45 cd 82 3e
       0.070119254 -0.78828305 -0.7161312 0.25547233
0000a0 eb 14 23 3e ac ed 6f 3e e3 84 4f bf a7 d5 58 bf
       0.15925948 0.23430508 -0.81062144 -0.8470101
0000b0 59 88 7e bf 1d 40 56 bf 75 5c 18 bf d5 c7 0d 3d
       -0.994268 -0.8369158 -0.5951608 0.034614403
0000c0 1c fe d9 3e c2 80 32 bf
       0.42576683 -0.6972772

classfier.bn2.running_var f4 [50]
000000 97 a1 09 3f 3a e1 74 3f 65 88 e6 3e 1b 2d e3 3e
       0.5376219 0.9565617 0.45025936 0.4437035
000010 c6 15 e8 3e 54 4a ed 3e b0 fe 03 3f 4f d6 da 3e
       0.45329112 0.4634577 0.515605 0.4274163
000020 e0 f4 ea 3e ed f7 72 3f 53 da 6b 3e 20 98 a8 3e
       0.4588995 0.94909555 0.23032503 0.32928562
000030 32 cf e8 3e d3 ba 09 3f 33 25 da 3e ec e0 a2 3e
       0.45470577 0.53800696 0.42606506 0.31812227
000040 9d 60 ee 3e cf e6 22 3f dd 77 24 3f 9f 95 0a 3f
       0.46558085 0.63633436 0.64245397 0.54134554
000050 ef f1 29 3f 6c 2b 70 3f 25 52 ee 3e 2d 39 cc 3e
       0.66384786 0.93816257 0.46547046 0.39887372
000060 f7 c8 a5 3e dd c4 d8 3e 6b cd d5 3e 5d 1a ca 3e
       0.32379887 0.42337695 0.41758284 0.3947324
000070 d3 87 77 3f b7 31 00 40 a3 c3 6d 3f c7 a3 05 3f
       0.96691626 2.0030344 0.9287664 0.5220303
000080 41 64 e4 3e ff 62 99 3e 9e fb 14 3f aa e4 cf 3e
       0.44607738 0.2995834 0.5819644 0.40604144
000090 cf 5b 81 3e 42 31 8a 3f 67 73 d6 3e 4a 31 fb 3e
       0.25265357 1.0796282 0.4188492 0.49061042
0000a0 e3 76 e7 3e 42 33 0f 3f 78 1e 43 3f 17 1f 07 3f
       0.4520789 0.5593759 0.76218367 0.52781814
0000b0 3b 8b 0a 3f 8a 82 19 3f bf 5c 36 3f ae 04 e0 3e
       0.541187 0.5996481 0.7123527 0.4375357
0000c0 de 66 f0 3e 7c 07 94 3e
       0.4695348 0.2891196

classfier.fc3.weight f4 [25, 50]
000000 15 d3 8a bd c0 9e 08 be 0c 41 0e bc 73 2b 25 bc
       -0.06778542 -0.13341808 -0.008682501 -0.01008116
000010 44 7d 55 bd 3b 20 bb bd 01 ef 40 3d a4 6e aa bd
       -0.052121416 -0.09137007 0.047102932 -0.08321884
000020 58 af 8a 3c 07 ae 11 bd 9d 9b fd ba 50 f9 9b bd
       0.016929314 -0.035566356 -0.0019348745 -0.07615912
000030 3d 71 5e 3d c0 d9 21 be 46 cb e0 bc 24 c2 cc bd
       0.05430721 -0.15805721 -0.027440678 -0.09997967
000040 8d dc a6 bd 67 00 8d 3d 55 e5 6e bd 34 2d 01 bd
       -0.081475355 0.06884842 -0.058324177 -0.03153725
000050 a4 6e dd 3c af 97 91 bd 33 4f b5 3c 0a 86 05 bd
       0.027030297 -0.071090095 0.022132492 -0.032598533
000060 2b 73 8a bd 44 52 1e 3d a6 4c 84 be 03 bd d6 bc
       -0.06760248 0.038652673 -0.25839728 -0.026213175
000070 01 a5 2f be d5 c2 c1 bc f7 f9 3e bd c3 65 87 be
       -0.17152788 -0.023652473 -0.046625104 -0.26444826
000080 c2 f3 22 3a 58 44 bc bd 43 94 f3 bd 90 03 ab bd
       0.00062161323 -0.09192723 -0.11893513 -0.08350289
000090 ca 8c d5 bd c7 ea 01 bd 71 5e a1 3b 19 ba 82 bd
       -0.10427244 -0.03171804 0.0049245884 -0.063831516
0000a0 30 b5 9b bd ea 44 e5 bd 25 15 79 bd c8 4a 3b bb
       -0.07602918 -0.11194785 -0.06081118 -0.0028578509
0000b0 40 8c a2 bc 40 37 7c 3d aa 8e 23 bb b4 bc b3 bd
       -0.019842267 0.061576128 -0.002495686 -0.08776227
0000c0 ab fd 98 bc 87 fd 80 3d ff 26 34 bd ec fa 23 be
       -0.018675646 0.062983565 -0.043982502 -0.16013688
0000d0 1d 4c 72 3d c4 8e 8d bd 61 0b bf bb 5e 75 e7 bd
       0.05915462 -0.06911996 -0.005830214 -0.11301683
0000e0 08 f8 55 3c 43 90 9f bd e1 f3 d7 3c 90 0f 2c be
       0.013059624 -0.077911876 0.026361408 -0.16802812
0000f0 fa 89 e3 3c 90 29 9c bc 16 19 2e 3e 9b 2b 67 3c
       0.027775753 -0.019062787 0.17001757 0.014109517
000100 b0 59 6a bd 67 9b 84 bd 29 5f ae bd 82 02 01 3d
       -0.05721444 -0.06474953 -0.08514244 0.031496532
000110 f8 f5 68 3d 74 22 99 bd 7b fa a9 3d 73 06 34 be
       0.0568752 -0.074772745 0.082997285 -0.17580585
000120 0e 0e 11 bd 97 51 09 bc ed 25 df bc de 36 06 3d
       -0.035413794 -0.008381269 -0.027239764 0.03276717
000130 79 7f eb bd 89 74 89 3c 3c 07 05 be ee e1 3c be
       -0.11498923 0.016779201 -0.12991041 -0.1844556
000140 fe 3a 91 3d f1 d3 18 be 7a 19 94 3d de 44 c9 ba
       0.0709133 -0.14924599 0.07231422 -0.0015355607
000150 87 23 99 bc c1 f8 8d bd 27 b4 55 bd 2f 81 ea bd
       -0.018693699 -0.06932212 -0.05217376 -0.11450421
000160 59 fd 89 3d 6a 2b 2a bc 9a 38 50 bd ed 5d 49 3d
       0.06737775 -0.010386327 -0.05083523 0.04916184
000170 05 2b c1 bc a2 2a 14 3e a5 dd c3 3d 67 0c b6 3d
       -0.023580084 0.14469388 0.0956376 0.08889084
000180 bb c3 1d be d9 b5 c1 bd c5 db c1 3c 59 db 10 bd
       -0.15406696 -0.09458513 0.023664365 -0.035365436
000190 14 0b 8a 3d cd d7 00 bd 94 4c b8 bd db 69 a6 bc
       0.06740394 -0.031455804 -0.08998981 -0.020314148
0001a0 e6 2f 16 3d a4 5d 40 3e 64 0f ae 3d 63 bd cd 3d
       0.036666773 0.18785721 0.08499029 0.10045888
0001b0 77 79 a4 3d 82 8c 7d bd 97 9f 84 bc c1 7f aa 3c
       0.0803098 -0.061901577 -0.01618938 0.020812871
0001c0 3c c0 85 3d ac de 85 3c 50 1a 0b 3e 35 8f 96 3d
       0.065308064 0.01634153 0.13584256 0.07351533
0001d0 d2 26 84 bc 23 05 99 bd a7 e9 4c bd 38 e8 4b 3e
       -0.016131792 -0.07471683 -0.050027516 0.19912803
0001e0 32 28 64 bd ac 23 3a bc 89 42 81 bd 76 78 19 bd
       -0.055702396 -0.011361044 -0.06311519 -0.037468396
0001f0 b8 19 1d 3e 3c 36 c6 3d 3e d7 10 bc 6f 7b e5 3d
       0.15341842 0.09678313 -0.00884038 0.11205184
000200 31 91 08 bd d9 56 bf bc c3 46 a0 3d 36 c1 7a bd
       -0.03334159 -0.023356842 0.07825997 -0.061219417
000210 c2 d8 07 bd 44 49 8a 3d 68 d9 c9 bd 05 d9 c9 3d
       -0.0331657 0.067522556 -0.0985592 0.09855846
000220 97 0e a2 3d 07 4c 09 bd 15 d9 93 bd 3d c5 07 3d
       0.07912939 -0.03351977 -0.072191395 0.033147085
000230 84 97 eb 3d 40 71 ed 3c ec 80 67 3c 42 eb 5a bd
       0.11503509 0.028984666 0.014129858 -0.053447016
000240 59 e2 fe bc 89 3b 94 3b 3e c5 98 bc eb d7 9e 3d
       -0.03111379 0.0045236987 -0.01864874 0.07756027
000250 94 d8 0a 3e f0 b1 cc 3d ce eb a1 bd 60 2a 1a 3d
       0.1355918 0.099948764 -0.07906304 0.03763807
000260 cf d8 53 bd 7c 25 ab bd 02 f2 c0 3b 17 00 9c bd
       -0.051720437 -0.08356759 0.0058882246 -0.07617205
000270 e1 1d bd bd 41 30 af bd 11 9c 52 3d 5d 6d 60 3d
       -0.092342146 -0.085541256 0.051418368 0.054791797
000280 51 c8 11 bd 9b cd af bd 22 a0 ba 3d 3e 4e a9 3d
       -0.035591427 -0.08584138 0.09112574 0.08266877
000290 ab ad e0 bc e0 8b 21 bd e7 31 88 bd 3b ad 23 3e
       -0.027426561 -0.039440036 -0.06650143 0.15984051
0002a0 06 cd 80 be 1c 81 ed bc 5a 62 04 3e aa bc 03 3e
       -0.2515642 -0.028992228 0.12928143 0.12864938
0002b0 73 31 b0 3d 6e 89 a4 bd 8e 23 86 bd c3 b0 19 3d
       0.08603182 -0.08034025 -0.0654975 0.03752209
0002c0 24 36 b9 3d fa 65 ac bd 7b 9d 9c bb 89 f7 27 3e
       0.0904353 -0.08417888 -0.0047795153 0.16403021
0002d0 d9 9a 41 be 35 6d fe ba 7b e5 2f 39 f2 15 f0 bc
       -0.18906726 -0.0019411208 0.00016774789 -0.02930734
0002e0 21 f0 41 be 5f 4b 55 bd 21 ca 45 3d 6a 1b 2b 3e
       -0.18939258 -0.052073833 0.04828847 0.16709676
0002f0 b1 89 a4 3b f8 32 0a bb 8f 5a 2e bd 7e a7 90 3c
       0.005021297 -0.0021087509 -0.042566832 0.017657991
000300 47 15 ce 3d 31 5b 08 be 38 93 59 bd 2a fe b7 3c
       0.10062652 -0.13316037 -0.053118914 0.022460062
000310 9f 9c 6c bd c1 05 ff bc 27 3a 4e bc 3b 38 c1 bb
       -0.057766553 -0.031130673 -0.012587107 -0.005896596
000320 43 59 45 3e 1d 2a 2a 3d 2a 29 a6 bb 3a 7a 27 3e
       0.19272332 0.04154407 -0.005070825 0.1635522
000330 7c 7d 44 3d 92 8a 66 3c bd da 9d bc 3a 7c e4 3d
       0.047971234 0.014071124 -0.019269342 0.11156507
000340 7d 55 a2 3d 5f f6 fb bc 97 e2 0a 3d 02 9e ab 3c
       0.07926462 -0.030757127 0.0339075 0.020949367
000350 c8 dc 23 3d 3d f3 14 3d 2d 3d ea 3d d5 e4 b2 3c
       0.040005475 0.036364783 0.114374496 0.021837631
000360 79 ab a5 3a 7f e9 01 3d f9 69 05 bd a5 7b 23 3e
       0.0012639604 0.03171682 -0.032571767 0.15965135
000370 76 df e0 bc e0 22 15 bd 1c b1 b0 3d 81 e4 73 bb
       -0.027450304 -0.036410213 0.08627531 -0.0037215056
000380 bc 9c 0f 3e 52 75 e0 bc 17 1e 75 bd 6b 6a 57 bc
       0.14024633 -0.027399693 -0.05984315 -0.013147931
000390 93 b0 93 bd b7 b5 10 3d 29 d0 2f bd 01 eb 72 3b
       -0.07211413 0.035329547 -0.042923126 0.0037066343
0003a0 ae 94 42 3d 43 0b b7 bc ab c7 13 bd 1c b4 35 3e
       0.047505073 -0.022344237 -0.03607909 0.17744488
0003b0 8a 29 e0 3d 69 43 0b bd 37 a9 fe bc ed 40 ff 3d
       0.10945423 -0.033999834 -0.031086547 0.124635555
0003c0 7a 37 97 3d 0c 26 ab bb 76 9b 05 bd 3f d9 3c bd
       0.07383628 -0.0052230414 -0.032618962 -0.04610562
0003d0 9f 86 7b bd b3 b4 94 3d 66 b4 de bc ed 45 99 bb
       -0.06140768 0.07261028 -0.02718563 -0.0046775253
0003e0 b7 7a 5e 3c 88 06 60 bd 2e e5 b6 bd 52 ce a9 bb
       0.013579062 -0.05469373 -0.08930431 -0.005182066
0003f0 89 6e 5d be 29 1f 89 bd be 5b 0f bd e6 b4 a7 bd
       -0.21624197 -0.066953965 -0.0349996 -0.081888005

classfier.fc3.bias f4 [25]
000000 a0 e8 01 b7 ee 12 a7 3a 09 33 2c 3a 66 6b c1 b5
       -7.743161e-06 0.001274673 0.0006568884 -1.4410878e-06
000010 95 b8 8e b6 a0 c0 09 b7 7c c1 93 39 95 b4 2c 36
       -4.253418e-06 -8.210685e-06 0.00028182182 2.573511e-06
000020 ac 47 c6 b5 f0 85 cc 36 da 95 02 39 51 9b 21 b6
       -1.4773009e-06 6.095266e-06 0.0001245359 -2.4081276e-06
000030 e6 0f 77 37 f9 fe f6 3a cc 65 e5 36 db 89 2b 37
       1.4726049e-05 0.0018844298 6.8365825e-06 1.0224491e-05
000040 2f 30 07 3a ea 59 2f 35 e5 5f 78 36 f6 3b ab ba
       0.0005157021 6.532342e-07 3.7010698e-06 -0.0013064134
000050 b0 fe ab 35 2a 57 60 b6 2f 18 2f b8 58 e0 50 36
       1.2814617e-06 -3.3429337e-06 -4.1745774e-05 3.1125e-06
000060 c3 fb 51 b7
       -1.2515989e-05

classfier.bn3.weight f4 [25]
000000 72 4a a1 3f 8a ae 9c 3f 02 f9 82 3f cb 28 9c 3f
       1.2600844 1.2240765 1.0232241 1.2199949
000010 54 2d 82 3f d4 68 9d 3f 52 41 82 3f 07 ea 83 3f
       1.0170083 1.2297616 1.0176184 1.0305794
000020 27 1f 89 3f 66 12 9a 3f 9f eb 82 3f 47 0a 9b 3f
       1.0712632 1.2036865 1.0228156 1.2112511
000030 39 e8 a4 3f d0 a4 83 3f 9a bb 88 3f c8 64 9d 3f
       1.2883369 1.0284672 1.0682251 1.2296381
000040 ac c9 9f 3f a8 f1 99 3f cb 28 a5 3f ed 76 9c 3f
       1.248342 1.2026873 1.2903074 1.2223793
000050 33 47 86 3f 0c 93 a5 3f 26 5d 9e 3f a7 c2 9a 3f
       1.0490478 1.29355 1.2372177 1.2090653
000060 e2 a4 a3 3f
       1.2784693

classfier.bn3.bias f4 [25]
000000 82 70 84 3e 8c a9 58 3e 5c 94 5b bd c5 09 63 3e
       0.25867087 0.21158427 -0.053608283 0.22171696
000010 77 02 55 bd 90 25 69 3e d2 10 3f bd 3a 0a 60 bd
       -0.052004304 0.22768235 -0.0466469 -0.054697253
000020 26 ad 34 bd 06 e1 50 3e 20 01 2b bd 52 fc 4b 3e
       -0.04411044 0.2039834 -0.04174912 0.19920471
000030 6d 15 91 3e c3 c1 48 bd ce 23 0a bd 5c 1b 6f 3e
       0.2833666 -0.04901291 -0.033725552 0.2335028
000040 52 e2 82 3e f7 0e 47 3e 7d 91 8f 3e 69 1e 6d 3e
       0.25563294 0.19439302 0.28040686 0.23156132
000050 f0 c1 4a bd a6 f3 99 3e e9 0d 78 3e de fa 5c 3e
       -0.04950136 0.30068702 0.24224056 0.21580073
000060 28 c5 8e 3e
       0.27884793

classfier.bn3.running_mean f4 [25]
000000 40 35 48 bf 46 bc ba be 0a 9f b6 3e cb c3 d2 bd
       -0.78206253 -0.36471766 0.35668212 -0.10291251
000010 c2 da ba 3e 73 f1 d6 be a7 aa ab 3e ec eb 77 3e
       0.36495024 -0.41981086 0.33528635 0.24211091
000020 cc 6a a8 3e 99 f7 34 bf f1 8b aa 3e 0b 44 7c be
       0.3289398 -0.70690304 0.33309892 -0.24635331
000030 71 b5 b1 be 6b 8e af 3e eb ed eb 3e 24 f3 21 bf
       -0.3470874 0.34288344 0.46079955 -0.6326163
000040 bf 77 bf be 21 96 55 be 4b 2a 5e be d0 bb 15 bf
       -0.37396047 -0.20858051 -0.21695821 -0.58489704
000050 cc b6 34 3e 11 57 9a be 30 e5 01 3e 48 72 50 3c
       0.17647856 -0.3014455 0.12685084 0.012722559
000060 6e 3d 0b bf
       -0.5439061

classfier.bn3.running_var f4 [25]
000000 fb e5 1b 3f 70 c2 4b 3f 76 63 85 3f 26 e9 42 3f
       0.608978 0.79593563 1.0420978 0.76137006
000010 19 64 50 3f ea 9d 2a 3f fc 44 4b 3f e7 f7 82 3f
       0.81402737 0.6664721 0.79402137 1.0231904
000020 95 23 a2 3f a9 59 dd 3e d6 06 49 3f f7 cb 81 3f
       1.2667109 0.43232468 0.78526056 1.014037
000030 6f ff 53 3f b1 d4 76 3f 4a c6 a2 3f b6 21 9d 3e
       0.82811636 0.9641829 1.2716763 0.30689782
000040 d7 5c c0 3e 8b 8c 80 3f 3f 23 69 3f 2c 4d f2 3e
       0.3757083 1.004289 0.91069406 0.47324502
000050 c7 69 8e 3f 49 bd 36 3f d8 62 5d 3f 9d a5 4b 3f
       1.1126031 0.71382576 0.8647895 0.7954958
000060 14 b9 b7 3e
       0.3588339

classfier.fc5.weight f4 [1, 25]
000000 2f 95 63 be f5 78 a2 be 0a 86 51 3e 7b 34 8b be
       -0.22224878 -0.31732908 0.20461288 -0.27188477
000010 ca aa 33 3e c2 ca 7c be 7f 25 e4 3d 86 ff 6c 3e
       0.1754562 -0.24686721 0.11139964 0.2314435
000020 fe 89 4a 3e 3c 14 a5 be 3e ea df 3d b5 e9 c2 be
       0.19779202 -0.32242 0.1093335 -0.3806893
000030 c1 c9 49 be b4 5f 04 3e 46 9c 05 3e db b0 8f be
       -0.1970587 0.12927133 0.13047895 -0.28064618
000040 cc 21 81 be 05 1d bf be b8 b2 70 be e4 d9 cc be
       -0.25221097 -0.37326828 -0.23505676 -0.40009987
000050 16 fb 4e 3e b9 24 46 be 7d da 80 be 77 08 b5 be
       0.20212969 -0.19349946 -0.25166693 -0.3535802
000060 80 e1 53 be
       -0.2069149
