trained_models/collins_cssa/run_18-20-41/dnn_model_fold_1.pt (torch, 87297 bytes, 19 tensors)

classfier.fc1.weight f4 [100, 100]
000000 69 e6 e3 3d b1 85 bf bc 34 9f a2 bd d9 16 b5 3d
       0.111279316 -0.023379179 -0.07940522 0.088422485
000010 6e 87 89 3d 4e 88 a6 3d 43 bc cd bc 45 af 30 3d
       0.06715284 0.08131467 -0.025114184 0.0431359
000020 7b e2 19 bd 92 a1 8c 3d 1d f7 96 bc 84 85 84 bc
       -0.037569504 0.068667546 -0.01842838 -0.016176946
000030 d1 16 ab 3d 1b b9 e7 3c 29 5c 47 3d a6 17 d0 bc
       0.08353961 0.028286507 0.048671875 -0.025401901
000040 73 3b a9 3d 4e fe e7 bc c4 da 11 3d d6 7a 25 bd
       0.08263292 -0.028319504 0.03560902 -0.04040035
000050 fe 09 aa bd 6c 40 b8 bd a4 50 bd 3d ff 66 35 bd
       -0.08302687 -0.089966625 0.092438966 -0.044287678
000060 53 56 0f bd 3c db 33 bd fe 8e 4f 3c df 01 ab 3d
       -0.034994435 -0.04391025 0.012668369 0.08349966
000070 cc 12 52 3c 40 1f 6d bd aa a5 f9 3b f8 99 e0 bd
       0.012821864 -0.05789113 0.0076186256 -0.10966867
000080 33 00 b3 3c b3 ca c7 3b 61 0f c3 3d 6d 57 b3 3d
       0.021850681 0.0060971617 0.09524418 0.087569095
000090 d0 f2 be 3c bd f2 b0 3d 4d 54 90 bd a0 2b ae bc
       0.023309141 0.08640049 -0.07047329 -0.021261036
0000a0 2b 47 7d bd ff ec ab bc d7 17 7d 3d ef 32 ce bb
       -0.06183545 -0.020987032 0.061790314 -0.006292693
0000b0 38 1d 99 bd 13 74 82 bd 9a c7 35 bc 96 70 cd 3d
       -0.07476276 -0.06369796 -0.011094952 0.1003124
0000c0 28 8d 83 bd 84 dd 2e 3d b5 f1 2e bd 7f d3 b7 3d
       -0.06423408 0.042691723 -0.04271098 0.089758866
0000d0 83 2f 4d bd bc d7 b5 3d 5a 12 4e 3d 20 8b a4 3c
       -0.05009414 0.08879039 0.05031047 0.020085871
0000e0 33 cd 84 bd 30 94 31 3d 36 e9 8e 3d b2 c3 62 3d
       -0.06484451 0.043354213 0.06978075 0.05536241
0000f0 a2 6e 27 3d ef 27 36 3d 94 64 35 bd c3 f8 81 39
       0.040876992 0.044471677 -0.044285372 0.0002479014
000100 e7 1c 13 bc 5c 1a 86 3c 62 3f 56 bd 9d 12 9f 3d
       -0.008979059 0.016369991 -0.05230654 0.07767222
000110 2d 20 10 bb ac 8d 95 bc 8e eb 52 bb d2 f6 38 bd
       -0.0021991835 -0.018256031 -0.0032183859 -0.04515726
000120 49 bb ea 3d 24 cb 51 3c c3 15 91 3d 7f 0e 71 bd
       0.11461503 0.01280478 0.07084229 -0.058851715
000130 b8 5b 42 3d 60 5f b6 3d d1 51 a5 3d 62 94 46 3d
       0.04745075 0.0890491 0.08072246 0.048481353
000140 62 f4 49 3b 38 14 02 3d 3e 3b e8 3d 17 e7 35 3b
       0.003081583 0.031757563 0.113394246 0.0027756148
000150 7c 54 b2 3d 13 29 88 3d c0 0c e3 bc 74 64 c1 3d
       0.0870752 0.06648459 -0.02771604 0.09442988
000160 cd 6e c5 3d 5b 82 89 bd 22 8d 2b bd d7 a1 93 bd
       0.09640274 -0.067143165 -0.04188264 -0.07208603
000170 fc a7 88 3d 0f 17 c4 3c d3 e6 73 bc 6d fe 23 3d
       0.066726655 0.023936776 -0.014886576 0.04003756
000180 e8 84 96 bc 7f 05 4d 3d 13 8a 5e bd f6 be 08 bc
       -0.018373922 0.05005407 -0.054330897 -0.00834631
000190 4d 06 ef 3b 3e 85 ea 3d 4e 4d 34 3c bc 8b f0 3c
       0.0072944523 0.11451195 0.011004759 0.029363506
0001a0 74 19 58 3c e5 0f 82 bd 32 2a 05 3d 71 de e2 3c
       0.013189662 -0.06350688 0.032510944 0.027693959
0001b0 3d 52 18 bd 06 45 df bc 5c 88 df bd ed bf 93 bc
       -0.037187804 -0.027254593 -0.1091468 -0.018035853
0001c0 e3 57 bb 3c 1d 8f 53 3c dc a3 f3 b8 28 04 0d 3b
       0.022869056 0.012912539 -0.00011617664 0.002151737
0001d0 0a fb 86 3d 9b 20 67 bd 7d 05 0f 3d 93 af a4 3b
       0.06590851 -0.05642758 0.034917343 0.005025813
0001e0 60 45 78 3c cc 92 92 bd d2 76 8d 3c f6 fd ed bc
       0.015153259 -0.071569055 0.017268572 -0.029051762
0001f0 2a 7b 2c bc 93 da 91 bd 7e 5a 41 3b 1a 9f 49 3c
       -0.0105274115 -0.07121768 0.00295034 0.012305999
000200 7e e9 f4 3c 98 ea 9a bd c1 01 12 bd 0e e0 ca bd
       0.029896494 -0.075642765 -0.035646204 -0.09906016
000210 48 72 31 3c 08 41 68 bc f7 6b df 39 89 5b 0a 3d
       0.010830469 -0.014175661 0.00042614315 0.0337787
000220 2e 40 98 bc a3 94 d7 bd 62 70 3b bd e5 f5 4a bd
       -0.01858529 -0.10526397 -0.045761473 -0.04955091
000230 99 c0 43 3d 04 57 9e bc 4f 5b d0 bd 9f 36 a0 3b
       0.047791097 -0.019328602 -0.10173666 0.004889324
000240 6d eb 65 bd 64 c7 83 bd 63 ab 9a bd 3e 24 7f 3d
       -0.056132723 -0.06434515 -0.07552221 0.062290423
000250 3e d3 c5 bd 01 14 06 bd 22 20 5b bd 40 ef 81 3d
       -0.09659432 -0.03273392 -0.05349744 0.063444614
000260 00 7a 71 bc df cb 8b bd 62 12 f6 bc b0 0e 36 bd
       -0.01473856 -0.06825995 -0.030038062 -0.0444476
000270 6a be f3 3b 69 a6 29 3d 25 99 19 3d 02 55 07 bd
       0.0074384706 0.041418467 0.037499566 -0.033040054
000280 dc af 3c bd 18 79 bf 3b 3d 7a 62 bd f7 05 a7 3d
       -0.04606615 0.005843293 -0.055292357 0.081554346
000290 c9 d7 0c bd 51 5d 2b 3d 02 cf 0b 3d 9e aa 76 3c
       -0.034385476 0.04183704 0.034132965 0.015055327
0002a0 5d 36 b5 bc e7 93 9b bc e1 aa ff 3c 4a c5 73 3d
       -0.022120649 -0.018991424 0.031209411 0.05951432
0002b0 bc 44 a0 bc 43 42 aa bd c9 b0 a2 3d 67 92 a5 bc
       -0.019564025 -0.0831342 0.07943875 -0.020211412
0002c0 e3 4f 3f bd 18 a4 a8 bd 91 a3 59 3d 2b 39 17 bd
       -0.046707045 -0.082344234 0.053134505 -0.036919754
0002d0 86 44 91 bd 91 60 87 3d e3 07 32 bd f1 38 af 3c
       -0.07093148 0.066102155 -0.043464553 0.021389456
0002e0 50 2d 6f bd 9e e6 3a 3d a6 9a b3 3d 15 08 73 bc
       -0.058392823 0.04563009 0.08769731 -0.01483347
0002f0 06 ae bd 3d 07 24 99 3d bb cc 07 bd 89 2c af bd
       0.09261708 0.07477575 -0.03315423 -0.08553416
000300 25 1d 78 bc b3 3e bd bd 46 0f 25 bd 88 23 a5 bc
       -0.015143667 -0.092404746 -0.04029777 -0.020158544
000310 e0 a5 a9 3c 74 b6 b3 3d 3f 89 93 3d d3 c9 da 3d
       0.020708978 0.087750345 0.07203912 0.10683026
000320 6d 9d dc bc 54 45 7f bc 00 5e 69 bd d7 38 ec bc
       -0.026930535 -0.015580494 -0.05697441 -0.028835697
000330 ae 32 de bc 86 44 08 bb c9 7d 2b bc 31 e7 96 3b
       -0.027123775 -0.0020792796 -0.010467001 0.004605197
000340 91 c8 85 bd c2 69 ee 3d 1b 99 d3 bd 63 30 45 bd
       -0.06532396 0.116412655 -0.10331937 -0.04814185
000350 02 45 6c 3d d0 d0 cc bc 8a 38 ac bd 1a b9 b1 3d
       0.057683 -0.025001913 -0.084092215 0.086778834
000360 10 b5 20 3d 60 83 c2 bd 19 80 93 bd c4 f9 1c bd
       0.039235175 -0.09497714 -0.07202167 -0.038324133
000370 11 69 51 bd 2e 8c 1e bd 6b 96 91 bd df 91 36 bd
       -0.05112559 -0.038707905 -0.07108768 -0.044572707
000380 cb b9 10 3e 7a a7 dc bc de 07 10 bc ca 45 1d bd
       0.14133374 -0.026935328 -0.008790938 -0.038396634
000390 19 de a5 3c 6e 13 72 3c 21 a7 49 3d d8 c0 90 3d
       0.020247506 0.01477514 0.049231652 0.07068032
0003a0 74 ca 03 3d 93 96 11 3e a3 fe cc 3d 89 0d 15 3d
       0.032175496 0.14217596 0.100095056 0.03638986
0003b0 22 1a 19 3c 66 3d e5 3c 26 7c b1 bd d3 77 a2 3c
       0.009344609 0.027983379 -0.086662576 0.019832527
0003c0 0e fe 83 3d 2e e8 02 be f2 9a 5a 3d 8a 55 fe 3b
       0.064449415 -0.12783882 0.053370424 0.007761662
0003d0 76 f2 8e 3d 8f 4e dd 3b 18 4b ad 3c 66 00 8c bd
       0.069798395 0.0067537497 0.021153972 -0.068360135
0003e0 3c 21 ec 3c 32 f2 84 bd fa c1 9b 3d c8 1f 2e bd
       0.028824441 -0.064915076 0.076053575 -0.042510778
0003f0 e1 d4 bc 3c 4e 9e 56 3d 88 b3 05 3c 6e b1 cb bd
       0.023050727 0.052397065 0.008160479 -0.099459514

classfier.fc1.bias f4 [100]
000000 b4 2a 0a b6 ab 6d f3 36 b6 f4 40 b7 6f 0e d9 b5
       -2.058846e-06 7.2547314e-06 -1.1501068e-05 -1.6171961e-06
000010 9c bb fb b3 7d c4 2e b7 96 d3 88 b6 1b ee ea 35
       -1.1722224e-07 -1.0416957e-05 -4.0777477e-06 1.7503656e-06
000020 e4 1c 98 b7 d7 e4 8e 37 62 f8 d1 b6 f0 5e e4 b2
       -1.8133265e-05 1.7034281e-05 -6.257601e-06 -2.6585866e-08
000030 92 c7 de b7 d6 dc 83 b7 d0 9e 73 b5 42 7d 0d 36
       -2.6557394e-05 -1.5719252e-05 -9.0755657e-07 2.1083547e-06
000040 0a 9d 93 36 5b d4 52 37 29 3f e7 34 2d bd 46 b6
       4.399223e-06 1.2566418e-05 4.3073058e-07 -2.9614414e-06
000050 8a cb 42 35 9d 9e f5 b5 3d e7 04 37 df ff c7 36
       7.256682e-07 -1.8300085e-06 7.9216525e-06 5.9604495e-06
000060 00 23 ea b3 76 d8 9e 36 a1 51 0f 37 51 c7 d9 35
       -1.09028406e-07 4.7339663e-06 8.54247e-06 1.6225769e-06
000070 74 39 77 b5 6a 4c ab 36 67 0a 23 b5 8c 22 1b 37
       -9.2098276e-07 5.105093e-06 -6.073737e-07 9.2467635e-06
000080 40 ee cc b5 3a 27 a0 b6 68 1b 6c b5 32 71 47 35
       -1.5268524e-06 -4.772938e-06 -8.795673e-07 7.4298e-07
000090 60 8a 37 b3 57 15 8a 37 da ea 4d b6 b1 b6 5a 37
       -4.273386e-08 1.646082e-05 -3.0684082e-06 1.3036349e-05
0000a0 fd 95 2d 36 b1 86 7c b7 6b 10 41 36 d5 02 b2 37
       2.5866314e-06 -1.5051731e-05 2.8768798e-06 2.1220572e-05
0000b0 ba 84 41 b6 02 8e 37 36 26 59 13 b5 48 9f 31 b7
       -2.8836498e-06 2.7351784e-06 -5.4891495e-07 -1.0587108e-05
0000c0 ab d5 1c b5 ad 37 e1 b6 10 81 a2 b7 72 2d ba b5
       -5.8425456e-07 -6.712004e-06 -1.9372004e-05 -1.3871306e-06
0000d0 27 34 1a 36 52 f4 b6 36 d1 7b 9c 35 82 b2 38 b7
       2.2978145e-06 5.4524653e-06 1.1658941e-06 -1.1008817e-05
0000e0 fd d0 ee b6 a1 02 98 b6 66 d4 ed b5 dc 4f e3 b5
       -7.117282e-06 -4.530259e-06 -1.7719692e-06 -1.693606e-06
0000f0 91 77 31 b6 b0 13 5d b6 a3 17 9b 34 6e 96 90 36
       -2.6444652e-06 -3.2943026e-06 2.8888198e-07 4.3090467e-06
000100 52 c4 21 36 39 6e 03 34 0f ca 0c b6 0c 4f 44 b7
       2.4105143e-06 1.2240424e-07 -2.097924e-06 -1.1700915e-05
000110 ac f1 cf 34 c5 65 1f 36 91 12 98 35 73 eb a6 b6
       3.8732594e-07 2.3752084e-06 1.1330286e-06 -4.9745954e-06
000120 b3 4d b2 b7 c0 80 82 36 f8 a4 2c 36 67 fc 03 36
       -2.1255435e-05 3.8892904e-06 2.5726022e-06 1.9667439e-06
000130 61 ce 38 b7 18 0a 0d b7 08 45 44 37 cc 92 8a 36
       -1.1015306e-05 -8.406605e-06 1.1698583e-05 4.12981e-06
000140 f6 c1 f9 35 c0 b8 97 b6 c2 d3 cb 36 d8 23 90 35
       1.8608396e-06 -4.5216584e-06 6.0745233e-06 1.0739268e-06
000150 29 e6 69 b7 5c 8b c3 35 34 21 7e b6 09 0f 14 b7
       -1.3941471e-05 1.4569191e-06 -3.7868276e-06 -8.824988e-06
000160 54 7f 9a b5 ac 26 c4 36 d9 62 92 b5 e2 2a c7 b5
       -1.1510951e-06 5.845757e-06 -1.0906616e-06 -1.4839136e-06
000170 d8 8f cd 36 41 8a 80 b5 00 0b 54 b4 07 87 18 38
       6.1262217e-06 -9.57698e-07 -1.974804e-07 3.6365378e-05
000180 6b fa 1f b4 57 36 12 35 5b a5 85 b5 65 b6 e0 36
       -1.489913e-07 5.4468313e-07 -9.957397e-07 6.6969537e-06

classfier.bn1.weight f4 [100]
000000 45 4f 7e 3f 32 70 74 3f 93 00 7d 3f b7 58 7c 3f
       0.99339706 0.95483696 0.98829 0.9857287
000010 5a 61 79 3f a9 48 85 3f be cc 7c 3f a1 cb 84 3f
       0.9741417 1.0412799 0.9874991 1.0374643
000020 76 a7 73 3f c0 03 83 3f 38 0c 81 3f 08 fb 73 3f
       0.951774 1.023552 1.0081854 0.9530492
000030 53 38 85 3f 29 ca 78 3f a2 e1 74 3f 6a c0 80 3f
       1.0407814 0.9718347 0.9565679 1.005872
000040 d6 89 80 3f 29 64 83 3f 29 a4 78 3f 9a 0a 83 3f
       1.0042064 1.0264941 0.9712549 1.023761
000050 71 d3 78 3f f9 61 78 3f 9d 8d 82 3f 85 9a 82 3f
       0.97197634 0.97024494 1.0199467 1.0203406
000060 cc 1f 80 3f e0 e6 77 3f 58 74 80 3f 6b 44 70 3f
       1.0009704 0.9683666 1.0035505 0.938544
000070 e6 27 76 3f 0e 7c 79 3f 1a 7f 82 3f 5f ca 84 3f
       0.9615463 0.9745492 1.0195038 1.0374259
000080 05 c5 87 3f e6 0b 81 3f 63 80 76 3f 80 f2 70 3f
       1.0607 1.0081756 0.9628965 0.94120026
000090 5c 7e 79 3f 41 4a 80 3f e9 bd 7b 3f 8e 22 79 3f
       0.97458434 1.002266 0.98336655 0.9731835
0000a0 02 de 85 3f 7e f7 82 3f ff fa 78 3f 81 86 88 3f
       1.0458376 1.0231779 0.9725799 1.0666047
0000b0 18 80 7c 3f 4d 66 72 3f 33 62 7d 3f ae f7 82 3f
       0.98632956 0.9468735 0.98977965 1.0231836
0000c0 dc 4a 7f 3f 7f 52 77 3f 47 a8 83 3f 68 e4 84 3f
       0.997236 0.96610254 1.0285729 1.0382204
0000d0 22 0b 7a 3f c0 1c 79 3f a8 e1 73 3f fd 4e 80 3f
       0.9767324 0.97309494 0.952662 1.0024105
0000e0 01 ce 7f 3f 8b ee 74 3f 5e 36 74 3f 29 52 7d 3f
       0.9992371 0.9567649 0.9539546 0.9895349
0000f0 b2 f4 7f 3f 00 0e 80 3f 58 4e 78 3f 66 4f 75 3f
       0.9998275 1.0004272 0.96994543 0.9582428
000100 1a c0 80 3f 45 78 6f 3f 87 b7 72 3f b7 d0 80 3f
       1.0058625 0.9354289 0.9481129 1.0063695
000110 e7 a8 76 3f 11 c7 81 3f 66 c0 6f 3f 1a 07 73 3f
       0.96351475 1.0138875 0.9365295 0.9493271
000120 24 18 7d 3f a1 f6 7a 3f e5 ad 80 3f 06 48 73 3f
       0.9886496 0.98032576 1.0053068 0.95031774
000130 96 47 83 3f 8e 80 81 3f af c9 80 3f a2 94 7f 3f
       1.0256221 1.0117357 1.0061549 0.9983617
000140 2d 7b 74 3f 3c bf 7e 3f fb 6a 70 3f 85 f8 75 3f
       0.9550045 0.9951055 0.9391324 0.96082336
000150 4e 27 7f 3f d2 ef 77 3f b3 9a 79 3f 9c fa 80 3f
       0.9966935 0.9685031 0.9750168 1.007648
000160 fe b6 7c 3f 5b 90 7d 3f f6 bb 7a 3f 67 8d 82 3f
       0.98716724 0.99048394 0.97943056 1.0199403
000170 da 84 78 3f 83 73 77 3f 18 a1 77 3f 31 38 84 3f
       0.97077715 0.9666063 0.96730185 1.0329648
000180 b7 02 81 3f 20 38 7a 3f 08 1f 83 3f 96 54 77 3f
       1.0078954 0.9774189 1.0243845 0.9661344

classfier.bn1.bias f4 [100]
000000 bc 56 45 bd 58 ae 77 bd 17 7c e4 bd 27 2c 65 bd
       -0.04817842 -0.060469 -0.11156481 -0.05595031
000010 f3 a3 70 bd 3d 43 e3 bd 9c 29 06 be fb 3b fc 3b
       -0.058750104 -0.11096809 -0.1310181 0.00769758
000020 58 ad 99 bd 25 92 29 be 43 74 a0 bd e3 4c 8a bd
       -0.07503766 -0.16559656 -0.07834675 -0.06752946
000030 cf b3 16 be c2 4f e1 bd ce cc 12 bd f4 6e df bd
       -0.14717029 -0.11001541 -0.03583985 -0.109098345
000040 3f 06 49 3a 78 ed 37 be 1c bb 1a bd 2b b6 cf bd
       0.0007668472 -0.17961681 -0.037776098 -0.10142168
000050 01 ce 0a bc bf 6f 07 bb 07 92 f6 bd a3 42 0b be
       -0.008471967 -0.002066597 -0.12039571 -0.13599639
000060 67 5b 51 bd ed f2 f2 bd ea fd 79 bc c5 4d 8b bd
       -0.05111256 -0.11862741 -0.015258292 -0.06801943
000070 90 5b 96 bd e1 65 8d bc fc 27 e8 bd 40 ef 06 be
       -0.07341683 -0.017260494 -0.113357514 -0.13177204
000080 5f ee 3a 3d d1 c3 7a bd ce 5f cc bd 9b e8 34 bd
       0.045637485 -0.0612219 -0.09979211 -0.044167142
000090 c6 d0 7b bd 6a 95 21 be 62 3a 3f bd 52 6b 0e bd
       -0.0614784 -0.15779653 -0.046686538 -0.034770317
0000a0 d8 ae 41 be 28 ad 0f be 7b d1 2e bd 7a 44 20 be
       -0.18914354 -0.14030898 -0.042680245 -0.15651122
0000b0 d7 57 48 bc 39 b3 72 bd 08 f8 19 be 65 63 11 be
       -0.012227974 -0.05925295 -0.15036023 -0.14198072
0000c0 5b b7 16 be c0 0d 05 bd 9d 0f ec bd 0a 7b 08 be
       -0.14718382 -0.032483816 -0.115264155 -0.13328186
0000d0 80 3d 1d bd d0 78 ca bd ce 23 62 bd 57 23 e8 bc
       -0.03838873 -0.098863244 -0.055209927 -0.028337164
0000e0 e3 9c b7 bd a1 f7 83 bd 6b be 9d bd c3 9a 01 be
       -0.08965471 -0.06443716 -0.07702335 -0.12656693
0000f0 cc 16 08 be ba 98 f1 bd 7e 76 0d bd 03 e3 af bd
       -0.13289946 -0.117967084 -0.03453683 -0.08588221
000100 09 05 83 bd 28 bd 15 bd 19 34 02 bd 2a e6 0d bc
       -0.06397445 -0.036557347 -0.031787965 -0.008660832
000110 3c f9 fd bc da 62 d7 bd 20 78 1d bc 96 c6 48 bd
       -0.031002633 -0.10516901 -0.00961116 -0.04901751
000120 19 83 12 be 0c 82 00 be a3 ea d0 bd 5c 42 4b bd
       -0.14307822 -0.12549609 -0.102010034 -0.049623832
000130 57 7b ff bd be 76 f6 bd b6 45 0b be fc ba 0a be
       -0.12474697 -0.12034367 -0.13600811 -0.13547891
000140 db 63 bd bd 13 47 76 bd f0 15 46 bd bd ba 4b bd
       -0.092475615 -0.060126375 -0.048360765 -0.049738634
000150 bd 87 e8 bd b0 71 b4 bd 61 c7 1f bd aa 57 1e be
       -0.11354015 -0.08810747 -0.039008502 -0.15463129
000160 3d e5 32 bd f5 ca 46 bd e4 45 2c bd fa e2 28 be
       -0.04367565 -0.0485334 -0.04205884 -0.16492835
000170 93 af c2 bd 13 14 95 bc da 59 0c be 3a ff 12 be
       -0.095061444 -0.018198049 -0.1370615 -0.14355174
000180 cb 19 01 be 52 8b ab 3b cc 84 85 bd d5 0d 07 be
       -0.12607495 0.005235114 -0.065194696 -0.1318887

classfier.bn1.running_mean f4 [100]
000000 97 99 d3 bf 72 40 7d 3f 7b 55 ec 3e e2 b9 45 bf
       -1.6531247 0.9892646 0.46158966 -0.7723676
000010 e4 a2 86 bf a1 58 9b 3d 93 4a 51 bd 2d 56 5c 3f
       -1.051846 0.07585264 -0.05109651 0.86068994
000020 71 4b 78 bf be f5 54 bd 13 95 a3 be f6 e7 a8 3d
       -0.96990114 -0.05199217 -0.31949672 0.08247368
000030 3a 6c 3c bd 2d 3d 49 bd 5b 83 b7 bf 1b 07 46 be
       -0.04600165 -0.049130607 -1.4336962 -0.19338648
000040 a1 30 04 c0 48 a0 0b bc 62 66 a0 3f b5 e1 d8 be
       -2.065468 -0.008522101 1.2531245 -0.423597
000050 65 2f 0a 40 4e a1 81 3f 14 33 da 3d 92 8c bc be
       2.1591427 1.0127351 0.10654274 -0.36825997
000060 b6 cb b3 bf 15 f7 a0 bd 84 ab 88 3f b7 8f 3a bf
       -1.4046543 -0.07859627 1.0677342 -0.7287554
000070 3b 7a 48 bf b9 c7 a6 3f 39 6c ba bd f2 ed c1 bd
       -0.7831151 1.30297 -0.09102673 -0.094692126
000080 a9 f1 00 3f dc c6 0b c0 d7 34 93 bd 09 89 01 40
       0.50368744 -2.1840124 -0.07187813 2.023989
000090 4e 95 8c bf c6 47 86 be dd ae 2a 3d 3e 55 c8 bf
       -1.0983064 -0.26226634 0.04167067 -1.5651014
0000a0 c8 17 7b be ae f2 e8 be cd 44 8e bf 75 6c 39 bd
       -0.2452079 -0.4549765 -1.1114746 -0.04526945
0000b0 0e fc a0 3f 4f 49 92 bd 6c 71 50 be 5c 69 46 be
       1.2576921 -0.07142889 -0.20355767 -0.19376129
0000c0 a9 3b ac 3e 60 4c a6 3f dd d9 eb 3d ce 87 5e 3d
       0.33639267 1.2992058 0.115161635 0.054328732
0000d0 2b bf ea 3f 1b 4c 54 3d 92 d3 4d bf 90 64 6e 3f
       1.833959 0.051830392 -0.80400956 0.93122196
0000e0 d8 64 b7 3b fa 06 9e bf d9 e2 a2 3e 8c 95 9b be
       0.0055967383 -1.2345879 0.31813696 -0.30387533
0000f0 2d 2f b7 3e e8 43 c6 3c d8 d1 0c 3f 00 49 49 be
       0.3577818 0.024202302 0.55007696 -0.19656754
000100 3e 7a 32 bf fa 9e 5f be a9 77 01 3e b3 cd a0 3f
       -0.69717777 -0.21837988 0.12643303 1.2562774
000110 66 d9 f0 3f ff 2a ad bd bd 7b 5d bd 0a 7a 6a bf
       1.8816345 -0.084554665 -0.054073084 -0.91592467
000120 bf 6d cc be 48 e0 a3 be bd 4f 95 3d db 83 3c 40
       -0.3992748 -0.3200705 0.072905995 2.9455478
000130 2e 08 3f be 2d be 4c be ac 88 b1 3c 8f 70 e2 be
       -0.18655464 -0.19994421 0.021671616 -0.442265
000140 d8 fc 07 bf 19 6d a9 bf aa 5e ee 3f cc a6 1f bf
       -0.53120184 -1.3236419 1.8622639 -0.62363887
000150 30 39 b5 3e a5 c0 18 bf 0a e1 73 3e 0b 3d 49 3e
       0.35395193 -0.5966895 0.23816314 0.19652192
000160 6d 7c c1 3e 30 89 99 bf 57 a3 50 3f 3c 92 06 be
       0.37790242 -1.1994991 0.81499237 -0.13141721
000170 9c 5b c5 3d 54 87 0a 40 41 fe 40 be 5f 18 1f 3e
       0.09636614 2.1645098 -0.1884699 0.1553664
000180 d6 bf 31 be 3b 8c a5 3f 59 66 cb 3e b7 75 9c be
       -0.17358336 1.293342 0.39726523 -0.3055856

classfier.bn1.running_var f4 [100]
000000 6a ab 33 3e 3d db 9e 3d 4a 27 91 3d 7d 50 f2 3d
       0.17545858 0.0775666 0.07087572 0.11831758
000010 20 44 d3 3d 2b 39 03 3d 1d 61 33 3d 2c 91 cd 3d
       0.10315728 0.03203694 0.043793786 0.10037455
000020 5c a9 b5 3d 2b 2d 4e 3d 41 12 64 3d fd 81 13 3e
       0.08870193 0.050336044 0.05568147 0.14405055
000030 0f 5e 0d 3d e7 f8 5b 3d c3 10 99 3e 7d a5 82 3d
       0.03451353 0.05370417 0.298956 0.06379221
000040 54 9f a6 3e 89 1f 0c 3d f6 c4 71 3e ac 13 81 3d
       0.32543433 0.03420976 0.23610291 0.0630258
000050 b4 0a a1 3e b7 c1 fc 3d 45 23 45 3d 70 64 3c 3d
       0.31453478 0.12341636 0.04812934 0.045994222
000060 00 85 01 3e ec 3e 41 3d f7 6c b5 3d 17 25 b3 3d
       0.12648392 0.047179148 0.08858674 0.08747309
000070 6d dd 96 3d d5 1a 12 3e fd 9d 44 3d d7 07 79 3d
       0.07366452 0.14268048 0.048002232 0.060798492
000080 93 21 69 3d 1c 79 99 3e a4 b4 7d 3d 9b f0 94 3e
       0.056916784 0.29975212 0.06193985 0.29089817
000090 0b 3b 32 3e 72 f7 86 3d e6 ad ef 3d 93 44 2b 3e
       0.17405336 0.06590165 0.1170309 0.16725378
0000a0 1c 06 04 3d ee b6 41 3d d7 27 2a 3e 1e d9 da 3c
       0.03223239 0.047293596 0.1661676 0.026714858
0000b0 5b c9 01 3e b0 3f 2a 3e d5 d0 2a 3d 43 85 40 3d
       0.12674467 0.16625857 0.041703064 0.04700209
0000c0 ab 3b 50 3d f3 55 1d 3e f0 ea af 3c bb 95 d9 3c
       0.050838154 0.15364818 0.021474332 0.026560655
0000d0 35 cd 53 3e 93 01 9d 3d b6 5b c7 3d 9f f9 c2 3d
       0.20683749 0.07666316 0.09734289 0.09520268
0000e0 e6 4a 02 3d a3 94 d3 3d 5a 32 9a 3d bd 4a 95 3d
       0.03180971 0.103310846 0.07529135 0.07289646
0000f0 df a4 77 3d a9 20 71 3d 1d 5f 06 3e 9b 36 37 3d
       0.060459968 0.058869038 0.1312222 0.04472981
000100 34 d1 9b 3d bb 49 9a 3d da 9d 52 3d 7f 87 b0 3d
       0.07608262 0.07533594 0.05142007 0.08619594
000110 c2 09 60 3e b4 57 4f 3d f6 e0 14 3e 2d 24 95 3d
       0.21878722 0.05062075 0.14538941 0.072822906
000120 14 db 84 3d a3 db 5e 3d a1 17 53 3d 39 d9 e8 3e
       0.06487098 0.05440868 0.051536206 0.45478228
000130 63 52 1f 3d 8d 5c 27 3d 38 4e a4 3c 88 31 6b 3d
       0.03889693 0.040859748 0.020056829 0.057420284
000140 b3 ba 8d 3d 11 4b 20 3e 19 ab b1 3e 53 35 ad 3d
       0.06920376 0.15653636 0.3470085 0.084574364
000150 e6 91 86 3d 44 9a 87 3d 63 ca 78 3d 41 2e 29 3d
       0.06570797 0.06621221 0.060739886 0.041303877
000160 17 18 72 3d 71 0d 15 3e aa c2 d3 3d 26 07 09 3d
       0.059105005 0.14555909 0.103398636 0.033454083
000170 a6 ed 47 3d e8 31 69 3e 30 49 64 3d 37 ed 3c 3d
       0.048810624 0.22772944 0.05573386 0.046124663
000180 0a ce 3c 3d d7 7c e4 3d 29 63 94 3d 68 2e e9 3c
       0.04609493 0.11156624 0.07245476 0.028464511

classfier.fc2.weight f4 [50, 100]
000000 9d 7f 19 3d c5 88 2a bd 22 af 4a bc 55 00 af 3d
       0.037475217 -0.04163434 -0.0123708565 0.08544985
000010 ad 8f 8f 3d 35 77 b2 3c 8b 7a d2 bc 9c 07 a3 bd
       0.07009826 0.021785358 -0.025693199 -0.07960436
000020 3d 70 1a bb e8 40 90 3d a6 88 25 3d 31 0c b4 3d
       -0.0023565434 0.0704363 0.04041352 0.08791388
000030 ec 8b 95 3d 7a 76 ab 3d 0d ba c6 3c 8b 14 c2 3c
       0.073020786 0.08372207 0.024258638 0.023691436
000040 01 ce c2 bc 18 a9 bb 3d 92 02 53 3d 0e 7d c0 3d
       -0.023779871 0.091631114 0.051516123 0.09398852
000050 a7 83 38 3d 8f 1e 18 3b 07 38 c2 3d 57 47 0f 3d
       0.04504743 0.0023211574 0.094833426 0.034980144
000060 a2 55 d6 3b a7 42 fa 3c e4 25 b0 bd d8 ad 54 bd
       0.00654097 0.03054936 -0.08600977 -0.051923603
000070 27 38 a7 3d 09 df 5b bc 57 5a 9c 3c d1 8d ce 3d
       0.08165007 -0.013419875 0.019086046 0.10085643
000080 e5 8d 08 bd d2 5f a2 3c 49 a4 af 3c fb 4c 83 3d
       -0.033338446 0.019821081 0.021440642 0.06411167
000090 3f ef 07 bd 22 3c c2 3d 70 5e 81 3d 73 0b 21 3d
       -0.033187147 0.09484126 0.06316841 0.03931756
0000a0 0e 67 9d 3d 00 9b 3e bd 2a 1f 7f bd 8d e7 fd 3d
       0.07685672 -0.04653454 -0.06228558 0.123976804
0000b0 84 d3 a5 bd 0b 74 57 bd a9 33 91 3d 87 52 2c bd
       -0.08096984 -0.0526009 0.070899315 -0.04207089
0000c0 06 34 de 3d b5 3f ac 3c 41 62 c3 3b 06 f4 b3 3c
       0.108497664 0.021026472 0.0059626405 0.021966945
0000d0 9d d3 36 bd f5 9f 54 bc 1a 6c 6b bd ce f2 7c bc
       -0.044635404 -0.01297759 -0.05747614 -0.0154387485
0000e0 a0 86 0d 3d b2 be 1a 3d f0 79 6f 3c 02 f4 99 3d
       0.034552217 0.037779517 0.0146164745 0.07517244
0000f0 11 fa 23 3d 5c f6 a6 bb c6 6a 86 3d 98 1d 89 3d
       0.040033404 -0.0050952863 0.06563334 0.06695098
000100 1c a6 1f 3c 27 12 c2 bc 94 7f 01 bd c3 f2 43 bd
       0.009744193 -0.023690296 -0.03161581 -0.047838937
000110 06 4b 1e 3d 95 fa 91 3d 93 9f 8d bd c9 af 82 bd
       0.038645767 0.07127873 -0.06915202 -0.063811846
000120 8d d3 16 3d 28 be 89 3d c2 1f 8b 3d b5 42 e1 bc
       0.036822844 0.067257226 0.06793167 -0.027497629
000130 f9 09 b0 3d 1b d1 30 3d e0 84 99 3d fe 3c bf 3d
       0.08595652 0.04316817 0.07496047 0.09337805
000140 76 29 33 bd 85 a8 99 3d fb 32 1d bd 2a 5f 08 bd
       -0.043740712 0.07502846 -0.038378697 -0.03329388
000150 22 e4 2c 3d fc b3 26 3c fc a7 0a be 0f 4b 9e 3d
       0.042209752 0.010174748 -0.13540643 0.0772916
000160 e4 47 6d 3d 4b 1a d2 3b 53 3a 8a ba 65 ca f7 3d
       0.05792989 0.006411826 -0.0010545946 0.120991506
000170 d3 e9 8d 3d 73 92 42 3d de 74 72 3d 02 99 9f 3c
       0.06929364 0.047502946 0.059193484 0.01948214
000180 8f 5e c0 3d ec 7e b2 3c 4a d5 bf 3d 20 dc 6a 3d
       0.093930356 0.021789037 0.093668535 0.057338834
000190 d0 cb 8c 3d ac 6a 24 bd 73 95 88 3d 6a 70 ba 3c
       0.06874812 -0.040140793 0.0666913 0.022758681
0001a0 2e 2b 67 3b 87 e3 8b 3d 5f f2 06 3e af 8e 51 bd
       0.003527354 0.06830507 0.13178395 -0.051161464
0001b0 f1 73 4c 3c f1 c0 ff 3d 80 ac 03 3b 2c e8 49 3d
       0.012478814 0.124879725 0.0020091832 0.049293682
0001c0 4e 62 d2 3d b6 a4 d1 3d 7d f7 6c 3d 9b 10 cb 3c
       0.102726564 0.10236494 0.05785321 0.024788192
0001d0 f0 7d 48 3d fc 1d 88 3d fa aa 80 bd 19 f5 12 3c
       0.04894823 0.06646344 -0.06282611 0.008969569
0001e0 84 70 ae 3d 68 ca ca bd 1a db b7 3d 31 7b 56 3d
       0.085175544 -0.09901887 0.08977337 0.05236358
0001f0 4c 9f 41 bd 40 a1 67 bc 83 29 cb bd fc 5e 02 3d
       -0.047271058 -0.014137566 -0.09920027 0.031828865
000200 bb 55 78 3d 25 0b 8e bd f4 be 66 3c 91 7d ad bc
       0.060628634 -0.069357194 0.014083613 -0.021178039
000210 43 bc 86 bb fa e1 e0 bc 39 59 0e 3d ba ea 9a 3d
       -0.004111798 -0.027451504 0.034753058 0.07564302
000220 87 5b 0a 3d f9 53 83 3d a1 29 44 3c 00 86 c1 bc
       0.033778694 0.06412501 0.011972816 -0.023623466
000230 ea 01 cc 3d 23 b3 ec 3d 03 18 25 bc dd 20 ae 3d
       0.099613026 0.11557605 -0.010076526 0.08502362
000240 01 df af bd 2d 0c 69 bd ed f9 df bb e9 1f d5 3d
       -0.085874565 -0.056896377 -0.0068352134 0.10406477
000250 74 01 90 3d ec 07 4d 3c ed f9 cd 3c b2 9d 80 3d
       0.07031527 0.012514096 0.025143588 0.06280078
000260 00 d7 60 bd bc 08 96 3d 3c 86 20 ba 84 e0 62 bd
       -0.05489254 0.07325885 -0.0006123518 -0.055389896
000270 03 08 64 3c 22 07 f4 bc 51 d9 00 3d dc d4 30 ba
       0.013917926 -0.029788557 0.03145725 -0.00067455857
000280 10 32 e9 3d 30 73 88 3c c8 0b 80 3c c1 e9 f4 bc
       0.11386502 0.016656488 0.015630618 -0.029896619
000290 89 d7 91 bc 1a 33 79 bd e7 73 8d 3d 28 6b 82 bd
       -0.01780297 -0.06083975 0.06906872 -0.06368095
0002a0 e4 55 83 bc 3e a2 0b 3d 3e 84 9f bb 17 9b 88 bd
       -0.016032167 0.034090273 -0.0048680594 -0.06670206
0002b0 cd 0b 05 bc ab a9 bb 3d 51 a1 e3 bc 1a 7d a9 3d
       -0.008120489 0.09163221 -0.027786883 0.08275814
0002c0 da 76 30 3b bf 75 f9 3d 5f be 0d ba 72 3b 9e 3d
       0.002692631 0.121806614 -0.00054070906 0.07726182
0002d0 5e 24 9e 3d 88 c4 59 3c f1 37 f0 3c b5 b9 8b 3c
       0.0772178 0.013291486 0.02932355 0.017056325
0002e0 7b 4e df 3d b7 2c 22 3d 04 58 7d 3a 20 8a 14 3b
       0.10903641 0.039593425 0.00096642994 0.0022665337
0002f0 49 0f d3 3b 15 41 1f bc 78 03 d3 bd 98 ca 51 bc
       0.006441031 -0.009720107 -0.10303396 -0.01280465
000300 39 7a d6 3d 8b 19 19 3d 59 55 23 3d eb be 18 3d
       0.10472531 0.037377875 0.039876316 0.03729145
000310 33 8d c5 3c 59 cd a3 bb ac 03 11 3d 95 1f 92 3d
       0.02411518 -0.0049988446 0.035403892 0.0713493
000320 81 d1 4c 3c c1 4c 42 bd bc 0c 03 3d 57 e8 41 3d
       0.0125011215 -0.04743648 0.031994566 0.047340717
000330 dd 40 ef 3b ae 46 86 3d 53 a6 5b 3a 58 41 19 bb
       0.0073014335 0.0655645 0.0008378971 -0.0023384895
000340 67 47 45 bd a5 dc 97 bc b2 f8 7b 3d 69 b7 fc 3c
       -0.048163798 -0.018537829 0.06151647 0.030849176
000350 49 b8 73 bc aa 12 b4 3d eb 11 6b 3d 93 ad 6d 3c
       -0.01487548 0.087926224 0.057390135 0.014506715
000360 30 b3 ad bd 26 20 87 3c f6 97 e2 bc 7f 86 a6 3d
       -0.08481443 0.016494822 -0.027660351 0.08131122
000370 9f d9 31 3d 0e ba bf bd 5b e9 f9 3c 4e 48 ae bc
       0.04342043 -0.09361659 0.03050678 -0.021274712
000380 a7 90 b5 3b 03 26 81 3d b3 34 b2 bd b4 15 21 bd
       0.0055409255 0.06306078 -0.08701458 -0.03932734
000390 1b 64 93 3d 8e 59 ab bd 7e 03 44 3d c3 e3 0c 3e
       0.07196828 -0.083666906 0.047854893 0.13758759
0003a0 31 93 33 bc 6d 72 6c bb 8f e4 a7 3d 62 c6 d1 3c
       -0.010960386 -0.0036078945 0.08197891 0.025607292
0003b0 7c cd 1a 3d 82 bb 53 3d e2 41 ac 3d fe ab 08 3c
       0.03779362 0.051692493 0.08411004 0.008341787
0003c0 5e 40 11 3e 54 66 c7 3d 1c ae 1d bd 5e 4b 09 3e
       0.1418471 0.097363144 -0.03849612 0.13407657
0003d0 cc 03 58 b9 a2 86 65 3b 81 e8 27 3d 81 9c 14 3c
       -0.0002060078 0.0035022874 0.040993217 0.009070517
0003e0 ac 69 bc ba 4a d3 31 bd e9 a1 c8 3b bb 1f 84 3d
       -0.0014374754 -0.04341439 0.006122817 0.064513646
0003f0 41 03 4e bd 02 06 d0 3d 9a bb 17 bd c7 a0 8b bd
       -0.050296072 0.10157396 -0.037044145 -0.06817775

classfier.fc2.bias f4 [50]
000000 d5 52 0c b6 1f 21 15 36 7e ad 0e 37 99 05 4d b5
       -2.090984e-06 2.222201e-06 8.504254e-06 -7.6376597e-07
000010 28 77 1f 35 83 d3 42 36 c8 76 23 35 81 8c 51 b6
       5.940551e-07 2.9031369e-06 6.089508e-07 -3.122521e-06
000020 da 58 0e 36 14 5a 70 b4 25 3a 4e b6 c6 b7 17 34
       2.1211367e-06 -2.2384512e-07 -3.0730237e-06 1.4129827e-07
000030 54 72 13 36 ac cc c2 b5 cf e8 b1 b5 26 11 23 b5
       2.1971255e-06 -1.4513694e-06 -1.3255284e-06 -6.0747186e-07
000040 6e 6a e1 b6 ac 45 19 35 d1 48 04 36 6a 5c 96 34
       -6.7179126e-06 5.709833e-07 1.9711918e-06 2.8006917e-07
000050 e8 21 ad 35 5a dd 23 35 5e f6 ec 33 d4 81 cf b5
       1.2899372e-06 6.104434e-07 1.103442e-07 -1.5460487e-06
000060 d1 65 a7 b5 ae 64 f9 35 86 67 5d b6 b4 64 d8 36
       -1.2472102e-06 1.8581247e-06 -3.2991825e-06 6.449025e-06
000070 27 d4 a9 b6 04 ea 76 b2 da fc 34 36 fd c0 64 34
       -5.0612903e-06 -1.4372294e-08 2.696927e-06 2.1304363e-07
000080 b6 6a 9d b5 bf 25 38 36 78 7b 9a b6 4d b0 f2 35
       -1.1728469e-06 2.7440108e-06 -4.6039313e-06 1.8081715e-06
000090 46 92 9b 36 cc f4 0d 36 43 c1 b6 b5 62 e2 7a b5
       4.6363884e-06 2.1153128e-06 -1.3616303e-06 -9.346169e-07
0000a0 48 98 83 b6 a0 5f 24 37 00 74 62 37 c4 b4 9e 33
       -3.921832e-06 9.797426e-06 1.3497658e-05 7.3903294e-08
0000b0 63 7b 28 b7 33 77 fd 35 15 ef 2a b6 3a e1 8b b6
       -1.00423085e-05 1.888466e-06 -2.5471138e-06 -4.1687426e-06
0000c0 0c 2e 0b b5 f3 d8 04 36
       -5.184854e-07 1.9795814e-06

classfier.bn2.weight f4 [50]
000000 18 e3 82 3f 82 cb 86 3f 7a 0c 86 3f 5e 66 70 3f
       1.0225554 1.0530856 1.0472558 0.939062
000010 62 2d 72 3f 6f 8e 7d 3f 82 a1 7c 3f 8f 7f 87 3f
       0.946005 0.9904546 0.9868394 1.0585803
000020 84 8f 66 3f 06 a9 7d 3f e0 fc 72 3f 99 16 79 3f
       0.9006274 0.99086034 0.94917107 0.97300106
000030 4d 4d 6b 3f 4a aa 81 3f 11 26 72 3f fc de 71 3f
       0.91914827 1.0130093 0.94589335 0.9448087
000040 6b a2 76 3f a3 26 6a 3f 59 a6 69 3f 98 19 72 3f
       0.9634158 0.91465205 0.9126945 0.945703
000050 0a 90 6e 3f 92 89 75 3f a4 72 77 3f b6 62 82 3f
       0.93188536 0.9591304 0.966593 1.0186374
000060 db d8 71 3f b7 86 82 3f 8d 19 7a 3f fa 87 82 3f
       0.9447152 1.0197362 0.9769524 1.0197747
000070 eb e2 82 3f 4e 5c 71 3f 84 46 84 3f 69 a1 89 3f
       1.02255 0.9428147 1.033402 1.0752383
000080 89 d9 73 3f a7 06 78 3f 54 60 78 3f 1c c4 81 3f
       0.9525381 0.9688515 0.97021985 1.0137973
000090 1d 60 8a 3f c2 33 7b 3f 40 62 85 3f b3 53 67 3f
       1.0810581 0.9812585 1.0420609 0.9036209
0000a0 4d 21 70 3f c6 59 87 3f 9e 71 84 3f 21 8a 81 3f
       0.9380081 1.0574272 1.0347173 1.0120279
0000b0 0a db 7a 3f c3 cc 86 3f 1f 42 83 3f 2c c6 73 3f
       0.9799048 1.0531238 1.0254554 0.9522426
0000c0 9c a9 81 3f 3c 3e 68 3f
       1.0129886 0.9071996

classfier.bn2.bias f4 [50]
000000 a9 c0 09 be 50 52 fe bd 9e a6 07 be 1a 72 c0 bd
       -0.134524 -0.124180436 -0.13247153 -0.09396763
000010 6b e0 30 bd d2 7d d8 bd db d4 2f bb 92 dc 14 be
       -0.04318277 -0.10570873 -0.0026829753 -0.14537266
000020 e0 90 bf bd 9f fa fd bc 63 f4 f6 bd d5 01 12 bd
       -0.093538046 -0.031003295 -0.12058332 -0.03564628
000030 f2 b7 44 bd e6 75 08 be a6 6f cd bd a1 a0 80 bd
       -0.048026986 -0.13326225 -0.10031061 -0.062806375
000040 fd aa 68 bd ff b9 ab bd d6 5e bc bd 8b ba 01 bd
       -0.056803692 -0.08385085 -0.09197776 -0.031672042
000050 d2 41 59 bd 7e b3 c7 bc 46 29 ec bc 7b 80 8f bd
       -0.053041287 -0.02437758 -0.028828274 -0.070069276
000060 f9 bc 2d bd ab b0 da bc a6 7e 1d bd fa 17 01 be
       -0.042416546 -0.02669557 -0.03845086 -0.12606803
000070 cc f8 24 bd ed 73 f0 bd 5c 25 c6 bd 72 50 4c bd
       -0.040276334 -0.11740861 -0.096750945 -0.049881406
000080 ac 37 12 3c 9c 05 0e bd f4 16 b2 3b db 82 14 be
       0.008924406 -0.03467332 0.005434865 -0.14503042
000090 09 15 22 be 9c fd c2 bd 92 cc 14 bd b9 de 99 bd
       -0.15828337 -0.095210284 -0.036327906 -0.07513184
0000a0 59 8d d0 bc cb d2 f5 bd 88 79 d8 bd 9c 53 1d be
       -0.025458025 -0.12003096 -0.10570055 -0.15363926
0000b0 d4 0f d4 bd fb 5d ef bd 32 bd fd bd d3 02 81 bd
       -0.103545815 -0.11687847 -0.12389602 -0.06299367
0000c0 bf e1 a5 bb f9 e2 b9 bd
       -0.0050623114 -0.09076495

classfier.bn2.running_mean f4 [50]
000000 c7 67 46 3f 5e df 2d 3f 72 61 43 3f 88 5c 94 3e
       0.775021 0.67918956 0.76320565 0.28976846
000010 d1 5f 40 be 7c 51 2e 3f ac 54 e7 be 79 28 3b 3f
       -0.18786551 0.68093085 -0.45181787 0.7310863
000020 5e fb 2b bd 85 c4 67 be 47 05 bb 3e 96 64 ea 3d
       -0.04198777 -0.2263356 0.36527464 0.114449665
000030 89 09 89 bd 1e 03 3e 3f 36 70 50 3e 9a b1 ad 3e
       -0.06691272 0.74223506 0.20355305 0.33924562
000040 6a 05 95 3e c9 96 1a 3f b2 59 09 3f ec bc d2 be
       0.29105693 0.6038633 0.5365249 -0.4115976
000050 bd 80 2e bf 28 78 a2 3a 50 78 83 be b8 a2 cc 3e
       -0.6816519 0.0012395428 -0.2567773 0.39967895
000060 62 56 8a bd 23 0c 2b bc 09 59 80 be 80 51 54 3f
       -0.067547575 -0.010439905 -0.25067928 0.8293686
000070 20 df 01 bd 3c 81 15 3f 69 5f 1d 3f f3 76 e5 be
       -0.03170693 0.5840032 0.6147371 -0.44817314
000080 af 7b 0f bf 43 17 58 be aa 60 a6 be f0 9f 32 3f
       -0.560481 -0.21102624 -0.32495624 0.69775295
000090 02 75 20 3f 2f ee ff 3e a2 26 f9 be 6e 27 88 be
       0.6267854 0.49986407 -0.48662287 -0.26592582
0000a0 34 4b b8 be e9 ea 41 3f f9 62 13 3f a1 cb 43 3f
       -0.35994875 0.7574907 0.57572895 0.7648259
0000b0 c0 49 3a 3f 4a 77 2e 3f 2e 73 3d 3f b5 36 f6 3e
       0.72768784 0.6815077 0.74003875 0.48088613
0000c0 77 9e 29 3c 2d a2 54 be
       0.010352722 -0.2076499

classfier.bn2.running_var f4 [50]
000000 f1 dc 06 3f 54 d2 fd 3e 33 6e ef 3e 7e f9 90 3e
       0.5268088 0.4957453 0.46763763 0.28315347
000010 7d a7 aa 3e c0 2c 0c 3f a2 51 f7 3e 86 24 08 3f
       0.33330908 0.54755783 0.48304468 0.5318073
000020 da 61 8c 3e 00 f3 c1 3e 3f 35 a6 3e 9f 87 ea 3e
       0.27418405 0.37880707 0.324625 0.45806596
000030 85 4c 29 3e 7e d0 e4 3e 13 7b a1 3e e8 74 af 3e
       0.16533096 0.44690317 0.3153921 0.3426888
000040 ef 56 ff 3e 0f d4 a5 3e 3f 34 6d 3e 50 cc d4 3e
       0.49871013 0.3238835 0.23164462 0.41562128
000050 b2 99 90 3e 09 93 d3 3e 5d d9 ed 3e fe ba 12 3f
       0.2824226 0.41323116 0.46454898 0.5731658
000060 23 88 80 3e 48 79 e1 3e 6e 0f be 3e 4b 34 fc 3e
       0.25103864 0.44037843 0.37121147 0.49258646
000070 29 d2 03 3f 5a e9 ac 3e 55 7e de 3e 1b 66 f4 3e
       0.51492554 0.33771783 0.4345576 0.4773415
000080 6d 28 1c 3f 4b f4 bc 3e 06 a7 e7 3e 47 a2 f9 3e
       0.60999185 0.3690513 0.45244616 0.4875662
000090 8e 82 e2 3e 84 1a dc 3e c7 05 00 3f 76 11 79 3e
       0.4424023 0.4298898 0.50008816 0.24323067
0000a0 f5 27 d1 3e 7b 08 0a 3f 59 01 ea 3e 4b 58 03 3f
       0.40850797 0.5391919 0.45704153 0.513066
0000b0 c7 ed ea 3e c2 75 e0 3e b6 bd e2 3e 63 5a b4 3e
       0.45884535 0.43839842 0.44285363 0.3522521
0000c0 84 85 d5 3e f0 bf 7b 3e
       0.41703427 0.24584937

classfier.fc3.weight f4 [25, 50]
000000 4e 2b ad bd 68 93 bf bd 77 7f 42 bd 99 35 44 bd
       -0.08455525 -0.093542874 -0.04748484 -0.047902677
000010 1b d9 ab bd 09 c3 ab bd 9c a7 8a 3b c2 39 a3 bd
       -0.08391019 -0.083868094 0.0042314064 -0.07970001
000020 dc db 0c bd f0 bf 3e 3e 60 bf 84 bd df 49 4d be
       -0.03438936 0.18627906 -0.064818144 -0.20047711
000030 e5 22 2b 3c b3 3c ce bd ea e5 4f bd 69 cb 95 bd
       0.010445331 -0.10070171 -0.050756373 -0.07314188
000040 0c 79 38 bb 27 ef 29 bd 4a 50 0b bd 26 df 7d be
       -0.0028148321 -0.04148784 -0.034012116 -0.24792156
000050 48 ca aa 3c 1f 32 80 be c0 21 78 3d 1d f1 47 bd
       0.020848408 -0.2503824 0.06057906 -0.048813928
000060 ef 95 4b be 62 be 9c bd 87 98 e5 3d c4 d5 d9 bd
       -0.19881414 -0.076535 0.11210733 -0.10636476
000070 9b 5d 72 bc b3 48 26 bd 4b 92 83 bd ca 23 03 3e
       -0.014792825 -0.040596675 -0.064243875 0.12806621
000080 c7 df 8d be 3f 52 c8 3d 83 bb 0c 3c 27 1f 48 bc
       -0.2770979 0.09781312 0.008589628 -0.012214459
000090 0e d9 bd bc e4 0c ad bd e4 4d a6 bc c4 d0 33 3d
       -0.023174789 -0.08449724 -0.020300813 0.043900266
0000a0 93 e4 58 be 4e 42 c1 bd ae 8d b6 bb 30 7c f7 bc
       -0.21180944 -0.09436475 -0.0055710888 -0.030210584
0000b0 a9 2f 8c bd 46 fd c5 bc 62 8d 74 bd 21 0c 3d bd
       -0.06845028 -0.024168622 -0.059705146 -0.046154145
0000c0 3f 18 59 bc ed 88 fa 3b 2c 8c b9 bd 51 6b cd bd
       -0.01325041 0.0076457174 -0.09059939 -0.100302346
0000d0 ee fc a5 bd 16 f9 97 bd 1f 00 97 bd df 9f f2 bc
       -0.08104883 -0.07420556 -0.0737307 -0.029617248
0000e0 19 b0 6c be 02 4f c5 bc 77 87 69 3d e7 f2 59 be
       -0.23114051 -0.024085525 0.057013955 -0.21284066
0000f0 84 fb 0b 3d 33 d1 81 3d a5 af f5 3b bc 47 8a bd
       0.03417541 0.0633873 0.007497745 -0.067519635
000100 53 d8 05 3d ba d4 af bd 88 fe cb bd 21 17 1a 3c
       0.032677006 -0.08585496 -0.09960657 0.009404928
000110 26 88 83 3c 6c 03 c5 3d 47 54 6f bd a5 8d 0a 3d
       0.016056132 0.09619793 -0.058429983 0.03382649
000120 bf 30 41 3d 8b 47 16 3c 3f e0 10 be 8c 11 3c be
       0.04716563 0.009172331 -0.14148043 -0.18366069
000130 20 ea cb 3a ef 88 e3 bd d8 11 73 be e1 8a 94 3a
       0.0015557446 -0.111101024 -0.23737276 0.0011332893
000140 b8 91 93 bb 9d b7 fc 3c f8 ab c9 3d b9 11 ce 3c
       -0.004503455 0.030849272 0.098472536 0.025154935
000150 47 67 c4 3d bb c4 e1 bd b1 da 85 bd ff 0a 75 3c
       0.09590011 -0.110238515 -0.06535853 0.014956235
000160 54 fa d7 3d 6c 15 78 3d 21 78 c0 bc 61 3d f4 bd
       0.10545793 0.060567304 -0.023494782 -0.119257696
000170 65 75 6d bd 05 1a 84 bd ca 76 b8 bd a6 10 e7 bc
       -0.057973284 -0.06450275 -0.09007032 -0.02820618
000180 ed 8d 96 bb ea df c1 3c b3 26 61 bd 66 50 d4 bd
       -0.0045945556 0.02366634 -0.054968547 -0.10366897
000190 e2 83 21 bd 92 aa f2 3b fb fb 0b 3e f6 bd 53 3d
       -0.039432414 0.0074055875 0.13670342 0.051694833
0001a0 8c 6c 5c 3d dc cb b3 bc 0a 94 a2 3b ca 79 3b 3e
       0.053814456 -0.021947794 0.0049614953 0.18308178
0001b0 4b 43 48 3d 39 81 82 bd 9f 3f a8 3d c0 1c 8f 3c
       0.0488923 -0.063723035 0.0821526 0.017469764
0001c0 64 c9 c1 bd 12 5e 03 bc 2a b3 0f 3e 65 60 87 bb
       -0.0946224 -0.008018034 0.1403319 -0.004131364
0001d0 c7 1c 8e bc 43 b1 ec 3d 40 6a 39 3d 0f 60 d3 bd
       -0.017347706 0.115572475 0.045267344 -0.10321056
0001e0 5c 59 05 ba 16 f1 91 bb c1 f0 12 3a ed e9 f3 3d
       -0.0005086863 -0.0044537885 0.0005605333 0.11909852
0001f0 d5 93 d5 bb 1b 39 56 3b aa 97 f6 bb cc ad ed 3c
       -0.006517867 0.0032687846 -0.007525404 0.029013537
000200 55 20 b4 3d 78 51 d1 3d 89 c9 2d 3e 5c 73 94 bd
       0.08795229 0.10220617 0.16971411 -0.072485656
000210 c9 aa 14 bd ab 3a 0d 3d 05 10 92 bc da a9 06 3d
       -0.036295686 0.03447978 -0.017829904 0.032876827
000220 3a 6d 35 3b 88 c4 21 3e 40 ad b1 3c 79 e4 82 bb
       0.0027683512 0.15797627 0.021689057 -0.003994521
000230 40 a1 1f bc 13 31 84 3d 7a fe 0a 3e 32 78 fc 3d
       -0.009743035 0.06454673 0.13573638 0.12327613
000240 c4 31 cc 3d 76 63 36 3e 89 fd 1f 3e c6 68 0f bd
       0.099704295 0.17811379 0.1562406 -0.03501203
000250 3d 3c 8d bd 25 68 db bc 2e 75 57 bd e3 7f 9b bd
       -0.06896255 -0.026783058 -0.052601986 -0.07592752
000260 66 ba b3 bc a5 d4 da 3b c0 74 dd bd 22 09 82 bd
       -0.021939468 0.0066781812 -0.10813284 -0.06349398
000270 b9 d1 67 be 3a e3 4e bd 19 6d f2 3b fb cd 10 be
       -0.22638597 -0.05050967 0.0073982594 -0.14141075
000280 e7 05 8f bd 86 db d9 3c 0e f6 0b bd 48 b7 9d bd
       -0.06983548 0.026593935 -0.034170203 -0.07700974
000290 ed 33 38 bd 94 74 8b bd 97 50 50 3c 05 1d ba bd
       -0.044971395 -0.06809345 0.012714527 -0.09087566
0002a0 e4 ff 65 bb 32 52 44 be e5 72 1a be d9 a2 19 be
       -0.003509515 -0.1917198 -0.15082891 -0.15003528
0002b0 4f 28 62 3c 9a a9 ac bc 6c 9b 08 bd 53 ad 32 be
       0.013803556 -0.021076966 -0.033351347 -0.1744893
0002c0 89 10 dc 3b e3 15 95 bd 89 b9 0f be 01 27 c6 bc
       0.0067158383 -0.07279565 -0.1403562 -0.02418852
0002d0 16 30 8d bd 25 2c f8 3c a4 5c 7b be fd 63 01 3c
       -0.06893937 0.030294487 -0.24547058 0.007897374
0002e0 ec 9b e2 bc b7 4f 5b bd 7a 74 b4 bd 10 5f 5a bd
       -0.02766224 -0.05354282 -0.08811279 -0.053313315
0002f0 7a ab 8b 3d e7 16 3e bd 80 ff 0b 3d 34 1a 70 bd
       0.06819816 -0.04640856 0.03417921 -0.05861874
000300 ca 98 1b bd 76 2b 17 bd fc 4c a2 bd 71 82 59 bd
       -0.037987508 -0.036906682 -0.0792484 -0.053102914
000310 d6 1e 89 bd 3c 8e ca 3c ef dd 96 bd d8 4e f0 bc
       -0.066953346 0.024726026 -0.07366549 -0.02933447
000320 71 f3 02 3e 04 a7 03 3e 9e 02 83 3d 58 c7 4d bd
       0.12788178 0.1285668 0.063969836 -0.050238937
000330 c0 98 d2 3c 44 6d 0a bd af 0d 60 3d a6 a4 c1 3a
       0.025707603 -0.03379561 0.05470055 0.00147738
000340 e4 de ac bd e1 af 94 bd bd 07 e8 3d f3 e4 00 3c
       -0.084409505 -0.07260109 0.11329601 0.007867086
000350 0d a7 67 3c 48 10 0e 3e 51 b2 73 3d 7f cd 98 bc
       0.014138949 0.13873398 0.059496228 -0.018652676
000360 a6 16 72 3d 33 d4 51 3b c6 02 aa 3c e6 22 37 bd
       0.05910363 0.003201735 0.020753276 -0.044711016
000370 65 e0 6a bd 37 0b 18 3b 0e e3 f1 bc f8 bb 8d 3d
       -0.057342906 0.0023200044 -0.029527213 0.06920618
000380 37 13 8c 3c 25 0b 9d bd b1 8e 5c bc 82 8d b9 3c
       0.017099006 -0.07668141 -0.013461755 0.022650484
000390 3e b3 1e 3d 0b f7 fa 3d 5a ee b1 3d e7 53 bb bc
       0.038745157 0.12254151 0.0868804 -0.022867156
0003a0 f0 b4 3d 3d de 48 2b bd a4 d4 a6 bc b5 47 fb 3d
       0.046315134 -0.04181754 -0.020365067 0.122695364
0003b0 4e b1 0a 3e f3 58 8b 3d d8 f2 9a bd a5 14 24 3d
       0.13544199 0.06804075 -0.0756585 0.04005875
0003c0 8b fe ae bd fe 79 28 3d 91 19 01 3e f5 10 12 3e
       -0.08544644 0.041131966 0.12607409 0.14264281
0003d0 4b 15 ca bc 81 d7 14 3e 96 77 8b 3d 38 26 07 3d
       -0.024668356 0.14535333 0.068099186 0.032995433
0003e0 e5 d5 a7 bd 0d 60 a5 bd ef 63 30 3e 93 88 c7 bc
       -0.08195094 -0.08074961 0.17225622 -0.024357116
0003f0 91 a0 95 3d 10 29 f1 bc 05 f6 76 3d 61 5e 10 3c
       0.07306016 -0.029438525 0.060293216 0.008811564

classfier.fc3.bias f4 [25]
000000 e4 e5 32 b8 fc e0 a9 ba 05 5d 04 35 a8 24 6c b4
       -4.265261e-05 -0.0012960727 4.9309193e-07 -2.1992548e-07
000010 ca 07 3f ba ee 4f f4 33 7b 8c ba 3a 35 ba 7f 38
       -0.00072872324 1.13766745e-07 0.001423254 6.0970156e-05
000020 70 44 26 b7 ca 9b 05 ba 88 dd fe 37 1a b7 f5 35
       -9.910305e-06 -0.0005096762 3.0382318e-05 1.8307212e-06
000030 f7 d5 80 b5 f8 8c 10 3a ed fd ce 39 9d cb 5d 37
       -9.599015e-07 0.000551417 0.0003948057 1.3220034e-05
000040 b2 9f 75 35 2e 36 96 38 c8 0b 1f b2 e0 b2 1b b5
       9.1502e-07 7.162649e-05 -9.257697e-09 -5.8002297e-07
000050 41 0b a7 b9 e5 9d c5 b5 57 1f 6a b7 75 cf 80 ba
       -0.00031861107 -1.4723597e-06 -1.3954784e-05 -0.0009827452
000060 f4 67 58 3a
       0.00082552363

classfier.bn3.weight f4 [25]
000000 a2 f8 a8 3f f0 74 a5 3f 5e a1 85 3f 98 e3 ad 3f
       1.3200877 1.2926311 1.043987 1.3585081
000010 99 a7 85 3f 53 fd 82 3f d0 0e 82 3f cd 61 79 3f
       1.0441772 1.0233558 1.016077 0.9741486
000020 d5 c7 9b 3f 47 fb 86 3f e7 98 a0 3f 3f 63 82 3f
       1.2170359 1.0545434 1.2546662 1.0186538
000030 60 65 82 3f b6 d9 80 3f 30 5d 87 3f af fe a8 3f
       1.0187187 1.006644 1.0575314 1.3202723
000040 b8 8b 81 3f 39 86 83 3f 6f d5 82 3f 10 a2 82 3f
       1.0120764 1.0275337 1.0221385 1.0205708
000050 cd f1 a5 3f a3 7c 84 3f 21 6f ab 3f b3 b0 a3 3f
       1.2964417 1.0350536 1.3393289 1.2788299
000060 87 4a 81 3f
       1.0100869

classfier.bn3.bias f4 [25]
000000 9b 50 a2 3e 2d d6 96 3e d7 2f 6b bd 55 69 b1 3e
       0.31702122 0.29460278 -0.05741867 0.34650674
000010 20 1b 42 bd ed dc 50 bd be e5 84 bd 59 b2 40 bd
       -0.04738915 -0.05099194 -0.06489132 -0.047045086
000020 bd 42 5b 3e fd 5a 46 bd e4 d2 84 3e 4b 6f 65 bd
       0.21412177 -0.048426617 0.25942147 -0.05601434
000030 64 1f 69 bd 72 a7 6c bd a7 83 37 bd 5d 38 a3 3e
       -0.056914702 -0.057776876 -0.044803288 0.3187894
000040 dc 94 5f bd bc 36 6c bd 1f 71 20 bd 13 b8 5f bd
       -0.054585323 -0.057669386 -0.03917038 -0.054618906
000050 21 b1 94 3e 4e ca 56 bd c4 6a ad 3e 40 53 93 3e
       0.2904139 -0.052439027 0.33870518 0.28774452
000060 f0 c6 5c bd
       -0.05390066

classfier.bn3.running_mean f4 [25]
000000 8f aa 52 bf e9 e4 18 bf f3 a2 0d 3f 17 55 78 bf
       -0.822915 -0.5972429 0.55326766 -0.97004837
000010 16 a0 bf 3e 33 d1 e3 3e 09 cf 0d 3f 79 0f b0 3e
       0.37426823 0.44495544 0.55394036 0.34386805
000020 30 e8 1e bf 6c 01 d6 3e 16 49 37 bf c4 1e c1 3e
       -0.6207304 0.4179796 -0.71595895 0.37718785
000030 60 db 9d 3e 08 31 01 3f de 02 10 3f f0 d6 0c bf
       0.30831432 0.5046544 0.56254375 -0.5501547
000040 1c 96 e0 3e b4 55 c1 3e 49 60 cd 3e b0 fe db 3e
       0.43864524 0.377607 0.40112522 0.4296775
000050 28 20 6e bf f0 2a f6 3e a6 d2 41 bf 24 ea 2a bf
       -0.93017817 0.48079634 -0.7571205 -0.6676352
000060 02 2f b8 3e
       0.35973364

classfier.bn3.running_var f4 [25]
000000 5c 12 b6 3f 8d 73 8c 3f 3f 32 ef 3f 7e 23 73 3f
       1.4224353 1.0972763 1.8687209 0.9497603
000010 56 eb c1 3f e8 8f ac 3f 58 ac c6 3f 9e a3 48 3f
       1.5149944 1.3481417 1.5521345 0.7837466
000020 b3 74 8e 3f 65 26 cd 3f 12 78 d3 3f 78 f0 8c 3f
       1.1129364 1.6027342 1.6521018 1.1010885
000030 c4 76 be 3f ef a1 b8 3f 65 d3 00 40 72 5c 89 3f
       1.4879994 1.4424418 2.0129025 1.0731337
000040 43 45 88 3f 65 0e b6 3f e4 b0 97 3f 9d ea c0 3f
       1.0646137 1.4223143 1.1850858 1.5071598
000050 7e 9e 98 3f 69 ae ae 3f cf a4 b8 3f 5c 86 b3 3f
       1.1923368 1.3646976 1.4425296 1.4025378
000060 f8 4d 86 3f
       1.0492544

classfier.fc5.weight f4 [1, 25]
000000 fe 49 69 be 54 06 c6 be 5f 46 3f 3e 0e fa 86 be
       -0.22782132 -0.38676703 0.18679188 -0.26362652
000010 a3 68 6e 3e 32 e8 cd 3d 60 f1 00 3e 3e 13 1a 3d
       0.23282103 0.10054053 0.12592077 0.037616007
000020 c8 7f 40 be 1e 7a 6e 3e 0c b6 dc be f6 f2 01 3e
       -0.18798745 0.23288772 -0.4310764 0.12690338
000030 a4 7d d1 3d ec 36 34 3e 21 42 62 3e a7 54 9f be
       0.10229042 0.17599076 0.22095539 -0.31119272
000040 0e ff 0b 3e 7a 8a 09 3e 73 03 84 3d 13 1c 3a 3e
       0.13671514 0.13431731 0.064459704 0.18174772
000050 83 72 9e be 93 bc 0f 3e b7 50 92 be 55 92 b2 be
       -0.3094674 0.14036779 -0.28577206 -0.34877267
000060 39 15 9b 3d
       0.07572407
