src/trained_models/2025-05-29/run_22-57-31/dnn_ensemble_model.pt (torch, 76083 bytes, 19 tensors)

classfier.fc1.weight f4 [100, 100]
00000000: 9928 c7bb af1a fcbc ccdc 5e3c a744 133d
00000010: 13dd cc3d 4ee2 50bd 4091 3f3d f47e 923d
00000020: f107 69bd fb22 503d 6457 833d ebc0 cb3d
00000030: 927b a23d 1a7f 423d c908 2d3d 6a23 b1bc
00000040: c97a ab3d 67a2 b6bd 136d 053c 04c1 9ebd
00000050: 7044 d3bd a13a e03d a7d1 b3bc 4278 a9bd
00000060: 86a5 74bd a42c bf3d c9bc 76bd 3965 2abd
00000070: 62be 673c 0c2c e33d c516 05bd 7a8e 5cbd
00000080: 7d65 9f3d ffac b43c 9559 1f3d 130d 773d
00000090: 479e c43d 96f8 963d e3cb 923d 7df6 dbbb
000000a0: 2e0f 3ebd d358 c23d 8b80 c43d 3d0c 55bb
000000b0: 95f1 6ebd 3b0f 9e3c 00d6 993d 85a9 c73d
000000c0: ed55 6d3d 67dd a33c 20cb 95bd a46e 56bc
000000d0: f6b8 adbc 968f 9d3b 23a3 e7bc 6863 803d
000000e0: 722a 6cbc c0f6 87bd 35cf 313c 5171 9cbd
000000f0: 236d 383d c621 233d 238c aebd f1e3 adba
00000100: 8839 333d 50d8 8bbd cee4 5ebd 3617 33bd
00000110: 3fe0 9fbd 5415 d53d b3ac bd3c 448f 673d
00000120: b0ac 32bb 01ae e13c 46a9 673d 10fb c2b9
00000130: e94e c43c 86bc bb3d 198d 3e3d 091f 8abd
00000140: 9e87 603c dc77 23bd 5304 cbbd 8d0c 06bd
00000150: 435d cdbd 29c6 413d 4c91 af3c 7c79 d3bd
00000160: 1551 9bbd e75a 883d 623b 9dbd 5efe 80bd
00000170: 35f6 cf3c 0c02 9abd 7a02 97bd af6d 7a3d
00000180: 0a0a 1dbd 6127 183d bf81 083d c58e a0bc
00000190: 4cd3 b33d 7771 9b3d 5739 b5bb 9220 08bd
000001a0: 12fe 08bd 43ba 92bd 35c5 f3bc 1399 033d
000001b0: 29f2 683d d4dc c13c 8a4f 933d 2fef 54bc
000001c0: 3ce1 ba3d 3d65 abbd 7174 9e3d fa16 9b3d
000001d0: 7133 01bd 5fdb a2bd cb95 1ebd ff0f 3a3b
000001e0: 2cd5 76bd a218 d6bc e169 963d 0ca1 993d
000001f0: 0bbd cbbd 2f8e 8e3d 3923 2d3d 6732 b13d
00000200: e47f 263d ce65 533c af16 9fbd a795 33bb
00000210: 3cfd 493d b536 e03b a7f3 b13d d4c3 453d
00000220: 4a34 d43d 706c c9bb d733 9bbd f763 61bd
00000230: 4b54 b8bd 9789 2ebd 7fa3 533d 8ee8 59bd
00000240: 527f b0bd 6da0 373d 726e d33d 9ec7 79bc
00000250: e15d 533d 7c1d b43d 23f6 75bd 92e0 ed3c
00000260: 7628 26bd 3af1 77ba d7a7 47bc 5a21 c13d
00000270: 3970 a43d a7a6 4c3a 5aa5 e43a bddc adbd
00000280: 2301 30bd 8ec0 e8bd 27dc 10bd 628a ce3c
00000290: b0cf a33d bf34 0c3c 8131 eb3d 8f2b 8e3d
000002a0: ffe2 11bc 18a4 05be 833e 08bc ac9f 433c
000002b0: 6e01 4e3d f939 d53c 3277 54bd 8a81 b8bb
000002c0: d742 93bd b053 8bbd 6e69 33bd b6da 333b
000002d0: 0467 15bd 03c8 103c d152 fabd f945 e63b
000002e0: fbb0 34bd 938b 413d bed1 063d ef1f 143d
000002f0: 84ab 13bd a713 93bd fa41 8bbd 0523 033e
00000300: 988b b2bd e108 f13c 0bc5 333d 1c30 503c
00000310: 0f3f 873d 1df1 43bd 972f 493d b785 813b
00000320: 371c 0d3c e905 21bd 5813 3dbd bee7 063d
00000330: aa95 093d c5b5 2d3c 1fcd f93c e661 193d
00000340: 8882 0fbc cfd8 a2bd b3cd 453c e139 33bd
00000350: 73c5 f2bb 0858 07be 10ee 263a 1e98 50bc
00000360: aec7 1a3e ec48 48bc 3f2e 8dbd 0765 423d
00000370: 613a 39bd 19e6 87bd b599 8c3d fb70 bdbd
00000380: 76f5 633d aa9a 7f3d aec1 82bd 7afb 583d
00000390: ba8a 40bd d586 b63d 2569 cabd 725f 503c
000003a0: c135 bc3d 57b8 a63d ba90 2bbd a520 1e3d
000003b0: a7bd 833c 3ca0 f3bb 2b4c c7bd cbd1 b1bd
000003c0: 1fe7 003c 41e3 a1bd 58c0 533d afce 793d
000003d0: 80e2 de3c 4cab 00bd dc9f 29bc c9fa b33d
000003e0: 908c 99bb a9ba 87bd c2b4 57bd b1c4 db3d
000003f0: f00d 97bd 2df4 0b3d 356b 5d3c 525a 7bbd
-0.0060778377 -0.030774442 0.013602447 0.035954144 0.10003104 -0.05099707 0.04676938 0.07153121
-0.05689234 0.05081461 0.06413153 0.099489056 0.079337254 0.047484495 0.042244706 -0.021623332
0.08373029 -0.089176945 0.008143681 -0.077516586 -0.10315788 0.109486826 -0.021950556 -0.082748905
-0.059728168 0.093346864 -0.060238633 -0.04160044 0.014144512 0.11092386 -0.032492418 -0.053846814
0.07783029 0.022055147 0.03890379 0.060315203 0.096005015 0.07371633 0.071677946 -0.0067127333
-0.046401195 0.09489598 0.0959483 -0.0032508515 -0.05833586 0.019294372 0.075115204 0.0974913
0.057943273 0.020003034 -0.07314134 -0.013087902 -0.02120636 0.0048083765 -0.028276032 0.0626896
-0.014414417 -0.06638861 0.010852625 -0.07638801 0.045025956 0.03982713 -0.08522823 -0.0013266784
0.043756038 -0.06828368 -0.054417424 -0.043723308 -0.078064434 0.10404459 0.023153638 0.056533113
-0.0027263574 0.027548792 0.056557916 -0.0003718962 0.023963409 0.09166817 0.04652128 -0.06744201
0.013704209 -0.03990923 -0.09912934 -0.032726813 -0.10027554 0.04730812 0.021431588 -0.10325906
-0.075838245 0.06657963 -0.07677342 -0.06298517 0.025385955 -0.07519922 -0.07373519 0.06113976
-0.038339652 0.03714693 0.03332686 -0.019599328 0.08780536 0.07590001 -0.005530517 -0.033234186
-0.033445425 -0.07164433 -0.029757122 0.032128405 0.056871567 0.02366487 0.07192905 -0.012996479
0.09124991 -0.08368919 0.07737053 0.07572742 -0.0315432 -0.07951998 -0.038717072 0.0028390882
-0.06026189 -0.026134793 0.073444135 0.075014204 -0.099481665 0.06960713 0.04226992 0.086521916
0.04064931 0.01290269 -0.077679984 -0.0027402432 0.04931377 0.006842459 0.08689051 0.04828246
0.10361536 -0.00614696 -0.07578247 -0.055026975 -0.090004526 -0.042611685 0.051669594 -0.053200297
-0.086180344 0.04483073 0.103238 -0.015245346 0.0516032 0.08794686 -0.060049187 0.029037748
-0.04056593 -0.0009458248 -0.012186012 0.094301894 0.08029217 0.00078068156 0.0017444298 -0.08489368
-0.042969834 -0.11364852 -0.035366204 0.02521247 0.079985976 0.0085574975 0.114840515 0.06941902
-0.008904218 -0.13050878 -0.008315685 0.011939924 0.050294332 0.02602862 -0.051871486 -0.0056306766
-0.07190483 -0.068030715 -0.043801717 0.0027443594 -0.036475196 0.008836749 -0.12222827 0.0070273844
-0.044114094 0.04725225 0.03291487 0.036163267 -0.036052242 -0.07181483 -0.067996934 0.12806328
-0.08718032 0.02942318 0.043889087 0.012706783 0.06603824 -0.047837365 0.04911765 0.0039527076
0.008612684 -0.039312277 -0.046161026 0.03293585 0.033589996 0.010602419 0.030493317 0.03744688
-0.008759148 -0.07951509 0.012072968 -0.04375637 -0.0074087917 -0.13217175 0.00063678715 -0.01273158
0.15115234 -0.012224417 -0.06893586 0.04745963 -0.04522169 -0.066356845 0.06865255 -0.09250065
0.05565401 0.06240336 -0.06384598 0.0529742 -0.0470073 0.08912436 -0.09883336 0.012718068
0.0918994 0.08140629 -0.04188607 0.03860535 0.016081644 -0.007434873 -0.09731325 -0.08682593
0.007867604 -0.07904673 0.051697105 0.060988124 0.027207613 -0.03141336 -0.010353055 0.08788068
-0.004685946 -0.066273995 -0.05266262 0.10730875 -0.07375705 0.03416841 0.01351433 -0.061365433

classfier.fc1.bias f4 [100]
00000000: 808c a6bd 6907 41bd d215 07bd 471c 25bd
00000010: 807d 8ebd 3cf2 783d f92d 8e3d bdbd 1f3d
00000020: 234d ff3c 60af 9f3d b435 793d 0f9e 0abd
00000030: b774 ecbc bc65 f7bb 6d6f 3b3d 47d2 65bd
00000040: 1a00 74bd c1b3 503d 54d9 4cbc 64db 6abd
00000050: 30d4 3fbd 34a0 8839 3283 963d e365 4f3d
00000060: 4047 5f3d ce69 093d 2e4c 2e3d a2e0 6fbd
00000070: 5675 c33d a331 9ebd 1b60 043d 35dd debc
00000080: f13c 633c 5a9f 833d 7b76 7cbd ffe2 c43d
00000090: 715e 9cbd f62a 933d 152f a1bd edd9 1b3d
000000a0: e345 94bd b330 c43c c94f a13d 1616 003d
000000b0: 40fc be3d b256 5f3d 7fd7 b7bd e23d b0bd
000000c0: 7e6b aa3c 557f 86bd 9233 323d 9944 47bc
000000d0: 059a 5a3d 4879 48bd 9bdc a3bd dad3 03bd
000000e0: 24f5 b6bd 0346 6bbd 239a c5bd 4a14 acbd
000000f0: dc9b c73d 1751 4ebb 568e 463d 9641 783d
00000100: 5fbe 40bc 73bc 8c3d cc78 e8bc ccdc cdbb
00000110: 07c0 ca3d 9aa5 85bd 6164 903c e9f6 c83c
00000120: 9cb1 603d e439 fe3c aabf 37bd b3f1 c83b
00000130: 72eb b43c 7c54 11bd 5739 92bc f751 e2bc
00000140: bbbe adbd 8e1c 02bd a5e0 ab3d 913e d73a
00000150: 5f25 9e3d f3a0 c13d 89ac 4ebd 1af5 74bb
00000160: 1be2 823d 872b 843d 7090 45bd 200a 19bd
00000170: 5a3d 52bd 407f dd3c ca83 4e3d 2aae 123d
00000180: e1f5 533d e58f 883d 9375 963d 1173 9dbd
-0.08132267 -0.047126208 -0.032979794 -0.04031017 -0.06957531 0.060777888 0.06942362 0.038999308
0.031164711 0.07797122 0.06084223 -0.033842143 -0.028864248 -0.0075499695 0.04576056 -0.05610874
-0.05957041 0.050952677 -0.012502987 -0.057338133 -0.046833217 0.00026059302 0.07349242 0.050634276
0.05451131 0.03354817 0.04255312 -0.058563836 0.095438644 -0.07724311 0.032318216 -0.02720509
0.01386951 0.06426878 -0.06163643 0.096136086 -0.07635201 0.071859285 -0.07870308 0.038049627
-0.07239892 0.023949003 0.07876546 0.031271063 0.093254566 0.05452604 -0.089766495 -0.08605553
0.02080321 -0.065672554 0.043506213 -0.012162351 0.05336954 -0.048943788 -0.080010615 -0.03218446
-0.089334756 -0.057439815 -0.0964854 -0.08402307 0.09746525 -0.0031481439 0.048475586 0.060609423
-0.011764138 0.06871881 -0.028377913 -0.0062824246 0.098999076 -0.065257266 0.01762599 0.024531798
0.05485688 0.031033464 -0.04486052 0.0061323284 0.022084925 -0.03548096 -0.017849607 -0.027626975
-0.084836446 -0.031765513 0.08392457 0.0016421844 0.07721972 0.09454527 -0.05045751 -0.0037377537
0.063907824 0.06453615 -0.04823345 -0.03736317 -0.05132804 0.027038217 0.050418653 0.035810627
0.05174816 0.06668071 0.07346644 -0.07687963

classfier.bn1.weight f4 [100]
00000000: df67 7b3f ee04 803f f383 7d3f e7fe 723f
00000010: fe8a 773f 8099 7a3f 099f 793f dd77 7c3f
00000020: f903 813f 7d4e 7f3f c46b 793f dc36 7b3f
00000030: 49c8 7f3f 31bc 743f 27ca 7d3f 6e0a 853f
00000040: 4c86 7d3f fe6b 833f fe51 833f b75a 7b3f
00000050: bf99 833f 42c4 883f a88f 833f 6a10 893f
00000060: e335 7d3f 3713 813f 1ca6 883f aa13 813f
00000070: 8863 843f 96ab 783f 6d5a 803f 0585 833f
00000080: fb71 803f e83c 783f d18a 793f d240 803f
00000090: 88a9 793f 5290 7f3f 2583 793f d177 743f
000000a0: c9f1 7e3f 2857 823f 45ce 793f d617 843f
000000b0: 188f 833f 2131 783f f0d0 793f d627 843f
000000c0: 8b06 7d3f 2aed 803f 2d73 833f c69a 7c3f
000000d0: 224b 753f 47ff 793f 231e 843f 2494 763f
000000e0: 08f5 7d3f c52d 7e3f 17e6 7d3f 630e 823f
000000f0: 5755 813f 6e88 823f b7df 823f 747b 793f
00000100: 15b8 803f 54fd 753f c84d 7d3f 205e 773f
00000110: e548 773f f1c5 803f 21bd 833f b0fc 743f
00000120: 4137 7d3f cb6d 7e3f 28a0 743f c4ea 7c3f
00000130: 0c64 843f 8ea8 753f 1da7 793f deb2 803f
00000140: cd29 843f 70e8 7e3f bb09 833f 7af9 803f
00000150: 625e 733f caa7 803f f889 813f 13bb 813f
00000160: ad6c 753f 300c 783f a9db 793f 7c6e 753f
00000170: 4d11 853f 11ed 803f 9be3 783f c5e4 803f
00000180: a67a 793f e49d 813f 5d4a 753f 62d5 843f
0.9820537 1.0001504 0.99029464 0.949202 0.9669646 0.9789047 0.97508293 0.98620397
1.0079337 0.9972914 0.9743006 0.98130584 0.99914986 0.9559966 0.99136585 1.0393808
0.99033046 1.0267332 1.0259397 0.98185295 1.0281295 1.0684893 1.0278215 1.0708134
0.9891035 1.0083989 1.0675693 1.0084126 1.0342875 0.9713682 1.0027596 1.0274969
1.0034784 0.96967936 0.9747744 1.0019782 0.9752431 0.9982959 0.97465736 0.95495325
0.99587685 1.0182848 0.9758037 1.0319774 1.0278044 0.96949965 0.9758444 1.0324657
0.9883811 1.0072377 1.0269524 0.98673666 0.9581777 0.9765515 1.0321697 0.96319795
0.99202013 0.9928859 0.99179214 1.016064 1.0104169 1.0197885 1.0224522 0.97454
1.0056177 0.96089673 0.9894681 0.96628 0.96595603 1.0060407 1.0292093 0.9569807
0.98912436 0.9938628 0.9555688 0.98795724 1.0343032 0.9596032 0.9752062 1.0054586
1.0325257 0.9957342 1.0237345 1.0076134 0.9506589 1.0051205 1.012023 1.0135216
0.9586895 0.96893597 0.976008 0.9587171 1.0395905 1.0072347 0.972223 1.0069815
0.9745277 1.0126309 0.95816594 1.0377619

classfier.bn1.bias f4 [100]
00000000: 3e0b 3cbd 86ef e0bd a8fa a1bd e364 8abd
00000010: 3a17 b0bd e912 753c ba2f 883d 2d9b 47bd
00000020: f3f9 f4bd d8db 80bd 6a44 543c df14 03bd
00000030: fc41 a4bd 3232 66bd e964 a5bd 96de abbd
00000040: 3445 b03c d8bd bfbd 8e41 b2bd cd25 d2bd
00000050: 437b 97bd b4f8 903d 8d93 6cbc 25fd da3c
00000060: 048c 86bb f2d5 d5bd 4d38 e0bc 6d0a 9abd
00000070: 0dd9 bcbd 650f 3ebd 5ae6 b3bd e8a6 a83b
00000080: 1041 f7bd 4d35 10bd af06 ffbc a885 a93c
00000090: c289 d3bd 1f44 a1bd a01b 99bd a0f8 84bd
000000a0: ca70 783c 9e45 503d 13c1 8cbd 1174 063d
000000b0: 2294 e1bd 76f1 b7bd c347 1fbd 5964 dabd
000000c0: e686 35bd f56e bcbd a4fd 48bd f49a 153b
000000d0: 2e77 42bd de33 c7bd b14d 7abd 6a70 12bd
000000e0: 886e 793b ade8 213c 35ca 82bd c11c d9bd
000000f0: 6273 d2bd 4414 e23c 3d85 033d db9d e4bd
00000100: 4cc6 243d 22e3 a5bb 5aa4 aabd a23c 9ebd
00000110: d44e 8abd e721 b73d 5029 8abd 1d2f f03c
00000120: 7b82 d6bd 1eed a5bd 9ccb 14bd ef0a 1bbc
00000130: 6aaf a3bd 5de6 2b3d e15d cdbb 16fe e4bd
00000140: 8099 e0bd 048f 37bd 9348 b7bd 774f d1bd
00000150: 6e30 4fbc 9e97 bebd ea80 9a3c cf42 c7bd
00000160: 688c a0bd ad77 12bd 2362 8ebd 1cfa 38bd
00000170: 7136 7cbd db29 9ebd 3b5e a1bd 6fbb cebd
00000180: 35d4 9abd e8fd a1bd b572 7bbd e0a8 f9bd
-0.04590916 -0.109831855 -0.07909137 -0.06757524 -0.0859818 0.014958122 0.06649728 -0.04873197
-0.119617365 -0.06291932 0.012955764 -0.032002326 -0.08020398 -0.056200214 -0.08075888 -0.08392064
0.021517374 -0.09362382 -0.0870391 -0.10261116 -0.07396557 0.07078686 -0.014439476 0.026732037
-0.0041060466 -0.104411975 -0.027370596 -0.0752152 -0.09221087 -0.0464014 -0.087841704 0.00514685
-0.120729566 -0.03520708 -0.031131117 0.020693615 -0.103290096 -0.07874321 -0.07475972 -0.06492734
0.01516361 0.050847642 -0.068727635 0.032825533 -0.11014582 -0.08981602 -0.038886797 -0.10663671
-0.044318102 -0.09200851 -0.049070016 0.0022827955 -0.04747694 -0.0972669 -0.06110925 -0.035751738
0.0038060267 0.009882134 -0.06386224 -0.106011875 -0.10275914 0.027597554 0.032109488 -0.11162921
0.040228173 -0.0050624767 -0.08332129 -0.077264085 -0.067533165 0.08942013 -0.06746161 0.02931934
-0.10474106 -0.08101867 -0.03632699 -0.009463056 -0.07992442 0.04196774 -0.0062672948 -0.111812755
-0.10966778 -0.044814125 -0.08949389 -0.10220235 -0.012645824 -0.093062624 0.0188603 -0.097295396
-0.0783928 -0.035758663 -0.06952312 -0.045160398 -0.061575357 -0.07722827 -0.07879301 -0.10094344
-0.075600065 -0.07909757 -0.06138869 -0.121904135

classfier.bn1.running_mean f4 [100]
00000000: 4c4d 2abf 02ad e8be f99f 26bd bc3a 4e3e
00000010: 372c 70be 58d5 d53f a3cd 5240 06be afbe
00000020: 609f 0eba 7804 35be 09d3 c63f da52 1f3f
00000030: 4daf 1cbd f279 e43f 423e 2d3e 9e6c d0bd
00000040: ead7 c33f 1a9c c53d 1cb9 81bf 712d 053e
00000050: 1c1c fcbe bb20 b5bf 58bd cfbf fc6d d8bf
00000060: f0d4 3240 9029 cdbd 757a cbbe 719c 19bf
00000070: 5df5 e1bd ab80 a8bf e473 b03d 9cbe 00c0
00000080: 8ca1 ecbe 41f3 06bf 24de a53f 7623 0ec0
00000090: 12d0 66be 8b20 00be 3a4e 6c3d 33e6 0840
000000a0: 5b46 1640 5873 0dc0 a061 b8bc 7f0f 30c0
000000b0: 0765 213e fcf7 70bc 764e 94be 288e 37be
000000c0: d3e3 143e 5988 233f 8e07 ac3b e9e5 8abf
000000d0: cdac 023f cf03 6bbe 5d13 43bf a905 0640
000000e0: e60e 673f 2c22 3940 5f58 cfbd 6d4a e0be
000000f0: 378a 2ebe d987 d5bf be13 b7bf 6db3 a03e
00000100: ef7d 16c0 4c6f 0c40 24da 91bd d513 91bf
00000110: 2dcc 7f3e e838 9f3f 6752 41be 634e 0cc0
00000120: 99fa d9bd 0333 92be f4d9 4e3f 8523 2a3f
00000130: d9fe 16be e4e4 0740 736a ea3f bca4 1b3b
00000140: 7096 df3d 4552 aebf 1e08 9abe d7e0 52bd
00000150: 9fec e8bf a0bf eebd d6ee 13bf 019b b2be
00000160: 2ea2 2cbe 9258 2740 975f 133e f54a 47be
00000170: fba9 b7be f6b5 09be fe01 2b3e 329a b6bd
00000180: 7ddd 19bf 87fe 493e a41e 6440 4a7b 21bf
-0.66524196 -0.45444494 -0.040679906 0.20139593 -0.23454367 1.6705732 3.293801 -0.34324664
-0.0005440619 -0.17677486 1.5533153 0.62235796 -0.038253117 1.7849715 0.1691828 -0.10176967
1.5300267 0.09648915 -1.0134616 0.13005616 -0.49240196 -1.4150614 -1.6229658 -1.6908565
2.7942467 -0.10017693 -0.39741865 -0.60004336 -0.110331275 -1.3164266 0.086158544 -2.0116339
-0.46217 -0.52714926 1.2958417 -2.2209144 -0.2254031 -0.12512414 0.05769179 2.1390502
2.3480442 -2.210165 -0.022507489 -2.7509458 0.15761195 -0.014707562 -0.2896611 -0.17925322
0.14540033 0.63879925 0.005249924 -1.0851413 0.51044923 -0.22950672 -0.7620142 2.0940955
0.9025711 2.8927107 -0.10124277 -0.43806782 -0.17044912 -1.6682082 -1.43029 0.3138689
-2.3514364 2.194293 -0.07121685 -1.1334177 0.2498023 1.2439241 -0.1887909 -2.1922843
-0.10643501 -0.28554544 0.8080132 0.6646045 -0.14745654 2.1233454 1.8313736 0.0023749312
0.109173656 -1.3618857 -0.30084318 -0.051483955 -1.8197211 -0.11657643 -0.5778631 -0.34883884
-0.16858742 2.614781 0.14391933 -0.19462188 -0.35871872 -0.13448319 0.16699979 -0.08916129
-0.6010359 0.19726 3.5643702 -0.6307875

classfier.bn1.running_var f4 [100]
00000000: 58de 4b3e f85a 873d cf0f 2b3d 0d50 8d3d
00000010: 57ba ac3e a5a0 9a3e 4918 693f 007e 393d
00000020: 0f0e 2e3d c9cf 703d 0d6e 223e fd9e 0e3e
00000030: 0dc0 413d 7659 c33e 4486 b03d 2314 1c3d
00000040: d148 9a3e 2b8c 603d c67c b53d ec76 873d
00000050: 32a8 4f3d ab7a c13e 7aeb 623f 71a8 fc3e
00000060: 4708 503f c4db 3f3d 84de f23d bba1 a93d
00000070: 352f 813d 6bf0 8c3e 7b20 843d c8a6 133f
00000080: 5d81 b03d 16a6 063e 91b2 963e 02f4 f03e
00000090: b142 313e 005f 273d e702 8c3d 4ba3 0a3f
000000a0: 45ce ae3e 4d66 2b3f 67fc c23d 3cbd 8a3f
000000b0: 7d62 213d ee7f a53d abf4 663d 907a 013d
000000c0: 9ce0 b93d 5f8c a53d debe 5b3d dde5 2d3f
000000d0: c757 563e a918 873d 96a6 b13d b9be 813f
000000e0: e744 2c3e cbe0 843f 60cd 6c3e e891 ff3d
000000f0: 4b4a 1c3d 00d6 393f 7167 033f 3b73 b23d
00000100: 83a2 5a3f dbdb 1f3f 6128 be3d 64c5 533e
00000110: 7ea8 0a3e 747f 2a3e 3579 8d3d 3176 e63e
00000120: e623 553d 9ee0 db3d 6700 1f3e e5da c23e
00000130: 5a38 3f3d 4778 a23e eb64 1e3f 5a89 993d
00000140: 44ae 833d 37eb 073e 66a3 8d3d 0e83 483d
00000150: ae27 363f b033 8c3d 0d6b 863d 86be c03d
00000160: d0ee 423e cac4 003f 9223 f03d 48ce aa3d
00000170: f3fd e63d 5f4b 0b3e d440 4e3d 5ee5 593d
00000180: 0185 853d 33ec 533d 9c38 873f 8665 883d
0.19909036 0.06609148 0.041763123 0.06900034 0.33735916 0.30200687 0.9105268 0.04528618
0.042493876 0.05879191 0.15862294 0.13927837 0.047302295 0.3815419 0.08619359 0.03810514
0.3013368 0.054821175 0.08861689 0.066144794 0.050697513 0.377889 0.8864056 0.4934726
0.8126263 0.046840444 0.11858848 0.08282801 0.06307832 0.27527174 0.06451508 0.57676363
0.08618424 0.13149294 0.2943311 0.47061163 0.17310597 0.040862083 0.06836491 0.54155415
0.34141746 0.66952974 0.09520798 1.0839 0.039400566 0.08081041 0.056385677 0.031611025
0.09076044 0.08083414 0.053648822 0.6792887 0.20931922 0.065965004 0.08674352 1.0136329
0.16823159 1.0381101 0.2312522 0.12479001 0.03815679 0.72592163 0.51329714 0.08713385
0.85404223 0.6244485 0.092850454 0.20680767 0.13540837 0.16650182 0.06907884 0.45012048
0.05203619 0.10736202 0.15527497 0.38057628 0.0466846 0.3173239 0.6187274 0.07496901
0.06429723 0.13273321 0.069159314 0.04895311 0.71154296 0.06845796 0.06563387 0.094113395
0.19036412 0.50300276 0.117255345 0.08340126 0.11278906 0.1360297 0.050354794 0.053197257
0.06519509 0.05173893 1.0564151 0.06659989

classfier.fc2.weight f4 [50, 100]
00000000: 7746 573d eed4 4c3c 7786 133c 047b e3bc
00000010: 3e84 a8bc 0270 eabd 6a8b 713d ee15 3fbd
00000020: 15e7 5fbd 5ced b2bd a2e6 5ebd a265 ac3c
00000030: c84d 403d aa33 48bd 3711 163d 10e4 69bd
00000040: c9d9 f0bc d7db 00be 9114 f6bc e03d 65bd
00000050: f10b f53c 5a3b 2e3c 4342 6b3d a95f 21bd
00000060: 662a 1dbd c00d 8dbd d5eb 293d 6e8d 2ebd
00000070: bfbd b1bd c6e9 993c 7a03 ecba fb4e 9fbd
00000080: 7103 aa3c f0c0 db3c ccb5 b1bd 731a 34bd
00000090: 7091 b2bd b07d 02bd 060f a8bb 9fc2 89bd
000000a0: 4b82 dcbd e68f febc 49e7 84bd 9117 833d
000000b0: da02 713c 40ab a43b d972 303d 1840 5c3d
000000c0: 4c9a 39bd 8b7c 9bbd 5268 b7bc 6406 4e3d
000000d0: 8d77 89bd 1c70 0e3d 35a3 8dbd e9db cebd
000000e0: 025a 81bd d75b bdbd bf86 f5bc c4da 063d
000000f0: 944a 18bd 4b04 ba3c c929 6d3c bce3 8abd
00000100: befe 6b3d cbbc 563c 5e03 0bbd 1dff 82bd
00000110: b5e3 8c3d fc8e 01be 9577 ebbc d9c3 723d
00000120: 6027 353b a4b3 8abc 9812 d8bd c5e3 edbd
00000130: baf9 04bd dbfc 41bd 4f47 4ebd a8f9 13bc
00000140: 68ae 81bd b9c3 d0bc 3d5f e0bd 108f c4bd
00000150: 07ad 79bc 7674 303d a974 333d 71bd afbd
00000160: e3aa 3ebd 7428 88bd 472e 31bd b757 65bb
00000170: 6aab 29bc 105c 64bc becd 1bbd 174a a73d
00000180: f539 2ebc eb06 cbbb 793f b23c e64b a3bd
00000190: 522a c53c 7a23 38bc 4aff f93c 6578 a73d
000001a0: e5bf 8d3d 0920 0bbd 2745 58bd cf6d 5abd
000001b0: fc8a cc3c 0e2c 51bc 6ca4 35bb 1edb 333c
000001c0: 9d28 563c 4f1c a73c a90c c0bd fd8a 2abd
000001d0: 274b a13d 6de3 25bd e15f abbd 4289 463d
000001e0: 90dc dc3b becd 17be 978e e5bd 77b4 b8bd
000001f0: 448a 803d f04e 0e3d 7d15 ffb9 b0bf 90bd
00000200: 2e81 44bd f9ed 2bbd 332d 67bd 07b1 4ebd
00000210: aeb6 7fbd 0d63 60bd 6231 8f3b a317 cdbc
00000220: bae4 3b3c 0a5f e03c 55c5 233d 6ecb 79bd
00000230: af4e 073d 011c 2bbd 0b59 b33b 69d1 cbbd
00000240: 8960 3f3d 8a48 fd3c 9cfb 443c 6cd6 c7bd
00000250: 653c 0fbd e1be a33d 3bae 1a3d 9108 72bd
00000260: f040 43bd f4d7 e3bc 7dbd 333d 5100 77bd
00000270: c597 3bbc 0e25 673d 5ea4 dfbd 7894 e1bd
00000280: 1cf5 463d b3a8 41bd 9a7e dbbd cd35 fd3d
00000290: 9eb4 b7bd c65e 433d 1140 0f3d 4629 42bd
000002a0: d6c1 23bb caf1 ac3c c08f 083d 99a7 81bd
000002b0: 6ac4 90bd de73 193d cd3a b63c 7d9e d0bd
000002c0: 8e2d e4bc 9c1f 2bbd 17f3 9fbd b3df 5dbd
000002d0: 5dcc da3c 201c ecbc cb51 95bd d429 5fbd
000002e0: 8eea 09be a46f ad3d d3a0 7dbd e091 e23c
000002f0: cc55 4abc 978c 913d ba26 22bd f756 b83b
00000300: bed2 a53c d21b 83bd 8874 733d d3f9 10be
00000310: e0e6 c0bb bd82 a8bd f5b8 1e3d c35a 813c
00000320: 4d8f 9cbc bd99 b3bc ad75 1c3c eb90 e63c
00000330: 106f 7bbd b446 f43d 8b61 213d d095 51bd
00000340: 75a0 3b3d d71c 063d cd89 bbbb 6d61 bf3d
00000350: 57b0 3c3c f96a 2e3d 9d87 153d 83ee d3bd
00000360: 60cc afbc 66c0 193d 2973 86bd 3536 85bd
00000370: 2552 7e3d 54d5 ea3c a58a 93bd 51ec f83c
00000380: 5132 b53d 1686 ad3c 75b5 a13d c561 c4bd
00000390: 6dda be3c e68b 82bd af42 71bd 98a8 c9bc
000003a0: 60b1 5e3d e7f6 a43d 540c 933d 6329 b73d
000003b0: 2329 04bd cdc5 043b 1cdc 16bc de8f df3d
000003c0: 82ed 92bd 9d47 debb e09c e73d ad06 de3d
000003d0: 6499 74bd f519 853d e87f afbb c9bd a1bb
000003e0: 6c11 9e3d cd9d 5c3d c8d0 713d d326 b9bd
000003f0: 686e 7fbd 6c42 a23d dfe9 bdbd a9b9 4dbd
0.052557435 0.012501938 0.009004227 -0.02776862 -0.02057087 -0.11447145 0.058970846 -0.046651773
-0.054663736 -0.08736679 -0.054419167 0.021044556 0.046949178 -0.048877396 0.03663751 -0.057102263
-0.029400723 -0.12583862 -0.030039104 -0.05596721 0.02991292 0.010634268 0.05743624 -0.03939787
-0.038370512 -0.06887388 0.041484673 -0.042615347 -0.08678769 0.01878823 -0.0018006407 -0.07778736
0.020753594 0.026825398 -0.08677253 -0.043970536 -0.08719146 -0.031858146 -0.005128744 -0.06726574
-0.10767039 -0.031074475 -0.06489427 0.06400979 0.0147101525 0.0050252974 0.043078277 0.053772062
-0.045313165 -0.07592114 -0.022388611 0.050299063 -0.067122556 0.034774885 -0.06915895 -0.10100538
-0.06315996 -0.09246033 -0.029971479 0.032923475 -0.0371805 0.022707125 0.014475294 -0.06781718
0.057615988 0.013106535 -0.033938758 -0.06396315 0.06879369 -0.126522 -0.028743545 0.059268806
0.0027641878 -0.016931362 -0.105504215 -0.11615709 -0.03246472 -0.047360282 -0.050360974 -0.009031691
-0.063320935 -0.025483953 -0.10955665 -0.095975995 -0.015239007 0.043079816 0.043812428 -0.08581055
-0.04654969 -0.06648341 -0.043257024 -0.003499491 -0.01035581 -0.013937965 -0.038038008 0.081684284
-0.010633935 -0.006195893 0.021758782 -0.07973461 0.024068031 -0.011238927 0.03051724 0.0817726
0.069213666 -0.033966098 -0.052800324 -0.053327378 0.024968617 -0.012766851 -0.0027716411 0.010977535
0.013071206 0.02039924 -0.09377415 -0.041636456 0.07875662 -0.040500093 -0.08367897 0.048470743
0.0067401603 -0.14824578 -0.112088375 -0.09018796 0.06276372 0.03474325 -0.000486534 -0.070678115
-0.047974758 -0.041974995 -0.05643959 -0.050461795 -0.062430076 -0.054781962 0.0043699006 -0.025035685
0.011468107 0.027389068 0.039983112 -0.06098502 0.033034023 -0.041774753 0.0054732612 -0.09952051
0.046722922 0.030918378 0.012022879 -0.097576946 -0.034969706 0.07995392 0.037763815 -0.0590902
-0.04766935 -0.027812935 0.043881882 -0.060303036 -0.011449759 0.056431822 -0.109200224 -0.11014646
0.0485736 -0.047280025 -0.10717507 0.12363777 -0.08969997 0.047697805 0.034973208 -0.047402643
-0.0024987361 0.021111388 0.033340216 -0.06330795 -0.07068713 0.037464015 0.022244835 -0.10186479
-0.027853753 -0.041778192 -0.078100376 -0.054168414 0.026708776 -0.028822005 -0.072909914 -0.05448325
-0.13468382 0.084685594 -0.061920952 0.02765745 -0.012349557 0.071068935 -0.039587714 0.0056256014
0.020242091 -0.06401791 0.059437305 -0.141578 -0.0058868974 -0.08228061 0.038750608 0.015790349
-0.0191113 -0.021923894 0.0095495405 0.028145274 -0.061385214 0.11927548 0.039399665 -0.051168263
0.04580732 0.032742348 -0.0057232142 0.09344754 0.011516652 0.042582486 0.036506284 -0.10348227
-0.021459758 0.037537 -0.06564934 -0.0650448 0.062090058 0.028666176 -0.07204179 0.030386122
0.08847488 0.021182101 0.07895938 -0.095889606 0.023297513 -0.0637434 -0.058901485 -0.024616525
0.054368377 0.080549054 0.07180086 0.08943441 -0.032265794 0.00202595 -0.009207752 0.10916112
-0.07174207 -0.0067834393 0.113092184 0.10841117 -0.059716597 0.064990915 -0.005355824 -0.004935954
0.07718167 0.053861428 0.059037 -0.09040608 -0.06236115 0.07922825 -0.09273123 -0.050225887

classfier.fc2.bias f4 [50]
00000000: f3d9 49bd e438 b1bd d510 ad3d de19 6bbd
00000010: 2cb0 733d eb23 693d 2a5a 873d 9124 b73d
00000020: b4cc e83c e60d 77bd a2a4 c5bc 906d abbc
00000030: fbc5 4d3d a1b2 3b3d 3279 11bd 3f9b 523d
00000040: fc7e 49bd b3ee b2bd 60e2 6d3d b3fb b7bd
00000050: 2faf bf3d bd52 883d d708 23bd 611d b5bb
00000060: bbe8 a7bc 4989 63bd b7bb 5bbc 2c36 91bd
00000070: 267e 133d c622 04bc f4ad 9bbd 4dc5 a1bd
00000080: 3ff4 c83c e650 c73d 607c c13d f7a1 d23a
00000090: 8fbf 533c 8fc5 3bbb 10f4 54bd da26 55bd
000000a0: eb6c 86bd 8ef4 393c 4276 70bd b2e6 4f3c
000000b0: 86bb 483d e1a4 ac3d 6dac 84bd 48b2 b9bd
000000c0: 40c3 bdbd e7eb 843d
-0.04928012 -0.08653429 0.08450476 -0.057397716 0.059494182 0.05691902 0.06608994 0.08942521
0.028417923 -0.06031599 -0.024126355 -0.020926267 0.050237637 0.04582465 -0.03551597 0.051417585
-0.049193367 -0.087369345 0.058077216 -0.08983555 0.093595855 0.06656406 -0.039803352 -0.005527184
-0.020496717 -0.055550847 -0.013411454 -0.070904106 0.036008976 -0.008064931 -0.07601538 -0.0789896
0.024530528 0.09732227 0.09447551 0.0016069998 0.012924089 -0.002865169 -0.05199057 -0.052039005
-0.06563743 0.01134981 -0.05870653 0.012689279 0.04900696 0.08429886 -0.064782 -0.090672076
-0.092657566 0.06490307

classfier.bn2.weight f4 [50]
00000000: 40c9 7c3f 77f5 803f fcd0 6c3f 5af0 6f3f
00000010: c4d1 843f e8ed 6f3f 0401 743f 0536 823f
00000020: 5ca6 6f3f 0268 843f 187c 813f dbbd 763f
00000030: b5de 7a3f 8a47 843f c920 6f3f 6c28 7c3f
00000040: 8247 7a3f 6241 723f 277b 833f 505e 7c3f
00000050: b782 853f faf1 753f 655b 6f3f 8201 853f
00000060: f084 8b3f 7e57 7a3f 9245 8c3f 5fc5 743f
00000070: 3b45 773f 5b09 723f 2411 7d3f d263 923f
00000080: d2ea 833f 1a7d 813f d14c 843f 42f8 783f
00000090: 31b7 823f 78a9 723f a0ac 7d3f 0a3d 763f
000000a0: fdc6 7b3f 1b17 8c3f 021d 763f ed0b 723f
000000b0: 8f19 723f f2ec 813f 200e 773f 83c8 713f
000000c0: 5906 763f 6c39 863f
0.98744583 1.007491 0.92506385 0.9372612 1.0376515 0.9372239 0.9531405 1.0172735
0.9361322 1.0344241 1.0115995 0.96383446 0.97996074 1.0334332 0.934094 0.9849918
0.9776536 0.94631016 1.0271958 0.9858141 1.0430516 0.9607235 0.9349883 1.0391085
1.0899944 0.9778975 1.0958731 0.95613664 0.9659001 0.94545525 0.9885428 1.1436713
1.0306036 1.0116303 1.0335943 0.9725381 1.0212156 0.9478984 0.9909153 0.9618689
0.9835051 1.0944551 0.9613801 0.9454945 0.9457025 1.0150435 0.9650593 0.9444658
0.96103436 1.0486274

classfier.bn2.bias f4 [50]
00000000: a370 f13c a72f b5bb a167 85bd 3aae 47bd
00000010: 7817 cdbd 47f5 97bd f95f 133c c76d ccbd
00000020: 9cee 74bd 4cd7 b1bd 793f 303d 7e66 08bd
00000030: d255 853c a8cb 98bd bf6c 89bd 494d 3e3d
00000040: 9b0b b7bd b72c 69bd 85a6 d6bd 565b d5bd
00000050: d345 b73c 74ed adbd 46e5 72bd 53e7 d1bd
00000060: 96bf 833d 0e1b de3c ba6f e03d aa31 20bd
00000070: 5a20 f9bc 58ae b4bc d3d5 90bd d8a7 023e
00000080: 0c29 813d db1d b9bd de41 febd a876 c73c
00000090: c768 cfbd 982c 9abd 16e3 dfbd dff7 a7bd
000000a0: e46b 463d 86fc b63d 0229 c5bd adeb 2fbd
000000b0: 44a4 4fbd 1dca 363d 8476 e43c b051 afbd
000000c0: c146 aebc 9b70 dfbd
0.029472655 -0.0055293622 -0.06513906 -0.04875014 -0.10014242 -0.0741983 0.00899505 -0.09981876
-0.059797868 -0.08683643 0.043029282 -0.03330087 0.016276274 -0.07460719 -0.06710195 0.046460424
-0.089377604 -0.05692741 -0.1048098 -0.104178116 0.022372162 -0.08492556 -0.059300683 -0.102492
0.064330265 0.02711251 0.1095881 -0.039109863 -0.030410934 -0.02205579 -0.07072034 0.1275934
0.06306657 -0.090388976 -0.12414907 0.024348572 -0.101274066 -0.07528037 -0.10931985 -0.082015745
0.048442736 0.08934884 -0.09626962 -0.042949367 -0.050693765 0.044626344 0.027888544 -0.085605025
-0.021273972 -0.1091015

classfier.bn2.running_mean f4 [50]
00000000: 5d28 5fbf 144b 2dbf 43c5 b33e cb44 a6be
00000010: 5ebe 613f a522 b3be 3f8b 4abf dbc1 6d3f
00000020: b059 12bf 5167 3b3f 0bd7 28bf 4c13 1ebf
00000030: 6473 0abf 0eab 623f 2169 5a3e 9b55 48bf
00000040: 53c5 623f fe79 51bf 6a01 473f 8194 3a3f
00000050: 5bec ac3e d2bd 283f 6da1 b5bd c490 243f
00000060: 58fb c93e ccd2 6fbf d117 61bf f003 c03e
00000070: 716f 45bf c9ca 20be 8f94 333f 3032 84bf
00000080: 5cf6 08bf c543 0e3f 0561 6e3f d0da 0cbf
00000090: a2c7 403f 9e74 2b3f ae86 2d3f 778b b03e
000000a0: 73e5 903e dab1 56be 0728 0b3f d4b3 12bf
000000b0: 2f1d 3e3f cebf 893d 016d 32bf 5928 4e3e
000000c0: 5d6d 39bf 266c 163f
-0.87170964 -0.67692685 0.35111436 -0.3247436 0.881811 -0.3498737 -0.7911872 0.92873925
-0.571681 0.73204523 -0.6595313 -0.61748195 -0.5408232 0.8854226 0.21329166 -0.78255624
0.8858234 -0.8182677 0.7773653 0.7288285 0.33774075 0.6591464 -0.0886868 0.64283395
0.39449573 -0.93681026 -0.87926966 0.37503004 -0.7712317 -0.15702356 0.7014856 -1.0327816
-0.53500915 0.5557216 0.9311679 -0.5502138 0.75304615 0.6697482 0.6778363 0.34481403
0.28300056 -0.20966282 0.5435795 -0.57305646 0.7426328 0.06726037 -0.69697577 0.20132579
-0.724325 0.5875877

classfier.bn2.running_var f4 [50]
00000000: 04ae 623f 2f04 af3e dda7 123f e876 423e
00000010: 9db3 fd3e b8a5 af3e f526 aa3e 1076 083f
00000020: c57e 9f3e 77e0 eb3e 92a8 053f 828c 973e
00000030: e2e3 cd3e 8d69 113f 9d14 183f c65f 053f
00000040: 556e 0d3f c12d 7d3e 759d ed3e 7f49 083f
00000050: a715 ed3e 6b43 a53e aded 653e cdb8 e83e
00000060: aa1f 103f 465a b13e 0c41 273f ef72 0d3f
00000070: 50c5 713f 79bf bf3e 7331 ab3e dd7a 183f
00000080: 18c3 5d3f 420f cc3e b21e f33e 568b b83e
00000090: dcbc ef3e 0bd7 c03e 6b7f ce3e 98c4 a03e
000000a0: b312 1a3f 47a0 113f c428 b53e 760e d13e
000000b0: 7c00 c03e ab3f c73e 0ed2 d03e 0dc1 c93e
000000c0: 4092 8c3e 8cf3 e03e
0.88546777 0.3418288 0.5728739 0.18990672 0.49551097 0.3430612 0.33232847 0.5330515
0.31151405 0.4606969 0.5221034 0.29599386 0.40212923 0.5680168 0.59406453 0.52099264
0.5524648 0.24724485 0.46409193 0.53237146 0.46305582 0.32277998 0.22453947 0.45453492
0.56298316 0.34639186 0.6533363 0.552535 0.944417 0.3745077 0.33436164 0.59562474
0.86625814 0.3985539 0.47484356 0.36043805 0.46823776 0.37664065 0.40331587 0.3139999
0.6018478 0.5688519 0.35382664 0.40831345 0.3750037 0.38915762 0.4078526 0.394051
0.2745533 0.43935812

classfier.fc3.weight f4 [25, 50]
00000000: 6ed3 b43d db01 003c fe30 253d baaf da3d
00000010: 6f2f 5fbd acec abbd 3548 dcbd 89e0 afbd
00000020: a3c5 66bd ca87 c1bc e266 4bbe 5f70 e0bc
00000030: c324 1abe 70a1 36bd 5fd9 0b3c 62a3 b1ba
00000040: 0e88 c2bd b60b 8c3d 1b8f a4bd 70da bcbc
00000050: 3faf ad3d 20c6 b5bd 2e8b f8bd 2b70 1fbd
00000060: 546c 59bc e8bb 973d 526a 78be 5ae6 98bc
00000070: 792e 8c3d 860e afbd d60f 3bbd ce51 59be
00000080: 6b51 7e3d fb2a c03c c348 98bd e25b 23be
00000090: d874 89bc eb65 a4bd 8821 99bd 4122 8cbd
000000a0: c58f 79bd a41c 073e 5cea 4c39 f8fc de3d
000000b0: 782a 4b3d 5db1 b7bd 21e2 81bd d438 afbd
000000c0: 7ff3 25be 34a3 e4bc a519 8e3d ebc3 253d
000000d0: d398 8c3c a240 c43d 2a34 96bd 84fa c03d
000000e0: 87ce d13d 8fd1 533d c654 d1bd 5e46 e8bb
000000f0: 67b1 8e3c f516 f3bd 499b 8f3d 9ec5 99bd
00000100: 035e 33be 06c3 953d 1987 9bbd d99c 6f3d
00000110: ae9e ddbd c36c a8bd 2734 3ebe c723 a0bd
00000120: d965 a53d cebb 6bbd 36d9 36be 8491 a63d
00000130: e0c6 b63d 9937 ddbd b299 5dbd fb35 38bc
00000140: 80ac dfbd bbe7 033d 39f2 65be 3e49 33bd
00000150: 5594 dcbc f200 c13d 72fc a23c d8fd 94bd
00000160: cdde 3abd c010 c6bd f4d7 39be ef0a 68be
00000170: ef73 133d 65b5 0ebc 62c0 b8bc d8cb 31bd
00000180: d090 2abd b67b 143d 1bf3 973d b330 8fbc
00000190: 92ef 16bc 6291 57be b31d 073d a8d3 4abe
000001a0: b213 84bd bc26 7d3d d73b e73c c228 acbd
000001b0: b99e b83d 3193 c1bd f575 42be 8399 8a3b
000001c0: 5937 f23c 1adc 75bd db33 b63d 85ee d5bd
000001d0: 1e77 44bd 8e9c 5a3d 6ff4 0bbd 175d a33c
000001e0: 0c3b 5bbd 42da afbd 2d90 ffbd 5b9a 99bd
000001f0: bbde f23c 9741 f5bd dd5b 163d 84e0 8cbd
00000200: e6e3 dcbc fd81 0cbe 0579 a5bd 4648 81be
00000210: 5140 5e3d 2862 32bd 28be bbbd 290b 66bd
00000220: 2109 e83c 5a75 5fbd 8cc6 51bc 925b 793b
00000230: 983d 4fbc 29bb df3d dfd6 87bd b98c 833c
00000240: 48bb 8bbd 12cf 993d a971 2cbe 54fd dcbd
00000250: 1fee 23bc 7f53 1f3d eab0 1bbd 7d52 1a3e
00000260: a4be 3fbc d954 953d ae97 1ebd d345 ddbc
00000270: cb15 ef3d 56e9 01be ffc4 023e 355c 0ebd
00000280: 60a2 dcba 67ca fa3d df3b f0bd 6dbd a73d
00000290: d531 47be e3c8 f73c c920 a23c 4162 9e3b
000002a0: c5a2 acbd 1683 95bd 656f 14be cf51 bd3d
000002b0: 217f 88bd 7a5f 38bb 38f8 25be a0bb be3d
000002c0: 15e6 fd3d 93b3 243d 497a 9f3d 3fcb a13d
000002d0: ed1e fbbd 4dd0 ef3d 893d 17be 1ce7 95bd
000002e0: 6d2c c3bd 7d64 e83d df81 98bc f265 93bd
000002f0: 93c5 d3bd 7f4e 95bd d9a1 6abc 0ccc 39be
00000300: 9ca9 dcbd 77e1 873d 9363 683d 0235 0cbe
00000310: 79eb bd3d d00b 65bd 50be b73d e078 e73b
00000320: 269d 7d3d a18a dcbc 67dd 04be 403f 4d3d
00000330: 709b 6fbd a101 d6bc d23e db3b c6ff 023e
00000340: c3e8 543d 3a1d 9ebc 4bc5 ddbd f5f6 6e3c
00000350: cad0 8d3b 09eb af3d c25b ef3d a4a8 223c
00000360: 7c40 deb8 016b 95bc 29c1 97ba 0283 223e
00000370: d98c eebd dc58 363e 7f64 9abd cf20 dbbc
00000380: 83f8 90bd 7bd8 973d b093 c6bc 3157 98bd
00000390: 89b7 c9ba 8a68 af3d 6c5c 143d bb68 bc3c
000003a0: f635 72bc fbba b53d 0fb6 903d dca9 33bc
000003b0: 18cb 293d 5943 bf3b b324 913c 6a9a ea3d
000003c0: 5190 233e 5752 233d 133c d93d 48d9 6fbb
000003d0: 2b3d bc3d 14c3 81bd d397 9abb 18df cabc
000003e0: 90bd 543d ce3e 053d d5ea 83bd ee1e 48bd
000003f0: 70b8 cfbd 8b82 90bd 0983 f03c 9dcf 913d
0.088293895 0.007812942 0.040329926 0.106780484 -0.054488596 -0.08394751 -0.1075596 -0.085877486
-0.056340825 -0.02362432 -0.19863465 -0.027397333 -0.15053086 -0.044587553 0.008535712 -0.001355272
-0.094986066 0.06838171 -0.08035108 -0.023053378 0.08480691 -0.0887568 -0.121359214 -0.03892533
-0.013270456 0.07408887 -0.24259308 -0.018664528 0.068448015 -0.08547692 -0.0456694 -0.21222612
0.062089365 0.023457995 -0.07435753 -0.1595302 -0.016779348 -0.08027252 -0.07477099 -0.06842471
-0.060928125 0.1319452 0.00019542262 0.10888094 0.04960105 -0.08969376 -0.06341959 -0.08555761
-0.16206168 -0.027909853 0.06938485 0.040470045 0.017162716 0.0958264 -0.07334168 0.09422782
0.1024447 0.051713523 -0.102212474 -0.0070884665 0.017418576 -0.11869613 0.0701204 -0.075083956
-0.17516331 0.073125884 -0.07594127 0.05849919 -0.108212814 -0.0822387 -0.18574582 -0.07819324
0.080760665 -0.05755215 -0.17856297 0.08133224 0.08924651 -0.1080162 -0.054101653 -0.011243339
-0.10921574 0.032203417 -0.22455682 -0.04377102 -0.026926199 0.094240084 0.019895766 -0.07274979
-0.045622636 -0.096711636 -0.18148786 -0.22660421 0.035999235 -0.00871024 -0.022552673 -0.04340729
-0.04164201 0.036250792 0.074194156 -0.017479276 -0.009212391 -0.21051553 0.032987308 -0.19807303
-0.06449069 0.061804518 0.028226776 -0.084062114 0.09014649 -0.09451903 -0.1899031 0.004229726
0.029567407 -0.06002436 0.088966094 -0.104458846 -0.04796516 0.05337196 -0.034168657 0.01994185
-0.05352311 -0.08586551 -0.12478671 -0.07500144 0.029647222 -0.11975401 0.0367087 -0.068787605
-0.02696414 -0.13721462 -0.08079723 -0.25250453 0.054260556 -0.04355064 -0.09167129 -0.056162987
0.028324666 -0.054555275 -0.012803685 0.0038048965 -0.012648962 0.1092437 -0.0663278 0.016058313
-0.068228304 0.07510199 -0.16840233 -0.10790506 -0.010005503 0.038897987 -0.038010515 0.1507053
-0.011703167 0.07291574 -0.03871887 -0.027010834 0.116740786 -0.12686667 0.1277046 -0.034755904
-0.001683306 0.122456364 -0.117301695 0.08190427 -0.19452603 0.030247157 0.019791024 0.00483349
-0.08429483 -0.07300393 -0.14495619 0.092441194 -0.06664873 -0.002813308 -0.16207969 0.093131304
0.123974 0.040210318 0.07786996 0.07900094 -0.12261758 0.11709652 -0.14769568 -0.07319471
-0.09529958 0.113472916 -0.018616615 -0.07197179 -0.10340419 -0.072903626 -0.014320814 -0.18144244
-0.10774538 0.06634801 0.056735586 -0.13692096 0.092734285 -0.05591947 0.08971846 0.00706397
0.061917447 -0.026921572 -0.12975083 0.050109148 -0.058497846 -0.026123824 0.0066908384 0.12792882
0.05197979 -0.019301046 -0.10828646 0.014585246 0.004327868 0.08589751 0.11687423 0.009927902
-0.00010597796 -0.0182395 -0.0011577952 0.15870288 -0.11647958 0.17807335 -0.07538699 -0.026749043
-0.0707865 0.07414337 -0.024240345 -0.074385054 -0.0015389781 0.08564861 0.036220953 0.022999158
-0.014783373 0.08873554 0.07065975 -0.010965791 0.04145345 0.005836886 0.017717695 0.114552334
0.15973021 0.039873447 0.106071614 -0.0036598016 0.09191354 -0.06336036 -0.004717806 -0.024764583
0.051938593 0.0325306 -0.06441275 -0.04885762 -0.101426005 -0.07056149 0.029359357 0.07119677

classfier.fc3.bias f4 [25]
00000000: cff9 99bd d935 8bbd c165 7fbc 6807 143d
00000010: 968c 6abc d2f6 e63d f4c3 ccbd fb03 843d
00000020: 8890 b53d 3d29 61bb 6787 983c 62c9 ccbc
00000030: c27a 06be 01ca ecbd f538 d5bd 0610 903d
00000040: 4677 5abd ebe8 843d 8f77 063e 4492 69bd
00000050: 64e3 333c 7c14 b83c 9ab5 e1bb 954f 08be
00000060: b0c1 3f3d
-0.0751835 -0.0679738 -0.015588225 0.036139876 -0.014315745 0.11277546 -0.099983126 0.06446072
0.08865458 -0.0034356855 0.018619252 -0.02499837 -0.13132766 -0.11561967 -0.10411254 0.07034306
-0.053336404 0.06489738 0.13131545 -0.057024255 0.010979507 0.022470705 -0.0068881037 -0.13311608
0.046815574

classfier.bn3.weight f4 [25]
00000000: eebd 913f d1ee 913f 2b90 943f 5685 933f
00000010: 2bd4 793f 73ec 7e3f 3edf 963f 2061 803f
00000020: 2553 953f e110 833f 2a00 963f a590 783f
00000030: fe6f 943f 8b99 813f 7027 953f 2da9 803f
00000040: 10cb 823f 918d 943f 40af 923f 1132 953f
00000050: 40fe 823f 0774 923f c714 823f 4ffd 7f3f
00000060: 738a 803f
1.1386087 1.1401006 1.1606497 1.1525066 0.9758937 0.9957954 1.1786878 1.002964
1.1665999 1.0239526 1.17188 0.9709571 1.1596677 1.0124983 1.165266 1.0051628
1.021822 1.1605703 1.1459732 1.1655904 1.0233841 1.1441659 1.0162591 0.99995893
1.0042251

classfier.bn3.bias f4 [25]
00000000: c265 0d3e ec0b 0f3e c094 233e 1118 1a3e
00000010: 6e20 2dbd b612 49bd 6331 2f3e 0a7c 49bd
00000020: 4116 353e 8fa7 49bd 47c2 2b3e 8cf3 5abd
00000030: f3f6 233e 5c41 35bd 1cfb 2b3e bdb6 48bd
00000040: bc2f 3fbd 4d2d 213e 58f4 1e3e 7312 2f3e
00000050: 6c7d 45bd f593 0b3e ea15 46bd 24fc 47bd
00000060: 2b2d 53bd
0.13808349 0.13969392 0.15974712 0.15048243 -0.042267255 -0.04909011 0.17108683 -0.04919056
0.1768427 -0.049232062 0.1677333 -0.05345492 0.16012172 -0.044251785 0.1679501 -0.049002398
-0.046676382 0.15739937 0.15522897 0.17096882 -0.048215315 0.1363066 -0.048360743 -0.048824444
-0.051556747

classfier.bn3.running_mean f4 [25]
00000000: 7997 4ebf bdfb 11bf edc7 41bf 5925 febd
00000010: 75b4 9d3e 02d8 303f f616 0fbf 9ede ae3e
00000020: fa97 8dbe a791 0b3f e6d1 0dbf 2f8f 783e
00000030: f2b3 d9be 3e04 973e a08a 7ebf fd17 343f
00000040: 8010 143f c4b9 e9be e301 89be 67a1 41bf
00000050: 7a03 2c3f de38 1fbf 34c1 cd3e cbf3 d83e
00000060: 6f3f 413f
-0.8069988 -0.5702475 -0.7569569 -0.12409467 0.3080174 0.690796 -0.5589441 0.34154218
-0.2765501 0.5451912 -0.55398405 0.2427337 -0.425201 0.29495424 -0.99430275 0.70349103
0.57837677 -0.4564954 -0.26759252 -0.75636905 0.67192805 -0.6219615 0.40186465 0.423735
0.75487417

classfier.bn3.running_var f4 [25]
00000000: c656 043f 4552 8d3f 51a7 183f ae50 943f
00000010: 44d5 063f 83ba 6e3f 9d42 093f cad5 743f
00000020: 727f 883f 3653 cf3f 8c38 7a3f 0205 3b3f
00000030: 796c 7c3f 428b 993f 954e 1f3f 125a 723f
00000040: c0f1 9c3f 5227 343f bc75 3f3f 0287 123f
00000050: 2184 ac3f d6ce 2e3f 924e ad3f 137d 533f
00000060: a764 b53f
0.51694906 1.1040732 0.59630305 1.1587121 0.5266917 0.93253344 0.5361727 0.95638716
1.0663893 1.6197269 0.97742534 0.73054516 0.98603016 1.1995623 0.6222928 0.94668686
1.2261276 0.703725 0.74789023 0.57237256 1.3477823 0.68284357 1.3539603 0.82612723
1.4171342

classfier.fc5.weight f4 [1, 25]
00000000: 4c4e 89be 713f 91be 3b80 30be 3da5 74be
00000010: a60c f93c 8630 073e 8fa5 30be 5536 443e
00000020: ef7f 26be f335 193e 43e2 05be 9744 763d
00000030: c0c8 6abe 400b da3d 78e3 2ebe 3a5a 8a3d
00000040: 6b33 323e 0268 6dbe e6d0 53be 6688 2ebe
00000050: ac39 143e 4752 a9be 928e 193e 3e51 0d3e
00000060: 9bfe bf3d
-0.26817548 -0.28368714 -0.17236416 -0.23891158 0.030401539 0.13202104 -0.17250656 0.19161351
-0.1625974 0.14961986 -0.13074593 0.060124006 -0.22928143 0.10646677 -0.1707896 0.067554906
0.17402427 -0.23184207 -0.20685157 -0.1704422 0.14475125 -0.33070585 0.14995793 0.13800523
0.09374734
