trained_models/2025-06-23/run_18-32-28/dnn_model_fold_4.pt (torch, 89665 bytes, 19 tensors)

classfier.fc1.weight f4 [100, 100]
0.033018854 0.024185825 -0.042921256 -0.1016805 0.114127606 0.06400231 -0.07562922 -0.016211474
0.011052974 -0.060511727 -0.071791865 -0.013361545 0.025107862 -0.067651905 -0.021080613 0.01751508
0.026009424 0.017126242 -0.0024710344 0.04921856 0.035896923 0.06073206 -0.031542663 -0.054087326
-0.037718512 -0.04373962 0.06182629 0.12349289 -0.029163193 -0.09306428 0.08188999 0.036732428
0.017162174 0.009767562 -0.15548772 0.037532363 0.015594948 -0.0916045 0.14099859 -0.098702766
0.027438669 -0.11147745 0.07046962 0.06673688 0.01669665 0.060640354 -0.008004954 0.064124316
-0.0070388587 -0.08800072 -0.043697774 0.041759185 0.08416677 0.08425779 -0.0019224654 -0.07936918
0.021322506 -0.011804052 -0.10956043 -0.027034014 0.033664033 0.073991984 -0.0391455 0.0029742382
0.0018306694 0.01747664 0.03645029 0.030419733 0.034038376 0.024127204 0.07277368 0.1291041
-0.023292707 -0.009952102 0.050843168 -0.06844085 -0.02901161 0.021390976 0.028553754 0.005854355
-0.0134737 0.03367075 -5.1352945e-05 0.030830376 -0.07783253 -0.053132128 -0.10720879 -0.043625206
0.17335269 0.08879962 -0.0019645344 0.08563459 0.051556706 0.07034008 -0.08432295 -0.061477263
-0.14406979 -0.043900326 -0.0027981368 -0.048986573 -0.042060092 0.06369023 0.0075647077 0.0697354
-0.11968106 -0.056506995 -0.015797803 0.05597755 -0.06826943 0.056225028 -0.012806748 0.07761873
-0.111103594 0.012124874 -0.06723171 -0.055149 0.037890006 0.0058462815 0.10517147 -0.005231221
-0.10643011 -0.031837735 -0.051943097 0.0024291463 0.05633742 -0.030622097 -0.06583449 0.05096326
-0.05565595 -0.070991695 -0.06939812 -0.023555335 0.08482177 0.060380317 0.08922734 0.07569673
0.08288811 -0.04230187 0.007271029 -0.07594412 0.05364326 -0.11027975 -0.01278795 -0.10465536
-0.100513205 0.045672964 0.10622643 0.05919311 0.0557032 -0.09047805 -0.050353445 -0.01311212
-0.045297846 -0.04181739 0.06380535 0.018775592 0.09757664 -0.038409986 -0.030098196 -0.104664564
-0.05294061 -0.042497724 -0.06653227 0.05705387 -0.021519626 0.089035876 0.03332158 -0.04076176
0.05787362 -0.114961125 0.061805807 -0.091054834 0.041997515 0.10637154 0.009384899 -0.020931045
-0.08030775 0.029457651 0.03256989 0.0054246765 -0.09446017 -0.08026448 -0.055692825 0.029908001
0.07303203 0.023301886 0.08525648 0.017202012 0.012758435 -0.039863206 -0.01111431 -0.046871014
-0.006061371 -0.027936881 0.05795635 0.05429572 0.03139408 -0.09291755 -0.06883936 -0.0049945395
0.00377854 -0.034519657 -0.025652055 0.08183756 0.09885192 -0.04510236 -0.017298976 0.05109562
0.106092274 0.07022066 0.050021622 -0.002688507 0.06097926 0.002162251 -0.10399522 0.058329143
0.093446314 -0.035354625 -0.04005181 -0.028829157 -0.04862109 -0.102140635 -0.012226911 -0.024544815
0.015747324 -0.038789082 -0.09202274 -0.07039025 0.14059213 0.10860716 -0.06395327 -0.030289613
0.07461791 -0.051023297 -0.063647866 -0.04101497 -0.039560553 0.07228354 -0.040598605 -0.06836024
0.03448454 0.04201075 0.001564383 -0.003555378 0.14066394 -0.13234144 -0.043592587 0.061611276
0.13749221 -0.017919326 -0.010646182 -0.0125481095 0.047248833 -0.014680958 0.07337309 0.032078102
00000000: c73e 073d 5a21 c63c 33ce 2fbd de3d d0bd
00000010: bcbb e93d a513 833d 7ee3 9abd edcd 84bc
00000020: 8817 353c 25db 77bd 9d07 93bd 62ea 5abc
00000030: 01af cd3c 158d 8abd 40b1 acbc c97b 8f3c
00000040: b711 d53c 554c 8c3c 14f1 21bb 6799 493d
00000050: a708 133d 2ec2 783d e132 01bd ac8a 5dbd
00000060: ba7e 1abd 5128 33bd 903d 7d3d d7e9 fc3d
00000070: a6e7 eebc 7c98 bebd f0b5 a73d be74 163d
00000080: b097 8c3c 2008 203c 2c38 1fbe 89bb 193d
00000090: f481 7f3c 249b bbbd ef61 103e ad24 cabd
000000a0: 0fc7 e03c 4a4e e4bd 6052 903d 58ad 883d
000000b0: 6ac7 883c 0562 783d 3627 03bc 9c53 833d
000000c0: 3aa6 e6bb b939 b4bd 70fc 32bd ae0b 2b3d
000000d0: a15f ac3d 598f ac3d 3cfb fbba 4f8c a2bd
000000e0: 89ac ae3c c865 41bc 3861 e0bd 7076 ddbc
000000f0: 4ce3 093d 1c89 973d 0857 20bd 70eb 423b
00000100: 12f3 ef3a 2c2b 8f3c e64c 153d ce32 f93c
00000110: d36b 0b3d 6aa6 c53c 5e0a 953d dd33 043e
00000120: 59d0 bebc 240e 23bc ed40 503d b72a 8cbd
00000130: c2a9 edbc 213c af3c 90e9 e93c e4d5 bf3b
00000140: cbc0 5cbc 57ea 093d ce63 57b8 fc8f fc3c
00000150: a966 9fbd 13a1 59bd 4890 dbbd 58b0 32bd
00000160: 5e83 313e 93dc b53d 6bbf 00bb 3061 af3d
00000170: 202d 533d 760e 903d 83b1 acbd 95cf 7bbd
00000180: 0887 13be d4d0 33bd f260 37bb 25a6 48bd
00000190: 3447 2cbd 0670 823d 5ee1 f73b 6fd1 8e3d
000001a0: 581b f5bd e173 67bd 656a 81bc b748 653d
000001b0: d8d0 8bbd 374c 663d 65d3 51bc 92f6 9e3d
000001c0: 488a e3bd 68a7 463c c7b0 89bd ebe3 61bd
000001d0: 8d32 1b3d 2a92 bf3b 2464 d73d aa6a abbb
000001e0: 08f8 d9bd 4968 02bd 49c2 54bd 5032 1f3b
000001f0: 11c2 663d 31db fabc 3cd4 86bd dabe 503d
00000200: 7ef7 63bd 1864 91bd 9a20 8ebd 1ef7 c0bc
00000210: 09b7 ad3d 5a51 773d d3bc b63d e306 9b3d
00000220: 3ec1 a93d ba44 2dbd d041 ee3b 9788 9bbd
00000230: 09b9 5b3d 59da e1bd 8d84 51bc 8d55 d6bd
00000240: ded9 cdbd 9313 3b3d 3e8d d93d 7974 723d
00000250: 0a29 643d 8e4c b9bd 6a3f 4ebd 38d4 56bc
00000260: 3c8a 39bd b648 2bbd 61ac 823d 45cf 993c
00000270: 43d6 c73d ca53 1dbd 7e90 f6bc 605a d6bd
00000280: 41d8 58bd 1812 2ebd 1242 88bd 52b1 693d
00000290: ed49 b0bc 7158 b63d 367c 083d cef5 26bd
000002a0: e40c 6d3d bd70 ebbd 1628 7d3d f57a babd
000002b0: 9605 2c3d 52d9 d93d 1fc3 193c 9577 abbc
000002c0: 6478 a4bd 2c51 f13c 0168 053d 7cc1 b13b
000002d0: 5574 c1bd b461 a4bd 291e 64bd a001 f53c
000002e0: d191 953d 99e3 be3c f39a ae3d 3ceb 8c3c
000002f0: c108 513c 9a47 23bd cb18 36bc d2fb 3fbd
00000300: 779e c6bb e3db e4bc a363 6d3d 3065 5e3d
00000310: 1497 003d 8e4b bebd a6fb 8cbd 3ca9 a3bb
00000320: 62a1 773b 7c64 0dbd 4224 d2bc 739a a73d
00000330: e072 ca3d 41bd 38bd 95b6 8dbc a449 513d
00000340: e846 d93d d9cf 8f3d 79e3 4c3d aa31 30bb
00000350: 63c5 793d 8db4 0d3b 72fb d4bd 8aea 6e3d
00000360: c860 bf3d 03d0 10bd 5e0d 24bd 202b ecbc
00000370: e826 47bd 1c2f d1bd 6253 48bc 3512 c9bc
00000380: 8800 813c 4de1 1ebd 6b76 bcbd c328 90bd
00000390: 62f7 0f3e 6e6d de3d eff9 82bd ec21 f8bc
000003a0: 46d1 983d cefd 50bd d059 82bd 50ff 27bd
000003b0: 3f0a 22bd 6509 943d b94a 26bd 7400 8cbd
000003c0: a93f 0d3d 7713 2c3d fc0b cd3a 5801 69bb
000003d0: 350a 103e 8484 07be 248e 32bd 1b5c 7c3d
000003e0: c2ca 0c3e 8dcb 92bc 536d 2ebc 9696 4dbc
000003f0: fe87 413d 6788 70bc a144 963d 5464 033d

classfier.fc1.bias f4 [100]
4.93376e-05 2.445624e-05 -2.4402385e-07 9.791627e-05 6.0134116e-06 -2.3055673e-05 -1.3130604e-05 0.00012951929
-3.966776e-05 -7.8109995e-05 -1.2735261e-05 1.891083e-05 -1.6895396e-05 -4.9776136e-06 7.67093e-05 5.8441437e-06
7.96182e-05 -5.4491125e-06 1.1776287e-05 -5.1116804e-05 -1.7755276e-05 0.00010081282 -4.1805365e-06 -5.54282e-06
5.555235e-05 -2.3631535e-05 1.3829987e-05 -7.362783e-06 -7.123616e-05 -0.00013962605 7.410904e-05 -2.5501076e-05
7.6871336e-05 -6.0421145e-05 2.6959526e-06 8.479637e-06 0.00015607718 5.2538093e-05 4.8727696e-05 -2.6569845e-05
-1.43302705e-05 -2.740704e-06 -1.3949411e-05 0.00015631359 2.1243344e-05 2.0490446e-05 0.00034193264 -8.928244e-06
-7.9756624e-05 5.820623e-05 2.4476678e-05 3.2371954e-06 -0.00013058656 3.0299068e-06 8.654995e-05 -6.1123734e-05
-3.0393494e-05 3.4241813e-07 -5.960697e-05 -2.0669033e-05 -1.450696e-05 1.129912e-05 2.05155e-05 0.00014730329
7.124389e-05 -9.797131e-05 1.2555437e-05 4.1873536e-05 2.6832357e-05 8.024489e-06 3.4676743e-06 -2.701685e-05
-7.4775244e-06 1.574401e-05 -7.6258635e-05 -1.8400713e-05 5.5722653e-06 -8.238955e-06 1.849969e-08 8.032104e-05
-9.9456825e-05 1.2487818e-05 3.3107386e-05 -0.00016872681 -6.02614e-06 5.078944e-06 5.498166e-05 -7.118982e-06
0.00019201808 0.000103930885 0.00015537036 1.416315e-05 -5.6197823e-06 2.1176214e-05 -9.73207e-06 0.00011167063
0.00013270038 0.0001706685 2.3978007e-05 3.7646165e-05
00000000: d8ef 4e38 6027 cd37 6202 83b4 6658 cd38
00000010: d0c6 c936 ae67 c1b7 844b 5cb7 92cf 0739
00000020: ef60 26b8 fcce a3b8 88a9 55b7 b3a2 9e37
00000030: 96ba 8db7 6005 a7b6 fede a038 d018 c436
00000040: b2f8 a638 85d7 b6b6 c492 4537 4066 56b8
00000050: 2af1 94b7 786b d338 8946 8cb6 76fc b9b6
00000060: e200 6938 563c c6b7 5807 6837 d30d f7b6
00000070: 9f64 95b8 9568 12b9 fd6a 9b38 25eb d5b7
00000080: fc35 a138 b66c 7db8 1dec 3436 c343 0e37
00000090: a6a8 2339 595c 5c38 f760 4c38 4fe2 deb7
000000a0: 0b6c 70b7 f0ec 37b6 4408 6ab7 1ce8 2339
000000b0: bc33 b237 e6e2 ab37 6c45 b339 84ca 15b7
000000c0: 0343 a7b8 7722 7438 4453 cd37 983e 5936
000000d0: 10ee 08b9 6755 4b36 2782 b538 8e2f 80b8
000000e0: 88f5 feb7 97d5 b734 7f02 7ab8 6962 adb7
000000f0: eb62 73b7 5a91 3d37 b318 ac37 6d75 1a39
00000100: c668 9538 f275 cdb8 31a5 5237 5ea1 2f38
00000110: 0c16 e137 eba0 0637 31b6 6836 3ea2 e2b7
00000120: 72e7 fab6 0112 8437 0bed 9fb8 3b5b 9ab7
00000130: 65f9 ba36 0b3a 0ab7 40e9 9e32 0872 a838
00000140: 7a93 d0b8 c582 5137 c9dc 0a38 42ec 30b9
00000150: 2634 cab6 cc6b aa36 1c9c 6638 97df eeb6
00000160: 7658 4939 78f5 d938 eaea 2239 449e 6d37
00000170: 9091 bcb6 93a3 b137 ec46 23b7 b730 ea38
00000180: 7d25 0b39 7af5 3239 6124 c937 43e6 1d38

classfier.bn1.weight f4 [100]
0.9999405 0.9898174 0.9513606 1.0114278 0.9711548 1.012853 0.99379677 0.9450689
0.93919104 1.0049452 1.0200571 0.944734 0.94322544 0.92727983 1.0144912 0.89064634
0.99983853 0.96953785 1.0201463 0.96240646 0.98861575 0.9518202 0.9191283 1.0279267
0.98947835 0.95725566 0.97028506 0.91458434 0.97153026 0.9373472 0.99912745 1.0333693
0.9337573 0.9657203 0.97020036 0.9514214 0.96593994 0.98932296 1.0908654 1.0325406
0.95622814 0.91270727 1.0013878 0.9657407 0.93727493 1.0149859 1.0883155 0.962592
0.9897184 1.0757403 0.9533329 0.9149495 0.9190501 1.006982 0.9759897 1.0031065
0.93369365 0.95393574 0.93263406 0.974032 0.931601 0.9074641 0.9427804 0.9371022
0.9878826 0.948142 1.0389485 0.9833827 1.0158648 0.9591701 0.90856254 0.98338133
1.0124841 0.98462886 0.98344743 0.9834031 0.959926 1.0505817 1.04823 0.9958133
1.0521543 0.9555946 0.91334534 1.0197785 0.9079048 0.9299965 0.92179453 0.91694045
0.9970632 1.0005771 0.91839147 1.0041951 0.9338019 0.9867955 1.109631 0.95088947
1.0093634 0.9607834 1.0012225 0.97775555
00000000: 1afc 7f3f ac64 7d3f 5e8c 733f 7776 813f
00000010: 9a9d 783f 2ba5 813f 7769 7e3f 09f0 713f
00000020: d36e 703f 0ba2 803f 3b91 823f 16da 713f
00000030: 3977 713f 3662 6d3f d9da 813f 6601 643f
00000040: 6bf5 7f3f a233 783f 2794 823f 4560 763f
00000050: ec15 7d3f 7daa 733f fe4b 6b3f 1a93 833f
00000060: 744e 7d3f b50e 753f 9a64 783f 3322 6a3f
00000070: 35b6 783f fcf5 6f3f d1c6 7f3f 7245 843f
00000080: b80a 6f3f 7239 773f 0d5f 783f 5a90 733f
00000090: d747 773f 4544 7d3f 7aa1 8b3f 4a2a 843f
000000a0: 5ecb 743f 2fa7 693f 7a2d 803f c83a 773f
000000b0: 40f1 6f3f 0feb 813f ec4d 8b3f 6e6c 763f
000000c0: 2f5e 7d3f dcb1 893f a00d 743f 213a 6a3f
000000d0: de46 6b3f c9e4 803f 76da 793f cb65 803f
000000e0: 8c06 6f3f 2235 743f 1bc1 6e3f 295a 793f
000000f0: 677d 6e3f 914f 683f 0e5a 713f eee5 6f3f
00000100: e0e5 7c3f 6fb9 723f 44fc 843f f8be 7b3f
00000110: dc07 823f 2c8c 753f 8e97 683f e1be 7b3f
00000120: 1499 813f a310 7c3f 36c3 7b3f 4ec0 7b3f
00000130: b6bd 753f 7679 863f 672c 863f 9fed 7e3f
00000140: feac 863f d9a1 743f 00d1 693f 1a88 823f
00000150: 736c 683f 4014 6e3f bafa 6b3f 9cbc 6a3f
00000160: 893f 7f3f e912 803f b41b 6b3f 7789 803f
00000170: a40d 6f3f a19e 7c3f 6308 8e3f 7e6d 733f
00000180: d232 813f e7f5 753f 0f28 803f 304e 7a3f

classfier.bn1.bias f4 [100]
-0.30920514 -0.072030425 -0.10625455 -0.07824582 -0.21309923 -0.15370955 -0.1368862 -0.24812824
-0.1289497 -0.2394049 -0.15055412 -0.030314492 -0.10850584 -0.08944898 -0.21696872 -0.07297012
-0.18862358 -0.12048481 -0.0038761836 -0.023517724 -0.32752725 -0.2329991 -0.23006886 -0.056603264
-0.2811477 -0.24293818 -0.021261325 -0.07365337 -0.121958986 -0.28129476 -0.07222644 -0.22859009
-0.19565849 -0.24829501 -0.045805886 -0.0519609 -0.24655648 -0.22952193 -0.057512052 -0.09897976
-0.115742 -0.21794973 -0.13899842 -0.2140705 -0.18141998 -0.27403712 -0.17825267 -0.03128728
-0.093241215 -0.13191694 -0.053870715 -0.10298659 -0.20460366 -0.0036749658 -0.13135545 -0.21320945
-0.18321434 -0.2060889 -0.12852256 -0.1139672 -0.08667547 -0.029258942 -0.072029226 -0.21564192
-0.27581987 -0.3071646 -0.18360609 -0.22363374 -0.04507359 -0.22874908 -0.12535383 -0.0033800902
-0.06398794 -0.3020523 -0.097001284 -0.27406794 -0.20042694 -0.020212663 -0.064249516 -0.11979036
-0.15159608 -0.07669253 -0.16173066 -0.28007162 -0.10784221 -0.088691786 -0.26642406 -0.05255475
-0.24364467 -0.14504275 -0.2387709 0.05854436 -0.12471189 -0.26835263 -0.0987888 -0.28210562
-0.09432526 -0.20306508 -0.018185891 -0.11004527
00000000: 2350 9ebe b084 93bd fc9b d9bd 583f a0bd
00000010: af36 5abe 0966 1dbe e52b 0cbe 5415 7ebe
00000020: 640b 04be 8f26 75be dc2a 1abe 1956 f8bc
00000030: 4f38 debd 0731 b7bd 0c2d 5ebe 5c71 95bd
00000040: 8a26 41be bdc0 f6bd 9207 7ebb 3ea8 c0bc
00000050: a7b1 a7be 5197 6ebe 2c97 6bbe d3d8 67bd
00000060: 97f2 8fbe c9c4 78be 3b2c aebc 94d7 96bd
00000070: a2c5 f9bd de05 90be 75eb 93bd 8513 6abe
00000080: b35a 48be 0c41 7ebe f49e 3bbd f4d4 54bd
00000090: 4d79 7cbe cc07 6bbe c291 6bbd e7b5 cabd
000000a0: 240a edbd 372e 5fbe 9a55 0ebe 4c35 5bbe
000000b0: 29c6 39be 984e 8cbe de87 36be 1727 00bd
000000c0: 40f5 bebd 3c15 07be 8aa7 5cbd a2ea d2bd
000000d0: 9f83 51be b2d7 70bb 0b82 06be 9453 5abe
000000e0: 8a9c 3bbe f808 53be 6b9b 03be a367 e9bd
000000f0: e982 b1bd 73b0 efbc 0f84 93bd 3cd1 5cbe
00000100: 4338 8dbe ae44 9dbe 3c03 3cbe 3e00 65be
00000110: 169f 38bd 333d 6abe c15c 00be 8184 5dbb
00000120: 1c0c 83bd 99a6 9abe 9ca8 c6bd a252 8cbe
00000130: b83c 4dbe 0795 a5bc 4095 83bd a654 f5bd
00000140: 013c 1bbe f910 9dbd b99c 25be 8c65 8fbe
00000150: 60dc dcbd 0aa4 b5bd bc68 88be a643 57bd
00000160: fd7d 79be 1686 14be 5c80 74be 36cc 6f3d
00000170: f368 ffbd 8465 89be c851 cabd 2670 90be
00000180: 9a2d c1bd 4bf0 4fbe 94fa 94bc 6a5f e1bd

classfier.bn1.running_mean f4 [100]
-0.0826462 0.20986362 0.19423515 0.0069684815 -0.11382929 -0.1305825 0.09023717 -0.035529174
0.1659394 -0.097300656 -0.045363866 -0.044332672 -0.1328755 0.36289006 -0.12913832 0.9932395
0.04200704 0.17029801 0.118205234 0.072583355 -0.08183404 0.034367964 -0.05887098 0.007807402
0.020124044 0.06287938 0.18887079 0.34558025 -0.10807566 -0.11555648 -0.12587881 -0.0082885455
-0.07867536 -0.13053775 0.30537853 0.33330673 -0.01768814 -0.109133035 -0.01562484 -0.011539208
0.1765742 0.11733766 0.07499586 -0.091630675 -0.23500249 -0.08974979 0.07570869 -0.53084165
-0.00904957 0.06855258 0.17004997 0.95954394 -0.15138707 -0.5607457 -0.019845696 -0.076131046
-0.30202088 -0.16601504 0.15304211 0.10891847 0.3312297 0.60040706 0.009302146 -0.07548268
-0.011898389 -0.004611909 0.047457963 -0.046534307 -0.08212927 -0.048591547 0.13307732 0.09567502
-0.2263603 -0.13736044 0.026346404 -0.07137986 -0.088402204 -0.038026925 -0.38541508 0.08374796
0.1799015 -0.30179316 -0.020134604 -0.043459777 0.5601367 0.46212924 -0.098936826 0.22821972
-0.15282466 0.08862443 -0.122499876 0.097445905 0.082556315 -0.059567325 0.03989076 -0.036681745
-0.32685223 -0.10843385 0.12573108 0.11630233
00000000: 6942 a9bd 7de6 563e 94e5 463e dc57 e43b
00000010: 551f e9bd 6bb7 05be 44ce b83d 0a87 11bd
00000020: 05ec 293e 9145 c7bd 76cf 39bd 2d96 35bd
00000030: 8410 08be bacc b93e d63c 04be f244 7e3f
00000040: 930f 2c3d 9a62 2e3e 9615 f23d 95a6 943d
00000050: 9b98 a7bd 6cc5 0c3d b222 71bd 3cd5 ff3b
00000060: 2edb a43c e8c6 803d 5867 413e e5ef b03e
00000070: c656 ddbd e0a8 ecbd 60e6 00be aecc 07bc
00000080: 8c20 a1bd b0ab 05be 935a 9c3e 2ea7 aa3e
00000090: b8e6 90bc 2481 dfbd 54ff 7fbc f20e 3dbc
000000a0: decf 343e ba4e f03d 6e97 993d dda8 bbbd
000000b0: 7ea4 70be bdce b7bd 280d 9b3d 3de5 07bf
000000c0: a644 14bc 4c65 8c3d 9421 2e3e aca4 753f
000000d0: 3605 1bbe 088d 0fbf 7193 a2bc 98ea 9bbd
000000e0: 7ba2 9abe d9ff 29be 12b7 1c3e a610 df3d
000000f0: f096 a93e 47b4 193f 0768 183c aa96 9abd
00000100: 76f1 42bc 7f1f 97bb 4863 423d c29a 3ebd
00000110: 6433 a8bd ee07 47bd 6c45 083e 44f1 c33d
00000120: ffca 67be 37a8 0cbe 6ad4 d73c 9b2f 92bd
00000130: 370c b5bd 1fc2 1bbd 2055 c5be 0d84 ab3d
00000140: 1938 383e a284 9abe 53f1 a4bc e102 32bd
00000150: 1e65 0f3f 349c ec3e 649f cabd 6eb2 693e
00000160: 117e 1cbe ba80 b53d 37e1 fabd b891 c73d
00000170: 4913 a93d defc 73bd 7e64 233d 993f 16bd
00000180: 2d59 a7be 9112 debd a6bf 003e ea2f ee3d

classfier.bn1.running_var f4 [100]
0.004599489 0.016983183 0.015521139 0.0062442855 0.014157365 0.011983355 0.010932541 0.004243905
0.014014553 0.005683959 0.015896322 0.016607422 0.008972071 0.029387387 0.0071471953 0.15870778
0.007000313 0.014546927 0.013846189 0.010721359 0.0052929996 0.008917911 0.007260065 0.008025621
0.00519829 0.006786545 0.023988241 0.028833525 0.007015115 0.0079215495 0.010410623 0.0037844332
0.010515726 0.0060034296 0.035708368 0.03168335 0.0052610897 0.0062835612 0.014199546 0.009021953
0.010616612 0.009209602 0.012010263 0.008545522 0.012989193 0.004095277 0.003280685 0.06279672
0.009196256 0.0063149165 0.00975612 0.16400884 0.007950799 0.090540566 0.0045428183 0.004734498
0.018756399 0.022773499 0.007876702 0.006552797 0.0365626 0.052873325 0.010403207 0.0068545486
0.00517652 0.0047470774 0.011692716 0.0058890805 0.0083933575 0.006784666 0.06448549 0.0077129793
0.016265182 0.0076689664 0.0075845434 0.0040311185 0.0076831705 0.009762416 0.082828425 0.011743418
0.010716473 0.040521197 0.0071676667 0.0033244425 0.04633333 0.07779912 0.009073247 0.018092074
0.009127238 0.0062201284 0.010147721 0.010254453 0.011671343 0.008749713 0.0064213597 0.0050684195
0.04444739 0.0046701976 0.0066489973 0.009932403
00000000: 4fb7 963b 5120 8b3c 604c 7e3c dd9c cc3b
00000010: 4bf4 673c d555 443c 671e 333c 7510 8b3b
00000020: 4c9d 653c 8140 ba3b 0139 823c 4a0c 883c
00000030: 98ff 123c d1bd f03c 0533 ea3b 4b84 223e
00000040: e262 e53b 3c56 6e3c 20db 623c a4a8 2f3c
00000050: e670 ad3b 6e1c 123c d7e5 ed3b e57d 033c
00000060: 6b56 aa3b aa61 de3b fd82 c43c 4934 ec3c
00000070: 0ddf e53b 63c9 013c 5191 2a3c 4104 783b
00000080: 274a 2c3c 6bb8 c43b f042 123d 67c6 013d
00000090: 3865 ac3b 55e6 cd3b 36a5 683c d0d0 133c
000000a0: 4cf1 2d3c dfe3 163c b2c6 443c 8402 0c3c
000000b0: a0d0 543c ac31 863b c300 573b 919b 803d
000000c0: e5ab 163c 5ced ce3b 22d8 1f3c eff1 273e
000000d0: 1144 023c 556d b93d ecdb 943b d923 9b3b
000000e0: 05a7 993c 7d8f ba3c 480d 013c d8b8 d63b
000000f0: aac2 153d b391 583d 3672 2a3c 1f9c e03b
00000100: cc9f a93b 5f8d 9b3b ce92 3f3c 30f9 c03b
00000110: 4b84 093c e751 de3b f810 843d 29bd fc3b
00000120: 8f3e 853c f44b fb3b c387 f83b 7917 843b
00000130: 1bc3 fb3b 8af2 1f3c f3a1 a93d 7767 403c
00000140: 2594 2f3c 8ef9 253d bfde ea3b e4de 593b
00000150: 05c8 3d3d 2555 9f3d f5a7 143c d435 943c
00000160: 698a 153c 38d2 cb3b a042 263c 4b02 283c
00000170: 2939 3f3c f55a 0f3c 456a d23b fc14 a63b
00000180: 770e 363d 7508 993b d5df d93b 85bb 223c

classfier.fc2.weight f4 [50, 100]
0.07738904 -0.070598885 -0.049355593 -0.0483109 -0.036635324 0.081347376 -0.077008635 0.04670205
0.038251184 -0.014812976 -0.053574864 0.040416148 0.02080642 0.04192977 0.00749418 -0.106941245
0.046655852 0.040551018 -0.14470875 -0.06363444 0.028528783 0.0033645015 0.07512549 -0.0017156183
0.08839914 0.057419397 -0.09348265 0.052201066 0.06781006 0.068252966 0.042635206 -0.008837322
-0.010463915 -0.025020717 0.053088117 0.01798534 0.08125644 0.0061122547 -0.04217216 -0.053400632
0.04166122 0.004255771 -0.092224315 0.0825907 -7.075802e-05 0.08711174 -0.047468062 0.016212337
0.014369212 -0.1210016 -0.08402824 -0.05484676 0.05522045 0.00663504 0.032921903 0.04524902
0.005395325 0.031127922 0.019933926 0.088751286 -0.033917233 0.041895747 0.103314124 0.025630469
0.042546473 0.103546634 0.13237238 0.066998735 -0.05828543 -0.028531458 0.051130317 -0.001116377
0.044716258 0.13852423 -0.15449952 0.03921765 0.055512536 -0.081921294 -0.003930224 -0.10176421
-0.10219438 0.022749305 -0.04546501 0.06265419 0.049710806 0.022413682 0.023071708 0.06768449
0.09106674 0.0058207107 0.058441393 -0.0885242 0.043850202 0.039446764 -0.1386708 0.041702148
-0.00046523503 0.12405559 0.04476205 -0.0011587333 0.062983185 -0.03559745 0.024991626 -0.07069583
0.022008518 -0.0037271772 0.102825634 0.03562756 0.026547419 0.022349272 0.10298651 0.058180243
-0.06920051 -0.04566508 0.006959071 0.0047241496 0.08226679 0.10437213 0.0430745 0.11304872
-0.054130636 -0.050684094 -0.010834202 -0.052950807 0.06476366 -0.06838413 0.09538554 0.05195487
0.05796961 -0.04257722 -0.05144062 0.014941493 0.06595065 -0.046338256 0.055607524 0.0032208147
-0.003514749 -0.021674845 0.13294382 0.12401292 0.017052973 0.04478669 0.045421466 -0.00073294126
-0.095598996 0.03865363 0.09730876 0.029349169 0.009812053 0.055852696 0.053096123 -0.071854115
-0.035232726 0.036822975 -0.09022898 0.020219773 0.027472999 -0.0636569 0.021206588 0.09080774
0.056267954 -0.06348434 -0.008370939 0.022269309 0.031129397 -0.04217011 0.11334819 0.026578505
-0.028796284 0.017229905 0.09391943 0.05409287 0.058547687 -0.0071353405 0.07965356 0.01893789
0.09026154 -0.066811115 0.07061413 0.028113088 0.12672612 0.026845962 0.044698793 0.04497504
-0.042911176 0.009657314 -0.028527273 -0.013954865 0.013631502 0.09945189 0.00912158 0.04992414
-0.05461169 0.08238168 0.08422014 0.06714837 -0.03971424 -0.10509532 0.023870572 0.02223176
-0.049714174 -0.057317197 0.10700834 0.080303825 -0.101318136 0.059122182 -0.032827586 -0.0050170063
0.053404894 0.00026190066 -0.023646288 -0.06684261 -0.08880631 -0.009613176 -0.16066049 0.029050244
0.09781224 0.052525785 -0.03470977 0.049221873 0.0595212 -0.0014260708 -0.111101106 0.049915735
0.017948424 -0.097020954 -0.03951578 0.05229821 0.018413942 0.013505528 0.015277395 0.04529498
0.08306406 0.006592085 0.0922492 -0.022637468 0.035217542 0.026903318 -0.060901072 -0.09290067
0.003623119 -0.04732755 -0.047326427 0.0066697956 -0.074964434 -0.051039618 -0.03607803 0.045467693
-0.04113656 0.034480583 0.07468242 0.058529653 -0.08650479 -0.111328356 0.006883758 -0.045095637
00000000: 257e 9e3d 2696 90bd 1729 4abd a6e1 45bd
00000010: ec0e 16bd 7499 a63d b4b6 9dbd a64a 3f3d
00000020: 46ad 1c3d 20b2 72bc 5171 5bbd 678b 253d
00000030: 3a72 aa3c 8dbe 2b3d bd91 f53b 0304 dbbd
00000040: 351a 3f3d d318 263d 882e 14be c652 82bd
00000050: 32b5 e93c f87e 5c3b 65db 993d 99de e0ba
00000060: 9c0a b53d 9a30 6b3d d573 bfbd c9d0 553d
00000070: 00e0 8a3d 36c8 8b3d 41a2 2e3d 6aca 10bc
00000080: d770 2bbc 3ff8 ccbc ed72 593d fe55 933c
00000090: c769 a63d 4f49 c83b b7bc 2cbd 9fba 5abd
000000a0: f5a4 2a3d ff73 8b3b 1ae0 bcbd 5025 a93d
000000b0: ec63 94b8 a467 b23d df6d 42bd bccf 843c
000000c0: d86c 6b3c b0cf f7bd ff16 acbd ffa6 60bd
000000d0: d72e 623d c06a d93b 1ed9 063d 0957 393d
000000e0: 44cb b03b fcff fe3c 794c a33c 3cc3 b53d
000000f0: ccec 0abd e09a 2b3d 5b96 d33d fdf6 d13c
00000100: 3645 2e3d 4210 d43d a08c 073e a236 893d
00000110: b4bc 6ebd ceba e9bc 066e 513d 6553 92ba
00000120: 6528 373d 4cd9 0d3e 1f35 1ebe b0a2 203d
00000130: 1d61 633d 5ac6 a7bd 1cc9 80bb c169 d0bd
00000140: 494b d1bd c05c ba3c 8539 3abd d750 803d
00000150: 8f9d 4b3d e69c b73c e100 bd3c 2a9e 8a3d
00000160: 3381 ba3d a9bb be3b 3e60 6f3d 2d4c b5bd
00000170: 459c 333d ee92 213d b8ff 0dbe dfcf 2a3d
00000180: caea f3b9 db10 fe3d 6958 373d a3e0 97ba
00000190: 54fd 803d a2ce 11bd 3dbb cc3c fac8 90bd
000001a0: 354b b43c a843 74bb 3f96 d23d 34ee 113d
000001b0: f979 d93c d215 b73c 97ea d23d 684e 6e3d
000001c0: ffb8 8dbd 4f0b 3bbd eb08 e43b 0acd 9a3b
000001d0: 7e7b a83d 0ec1 d53d e36e 303d 1686 e73d
000001e0: 16b8 5dbd 209a 4fbd f081 31bc f2e2 58bd
000001f0: cfa2 843d fb0c 8cbd 7e59 c33d a1ce 543d
00000200: 8b71 6d3d 7365 2ebd 66b3 52bd 2acd 743c
00000210: 2211 873d 2fcd 3dbd b7c4 633d 4e14 533b
00000220: b457 66bb 728f b1bc 6d22 083e 7cfa fd3d
00000230: adb2 8b3c 4072 373d dc0b 3a3d db22 40ba
00000240: 68c9 c3bd 4553 1e3d d149 c73d ab6d f03c
00000250: bcc2 203c ccc5 643d 527b 593d 4028 93bd
00000260: 3150 10bd b0d3 163d f9c9 b8bd f0a3 a53c
00000270: 0e0f e13c 8c5e 82bd 70b9 ad3c 69f9 b93d
00000280: 3a79 663d 1404 82bd 4326 09bc 206e b63c
00000290: 1403 ff3c 91ba 2cbd 1923 e83d 2abb d93c
000002a0: 2fe6 ebbc bb25 8d3c d558 c03d 7c90 5d3d
000002b0: b3cf 6f3d 93cf e9bb 6821 a33d a223 9b3c
000002c0: 0bdb b83d 44d4 88bd 249e 903d 6b4d e63c
000002d0: 7ec4 013e 10ec db3c 1516 373d bf37 383d
000002e0: a1c3 2fbd b639 1e3c 07b2 e9bc f2a2 64bc
000002f0: aa56 5f3c 6fad cb3d ae72 153c 417d 4c3d
00000300: 82b0 5fbd bab7 a83d 9c7b ac3d 1685 893d
00000310: 66ab 22bd 373c d7bd 388c c33c 611f b63c
00000320: 17a1 4bbd 70c5 6abd 3027 db3d 5576 a43d
00000330: e27f cfbd 1a2a 723d 3876 06bd b365 a4bb
00000340: 17bf 5a3d b64f 8939 dcb5 c1bc c7e4 88bd
00000350: 15e0 b5bd 9580 1dbc 2f84 24be c7fa ed3c
00000360: c951 c83d 4725 573d d52b 0ebd e09c 493d
00000370: 80cc 733d ffea baba fa88 e3bd 7174 4c3d
00000380: 9308 933c ecb2 c6bd 4cdb 21bd a636 563d
00000390: d6d8 963c 4a46 5d3c 0a4e 7a3c 3b87 393d
000003a0: 7d1d aa3d 6b02 d83b 26ed bc3d 3672 b9bc
000003b0: 4540 103d 5964 dc3c 6773 79bd b542 bebd
000003c0: da71 6d3b 88da 41bd 5bd9 41bd 4d8e da3b
000003d0: f486 99bd eb0e 51bd 8ec6 13bd 553c 3a3d
000003e0: cf7e 28bd 833b 0d3d 19f3 983d cabc 6f3d
000003f0: 6c29 b1bd 1f00 e4bd 2691 e13b 34b6 38bd

classfier.fc2.bias f4 [50]
-8.198511e-06 -1.4845758e-06 -3.988175e-06 -5.5222063e-06 -3.3572294e-06 6.4171745e-06 -3.7147877e-06 -9.067396e-06
2.1573396e-06 2.054901e-07 2.9251219e-06 -4.3760764e-07 3.5331275e-06 -2.0429195e-06 9.810454e-06 1.1590246e-05
1.558845e-06 1.2010563e-05 1.368442e-06 -8.284335e-06 1.5173598e-06 3.066994e-06 2.0071494e-07 2.0785267e-06
-4.8902443e-06 -3.9946135e-06 -2.573292e-06 -1.1177729e-05 -1.2190872e-06 5.9650415e-07 1.5672556e-06 1.8128324e-07
-1.0652099e-05 -4.0693976e-06 -1.3252578e-05 -7.629255e-07 1.572939e-05 1.2444873e-07 -2.246779e-07 -3.7619952e-07
5.134431e-07 -9.30601e-06 -8.8569195e-08 4.02227e-06 4.4377184e-06 -3.372787e-05 -4.2913925e-07 4.278706e-06
9.171205e-07 -3.0533743e-06
00000000: 568c 09b7 a341 c7b5 2ad2 85b6 644b b9b6
00000010: c34c 61b6 1c53 d736 914b 79b6 2b20 18b7
00000020: d0c6 1036 b0a4 5c34 364d 4436 56f0 eab4
00000030: ab1a 6d36 1719 09b6 9497 2437 ba73 4237
00000040: 8239 d135 fa80 4937 4fab b735 f3fc 0ab7
00000050: 16a8 cb35 8ed2 4d36 1a84 5734 d17c 0b36
00000060: e116 a4b6 7809 86b6 d2b0 2cb6 fb87 3bb7
00000070: 849f a3b5 741f 2035 7e5a d235 c2a6 4234
00000080: 6bb6 32b7 dc8b 88b6 6457 5eb7 d7cb 4cb5
00000090: 9cf2 8337 35a0 0534 fe3e 71b4 78f8 c9b4
000000a0: 8bd3 0935 0221 1cb7 6e33 beb3 09f7 8636
000000b0: b6e7 9436 0677 0db8 7364 e6b4 ce91 8f36
000000c0: 0a30 7635 92e8 4cb6

classfier.bn2.weight f4 [50]
0.94655085 0.90254533 0.9970639 0.9602098 1.0348428 0.9240387 0.9221499 0.93605274
0.9355294 0.94427836 0.95261 0.9282833 0.916555 0.9774975 0.98581964 0.98840165
0.8921599 1.0578835 0.9638864 0.96218926 1.033935 0.9579602 0.9939239 1.0226755
0.9963078 0.9574789 1.1526453 1.0122212 0.9280684 0.91229194 0.9877164 0.9992571
0.93856263 0.9869959 0.94024736 1.0701913 0.84066606 0.91656965 1.0042578 0.87787384
0.91439706 0.98013294 1.0044252 1.0081522 1.0147065 1.1482847 0.9563344 0.89238864
1.0218273 1.0372076
00000000: 2851 723f 360d 673f 943f 7f3f 4fd0 753f
00000010: bb75 843f cd8d 6c3f 0412 6c3f 27a1 6f3f
00000020: db7e 6f3f 3abc 713f 40de 733f f9a3 6d3f
00000030: 59a3 6a3f 473d 7a3f ad5e 7c3f e407 7d3f
00000040: 9764 643f ba68 873f 42c1 763f 0952 763f
00000050: fb57 843f e13c 753f cc71 7e3f 08e7 823f
00000060: 070e 7f3f 561d 753f e289 933f 7790 813f
00000070: e495 6d3f f78b 693f fbda 7c3f 50cf 7f3f
00000080: a445 703f c3ab 7c3f 0db4 703f 07fc 883f
00000090: e435 573f 4fa4 6a3f 858b 803f 57bc 603f
000000a0: ed15 6a3f fee9 7a3f 0191 803f 220b 813f
000000b0: e7e1 813f fefa 923f 55d2 743f 9573 643f
000000c0: 3dcb 823f 38c3 843f

classfier.bn2.bias f4 [50]
-0.1627861 -0.13127719 0.0051671583 -0.33090138 -0.0157637 -0.20576416 -0.1700398 -0.10286326
-0.07203092 -0.25481278 -0.26199427 -0.13773751 -0.118628696 0.008263045 -0.21600509 -0.049890082
-0.056256097 0.0011136795 -0.09347745 -0.2511362 -0.2309699 -0.21376565 -0.043758173 -0.26016384
-0.06722782 -0.20492418 -0.017218163 -0.16670771 -0.019623587 -0.035119515 -0.057324048 0.0780202
-0.1251473 0.081447065 -0.27246037 -0.08513029 -0.15240449 -0.056245156 0.009024243 -0.08581762
0.048571654 -0.24066181 0.024880603 -0.2759518 -0.3047405 -0.006051527 -0.12359885 -0.14279419
-0.114866525 -0.23282084
00000000: 66b1 26be 876d 06be 4451 a93b e86b a9be
00000010: e022 81bc d7b3 52be ea1e 2ebe f9a9 d2bd
00000020: f284 93bd d276 82be 1d24 86be 100b 0dbe
00000030: 9af3 f2bd b961 073c 7030 5dbe 8b59 4cbd
00000040: cb6c 66bd e2f8 913a 1b71 bfbd ed94 80be
00000050: 6083 6cbe 62e5 5abe c53b 33bd 3234 85be
00000060: bdae 89bd a5d7 51be 1b0d 8dbc 6db5 2abe
00000070: a5c1 a0bc 7bd9 0fbd 9fcc 6abd 0ec9 9f3d
00000080: 9d26 00be b8cd a63d ed7f 8bbe ca58 aebd
00000090: ec0f 1cbe 5261 66bd 6bda 133c 26c1 afbd
000000a0: 12f3 463d 0d70 76be 68d2 cb3c 8e49 8dbe
000000b0: f206 9cbe e34b c6bb 6521 fdbd a438 12be
000000c0: 243f ebbd 9668 6ebe

classfier.bn2.running_mean f4 [50]
0.17095375 0.652573 -0.20864104 -0.05732735 0.22034949 0.16825476 0.1991264 -0.48025537
0.26847258 0.17060979 -0.068113334 -0.21079946 -0.14646493 -0.39510363 0.2986305 -0.49303043
-0.35288155 -0.40897173 -0.3186115 0.17432038 0.45352125 0.2660727 -0.5194251 -0.082477294
-0.84881026 0.55720055 -0.6584869 0.43910274 -0.6094344 -0.53419244 0.14876354 -0.6439551
0.68102294 -0.5423409 0.31375965 0.14496036 0.2886787 -0.6419706 -0.7049027 0.2017457
-0.39408547 0.32435364 -0.7963542 0.017329166 0.0016991661 -0.064501286 -0.23518974 0.43617344
-0.04853632 -0.0020591973
00000000: 800e 2f3e 060f 273f ffa5 55be 15d0 6abd
00000010: 4ca3 613e fa4a 2c3e cae7 4b3e 08e4 f5be
00000020: 3d75 893e 55b4 2e3e 017f 8bbd d0db 57be
00000030: e7fa 15be 064b cabe 19e6 983e 7c6e fcbe
00000040: e4ac b4be be64 d1be 0c21 a3be 0b81 323e
00000050: f033 e83e ae3a 883e 0bf9 04bf dbe9 a8bd
00000060: a14b 59bf b2a4 0e3f 9992 28bf 13d2 e03e
00000070: e503 1cbf d6c0 08bf 7855 183e 3eda 24bf
00000080: 8557 2e3f dad6 0abf 1ba5 a03e 7d70 143e
00000090: b2cd 933e 2f58 24bf 8174 34bf 6d96 4e3e
000000a0: 92c5 c9be ae11 a63e dedd 4bbf e5f5 8d3c
000000b0: 8eb6 de3a 4019 84bd 94d5 70be 2052 df3e
000000c0: 05ce 46bd 99f3 06bb

classfier.bn2.running_var f4 [50]
0.4071593 0.44855502 0.35969254 0.51925665 0.56028455 0.4708909 0.5166634 0.33397824
0.31229538 0.4282907 0.51019955 0.31057256 0.19908911 0.5547698 0.48052934 0.3152402
0.27077267 0.32749847 0.43440953 0.4985089 0.46256042 0.50590014 0.38643008 0.7115747
0.47873774 0.5729309 0.38307893 0.5487974 0.4255191 0.39450195 0.40745696 0.6466
0.24929526 0.4044008 0.5306437 0.46996698 0.17911117 0.5870201 0.81867784 0.64706105
0.35164538 0.52471507 0.92605025 0.5634645 0.6932017 0.40224138 0.3797029 0.22312705
0.23919198 0.43389803
00000000: 2f77 d03e 01a9 e53e 9f29 b83e 01ee 043f
00000010: cf6e 0f3f 9d18 f13e 0d44 043f 32ff aa3e
00000020: 2ee5 9f3e eb48 db3e 709c 023f 5e03 9f3e
00000030: 04de 4b3e 6505 0e3f f107 f63e 2a67 a13e
00000040: b7a2 8a3e e1ad a73e ed6a de3e 8f3c ff3e
00000050: b8d4 ec3e ac82 013f 2ada c53e c229 363f
00000060: 1d1d f53e 99ab 123f ec22 c43e fd7d 0c3f
00000070: a4dd d93e 29fc c93e 339e d03e 9487 253f
00000080: 4247 7f3e 9f0d cf3e 44d8 073f 839f f03e
00000090: eb68 373e f346 163f df94 513f cba5 253f
000000a0: dd0a b43e ba53 063f a111 6d3f 363f 103f
000000b0: ab75 313f 95f2 cd3e 6b68 c23e 6b7b 643e
000000c0: beee 743e e227 de3e

classfier.fc3.weight f4 [25, 50]
-0.03954613 0.10541534 -0.049724348 0.028124075 -0.064007856 0.16764024 0.13210398 0.030370366
0.029546145 0.13407463 0.10098314 0.035884574 0.085077204 0.034816485 0.09062392 0.011124231
-0.070654966 -0.038282048 0.047671393 0.14597365 0.14250068 0.08954614 -0.039166305 0.0092047425
0.0017947279 0.14097938 -0.055932257 0.04329218 -0.045356058 -0.09573902 0.006368655 -0.047051776
0.058068436 -0.023284588 0.08315816 -0.010391964 -0.10404887 -0.018481081 -0.07941435 0.012057009
-0.090983346 0.1285041 0.05874723 0.17468272 0.0886486 -0.06962172 0.051450536 -0.038822662
-0.04146232 0.1496284 -0.13749632 -0.02753415 -0.113993555 -0.10394431 -0.031134203 -0.06602901
-0.000104999206 -0.119356 -0.033811387 -0.0975192 -0.11441887 -0.030791378 -0.06118837 0.012110908
-0.03612972 -0.102922454 0.05203876 -0.2764975 0.0113518005 -0.06615211 -0.09406184 -0.020400861
-0.15047994 -0.038270332 0.014157126 -0.07166213 0.027632391 -0.051414847 0.16055894 -0.14260413
-0.027029743 0.068712875 -0.068188325 -0.2486016 -0.0978737 0.0114018 0.010616478 0.07557709
0.079538636 -0.07552927 -0.046253376 -0.078781255 0.018773297 -0.08324916 -0.11547238 0.015747687
0.018323578 -0.06408741 -0.00095213455 -0.08305158 -0.008973714 -0.0038208205 0.008260461 -0.093859844
-0.070756555 -0.07934129 -0.06798779 0.01886618 0.01172789 -0.005375158 -0.06813851 -0.012239446
-0.023662414 -0.08832848 -0.04567254 0.024367208 0.027961787 0.026409177 0.06335144 -0.07027992
-0.031529643 -0.055466875 0.019107424 -0.0737135 -0.012217136 -0.06571309 0.04712993 -0.044243388
-0.02520673 0.01989008 -0.13133113 0.01585861 0.007718628 0.011591637 -0.08664824 -0.21808276
-0.0020725317 0.0067718183 -0.26501688 -0.012988264 0.027147798 -0.07039832 -0.029818598 -0.028412372
-0.060713965 -0.31817758 0.061748665 -0.0057000467 0.024881875 -0.04727623 -0.11048763 0.01438431
-0.107133016 -0.13715751 0.014026579 0.0010678103 -0.074211545 -0.09144933 -0.012551969 -0.094925135
-0.04443102 -0.055940084 -0.0632624 0.037866708 -0.06754555 -0.1329103 0.016504893 0.050943736
-0.010727902 -0.025070913 -0.07675929 -0.044034496 -0.10097762 -0.052394673 0.16395941 -0.076177314
0.11565313 -0.0679408 0.14363003 -0.1225457 0.016226135 -0.14264415 -0.08798603 -0.2821049
-0.08590982 0.020230934 -0.049663454 0.07955302 0.11754716 -0.076079845 -0.023937838 -0.066696145
0.08061116 -0.09951225 -0.07892592 -0.00028499807 0.07711959 -0.05941338 0.06354209 -0.012088537
-0.018862797 -0.018740237 0.0033964142 -0.10190508 -0.13693796 -0.06889207 -0.04543259 -0.0002311501
0.012637758 -0.08008555 -0.07962581 -0.0276827 -0.0096458 -0.114038035 -0.04316109 0.029562231
0.033721127 0.04871465 -0.1340197 -0.08710138 -0.06246705 -0.09725783 0.053275175 -0.08156755
0.11920626 -0.038084857 0.05794939 -0.064013205 -0.072465084 -0.017443426 -0.14084136 0.064124525
-0.008290548 0.035949796 -0.08155962 -0.19102125 0.0033037704 -0.120085046 -0.20256995 -0.0003056868
0.01529243 -0.07138874 -0.18615097 -0.010761437 -0.06714449 -0.20101991 -0.11205647 -0.014865406
0.025253205 -0.013805096 0.029913902 -0.102183804 -0.090008155 0.07764775 0.01634429 0.031921737
00000000: 1ffb 21bd ffe3 d73d c2ab 4bbd 7664 e63c
00000010: 8d16 83bd e2a9 2b3e 4446 073e 46cb f83c
00000020: c20a f23c dc4a 093e 40d0 ce3d b4fb 123d
00000030: f53c ae3d bb9b 0e3d 0999 b93d 6842 363c
00000040: 8db3 90bd a3cd 1cbd 1443 433d 1e7a 153e
00000050: b3eb 113e f763 b73d d96c 20bd 7dcf 163c
00000060: 133d eb3a e65c 103e 3919 65bd 2453 313d
00000070: 46c7 39bd d212 c4bd 26b0 d03b 5db9 40bd
00000080: 2bd9 6d3d 52bf bebc d34e aa3d 0e43 2abc
00000090: 9317 d5bd a365 97bc fea3 a2bd c38a 453c
000000a0: 7a55 babd 9496 033e efa0 703d 07e0 323e
000000b0: 668d b53d d595 8ebd ccbd 523d 8304 1fbd
000000c0: 65d4 29bd 3038 193e d6cb 0cbe 4c8f e1bc
000000d0: 7475 e9bd c1e0 d4bd 280d ffbc 383a 87bd
000000e0: 0533 dcb8 eb70 f4bd cf7d 0abd 25b8 c7bd
000000f0: 7154 eabd 333e fcbc a8a0 7abd d46c 463c
00000100: c2fc 13bd 02c9 d2bd 9826 553d 1591 8dbe
00000110: e7fc 393c c27a 87bd 7ea3 c0bd b51f a7bc
00000120: 6a17 1abe 5ac1 1cbd 4af3 673c 98c3 92bd
00000130: 535d e23c 6098 52bd 9069 243e d106 12be
00000140: 7b6d ddbc 56b9 8c3d 52a6 8bbd 6b91 7ebe
00000150: 0272 c8bd 9ece 3a3c bcf0 2d3c 29c8 9a3d
00000160: 27e5 a23d 17af 9abd 2e74 3dbd 1158 a1bd
00000170: 75ca 993c 897e aabd c87c ecbd 4b01 813c
00000180: 541b 963c 4340 83bd ab98 79ba f216 aabd
00000190: 7c06 13bc bb66 7abb e256 073c 9739 c0bd
000001a0: d0e8 90bd b07d a2bd 2f3d 8bbd 3f8d 9a3c
000001b0: 5626 403c 1822 b0bb 348c 8bbd f587 48bc
000001c0: aed7 c1bc 90e5 b4bd 2113 3bbd bd9d c73c
000001d0: 1e10 e53c 0f58 d83c 66be 813d ebee 8fbd
000001e0: 3a25 01bd 3c31 63bd 2c87 9c3c 1af7 96bd
000001f0: 622a 48bc 9694 86bd 500b 413d 8e38 35bd
00000200: 587e cebc 85f0 a23c ab7b 06be eae9 813c
00000210: 8bec fc3b d9ea 3d3c a274 b1bd 1651 5fbe
00000220: 50d3 07bb 21e6 dd3b 4bb0 87be bacc 54bc
00000230: 0f65 de3c ff2c 90bd 2246 f4bc 10c1 e8bc
00000240: 35af 78bd 2ce8 a2be 2bec 7c3d 75c7 babb
00000250: 13d5 cb3c b8a4 41bd 5747 e2bd 2bac 6b3c
00000260: 8e68 dbbd 0573 0cbe bdcf 653c c5f5 8b3a
00000270: 39fc 97bd c949 bbbd c6a6 4dbc 1c68 c2bd
00000280: 4dfd 35bd 6e21 65bd b88f 81bd 1f1a 1b3d
00000290: 5255 8abd a319 08be 4535 873c 61aa 503d
000002a0: 15c4 2fbc 8461 cdbc fa33 9dbd 845d 34bd
000002b0: 5bcd cebd cc9b 56bd fae4 273e da02 9cbd
000002c0: 8cdb ec3d 8c24 8bbd c013 133e 3df9 fabd
000002d0: acec 843c 4f11 12be 0532 b4bd 0e70 90be
000002e0: 7df1 afbd 58bb a53c e86b 4bbd b2ec a23d
000002f0: 91bc f03d c0cf 9bbd 4919 c4bc fd97 88bd
00000300: 7717 a53d 14cd cbbd eaa3 a1bd cb6b 95b9
00000310: e0f0 9d3d 725b 73bd 5b22 823d 000f 46bc
00000320: 2786 9abc 2085 99bc 6096 5e3b 9cb3 d0bd
00000330: 7739 0cbe 4917 8dbd 8617 3abd e260 72b9
00000340: 990e 4f3c e503 a4bd db12 a3bd d4c6 e2bc
00000350: 6b09 1ebc c68c e9bd afc9 30bd 7e2c f23c
00000360: 2a1f 0a3d 0389 473d 763c 09be 3562 b2bd
00000370: 73dd 7fbd 1d2f c7bd 1237 5a3d e30c a7bd
00000380: 6922 f43d defe 1bbd 575c 6d3d 5b19 83bd
00000390: 9368 94bd 84e5 8ebc b838 10be b853 833d
000003a0: 14d5 07bc 1840 133d bb08 a7bd 139b 43be
000003b0: 1284 583b 26ef f5bd 7f6e 4fbe 9644 a0b9
000003c0: 1a8d 7a3c 4234 92bd 5c9e 3ebe bd50 30bc
000003d0: 0d83 89bd 2ad8 4dbe dd7d e5bd 088e 73bc
000003e0: cfdf ce3c c52e 62bc 000e f53c be45 d1bd
000003f0: 3256 b8bd c905 9f3d 76e4 853c 5ec0 023d

classfier.fc3.bias f4 [25]
-1.6807729e-06 3.4487322e-05 -1.2893995e-05 4.4105273e-05 -1.38412925e-05 3.2064153e-07 0.00021017603 6.3734046e-07
-4.768346e-06 -1.5290807e-05 -2.1534623e-05 -5.6870285e-06 1.978137e-06 5.9178105e-06 1.6398305e-06 1.8672683e-06
9.450463e-07 1.951856e-06 -3.1821688e-05 -5.5467494e-06 -7.802578e-05 8.390761e-07 8.1098693e-07 3.5246638e-05
-7.3717197e-06
00000000: eb96 e1b5 7ba6 1038 4953 58b7 adfd 3838
00000010: e637 68b7 a324 ac34 b362 5c39 b415 2b35
00000020: c8ff 9fb6 c244 80b7 40a5 b4b7 34d3 beb6
00000030: 23c0 0436 9b91 c636 2618 dc35 da9e fa35
00000040: 16af 7d35 a1fc 0236 4778 05b8 371e bab6
00000050: c6a1 a3b8 df3c 6135 99b2 5935 cad5 1338
00000060: 975a f7b6

classfier.bn3.weight f4 [25]
1.0559105 1.3257797 1.3739934 1.2927612 1.2892745 1.0003439 1.359824 1.0850621
1.2697424 1.2469115 1.2596228 1.0912284 1.1258267 1.2991629 1.0778738 1.1265575
1.1121646 1.1045966 1.2410302 1.2957622 1.1568071 1.128221 1.2882378 1.3525748
1.2541556
00000000: 1328 873f 26b3 a93f 04df af3f 3379 a53f
00000010: f206 a53f 450b 803f b60e ae3f 51e3 8a3f
00000020: eb86 a23f cc9a 9f3f 523b a13f 5fad 8b3f
00000030: 171b 903f f84a a63f c5f7 893f 0933 903f
00000040: 695b 8e3f 6c63 8d3f 14da 9e3f 89db a53f
00000050: 4112 943f 8c69 903f fae4 a43f 2c21 ad3f
00000060: 2c88 a03f

classfier.bn3.bias f4 [25]
-0.03710538 0.3152381 0.3654272 0.29005757 0.27352664 -0.046551157 0.35413638 -0.03952708
0.25660357 0.25246915 0.25189063 -0.03705328 -0.017945781 0.31087363 -0.036106646 -0.0255389
-0.03035753 -0.035474673 0.24953033 0.3142756 0.009700532 -0.0007610002 0.29156163 0.3484507
0.24817309
00000000: d0fb 17bd e366 a13e 4619 bb3e 6d82 943e
00000010: af0b 8c3e 6dac 3ebd 5d51 b53e 26e7 21bd
00000020: 8b61 833e a343 813e cff7 803e 2ec5 17bd
00000030: 0803 93bc d42a 9f3e 90e4 13bd f536 d1bc
00000040: 5bb0 f8bc e44d 11bd e184 7f3e bbe8 a03e
00000050: fbee 1e3c dc7d 47ba 9147 953e 2168 b23e
00000060: 1621 7e3e

classfier.bn3.running_mean f4 [25]
0.285725 -0.70737493 -0.5569004 -0.43410963 -0.6881244 0.15420985 -0.60717225 0.21876681
-0.5926055 -0.48033834 -0.5654193 0.32841107 0.16118912 -0.61261857 0.29336366 0.37318274
0.20879687 0.27273735 -0.7616599 -0.49079004 0.2542888 0.25197762 -0.5958905 -0.43334404
-0.45915738
00000000: 8c4a 923e 8616 35bf 0691 0ebf 9e43 debe
00000010: ec28 30bf 30e9 1d3e a46f 1bbf 6804 603e
00000020: feb4 17bf e8ee f5be 52bf 10bf 7f25 a83e
00000030: c30e 253e 92d4 1cbf c333 963e cf11 bf3e
00000040: d9ce 553e 3ba4 8b3e 25fc 42bf d548 fbbe
00000050: 2432 823e 3603 813e 488c 18bf 45df ddbe
00000060: ad16 ebbe

classfier.bn3.running_var f4 [25]
1.2978593 0.825756 0.6559263 0.7544119 0.9398195 0.9252418 0.9575791 1.1277581
0.9533941 1.145472 0.50948435 1.2654048 1.1222272 0.87312454 1.0104725 1.2009228
1.022288 1.2361087 0.9746914 1.2434063 1.2256173 1.0939307 0.68204457 0.7368258
1.1022854
00000000: 4120 a63f bf64 533f c9ea 273f 2321 413f
00000010: 0398 703f a6dc 6c3f e723 753f 615a 903f
00000020: a311 743f d49e 923f 916d 023f c9f8 a13f
00000030: 24a5 8f3f 1785 5f3f 2a57 813f d7b7 993f
00000040: 55da 823f cf38 9e3f 6085 793f f027 9f3f
00000050: 07e1 9c3f ec05 8c3f 799a 2e3f 9ea0 3c3f
00000060: b017 8d3f

classfier.fc5.weight f4 [1, 25]
0.21514839 -0.2756423 -0.25666273 -0.2959951 -0.32301834 0.06662972 -0.25827223 0.23836271
-0.35328028 -0.40678808 -0.37438682 0.22403413 0.119523406 -0.2972996 0.24190356 0.259243
0.14818992 0.22150773 -0.3997776 -0.20776668 0.12929763 0.10602479 -0.3016083 -0.24235533
-0.3918725
00000000: dc4f 5c3e fd20 8dbe 4c69 83be ab8c 97be
00000010: a962 a5be 2a75 883d 423c 84be 5b15 743e
00000020: 27e1 b4be 8746 d0be a1af bfbe 3469 653e
00000030: b0c8 f43d a737 98be 91b5 773e 80bb 843e
00000040: 19bf 173e ecd2 623e a6af ccbe cac0 54be
00000050: 9966 043e 8623 d93d 676c 9abe ff2b 78be
00000060: 83a3 c8be
