trained_models/2025-06-23/run_18-28-30/dnn_model_fold_3.pt (torch, 90945 bytes, 19 tensors)

classfier.fc1.weight f4 [100, 100]
0	0xbd9692ad	-0.07352195
1	0x3dcdcd16	0.10048883
2	0x3d114028	0.035461575
3	0x3c386b4e	0.011256052
4	0xbd6db8c1	-0.058037523
5	0x3d26fce2	0.04076851
6	0x3c816509	0.015795248
7	0x3cef3ac1	0.02920282
8	0xbd8e831d	-0.069586016
9	0x3d94821f	0.07251381
10	0x3bea0b27	0.0071424427
11	0xbdad7e61	-0.084713705
12	0xbd8cec16	-0.06880967
13	0x3da58674	0.080822855
14	0x3be49eae	0.006976924
15	0xbda7a2e0	-0.08185363
16	0x3d099c8c	0.03359656
17	0x3a015da0	0.00049349107
18	0xbde1b152	-0.11020149
19	0x3d2c4e73	0.042067003
20	0x3db8be4f	0.090206735
21	0x3aef68cf	0.0018265488
22	0xbc90ca02	-0.01767445
23	0x3d834691	0.06409944
24	0xbda6cf43	-0.08145001
25	0xbc240bd1	-0.010012583
26	0xbb91f5b8	-0.004454341
27	0x3d2c6089	0.04208425
28	0xbd21ecd9	-0.039532516
29	0xbc28b155	-0.0102961855
30	0xbd598c05	-0.05311205
31	0x3b886058	0.0041618757
32	0x3d720842	0.059089907
33	0x3cabc42f	0.020967571
34	0xbe02f395	-0.12788232
35	0xbc2c410e	-0.010513557
36	0xbd11ad75	-0.035565812
37	0xbdb4450d	-0.08802233
38	0xbc237023	-0.009975466
39	0x3d03b130	0.0321514
40	0xbcb22f91	-0.021751197
41	0xbe457f92	-0.19286945
42	0xbc95d6b3	-0.018290853
43	0xbc864507	-0.016390337
44	0x3dc436de	0.095807776
45	0x3b471cbb	0.0030382115
46	0xbc891fec	-0.016738854
47	0x3caef639	0.021357642
48	0xbd551738	-0.052024096
49	0x3dbd5939	0.092455335
50	0xbc9bc9ff	-0.019017218
51	0xbc6a127a	-0.014286632
52	0xbcb1add6	-0.021689337
53	0x3e333b50	0.17503095
54	0xbd61b8ee	-0.055108003
55	0x3d6285f0	0.055303514
56	0xbda10d61	-0.0786388
57	0xbbfbe3f2	-0.0076870853
58	0xbdfbb822	-0.1229098
59	0x3e2e7a2d	0.17038794
60	0xbc8dd787	-0.017314686
61	0x3c1a3083	0.00941098
62	0x3c862d88	0.016379133
63	0xbd2be37b	-0.04196499
64	0x3cf7bbd4	0.03024093
65	0x3dc1201f	0.09429955
66	0x3d66787c	0.056267247
67	0x3e048218	0.12940252
68	0xbc51d695	-0.012807508
69	0x3deaaacd	0.11458359
70	0xbdc571bc	-0.09640834
71	0x3caa6f17	0.020804925
72	0xbce96ca9	-0.028494196
73	0xbca8b186	-0.020592462
74	0x3c84f25f	0.016228853
75	0xbd8406fb	-0.06446644
76	0x3d542e19	0.051801775
77	0x3e0f02aa	0.1396586
78	0xbd3bfee4	-0.04589738
79	0x3ba01cb2	0.0048862332
80	0x3cb4ea1c	0.022084288
81	0x3d10f85e	0.03539311
82	0x3c3620c3	0.011116209
83	0xbc114011	-0.008865372
84	0x39af8c4a	0.00033483125
85	0xbcf16454	-0.029466785
86	0xbda9dbeb	-0.08293899
87	0xbd0fa239	-0.035066817
88	0x3d2d4ecf	0.042311486
89	0x3d91f374	0.07126513
90	0x3dc4c1d3	0.096072815
91	0xbd32ffdd	-0.04370104
92	0xbdb8fdcb	-0.09032782
93	0x3da0cbe0	0.07851386
94	0x3d0b5daf	0.03402489
95	0xbda260ab	-0.07928594
96	0xbd2a17e9	-0.04152671
97	0x3d21aa96	0.039469324
98	0x3c5c1ca9	0.0134345675
99	0xbd50b52e	-0.050954036
100	0xbd77cb1b	-0.06049643
101	0x3e136837	0.14395224
102	0x3d35f8be	0.044426672
103	0x3d32f04c	0.043686196
104	0x3d3dfde9	0.046384726
105	0x3de478d1	0.111558564
106	0x3cc69d57	0.024244947
107	0xbdc68e07	-0.09695058
108	0x3d78c56b	0.060735147
109	0xbd831364	-0.06400183
110	0xbd144849	-0.03620175
111	0x3de1e19b	0.11029359
112	0x3cfcdafc	0.030866139
113	0x3d68e3e5	0.056857962
114	0xbcf95b79	-0.030439125
115	0x3d347da6	0.04406514
116	0xbdc488fe	-0.09596442
117	0xbd0bb83d	-0.03411125
118	0xbdac99ee	-0.08427797
119	0xbc4df0af	-0.0125695905
120	0x3d9e6d76	0.07735722
121	0xbd938673	-0.072033785
122	0xbc1a67a6	-0.009424126
123	0xbc5f5c17	-0.013632796
124	0xbcf3c0f1	-0.029755088
125	0x3d8708e8	0.065934956
126	0xbdcf69a9	-0.10127575
127	0xbd3c2d6a	-0.045941748
128	0xbd0408c0	-0.032234907
129	0xbddaf69c	-0.10691568
130	0xbbc413f6	-0.005983825
131	0xbd8e8cb7	-0.06960433
132	0xbd57365b	-0.05254207
133	0xbd8c6511	-0.068552144
134	0xbdb9c997	-0.09071653
135	0xbdc650e1	-0.09683395
136	0x3a9104e4	0.001106408
137	0x3df22414	0.118232876
138	0x3d25cf7f	0.040481087
139	0x3d9efe7c	0.07763383
140	0x3da211ce	0.07913552
141	0x3ddcff3a	0.10790868
142	0x3d96bb97	0.07359999
143	0x3d6019ae	0.05471199
144	0xbdd5ac0c	-0.10433206
145	0x3c86d9f0	0.016461343
146	0x3c0a2108	0.008430727
147	0xbd4b248a	-0.049595393
148	0xbc6c7a55	-0.014433463
149	0xbd30da99	-0.04317722
150	0x3d9ec481	0.07752324
151	0x3d71556a	0.058919348
152	0xbc99b95d	-0.018765146
153	0x3d3845b0	0.044988334
154	0x3c95d42d	0.01828965
155	0xbd437902	-0.047722824
156	0xbd105258	-0.03523478
157	0x3d946c85	0.07247261
158	0x3d38d9e2	0.045129664
159	0x3d887860	0.06663585
160	0xbd916d40	-0.07100916
161	0x3d0ae02c	0.033905193
162	0xbc50b311	-0.012738005
163	0x3c9bc089	0.019012706
164	0xbd9a18da	-0.07524271
165	0xbc959a51	-0.01826206
166	0xbd9397d4	-0.07206693
167	0x3d66e737	0.056372847
168	0xbcf0e7d4	-0.02940742
169	0xbcaeee82	-0.021353964
170	0x3caf5173	0.021401143
171	0xbda8f91a	-0.08250637
172	0xbcfc85bc	-0.030825488
173	0x3cff2409	0.031145113
174	0x3dd926f9	0.106031366
175	0xbd4cdbbc	-0.050014243
176	0x3da181d5	0.078860916
177	0x3db5b306	0.08872037
178	0x3da51ef9	0.08062548
179	0x3de1d8ca	0.11027677
180	0x3d9a1f00	0.07525444
181	0x3d298e3d	0.041395415
182	0xbd8a02d1	-0.067388184
183	0xbcb7099a	-0.022343446
184	0x3d1f9bae	0.038966827
185	0xbd57de24	-0.052702084
186	0x3c93bc64	0.018034168
187	0x3bb7300a	0.0055904435
188	0x3c6bd5fa	0.014394278
189	0xbc6c778e	-0.014432801
190	0x3dacebf3	0.08443441
191	0xbde5d428	-0.11222106
192	0xbc9b3c52	-0.018949661
193	0x3c130cd8	0.00897523
194	0xbdce9da9	-0.10088665
195	0xbc0c35ae	-0.00855772
196	0xbd9b8928	-0.0759452
197	0xbd1b0830	-0.037849605
198	0xbd242987	-0.040078666
199	0xbbfd6538	-0.0077330135
200	0xbd7c66ab	-0.06162135
201	0x3d54ee8d	0.051985312
202	0x3d4ae73f	0.04953694
203	0x3c8eee60	0.01744765
204	0x3dc149c9	0.094379015
205	0x3da02b2e	0.07820736
206	0xbd906ee1	-0.070523985
207	0xbdcb2dcd	-0.09920845
208	0xbdd7c29d	-0.105351664
209	0x3dd71adf	0.10503172
210	0x3ca1fbe5	0.019773433
211	0x3da9a58b	0.08283528
212	0x3cb8d3c4	0.022561915
213	0xbdc61f93	-0.09673991
214	0xbda224cf	-0.07917177
215	0xbd07c47d	-0.03314637
216	0xba9c9418	-0.0011945991
217	0xbd5bbbc8	-0.05364588
218	0x3c02654f	0.007958724
219	0xb849cf7d	-4.8115373e-05
220	0xbd593a33	-0.05303402
221	0xbd9a553f	-0.07535791
222	0xbd5e860d	-0.05432706
223	0xbdc6c233	-0.09705009
224	0x3d31702e	0.043319874
225	0xbd9b1116	-0.07571618
226	0xbdc60a09	-0.09669883
227	0x3d9a077f	0.07520961
228	0x3d8a519a	0.067538455
229	0xbd65f8a8	-0.05614534
230	0xbd795fbd	-0.06088232
231	0x3cfa3c99	0.030546473
232	0xbcdcf5da	-0.0269727
233	0x3cdb1693	0.026744163
234	0xbdf57266	-0.119847104
235	0x3d4fddc6	0.05074861
236	0x3db21516	0.08695428
237	0x3d4769a8	0.048684746
238	0xbd7114a2	-0.058857568
239	0x3d161119	0.0366374
240	0x3cff3411	0.031152757
241	0x3d8e9abe	0.069631085
242	0x3d78db87	0.060756233
243	0xbca4b38b	-0.020105144
244	0xbdc2339c	-0.094825
245	0xbc9de51a	-0.019274283
246	0xbc98f84b	-0.018673083
247	0x3dae75e0	0.085185766
248	0xbdcb870c	-0.099378675
249	0x3cabaeee	0.020957436
250	0x3cfaab08	0.030599132
251	0x3da5a963	0.080889486
252	0xbbb4d783	-0.005518855
253	0x3c8f8168	0.01751776
254	0xbd067c87	-0.032833602
255	0xbd3246d2	-0.04352457

classfier.fc1.bias f4 [100]
0	0x384c43a3	4.870038e-05
1	0x37817965	1.5434527e-05
2	0xb703e194	-7.86073e-06
3	0xb79eee76	-1.894611e-05
4	0xb81a0671	-3.672246e-05
5	0x397e984e	0.00024280066
6	0x35cf99a2	1.5467415e-06
7	0xb723a3b4	-9.753672e-06
8	0xb8a9313e	-8.06772e-05
9	0xb8672974	-5.5113298e-05
10	0x378c6541	1.673645e-05
11	0x379e3d23	1.8863537e-05
12	0xb8166a6d	-3.5861904e-05
13	0xb82d76d4	-4.135708e-05
14	0x351b2d60	5.780803e-07
15	0x37a73a86	1.9935203e-05
16	0x397d551b	0.00024159664
17	0x37421b9f	1.1569732e-05
18	0xb71c3a43	-9.31189e-06
19	0x3803c109	3.1412612e-05
20	0xb886d74d	-6.429721e-05
21	0x3806a0f7	3.2098e-05
22	0x382d5daa	4.1333646e-05
23	0xb717e53f	-9.053677e-06
24	0xb75138c2	-1.2470586e-05
25	0xb8301e13	-4.198968e-05
26	0x37378d02	1.0940481e-05
27	0x3985d5b0	0.00025526946
28	0xb80b5653	-3.322058e-05
29	0x37e7efd4	2.7649025e-05
30	0x37c42398	2.3381595e-05
31	0x36d991af	6.4840638e-06
32	0xb66e2e85	-3.5491842e-06
33	0x3826b46e	3.9745522e-05
34	0x34c3e394	3.6487165e-07
35	0xb7d530b3	-2.5414256e-05
36	0xb68b2b10	-4.147536e-06
37	0x33e4c170	1.06522634e-07
38	0xb7b813ed	-2.1943788e-05
39	0xb609b0d2	-2.0517514e-06
40	0x37948047	1.7702709e-05
41	0x3804aa1f	3.162969e-05
42	0x37b0efde	2.1092532e-05
43	0xb839a41e	-4.4260283e-05
44	0x348e81c8	2.654399e-07
45	0xb8114eb4	-3.4643992e-05
46	0x38863ed5	6.401321e-05
47	0xb713f1cf	-8.818183e-06
48	0x36ffbb08	7.6213655e-06
49	0x38503692	4.9641887e-05
50	0xb6db29b8	-6.5315653e-06
51	0x37794e46	1.4859781e-05
52	0x37d87ee9	2.5808304e-05
53	0xb3edd580	-1.1075008e-07
54	0xb90237bb	-0.00012418527
55	0x366aa83f	3.496665e-06
56	0x371fbacc	9.520631e-06
57	0x37a6d084	1.988584e-05
58	0x387bb137	6.0008108e-05
59	0xb999b3da	-0.00029316434
60	0xb60a46ed	-2.0604887e-06
61	0xb8ac707f	-8.222553e-05
62	0xb6ffb516	-7.6206734e-06
63	0x3850ad59	4.9752507e-05
64	0xb7496370	-1.2003686e-05
65	0xb78ce23f	-1.6794655e-05
66	0xb8ad153a	-8.2532366e-05
67	0x3622b583	2.4245535e-06
68	0x38f30269	0.00011587592
69	0x37f1c1ff	2.8819775e-05
70	0x380ac112	3.3081575e-05
71	0xb739c6a6	-1.1073111e-05
72	0xb7844af1	-1.5770524e-05
73	0xb7563556	-1.2767812e-05
74	0xb786453e	-1.6006288e-05
75	0x373cb687	1.1248171e-05
76	0xb831d2f2	-4.2396547e-05
77	0x36d0bfa5	6.2211934e-06
78	0xb68f25a5	-4.2661145e-06
79	0x37a89a28	2.0098945e-05
80	0xb6d54f09	-6.3570956e-06
81	0xb8505df8	-4.967858e-05
82	0x371c48aa	9.315243e-06
83	0xb5bb6075	-1.3960658e-06
84	0xb7cad37d	-2.4178758e-05
85	0xb777e473	-1.4775537e-05
86	0x39b9df72	0.0003545243
87	0xb9c35923	-0.0003725971
88	0xb63a5c8e	-2.7770034e-06
89	0x382c7ae0	4.1122432e-05
90	0xb6e49db0	-6.8132867e-06
91	0xb8312ab9	-4.2239877e-05
92	0x36b8644c	5.4953034e-06
93	0x36891821	4.085727e-06
94	0xb7790731	-1.4843231e-05
95	0xb663e12b	-3.39567e-06
96	0xb8514da3	-4.9901788e-05
97	0xb9090992	-0.00013068903
98	0xb87dee76	-6.0541985e-05
99	0xb8adf147	-8.294224e-05

classfier.bn1.weight f4 [100]
0	0x3f6c4c8e	0.92304313
1	0x3f68b7d2	0.9090549
2	0x3f6df017	0.92944473
3	0x3f7bd444	0.98370767
4	0x3f753674	0.95786214
5	0x3f7f429e	0.99711025
6	0x3f73144f	0.94952863
7	0x3f816b8b	1.0110945
8	0x3f721e74	0.9457772
9	0x3f7b8fb0	0.98266125
10	0x3f7ee571	0.9956885
11	0x3f818ee1	1.0121728
12	0x3f6306a0	0.88681984
13	0x3f7027c6	0.9381069
14	0x3f66824a	0.90042555
15	0x3f78386e	0.96961105
16	0x3f887b4e	1.066263
17	0x3f857b33	1.0428222
18	0x3f65a0ba	0.89698374
19	0x3f6daa66	0.9283813
20	0x3f822c03	1.0169681
21	0x3f7545de	0.95809734
22	0x3f7ab9b2	0.979396
23	0x3f625bb2	0.88421166
24	0x3f7c5a09	0.9857488
25	0x3f6dac0e	0.9284066
26	0x3f732e97	0.94992965
27	0x3f8977e5	1.0739714
28	0x3f7eb496	0.994943
29	0x3f6aa19e	0.9165286
30	0x3f7b95d3	0.9827549
31	0x3f80a923	1.0051616
32	0x3f725440	0.94659805
33	0x3f7bf093	0.9841396
34	0x3f66f70d	0.9022072
35	0x3f6ea648	0.93222475
36	0x3f76a3e7	0.96343845
37	0x3f70dfc6	0.9409145
38	0x3f7d32dd	0.98905736
39	0x3f7d4e55	0.9894765
40	0x3f72caed	0.9484089
41	0x3f7e663f	0.99374765
42	0x3f7c4147	0.98537105
43	0x3f71b021	0.94409376
44	0x3f68c915	0.90931827
45	0x3f7f5cf8	0.99751234
46	0x3f719bcc	0.9437835
47	0x3f6c374e	0.9227189
48	0x3f7907eb	0.97277707
49	0x3f766077	0.96240944
50	0x3f69efa9	0.9138132
51	0x3f76f849	0.96472603
52	0x3f765825	0.9622825
53	0x3f700eda	0.9377266
54	0x3f81d50b	1.014314
55	0x3f6a6571	0.9156104
56	0x3f821eda	1.0165665
57	0x3f6ebcb0	0.93256664
58	0x3f8ac89d	1.0842472
59	0x3f887383	1.0660251
60	0x3f6ddb55	0.929128
61	0x3f81dcd4	1.0145516
62	0x3f62b282	0.8855363
63	0x3f7d6aa5	0.9899085
64	0x3f6ad84e	0.91736305
65	0x3f72c999	0.94838864
66	0x3f84243d	1.0323559
67	0x3f64af10	0.89329624
68	0x3f780cff	0.9689483
69	0x3f6a4868	0.91516733
70	0x3f712747	0.9420056
71	0x3f629164	0.885031
72	0x3f7870fd	0.97047406
73	0x3f74e41f	0.95660585
74	0x3f77d8c3	0.9681513
75	0x3f7110fb	0.94166535
76	0x3f7f4de5	0.9972823
77	0x3f679303	0.904587
78	0x3f72cb3d	0.94841367
79	0x3f791122	0.9729177
80	0x3f7ba731	0.9830199
81	0x3f8deadc	1.1087298
82	0x3f75dc4d	0.9603928
83	0x3f6e399f	0.9305667
84	0x3f7729dc	0.9654825
85	0x3f723a0c	0.9461982
86	0x3f8090d3	1.0044197
87	0x3f79ec50	0.9762621
88	0x3f67bc89	0.90522057
89	0x3f6e5b9c	0.93108535
90	0x3f69545a	0.91144335
91	0x3f84705d	1.034679
92	0x3f7b0ed4	0.980695
93	0x3f724808	0.9464116
94	0x3f7eff54	0.9960835
95	0x3f6bed28	0.92158747
96	0x3f79861d	0.97470266
97	0x3f87e324	1.0616193
98	0x3f727493	0.9470913
99	0x3f6f99a8	0.93593836

classfier.bn1.bias f4 [100]
0	0xbe9c02d7	-0.30470917
1	0xbdb61678	-0.08891004
2	0xbdf59d97	-0.119929485
3	0xbe8524d6	-0.26004666
4	0xbeb0f17e	-0.34559244
5	0xbe25241d	-0.16127057
6	0xbdc5a94c	-0.096514314
7	0xbd82c6f7	-0.06385606
8	0xbe8f4997	-0.27985832
9	0xbe69cd93	-0.22832327
10	0xbe9277f9	-0.28607157
11	0xbd75d3ba	-0.06001637
12	0xbe363b5a	-0.17796078
13	0xbe472037	-0.19445883
14	0xbd8adb5a	-0.06780119
15	0xbd5026a4	-0.0508181
16	0xbe281284	-0.16413313
17	0xbe802276	-0.25026292
18	0xbe7fab04	-0.24967581
19	0xbe829356	-0.25503033
20	0xbe9cca4d	-0.30623093
21	0xbe3fd0df	-0.18732022
22	0xbe6e6e32	-0.23284224
23	0xbdecd7ae	-0.11564575
24	0xbdbfb7ea	-0.09361251
25	0xbe1e5de7	-0.15465508
26	0xbe169277	-0.1470431
27	0xbe3c0abb	-0.18363468
28	0xbe8d719d	-0.27625743
29	0xbe46dd87	-0.19420443
30	0xbe96bb04	-0.29439557
31	0xbe7c42d7	-0.24634872
32	0xbe43fc1c	-0.19139141
33	0xbdf56443	-0.11982014
34	0xbe4cffee	-0.20019504
35	0xbe4fe2cb	-0.20301358
36	0xbe8ccd14	-0.27500212
37	0xbe5f0514	-0.21779281
38	0xbeb2dd9d	-0.34934703
39	0xbe88f8a1	-0.2675219
40	0xbe92a03e	-0.2863788
41	0xbdd4464f	-0.10364973
42	0xbe062c35	-0.13102801
43	0xbe96666c	-0.29375017
44	0xbddea78c	-0.10871801
45	0xbdfebccd	-0.12438355
46	0xbe635fdc	-0.22204536
47	0xbe22ff5d	-0.15917726
48	0xbe96ad30	-0.29429007
49	0xbec6cede	-0.38829702
50	0xbce307ce	-0.027713683
51	0xbe6b84ef	-0.22999929
52	0xbd902ade	-0.07039426
53	0xbe2734ec	-0.16328782
54	0xbea00833	-0.31256256
55	0xbe0afa21	-0.13571979
56	0xbe4b8227	-0.19873868
57	0xbe105c2b	-0.1409766
58	0xbd974c55	-0.07387606
59	0xbe6a1876	-0.22860894
60	0xbd51baed	-0.051203657
61	0xbe855df8	-0.26048255
62	0xbda6ee3c	-0.08150908
63	0xbe3eb115	-0.18622239
64	0xbd8b4065	-0.06799392
65	0xbdb3b94e	-0.087755784
66	0xbe4a4ff7	-0.19757067
67	0xbdeb3c94	-0.11486164
68	0xbeaacf7c	-0.33361423
69	0xbe6fd6cc	-0.23421782
70	0xbe0cdf85	-0.13757141
71	0xbe61d3f1	-0.22053505
72	0xbdd56354	-0.10419336
73	0xbe3a4073	-0.18188648
74	0xbe1da341	-0.15394308
75	0xbe9ba7e4	-0.30401528
76	0xbda28b49	-0.07936723
77	0xbe0117de	-0.12606761
78	0xbe6c1c5f	-0.23057698
79	0xbe74d2be	-0.23908517
80	0xbe60d666	-0.21956787
81	0xbe403db8	-0.18773544
82	0xbe0d6736	-0.13808903
83	0xbe049a95	-0.12949593
84	0xbe8895f5	-0.26676908
85	0xbdcf9cac	-0.10137305
86	0xbe895f2d	-0.26830426
87	0xbe455ed1	-0.19274451
88	0xbd6f0188	-0.05835107
89	0xbdfa94ed	-0.122354366
90	0xbdb35d06	-0.08757977
91	0xbe36b0c3	-0.17840867
92	0xbe7d2527	-0.24721204
93	0xbe024d99	-0.12724914
94	0xbe7be5bf	-0.2459936
95	0xbe2641c8	-0.16236031
96	0xbe81df19	-0.25365523
97	0xbe06b1b5	-0.13153727
98	0xbe1cae69	-0.15300907
99	0xbe5fde98	-0.21862257

classfier.bn1.running_mean f4 [100]
0	0xbc76b58f	-0.015057935
1	0x3e8ea627	0.2786114
2	0x3f389654	0.7210438
3	0x3d682451	0.05667526
4	0xbdca59ea	-0.09880431
5	0xbd9e346c	-0.077248424
6	0x3e9cc8c0	0.3062191
7	0xbc861e82	-0.01637197
8	0x3d04be46	0.03240802
9	0xbe01e849	-0.12686266
10	0xbdae2212	-0.08502592
11	0x3e0d4c9e	0.13798758
12	0xbf0a3edd	-0.5400217
13	0xbdf9a8f4	-0.121904284
14	0x3f8d3008	1.1030283
15	0x3e91e6bd	0.28496352
16	0x3c0351ab	0.008015077
17	0x3da97f93	0.08276286
18	0xbdb36185	-0.08758835
19	0xbc4ff4f7	-0.0126926815
20	0xbd68ee9e	-0.056868188
21	0xbce64ca0	-0.02811271
22	0xbb8c0b72	-0.0042738253
23	0xbec20a88	-0.3789866
24	0x3e1f594e	0.15561411
25	0xbe803cf6	-0.2504651
26	0x3d312dfd	0.04325675
27	0xbc74648f	-0.014916553
28	0xbde78159	-0.11303968
29	0xbeef949d	-0.4679307
30	0xbdd7b388	-0.1053229
31	0xbdd60dbd	-0.10451839
32	0x3e794220	0.24341631
33	0x3e3e082e	0.18557808
34	0xbe5c7bb4	-0.21531564
35	0xbe2f102e	-0.17096016
36	0xbcf2472c	-0.029574953
37	0xbd9c433d	-0.07630012
38	0x3d92fb97	0.07176893
39	0xbdab3293	-0.08359256
40	0xbdcc60b6	-0.09979384
41	0x3e94d17f	0.29066083
42	0xbe8ad4f3	-0.27115592
43	0xbd108ee0	-0.035292506
44	0x3e96d63c	0.29460323
45	0x3de4801a	0.11157246
46	0xbc9d6084	-0.019211061
47	0xbea1b8aa	-0.315862
48	0xbd58090e	-0.05274301
49	0xbc321222	-0.010868581
50	0x3e713093	0.23553686
51	0x3d5b169e	0.053488366
52	0x3e1094f2	0.14119318
53	0xbee7822d	-0.45216504
54	0xbd3e56ad	-0.04646938
55	0xbeef3e8e	-0.46727413
56	0x3e268af1	0.1626394
57	0x3ea8cd1e	0.32968992
58	0x3d054034	0.032531932
59	0xbcf390f7	-0.02973221
60	0x3f734f17	0.95042557
61	0xbd1fdbc4	-0.039027944
62	0x3cd074fe	0.025446411
63	0xbda7502b	-0.08169588
64	0x3eac6dc0	0.33677483
65	0x3e9439a7	0.28950235
66	0xbe8f083a	-0.27935964
67	0x3ef426d7	0.47685882
68	0xbdcfea6c	-0.10152134
69	0xbe62f942	-0.22165397
70	0x3e60d97d	0.21957965
71	0xbe6ddbde	-0.23228404
72	0xbefa9447	-0.48941252
73	0xbb6c778e	-0.0036082002
74	0xbd9dfe83	-0.0771456
75	0xbe1103ac	-0.14161557
76	0xbd0334f5	-0.032032926
77	0x3dbe5cc7	0.092950396
78	0xbdd64964	-0.10463217
79	0xbdea1a37	-0.11430781
80	0xbe1f5cc2	-0.15562728
81	0x3d60a9ee	0.054849558
82	0x3e5bc0d4	0.21460277
83	0xbeef7bbc	-0.4677409
84	0xbdaa4562	-0.08314015
85	0x3eb1d1af	0.34730288
86	0xbdc53177	-0.09628575
87	0x3b1ab4fb	0.0023606408
88	0x3f7ecd50	0.9953203
89	0xbea2de64	-0.31810296
90	0x3f40cb41	0.7531014
91	0x3d81b99b	0.063342296
92	0xbe006a0c	-0.12540454
93	0x3bdfa878	0.006825503
94	0xba844e48	-0.001009413
95	0xbd7f3369	-0.062304888
96	0xbdccdd80	-0.10003185
97	0x3e09f15a	0.13470975
98	0xbeaeba63	-0.34126577
99	0xbdaf1d92	-0.08550562

classfier.bn1.running_var f4 [100]
0	0x3b8b0553	0.004242578
1	0x3d168304	0.03674604
2	0x3e0ec141	0.13940908
3	0x3c04e8d7	0.008112154
4	0x3bd2a178	0.00642794
5	0x3c2dbdd2	0.010604339
6	0x3cea6585	0.028612861
7	0x3c032e59	0.008006656
8	0x3bca7064	0.006177949
9	0x3c65f9ed	0.014036638
10	0x3bef0927	0.007294792
11	0x3c0848d8	0.008318149
12	0x3d28ddc7	0.04122713
13	0x3c0985fc	0.008393761
14	0x3e775f2b	0.24157397
15	0x3cdeaa96	0.027180951
16	0x3b9e9c8e	0.00484044
17	0x3bcbc366	0.0062183617
18	0x3bd8b505	0.006613376
19	0x3ba29a53	0.0049622445
20	0x3bb06c62	0.005384014
21	0x3c29adbd	0.010356364
22	0x3bf1694d	0.007367289
23	0x3d20ef86	0.039290927
24	0x3c81b541	0.015833499
25	0x3c80b8bd	0.01571309
26	0x3c79b583	0.01524103
27	0x3c1ce021	0.009574921
28	0x3bbc24ef	0.0057417075
29	0x3d1052a8	0.035235077
30	0x3b900b1f	0.004395857
31	0x3c0e8bb6	0.008700302
32	0x3c92c9ef	0.017918555
33	0x3ca81682	0.020518545
34	0x3c577b6e	0.0131519865
35	0x3c119194	0.008884806
36	0x3bf291ec	0.007402649
37	0x3ba4a15f	0.0050241197
38	0x3bef476b	0.007302215
39	0x3c0c5332	0.008564757
40	0x3badd186	0.005304518
41	0x3cc18b57	0.023626013
42	0x3ca55db2	0.020186279
43	0x3b9dbdd6	0.00481389
44	0x3d0edc88	0.034878284
45	0x3c134099	0.008987569
46	0x3b833e1c	0.0040052067
47	0x3c911873	0.017711854
48	0x3bc83c30	0.0061106905
49	0x3b9ca70e	0.0047806567
50	0x3c82c4be	0.015962955
51	0x3be53826	0.006995219
52	0x3c8036d9	0.015651153
53	0x3cfb3109	0.03066303
54	0x3b7d1b78	0.003862111
55	0x3d147b11	0.036250178
56	0x3c2b4796	0.010454079
57	0x3c97295d	0.01845234
58	0x3b96291f	0.0045825387
59	0x3bf5e138	0.007503655
60	0x3e09b939	0.13449563
61	0x3bb64266	0.0055621145
62	0x3c474ab7	0.0121638095
63	0x3be37751	0.006941714
64	0x3cc23e41	0.023711326
65	0x3d0199fa	0.031640984
66	0x3cbbed00	0.022940159
67	0x3dbe58e2	0.09294297
68	0x3b8db655	0.004324714
69	0x3c78ff52	0.015197592
70	0x3c719d01	0.014746905
71	0x3c6ce5a9	0.014459052
72	0x3d50ac51	0.050945584
73	0x3c10e481	0.008843542
74	0x3c8c18c8	0.01710166
75	0x3bb56f76	0.005536969
76	0x3c29ee64	0.010371778
77	0x3c1f1fc7	0.009712166
78	0x3c102a50	0.008799151
79	0x3c0ac92d	0.008470816
80	0x3d30efbc	0.04319738
81	0x3bc44ab2	0.0059903497
82	0x3cb231e6	0.021752309
83	0x3d659914	0.05605419
84	0x3bdd0088	0.006744448
85	0x3ce66981	0.02812648
86	0x3ba9c905	0.005181434
87	0x3bbde49f	0.005795076
88	0x3e5daaa4	0.21647125
89	0x3c93b596	0.018030923
90	0x3dea72f4	0.11447707
91	0x3c1042dd	0.008805004
92	0x3c76a8a1	0.015054853
93	0x3c8c3f2e	0.01711997
94	0x3bec47f7	0.0072107273
95	0x3c255d10	0.010092989
96	0x3c019de7	0.007911182
97	0x3c3bce84	0.011462811
98	0x3cd761cf	0.026291756
99	0x3c019340	0.007908642

classfier.fc2.weight f4 [50, 100]
0	0x3d392df1	0.04520983
1	0x3d41202d	0.047149826
2	0x3d2af834	0.04174061
3	0x3d6f7430	0.058460414
4	0x3d324892	0.04352624
5	0xbda84fbb	-0.082183324
6	0xbd1fda0f	-0.039026316
7	0xbbfe1081	-0.0077534323
8	0x3d276fa0	0.04087794
9	0x3cc90c1b	0.024541905
10	0x3cf356d1	0.029704483
11	0xbe1d77de	-0.15377757
12	0x3c744d9f	0.014911084
13	0xbcb8e425	-0.022569725
14	0x3d1bc569	0.038030062
15	0xbd9777bc	-0.073958844
16	0xbe0007cd	-0.12502976
17	0xbd9ca3b9	-0.07648415
18	0xbd1c16dc	-0.038107738
19	0x3dabe410	0.08393109
20	0x3d60d2a1	0.05488837
21	0xbd19ee0c	-0.037580535
22	0x3cb1b899	0.021694468
23	0xbd183efb	-0.037169438
24	0xbd8dbd28	-0.06920844
25	0x3b653705	0.003497542
26	0xbbafa9c5	-0.0053608143
27	0xbdc90193	-0.098147534
28	0xbc8d3aac	-0.017239891
29	0x3c0c9eb7	0.008582762
30	0x3d5983ec	0.053104326
31	0x3d887b01	0.06664086
32	0x3db0f3b8	0.08640236
33	0xbd84bf86	-0.06481843
34	0x3d10399b	0.035211187
35	0x3c71ce23	0.0147586195
36	0x3d4b853c	0.04968761
37	0x3d82937c	0.06375787
38	0x3c873ab5	0.016507486
39	0x3d913b59	0.07091398
40	0x3d921306	0.07132535
41	0xbdb62049	-0.08892877
42	0x3c4fad1c	0.01267555
43	0x3d499814	0.0492173
44	0xbcc87126	-0.024468016
45	0xbd8b71dc	-0.06808826
46	0x3d07b98e	0.033135943
47	0x3ca4cc4b	0.020116946
48	0x3cd97752	0.026546154
49	0x3cd8903c	0.026435964
50	0x3d61ff4d	0.055175114
51	0x3d2ee27e	0.04269647
52	0xbc3525ca	-0.011056373
53	0x3d2ad299	0.041704748
54	0x3d90bd60	0.070673704
55	0x3c98b026	0.018638682
56	0xbc33745c	-0.010953035
57	0x3d7319dd	0.059350837
58	0xbd5c1be8	-0.05373755
59	0xbdddc17c	-0.1082792
60	0x3c17ec3d	0.009272632
61	0x3d952edf	0.072843306
62	0xbd0e5fff	-0.034759518
63	0xbdbe6e4e	-0.09298383
64	0xbc8a7089	-0.016899364
65	0x3cf22c3f	0.029562114
66	0x3d222c61	0.039593104
67	0x3d6c7299	0.057726476
68	0x3d60d664	0.05489196
69	0x3cb9a35c	0.022660904
70	0xbbdcdebf	-0.0067404206
71	0x3d8f19c1	0.06987334
72	0x3d0178de	0.03160941
73	0xba07b0bd	-0.00051761774
74	0x3d4bcf84	0.04975845
75	0x3d39280e	0.045204215
76	0x3cacc184	0.02108837
77	0xbdb2a6a3	-0.0872319
78	0x3d43d556	0.047810875
79	0x3c4ce3d9	0.012505495
80	0x3d1e4ac4	0.03864552
81	0xbdbe6612	-0.09296812
82	0x3cdd58f6	0.027019959
83	0xbc1188d3	-0.008882719
84	0x3d066bf9	0.032817814
85	0xbca3f3b4	-0.020013668
86	0x3d94db3c	0.07268378
87	0x3d1d2cc2	0.038372763
88	0x3d2098e7	0.03920832
89	0x3c7e7924	0.015531812
90	0xbda478bc	-0.08030841
91	0xbd8ccf0c	-0.068754286
92	0xbbd8c75a	-0.0066155614
93	0xbdb2819f	-0.087161295
94	0x3dd6971e	0.10478042
95	0x3cf7c9b3	0.030247545
96	0x3d1fd098	0.03901729
97	0xbddb35af	-0.10703599
98	0x3c6df77d	0.014524338
99	0x3caf9bf9	0.021436678
100	0x3cb8ae5f	0.022544084
101	0x3cca26c0	0.02467668
102	0x3ca99eb1	0.020705553
103	0x3d344eb5	0.044020373
104	0x3d52f747	0.051505353
105	0xbdb27b20	-0.087148905
106	0xbda185e9	-0.078868695
107	0xbd6107df	-0.054939147
108	0x3db01504	0.085977584
109	0x3d7b49d2	0.061349697
110	0x3d926ea6	0.07150011
111	0xbc8fceff	-0.017554758
112	0x3d26696f	0.040627893
113	0xbd2890b6	-0.041153632
114	0xbc2ab858	-0.010419928
115	0xbd05e97f	-0.032693382
116	0xbd6b53aa	-0.057452835
117	0xbe023297	-0.12714611
118	0xbcc718ca	-0.024303813
119	0x3d793d2b	0.06084935
120	0x3c28d0af	0.01030366
121	0xbd617284	-0.05504085
122	0x3cded772	0.027202342
123	0xbbae1009	-0.00531197
124	0xbcde9dcb	-0.02717485
125	0x3bda3c29	0.0066600037
126	0xbd073642	-0.03301073
127	0xbe10fbc2	-0.14158538
128	0xba2d510a	-0.0006611502
129	0x3d249ef6	0.04019066
130	0x3dbb84d3	0.091561936
131	0x3d925045	0.071442164
132	0x3df39b84	0.118948966
133	0xbd83b22d	-0.06430469
134	0x3c290825	0.010316883
135	0x3d3a7eb0	0.045530975
136	0x3d1e1ca1	0.03860152
137	0x3b174455	0.00230815
138	0x3b9473f7	0.0045304256
139	0x3d9f77ae	0.07786499
140	0x3dc21a3d	0.09477661
141	0x3cec4bd1	0.028844746
142	0xbc8da1c4	-0.01728905
143	0x3d8a98c3	0.06767418
144	0x3c0f0751	0.008729772
145	0xbd96aa2d	-0.07356677
146	0x3d891f69	0.06695444
147	0x3d4a6df5	0.04942127
148	0x3d8fa149	0.070131846
149	0x3d250489	0.04028753
150	0xbc26ea52	-0.010187702
151	0x3d83965f	0.064251654
152	0x3a47f2a8	0.0007627406
153	0xbbfd0f37	-0.007722761
154	0x3d879ab8	0.06621307
155	0x3cd63765	0.026149461
156	0xbdb1c2de	-0.08679746
157	0x3ce621cd	0.02809229
158	0xbdaad68f	-0.08341705
159	0xbe15b1a2	-0.14618543
160	0x3d41efdb	0.047347885
161	0x3be74fbd	0.007059066
162	0xbd80ddf9	-0.06292338
163	0xbda5d779	-0.08097739
164	0xbb8510cc	-0.0040608402
165	0x3d9ce6fc	0.07661244
166	0x3cb75e20	0.02238375
167	0x3d9301b8	0.07178062
168	0x3d5c701e	0.05381786
169	0x3d8c7610	0.06858456
170	0x3d25c1bd	0.040467966
171	0xbd0e09ab	-0.03467719
172	0x3d8793cf	0.06619989
173	0x3d1ef77f	0.03881025
174	0x3c48ff6f	0.012267931
175	0x3d56ecab	0.052471798
176	0xbda43328	-0.0801757
177	0x3bc6510e	0.006052143
178	0x3d56a091	0.05239922
179	0x3d944235	0.072391905
180	0x3cb41646	0.021983277
181	0xbe0b7cfd	-0.13621898
182	0xbd33d016	-0.043899618
183	0xbd108b9e	-0.0352894
184	0x3d8bf390	0.06833565
185	0xbcc762e8	-0.024339154
186	0x3d7ccebc	0.061720595
187	0x3cebc216	0.02877907
188	0xbd3323d4	-0.04373534
189	0x3c930da4	0.01795084
190	0xbcb50fa0	-0.022102177
191	0xbdaf8461	-0.08570171
192	0x3d2c31f9	0.042039845
193	0xbd9bd0c5	-0.07608179
194	0x3db911cd	0.09036598
195	0x3cf3387a	0.029690016
196	0x3d133f47	0.035949018
197	0xbde7a4f9	-0.11310763
198	0xbc1f1bfd	-0.009711263
199	0x3d15d1e8	0.036577135
200	0xbd7586e1	-0.059943084
201	0x3da5f341	0.081030376
202	0x3d272fee	0.040817194
203	0x3cbe8fb4	0.023261882
204	0xbdce0d29	-0.10061104
205	0x3e0e434f	0.13892864
206	0x3d60714d	0.054795552
207	0x3d77e28e	0.060518794
208	0x3dbfe7f1	0.09370411
209	0xbdaa992c	-0.083299965
210	0xbc696967	-0.014246321
211	0x3d367033	0.044540595
212	0x3d461ccf	0.048367318
213	0x3e0b01b0	0.13574862
214	0x3c8843ca	0.016633887
215	0x3b3f57b4	0.0029196562
216	0xbc9bcdc7	-0.01901902
217	0x3d5f63b2	0.054538436
218	0x3db6440c	0.08899698
219	0xbbaeee7a	-0.005338487
220	0xbd6befc0	-0.05760169
221	0x3de081c2	0.10962249
222	0xbdc2473b	-0.094862424
223	0x3e0a9618	0.13533819
224	0x3d76475a	0.06012664
225	0xbcaad4a1	-0.020853342
226	0x3d987bc2	0.0744548
227	0xbd2a8fbf	-0.041640993
228	0x3c1dfb41	0.009642423
229	0x3beb9c28	0.007190246
230	0xbcb14df0	-0.021643609
231	0x3d760ff3	0.060073804
232	0x3e12bbb4	0.14329416
233	0xbc362856	-0.011118015
234	0xbcbc6269	-0.022996144
235	0xbd6401a3	-0.055665623
236	0x3d70bc2b	0.0587732
237	0xbad225e0	-0.0016033016
238	0x3ccea23d	0.025223846
239	0xbcf4d0f8	-0.0298848
240	0xbcee6bae	-0.02910408
241	0xba4a90b0	-0.00077272486
242	0xbb7da884	-0.003870518
243	0xbcd76663	-0.026293939
244	0xbc13e488	-0.009026654
245	0x3da50a6e	0.0805863
246	0xbcb2a8a7	-0.021808935
247	0x3c7a87eb	0.015291194
248	0x3d94fbf2	0.07274617
249	0x3d369c1b	0.044582468
250	0x3db17c06	0.08666234
251	0xba5c5752	-0.0008405346
252	0x3ce59717	0.028026147
253	0x3db547f3	0.08851614
254	0x3cd2d33a	0.025735486
255	0xbd047d10	-0.03234583

classfier.fc2.bias f4 [50]
0	0xb5444db1	-7.3128746e-07
1	0x3295f39a	1.745666e-08
2	0x3507b1c2	5.055009e-07
3	0x34b38013	3.3434534e-07
4	0x36bd9ef1	5.651142e-06
5	0xb4187b00	-1.420085e-07
6	0x3641a1ad	2.8853349e-06
7	0x3608697b	2.0326977e-06
8	0x368633e7	3.9995534e-06
9	0xb50c3346	-5.2228677e-07
10	0xb708a99d	-8.145723e-06
11	0xb6265f8b	-2.479154e-06
12	0x37857f15	1.5914013e-05
13	0xb76acb76	-1.3994859e-05
14	0x377c0cf3	1.50233855e-05
15	0xb5dd7864	-1.6500821e-06
16	0xb64516f1	-2.9368641e-06
17	0x3644f996	2.9351554e-06
18	0xb63c9d46	-2.8105728e-06
19	0x36cda927	6.129168e-06
20	0xb69571df	-4.4538024e-06
21	0xb72e7c42	-1.0400139e-05
22	0x366dedc6	3.5454154e-06
23	0x351de56a	5.88209e-07
24	0xb5fd555d	-1.8874813e-06
25	0xb3868551	-6.2641114e-08
26	0xb62f5974	-2.61291e-06
27	0x374f727e	1.2364819e-05
28	0xb5b6cca4	-1.3619615e-06
29	0x37b71449	2.1824746e-05
30	0x35e82025	1.7294702e-06
31	0x368ce4fe	4.1989833e-06
32	0x367ccf50	3.7671598e-06
33	0x351fa229	5.946809e-07
34	0x37133847	8.774986e-06
35	0xb4c78fe8	-3.7171344e-07
36	0x36f39e70	7.260409e-06
37	0xb703337b	-7.820195e-06
38	0xb5cf7cf9	-1.5459074e-06
39	0xb55dc25b	-8.261174e-07
40	0xb60cb8ed	-2.0969267e-06
41	0xb64c3770	-3.0430638e-06
42	0xb6e6df4f	-6.8805307e-06
43	0x35d46f10	1.5827554e-06
44	0xb6123c40	-2.1790765e-06
45	0x3707852a	8.077632e-06
46	0x373976f4	1.1054555e-05
47	0xb6972092	-4.5039424e-06
48	0x35868a16	1.0023966e-06
49	0xb50b3ad3	-5.1867136e-07

classfier.bn2.weight f4 [50]
0	0x3f8201f1	1.0156842
1	0x3f7f78d1	0.99793726
2	0x3f6de293	0.9292385
3	0x3f5bd92d	0.8587826
4	0x3f723583	0.946129
5	0x3f742b80	0.95378876
6	0x3f7b9adf	0.9828319
7	0x3f698771	0.9122229
8	0x3f788be8	0.9708848
9	0x3f7317b4	0.94958043
10	0x3f766624	0.96249604
11	0x3f6dcfe2	0.9289533
12	0x3f740903	0.9532625
13	0x3f7f1657	0.9964346
14	0x3f77fe44	0.96872354
15	0x3f79be54	0.9755604
16	0x3f7a9f37	0.9789919
17	0x3f8187a1	1.0119516
18	0x3f78a60a	0.97128356
19	0x3f675bdf	0.9037456
20	0x3f7542d3	0.9580509
21	0x3f81aca7	1.0130814
22	0x3f762ff9	0.9616695
23	0x3f65997e	0.89687335
24	0x3f7f34e8	0.99690104
25	0x3f63131b	0.8870103
26	0x3f7f50f9	0.9973293
27	0x3f7a1bcc	0.97698665
28	0x3f7352ac	0.9504802
29	0x3f8028f4	1.0012498
30	0x3f6c6455	0.92340595
31	0x3f72294d	0.9459427
32	0x3f81cea9	1.0141193
33	0x3f72561b	0.94662637
34	0x3f690baa	0.9103342
35	0x3f6bc35d	0.92094976
36	0x3f6c739c	0.92363906
37	0x3f82238d	1.0167099
38	0x3f62c728	0.8858514
39	0x3f78ba71	0.97159487
40	0x3f6ace53	0.91721076
41	0x3f80c7e8	1.0061007
42	0x3f961ec2	1.1728137
43	0x3f79bdfa	0.97555506
44	0x3f79d6cd	0.97593385
45	0x3f840b04	1.0315862
46	0x3f712208	0.9419255
47	0x3f726229	0.9468103
48	0x3f68d62b	0.90951794
49	0x3f712551	0.94197565

classfier.bn2.bias f4 [50]
0	0xbe99b11b	-0.30017933
1	0xbe5b6fbd	-0.21429344
2	0xbdc86041	-0.09783984
3	0xbd4630b7	-0.0483863
4	0xbe80f8a2	-0.25189692
5	0xbe644a2c	-0.2229392
6	0xbe614cd9	-0.22001971
7	0xbda49b3a	-0.080374196
8	0xbdcd4a29	-0.100239106
9	0xbe1779b5	-0.14792521
10	0xbe5c4965	-0.21512373
11	0xbd16bcd2	-0.036801167
12	0xbe78e76d	-0.24307032
13	0xbe8e6753	-0.27813205
14	0xbe842cc3	-0.258154
15	0xbe0cad37	-0.13737951
16	0x3c176075	0.009239306
17	0xbe7ce6bd	-0.24697395
18	0xbe6570b6	-0.22406277
19	0xbe76e6d9	-0.24111499
20	0xbe48c525	-0.19606455
21	0xbdebabd1	-0.11507381
22	0xbe56cbe8	-0.20976222
23	0xbd76b4dc	-0.060231075
24	0xbddba2de	-0.10724424
25	0xbdc1e5ac	-0.094676346
26	0xbe45a70c	-0.19302005
27	0xbe3fa376	-0.18714699
28	0xbdae4496	-0.085091755
29	0xbea87fcd	-0.32910004
30	0xbe1f6154	-0.15564471
31	0xbe55e60a	-0.20888534
32	0xbe6cd806	-0.23129281
33	0xbe23afb6	-0.15984997
34	0xbe79e47a	-0.24403563
35	0xbd9e6471	-0.077340014
36	0xbe761305	-0.24030693
37	0xbe93ac51	-0.28842404
38	0xbcc0d2f7	-0.023538096
39	0xbe7d39a8	-0.24729025
40	0xbd91c9d8	-0.07118577
41	0xbe5aca92	-0.21366337
42	0xbe162b04	-0.14664847
43	0xbe86ce34	-0.26329195
44	0xbe59fb39	-0.2128724
45	0xbe6edc8e	-0.23326322
46	0xbe7b3990	-0.24533677
47	0xbe8a26d5	-0.2698275
48	0xbe3cfdd0	-0.18456197
49	0xbdf079fb	-0.11742016

classfier.bn2.running_mean f4 [50]
0	0x3d36d2cc	0.044634625
1	0x3d5d8568	0.054082304
2	0x3ed19d09	0.4094012
3	0x3eaa11aa	0.33216602
4	0x3d3d0c84	0.046154514
5	0x3e20a64e	0.1568844
6	0x3df59646	0.11991553
7	0xbe10746a	-0.14106908
8	0x3e1ae769	0.15127338
9	0x3ec30aac	0.3809408
10	0x3e93ebe4	0.28890908
11	0xbed9d4e4	-0.42545235
12	0x3e67f4f1	0.22652031
13	0x3e138548	0.14406312
14	0x3dcf3c58	0.101189315
15	0xbe8d9e2a	-0.27659732
16	0xbecbc625	-0.3979961
17	0x3e55b451	0.20869567
18	0x3df903b3	0.12158909
19	0x3ebcb445	0.36856285
20	0x3e572ea9	0.21013893
21	0xbe680878	-0.2265948
22	0x3d81aa9d	0.0633137
23	0xbe1992c6	-0.14997396
24	0x3e69aeec	0.22820634
25	0x3e7bb4d8	0.24580705
26	0x3d2235c7	0.039602067
27	0x3ea5bf29	0.32372406
28	0xbdfbcdf7	-0.12295144
29	0x3d905abe	0.07048558
30	0x3e4a94af	0.19783281
31	0x3ec0cd70	0.37656736
32	0x3db2633a	0.08710332
33	0xbd2d1081	-0.042252067
34	0x3d90d0e1	0.070710905
35	0xbdf0021c	-0.11719152
36	0x3e2eae45	0.17058666
37	0x3cfcbee3	0.03085274
38	0x3ab32720	0.0013668276
39	0x3e321594	0.17391044
40	0xbed91f48	-0.42406678
41	0x3e9cea19	0.30647352
42	0xbe623bb7	-0.22093092
43	0x3dd1854a	0.10230501
44	0xbe46b786	-0.19405946
45	0xbba1723c	-0.004926948
46	0x3e75c44d	0.24000664
47	0x3d07f1e4	0.03318967
48	0x3e7d9ddd	0.24767251
49	0x3edabfde	0.42724508

classfier.bn2.running_var f4 [50]
0	0x3ede9bd0	0.4347825
1	0x3ef5c2aa	0.4800008
2	0x3eeb940b	0.46011385
3	0x3f1b1888	0.60584307
4	0x3f12f024	0.57397676
5	0x3ee8228b	0.45338854
6	0x3f071688	0.52768755
7	0x3e5cad6d	0.21550532
8	0x3e806f1c	0.2508477
9	0x3f0eb463	0.55744
10	0x3f00f466	0.5037292
11	0x3edfcfa4	0.43713105
12	0x3ee0291c	0.43781364
13	0x3f148065	0.58008415
14	0x3f1c2676	0.60996187
15	0x3ebc72f1	0.36806443
16	0x3e9f162c	0.31071603
17	0x3f25cb7b	0.6476361
18	0x3e8aacba	0.27084905
19	0x3e813a52	0.25239807
20	0x3e881ab5	0.26582876
21	0x3ea3af93	0.3196989
22	0x3f134974	0.57533956
23	0x3eb0a664	0.34501946
24	0x3e785455	0.2425092
25	0x3edd5e3f	0.43235967
26	0x3f004b3b	0.5011479
27	0x3f033f38	0.5126834
28	0x3e5a042b	0.21290652
29	0x3f145fc8	0.5795865
30	0x3f082143	0.53175753
31	0x3f1797ec	0.5921619
32	0x3eed7613	0.46379146
33	0x3e96faf8	0.2948835
34	0x3f11e01d	0.56982595
35	0x3ebc58fc	0.3678664
36	0x3eed9706	0.46404284
37	0x3f071c16	0.5277723
38	0x3e9f4cb9	0.31113222
39	0x3f211219	0.6291824
40	0x3ed937a1	0.42425254
41	0x3ee4b67c	0.44670475
42	0x3ecd9ac5	0.40157142
43	0x3f1a9b3d	0.60393125
44	0x3ebeacad	0.37241116
45	0x3eb50a83	0.35359582
46	0x3f181f50	0.5942278
47	0x3f0caa5c	0.5494745
48	0x3ed8fe7a	0.4238165
49	0x3ecf747d	0.4051856

classfier.fc3.weight f4 [25, 50]
0	0x3e075751	0.13216902
1	0x3e03088f	0.12796234
2	0xbb04348b	-0.002017292
3	0xbda83f3b	-0.08215185
4	0x3e1ec458	0.15504587
5	0x3d90f4d3	0.070779465
6	0x3e005d59	0.1253561
7	0xbdb5ffd5	-0.08886687
8	0x3d6e8745	0.05823447
9	0xbd1a8803	-0.037727367
10	0x3d63a459	0.055576656
11	0xbccdfb23	-0.025144165
12	0x3df57b30	0.11986387
13	0x3e163084	0.14666945
14	0x3dccd906	0.100023314
15	0xbcb7d2d8	-0.022439405
16	0x3b675a7a	0.003530173
17	0x3d3fac15	0.04679497
18	0xbd20edd6	-0.039289318
19	0x3d282bed	0.041057516
20	0xbd4e7fb6	-0.050414763
21	0xbda4458d	-0.08021078
22	0xbc985d18	-0.018599078
23	0x3d07db7e	0.03316831
24	0xbd22ddd6	-0.03976234
25	0xbd624092	-0.05523736
26	0x3ca4b3c7	0.020105256
27	0x3d9c7a79	0.07640547
28	0x3d03be29	0.032163773
29	0x3dcec316	0.100958034
30	0x3d310320	0.04321587
31	0x3e0d4426	0.13795528
32	0x3d6a9c43	0.05727793
33	0xbd806f44	-0.06271222
34	0x3cd0ae4e	0.02547374
35	0xbdcfe0b1	-0.10150278
36	0x3e01c048	0.12671006
37	0x3e4446bc	0.19167608
38	0xbc0515ee	-0.008122904
39	0xbcbca735	-0.02302895
40	0xbd285ac5	-0.04110219
41	0x3e10e1a2	0.14148572
42	0xbd67f938	-0.056634158
43	0x3d98852d	0.07447276
44	0xbdda762f	-0.10667073
45	0xbc895d32	-0.016768072
46	0xbcf47c54	-0.02984444
47	0x3d86148d	0.065468885
48	0x3e3945a7	0.18092977
49	0xbdce638a	-0.10077579
50	0x3da39737	0.07987826
51	0x3d147943	0.036248457
52	0xbda5c560	-0.08094287
53	0x3ca03e2b	0.019560894
54	0x3e112ecb	0.14178006
55	0x3d4d2707	0.050086048
56	0x3d8adf2a	0.067808464
57	0xbda2f373	-0.079565905
58	0xbce5cd0e	-0.02805188
59	0x3d672641	0.056432966
60	0x3dcd343e	0.1001973
61	0x3d036c01	0.032085422
62	0x3de73f90	0.112914205
63	0x3dca964c	0.09891948
64	0x3df1c488	0.118050635
65	0xbddb5fc0	-0.10711622
66	0xbcf30ca6	-0.029669117
67	0x3dd1af5f	0.102385275
68	0xbc1454c8	-0.009053417
69	0xbc94dcf9	-0.018171774
70	0x3e03daa8	0.1287638
71	0xbd81951b	-0.06327268
72	0x3decee4c	0.11568889
73	0x3cf23bc9	0.029569523
74	0xbc7edffe	-0.015556334
75	0xbdef4433	-0.1168293
76	0x3db9a572	0.09064759
77	0x3d943664	0.07236937
78	0xbd8f6b15	-0.07002846
79	0x3cad116e	0.021126475
80	0x3d7dd5b3	0.061971378
81	0xbcca3d5d	-0.024687463
82	0x3d96cc70	0.07363212
83	0xbc459972	-0.01206051
84	0x3e0cbf7c	0.1374492
85	0xbdecb575	-0.11558048
86	0x3cdb9bab	0.026807627
87	0x3da9169c	0.082562655
88	0x3d67a5f1	0.05655474
89	0x3d88fb08	0.066885054
90	0xbc1e1a35	-0.009649803
91	0x3d6229bf	0.055215593
92	0xbd8e0c87	-0.06935983
93	0x3e0a89e3	0.13529162
94	0xbdcc6386	-0.0997992
95	0xbd5aa424	-0.053379193
96	0x3db4b221	0.08823038
97	0x3dd9cc48	0.10634667
98	0x3ce0a67f	0.027423142
99	0x3cc4b460	0.02401179
100	0x3e29c29e	0.16578147
101	0x3e049f4c	0.12951392
102	0xbd78b2f9	-0.060717557
103	0x3d2288b8	0.039681166
104	0x3dd04216	0.10168855
105	0xbcd64d58	-0.026159927
106	0x3e483982	0.19553187
107	0xbda88cb0	-0.08229959
108	0x3cb53e62	0.022124473
109	0xbb43f0de	-0.0029898207
110	0xbc8a6c45	-0.01689733
111	0x3d5192dc	0.051165447
112	0xbd84b588	-0.06479937
113	0x3de28dcd	0.110622026
114	0xbc939f27	-0.018020226
115	0x3d195079	0.03743026
116	0xbc0e6bf4	-0.00869273
117	0x3df6a3cd	0.12042961
118	0xbd56da9c	-0.052454576
119	0xbd7a971b	-0.06117926
120	0x3e08c13d	0.13354965
121	0x3b7db4b2	0.003871244
122	0x3e44eb98	0.19230497
123	0x3cbdd9bb	0.023175111
124	0xbd9105e2	-0.070812
125	0x3cbe2adc	0.023213796
126	0x3e165b92	0.14683369
127	0x3e0ec2a6	0.1394144
128	0xbd8ae352	-0.06781639
129	0x3e4ded86	0.20110139
130	0xbda8bd4e	-0.08239232
131	0xbd08141a	-0.033222295
132	0x3d279424	0.040912762
133	0xbd4ccc3c	-0.04999946
134	0x3e163d35	0.14671786
135	0x3d0d3e7f	0.03448343
136	0xbc663f9d	-0.0140532525
137	0x3d864f71	0.06558121
138	0xbc5f00c4	-0.013611022
139	0x3e1b7a91	0.15183474
140	0x3d92c33e	0.07166146
141	0x3dbc0db0	0.09182298
142	0xbda52603	-0.08063891
143	0x3e22aafc	0.15885538
144	0xbdc13060	-0.09433055
145	0xbbd03170	-0.0063535497
146	0x3d891a9e	0.0669453
147	0x3dc73746	0.097273394
148	0x3e1f3053	0.15545778
149	0xbdf7e039	-0.12103314
150	0x3e479141	0.19489004
151	0x3e2ae184	0.1668759
152	0x3d183fde	0.037170283
153	0x3cd71ce7	0.026258899
154	0x3d8d342b	0.06894716
155	0x3df31ba4	0.118705064
156	0xbc478036	-0.012176564
157	0xbde89687	-0.11356836
158	0x3c8c7f06	0.017150413
159	0x3d48350c	0.048878714
160	0xbc344067	-0.011001683
161	0x3c1b0390	0.009461299
162	0xbd5ba901	-0.05362797
163	0x3dc9b87e	0.09849642
164	0x3e2a98e8	0.16659892
165	0xbde7d30f	-0.11319553
166	0x3d414eea	0.0471944
167	0x3c176687	0.009240753
168	0xbc4ef80f	-0.012632384
169	0x3d86b92e	0.06578289
170	0x3e11c3e7	0.14234887
171	0xbab062a4	-0.0013457132
172	0x3e1d1f73	0.15344028
173	0x3d1b8544	0.03796889
174	0x3cf6dde1	0.030135097
175	0xbdc1995f	-0.09453081
176	0x3d90e941	0.0707574
177	0x3dbaf04a	0.09127863
178	0xbe0b88be	-0.13626382
179	0x3e2e92f2	0.17048243
180	0xbd653ff2	-0.055969186
181	0x3df37f87	0.11889558
182	0x3cf4162c	0.029795729
183	0xbc9bc103	-0.019012934
184	0x3d08f2a1	0.033434514
185	0xbced1dc1	-0.028944852
186	0x3d373c3c	0.04473518
187	0xbc8cd852	-0.017192993
188	0x3c835604	0.016032226
189	0x3d5f770a	0.054556884
190	0x3d26e0d1	0.040741745
191	0x3c7fc909	0.015611895
192	0xbd9e0571	-0.077158816
193	0x3c847dec	0.016173325
194	0xbd3a0fe6	-0.04542532
195	0x3c66ec0a	0.014094362
196	0x3bdd9c31	0.006763004
197	0x3e336bf4	0.1752165
198	0x3d5c48f7	0.053780522
199	0xbd8356c4	-0.064130336
200	0x3bc5f090	0.00604064
201	0x3e26c8a2	0.16287473
202	0xbac27ed0	-0.0014838818
203	0x3d4f598f	0.05062252
204	0xbc24ad82	-0.010051133
205	0x3e01c81e	0.12673995
206	0xbcdd5286	-0.02701689
207	0xbc8fbd7e	-0.017546412
208	0x3da3ee40	0.08004427
209	0x3d75dfcf	0.060027894
210	0x3e1807f5	0.14846785
211	0xbd556201	-0.052095417
212	0x3e278ca5	0.16362245
213	0x3dff9b37	0.12480777
214	0x3e445fbf	0.19177149
215	0xbda5b755	-0.080916084
216	0xbd3e0c7d	-0.04639863
217	0x3dd5c8ca	0.10438688
218	0x3bb26349	0.0054439646
219	0xbd88bafb	-0.06676289
220	0x3e00ed98	0.12590635
221	0xbd705f54	-0.058684662
222	0x3da4de08	0.080501616
223	0xbdef5324	-0.1168578
224	0xb9272fb3	-0.0001594413
225	0x3d71eaf9	0.059061978
226	0x3e313008	0.17303479
227	0xbc90e8c6	-0.01768912
228	0xbd67af1e	-0.05656349
229	0xbcb4b99a	-0.022061158
230	0xbda4d236	-0.08047907
231	0x3cec8b9e	0.028875168
232	0x3d8c76b1	0.06858576
233	0xbc6dc7f7	-0.014513007
234	0x3ccb74c2	0.024835948
235	0x3d02d320	0.031939626
236	0xbbc62ed8	-0.0060480647
237	0x3e387c20	0.180161
238	0x3daa38c5	0.08311609
239	0x3dac54ef	0.08414637
240	0x3cfbf4b1	0.030756326
241	0x3d8a21e3	0.06744745
242	0xbdd16756	-0.10224788
243	0xbb7a068c	-0.0038150875
244	0xbc7ce82d	-0.015436214
245	0xbda4e5ef	-0.08051669
246	0x3dc2a221	0.0950358
247	0x3e2e0503	0.169941
248	0x3cef2cf5	0.029196242
249	0xbdd73b4d	-0.105093576
250	0xbe086675	-0.13320334
251	0xbddba514	-0.107248455
252	0xbe0e415f	-0.13892125
253	0x3daa6616	0.083202526
254	0xbd36425f	-0.04449689
255	0xbda6ae3a	-0.081387

classfier.fc3.bias f4 [25]
0	0x353a5052	6.940728e-07
1	0xb5d6bd99	-1.5999423e-06
2	0xb4ecc9e8	-4.4105332e-07
3	0xb8a09191	-7.6565084e-05
4	0xb792f3a8	-1.7518018e-05
5	0x388cf0cc	6.720572e-05
6	0xb797d2a7	-1.8098695e-05
7	0xb7ef38b8	-2.8517432e-05
8	0x35dbdb65	1.6380624e-06
9	0xb8f12dc0	-0.00011500297
10	0xb78c7c1c	-1.6747093e-05
11	0xb783989a	-1.5687478e-05
12	0xb8822b92	-6.206999e-05
13	0x36f8279b	7.3955866e-06
14	0xb7972f7d	-1.8022716e-05
15	0xb6e57a72	-6.8389863e-06
16	0xb850377b	-4.9642735e-05
17	0x358d3b46	1.052257e-06
18	0xb608b002	-2.036803e-06
19	0x3540e86c	7.186379e-07
20	0x34d64654	3.9911777e-07
21	0x365e239d	3.3101308e-06
22	0x3630d966	2.6352586e-06
23	0x36d04ba4	6.207689e-06
24	0xb7af1d1e	-2.0875184e-05

classfier.bn3.weight f4 [25]
0	0x3f8d06be	1.1017683
1	0x3f930524	1.1485944
2	0x3f8a92e7	1.0826081
3	0x3f893269	1.0718509
4	0x3f87cc77	1.0609273
5	0x3fb3afda	1.4038041
6	0x3fa61559	1.2975265
7	0x3faedaf3	1.3660568
8	0x3f8a42f0	1.0801678
9	0x3fa34c1c	1.2757602
10	0x3faff13a	1.3745492
11	0x3fb44a27	1.408513
12	0x3fadf819	1.3591338
13	0x3f8da351	1.1065465
14	0x3fb1c660	1.3888664
15	0x3fb229cb	1.3919004
16	0x3f8f4bdf	1.1195029
17	0x3f974050	1.1816502
18	0x3f8aec84	1.0853429
19	0x3f8ef74d	1.116922
20	0x3f8ddee6	1.1083648
21	0x3f8a5970	1.0808544
22	0x3f959d0a	1.168855
23	0x3fb54fff	1.4165038
24	0x3fb175b6	1.3864048

classfier.bn3.bias f4 [25]
0	0xbd147e0f	-0.03625303
1	0xbc72577b	-0.014791365
2	0xbd1ef6ab	-0.03880946
3	0xbcb7fde4	-0.022459932
4	0xbd187ee1	-0.037230376
5	0x3edbb533	0.42911682
6	0x3e9df3dd	0.30850115
7	0x3ec26610	0.37968493
8	0xbd257156	-0.04039129
9	0x3e95fe45	0.29295555
10	0x3ec00b88	0.37508798
11	0x3ed35150	0.41272974
12	0x3ec08d0d	0.37607613
13	0xbce5d49b	-0.02805548
14	0x3ec50950	0.38483667
15	0x3ed054ac	0.406896
16	0xbad223b8	-0.0016032374
17	0x3aaeef31	0.0013346431
18	0xbd1c7672	-0.038198896
19	0xbcea0697	-0.028567595
20	0xbccd101e	-0.0250321
21	0xbd137147	-0.0359967
22	0x3c2f55b5	0.0107015865
23	0x3ed4c9df	0.41560265
24	0x3ec534b1	0.38516763

classfier.bn3.running_mean f4 [25]
0	0x3e9dfac8	0.30855393
1	0x3e99ebdc	0.3006276
2	0x3ed4b6a6	0.415456
3	0x3ead8b6b	0.3389543
4	0x3eaeab08	0.3411486
5	0xbf040c15	-0.51580936
6	0xbf107540	-0.5642891
7	0xbf2db8f9	-0.6786037
8	0x3e995832	0.299501
9	0xbf09b31e	-0.53788936
10	0xbf1ce1a2	-0.6128179
11	0xbf06fe0b	-0.5273139
12	0xbee9b377	-0.45644733
13	0x3eaf5d41	0.34250835
14	0xbf32b913	-0.6981365
15	0xbf13c23f	-0.5771827
16	0x3e9d2d70	0.3069873
17	0x3ea1254c	0.31473768
18	0x3eb123b0	0.3459754
19	0x3ea82bb8	0.32845855
20	0x3eb5fd80	0.35544968
21	0x3ed1d243	0.4098073
22	0x3ec418b9	0.38300112
23	0xbf2a940d	-0.6663216
24	0xbf1838cf	-0.59461683

classfier.bn3.running_var f4 [25]
0	0x3fc62453	1.5479835
1	0x3fae21ef	1.3604106
2	0x3fda9386	1.707627
3	0x3f96be28	1.1776781
4	0x3fb3c86f	1.4045542
5	0x3fbd3334	1.4781251
6	0x3f95af70	1.1694164
7	0x3fc2c45c	1.5216174
8	0x3f9bad91	1.2162343
9	0x3f8e3a12	1.1111472
10	0x3f9e3abb	1.2361673
11	0x3fa50a21	1.2893716
12	0x3fbca39d	1.4737431
13	0x3fa22bb1	1.2669584
14	0x3fb1e071	1.3896619
15	0x3fa5dc71	1.2957898
16	0x3fac5482	1.346329
17	0x3fba1ec2	1.4540637
18	0x3f9f577e	1.2448575
19	0x3fbaf9f7	1.4607533
20	0x3fc6c035	1.5527407
21	0x3fddcdec	1.7328467
22	0x3fde9ca2	1.739155
23	0x3f96c072	1.177748
24	0x3f76732d	0.96269494

classfier.fc5.weight f4 [1, 25]
0	0x3e54fea9	0.2080027
1	0x3e27cb05	0.1638604
2	0x3e719f1b	0.2359585
3	0x3ddd4c98	0.10805625
4	0x3e554f6e	0.20831081
5	0xbe99805c	-0.29980743
6	0xbec2a2f7	-0.38014957
7	0xbe9a6f7c	-0.3016318
8	0x3e7506b0	0.23928332
9	0xbed3e806	-0.41387957
10	0xbe970047	-0.294924
11	0xbe9907ee	-0.29888862
12	0xbeabd30a	-0.33559448
13	0x3e45a4a7	0.19301091
14	0xbe97aed2	-0.29625565
15	0xbe905c87	-0.28195593
16	0x3deaa302	0.114568725
17	0x3df9f3aa	0.12204678
18	0x3e8bfef2	0.27342945
19	0x3e49b633	0.1969841
20	0x3e1f4bee	0.15556309
21	0x3e5069d8	0.20352876
22	0x3df28e88	0.11843592
23	0xbe974c6b	-0.2955049
24	0xbe97a21f	-0.29615876
