src/trained_models/2025-06-22/run_20-45-05/dnn_model_fold_4.pt (torch, 91329 bytes, 19 tensors)

classfier.fc1.weight f4 [100, 100]
000000 af bc a9 bc bc 89 d1 bd a2 87 9c bc 5a 1f 6c 3d
       -0.020719854 -0.10231349 -0.019107644 0.057647087
000010 89 92 f8 bd 72 0e 4b 3c 91 17 c2 bc 2b ac 65 3d
       -0.12137324 0.012393581 -0.023692878 0.056072395
000020 c8 14 48 3c cc f4 67 bc 92 51 a4 bd 4b 69 de bb
       0.012211986 -0.014157485 -0.08023371 -0.0067874542
000030 e0 c8 6a bd 69 e8 61 3d b4 bd 92 bc c5 8d 96 3d
       -0.057320476 0.055153284 -0.017912723 0.07351259
000040 7c 5e 56 bd 48 b4 61 3c 02 83 6d 3d a2 38 87 3b
       -0.0523362 0.013775893 0.057986267 0.004126624
000050 e9 71 c4 bb 9a c1 e2 3d d8 57 b1 3d f3 31 78 3d
       -0.0059950245 0.11072083 0.08659333 0.06059451
000060 c5 34 6b bd ba f5 7a bd 04 8f 81 3d 22 47 9f bd
       -0.05742337 -0.0612695 0.06326106 -0.077772394
000070 9f 02 0d 3d 1e 35 2f bd b3 76 1c 3c 40 97 a2 bd
       0.034426328 -0.042775266 0.0095497845 -0.07939005
000080 5f 98 3d bd 48 3c 70 bd 53 0e 91 3d 93 94 1a 3d
       -0.04628789 -0.05865124 0.0708281 0.037739348
000090 76 ba 6e 3d 6d c9 af 3d e2 0c e5 3c e7 6e 75 bd
       0.05828329 0.08583341 0.027960245 -0.059920218
0000a0 6d fe 14 bd 1d c0 72 3d 8b 95 0d ba c3 1c 8a 3c
       -0.03637545 0.059265245 -0.0005401007 0.016859418
0000b0 45 fb a6 bc 34 7b 01 bd 1d 47 e4 bd 0b 1c aa 3d
       -0.020383487 -0.031611636 -0.11146376 0.0830613
0000c0 87 b0 80 b9 6e 86 5a 3d 7f e7 8b bd 05 41 23 bd
       -0.00024545586 0.05335086 -0.06831264 -0.03985693
0000d0 f6 62 22 bd 17 bf 8f 3c 73 5d 9f bd b2 9a 81 3c
       -0.039645158 0.017547173 -0.07781496 0.015820835
0000e0 99 b7 7c bd 54 43 04 3e 64 d6 9b bd 8b 81 0a bd
       -0.06169853 0.12916309 -0.07609251 -0.033814948
0000f0 30 05 a8 3c 62 1c 23 3d c8 f9 70 bd 87 ee ab bd
       0.020510286 0.03982199 -0.05883196 -0.08395105
000100 6b 41 77 3b 09 d3 b6 bc 60 f1 35 3c 8f 38 f8 bc
       0.00377282 -0.022317426 0.011104912 -0.030300407
000110 5d da ce 3d a8 a3 ca bc 43 a4 a4 3d c1 9c ef 3a
       0.10100243 -0.02473624 0.08039143 0.0018280969
000120 b3 d2 ea bd 69 e7 b6 bd c1 68 d5 bd 08 f1 e8 3b
       -0.11465969 -0.08930857 -0.10420371 0.0071088113
000130 c1 54 53 bd 62 a1 7e bd 5a 68 d0 3d 06 ce 0a 3d
       -0.0515945 -0.062165625 0.101761535 0.033887886
000140 a1 15 68 bd fc 9e 73 bd 43 52 8a bd 69 fd 8a 3d
       -0.056661252 -0.05947779 -0.067539714 0.067866154
000150 2b ff 15 3d b8 57 a0 bd ca 3b b3 3c 5e 1a a6 3c
       0.0366203 -0.07829231 0.021879096 0.020276245
000160 f4 a0 0a 3e 45 33 ba bd 00 dd 0b 3d 95 83 72 3d
       0.13537961 -0.0909181 0.03414631 0.059207518
000170 8a d0 9c bd 9b ad 98 3a b4 40 86 bc e7 60 10 bd
       -0.07656963 0.0011648418 -0.016388275 -0.035248663
000180 be 29 63 3d 9d fe 33 bc 58 bb 6c 3d 68 2f 88 3c
       0.05545973 -0.0109859975 0.057795852 0.016624168
000190 c8 f7 99 3c f7 69 1f 3d b6 64 06 3d 3c 97 ff bc
       0.01879491 0.038919415 0.03281089 -0.031200044
0001a0 db 03 97 3d fa df 1e bc 88 e6 71 3d d0 53 c4 3d
       0.07373782 -0.009696955 0.059057742 0.095862985
0001b0 5b 08 d5 3d a0 6e 71 bd 61 64 9c 3d 18 b3 1c 3d
       0.10401984 -0.05894339 0.07636333 0.038256735
0001c0 c6 ab 45 3d 28 92 77 3d 63 9d 87 bd 8f 86 b4 3c
       0.04825952 0.06044212 -0.06621816 0.022036819
0001d0 8f 23 4d bd c7 ba 86 3d c9 ee e5 3b 1e a9 68 bd
       -0.05008274 0.06578594 0.007016991 -0.056801908
0001e0 e9 7e 87 3d eb d3 ab 3d ac 29 1b 3d 83 cb a6 3d
       0.06616003 0.083900295 0.03788154 0.081442855
0001f0 21 76 94 3c 5b 3e e8 bc 81 26 ab 3d e3 5a 25 3c
       0.018122735 -0.028350046 0.083569534 0.01009247
000200 22 03 99 bd 06 d3 94 bd 66 33 f1 3d 8e ad ee 3d
       -0.07471301 -0.07266812 0.117773816 0.11654197
000210 c9 b9 0a bd 38 73 af bc bc a6 07 3e ce 59 14 3e
       -0.033868585 -0.021417245 0.13247198 0.14487383
000220 c7 26 c4 3c c6 18 03 3d ee 5b 8c 3d 3e b7 f5 3c
       0.023944272 0.032006048 0.06853472 0.029994603
000230 6f ac 9a 3d b2 79 b4 3c 47 fb 4a bd 47 5b 8c 3c
       0.0755242 0.022030685 -0.049556043 0.017133368
000240 57 00 8f bd 33 02 74 3d fd 27 8e 3d a3 77 67 bd
       -0.06982487 0.05957241 0.06941221 -0.05651058
000250 8a 15 81 3a 77 01 51 bd c1 6f d3 bb c2 47 90 bd
       0.0009848338 -0.051026788 -0.006452531 -0.07044937
000260 fa 35 aa bc f5 03 4a bd eb da cb bd 8c 61 74 3d
       -0.020777691 -0.04932018 -0.09953865 0.05966334
000270 b7 98 0c bd ac e0 6c bd 89 4e dc 3d 73 b4 a9 bd
       -0.034325328 -0.05783145 0.10757167 -0.08286371
000280 1a 1b 77 bc c1 cf 6e 3d 72 f2 19 3b b6 b4 8f 3d
       -0.015082145 0.0583036 0.0023490456 0.0701689
000290 52 21 54 bd 41 62 d7 bd cb 4b ee 3d 77 44 99 3c
       -0.05178959 -0.10516787 0.1163555 0.018709404
0002a0 5f d3 95 bd f9 90 fe 3c c5 7b 93 3d 7a ac 9d 3c
       -0.073157065 0.031074988 0.072013415 0.019247282
0002b0 b0 1f d2 3d 72 ab 7e 3d c5 db 0b 3e 8f 09 c3 bc
       0.1025995 0.06217522 0.13658054 -0.023808269
0002c0 70 ac 3c bd ca 16 ee bc 8f 7f 9e bd 6a 90 dd bc
       -0.046062887 -0.029063601 -0.077391736 -0.027046401
0002d0 8a 6b 16 bd 27 93 02 bc fb 4d 51 3d 0b f3 87 3d
       -0.03672365 -0.007969654 0.05109976 0.06638154
0002e0 e5 31 27 3d 79 2c 10 bd 62 26 2e 3d fa a4 49 bd
       0.040819068 -0.035198662 0.042517073 -0.0492296
0002f0 a5 77 19 3d e4 d2 6e 3d f1 cb 6b 3d 85 c1 8c 3d
       0.037467618 0.05830659 0.05756754 0.068728484
000300 30 44 be 3b ec af db 3c be bc 03 3e b2 89 46 bd
       0.0058064684 0.026817285 0.12864968 -0.04847116
000310 4e da 32 39 15 f0 64 bd 0a 83 99 bd 69 47 5d bc
       0.00017056728 -0.055893023 -0.07495697 -0.013505795
000320 e8 c6 73 bd eb 40 c8 3d 63 ec b3 3a 2b 02 50 bd
       -0.059515864 0.09778007 0.0013727065 -0.050783318
000330 bd 5a 06 bd f8 b5 9f bd 66 e0 79 bc f8 1e f7 bd
       -0.03280138 -0.0779838 -0.015251255 -0.12066454
000340 4d 6c bd 3d e0 62 57 bd b4 76 39 bb bd d3 2b 3c
       0.09249172 -0.05258453 -0.0028299512 0.010487494
000350 a9 aa 5c bc ab 37 61 bd f3 03 9c 3d 5e 90 42 3d
       -0.013468423 -0.05498473 0.07617941 0.04750096
000360 d9 9c 99 bd 7f 3b ba 3d 90 ba 6e bc 4b 21 3a bd
       -0.075006194 0.09093379 -0.014570847 -0.045441907
000370 16 6f 8d bc c6 4d 5b bc 12 00 d4 3b ed 21 b7 3b
       -0.017264884 -0.013385242 0.006469735 0.005588761
000380 8f c7 39 bc f7 b5 18 bd 00 5b 80 bc cf f7 6d 3d
       -0.011339082 -0.03728291 -0.015668392 0.058097657
000390 1c 88 60 bd 27 0d 77 3c 98 48 b9 3d 62 5a 9a bd
       -0.054817304 0.015078819 0.09047049 -0.075367704
0003a0 5f 53 8c bd 4a 50 f1 bc 13 17 81 bd 16 05 75 bd
       -0.06851839 -0.02945723 -0.06303229 -0.059819303
0003b0 94 cd 9e bd 1b 19 49 bd fc 72 7f 3d fd d0 c2 bb
       -0.07754055 -0.049096208 0.062365517 -0.0059453235
0003c0 dc 45 ba 3d 41 ac df 3b 4a 37 b3 3d 06 4d 94 bd
       0.09095356 0.006825954 0.0875078 -0.072412536
0003d0 57 59 13 bd d5 61 43 3c 91 c8 83 3d 66 f5 6f 3d
       -0.035973873 0.01192518 0.064347394 0.05858364
0003e0 90 90 89 bd 60 7b 0e 3c 32 b4 0c be 7b 09 c3 3d
       -0.06717026 0.008696407 -0.13740614 0.09523293
0003f0 0b c8 4d bd e1 17 c3 bd 9c e2 75 3d 74 26 56 3c
       -0.050239604 -0.09526039 0.060030565 0.013070691

classfier.fc1.bias f4 [100]
000000 4b c0 1e b6 48 14 5f 35 3d 4e ca b7 3b 25 f9 36
       -2.3655764e-06 8.3103487e-07 -2.4116709e-05 7.4251125e-06
000010 65 16 da 35 12 08 ed 36 f4 ff 3d b6 3b e2 e1 b6
       1.6248783e-06 7.06409e-06 -2.831218e-06 -6.7318592e-06
000020 27 d2 14 b5 6e c2 b2 b7 41 37 17 36 6c 23 f1 b5
       -5.544011e-07 -2.1309792e-05 2.2532915e-06 -1.7966208e-06
000030 74 f5 0b 37 0b 1b 98 37 ae 34 0c 35 7e 60 97 34
       8.342195e-06 1.8132405e-05 5.2230723e-07 2.819615e-07
000040 fa c5 bf 36 01 0f 91 b7 cc d4 48 35 07 e3 d6 35
       5.715291e-06 -1.7292334e-05 7.4815466e-07 1.6010316e-06
000050 d2 15 fe b7 43 39 4a b6 cc dc a0 b5 30 ad 3e b5
       -3.028932e-05 -3.0133676e-06 -1.1985189e-06 -7.1032537e-07
000060 a0 db 96 b7 5e 76 a5 b8 6d 66 50 37 40 2b 25 b6
       -1.7983664e-05 -7.889861e-05 1.2421614e-05 -2.461209e-06
000070 c7 93 ac 36 59 cc 11 b7 b2 0d 23 b8 fc 44 3b 35
       5.143203e-06 -8.690252e-06 -3.8874983e-05 6.9763314e-07
000080 6f 85 a6 b6 13 d5 7b 35 5a a6 3b b8 4c f8 11 b8
       -4.9627192e-06 9.381485e-07 -4.47392e-05 -3.480194e-05
000090 aa c2 1b b7 18 c6 4f 37 40 9d e2 b6 72 07 43 36
       -9.284044e-06 1.2384284e-05 -6.753631e-06 2.9061598e-06
0000a0 76 3e 72 36 6b 23 fa b7 b2 9e 44 b6 9a 5b 36 38
       3.6097167e-06 -2.9818815e-05 -2.9298649e-06 4.3477492e-05
0000b0 76 be 9a b5 09 a8 e5 36 29 94 16 b7 45 68 3d 36
       -1.1529326e-06 6.8442937e-06 -8.975193e-06 2.8223888e-06
0000c0 2f 39 3b 37 74 0a 0f b6 d2 73 dc b6 fe ba 00 38
       1.1159383e-05 -2.1314745e-06 -6.569994e-06 3.0691728e-05
0000d0 cc e7 af 35 b9 93 9a b6 ab 68 05 b7 52 f1 30 b6
       1.3105978e-06 -4.606755e-06 -7.951788e-06 -2.636651e-06
0000e0 a9 b2 33 36 b3 14 8b b5 cc 48 69 37 1f 92 db b6
       2.6777072e-06 -1.0362331e-06 1.3904832e-05 -6.5437193e-06
0000f0 50 70 3a b5 49 dc 91 b5 36 be 1f 35 e6 f8 ab 35
       -6.9453836e-07 -1.0867453e-06 5.950891e-07 1.2812932e-06
000100 1b f6 60 b6 ba bb 29 b5 34 2d 12 37 6a 0e 4d 35
       -3.3521853e-06 -6.3230584e-07 8.712803e-06 7.6389426e-07
000110 4f 89 05 b6 81 ee 20 b6 52 45 7b b4 8e 11 97 38
       -1.9898469e-06 -2.3980685e-06 -2.3401415e-07 7.203511e-05
000120 c2 4d 45 b5 81 8b 9b b5 b5 d0 3c 36 51 76 26 b8
       -7.350137e-07 -1.1589001e-06 2.8135667e-06 -3.9687675e-05
000130 a8 71 27 36 8e ed 3a b7 48 12 44 b8 fa 8b bf b5
       2.4951096e-06 -1.1141774e-05 -4.6747067e-05 -1.4271347e-06
000140 42 fd ca b7 a8 57 5f b7 19 30 05 36 6b 49 4a b8
       -2.4198209e-05 -1.3312245e-05 1.984654e-06 -4.822893e-05
000150 9e dc 96 35 e4 02 f8 b4 0c 2a 0b 37 80 5f 05 35
       1.1240079e-06 -4.6195703e-07 8.294835e-06 4.968533e-07
000160 25 87 86 36 ed e0 5b 37 c5 32 f0 34 22 7f 0f 37
       4.009244e-06 1.3105787e-05 4.4740423e-07 8.553065e-06
000170 60 8b a2 35 65 79 6d 35 26 7d 0d b7 f3 f1 05 b7
       1.2110504e-06 8.846603e-07 -8.433393e-06 -7.983751e-06
000180 0d a1 02 37 37 05 e0 b3 2b e4 15 b7 ef ec d1 b5
       7.786101e-06 -1.04317614e-07 -8.934217e-06 -1.564067e-06

classfier.bn1.weight f4 [100]
000000 7a 0a 6b 3f 32 ba 6c 3f ff b4 7b 3f 05 b1 74 3f
       0.9181286 0.9247161 0.98323053 0.9558261
000010 c5 ca 73 3f c3 09 80 3f d6 f5 7c 3f a5 11 7a 3f
       0.95231277 1.0002979 0.98812616 0.97683173
000020 f4 1d 8a 3f 45 44 7f 3f 06 84 6f 3f a8 78 93 3f
       1.0790391 0.99713546 0.93560827 1.1521196
000030 0d eb 75 3f 82 8c 80 3f 6c b0 7e 3f 3a b4 7d 3f
       0.96061784 1.004288 0.9948795 0.9910313
000040 90 91 80 3f 37 b3 82 3f 0a b3 6d 3f b8 c0 73 3f
       1.0044422 1.0210942 0.92851317 0.9521594
000050 8e 7a 80 3f 70 d4 76 3f 02 5f 78 3f d9 2d 76 3f
       1.0037401 0.96417904 0.9701997 0.9616371
000060 8d 86 82 3f c9 21 7e 3f 2a b0 7b 3f 67 01 7d 3f
       1.0197312 0.992703 0.9831568 0.98830265
000070 2c cf 75 3f f1 c7 7e 3f 37 60 7a 3f 0d dd 72 3f
       0.96019244 0.99523836 0.9780306 0.94868547
000080 42 e3 7d 3f 80 cf 6b 3f 75 f4 82 3f e8 3e 76 3f
       0.9917489 0.92113495 1.0230852 0.9618974
000090 15 64 81 3f e8 0f 83 3f 71 cb 7c 3f 80 c1 7d 3f
       1.0108668 1.0239229 0.98747927 0.9912338
0000a0 cf 6c 84 3f e3 9b 81 3f 79 77 75 3f a0 73 7f 3f
       1.0345706 1.0125698 0.95885426 0.99785805
0000b0 a6 dc 65 3f 9e e6 6f 3f 68 b0 75 3f 1e fd 71 3f
       0.8978981 0.9371127 0.959723 0.9452685
0000c0 12 c9 8b 3f 24 5c 84 3f 93 01 83 3f 9d e8 7c 3f
       1.0920737 1.0340619 1.0234855 0.9879244
0000d0 36 cb 77 3f 89 29 7c 3f 46 11 70 3f 96 76 81 3f
       0.9679445 0.9850088 0.9377636 1.0114315
0000e0 43 87 7a 3f 68 a4 64 3f 66 6d 77 3f 92 ba 7d 3f
       0.97862643 0.89313364 0.96651304 0.9911281
0000f0 6c 45 82 3f 15 77 81 3f 49 1f 73 3f 8d b8 70 3f
       1.0177436 1.0114466 0.9496961 0.940316
000100 2f 06 75 3f 70 f9 6d 3f bb 2c 74 3f 37 1f 73 3f
       0.9571256 0.92958736 0.95380753 0.94969505
000110 d3 f6 75 3f ae 40 6f 3f 8f b5 6a 3f d2 fa 81 3f
       0.9607975 0.9345807 0.91683286 1.0154669
000120 1c 01 61 3f 2c ac 6a 3f cc 35 74 3f 3e f3 77 3f
       0.8789232 0.91668963 0.9539459 0.96855533
000130 99 e8 6f 3f 1e de 7a 3f 83 3b 7a 3f 22 0c 73 3f
       0.9371429 0.97995174 0.9774706 0.9494039
000140 77 be 81 3f 61 c8 93 3f b4 76 67 3f a2 16 80 3f
       1.013625 1.1545526 0.904155 1.0006907
000150 05 da 82 3f 9e fe 6d 3f e8 38 7a 3f 1c b2 79 3f
       1.0222784 0.9296664 0.9774308 0.975374
000160 15 de 74 3f 04 a3 77 3f 00 5d 6d 3f 2d 1b 7c 3f
       0.9565137 0.9673312 0.9272003 0.98478967
000170 1a b3 75 3f 6d f9 74 3f c1 80 76 3f 8e 4d 6c 3f
       0.9597641 0.95693094 0.9629021 0.9230584
000180 cf bb 7f 3f b1 53 69 3f b0 44 7d 3f 0e c6 76 3f
       0.9989595 0.9114333 0.98932934 0.9639596

classfier.bn1.bias f4 [100]
000000 61 86 85 bd 2d 24 11 be 30 1e 62 be 9b 56 1d be
       -0.06519771 -0.14173956 -0.22081828 -0.15365069
000010 a0 c0 41 be e6 a8 8b be 8a 26 cf bd a4 46 30 be
       -0.18921137 -0.27277297 -0.101147726 -0.17214447
000020 33 bb 9f bc 0f b7 54 be ac 1b f9 bc 35 ea 0b bd
       -0.019498443 -0.20772956 -0.030408703 -0.034158904
000030 2e 57 3c be 30 0a c5 bc b1 f5 de bc b3 79 f6 bd
       -0.18392631 -0.02405271 -0.027216764 -0.12034931
000040 be 77 09 be 5c a7 6e bd 54 c6 f0 bc fe 25 a7 bd
       -0.13424584 -0.058265075 -0.029391445 -0.08161543
000050 88 07 71 be 49 48 5c be fb e6 ba bd d6 b1 a1 bd
       -0.23538029 -0.2151195 -0.09126087 -0.07895248
000060 67 dd e5 bd 0a f1 90 be ea 07 90 be 16 9a 5a be
       -0.1122387 -0.28308898 -0.28131038 -0.21347842
000070 53 df de bd f8 16 d3 bd 39 51 52 be 0f ff b3 bd
       -0.108824395 -0.10307115 -0.20538796 -0.08788883
000080 17 87 ae be 89 75 b1 bd 31 1d 69 be e8 1e 8a be
       -0.3408744 -0.08664996 -0.22765042 -0.26976705
000090 c7 b9 3c be c0 93 b0 be 44 f6 ab bd 83 87 95 be
       -0.18430243 -0.34487724 -0.08396581 -0.2920495
0000a0 c1 11 64 be aa 90 81 be 97 73 7a bd 47 df 7c be
       -0.22272398 -0.25305682 -0.06114539 -0.24694549
0000b0 4e 27 0f be 41 b3 40 be bb 8a a4 be 7d a2 97 bd
       -0.13979837 -0.1881838 -0.32137093 -0.07404039
0000c0 97 6f b5 bd e1 8f 3f be 03 07 24 bd a5 16 82 be
       -0.08859175 -0.18707229 -0.04004575 -0.254079
0000d0 4d c8 cb bd ef d5 ef bd 4a 49 19 be 75 db 78 be
       -0.09950314 -0.117107265 -0.14969364 -0.24302466
0000e0 33 fa 08 be a5 44 80 bd 4d 6c fe bd 34 38 5e be
       -0.13376693 -0.06263093 -0.124230005 -0.21701127
0000f0 54 ad 6e be ce ce b0 bd 0a b3 8b bd 98 b9 6e be
       -0.23308307 -0.08633195 -0.06821258 -0.23312986
000100 8c ce fa bd fc 0a c2 bd 53 15 e4 bc 6d 9e af bd
       -0.12246427 -0.09474751 -0.0278422 -0.08575139
000110 8b 4a 2a bd 2d 01 02 be 84 aa b5 bd cf d4 5d be
       -0.041574996 -0.12695761 -0.08870414 -0.21663211
000120 f9 17 e3 bd 65 e9 46 bd 69 54 a6 bc c9 f8 53 be
       -0.11088557 -0.048562426 -0.020303922 -0.20700373
000130 75 13 00 be 28 ee 81 be 43 01 8e be 8c a2 b0 bd
       -0.12507422 -0.2537701 -0.27735338 -0.08624753
000140 ec 00 6c be e0 af 94 bd 74 68 ce bd 53 9b 63 be
       -0.23047227 -0.07260108 -0.100785166 -0.2222722
000150 44 c8 fb bd 90 26 4d be 10 8a 74 be 28 6c 39 bc
       -0.12294057 -0.20034242 -0.23880792 -0.01131729
000160 31 6d dd bd c0 fe 15 be 96 92 98 bd c4 fa 85 bd
       -0.10811842 -0.1464796 -0.07449834 -0.0654197
000170 10 30 cc bd 74 cf 59 bd 56 de 25 bd 4a 93 fa bd
       -0.09970105 -0.05317636 -0.04049524 -0.122351244
000180 f4 a2 69 be 4a 90 e5 bd 76 b6 83 be db 07 8c bd
       -0.22816068 -0.112091616 -0.25725144 -0.06837436

classfier.bn1.running_mean f4 [100]
000000 47 b5 14 3f bc 22 b7 bf f2 c9 18 be 42 e5 e4 3e
       0.5808911 -1.4307475 -0.14920786 0.4470616
000010 df f2 0a 3c 3e 40 27 bd 72 21 d9 be 8b 7b 48 be
       0.008480757 -0.04083275 -0.4240833 -0.19578378
000020 b6 7a 42 bf 21 c6 60 be 8a 4c 90 3f bf 70 49 3e
       -0.7596849 -0.2195058 1.1273358 0.19671915
000030 ec 93 04 3e b5 50 ab 3d 0d 82 c7 3f 7d 63 11 bf
       0.12947053 0.08365003 1.5586563 -0.5679243
000040 f7 21 e0 be 34 67 4d bf 46 1d 96 3f 06 5c 87 3f
       -0.43775913 -0.802356 1.1727684 1.0574958
000050 99 1b 8e be 69 df 5c be 38 ca 96 3e 78 61 02 3f
       -0.2775543 -0.21569599 0.29451156 0.50929976
000060 11 3e 8b 3b cb ee 26 be aa 25 c6 bd 09 b2 9f bd
       0.0042493423 -0.1630203 -0.096751526 -0.077976294
000070 09 bd d6 3e e7 72 ef bd c2 7b 22 be 73 dd 8c bf
       0.41941097 -0.11691838 -0.15867522 -1.1005081
000080 10 24 03 3b af 31 d5 3e 87 73 32 be fc 51 89 be
       0.0020010509 0.41639468 -0.17426883 -0.26820362
000090 aa 27 8d 3d 7b 29 3c be 02 b9 77 bf e6 d6 61 be
       0.06892331 -0.18375199 -0.96766675 -0.22054633
0000a0 bb 28 c0 be c8 9a 0a be 0b fe 5c 3e 93 ce 6d be
       -0.37531075 -0.13535607 0.21581285 -0.23223333
0000b0 61 aa 29 3f 25 0d 5f be 90 33 1e be 43 1a b4 3f
       0.662756 -0.21782358 -0.15449357 1.4070514
0000c0 14 30 ff bd 91 05 3b bc 37 81 da 3d e2 ba 37 be
       -0.12460342 -0.011414901 0.10669177 -0.17942384
0000d0 11 27 e8 3e 07 78 44 3d 19 44 22 bb ad 73 93 be
       0.45342305 0.04796603 -0.0024759828 -0.2879919
0000e0 95 09 8b be 32 08 31 3f 2e 36 06 3e ec 07 61 be
       -0.27155748 0.6915313 0.13106605 -0.21975678
0000f0 64 06 20 be 86 df 03 3f 5b 6c aa 3e 2b 48 0e be
       -0.15627438 0.51512945 0.33285794 -0.13894717
000100 db f4 04 c0 a0 f5 1e 3f 2d fb 8c 3e ac 15 18 3e
       -2.0774448 0.62093544 0.27535382 0.14852017
000110 c6 96 15 3f eb 11 bc 3e f6 9e 68 3f 56 bb 47 be
       0.58433187 0.3673242 0.90867555 -0.19505057
000120 05 43 55 3f 4c a8 28 3d 64 22 f6 be a2 89 ae be
       0.8330539 0.041176125 -0.48073113 -0.3408938
000130 a9 70 36 be bc 66 fb bd af 05 84 be 4b ab 47 3f
       -0.17816414 -0.122754544 -0.25785586 0.7799575
000140 26 9a 48 be 4c 16 42 3b 28 62 4c 3f 25 08 08 be
       -0.19590053 0.002961534 0.79837275 -0.13284357
000150 24 09 ea be 54 bf a3 be a5 c8 b7 bd 6b fe 7b bf
       -0.457101 -0.3198191 -0.08973817 -0.98435086
000160 ad 0b 61 bd 46 a7 a8 be ad f8 30 3f 44 0e 39 bf
       -0.054942776 -0.3294012 0.6912945 -0.7228739
000170 a5 ef 15 3f e6 df ba bf f1 68 bf 3e 99 96 0e be
       0.58568794 -1.4599578 0.3738475 -0.13924636
000180 3b d0 83 be 05 90 24 be 0f 70 37 be f9 da d9 3f
       -0.25744805 -0.16070564 -0.1791384 1.701995

classfier.bn1.running_var f4 [100]
000000 8c cc c5 3d 0b 5c 16 3f ae b9 bb 3c 66 05 90 3d
       0.09658155 0.58734196 0.022915687 0.0703228
000010 47 c8 84 3d b3 12 02 3d e7 f3 2e 3e e8 df 63 3d
       0.06483512 0.031756114 0.17085229 0.055633456
000020 21 b5 24 3e 95 99 46 3d 83 46 ce 3e 8a fe 21 3d
       0.1608472 0.04848631 0.4028817 0.039549388
000030 ea d1 60 3d ac 13 5c 3d c9 ef 03 3f 1c f3 fe 3d
       0.05488769 0.053729698 0.5153776 0.12448713
000040 25 4b 60 3d 09 d0 18 3e 6c b9 94 3e 29 e8 e3 3e
       0.054759163 0.14923109 0.29047716 0.44513062
000050 52 38 b6 3c ce 3b 04 3d 49 36 bc 3d ee 4e 82 3d
       0.022243652 0.032283597 0.091900416 0.06362711
000060 2b fd 59 3d da e2 9a 3c c5 b9 e3 3c b3 d6 49 3d
       0.053219955 0.018907 0.027798543 0.04927702
000070 a6 b9 82 3d 50 c9 84 3d 18 7e f1 3c a1 b7 e9 3e
       0.06383066 0.0648371 0.029479071 0.4564791
000080 48 c1 24 3d 21 a8 53 3e 14 51 8e 3c a3 ae 38 3d
       0.04022339 0.20669605 0.017372645 0.04508842
000090 df 39 b4 3c af b4 bb 3c fd 97 ab 3e 2f b7 9a 3c
       0.022000251 0.022913305 0.33514395 0.018886177
0000a0 f2 70 fe 3c b3 04 89 3c 09 46 8e 3d b6 89 cd 3c
       0.031059716 0.016725874 0.06946952 0.02509008
0000b0 38 a7 df 3d 6c 93 87 3d 7f 26 2e 3d a2 40 88 3e
       0.10920566 0.06619915 0.04251718 0.2661181
0000c0 85 6e f1 3c c4 f9 22 3d e1 57 2e 3d 7f b8 21 3d
       0.029471645 0.039788976 0.042564277 0.03948259
0000d0 2a 09 da 3d 13 ed 5b 3d ff 60 54 3d 9d 9f 1a 3d
       0.10646279 0.05369289 0.051850315 0.037749875
0000e0 72 36 c9 3d b3 20 55 3e 37 8d 3c 3d 66 57 c4 3c
       0.09824838 0.20813255 0.04603311 0.023967456
0000f0 3e 16 8f 3c 46 a5 06 3e e3 60 49 3e b8 32 76 3d
       0.01746666 0.13148984 0.19665866 0.060106963
000100 c2 0d 6c 3f 33 74 9a 3e ed e5 4d 3d 97 dc 6d 3e
       0.9220849 0.30166778 0.050268102 0.2322868
000110 6e 5c 2f 3e 6b 39 5a 3e 22 fb f6 3d ce 62 b6 3c
       0.17125103 0.21310966 0.120596185 0.02226391
000120 32 07 e2 3e 88 e1 c2 3d 70 27 f9 3d 33 fd f8 3c
       0.44146115 0.09515673 0.12165725 0.030394172
000130 89 47 89 3d 7d c9 0c 3d 1a c0 db 3c 14 08 bc 3d
       0.067030974 0.03437184 0.026825 0.09181228
000140 52 a4 b0 3c ce bd a5 3c b0 52 2a 3e d0 e2 11 3d
       0.021562729 0.020232107 0.16633105 0.035616696
000150 cc ba be 3d d1 ea 73 3d a8 3f 10 3d 23 b4 7b 3e
       0.093129724 0.05955011 0.035216957 0.24580435
000160 7b d8 58 3d 63 41 52 3d df 67 bf 3e 41 a5 b4 3d
       0.052940827 0.05133189 0.37383935 0.08820582
000170 00 58 00 3e 73 59 9f 3e 9a 19 86 3d f2 6d 32 3d
       0.1253357 0.31122932 0.06547852 0.043561883
000180 59 c1 f1 3c 16 c9 8d 3d 8e af 2b 3d b2 95 07 3f
       0.02951114 0.0692312 0.04191547 0.5296279

classfier.fc2.weight f4 [50, 100]
000000 8d 05 98 3b 7b e9 08 bd 4a 81 43 3d 25 40 36 ba
       0.0046393336 -0.03342579 0.04773072 -0.00069523073
000010 f7 b0 5a bd da 5e 5a 3c 77 0f e2 bd be c1 9d bb
       -0.053391423 0.013328278 -0.11038106 -0.0048143556
000020 37 5f 0f be b2 19 ed bc 9d f6 91 bd 51 18 aa 3d
       -0.14001165 -0.028942917 -0.07127116 0.08305419
000030 a2 78 a3 3b e3 fe 02 3d 5d ac d4 3b 14 15 cd bd
       0.004988746 0.03198136 0.006490274 -0.10013786
000040 05 6f 81 bd 0d b5 e0 bc 22 66 09 3d b4 0f 03 be
       -0.063200034 -0.027430082 0.033544667 -0.12798959
000050 51 81 99 bd 6a 97 3a bb 62 81 aa bc 32 e8 97 3b
       -0.07495368 -0.0028471597 -0.020813648 0.004635834
000060 ff 07 ab bc ac 4b e4 bd 12 61 c6 bd 53 8d 03 bd
       -0.020877836 -0.11147246 -0.096864834 -0.0321172
000070 5c 98 cb bc 7e a7 fc 3c 47 27 f9 bc e1 51 8f bb
       -0.024852924 0.030841585 -0.030414237 -0.0043737744
000080 b3 2e 9f 3c fe 16 24 bd 0b b8 7e bc ec 5f 81 bc
       0.019431448 -0.04006099 -0.015546809 -0.01579281
000090 4c 17 0a 3b 5d fa 99 bc b2 51 c2 bd bf 43 ac bd
       0.0021071015 -0.01879614 -0.094882384 -0.08411359
0000a0 b8 8a c4 bb 84 53 3b bd af f3 7d bd fe f8 cb bd
       -0.005997982 -0.045733944 -0.061999973 -0.09959601
0000b0 66 08 37 3d 01 d1 8d bd 4d b3 14 bc 3f 61 bb 3c
       0.044685744 -0.0692463 -0.009075952 0.022873519
0000c0 91 b9 97 3b 76 38 46 3d e5 c4 98 3d 2b 7f 0e bd
       0.0046302755 0.04839369 0.0745943 -0.034789246
0000d0 03 cb 6a bd bd 61 3c 3c 8e 94 b9 3c e9 9b 40 bd
       -0.057322513 0.011497912 0.022653844 -0.047023688
0000e0 45 d2 eb bb af 0a 8e bd 5c 8f cb 3d 60 15 da bc
       -0.007196697 -0.069356315 0.09939453 -0.02662152
0000f0 ff 9c 93 3c de e1 9b bd bf b8 42 3d 37 4a 3d bd
       0.018019198 -0.0761144 0.04753947 -0.046213355
000100 16 64 d8 bd 7b 22 a6 bd 55 43 80 bd a9 fc 70 bd
       -0.10565965 -0.081120454 -0.062628426 -0.058834706
000110 52 64 86 bd 6a 08 3e bd 88 83 b4 bd f3 66 30 bd
       -0.06562103 -0.046394743 -0.0881415 -0.04306693
000120 27 9f ed 3c ab 02 5e bb 59 d0 8c bd 85 13 14 bd
       0.029006554 -0.0033876102 -0.06875677 -0.036151428
000130 4b 00 1d bd 4f 51 82 3d e1 8c 2d bd bb 01 25 bc
       -0.038330358 0.06363165 -0.04237068 -0.010071213
000140 d7 6d a9 bd d1 51 3e bc 1b 69 d4 3c c6 da 7c bc
       -0.082729034 -0.011616186 0.025929024 -0.015433019
000150 0f 13 f4 bd d2 f4 8a bd 73 0e 91 ba a7 8a 54 bd
       -0.11917698 -0.06784977 -0.0011066928 -0.05189004
000160 99 5b 07 3c b7 0f d1 bd ce 9b 63 3d 6b 52 38 bb
       0.008261585 -0.102080755 0.05556851 -0.0028125297
000170 c2 50 b2 bd 45 7d 0b be 7e b2 89 bc 54 82 91 bd
       -0.087068096 -0.13622005 -0.016808745 -0.07104936
000180 8a 56 92 bd b2 fb 95 bd c8 76 9e bc f6 b0 e9 bd
       -0.07145412 -0.07323398 -0.019343749 -0.11410706
000190 0d bd 85 bc b4 fe ce 3c 55 c4 52 3c 14 f9 93 3c
       -0.016325498 0.025267936 0.012864192 0.018063106
0001a0 81 13 b8 bd 14 36 3d 3d 54 79 e5 3c 34 be 93 bb
       -0.08988095 0.04619415 0.028011955 -0.004508758
0001b0 c2 da 4d bd b3 b5 9a bd 36 f1 c4 bc 07 40 94 3c
       -0.05025745 -0.075541876 -0.0240408 0.018096937
0001c0 11 e0 a0 bd e1 ae 7a 3d 9d 7b a2 3b ab 63 7f bc
       -0.07855237 0.061201934 0.0049585835 -0.015587728
0001d0 8f 2f da bc a9 0b 83 bd 16 34 6c 3d 5b c0 ae 3d
       -0.026634006 -0.063987084 0.05766686 0.08532783
0001e0 c5 a2 b2 bd 25 31 a2 3c 50 ac cf 3d 43 e9 a2 bd
       -0.08722452 0.019798825 0.10140288 -0.079546474
0001f0 87 f2 80 3d 7e 21 44 bc 72 49 8f bd 8b 6d a9 bd
       0.062962584 -0.011970876 -0.069964305 -0.08272847
000200 cf 7a fb bd 3e 6b b9 bc e7 e7 01 3d 23 97 38 3d
       -0.12279283 -0.022634145 0.0317153 0.04506601
000210 fa 54 97 bd 8c 84 8a 3d 08 4b b8 bd 9b 59 0e 3d
       -0.07389255 0.067635626 -0.08998686 0.034753423
000220 0b c7 c4 3b d8 81 ed 3c fe f0 ca 3c ba 21 95 bd
       0.006005173 0.028992578 0.024773117 -0.072818235
000230 47 50 97 bd 3c 3b c4 bc a2 4f 13 3d ed 01 b0 bd
       -0.073883586 -0.023954026 0.035964616 -0.08594117
000240 fe c8 d7 bd 74 66 35 3d 6d 3d 83 bd da fe 14 bd
       -0.10536383 0.04428716 -0.064082004 -0.036375858
000250 f0 3a f1 bc 3a db dd bc 7f f0 c5 3d 3d 56 7d 3c
       -0.029447049 -0.027082074 0.096650116 0.015462455
000260 d6 52 24 bd e6 c6 7f 3c ec 00 d3 3d e3 5c d1 bc
       -0.04011806 0.015611386 0.1030291 -0.025556987
000270 e1 73 91 bd 82 0e d8 3d 71 62 b1 3d 09 f7 3d bc
       -0.0710218 0.10549642 0.08661354 -0.011594542
000280 49 78 9e bc 90 ae 48 3d 1a 17 5b ba bf 05 2e 3d
       -0.019344466 0.0489946 -0.00083576294 0.04248595
000290 32 5e cb 3d c2 e7 9a 3d f7 84 f0 bc ad d3 b4 3d
       0.09930076 0.075637355 -0.029360278 0.088294365
0002a0 74 19 af 3d c1 37 50 3c 80 59 5a bd e2 1b 91 3c
       0.08549777 0.012708605 -0.05330801 0.01771349
0002b0 ae f7 78 3c 0e 9e c5 bd 11 ae b7 3c 42 0f 9e bd
       0.01519577 -0.09649287 0.022421869 -0.07717754
0002c0 c1 c9 7f 3d ea aa 06 3d 14 5a 29 bd c2 8e 00 3c
       0.062448267 0.03287784 -0.04134567 0.007846536
0002d0 f3 12 2e 3d 9e 3c 93 3d 3d 10 62 bd 38 33 c2 bd
       0.04249854 0.07189296 -0.055191267 -0.094824255
0002e0 19 37 a8 bd 4b 09 59 3d 4c f5 56 3c 03 b8 15 bc
       -0.08213634 0.052987378 0.013120007 -0.00913811
0002f0 a1 30 80 bc bc c7 16 3d b0 1f 7a bd 0a f1 ea 3c
       -0.015648188 0.036811575 -0.061065376 0.02867939
000300 a1 c8 cc bc 98 60 29 bd 65 28 ba 3d cb 71 af 3d
       -0.024998011 -0.041351885 0.09089736 0.08566626
000310 ce 10 4d bd ac e7 9f bd 2b f2 ca bc 3d ee 5a 3d
       -0.050064854 -0.0780786 -0.024773678 0.053449858
000320 e6 6e 67 bd 7f ba 57 bd a4 96 20 bc b3 36 12 3d
       -0.056502245 -0.05266809 -0.0098015405 0.035696696
000330 6b 3c b9 3c f9 34 d6 3d f5 89 b6 bd 2c 2e b2 3d
       0.022611817 0.104593225 -0.08913032 0.08700213
000340 05 a8 90 3c 35 6e 65 3d f4 0e a8 bc c8 f5 99 bd
       0.017658243 0.056013305 -0.020514943 -0.07517582
000350 67 56 bf 3d 2c ee 14 3d 1d 3c 01 3d b2 d5 b5 bb
       0.09342652 0.03635995 0.03155147 -0.005549156
000360 2d 1b 15 3d 95 55 2e bc 61 08 c8 bc 4d 3d a7 3c
       0.03640287 -0.0106405215 -0.024418058 0.020414973
000370 4a 3d 09 3d 1e 81 f0 3d 54 c8 c0 3c 46 09 65 bc
       0.033505715 0.11743377 0.023533024 -0.013979262
000380 fc cb d0 bd 1d e4 ad 3d ed 43 ff 3c dd ec 3d 3d
       -0.10195157 0.08490775 0.03116032 0.04636847
000390 79 12 ef 3c c4 de f5 bd 0c 59 83 3d fb 2d 2d 3d
       0.029183613 -0.1200538 0.06413469 0.04228018
0003a0 48 a8 ac 3d 89 73 93 3c 0f bd 72 3d 6b ca 28 3d
       0.084305346 0.017999427 0.05926233 0.041208666
0003b0 ac f7 06 be 35 66 0e 3e cb fa c3 3a 94 44 ec ba
       -0.13180417 0.13906176 0.0014952061 -0.0018025809
0003c0 92 e7 1a bc 62 ec 59 3d 3f c2 d2 3b 71 19 82 3c
       -0.009454625 0.053203948 0.0064318473 0.015881272
0003d0 92 b9 81 3d e0 63 fd bb fc f4 0b 3c 0e 71 a0 bc
       0.06334223 -0.0077328533 0.008542296 -0.019585159
0003e0 c0 51 cd bd 8c 72 ab bd 50 c5 fe bc 4c ef db 3d
       -0.10025358 -0.083714575 -0.031099945 0.10739002
0003f0 12 9e 82 bd 2b 0f e2 bc e2 42 8c bd c2 36 22 3d
       -0.06377806 -0.027595123 -0.068486944 0.039603002

classfier.fc2.bias f4 [50]
000000 6c 5c 86 35 ed 24 43 b5 60 91 7a 35 b2 f3 e2 b6
       1.0010676e-06 -7.2696895e-07 9.3343806e-07 -6.7636947e-06
000010 be 48 cb 34 08 9c c1 34 3c cc 96 34 cc b5 de 33
       3.7864623e-07 3.606258e-07 2.8088277e-07 1.0370749e-07
000020 14 a7 d7 b4 9d 0f b4 34 05 65 bd b5 23 56 a9 b5
       -4.0168436e-07 3.3538973e-07 -1.4110998e-06 -1.261655e-06
000030 a9 56 e7 35 06 35 c7 b5 f1 47 a4 33 ad b0 e4 b5
       1.7236063e-06 -1.4842087e-06 7.649931e-08 -1.7038743e-06
000040 62 2c e6 34 1a 7f e1 33 f9 e6 62 34 de 91 31 36
       4.287313e-07 1.05004986e-07 2.1131918e-07 2.6459961e-06
000050 fc 87 6c b6 03 e2 08 35 8a 7d 68 b5 7c e6 4a b5
       -3.5245894e-06 5.099284e-07 -8.660942e-07 -7.5586263e-07
000060 4f 16 0f 35 6d 97 08 b6 06 24 81 b6 b2 7e 6e 36
       5.3304115e-07 -2.035372e-06 -3.8486933e-06 3.553851e-06
000070 84 e3 c9 36 ec 62 28 35 c5 9b 19 38 2d 2e 03 b6
       6.016753e-06 6.272883e-07 3.6623114e-05 -1.95474e-06
000080 7c bb d2 b5 6b 90 65 34 f0 44 7e b6 d6 c8 4a b4
       -1.5700784e-06 2.1379826e-07 -3.7889076e-06 -1.888578e-07
000090 0c 28 86 35 59 69 3f 35 00 5d bd b4 f4 55 c8 b6
       9.995433e-07 7.1306346e-07 -3.527166e-07 -5.9704707e-06
0000a0 46 49 72 b4 47 b3 0e 35 a7 b8 2d 37 2d 3b 70 b4
       -2.2564663e-07 5.3160005e-07 1.0354596e-05 -2.237327e-07
0000b0 b6 a8 f0 b5 04 5d a5 33 14 b6 12 35 49 66 d8 35
       -1.7930495e-06 7.700331e-08 5.4654197e-07 1.6123023e-06
0000c0 3f 54 4f 34 b4 68 3b b5
       1.9309026e-07 -6.981529e-07

classfier.bn2.weight f4 [50]
000000 c5 05 6a 3f 2c 04 7c 3f 4d 50 8a 3f 37 d7 7f 3f
       0.91415054 0.98443866 1.0805756 0.99937767
000010 82 49 88 3f b5 25 87 3f c9 df 5d 3f d3 51 66 3f
       1.0647433 1.0558382 0.86669594 0.89968604
000020 b7 c2 74 3f a1 63 60 3f 2e f9 83 3f 88 b5 89 3f
       0.9560961 0.8765202 1.0310419 1.0758524
000030 74 bb 7b 3f fd fa 84 3f 80 fc 6b 3f 95 ef 83 3f
       0.98332906 1.0389096 0.9218216 1.030749
000040 81 4c 64 3f 56 c6 66 3f e0 47 61 3f 44 3d 9d 3f
       0.89179236 0.90146387 0.880003 1.2284322
000050 5d 84 83 3f 97 5f 61 3f a8 56 6a 3f 48 de 7f 3f
       1.0274769 0.88036484 0.91538477 0.9994855
000060 0e 1d 5a 3f 85 62 86 3f db 71 94 3f 5b d9 83 3f
       0.85200584 1.0498816 1.1597246 1.0300707
000070 b9 45 86 3f 33 20 69 3f 2c c5 8d 3f f2 f8 86 3f
       1.0490028 0.9106476 1.1075797 1.0544722
000080 c3 70 80 3f 7a 64 8a 3f 08 de 87 3f 52 e9 75 3f
       1.0034412 1.0811913 1.0614634 0.96059144
000090 aa 88 68 3f 42 42 6d 3f 2b d7 6f 3f 73 4a 87 3f
       0.9083353 0.92679226 0.93687695 1.0569595
0000a0 e8 8a 5c 3f b7 2c 62 3f 2c ee 87 3f e9 43 56 3f
       0.86149454 0.8834948 1.0619559 0.8369737
0000b0 81 41 6b 3f 58 8a 5b 3f 96 b1 74 3f 15 51 75 3f
       0.91896826 0.8575797 0.95583475 0.95826846
0000c0 ec 18 67 3f fa 94 88 3f
       0.902724 1.0670464

classfier.bn2.bias f4 [50]
000000 50 88 1f bc a0 a3 35 bd 80 35 12 be 55 38 4a bd
       -0.009737089 -0.044345498 -0.14278221 -0.04937013
000010 8e 37 5a be cf 41 24 be 34 7b 71 bd 62 77 8c bd
       -0.21310255 -0.16040729 -0.058955386 -0.06858708
000020 c1 5f 46 bd 5b 45 59 bd c0 a5 56 be e0 af 55 be
       -0.04843116 -0.05304466 -0.20961666 -0.20867872
000030 d8 77 59 bd 5c 2a 7d be 54 a0 e8 bd e4 0a d0 3c
       -0.053092808 -0.2472319 -0.11358705 0.025395818
000040 af 63 86 bd ea c1 da bd a0 6c 33 be 43 77 24 bd
       -0.06561982 -0.106815174 -0.17521906 -0.0401528
000050 c3 16 2a be 1b e9 f1 bd 55 fc 9f bd 08 3a 0f bc
       -0.16610245 -0.118120395 -0.078118004 -0.008741863
000060 53 c8 ef bd 48 ba 3f be b3 45 1c 3b f9 c2 7f bd
       -0.11708131 -0.18723404 0.0023845255 -0.0624418
000070 81 1d 79 be 50 e7 06 be 2a b0 69 be b6 7e 2f be
       -0.24327661 -0.13174176 -0.22821108 -0.1713818
000080 a8 d5 2e bc c1 c1 51 bd d8 36 34 be 81 fe b9 bd
       -0.010671057 -0.05121017 -0.17599046 -0.09081746
000090 45 1a d5 bd c2 9b af bd d5 bb 59 bd ae 53 5f be
       -0.10405401 -0.0857463 -0.053157646 -0.21809265
0000a0 b5 e8 8c bd 90 b6 af bd 86 a8 62 be 7c 4e 0f be
       -0.06880323 -0.08579743 -0.22134599 -0.13994783
0000b0 d8 3d 7b bc eb 09 d3 bd 89 5c 75 bd 32 80 5b bd
       -0.015334569 -0.10304626 -0.0599027 -0.053589053
0000c0 5c 9a cb bd b6 5c 3d be
       -0.09941551 -0.18492398

classfier.bn2.running_mean f4 [50]
000000 0b 2d 59 bf 4a b7 e7 bb 67 c3 98 3e bc 0d ac 3d
       -0.84834355 -0.0070714103 0.2983658 0.08401057
000010 73 ca 59 3e b3 b1 87 3e 36 9b a3 3e 42 1c ed 3d
       0.21268634 0.2650276 0.31954354 0.115776554
000020 b8 b0 b8 be 44 6b 2d 3e 63 6a 89 3e 07 10 1b 3e
       -0.36072326 0.1693545 0.2683898 0.15142833
000030 73 c2 1f be 90 1f 96 3d f8 1c 20 3f c2 88 3c be
       -0.1560152 0.07330239 0.625442 -0.18411544
000040 94 39 42 3e bf a1 88 3d e7 45 0b 3f 97 2b f4 3d
       0.18967277 0.066714756 0.5440354 0.119223766
000050 d0 ab c2 3e 56 82 9c 3e ef a3 57 3e ac 7e 9d be
       0.38021708 0.30568188 0.2105863 -0.30760705
000060 0d ca 02 3f fc 70 ca 3d 9d c7 4c bf 1c f0 17 bd
       0.51089555 0.09884831 -0.79992086 -0.03709422
000070 72 b0 e0 3d 79 86 3a 3f 93 90 1f 3e 3a ba 91 3e
       0.10971154 0.7286144 0.15582494 0.28462392
000080 fc 1a de be a4 2f 94 3e 6a e5 bf 3e 16 4d a4 3d
       -0.43379962 0.28942597 0.37479717 0.080225155
000090 5a af 41 bd b4 67 3e 3f a1 0a 36 bf c5 63 b0 3d
       -0.04728637 0.7437699 -0.7110997 0.086127795
0000a0 e6 57 15 3f 2e 36 ec be 9c 32 72 3c 02 a1 06 3f
       0.5833725 -0.46135086 0.014782574 0.5258943
0000b0 81 87 11 bf ac 65 e1 3d 3b 54 84 be 37 b0 d7 be
       -0.5684739 0.110057205 -0.25845513 -0.4212663
0000c0 9e f3 45 3e 08 a0 a5 3e
       0.19331214 0.32348657

classfier.bn2.running_var f4 [50]
000000 9e 76 05 3f 10 02 ae 3e 61 a5 1c 3f fb 95 0f 3f
       0.5213412 0.3398595 0.6118985 0.5608823
000010 c3 5e 17 3f 88 77 20 3f 5f 48 29 3f 13 fb d3 3e
       0.5912897 0.6268239 0.66126055 0.41402492
000020 a0 20 09 3f 46 64 12 3f 5a 56 26 3f 1b 08 24 3f
       0.53565407 0.57184255 0.6497551 0.6407487
000030 5c b6 d7 3e 21 0a 1a 3f 25 ea 14 3f 73 3d f4 3e
       0.42131317 0.60171705 0.58169776 0.47703132
000040 35 de b8 3e 4d 3a fa 3e b4 ed f0 3e 90 08 cf 3e
       0.3610703 0.48872605 0.47056353 0.4043622
000050 92 2b 1b 3f 38 90 ce 3e 18 3c b9 3e 48 0e b8 3e
       0.6061336 0.40344405 0.3617866 0.35948396
000060 a9 e2 a2 3e f5 f5 1b 3f d5 8d b6 3e 65 c3 f5 3e
       0.31813553 0.60922176 0.35655084 0.48000637
000070 96 0b 10 3f ff 12 dd 3e de f4 1f 3f c3 bc 1c 3f
       0.5626768 0.43178555 0.6248301 0.6122553
000080 cb 1c e0 3e cb e5 b8 3e d5 e8 35 3f 13 29 a9 3e
       0.43771967 0.36112818 0.710584 0.3303915
000090 4b 7a ed 3e 3e f2 ed 3e fd 0d 62 3f 93 96 19 3f
       0.46382365 0.4647388 0.88302594 0.59995383
0000a0 07 45 f6 3e de 00 b7 3e 8d d6 15 3f 0c a7 a4 3e
       0.4809954 0.3574285 0.58530504 0.32158697
0000b0 e2 23 d3 3e fc 08 ea 3e e1 2b 09 3f 25 f5 a7 3e
       0.41238314 0.4570998 0.5358258 0.32804218
0000c0 8b aa 00 3f 7c 35 3f 3f
       0.5026023 0.74690986

classfier.fc3.weight f4 [25, 50]
000000 f1 e8 7d 3b 68 27 75 be 0d 7c b3 bd ef a1 9e bc
       0.003874358 -0.23940814 -0.08763895 -0.019364325
000010 58 e9 e5 bd d2 7b d0 bd f5 e4 31 3d da f1 b8 bd
       -0.112261474 -0.10179867 0.04343124 -0.090305045
000020 de 74 5f 3d 59 9d c3 bd 8a c6 e9 bd b0 e6 d8 bd
       0.054554813 -0.09551496 -0.114148214 -0.10590875
000030 90 49 cf 3c 8c 86 14 be 18 ec 82 bc 1e a4 19 3e
       0.025303632 -0.1450445 -0.015981719 0.15004012
000040 ec 10 80 bd 6d 0f b3 3c 73 a5 5a bd a4 ac d3 3c
       -0.062532276 0.021857942 -0.05338044 0.025839157
000050 e2 2b 9c bd ff b3 a3 3c d3 1c 2f be 26 17 5c bd
       -0.076255575 0.01998329 -0.1710084 -0.053733014
000060 1e cc 44 bc 80 f0 eb bd 92 42 45 bd 2b 8f 91 3d
       -0.012011556 -0.11520481 -0.04815919 0.07107385
000070 8a b0 f5 bd 24 7d 37 bc a2 10 b8 bd b1 dd dc bd
       -0.11996563 -0.011199269 -0.089875475 -0.10784472
000080 4c 6e 50 3e af e2 1a 3d 48 ea ad bc 96 8c 23 3d
       0.20354575 0.03781384 -0.021229878 0.039928995
000090 02 8a d2 bc 49 7f c9 bc bc 0a ca bd 3a 13 0a be
       -0.025700573 -0.024596827 -0.09865329 -0.13483897
0000a0 c7 49 85 3c a1 ea f8 bc cd 3b dd bd a0 4e ee bc
       0.016270531 -0.030385317 -0.10802422 -0.029090226
0000b0 9f 68 42 be 41 e3 82 3d fb 4e aa 3d 11 1a 4c 3d
       -0.18985222 0.063910015 0.083158456 0.049829546
0000c0 76 42 b3 3d ba 3d 3e bd d3 eb 8b bd fb e6 36 bd
       0.08752911 -0.046445586 -0.06832089 -0.044653874
0000d0 65 7d d3 3d 71 96 f0 3d 28 91 1d 3e 2e 30 d1 bc
       0.103266515 0.117474444 0.15387404 -0.02553567
0000e0 73 e5 5e 3d f8 0f fa bb 2a 90 a0 bc d2 60 81 bd
       0.05441804 -0.007631298 -0.019599993 -0.06317295
0000f0 f9 35 5b 3c 6e 13 26 3e 58 da 76 bd b2 b4 e1 3d
       0.013379567 0.1621835 -0.060266823 0.11020793
000100 c2 33 4f bd 53 25 8b bd b7 ce 94 bd 27 12 4b bd
       -0.05058647 -0.067942284 -0.0726599 -0.04957786
000110 1d d7 a8 3d 1a 13 5f bd 94 45 e2 3d d4 01 5f 3d
       0.082441546 -0.054461576 0.11048427 0.054445103
000120 96 f6 4f bd 83 08 ab 3b cb d8 87 bc 05 35 d8 3a
       -0.050772272 0.0052195205 -0.016582867 0.0016495293
000130 04 e4 a1 bd 58 b9 ef bd 05 a4 9f 3d bb a2 94 3c
       -0.07904819 -0.117052734 0.07794956 0.018144002
000140 7d 5d 1c 3e ce 0b 06 3e 95 05 ee bc c0 b8 e1 3c
       0.15270038 0.1309044 -0.029055396 0.027553916
000150 38 20 2f 3d b7 64 9d bd 5c cc 9d 3d 78 6b 7e bd
       0.042755336 -0.076852255 0.07704994 -0.06211421
000160 87 d0 94 bd 93 6d 0c 3e 5f e4 6e 3d b0 e3 5c bd
       -0.07266336 0.13713674 0.05832326 -0.053928077
000170 cf 54 34 3d 5c be 12 3d 52 e1 8d bc a7 23 9b bc
       0.044026192 0.035826072 -0.017319355 -0.018937899
000180 b7 3b 13 bd 11 e7 7d bb 62 ae 2e bc 97 33 28 3e
       -0.03594562 -0.0038742463 -0.010661693 0.1642593
000190 37 33 0e 3d 7c 7a 70 3c e9 7a b9 3d f1 d3 b1 3b
       0.03471681 0.01467764 0.090566464 0.0054268767
0001a0 01 31 24 3e 33 7f bf 3d f8 e6 7b 3d 1a e2 84 bc
       0.16034319 0.09350433 0.061499566 -0.016221095
0001b0 dd 73 45 bd 0e 7a 2d bd 80 59 46 3d 74 aa 54 3d
       -0.0482062 -0.04235273 0.048425198 0.05192037
0001c0 f6 7d d9 bd 33 e8 12 3d e5 d1 0d bd 45 0b ab 3b
       -0.10619728 0.035865974 -0.034624 0.0052198493
0001d0 2a ba f8 3b e5 a2 bf bd 5a 9d d3 3d e8 88 67 bd
       0.007590552 -0.093572415 0.10332747 -0.05652705
0001e0 04 35 24 3d 6a f3 1d 3d 73 9a 5f bd 48 c9 ca bd
       0.040089622 0.038562216 -0.054590654 -0.099016726
0001f0 d3 34 13 bd 03 cf 0a 3e 8a f2 07 bd 7f 04 cd bd
       -0.03593905 0.13555531 -0.033190288 -0.10010623
000200 7b 3d 27 3d c6 94 b3 3d 28 82 b0 3d ec e6 41 3e
       0.040830117 0.08768611 0.08618575 0.18935746
000210 c1 06 bd 3c a1 e7 62 3d 51 aa 85 3d d7 bf 6f bd
       0.02307451 0.05539668 0.06526626 -0.058532562
000220 b5 18 ef 3d 5f ef 98 3d b0 8b 85 bc e7 01 d2 3d
       0.11674634 0.074675314 -0.01630196 0.10254269
000230 c2 70 09 3b b8 e9 c9 bd 30 6e 03 3e 9f d1 0f bd
       0.002097175 -0.098590314 0.12835002 -0.03511202
000240 e4 a1 67 bd 6f 8f b6 bc e0 cc 28 3c f1 99 9f bd
       -0.056550875 -0.022285191 0.010302752 -0.07793034
000250 70 10 55 3d e7 e0 07 3e ed 3e 8c bc d5 c9 02 bd
       0.05201763 0.13269387 -0.01711985 -0.031930763
000260 8b da a7 3d 43 c4 cc 3d 00 9c dd 3d 1d 58 21 3e
       0.08195981 0.099983715 0.1082077 0.15756269
000270 a4 e6 35 3d 00 65 00 bd cd ec 5e bd 0a 8e d1 bc
       0.04440941 -0.03134632 -0.05442505 -0.025580425
000280 13 a1 44 3d 66 eb 4c 3d 34 c8 74 bd 95 5b 06 3e
       0.048005175 0.05002918 -0.05976124 0.13120873
000290 4b 95 77 3d b6 8b 92 bd 33 ff 3c 3a 0b b4 65 bd
       0.06044511 -0.07155554 0.00072096585 -0.056079905
0002a0 9e 3d f2 3d ae 4b 61 bd 76 45 9c 3d 7a 35 30 3d
       0.11828159 -0.055003814 0.07630436 0.04301975
0002b0 92 26 0c bd 5e 62 ad bd 8b 60 b6 bc 11 6b ea bc
       -0.03421647 -0.08466028 -0.022262832 -0.028615506
0002c0 f3 4e 64 bd e3 9b 1e be 43 cf d6 3d aa ba 74 bd
       -0.055739354 -0.15489154 0.10488751 -0.05974833
0002d0 4f 6b 12 3e bc 02 12 3e 63 10 22 bd a7 dc 09 bc
       0.14298747 0.14258856 -0.03956641 -0.008414424
0002e0 e2 38 14 3e 4c 4f a9 3c 5d eb 85 3c 68 3a 96 3d
       0.14474824 0.020667695 0.016347582 0.07335359
0002f0 ba 26 95 bd f4 cf 9c 3d 54 3e 83 bd 71 35 26 3d
       -0.07282777 0.076568514 -0.064083725 0.04057831
000300 2f f2 21 3e 6f 39 0a 3c 07 f4 84 3c de 6a 7e 3c
       0.15815042 0.008436545 0.016229643 0.015528409
000310 a9 f4 50 3d 05 40 f3 3c 48 2c 96 bd 1a 41 1f bd
       0.051014576 0.029693613 -0.07332665 -0.038880445
000320 79 60 2f 3c fd 47 3d bc b4 a7 0c 3e f0 cf e5 3d
       0.010704153 -0.011552808 0.13735849 0.112213016
000330 e1 1b 03 3d 9a 96 18 3e 25 d9 35 3d 10 d9 4b 3d
       0.03200901 0.149012 0.04439654 0.049767554
000340 de d7 72 3c c7 a7 51 3c 4b 91 28 3e d0 28 9d 3d
       0.014821975 0.012796349 0.16461675 0.076738
000350 e3 ed 4e bc da 93 b1 3d 20 6f f0 bd 99 fa a6 bc
       -0.012629959 0.086707786 -0.117399454 -0.020383166
000360 d3 ce c3 bd 2a 09 a4 bd 39 1e 11 bd 1c 3d 46 bd
       -0.09560933 -0.080095604 -0.035429213 -0.048398122
000370 62 27 4e 3d 18 7b 70 3d 2b 7b 51 bc 2e 2e 1a bc
       0.050330527 0.05871114 -0.012785713 -0.009410424
000380 8b d7 08 bc 50 f0 98 3d bc 76 ab bd 27 10 0d be
       -0.008352171 0.07467711 -0.08372256 -0.13775693
000390 d3 e5 1b 3e 31 cd 00 bc fc 74 5e 3c 15 1d d5 3b
       0.1522439 -0.007861421 0.013577696 0.006503711
0003a0 dd ff 27 bd 41 36 9b bc 20 21 92 bc c5 1e 1f bd
       -0.041015495 -0.018946769 -0.01783806 -0.038847703
0003b0 e8 f2 c2 3d 55 79 88 bd 5b c5 ab bd 4c 90 56 3e
       0.09518987 -0.06663767 -0.08387252 0.20953482
0003c0 19 e1 c3 3d 71 ea 2a 3d 66 7b 60 bb 35 cb 33 3d
       0.09564418 0.041727487 -0.0034253239 0.043894965
0003d0 aa 03 9c bd a2 64 1e bd 9c 7c 88 3c 2b bf 00 bd
       -0.07617886 -0.03867019 0.01666098 -0.031432312
0003e0 07 fd cf bd 4d 47 42 3d 70 16 1a be cd 95 a1 3d
       -0.10155683 0.04743128 -0.15047622 0.078899
0003f0 c5 e4 64 bd b3 38 6b bc be 15 6c bd 6b 9e 5a bd
       -0.055882234 -0.01435678 -0.057637922 -0.053373735

classfier.fc3.bias f4 [25]
000000 29 fb 12 b7 8f 24 b0 33 b8 10 c9 b5 ba 72 92 b5
       -8.760756e-06 8.2022886e-08 -1.4980533e-06 -1.0911237e-06
000010 20 99 b8 b5 4b 1b f2 b7 cc ff 0f b7 fe 79 57 35
       -1.3753634e-06 -2.8861357e-05 -8.583022e-06 8.0271263e-07
000020 d2 91 f7 37 a4 b4 5d 35 f0 4d 61 b5 56 1e 50 35
       2.9512597e-05 8.259178e-07 -8.3932446e-07 7.753018e-07
000030 d7 9f 40 38 bf e8 c9 35 ec ef a9 36 34 ab 51 b5
       4.592523e-05 1.5043405e-06 5.064523e-06 -7.81077e-07
000040 02 9b 1c b5 de a1 6b 36 ae 1c 43 36 2c 98 68 36
       -5.8340095e-07 3.5111948e-06 2.9073958e-06 3.465927e-06
000050 8d 58 bf 37 f8 52 81 b6 ab b2 9f b6 92 8e d4 34
       2.2810209e-05 -3.8541584e-06 -4.759369e-06 3.959181e-07
000060 dc 29 80 38
       6.1113125e-05

classfier.bn3.weight f4 [25]
000000 c8 ad b1 3f 66 dc 88 3f 37 00 87 3f e0 c0 85 3f
       1.3881159 1.069226 1.054694 1.0449486
000010 3d d5 81 3f f7 70 b5 3f 4b 3a b5 3f 13 86 87 3f
       1.01432 1.4175099 1.4158415 1.0587791
000020 00 d0 a8 3f 02 42 88 3f ba e4 87 3f 75 83 83 3f
       1.3188477 1.0645144 1.0616677 1.0274493
000030 5d 17 a8 3f 34 a9 81 3f 6d 02 a6 3f 5a b1 85 3f
       1.313213 1.0129762 1.296949 1.0444748
000040 2b 6a 85 3f 88 49 84 3f 57 2b a5 3f 28 71 83 3f
       1.0423025 1.033494 1.2903851 1.0268908
000050 19 ab ab 3f 67 44 85 3f 77 fd b5 3f 0a 63 7f 3f
       1.341159 1.04115 1.4217976 0.99760497
000060 0e e9 a7 3f
       1.3117998

classfier.bn3.bias f4 [25]
000000 85 f0 d0 3e 97 4c 03 bd d3 9e 19 bd b5 bc 20 bd
       0.40808502 -0.032055464 -0.037504982 -0.039242465
000010 4a fb 54 bd 2b ed cf 3e db 56 dd 3e 18 9a e7 bc
       -0.05199746 0.40610632 0.43230328 -0.02827172
000020 48 c7 a1 3e 7d c0 f1 bc 09 e8 f7 bc 12 8b 01 bd
       0.31597352 -0.02951073 -0.03026201 -0.03162677
000030 d4 32 9d 3e 92 69 35 bd 99 87 94 3e 72 03 1d bd
       0.3070284 -0.044290133 0.29009703 -0.038333364
000040 a6 50 2a bd c3 d1 3b bd 64 a2 91 3e f3 f9 40 bd
       -0.04158082 -0.04585434 0.28444207 -0.04711337
000050 1e c2 b1 3e da ad 30 bd d3 9d d2 3e 5b 61 3b bd
       0.34718412 -0.043134548 0.41136035 -0.045747142
000060 25 b9 9f 3e
       0.31195942

classfier.bn3.running_mean f4 [25]
000000 68 35 ff be 0b b1 45 3e f0 2b 9a 3e 97 0f 82 3e
       -0.49845433 0.19305818 0.30111647 0.2540252
000010 7b 71 23 3e 45 26 1f bf 5d 03 2e bf 4d 67 dd 3e
       0.15961258 -0.6216777 -0.6797388 0.43242875
000020 00 65 2f bf 2e 25 ae 3e f2 e3 af 3e 04 d5 8f 3e
       -0.6851349 0.3401274 0.34353596 0.28092206
000030 af 75 1c bf d2 cc 93 3e 94 fb 0d bf ae 4d a6 3e
       -0.6111707 0.28867203 -0.55462 0.3248114
000040 07 80 8f 3e 1b 78 5c 3e 63 ce 1a bf 12 4b 22 3e
       0.28027365 0.21530192 -0.6047117 0.1584895
000050 bf 35 df be fd 96 64 3e 69 45 45 bf 65 3f 4b 3e
       -0.43595693 0.22323222 -0.77059036 0.19848402
000060 f6 1b 38 bf
       -0.71917665

classfier.bn3.running_var f4 [25]
000000 19 a9 a4 3f e9 11 bf 3f 1b 9d c7 3f 6f b0 b0 3f
       1.2864105 1.4927341 1.559482 1.3803843
000010 30 2f 8c 3f a7 b4 19 3f 0c 53 37 40 c2 df e4 3f
       1.09519 0.6004128 2.8644438 1.7880785
000020 bb 96 bb 3f 87 82 cf 3f bb 34 b1 3f 4a 09 96 3f
       1.4655374 1.6211709 1.3844217 1.1721585
000030 e4 bf 88 3f 3b 66 a7 3f 03 93 92 3f 91 86 dd 3f
       1.068356 1.3078073 1.1451114 1.7306691
000040 19 f1 bb 3f 8c d5 c2 3f ee b2 bf 3f c2 6b 96 3f
       1.4682952 1.5221419 1.497648 1.1751635
000050 86 c4 9a 3f ad a5 ae 3f b9 6e b8 3f bb 1c aa 3f
       1.2091224 1.364431 1.440879 1.3290018
000060 a5 33 c6 3f
       1.5484511

classfier.fc5.weight f4 [1, 25]
000000 98 20 a5 be c5 46 10 3e 02 c0 42 3e 0e a1 45 3e
       -0.3225143 0.14089496 0.19018558 0.19299719
000010 a2 a9 05 3e ee 44 9b be 8e 11 95 be 15 8a 31 3e
       0.13052991 -0.30326027 -0.29114956 0.1733783
000020 6b 36 c1 be 13 01 73 3e b3 ed 45 3e 7f f5 01 3e
       -0.3773683 0.23730879 0.19328956 0.12691306
000030 e7 b7 cf be e8 53 3b 3e 65 34 e3 be f8 de 6e 3e
       -0.40569994 0.18293726 -0.4437591 0.23327243
000040 44 f5 50 3e 58 e4 2e 3e dd ef ef be 42 bd 12 3e
       0.20406061 0.17079294 -0.4686269 0.14330009
000050 ad 02 c5 be 04 b7 38 3e e8 31 a0 be 8f cb ef 3d
       -0.38478604 0.18038565 -0.31288075 0.117087476
000060 52 e2 c8 be
       -0.3923517
