trained_models/Krogan14k/run_19-10-27/dnn_model_fold_1.pt (torch, 89281 bytes, 19 tensors)

classfier.fc1.weight f4 [100, 100]
00000000: 1fe0 153d 3924 d03d 38dc bb3c 570c 3abd
00000010: 0c21 7a3b c7ae 11bd a208 493d fa47 8b3c
00000020: 4937 8a3b d296 eebc d329 d7bd 9187 e23a
00000030: c91f b23c 74cf 72bd 2176 533d c114 12bd
00000040: 9246 d83a 965c 973d 4057 d83d d8a5 39bd
00000050: 40d7 5b3b 29bb d43c ac7d e03d 6810 b6bc
00000060: 745a 24bc 99b9 623d e9ea 8fbc cfb0 603d
00000070: a433 f83d eddd 12bd cd0a e63d 5963 94bd
00000080: 2fd8 193b 1e5a 10bd fc42 b93d 592e 6b3d
00000090: e8f3 fcbd e38a 963c 3cc9 023b 93af 4ebd
000000a0: 82f7 31bd 1605 70bd 5a01 17bd bbfe 6e3d
000000b0: 1556 ce3d e591 bdbc f986 e9bc 6796 f6bd
000000c0: b9ca 1dbb 3823 163d 4b35 ad3d b1d1 9cbd
000000d0: a9c7 39bc 7c2d dabd 6369 f23d cfe2 803d
000000e0: 5dd2 a8bd dfcb 913c 9b7e d43c 61ad 823d
000000f0: b3dd 7c3d 980e 543d fd5d 7bbd 661e 843d
00000100: b91a 5e3d 3aaf 4abd 0a8d d5bd 5599 88bd
00000110: 672c 9fbd baf1 993d 3499 f4bb 5cd6 fcbd
00000120: 016b 843d 69c2 383d 15e3 a8bd b5be bf3d
00000130: 3c59 4cbb 8dc2 84bb 35d8 a83b 38e0 7f3d
00000140: 7ed7 03bd 1098 c7bb 471d 01be 47ee e6bb
00000150: 97f2 c93b 497b dbbd 4cc4 6d3d e5ca 793d
00000160: 6678 253c 4e34 fdbc 18d5 9e3d adfa eb3b
00000170: 356c e23d 18b4 233d 849d b93d e7c9 113d
00000180: 9c6e 8abd 615a cabc 09a1 d23c 6ea9 f93c
00000190: 0a75 3c3b b303 0c3e 2dd9 87bd b027 253c
000001a0: 7c92 123d 6768 86b9 2193 363d bfd8 1dbd
000001b0: d33d 5d3d b3c7 aabd 2eae 93bd d556 debd
000001c0: a9ed 623d 5e26 c3bc baf3 3bbd 1687 ce3d
000001d0: 8ad5 ef3d dc6d 83bd 820f 213d d470 b4bd
000001e0: e1f8 62bd ac45 903d aae8 363d 77ae b13d
000001f0: efa1 20bb f437 61bd 4bac c63c 8158 77bd
00000200: 47c9 593d 88cb de3d bfa9 8cbd d77b fc3d
00000210: ab80 323c 0275 8cbd 5da2 35bd a524 093e
00000220: 5da0 d8bd 1280 22bd c412 a43d fe33 483d
00000230: ede4 e13d 377d 8dbd a467 463d 8a76 e8bd
00000240: 090f 963b b74c 753d cfc0 033e 043c 90bd
00000250: 182c 85bc c0f5 303c dc3f c5bb 9b0a 6cbd
00000260: ea2f c2bd cd8a 6cbd 4eac c4bd 872f ba3b
00000270: 945c a2bd cf8d 54bc 78ed 5f3c c2d4 ee3c
00000280: 09f7 40bd c38a 813c ff7a 323c 9dbb 9f3d
00000290: b451 e5bc 9d20 973d 2607 dfbc 778c cebc
000002a0: 9625 58bc 40eb 703d b291 463c acc5 39bd
000002b0: 361d 93bd 7e3a cebd 2dc2 2dbd 6db7 81bd
000002c0: 8baf d83d 57c6 503d 5791 ab3d 4b12 92bd
000002d0: ff07 7ebd 0080 3c3c 0942 023d dbcd cfbd
000002e0: d91d ccbc d7ae c6bd 118c 873c 8b83 a23d
000002f0: 59ca 8cbc e940 56bd 396d c73b eaac f83d
00000300: 451f 74bc a34c 81bd 8f86 d23d 0df5 0b3e
00000310: cf17 96bc ddba a1bc 70b0 d5bd f4d0 4abd
00000320: 69bb 873d 2eaf 4b3d 0076 a03d 367f 7bbd
00000330: c5f8 5dbd 8ece 283d fe69 5c3d 4de8 7e3d
00000340: 17a1 8dbd 83d6 e4bd 0f34 82bd b46a b53d
00000350: 7c6b 973d 8653 8bbd 6993 bf3d cc46 803c
00000360: de23 c53b 59d8 4ebd f3b1 29bc f685 283b
00000370: e7d7 92bd 3708 3abd 3c7f 0cbc 8b58 4bbd
00000380: 6d8e 80bd f86d 8e3d 6566 c9bd 48eb 8d3b
00000390: 8e1a 843d ed85 683d 5fdd 103d c3fd b1bd
000003a0: d9cd a73d 9958 11bd 63ef d0bd 26e1 c3bc
000003b0: 6133 f8bb 9ff5 173d da74 c83b 041c e23c
000003c0: 8dbd 0b3d 33c4 1ebd 8d32 04be 902c 49bd
000003d0: 1d44 c63c 4231 c93c 29ca b93d b493 a6bd
000003e0: 4083 91b8 53ee b3bd a055 993d 7459 513c
000003f0: 1926 403c 6684 59bc adc8 c83d 4433 98bd
0.03659069 0.10163159 0.022932157 -0.045421924 0.003816667 -0.03556707 0.0490805 0.017002095
0.0042180163 -0.029124651 -0.10506024 0.0017282834 0.021743672 -0.059279874 0.05162633 -0.035664324
0.0016500524 0.07390706 0.105635166 -0.045324177 0.0033545047 0.025968151 0.1096147 -0.02222462
-0.010031331 0.05535278 -0.017568069 0.054856118 0.12119225 -0.035856176 0.11232529 -0.072455116
0.0023474803 -0.035242192 0.090459794 0.057417247 -0.12351209 0.018376773 0.001995637 -0.05046041
-0.043448932 -0.0585986 -0.036866523 0.0583484 0.100750126 -0.023140857 -0.028506743 -0.12040406
-0.002407713 0.03665468 0.084574305 -0.07657183 -0.011339107 -0.10653207 0.11836507 0.0629326
-0.082432486 0.017797409 0.025939276 0.06380726 0.061734866 0.05177173 -0.06136893 0.064511105
0.054224703 -0.049483515 -0.10427292 -0.06669871 -0.07772141 0.07516809 -0.0074645523 -0.12345573
0.06465722 0.04510728 -0.082464375 0.09362546 -0.0031181118 -0.0040515126 0.005152727 0.06246969
-0.03218793 -0.0060911253 -0.12608825 -0.007047448 0.006162952 -0.10716874 0.05804853 0.06098451
0.010099506 -0.03090873 0.07755488 0.0072015137 0.11055795 0.039966673 0.09063247 0.03559294
-0.06759378 -0.0247013 0.025711553 0.030476298 0.0028756284 0.13673286 -0.0663322 0.010080263
0.03578423 -0.00025636257 0.044573907 -0.038536783 0.05401404 -0.08338871 -0.072109565 -0.10856406
0.05540243 -0.023822006 -0.045886733 0.10084359 0.11710651 -0.064174384 0.03932143 -0.08810583
-0.05541313 0.07044539 0.04465548 0.08675855 -0.0024510582 -0.054985 0.024252078 -0.06038714
0.05317047 0.10878664 -0.06868314 0.12328308 0.010894935 -0.06858255 -0.044344295 0.13392885
-0.10577462 -0.03967292 0.08011392 0.04887771 0.11029992 -0.069086485 0.048438683 -0.113507345
0.004579429 0.059887614 0.1286652 -0.07042697 -0.016256377 0.010800779 -0.0060195755 -0.0576273
-0.09481795 -0.05774956 -0.09603177 0.005681935 -0.07927814 -0.012973263 0.013667457 0.029154185
-0.04711059 0.015813237 0.010893582 0.07799456 -0.02799306 0.07379267 -0.027225088 -0.025213463
-0.013192555 0.058818102 0.012119697 -0.04535453 -0.07183306 -0.1006975 -0.04242151 -0.06333814
0.10580357 0.0509704 0.08377331 -0.07132395 -0.062019344 0.011505127 0.031801257 -0.10146686
-0.024916576 -0.09701317 0.016546281 0.07935246 -0.01718633 -0.052307997 0.0060860184 0.12142356
-0.014900033 -0.063134454 0.10279571 0.13667698 -0.0183219 -0.019742424 -0.104340434 -0.04951568
0.066275425 0.04972761 0.07835007 -0.061400615 -0.054192323 0.04121261 0.05381202 0.062233258
-0.06915491 -0.11173727 -0.06357586 0.08858243 0.07393548 -0.0680304 0.09354288 0.015658759
0.0060162386 -0.050499294 -0.010357368 0.0025714613 -0.07170086 -0.04541799 -0.008575257 -0.049644988
-0.062771656 0.069545686 -0.09833983 0.004331026 0.064503774 0.056768347 0.035367366 -0.08690979
0.08193559 -0.035484884 -0.102019094 -0.02391107 -0.007574484 0.037099477 0.0061174454 0.02760125
0.034116317 -0.03876133 -0.12909909 -0.049114764 0.0242024 0.02455962 0.09071762 -0.08133641
-6.938586e-05 -0.08785691 0.07487035 0.012777675 0.011727833 -0.013276195 0.09803901 -0.07431653

classfier.fc1.bias f4 [100]
00000000: d6b2 13b6 55ee 2538 cab4 9d35 187d 72b7
00000010: a271 2cb6 aa96 9db7 a27d 32b8 3a43 edb6
00000020: f8d7 3bb5 baf7 0235 ee3e e134 1f17 4a34
00000030: 6bcd 4137 9701 bab6 8916 2eb7 acb9 50b7
00000040: 9205 16b8 4432 b7b7 002a 9d35 1e8a 0437
00000050: 1d31 9137 cab1 2e36 3a10 b535 59d9 ceb7
00000060: f1b4 26b6 6bd9 eeb5 4e21 8eb7 eb43 2335
00000070: f5f9 be37 931f 71b6 cd08 1137 bd2a c0b5
00000080: a0c4 5737 18d1 c632 3ba9 7336 7c40 bc37
00000090: ebf9 4038 60ba f936 d0c7 f435 9ca8 46b6
000000a0: b14c 1a37 c1f0 1bb6 1ab9 7734 b0e1 acb7
000000b0: c3ac a737 8f10 89b6 6fdf acb5 dcc4 c338
000000c0: 0284 69b6 016f 0b37 10b8 6536 0c9b 3537
000000d0: 9909 d3b4 8c2b d8b4 0642 fa35 10f6 3ab5
000000e0: a3f2 6fb6 9b45 13b6 ddc4 5636 6a98 9a35
000000f0: ff67 09b5 dec7 48b7 a29e 1537 0fc7 c035
00000100: 3264 f635 c809 9bb7 c7a3 b2b7 a858 1f36
00000110: 9f60 0b36 3b7c 5fb5 889e 4eb5 105e b1b6
00000120: 0a5c 1d37 da89 49b7 15c3 23b7 8969 6335
00000130: 0263 46b5 a5f5 d4b6 1ab8 83b7 7bae 8837
00000140: 1397 c135 7c13 86b6 88ff 9837 a7f7 45b7
00000150: a02a 2f35 ad5b 18b7 bb3a f2b6 034c 5c35
00000160: 1755 1034 84e3 97b4 fa9a f934 499c e7b6
00000170: 2cc1 5935 60a6 ae34 1108 6fb6 dd00 80b5
00000180: 6ceb aab5 e420 f1b6 145c 20b7 6c54 87b4
-2.2008803e-06 3.956103e-05 1.1750028e-06 -1.445345e-05 -2.569614e-06 -1.8786017e-05 -4.255551e-05 -7.0709766e-06
-6.9977204e-07 4.8789263e-07 4.1955303e-07 1.8821127e-07 1.1551524e-05 -5.543417e-06 -1.0376455e-05 -1.2440996e-05
-3.5767975e-05 -2.1838707e-05 1.1709635e-06 7.899971e-06 1.7308217e-05 2.6031507e-06 1.3490273e-06 -2.4658324e-05
-2.484125e-06 -1.7795659e-06 -1.6943228e-05 6.0821066e-07 2.276616e-05 -3.5930177e-06 8.644723e-06 -1.4317553e-06
1.2860779e-05 2.3145319e-08 3.6308327e-06 2.2441374e-05 4.600912e-05 7.442475e-06 1.823757e-06 -2.9602443e-06
9.196971e-06 -2.3236937e-06 2.3071007e-07 -2.0609092e-05 1.99884e-05 -4.084846e-06 -1.2880026e-06 9.3349925e-05
-3.4796544e-06 8.310891e-06 3.4230798e-06 1.082454e-05 -3.9308796e-07 -4.026482e-07 1.8645667e-06 -6.964847e-07
-3.5755008e-06 -2.1945223e-06 3.2003074e-06 1.1518252e-06 -5.118781e-07 -1.1967464e-05 8.918027e-06 1.4363048e-06
1.8357589e-06 -1.8481995e-05 -2.1295518e-05 2.374445e-06 2.0768855e-06 -8.325475e-07 -7.6971673e-07 -5.2859614e-06
9.379359e-06 -1.201263e-05 -9.760978e-06 8.4717664e-07 -7.3904823e-07 -6.346689e-06 -1.5702146e-05 1.6293712e-05
1.4423589e-06 -3.9957795e-06 1.8238803e-05 -1.1799776e-05 6.525461e-07 -9.081251e-06 -7.218999e-06 8.2067e-07
1.3442e-07 -2.829148e-07 4.6492625e-07 -6.9025305e-06 8.11199e-07 3.253108e-07 -3.561847e-06 -9.536994e-07
-1.2734504e-06 -7.1861887e-06 -9.558182e-06 -2.5207135e-07

classfier.bn1.weight f4 [100]
00000000: 59aa 843f 2e1d 843f e5a0 7c3f d03b 813f
00000010: 7636 773f 18fe 7b3f a0a6 853f e7bd 833f
00000020: 6304 7a3f 9121 823f ba81 873f 6c27 6c3f
00000030: 1155 823f 3ebe 7f3f eb5c 773f b9a7 8d3f
00000040: 5136 793f fad2 6f3f 9f4d 6a3f 6760 803f
00000050: 7c2b 743f dbce 7a3f ac80 6f3f fcf5 7f3f
00000060: f6f4 763f 6858 683f ab67 833f 7218 6a3f
00000070: e707 6f3f aba9 6a3f f04e 873f 39b2 783f
00000080: e0de 7f3f 9250 743f 8019 6d3f 5166 803f
00000090: e9a8 813f 1932 7c3f 5c61 753f da97 733f
000000a0: 1d56 803f 59d7 7e3f 02e6 6c3f e765 7f3f
000000b0: 9a23 913f dfe8 863f 7330 7e3f 6b1f 823f
000000c0: d0ac 8a3f 8d7f 7d3f 05db 753f 632c 873f
000000d0: bad7 773f ed1c 803f 2bc5 843f e461 6f3f
000000e0: 7953 773f b0fa 853f 92ba 6d3f 8c43 7b3f
000000f0: d50e 713f da93 733f 80e5 7e3f 8ab6 723f
00000100: a015 703f 1ca3 893f 7e0c 8a3f bf4f 833f
00000110: dcab 803f 3acb 7b3f 10fc 733f 5fa1 773f
00000120: ea52 7c3f 6249 7c3f b86e 7f3f cf04 6f3f
00000130: f584 733f 2599 813f ede5 7e3f 9394 6e3f
00000140: 52ad 703f 40fe 8d3f ff03 803f 7a18 7f3f
00000150: cf86 753f 61f1 723f db48 803f eb06 6f3f
00000160: c2e4 743f 7107 723f 98c9 6d3f 02f2 783f
00000170: c43b 713f f9cc 6c3f 21bd 713f 19aa 6e3f
00000180: 2db4 6f3f 1090 7f3f bbd6 813f ac35 683f
1.0364486 1.0321405 0.98683006 1.0096378 0.96567476 0.9843459 1.0441475 1.0292329
0.97662944 1.0166494 1.0586464 0.92247653 1.018221 0.9989966 0.96626157 1.106681
0.97348505 0.936813 0.9152469 1.002942 0.9537885 0.97971886 0.9355571 0.9998472
0.9646753 0.907599 1.0266012 0.9144355 0.93371433 0.9166514 1.0570965 0.97146946
0.99949455 0.9543544 0.92617035 1.0031224 1.0129672 0.9851394 0.95851684 0.9515358
1.002628 0.99547344 0.92538464 0.99764866 1.133899 1.0539817 0.9929268 1.0165838
1.0833988 0.9902275 0.9603732 1.0560421 0.9681355 1.0008827 1.0372671 0.93508744
0.96611744 1.0467129 0.9286281 0.98149943 0.94163257 0.9514748 0.9956894 0.9480978
0.93783 1.0752902 1.0785062 1.0258712 1.0052447 0.98356974 0.9530649 0.9673061
0.98564017 0.98549473 0.9977832 0.9336671 0.9512475 1.0124861 0.9956959 0.93195456
0.94014466 1.1093216 1.000122 0.99646723 0.95908827 0.94899565 1.0022234 0.9336993
0.95661557 0.94542605 0.9288573 0.97244275 0.9423182 0.92500263 0.9442921 0.932283
0.936343 0.99829197 1.0143656 0.90706897

classfier.bn1.bias f4 [100]
00000000: 27ca 373c 2f14 e6bd 4a9b dbbc 3575 83be
00000010: 8173 adbd 3830 82be 27dd 8bbe 6e9e acbd
00000020: 5fc9 15bd 125d a5bd 4229 8cbc 4497 91bd
00000030: 8dba f1bd d223 73be b406 3fbe 54ca 44bd
00000040: afb7 40be 911a 03be 31c9 a7bd 0645 28be
00000050: 9592 a1bd 3d16 94bc fe95 e03b 979d 7dbe
00000060: 4000 11be d576 3abd 7359 90be e830 98bd
00000070: f16f 6fbe 496a 51be 7a5c 383c a436 32bd
00000080: 803b 28be 267e 7abd 319b 54bd a563 75bd
00000090: 7c25 783c 1a53 1ebe b955 47bd 203c a6bd
000000a0: ab49 d7bc 9483 c2bd 5ab7 6dbd f224 a1bd
000000b0: c02b 5c3d 6381 10be 9945 4cbe 0203 84be
000000c0: 50fa 9a3c 4d03 48be 654f 51be 4f37 66bd
000000d0: c65e 88bd 34d2 a1bd f125 b4bd bf5b 2dbc
000000e0: 4770 463c 8e93 a0bc f172 8cbc 3ed3 afbc
000000f0: d9ee 2ebd 3e65 4cbe 87c3 68be 0de0 f4bb
00000100: da6d b5bc 7a8b 8fbc 5084 28bd 21f3 46be
00000110: 4ad6 3abe 9da4 86bd 8547 8cbd 28f6 efbc
00000120: 8c4c 77be 9a1e 51be 479b 25be adf3 3dbd
00000130: 0553 94bd 5d6b 15be f9a5 79be 1791 57be
00000140: 598e f3bc a2bc 16be cb40 e5bd 7779 85be
00000150: 4d88 4abd 9250 65bd 3033 7bbe 84bf a2bc
00000160: 7189 a4bd 5bda 2dbd ed67 bbbc 6642 90bd
00000170: 4e7c c6bb 2014 44bd eeba 1fbe b1e5 f8bd
00000180: be9c 8dbd 252f 0d3b bb41 8dbd 16af 5fbd
0.0112176305 -0.112343185 -0.026807446 -0.2567536 -0.08469296 -0.25427413 -0.27317163 -0.084286556
-0.036568996 -0.080743924 -0.017109517 -0.0710893 -0.1180316 -0.23744133 -0.18654901 -0.048044518
-0.1882007 -0.12803103 -0.08192671 -0.1643258 -0.078892864 -0.01807701 0.006853818 -0.24767147
-0.14160252 -0.045523483 -0.28193244 -0.07431203 -0.23382546 -0.20450701 0.011252517 -0.04350914
-0.16428947 -0.06115546 -0.051905815 -0.05990948 0.015145656 -0.15461388 -0.048665736 -0.08116937
-0.026280245 -0.09497753 -0.058036186 -0.07868375 0.05375266 -0.14111857 -0.19948424 -0.25783545
0.018918186 -0.19532509 -0.20440443 -0.05620509 -0.066587016 -0.07901421 -0.08796299 -0.010580956
0.01211173 -0.01960161 -0.017144652 -0.021463033 -0.04270825 -0.19960496 -0.22730838 -0.007472998
-0.022147108 -0.017522562 -0.041141808 -0.19428684 -0.18245807 -0.06574366 -0.06849579 -0.029292181
-0.24150294 -0.2042183 -0.16172515 -0.046374965 -0.07242397 -0.14591737 -0.2437972 -0.21051441
-0.029730963 -0.14720395 -0.11193999 -0.26069233 -0.049446393 -0.05598504 -0.24531245 -0.019866712
-0.08034027 -0.042444568 -0.022876704 -0.070439145 -0.0060572987 -0.047870755 -0.15598652 -0.12153185
-0.06914662 0.0021542993 -0.06897303 -0.054610334

classfier.bn1.running_mean f4 [100]
00000000: b06f afbf 6c0b 593e 8a5a 6cbf 1b29 03bf
00000010: bfb5 c2bd 4bfe 9abe a3cc 65be fb7f c43e
00000020: 1235 f6bf 921a 1a3f 8b4c f13b e137 93be
00000030: cf80 603e 0f54 07be 519a a33e cb0c bebd
00000040: 92f6 cebe e199 953d 535d dd3f 3ce9 bfbe
00000050: 51b0 cc3e b132 33bd b15d d83f 9feb 49be
00000060: 0a6d b5be 4a41 903f 4c3b 50be af07 8cbd
00000070: 34b2 1bbe 7349 17be f8b3 3c3e 1b4f 1ebf
00000080: bdfb b0be e2c7 9dbe 6c76 d3be f015 5ebe
00000090: f00c cf3e e2d0 edbe c0dc 46bd c8f5 873d
000000a0: d387 4c3e f22f 7bbf 0062 6fbf d247 a63d
000000b0: b7d1 d43c 73de ddbd 11eb cbbe d763 95be
000000c0: b19d fabe cadc afbe c0bf 43bf f8a9 183b
000000d0: c89b b1bf 70cf 8fbe 1714 9ebc 065f d43f
000000e0: 66f2 c33f 1a64 943d 8c9f e63f 0ec1 303f
000000f0: 8842 2540 3d37 6fbe fb9b d8be 7869 7b3f
00000100: 50fa c13e 9c04 053d 69b7 8bbd 6603 49bd
00000110: 7abd 3bbd ae0d 7a3d 40d5 ef3f 1c04 d4bb
00000120: 5606 57be 4ced b5be 484b 813d 56a6 3e3f
00000130: 8b28 ab3e ba3b 0ebd 2012 fcbd 86bc 7dbe
00000140: ccd3 e33e 52b9 203d 5fa3 a63e 2fe8 6abe
00000150: 1721 803f 4f79 cc3c f99a 11be ec7d 0540
00000160: 71cf d2bd 46e0 4abf 4947 1240 8918 fcbd
00000170: 9450 553f 12be be3f 51e8 17bf 120f ca3e
00000180: 2f9e d63e 1396 ee3e 1055 193e b5ac d13f
-1.3705959 0.21195763 -0.9232565 -0.51234597 -0.095073216 -0.30272135 -0.22441344 0.3837889
-1.9234946 0.60196793 0.007363861 -0.2875357 0.21924137 -0.1321566 0.31953672 -0.09279784
-0.40422493 0.07304741 1.7294105 -0.3748263 0.3997827 -0.043749515 1.6903592 -0.19718789
-0.35434753 1.1269925 -0.2033512 -0.06837403 -0.15204698 -0.14774112 0.18428028 -0.61839455
-0.3456706 -0.3081656 -0.41301286 -0.21688056 0.40439558 -0.46448427 -0.048550367 0.06638676
0.19973688 -0.98120034 -0.9350891 0.081191674 0.025978906 -0.108334444 -0.3982778 -0.29177734
-0.48948434 -0.34348136 -0.7646446 0.0023294669 -1.3875666 -0.2808795 -0.019296689 1.6591499
1.5308349 0.07245655 1.801744 0.6904458 2.5821857 -0.23360915 -0.42306504 0.9820781
0.37886286 0.0324751 -0.06822092 -0.049075507 -0.045834996 0.061048202 1.8736954 -0.0064702164
-0.2099851 -0.35532606 0.06313187 0.7447256 0.3342937 -0.03472493 -0.123081446 -0.24778947
0.44497526 0.039239235 0.32546517 -0.22940134 1.0010098 0.024960188 -0.14219274 2.0858107
-0.102934726 -0.79248464 2.285601 -0.12309367 0.8332608 1.4901755 -0.5933886 0.39464623
0.4191756 0.46598873 0.14973855 1.6380831

classfier.bn1.running_var f4 [100]
00000000: fd95 273f 86be cf3d f78f 033f 45b2 673d
00000010: 18e6 283e ec98 6c3d 1c61 cf3c 4b14 8c3d
00000020: 8189 8e3f ee54 d83d 6d26 663d 0218 073e
00000030: 5972 833d 7370 3e3d 3bc1 973d 3912 2e3d
00000040: 7492 853d 63c9 833d 4df8 e43e c3ee 4c3d
00000050: 690d 643d 3c9f 4e3e c6bb 2c3f d29d 123d
00000060: ff25 8a3d dd12 5c3e 7406 2a3d ce23 7e3e
00000070: bd1f 1b3d 96c7 bf3d 0852 9d3d 00a1 293e
00000080: 982a 7e3d 7897 6f3e da8d 053e 11c2 483d
00000090: 8681 933d 022c e73d 2909 023e 5cc8 803d
000000a0: edf0 923d 0759 783e fd4e 463e b0a2 793d
000000b0: fb96 213d 7930 6f3d 0e82 4c3d 07fe 613d
000000c0: 69cf d43d 8621 703d 893a 183e 1bab b23d
000000d0: c489 423f 72a3 6e3e 50c2 b33d 3241 db3e
000000e0: 17f5 143f 040a ac3d c29e f13e 6a3b 803e
000000f0: 2d70 833f a30e 823d 4672 5a3d fc6e 893e
00000100: 27fa c63e ab3a 793d 4a30 1f3d d502 a83d
00000110: 8ca4 8b3d b92b 063e 4136 893f b9ed 6f3d
00000120: a37a 513d 4149 723d 1107 393d d218 0b3f
00000130: 2f6d 0c3e 126f 523d 81e4 8e3d f81e 563d
00000140: e009 b63e 7a21 8c3d f167 a93d a0de 2e3d
00000150: 1951 453e a3e1 d13d c314 0b3d d923 3f3f
00000160: 707f b83e cd51 203e 7a9a 513f dbae 4d3d
00000170: 344b 263f 17bb 963f 2501 943d f4d1 a13d
00000180: 1401 d13d 8639 a23d 6c23 0d3e e9a6 ea3e
0.6546324 0.10143761 0.5139155 0.056566495 0.16494024 0.057763025 0.02531486 0.06839808
1.1135713 0.10563074 0.05618899 0.13192752 0.064182945 0.04649396 0.07409903 0.042497847
0.06522074 0.06434896 0.44720688 0.05003239 0.05567685 0.2017793 0.6747402 0.03579504
0.067455284 0.21491571 0.04151006 0.24818346 0.037872065 0.0936424 0.07681662 0.16565323
0.06205234 0.23397624 0.13042393 0.0490132 0.07202439 0.11287691 0.12698807 0.062882155
0.07174859 0.24252711 0.19366069 0.060946167 0.039450627 0.058395837 0.049928717 0.0551739
0.10391123 0.05862572 0.1486608 0.08724042 0.75991464 0.23304537 0.087772965 0.42823178
0.5818648 0.08400348 0.47191435 0.2504533 1.0268608 0.06350448 0.053331636 0.26842487
0.38862726 0.060846966 0.03886441 0.08203665 0.06818494 0.13102616 1.0719682 0.05857632
0.051142346 0.05915189 0.045172755 0.5433475 0.13713525 0.051375456 0.069771774 0.052275628
0.3555441 0.06842323 0.082717784 0.04269278 0.19269218 0.10248115 0.033955347 0.74664074
0.36034727 0.15656205 0.8187634 0.050215583 0.649585 1.1775845 0.07226781 0.079013735
0.10205284 0.07921128 0.13783044 0.45830467

classfier.fc2.weight f4 [50, 100]
00000000: 7bb2 46bd 1067 8fbd 3593 01bd f4a6 a23d
00000010: 77c4 293d b517 aa3d e513 ba3c 3be4 0dbc
00000020: 84ba 943d 5dd5 0dbe c678 acbc 508f a73c
00000030: 0544 aebd 4634 8b3d c7c2 063d 8eb4 e7bd
00000040: f485 653d 0485 a9bc 3f79 8cbd 416f e93c
00000050: 9bfe c63b 5d8c 1f3d d6bf 103d ffde aabc
00000060: cfab 85bc 1e99 3b3d 3cb1 9639 3e92 c6bb
00000070: cc9a 9c3d 9af2 6c3d 0f87 f5bd 0846 eebc
00000080: da38 f63c fae7 4e3d 0662 7dbd db87 51bd
00000090: a9a9 cdbd 20d3 703d ee5d 67bd cc51 7f3d
000000a0: 7525 7cbd 1e00 483d f181 903d e03a 9abd
000000b0: d050 89bd 57cd 093d 558b 033e 7d49 ec3d
000000c0: 612e 1d3d bf3d 783c 9cf6 d73d c9ed 2ebc
000000d0: d419 1cbc c359 463d 96f9 9c3d 35c1 263d
000000e0: 4781 253d a600 1d3d 2806 b43d 6019 63bd
000000f0: 5f5a a0bd 7f4c 893b 62f0 bd3d 57aa f33c
00000100: 42fe 97bc e5ea 6fbd 0432 3ebd b467 0c3e
00000110: e768 ab3d f144 16bd 0b85 c2bd 113b 8ebd
00000120: 1818 e33d 14d1 463d 415d e5bc dbe5 17bd
00000130: fb6b a5bc 25a0 3b3d 5796 0a3e 12c1 503c
00000140: 1e52 4d3d 97b9 39bd c577 08bd 8279 f83d
00000150: f8dd 7abd b6bd dd3c a247 d43d 085c 2ebd
00000160: b1aa 4d3c 2dd1 743c 01f5 fe3c 0214 813d
00000170: ff28 5b3d 2b9d 523d c787 c43d d0f7 d13c
00000180: 1575 9abd fe43 b3bd cfd0 e9bb a16e e23c
00000190: 0242 e63d 026d c4bd 73bb a5bc 28a1 ca3d
000001a0: 3f6b a83d e215 ce3c 2e89 0c3d c486 2dbe
000001b0: 4667 d53c bd83 98bd ddc6 a4ba a6dd cbbc
000001c0: 9374 aabd d1b3 023e bccf 373d 2550 cbbd
000001d0: c834 953c 3385 833d 7255 c33c 3727 ea3d
000001e0: 2a1a 523c 7b3a bb3c c47b 17bd 07b5 883d
000001f0: 0bc6 b03d 3762 db3c 2496 893d 7e6a 203d
00000200: cf59 b53d c0d6 a13d 4a12 8fbd 7b4c 803c
00000210: 42e8 013d ebc4 49bd 5bca 503d d1c7 2ebc
00000220: 95d6 c2bd 73ca ce3d c64a e13c ac49 003d
00000230: 45a4 0fbd 1da5 6a3c a8ae 6b3d dc2c c4bd
00000240: 8daf b7bd 64b6 863d 9ab3 683a 827e 1c3d
00000250: 04db ad3d 0749 3b3d d66e 95bb 7ee6 7f3c
00000260: 911f 803d 2866 dc3d 0718 2f3c 000f 17bc
00000270: 4f29 223d c9bf 783c 7921 7c3d ca59 d0bd
00000280: 265c 0c3d f5f0 003d 0c96 ba3d 50fe 843d
00000290: 6608 1abd 0187 33bd bac7 e33a f4bc 43bc
000002a0: 8a31 cb3d 447a 01be 2c8f 19bd 309d 18bc
000002b0: c077 8d3c b5dd 643d e52a 2bbc 1b1e b9bd
000002c0: ab51 843d 26b0 ac3d 672a f43d f9a4 99ba
000002d0: c8a9 48bc 39b3 f9bc de13 32bd 7d16 99bc
000002e0: 4b74 aebc 8078 813d 896c cc3d 3854 933d
000002f0: 4020 2d3d 7f3d b23d fe04 d4bc 0b2e 89bd
00000300: 6201 86bd 5ab2 b0bc c4cb c13d 2d7c 4e3c
00000310: 922a dabd 9d2d 14bb a0e0 63bc 36a8 67bd
00000320: aae5 90bd f3c6 8dbd a58d aabd d0a6 a0bd
00000330: e820 64bd 5e34 28bd 5e17 c0bb f64c e5bd
00000340: 051c 8c3d dc2a 1f3d 888b 953c f08d 0bbc
00000350: f682 943c 4b8f eebd db24 d1bb 330b 8bb9
00000360: 1001 d33b 0c11 523d 2b36 9abd 0657 06bd
00000370: 1003 cfbc 1697 eebd 42c6 65bd a4a7 c9bd
00000380: fb7c 0bbd ec51 6d3c 9c4e 0bbe c83c 6f3d
00000390: 8cdb 573b 2f4e 9fbd 56c7 e03b dcce 543d
000003a0: cbe7 8abd f443 ecbc 10c9 b73c 555b 96bd
000003b0: e5a4 b5bd bfea 37bd 96d6 373c 6962 a2bd
000003c0: 8c94 703c ea82 7b3a 1461 c13b e470 8dbb
000003d0: e938 c7bd 4b2d 96bd f7a1 1bbb 727e bfbd
000003e0: 4dec 2dbd 5843 ab3d 8ced a2bd 5ca9 11bc
000003f0: c659 babc 938b 6dbd ba77 5dbd 1267 573d
-0.048510056 -0.070020795 -0.03163453 0.07942 0.04144713 0.08305303 0.022714565 -0.008660371
0.072621375 -0.13850923 -0.021053683 0.020454079 -0.085090674 0.0679708 0.032900598 -0.11313735
0.05603595 -0.02069331 -0.06859063 0.028495433 0.006072832 0.03895222 0.0353392 -0.020858286
-0.016317276 0.04580032 0.0002874228 -0.006059914 0.07646713 0.05784855 -0.11988651 -0.029086128
0.030056406 0.0505142 -0.06186106 -0.051154952 -0.10042126 0.058795094 -0.056486063 0.062333867
-0.06155916 0.048828237 0.07056034 -0.07530761 -0.06704867 0.033643093 0.1284612 0.11537454
0.03837431 0.01515144 0.10545084 -0.01067681 -0.009527642 0.048425447 0.07664792 0.0407116
0.04040649 0.038330697 0.08790237 -0.05544412 -0.07829737 0.0041900272 0.09274365 0.02974431
-0.018553857 -0.058573622 -0.046434417 0.13711435 0.08369618 -0.03668684 -0.09498032 -0.0694486
0.1108858 0.048539236 -0.027998568 -0.03708444 -0.02019309 0.045807023 0.13533913 0.012741344
0.05012714 -0.045343008 -0.033317346 0.12132551 -0.061246842 0.027068 0.103652254 -0.042568237
0.012552903 0.0149424495 0.031122686 0.06302644 0.053505894 0.05141942 0.0959621 0.025630862
-0.07541863 -0.08753203 -0.0071354876 0.027640643 0.11243059 -0.09591104 -0.020230984 0.09894019
0.082235806 0.025156919 0.034310512 -0.1694594 0.026050221 -0.07447002 -0.0012571473 -0.024885964
-0.08323016 0.12763907 0.044875845 -0.09927396 0.018213645 0.0642189 0.023844454 0.11433261
0.012823621 0.022855034 -0.036983266 0.06675153 0.08631524 0.02678023 0.0671809 0.03916406
0.0885502 0.079022884 -0.0698591 0.015661469 0.03171564 -0.04926006 0.05097423 -0.010667757
-0.095135845 0.10097208 0.027501475 0.03132026 -0.03506877 0.014321593 0.057539612 -0.09578869
-0.089690305 0.06577757 0.00088768604 0.038206585 0.084890395 0.04572394 -0.004560332 0.015618918
0.06256021 0.10761672 0.010686881 -0.009219885 0.039590176 0.015182444 0.06155536 -0.10173376
0.034267567 0.031479795 0.091106504 0.06493819 -0.037605666 -0.04382992 0.0017378249 -0.011946905
0.09921558 -0.12644297 -0.037490055 -0.00931482 0.017269015 0.0558755 -0.010447239 -0.09038945
0.064608894 0.08432035 0.1192215 -0.0011722139 -0.01224751 -0.030480968 -0.043475978 -0.018687481
-0.021295687 0.06321812 0.09981639 0.07193798 0.042267084 0.08703136 -0.025881287 -0.06698235
-0.065432325 -0.02156942 0.09462693 0.012602848 -0.10652651 -0.0022610195 -0.013908535 -0.056556903
-0.07075055 -0.06922712 -0.08327798 -0.07844317 -0.055695444 -0.041065566 -0.0058621606 -0.1119632
0.06841282 0.038859233 0.01825501 -0.008517727 0.018128853 -0.11648425 -0.0063825673 -0.0002652049
0.0064393356 0.05128579 -0.07529863 -0.032797836 -0.025270015 -0.11649911 -0.056097277 -0.09846428
-0.034054738 0.014484864 -0.13604206 0.058407575 0.0032937257 -0.07778584 0.0068597 0.05195509
-0.06782492 -0.028840996 0.022434741 -0.07341639 -0.08869342 -0.044901606 0.011220595 -0.079289265
0.014683854 0.0009594398 0.005901465 -0.004316436 -0.097276516 -0.07332858 -0.0023747662 -0.093502894
-0.042461682 0.08362454 -0.07955465 -0.008890476 -0.022747885 -0.057994436 -0.05406926 0.05258853

classfier.fc2.bias f4 [50]
00000000: 96bb f336 f145 91b5 f1b6 b0b5 2e5c c1b5
00000010: acb6 4536 77a9 94b6 7731 bdb5 d874 6ab5
00000020: a9b4 4636 d5a0 0cb7 367a 77b5 b484 9b36
00000030: 6490 54b5 a326 8bb5 0e66 f5b6 7392 c2b4
00000040: 95da c235 b105 d633 4f53 9e35 99d1 8a36
00000050: 19a0 19b6 7809 5936 95ac e2b4 ea1d 05b5
00000060: 6a4a 29b6 cf7f f236 6adc 2236 b325 2d37
00000070: f49d b5b6 633a 9e36 d27b 7433 7131 00b5
00000080: 6ff4 a0b5 2c0f 7936 da77 9934 bffc 9135
00000090: fe1e a2b6 c866 88b6 80d6 b233 cca6 0eb5
000000a0: f75f a636 e38a 0eb6 5473 c8b6 56ae 19b6
000000b0: 088f 9336 2ef7 56b6 8c50 df35 a64c 57b6
000000c0: 10fa 2935 b72b 9ab5
7.263802e-06 -1.0823697e-06 -1.3166265e-06 -1.4406448e-06 2.9461617e-06 -4.430472e-06 -1.4095993e-06 -8.7341823e-07
2.9609457e-06 -8.382097e-06 -9.219251e-07 4.6348086e-06 -7.918627e-07 -1.0367552e-06 -7.3134497e-06 -3.6241872e-07
1.4517742e-06 9.966187e-08 1.1796163e-06 4.137121e-06 -2.2891966e-06 3.2341031e-06 -4.222135e-07 -4.958989e-07
-2.5226277e-06 7.227041e-06 2.426818e-06 1.0320381e-05 -5.4126085e-06 4.715564e-06 5.692329e-08 -4.775566e-07
-1.1992068e-06 3.7112723e-06 2.8585674e-07 1.0876901e-06 -4.831584e-06 -4.065081e-06 8.327788e-08 -5.3141844e-07
4.9583573e-06 -2.1240492e-06 -5.9738904e-06 -2.2900253e-06 4.3975924e-06 -3.2032362e-06 1.6638237e-06 -3.2082112e-06
6.3321295e-07 -1.1486617e-06

classfier.bn2.weight f4 [50]
00000000: 2012 6d3f 263e 713f e9a4 7a3f 39bf 753f
00000010: a651 773f bc22 7a3f 3248 703f 1f35 803f
00000020: fb78 853f 6dc2 6b3f 3a0e 813f af01 753f
00000030: 85c3 763f 0427 693f e48d 863f bcd6 653f
00000040: 4fb7 833f b715 6e3f 1057 853f 526a 7f3f
00000050: 20aa 913f 3807 853f bdb4 823f 9cf6 703f
00000060: c6ef 693f ba74 7a3f 29af 893f d71e 823f
00000070: 9d9e 853f 6170 843f 821f 823f 88da 7c3f
00000080: cb2d 8b3f d812 773f cda3 6b3f 1da6 743f
00000090: 3726 923f 7cd1 853f 0764 853f b127 773f
000000a0: 9280 833f e1ba 733f d5c2 703f 1001 793f
000000b0: e146 7c3f 1b82 6f3f 7b5a 773f e7ff 833f
000000c0: 0dc4 6d3f 0b74 6f3f
0.9260578 0.94235456 0.9790788 0.9599491 0.9660896 0.9770925 0.9386016 1.0016211
1.0427545 0.92093545 1.0082467 0.95705694 0.9639209 0.9107516 1.0512052 0.89780784
1.0290316 0.93001884 1.0417194 0.99771607 1.1380043 1.0392828 1.0211407 0.94126296
0.9138149 0.9783436 1.075658 1.0165662 1.043903 1.0346795 1.0165865 0.9877095
1.087335 0.9651313 0.92046815 0.9556597 1.1417912 1.0454555 1.0421151 0.9654494
1.0273612 0.9520703 0.9404729 0.97267246 0.9854565 0.935579 0.9662244 1.031247
0.92877275 0.9353644

classfier.bn2.bias f4 [50]
00000000: 85fe 46be c22a e5bd 3b19 e0bc 6bc5 5cbd
00000010: 89c1 7abd 4ff1 55be bce2 a9bd 0668 d3bd
00000020: a3dd 61be 1c17 78be a60b 8dbe d3f8 c5bd
00000030: fef5 c9b8 3ca8 69bd bd2e 8fbe fe3b aebd
00000040: 7af0 c0bc 1aee 75bd c442 503d cdf1 10bd
00000050: a19a 6d3b bd50 83be 2802 403d 6bd2 79bd
00000060: ea4d 43bd b9d9 d1bc dd46 4dbd f1be 72be
00000070: 932a 92be b538 b3bb e75e 9d3d e1a6 54bc
00000080: ba5b 353d 8784 34be eb81 13bd 5bae 1c3d
00000090: ffa1 3a3d ade0 76be e65f 72bc 5d2c 8c3c
000000a0: c908 69be c3bb d6bc 38a0 823b 9b31 983c
000000b0: 4a86 5aba e9e7 13be 63e9 4abd 09fc 7fbe
000000c0: 271a edbd 0552 30be
-0.19433029 -0.11189796 -0.02735578 -0.05389921 -0.061219726 -0.20892833 -0.08295199 -0.10322575
-0.22057204 -0.24227566 -0.2754795 -0.096666 -9.6302465e-05 -0.057045206 -0.27965346 -0.08507536
-0.023552168 -0.060041524 0.050844923 -0.03538685 0.0036255496 -0.25647536 0.046877056 -0.060991686
-0.047681727 -0.025616514 -0.05011641 -0.23705651 -0.28548107 -0.0054694065 0.07684117 -0.01297924
0.04427693 -0.1762868 -0.03601257 0.038252216 0.045564648 -0.24109145 -0.014793372 0.017110998
-0.22757258 -0.026212579 0.0039863847 0.018578341 -0.00083360507 -0.14443935 -0.04953898 -0.24998488
-0.11577254 -0.17218788

classfier.bn2.running_mean f4 [50]
00000000: 794f 393e cca4 943e 121e 83bf eaa7 30bf
00000010: b8e5 4dbf 5efb 1e3d d605 73be 95ba 1dbe
00000020: d260 643e 40d5 b83d 38f5 1abe 77c1 4e3e
00000030: ae15 20bf cffb 2f3c 0a08 043e 49fc 64bd
00000040: 027e 943b d1d9 30bf 8631 37bf bae0 40bf
00000050: c09a 1a3e 9665 b1bb 4432 7cbf 14c9 75bd
00000060: 2f0c d5be ee9c 28bf 282f f6be 7650 913d
00000070: 8d3e 2fbd 338c ce3e 5214 92be e83d 9cbe
00000080: 15aa 85bf 8d14 8a3e 462f 233f 0dfd 233e
00000090: 7e90 79bf cb2a 6a3e 812c 72be 64dd 59bf
000000a0: 7575 e23d b028 c1be 33c2 67bf a3f3 0fbf
000000b0: c7ca a4be ae5f 823e 04a8 263f 335b 6b3c
000000c0: f8d6 1b3e f0db 5a3e
0.18096723 0.2903198 -1.0243552 -0.69006217 -0.8042865 0.03881394 -0.23732695 -0.15403207
0.22302559 0.09025049 -0.15132606 0.20190988 -0.6253308 0.010741188 0.12893692 -0.05590466
0.004531623 -0.6908236 -0.7155994 -0.75342906 0.15098095 -0.0054137213 -0.985142 -0.060006216
-0.41610858 -0.65864456 -0.48082852 0.07095425 -0.042784262 0.4034134 -0.28531128 -0.3051598
-1.044253 0.26968804 0.6374401 0.160145 -0.974861 0.22867887 -0.2364979 -0.8510344
0.110575594 -0.37726355 -0.905307 -0.56231135 -0.32185957 0.25463623 0.6510012 0.014365005
0.15218723 0.21372962

classfier.bn2.running_var f4 [50]
00000000: 70c7 083f 6c0e 163f 79f1 093f fdd9 9a3e
00000010: e750 ed3e 30e7 f83e 28b1 763e 6eda 0d3f
00000020: a17a 163f 2419 0c3f c3ec 043f be04 e33e
00000030: 6ea9 063f 96c4 6d3e 8080 163f c1cd aa3e
00000040: 64f0 da3e 3b69 a73e f96b 313f 5e32 1d3f
00000050: 0d5c f23e b743 003f 8711 d73e 01bb 013f
00000060: 505a b93e 1740 2e3f 4a65 f03e 8922 023f
00000070: c88b 193f 5224 bb3e 326c e53e 5c28 0b3f
00000080: f23a ef3e 2d59 dd3e 09e5 b73e a1d0 ef3e
00000090: 8af7 093f ac5f 213f 9887 383f 2b5c e83e
000000a0: 088f 193f 6ac9 ad3e 936e cf3e fedb f03e
000000b0: 9609 143f cf1e e43e 90e4 f73e 591a 043f
000000c0: 9a3c c23e 4b39 df3e
0.5342932 0.58615756 0.53884083 0.30244437 0.46350786 0.48613882 0.24091017 0.5541142
0.58780867 0.5472586 0.5192377 0.44339556 0.5260228 0.23219523 0.58789825 0.33360103
0.42761528 0.32697472 0.6930538 0.6140498 0.47335854 0.50103325 0.4200556 0.5067597
0.36201715 0.68066543 0.46952277 0.50833946 0.59978914 0.36551148 0.4480911 0.5435846
0.4672466 0.43232098 0.35916927 0.4683886 0.5389334 0.6303661 0.720819 0.4538282
0.59983873 0.3394273 0.4051405 0.4704284 0.57827127 0.44554755 0.48416567 0.51602703
0.3793686 0.435984

classfier.fc3.weight f4 [25, 50]
00000000: eb3d ef3d 1f53 cc3d 2398 c1bd 8060 1c3d
00000010: 120e d13c 202f 9f3d 5392 91bc f5dd 003e
00000020: f3fb 073e 0321 f63d c317 213e 40ed a13d
00000030: 39ad 53bd f0a4 963c b33c 1a3d 9d47 d3bd
00000040: 020a 93bd af99 8f3d 1327 38bd 052c 843b
00000050: 836f 92bd 08da a93d ae1b 143d 1df7 7e3d
00000060: 4bc3 c3bd ffcf bebd a4ac 97bc c560 113e
00000070: cef9 fb3d be48 b1bd cb92 f53c 6e28 19bd
00000080: c86d b3bd 4081 f53d e35c 053b 22b7 08be
00000090: dfa3 bfbd 4d04 493d 20c9 58bc 8344 203d
000000a0: fc56 e63d 7e99 ef3c 0bab 86bc 5185 b3bd
000000b0: a77a 0c3c f418 133e 840f 803c 7962 a83c
000000c0: 3f63 74bc 6739 2b3d 7366 91bd 4f74 8ebd
000000d0: 5744 bd3c a59e 513d 0722 28be 86d8 4bbd
000000e0: 6e03 ab3c a846 9fbd de46 73bd 788a 91bd
000000f0: 5e26 afbd 8cc6 b3bc 3526 ff3b fd41 9dbc
00000100: 9a52 72bd 7b96 213b 6e59 e03d bacd b33d
00000110: 8aad 443d b5aa 3dbe a37b 4dbe 0b7c 00bd
00000120: 6fc2 173d c817 cbb9 ea45 6a3d 6ef1 7fbe
00000130: 3a42 28be c62d babc 30d6 95bd 6789 853c
00000140: b1f5 a2bc 2e07 65bc 05e9 9cbc 79d7 63bd
00000150: 7ac9 353d 4de5 9a3d 0bd0 c73d 863d 1ebd
00000160: 702a 76be 8115 723d c08d 6bbd 51c5 763c
00000170: fa70 ce3d 5f0b ad3b f975 efbd 507c 0bbc
00000180: b954 b9bc 5287 50bd 3b4e ecbc 894f 41bd
00000190: b611 2d3c 039e 523d 8b9b 373b 0ca8 f7bd
000001a0: be28 26bd ec97 bd3d e32a 0ebc dac7 ae3a
000001b0: 000b 1c3e dc78 7e3c 83b2 943d 6449 b23c
000001c0: 3af0 3e3c 37d4 043d 41e3 3a3e 37ed e7bd
000001d0: d21e 79bd 7163 823d 14d4 a83c af3a 09bb
000001e0: 8557 d0bc a4c2 2a3d 372b c8bc 9b7c 8dbc
000001f0: e571 1b3d ddbf 74bc fc5a 1bbd a565 cd3d
00000200: fd66 2e3e 665f 243b 1ba3 90bd 9fe1 49bd
00000210: a943 37bd 009b 593c 7548 103d 34f4 cc3c
00000220: b49a 943b 0232 413e e5d9 4bbc 937f 4cbd
00000230: 1918 e33d 3f80 b8bd ad53 24bd eaf6 57bd
00000240: 1670 e3bd 3f72 a53d eca9 e0bd 59f0 f33d
00000250: 6101 68bd a065 89bc fc1a d9bd 9bc6 29be
00000260: 2aa9 063d b1e8 033d e565 21be c270 a9bd
00000270: b65f f73d 05f3 0ebe 6f70 00bd 7419 e2bd
00000280: 095f 9ebb 2cf1 523c 6476 54bd 37b4 fc3c
00000290: 5a41 debc 340e 733c 8fc4 2fbe e4ff ea3d
000002a0: ad68 c03d d1b8 2f3c ffa6 96be 5865 b9bd
000002b0: 7574 033e 883e 033d e354 b03d 257a 09be
000002c0: ae13 1fbd 5501 a53b a53d cbbd 2e14 46bd
000002d0: dbc8 573d 4fd4 3bbb be9d a03c 2ea2 08be
000002e0: dcb0 a43b 8a37 e2bc 5039 803d 4c8e f1bb
000002f0: 8730 1dbe 3247 f23c 7d25 80bd c3d3 913d
00000300: ae80 0f3e 1ae2 523d 6cb2 7abe 5998 04bc
00000310: c6fa f239 8119 82bd 0233 4e3c 644c 10bc
00000320: 2ac3 62bd 98d6 0dbd 68a1 f33d 6937 1abd
00000330: 737d e33d bb74 b5bd 07a8 793d c11a 8a3c
00000340: 37c3 f9bc 00ab 65bd f7f3 76bd bddc b0bd
00000350: 82b4 efbd 277d 25bd ebd0 9abd af11 93bc
00000360: d94e 663c cb68 b03d 8961 60be 6955 533d
00000370: 19c5 093d 7bee 88bd a594 9c3d f299 b0bd
00000380: f222 c73d ee5b a4bc a9ca 9d3b 6e34 bdbd
00000390: 3f74 fbbc 6358 fa3c 2816 72be 4060 77bd
000003a0: 31b2 fa3d 199b 2dbd a7c5 953c 6db6 c6bb
000003b0: d466 343d 174b 3c3b cd76 d73c 13bf 17be
000003c0: ad56 c4bd 4725 d7bd fa6f bdbd 84b4 54be
000003d0: 14fe 963c 68af cbba a717 653d 2d47 c1bd
000003e0: 8ccf 643d c0a2 96bd 8421 bcbc 4b10 c93d
000003f0: b933 383d 030d 35bd 2254 293d 470d e03d
0.11681732 0.099767916 -0.09452846 0.038177967 0.025519405 0.0777266 -0.017769968 0.1258467
0.13279705 0.12018015 0.1573172 0.0790658 -0.05167887 0.018389195 0.037655544 -0.103163935
-0.07179643 0.07011735 -0.04495914 0.004033568 -0.071501754 0.08293539 0.03615921 0.062247384
-0.095587336 -0.09317016 -0.018514939 0.14197071 0.12303506 -0.086564526 0.029977223 -0.037392072
-0.087611735 0.11987543 0.0020349554 -0.1335111 -0.09357428 0.049076367 -0.013231546 0.039127838
0.1124706 0.029247995 -0.016438982 -0.087656625 0.0085741645 0.14364988 0.015632398 0.020554768
-0.01491624 0.04180279 -0.07099619 -0.06955778 0.023103876 0.051176686 -0.1641923 -0.04976704
0.020875659 -0.077771485 -0.059393756 -0.07106489 -0.0855224 -0.02194526 0.007786537 -0.019196505
-0.059160806 0.0024656344 0.10954557 0.087794736 0.048017062 -0.18522151 -0.20066695 -0.031368297
0.03705066 -0.00038736896 0.05719558 -0.24994442 -0.16431513 -0.022726905 -0.07316244 0.01630087
-0.019892545 -0.013978763 -0.019154081 -0.055625413 0.044381596 0.07563267 0.09756478 -0.038632892
-0.24039626 0.05910254 -0.05750823 0.015061692 0.10080142 0.0052808966 -0.116924234 -0.008513525
-0.022623407 -0.0509103 -0.028845897 -0.04719499 0.010563305 0.051420223 0.0028016295 -0.12092599
-0.0405662 0.092574924 -0.008677217 0.0013334707 0.15238571 0.015531745 0.07260611 0.021763511
0.011653954 0.032428946 0.18250753 -0.11324542 -0.06082041 0.06366623 0.02060894 -0.002093952
-0.025432358 0.04168953 -0.024434669 -0.01727133 0.037950415 -0.014938322 -0.037928566 0.10029153
0.17031474 0.0025081276 -0.0706236 -0.049287435 -0.04474226 0.013281584 0.03522535 0.025018789
0.0045350436 0.18866733 -0.012442087 -0.04992635 0.11088581 -0.09008836 -0.040118862 -0.05272571
-0.11105363 0.08078431 -0.1096991 0.11911077 -0.05664194 -0.016772091 -0.1060085 -0.16579668
0.03287617 0.032204334 -0.15761526 -0.0827346 0.12078802 -0.13959892 -0.031357225 -0.11040011
-0.0048331064 0.012874883 -0.05187072 0.030847652 -0.027130771 0.014834929 -0.17164825 0.114745885
0.09394965 0.010725216 -0.29424283 -0.09052533 0.12837394 0.032042056 0.08609941 -0.134255
-0.038837127 0.005035559 -0.09923867 -0.04835909 0.052681785 -0.0028660481 0.019606467 -0.13343117
0.005025966 -0.027614374 0.062609315 -0.0073716994 -0.15350543 0.029574964 -0.0625715 0.071204685
0.14013931 0.05148516 -0.24482125 -0.008092963 0.00046344678 -0.06352521 0.012585403 -0.008807275
-0.055361904 -0.03462848 0.1189602 -0.0376505 0.11107912 -0.08860155 0.06095126 0.01685846
-0.030488594 -0.05607128 -0.060291257 -0.086358525 -0.11704351 -0.040402558 -0.07559379 -0.017952768
0.014056885 0.08613738 -0.21912207 0.051595125 0.033635233 -0.066861115 0.07645539 -0.08623113
0.09723462 -0.020063367 0.0048154187 -0.09238516 -0.030695079 0.030559724 -0.23641264 -0.060394526
0.122410186 -0.04238424 0.018282725 -0.0060642273 0.044043377 0.002873128 0.026301766 -0.14818983
-0.095868446 -0.10505157 -0.092498735 -0.20771986 0.0184317 -0.0015539946 0.05593076 -0.09437404
0.055861995 -0.07355261 -0.0229652 0.09817561 0.0449712 -0.044201862 0.04134 0.109400325

classfier.fc3.bias f4 [25]
00000000: 0663 8e39 b737 91b6 d556 9db9 6389 003a
00000010: 25df b737 2b80 ecb4 4927 6bb6 ce97 b939
00000020: 30b6 1638 40ef a735 504a 3635 68fe ac36
00000030: f1ee a735 5db7 81b7 f05e 61b6 34a6 a436
00000040: 0ba7 1839 d07e 5934 6b07 c2b6 a1df b838
00000050: 3521 a0b7 8956 6eb7 6369 c239 cf8f 43b8
00000060: 3fd5 abb6
0.0002715813 -4.327823e-06 -0.00030010068 0.0004903285 2.191921e-05 -4.405168e-07 -3.5040596e-06 0.00035399053
3.5932462e-05 1.25121e-06 6.790842e-07 5.1556162e-06 1.2512011e-06 -1.5463384e-05 -3.3582874e-06 4.9069295e-06
0.00014558078 2.0255834e-07 -5.782514e-06 8.815458e-05 -1.908895e-05 -1.42060535e-05 0.00037081083 -4.6625555e-05
-5.1210222e-06

classfier.bn3.weight f4 [25]
00000000: cd5f 893f b7f0 a73f 782d 873f a584 a73f
00000010: 6118 a13f e860 883f cf17 823f 43bb a73f
00000020: 630b ab3f a3a7 893f 1f57 873f 9938 ab3f
00000030: 5aba 873f cf78 a93f 873c 863f 7a1a 8a3f
00000040: 443f 793f f905 a73f 4088 a23f 716a aa3f
00000050: 1420 a33f 6a94 a23f b941 9f3f c4f7 a53f
00000060: 183f 883f
1.0732361 1.3120335 1.0560751 1.3087355 1.2585565 1.0654573 1.0163516 1.3104023
1.336285 1.0754284 1.0573462 1.3376647 1.0603745 1.3239993 1.0487221 1.078933
0.9736216 1.3048698 1.269783 1.3313733 1.2744164 1.2701542 1.2441932 1.2966237
1.0644255

classfier.bn3.bias f4 [25]
00000000: e08b 21bd 140a 9f3e d37a 59bd 6d86 a43e
00000010: 6ca4 803e 2318 3abd 9177 83bd c0f0 9c3e
00000020: ae08 b13e be8d 43bd 809b 11bd 3da7 b33e
00000030: d4bd 2cbd 3e99 a53e 36d7 6fbd 5fae 4ebd
00000040: e4d0 7fbd ff20 9e3e e0b8 8c3e d839 ab3e
00000050: c3bc 8e3e 243b 8f3e 2bc8 813e 3e7e a13e
00000060: c2a5 50bd
-0.039440036 0.31062376 -0.05309565 0.3213381 0.25125444 -0.045433175 -0.0641929 0.30652428
0.34576935 -0.047742598 -0.035548687 0.3508853 -0.04217322 0.32343477 -0.05855485 -0.050459262
-0.062455073 0.3088455 0.27484798 0.3344257 0.2787839 0.27974808 0.2534803 0.31541628
-0.05093933

classfier.bn3.running_mean f4 [25]
00000000: 6dc7 373e b603 fcbe 00af 993d 8764 cfbe
00000010: d560 e1be 3729 a43d f205 89bc 889e cbbe
00000020: d645 41bf 5721 c93d ff4c 663e 3dee 1ebf
00000030: e069 b83d 2326 acbe 1f19 2dbd baf6 18bd
00000040: 5cbc a03e 20d2 15bf 6cb5 b2be 6a0e 1ebf
00000050: 217e 15bf 0c17 ddbe d845 3ebf 435b f9be
00000060: 6c78 de3c
0.17947169 -0.4922158 0.07504082 -0.40506384 -0.4401919 0.080156736 -0.016726468 -0.39769387
-0.75497186 0.09820812 0.22490309 -0.6208227 0.09004569 -0.33622846 -0.042260285 -0.03734467
0.31393707 -0.5852375 -0.3490404 -0.61740744 -0.5839558 -0.43181646 -0.74325323 -0.4870244
0.027157031

classfier.bn3.running_var f4 [25]
00000000: 6f2b c83f 2ecd 2c3f 9bba 943f 87b1 873f
00000010: bada 403f c562 b03f 52e5 763f 9b8d 4e3f
00000020: 6f69 1d3f d76d 8c3f 9476 c73f 7e41 813f
00000030: 6493 a93f 289f 2e3f 76cb 9e3f 20f7 bb3f
00000040: 17e6 993f 0906 ef3e 99a0 263f 4fec 0c3f
00000050: 13a0 5c3f 3bdf 2c3f 1d16 7c3f a90b 8d3f
00000060: 4285 c73f
1.5638255 0.6750058 1.1619447 1.0601052 0.7533375 1.3780142 0.96443665 0.8068482
0.61489004 1.097102 1.5583062 1.0098112 1.3248105 0.68211603 1.2405841 1.4684792
1.2023343 0.46684292 0.650888 0.5504808 0.86181754 0.6752812 0.9847124 1.1019183
1.5587542

classfier.fc5.weight f4 [1, 25]
00000000: 390b 273e a825 8ebe dd9d 7a3e 0537 97be
00000010: 1231 c3be fc75 173e 0542 173e 9084 8fbe
00000020: 7bde 6ebe cfb6 593e 66f5 193e c325 70be
00000030: ed02 543e d359 8dbe 706d 2a3e a385 5a3e
00000040: c6b6 ef3d 8a34 96be 0082 b9be aba3 62be
00000050: 9d10 a5be f303 a4be cd42 c9be 5299 5abe
00000060: e05f 603e
0.16312875 -0.27763104 0.24474283 -0.29534164 -0.38123375 0.14791101 0.14771278 -0.28030825
-0.23327057 0.21261142 0.15035018 -0.23451905 0.20704241 -0.27607593 0.1664331 0.21340041
0.11704783 -0.2933696 -0.36231995 -0.22132747 -0.32239237 -0.32034263 -0.39308777 -0.2134755
0.21911573
