trained_models/2025-06-23/run_18-24-05/dnn_model_fold_2.pt (torch, 92673 bytes, 19 tensors)

classfier.fc1.weight f4 [100, 100]
000000 f6 cc 3f 3d 75 f6 f9 3c e3 7e ef bd de 34 f2 3c
       0.046826325 0.030513028 -0.116941236 0.029566225
000010 d7 67 48 3d f1 2b c4 bd 28 2e 02 be 3d 02 24 bd
       0.048927154 -0.09578694 -0.1271292 -0.040041197
000020 d6 41 e0 3d a6 39 fc bb 23 22 d9 bc 12 1c bf bc
       0.10950057 -0.007697302 -0.026505535 -0.023328815
000030 a6 19 c4 bd 11 6b c3 3d c1 98 bc 3d 39 bc 64 bd
       -0.095752046 0.09541906 0.09208823 -0.055843566
000040 12 3b e0 bc 19 cb 24 3d 3e 8f 36 3d 1c bf c4 3c
       -0.027371917 0.04023275 0.0445702 0.02401691
000050 89 d0 e5 3d e2 8d bd bd c6 19 98 3d 71 d9 00 3d
       0.112214155 -0.092555776 0.07426791 0.03145737
000060 9f 51 e8 3b f5 22 4f bb e9 04 7f 3d de bb 77 3c
       0.007089808 -0.003160653 0.062260542 0.015120475
000070 ec 93 7f bc 2f 53 7c 3d d5 8a 04 3c 5b 5e 98 bd
       -0.015599232 0.061602768 0.008089741 -0.07439872
000080 77 d2 a7 3d 2d dd 1a bd 72 9c 6f bc 4a fb 0c 3d
       0.0819444 -0.037808586 -0.014624702 0.034419335
000090 e3 11 0b 3c ca b7 98 bd ec 0d 98 bd 42 54 9a bc
       0.008488151 -0.0745693 -0.074245304 -0.018839005
0000a0 ce 5c 70 bd 8c bd 1b be 8d 9b be 3d 95 26 97 3b
       -0.058682255 -0.15209025 0.09307013 0.0046127536
0000b0 80 df 0e bd 7f 04 d9 3d e6 fe 70 bb 89 2d bd bc
       -0.034881115 0.10596561 -0.0036773025 -0.023093002
0000c0 90 fb 54 3c 01 82 54 bc b8 16 c8 bc 1d 18 34 3d
       0.01299943 -0.0129704485 -0.024424896 0.04396831
0000d0 18 d4 35 3d 6b 7a 1e 3e eb a3 24 3d 1a bb 99 3d
       0.04439172 0.15476386 0.040195387 0.0750639
0000e0 1a 99 99 3d 20 82 a1 3d 8e 74 ec bc 35 9d 36 bd
       0.07499905 0.078861475 -0.028864171 -0.044583518
0000f0 03 7f 88 3d 95 7b 14 bb 8c 22 e1 bd 42 13 8e bd
       0.066648506 -0.0022656668 -0.109929174 -0.06937267
000100 46 a8 05 bd a1 b4 ca 3c 2c 9c 31 bd 05 2c 1a 3c
       -0.03263118 0.024744334 -0.043361828 0.009409909
000110 36 2d 08 bd 18 1d 6b 3d 4c c9 6f 3b 50 2f 22 bc
       -0.03324624 0.057400793 0.0036588488 -0.0098989755
000120 e7 28 60 bd 30 70 33 3d 3a 37 d3 ba 56 1d 7c bc
       -0.054726508 0.043808162 -0.0016114481 -0.015387854
000130 3e 61 c1 bc ed 48 cb 3c 92 c2 a8 bc 5b 7e eb bd
       -0.023605939 0.024815047 -0.02060059 -0.1149871
000140 aa 8e 85 3c 7a 83 3d 3d 3c c3 cb bd 3e c6 93 bd
       0.01630338 0.046267964 -0.099493474 -0.07215546
000150 1c 7d 54 3d 7f 66 b3 bd 74 3b 26 bd 91 52 0f 3d
       0.051877126 -0.08759784 -0.040584043 0.03499085
000160 87 a1 97 3d 35 f6 63 bc e0 b2 7b 3d 6c 9d b6 3c
       0.07403856 -0.013913681 0.061449885 0.022291861
000170 03 29 d2 3d 8a 71 05 bd c2 8e f3 bd de b3 b4 bd
       0.102617286 -0.032578982 -0.11892463 -0.088233694
000180 ca fe 23 3d d2 6f c0 3d 5d df dd bd ae 64 d9 bc
       0.040037908 0.09396328 -0.10833619 -0.026537266
000190 2c 8a a9 3c 2c c4 36 3e 31 39 21 be 20 35 e7 bc
       0.020695768 0.17848271 -0.15744473 -0.028223574
0001a0 50 45 9e 3c 37 47 3d 3d 03 11 48 bd c5 2b 7f bd
       0.01932016 0.046210494 -0.04884435 -0.0622976
0001b0 80 29 ac 3d 0e 4c 26 3e 72 0c a2 bd 08 12 e0 3d
       0.08406353 0.1623995 -0.0791253 0.10940939
0001c0 a6 cc 03 3e 07 c5 a6 bd 42 69 2d 3d 2a 67 be 3d
       0.12871036 -0.08143049 0.04233671 0.09297021
0001d0 a3 6e 80 3b ff d0 f7 bc 47 32 68 bd 71 4f c2 3d
       0.003919439 -0.030251024 -0.056688573 0.094878085
0001e0 a4 ca 19 3d 84 9b 2d bd ed 05 64 bb 33 09 2f bb
       0.03754677 -0.04238464 -0.003479357 -0.0026708364
0001f0 3d 51 ff bb 30 61 56 3d 84 86 40 3c c7 15 6e 3d
       -0.007791667 0.05233878 0.011750821 0.058126237
000200 0e 05 c8 bc 4e 83 8d bd 29 0e f2 3d ac c5 27 bc
       -0.024416473 -0.0690981 0.11819107 -0.01024
000210 30 80 1b 3d 72 30 88 3d ea a0 ce bd 64 3f a6 bd
       0.037964046 0.06649865 -0.10089286 -0.081175596
000220 a6 02 12 3c 1a 4c 56 bc 41 e8 89 3d af 8d 4b 3d
       0.008911764 -0.013079667 0.06733752 0.049695667
000230 24 6c 0b 3d 03 67 1b bc f3 d3 50 3c b4 d5 81 bd
       0.034038678 -0.009485009 0.012745845 -0.06339589
000240 03 3b 96 3d 85 67 c1 3c b9 03 25 be 27 ea 9e 3d
       0.07335474 0.023608932 -0.16114701 0.07759505
000250 fe 4a dc bc e2 e3 56 bd c6 8c 86 3d 1f cc 82 3c
       -0.026891228 -0.05246342 0.06569819 0.015966473
000260 1f a6 b8 bd 37 66 b8 3d 76 2c 89 bc 63 95 98 b9
       -0.0901606 0.09003871 -0.016744833 -0.00029103
000270 2f 2b c6 bc d8 69 78 3d ff e8 ab bd 84 e5 e7 3c
       -0.024190513 0.060647815 -0.0839405 0.028307684
000280 4b 84 f5 3c 99 c9 ee bc ce 37 9b 3b 9d dc 83 bd
       0.029970309 -0.029148864 0.004736877 -0.06438563
000290 b9 ff 6c bc 9d d6 d2 bd 9b 8d 15 bd 87 ac 6a 3d
       -0.014465266 -0.102948405 -0.036512 0.05729344
0002a0 81 90 20 3d 4a a3 01 3b 67 69 98 ba ca 09 f8 bc
       0.03920031 0.0019781166 -0.0011628092 -0.030278105
0002b0 66 61 dc 3c f0 ca ab 3d 2b 14 06 3d 57 5a c9 bd
       0.026901912 0.08388317 0.032734077 -0.09831684
0002c0 48 61 1e bd cf 75 55 bd 39 c7 80 bd 79 ed 7b 3c
       -0.038666993 -0.052114304 -0.06287999 0.015376442
0002d0 33 e8 5a bd b0 b7 dd 3c 91 0f 6b 3d f0 39 e8 bb
       -0.0534441 0.027065128 0.057387892 -0.007086985
0002e0 4d dd ba 3d ec 05 51 3d 81 ec 22 bd 3a a5 e1 bd
       0.09124241 0.05103104 -0.03977633 -0.110178426
0002f0 b6 be 1a 3d 2d 4b f3 bc 11 34 0b bd 59 85 c7 bd
       0.037779532 -0.029698933 -0.0339852 -0.09742231
000300 2a 42 04 bd 46 2c b5 3c f7 66 91 3d 59 6d bd 3b
       -0.03228966 0.022115838 0.07099717 0.0057808575
000310 17 19 80 bd 48 ec 3f bd cd 15 31 bd 67 79 86 3d
       -0.062547855 -0.046856195 -0.04323368 0.065661244
000320 aa f3 a5 3b 9c 4a 47 3d 56 95 f6 bd 8c 22 b7 3c
       0.0050644474 0.048655137 -0.12040202 0.02235534
000330 47 e6 87 3d 3e 70 63 3d 0b 92 a3 3d bc b1 9b 3d
       0.06635719 0.055526964 0.0798684 0.076022595
000340 b5 db 15 bd 4d db 86 3d 67 76 58 3c 95 a6 7e 3d
       -0.036586482 0.06584797 0.013211823 0.062170584
000350 40 7a 39 3d 5b 2f 01 be d6 c8 cc b9 e1 08 2f 3d
       0.045282602 -0.12615721 -0.00039059547 0.042733077
000360 c4 47 48 bd 84 e2 b8 ba 48 28 e7 bc 0b c4 89 3d
       -0.048896566 -0.0014105593 -0.02821745 0.06726845
000370 12 62 ab 3c 3a 31 b2 3d d2 4a 40 bc 77 48 df 3c
       0.020920787 0.087007955 -0.011736589 0.027256234
000380 60 69 76 bd 31 61 cd 3d 08 fa 27 bd 00 cc e4 3d
       -0.060159087 0.100283034 -0.041009933 0.111717224
000390 f9 df df bb 77 98 10 bd 3f bd 90 ba e4 54 b1 3c
       -0.0068321195 -0.03530165 -0.0011042728 0.021646924
0003a0 df d0 f7 3d f7 df 64 bc 25 11 02 be 3f 68 98 bd
       0.12100386 -0.013969413 -0.12701853 -0.07441758
0003b0 49 a3 b5 bd 55 ce 83 bd 69 11 68 3d 4e 80 a9 bd
       -0.08869035 -0.06435839 0.05665723 -0.08276425
0003c0 f8 7c a1 bc 48 bf fd 3d dd 9a e1 3c 40 49 00 3b
       -0.01971291 0.1239 0.027539665 0.001957491
0003d0 52 19 ec bb da 81 4e 3c 44 1d 46 3d b4 e8 b4 3d
       -0.007205167 0.012604201 0.048367754 0.08833447
0003e0 72 c1 b5 bd d9 1b a5 bc 3f 9f 65 bd a3 b7 9c 3d
       -0.088747874 -0.02015488 -0.056060072 0.076522134
0003f0 76 17 6a bd 2b 76 5c 3d a5 7d 3a bd e3 6e 10 3d
       -0.05715128 0.05382363 -0.04552998 0.035262

classfier.fc1.bias f4 [100]
000000 cb b4 1c b8 6a 85 f8 b7 53 7e 82 b9 20 f5 c1 38
       -3.7361675e-05 -2.962603e-05 -0.0002488965 9.248615e-05
000010 1c c7 83 38 56 6f 55 b5 a0 3f b8 37 30 96 c3 b6
       6.283654e-05 -7.95107e-07 2.1964137e-05 -5.828937e-06
000020 35 c5 c8 b7 32 a2 fc b8 09 ac 5d 38 a0 c8 a7 b6
       -2.393369e-05 -0.000120465076 5.2850726e-05 -5.0003437e-06
000030 50 12 e9 b7 a5 d3 09 b7 19 a8 7b b7 cc 54 fe b7
       -2.7784292e-05 -8.215114e-06 -1.4999904e-05 -3.0318646e-05
000040 fb 94 88 35 10 14 ad 37 5d 12 0b b7 05 b9 6f b9
       1.0176149e-06 2.063255e-05 -8.289321e-06 -0.00022861741
000050 44 bc 41 b7 ef ef 12 b8 b2 e5 03 b8 aa 50 88 b8
       -1.154753e-05 -3.5032568e-05 -3.1446754e-05 -6.50001e-05
000060 ca 9a 97 b7 2c ae fb 35 a8 e0 b3 38 cc 0c a0 39
       -1.8072682e-05 1.8751648e-06 8.5772306e-05 0.00030527113
000070 f9 ee 57 36 0e 81 92 39 c6 8b c8 36 f6 65 a9 36
       3.2176597e-06 0.00027943443 5.9767362e-06 5.0484623e-06
000080 e1 71 e4 b5 1d 6f fd b8 96 10 02 b7 81 d4 41 36
       -1.7020467e-06 -0.000120846766 -7.7524655e-06 2.8882935e-06
000090 c8 87 72 38 4e 1b 56 b7 2f ca 9f b8 35 b1 f6 38
       5.7823752e-05 -1.2761751e-05 -7.6193704e-05 0.000117632015
0000a0 5d fb bd 38 59 bf 5f b8 e4 af 34 36 f8 73 17 b8
       9.059042e-05 -5.334555e-05 2.6924472e-06 -3.610921e-05
0000b0 90 a5 c5 36 d6 fc 80 b6 fe d5 42 b7 a6 34 06 b8
       5.8903315e-06 -3.8441312e-06 -1.1613125e-05 -3.1997122e-05
0000c0 d5 ac f1 38 64 49 2c b9 14 fe 87 b7 f4 82 d8 38
       0.00011523968 -0.00016430538 -1.6211568e-05 0.000103240745
0000d0 a7 ee 0f b8 60 45 e6 37 28 8a a0 35 a8 52 1a b8
       -3.431612e-05 2.7450442e-05 1.1961138e-06 -3.679344e-05
0000e0 49 f7 bd b6 8e 6a 28 b7 0b 02 73 b8 bd c7 eb b6
       -5.6614267e-06 -1.00383895e-05 -5.7937617e-05 -7.0267984e-06
0000f0 71 80 c7 37 ab 72 e2 b6 a5 31 0d 35 f0 80 82 35
       2.3782459e-05 -6.748674e-06 5.2598836e-07 9.72328e-07
000100 77 20 cb 37 1d 48 5b 37 08 20 45 b8 72 af 75 b7
       2.4214603e-05 1.3070207e-05 -4.699829e-05 -1.4643987e-05
000110 a3 34 a5 b7 92 ed b7 37 c0 80 07 b8 a3 ee 4e 39
       -1.9694044e-05 2.1925927e-05 -3.2306416e-05 0.0001973459
000120 38 db 74 39 5b 71 8f b7 54 34 4d 38 df 3e 23 b8
       0.00023351319 -1.7099714e-05 4.8924543e-05 -3.892078e-05
000130 5d 3f b6 b8 45 94 8d 38 8e b2 94 b6 9e 5f 00 b8
       -8.6902386e-05 6.751021e-05 -4.43153e-06 -3.060663e-05
000140 33 ee 81 38 0f a9 9d b8 f7 7f 5c b8 30 5b 81 b7
       6.1955674e-05 -7.517833e-05 -5.2571264e-05 -1.542046e-05
000150 36 ce 7e b7 e4 2d 05 38 c5 63 be 37 83 46 f7 35
       -1.5187592e-05 3.175241e-05 2.2696224e-05 1.8423456e-06
000160 59 1e 6e b7 42 e5 12 37 df e0 eb 36 a4 34 5f b7
       -1.4192971e-05 8.755656e-06 7.029724e-06 -1.3304092e-05
000170 aa 32 5f 37 3d e8 64 b8 b5 3d 89 b6 2a 5f 98 38
       1.3303632e-05 -5.4575725e-05 -4.090102e-06 7.2656505e-05
000180 4e 35 96 37 df df af b8 6a 63 b5 38 bf 3e ee 35
       1.7906215e-05 -8.3863495e-05 8.64927e-05 1.7750643e-06

classfier.bn1.weight f4 [100]
000000 34 47 76 3f 37 1b 6e 3f 2d 49 7c 3f 09 e7 74 3f
       0.962024 0.93010277 0.9854916 0.9566503
000010 af ac 73 3f f9 21 66 3f 19 3a 63 3f c0 42 77 3f
       0.9518537 0.8989559 0.88760525 0.9658623
000020 51 3c 7d 3f 59 5d 71 3f c8 c4 6b 3f f1 56 76 3f
       0.9892016 0.9428306 0.9209714 0.9622641
000030 78 20 7b 3f b0 d6 81 3f d8 7f 8e 3f bf ac 6b 3f
       0.9809642 1.0143642 1.1132765 0.92060465
000040 48 18 64 3f 4f a8 71 3f d0 40 6f 3f 05 dc 6f 3f
       0.8909955 0.94397444 0.9345827 0.936951
000050 49 09 74 3f 21 c8 80 3f e4 2d 6d 3f f3 97 6e 3f
       0.9532667 1.0061074 0.9264815 0.93200606
000060 02 96 6e 3f ea bf 60 3f 68 90 6f 3f 86 ca 6f 3f
       0.93197644 0.8779284 0.9357972 0.936684
000070 77 3e 62 3f 8f 08 6f 3f 56 aa 8a 3f cc 03 69 3f
       0.88376564 0.93372434 1.0833232 0.9102142
000080 e2 55 6d 3f 71 1d 7c 3f f4 55 7a 3f 92 96 65 3f
       0.9270917 0.98482424 0.97787404 0.8968288
000090 53 a3 72 3f 8a 70 78 3f e6 2f 79 3f dd fd 82 3f
       0.94780463 0.9704672 0.9733871 1.0233723
0000a0 91 03 87 3f 23 b2 70 3f fe be 78 3f e6 e9 78 3f
       1.0547963 0.94021815 0.9716643 0.972319
0000b0 2f 8f 67 3f 63 8a 67 3f ce 75 78 3f 31 b3 7b 3f
       0.90452856 0.90445536 0.97054756 0.983203
0000c0 93 f4 72 3f b3 46 86 3f 2e dd 7d 3f 1e 76 86 3f
       0.9490444 1.0490326 0.9916562 1.0504797
0000d0 7d 79 6f 3f 71 84 7f 3f b2 c0 68 3f f9 c7 7c 3f
       0.9354475 0.99811465 0.9091903 0.98742634
0000e0 d1 24 8e 3f 3c 37 87 3f 46 56 70 3f 54 c3 70 3f
       1.1104985 1.0563731 0.9388164 0.9404805
0000f0 57 9d 83 3f 43 52 63 3f 08 f4 63 3f 5b 33 6d 3f
       1.0282391 0.88797396 0.8904424 0.9265649
000100 69 ae 67 3f 24 88 79 3f 8d 90 79 3f 4d ce 61 3f
       0.90500504 0.9747336 0.9748619 0.88205415
000110 cf 9c 72 3f 71 4a 6f 3f be c6 85 3f ff 3d 6d 3f
       0.9477052 0.93472964 1.0451276 0.92672724
000120 db 26 82 3f 6e db 71 3f 3f 11 80 3f ce c9 7f 3f
       1.0168108 0.9447545 1.0005263 0.99917305
000130 03 4a 8a 3f 23 66 92 3f b2 75 66 3f fd 53 72 3f
       1.0803837 1.143742 0.9002334 0.94659406
000140 50 f8 6c 3f 2c 88 75 3f fd b9 78 3f 7b 5f 81 3f
       0.92566395 0.95910907 0.97158796 1.0107263
000150 0d b9 62 3f 50 ef 78 3f 66 b0 71 3f 9f b0 5e 3f
       0.88563615 0.9724016 0.9440979 0.8698825
000160 4a 08 6a 3f 00 67 76 3f 9b 31 6d 3f b6 46 8a 3f
       0.914189 0.96250916 0.92653817 1.0802829
000170 88 6f 76 3f 64 16 88 3f 81 dc 6d 3f 66 a3 78 3f
       0.96263933 1.0631833 0.9291459 0.97124326
000180 c5 84 78 3f e2 99 6e 3f 3c 23 89 3f 5e 3f 6a 3f
       0.9707759 0.93203557 1.0713878 0.9150294

classfier.bn1.bias f4 [100]
000000 5e 30 07 be 62 51 94 be 1e ee 8a be ac 5b 5c be
       -0.13202044 -0.2896834 -0.27134794 -0.21519345
000010 0a f3 ba be 48 9a 8d bc 94 4d 17 be 43 9b 42 be
       -0.3651355 -0.017285481 -0.14775687 -0.1900454
000020 26 5e 69 be 5f a2 a2 be 93 fb 87 be ab 07 32 be
       -0.22789821 -0.31764504 -0.26559123 -0.17385738
000030 97 cc 84 be 83 46 71 bd 5a af 5f be 48 e2 4d be
       -0.2593734 -0.058905136 -0.21844235 -0.2010585
000040 70 04 b9 bd 36 18 bd be 59 2f a2 3d 98 9d 90 be
       -0.090340495 -0.36932534 0.07919187 -0.28245234
000050 0f 75 04 be d7 7e c2 bd 26 1a 82 be a1 5c a7 be
       -0.1293528 -0.09496849 -0.25410575 -0.32687858
000060 73 c8 6d be df 64 3a be fd ca 23 be 1b 97 90 be
       -0.23220997 -0.18202542 -0.15995403 -0.28240284
000070 b6 2d 18 be 17 de 9f be f7 ea f3 bd 6a c0 88 be
       -0.14861187 -0.3122413 -0.1191005 -0.267093
000080 78 13 09 be 86 a0 89 be f5 79 17 be 03 2f 51 bd
       -0.13386333 -0.26880282 -0.14792617 -0.051070224
000090 38 f6 0e be 0c 13 95 be f7 4b 80 be 1c c0 75 bd
       -0.13961112 -0.29116094 -0.25057957 -0.059997663
0000a0 fb d0 0f be e6 0e 97 be 60 39 48 be 70 03 e0 bd
       -0.14044563 -0.29503554 -0.19553137 -0.10938156
0000b0 cc 79 68 bd 76 e5 99 be 64 5c 26 be fe 1e 80 be
       -0.05675678 -0.30057877 -0.16246182 -0.25023645
0000c0 52 b7 8b be a0 d6 52 be 57 c8 89 be 4b 70 8e be
       -0.272883 -0.20589685 -0.2691066 -0.27820048
0000d0 09 ef 7b be 1a 01 6b be 48 3e 06 be f4 8e 87 be
       -0.24602903 -0.22949639 -0.13109696 -0.26476252
0000e0 8e 3a a3 bd 33 b3 43 bd 21 28 99 be 81 04 0b bc
       -0.07970153 -0.04777832 -0.29913428 -0.0084849605
0000f0 02 fc cb bd 04 94 78 be 9f e7 cc bd 81 9e 9e be
       -0.09960176 -0.24275213 -0.10005116 -0.30980304
000100 6b 2c 80 be 9a 7c ff bd ac db a1 be 5e 21 4e be
       -0.25033888 -0.12474938 -0.3161291 -0.20129916
000110 0e 68 7b be c2 a9 af bd a0 36 5e be 9a 61 84 be
       -0.24551412 -0.085773006 -0.21700525 -0.25855714
000120 ad a2 95 be ad 73 c1 bd 73 1d 3d be 41 bc 43 be
       -0.29225674 -0.094458915 -0.18468265 -0.19114782
000130 a4 8d 03 be bc 93 0e be 44 0d a8 bd f4 c4 0a be
       -0.12847 -0.13923544 -0.08205655 -0.13551694
000140 fc 96 9f be 89 35 96 be 28 f1 ee bd d3 2f 58 be
       -0.3116988 -0.2933772 -0.11667091 -0.21111993
000150 4e 7d a8 be db ae 81 bb be 0f b8 be 0e b0 3c be
       -0.329081 -0.003957612 -0.3594951 -0.18426535
000160 f4 24 b6 bc a4 70 89 be 37 04 55 be e7 1a 1a be
       -0.022234417 -0.2684375 -0.20802389 -0.15049325
000170 ae 18 42 be 7d 54 6e bc 84 b6 4d be 99 6b 2d be
       -0.18954727 -0.014546511 -0.20089155 -0.16935576
000180 14 00 bd be b7 fd c0 be 86 05 1f be 17 12 bc bd
       -0.36914122 -0.3769357 -0.15529451 -0.09183138

classfier.bn1.running_mean f4 [100]
000000 fd 46 eb bc dd 04 cf 3d f2 21 86 bd ca 2c f5 bd
       -0.028720373 0.101083495 -0.06549443 -0.119714335
000010 ae c7 e6 bd 2e 83 73 3f 51 f3 0c 3d bd 3b b3 3e
       -0.11268555 0.9512204 0.034411732 0.35006514
000020 98 5c 03 be 0b d1 a5 bd 40 89 52 be b7 4f ab 3e
       -0.1282829 -0.080965124 -0.20560169 0.33459255
000030 b9 b3 17 bd 7a 8a 00 3e 4c 07 00 3e 17 98 15 3e
       -0.03703663 0.12552825 0.12502784 0.14608799
000040 87 eb e9 3d b1 5f 32 3d b2 38 5b 3f 8c 7c f3 bd
       0.114218764 0.04354829 0.85633385 -0.1188899
000050 89 72 ab be 31 33 da bd e8 9e 44 bd 7a 2c db bd
       -0.3348582 -0.10654295 -0.048003107 -0.107018426
000060 21 a5 8c 3d 92 87 f3 3e 3d da 2d 3e 4d d4 b1 bd
       0.06867433 0.4756437 0.16977783 -0.08683071
000070 7f bd 67 be 02 08 9b bd 15 30 98 3b 8e 05 fe bd
       -0.22630881 -0.07569887 0.0046444037 -0.12403403
000080 47 73 1e bf 06 66 1a bd b4 5e 39 3d a1 e5 3b 3f
       -0.6189465 -0.037694953 0.04525633 0.7339726
000090 9d 76 fe 3d dc ac 08 be 6e f7 d8 bb 76 75 61 bd
       0.124249674 -0.1334719 -0.006621293 -0.05504366
0000a0 cc 72 9d 3c 59 4f 60 bd 2d e5 30 3e b2 07 21 be
       0.019219778 -0.05476317 0.17274924 -0.15725592
0000b0 43 7b a5 3e 03 b4 b9 bd 42 3a 72 bd 53 c2 55 3e
       0.32320604 -0.09067538 -0.05913759 0.2087491
0000c0 7e b5 8e bd c0 45 f5 3d 72 7e e5 bd f1 2d 00 3e
       -0.06968211 0.119761944 -0.11205758 0.12517525
0000d0 06 b9 8f be df d2 3e 3e d6 58 9e 3d 30 45 62 bc
       -0.2807085 0.18635128 0.07731788 -0.013810441
0000e0 ce 15 8c 3d 44 30 70 3d 3a b8 69 bc 4b 9c 1e 3f
       0.068400964 0.05863978 -0.014265114 0.61957234
0000f0 30 ac 13 3d a6 51 c0 be 86 e1 bf 3f 61 e3 a7 bd
       0.036052883 -0.37562293 1.4990699 -0.08197666
000100 dd 05 00 bd 6e 71 7b 3e 2a 31 10 be f9 14 e8 bd
       -0.03125559 0.24554989 -0.14081255 -0.11332125
000110 4d d1 85 3e 7b d2 1f 3e 35 85 55 3d 48 57 3f bc
       0.26136246 0.15607636 0.05212899 -0.011678524
000120 4a 4d de bd 82 ec 2c 3e ec 04 14 3d 70 67 cc 3d
       -0.108545855 0.16887096 0.036137506 0.09980667
000130 2f 29 06 bc 14 a7 e2 3c a1 27 31 3f 3e 0d 1f 3e
       -0.00818853 0.02766756 0.69201094 0.15532395
000140 e4 64 14 be 2e 1f 2b be d6 e9 d7 3d d3 11 10 3d
       -0.14491612 -0.16711113 0.105426475 0.03517325
000150 03 c5 1e be 05 31 37 3d 2c 22 64 bc ca 70 82 bf
       -0.15504842 0.044724483 -0.013924163 -1.019067
000160 34 1a 2e 3f 40 5c fc bd 6e 45 3d be 67 43 7e 3d
       0.6800873 -0.12322283 -0.18483517 0.062076
000170 f1 fe 6d bd 4a bc 42 bd 13 69 f6 3d b0 ee 57 b9
       -0.05810446 -0.047542848 0.1203176 -0.00020592916
000180 98 f0 36 3c bc 79 b3 3c ef 8e bf 3c 15 cd e1 3e
       0.01116576 0.021908633 0.023383586 0.44101778

classfier.bn1.running_var f4 [100]
000000 09 21 21 3c 2f a2 cf 3b 8d 5e 62 3b 8e fd c9 3b
       0.009834536 0.0063364725 0.003454122 0.0061642593
000010 2e 8e 03 3c 4d 03 e0 3d 92 c3 77 3c 52 72 b9 3c
       0.008029504 0.109381296 0.015122311 0.02263752
000020 9b e1 16 3c 4e 75 ef 3b 5a 6a 23 3c af 21 ca 3c
       0.009209062 0.007307685 0.009974087 0.024674265
000030 0a e2 ff 3b a5 49 25 3c 87 5d fc 3b 5e 3e 14 3c
       0.0078089284 0.010088359 0.007701579 0.009048073
000040 f6 28 65 3c 25 03 12 3c 09 6e c2 3d 6b 24 e7 3b
       0.013986817 0.0089118825 0.09493644 0.007053902
000050 1f aa a9 3c eb 67 c2 3c 27 15 5f 3c f8 20 d1 3b
       0.020711003 0.023731193 0.013615883 0.006382104
000060 4d 3f fa 3b 7c 67 4a 3d b5 e9 0f 3c 65 43 03 3c
       0.0076369406 0.049415097 0.008783747 0.008011674
000070 67 fd bb 3c a3 e5 87 3b 1d da 54 3b d6 5a 0b 3c
       0.02294798 0.004147248 0.0032478638 0.008505544
000080 f7 b4 5d 3d 0e 82 a4 3b c3 1b e0 3b 18 88 9d 3d
       0.05412766 0.0050203865 0.006839247 0.076919734
000090 b4 91 62 3c c1 3b da 3b 55 14 aa 3b 59 53 13 3c
       0.013828684 0.0066599553 0.005190412 0.00899204
0000a0 6e e2 c4 3b e9 68 bf 3b 40 df 74 3c 7a f9 45 3c
       0.006008438 0.0058413637 0.014945805 0.012083406
0000b0 91 61 9f 3c a5 03 7a 3c 9e 1a 3f 3c 79 c1 24 3c
       0.019455703 0.015259658 0.011664061 0.010055893
0000c0 52 21 0e 3c 5e 56 a7 3b b0 05 f1 3b 12 aa 06 3c
       0.008674936 0.0051067313 0.0073554143 0.008219259
0000d0 c0 43 5c 3c 0d 3f 44 3c 12 0a 02 3d 37 ba d0 3b
       0.013443887 0.011977923 0.031747885 0.006369855
0000e0 c7 8d 0f 3c 44 f3 80 3c 42 86 d7 3b 2b 86 6b 3d
       0.00876183 0.015740998 0.006577284 0.057501
0000f0 3f 5b 1a 3c 88 cf d2 3c e1 00 7c 3e 80 93 af 3b
       0.009421169 0.025733724 0.2460971 0.0053581595
000100 29 90 2a 3c 02 7d b5 3c bb f9 ad 3b 74 79 4e 3c
       0.010410347 0.022154335 0.005309311 0.012602199
000110 6f 6b 90 3c dc 7c ee 3b 1d e8 ba 3b af c6 e7 3b
       0.017629353 0.007278068 0.0057039396 0.0070732455
000120 ca 76 8f 3b 7a 7e 1c 3c 8f 04 d9 3b c2 ae 4a 3c
       0.0043781744 0.009551639 0.006622858 0.012370767
000130 e3 8a 9c 3b db d5 fe 3b 4c e0 80 3d 2d 16 1e 3c
       0.004777299 0.0077769584 0.06292781 0.009648842
000140 5b 4e fd 3b d8 4a ff 3b 7c 46 f0 3b f8 a3 b7 3b
       0.007730288 0.0077909045 0.007332621 0.0056042634
000150 3e ef cd 3b b3 dd c5 3c 95 70 86 3b a5 3f 37 3e
       0.0062846234 0.024153566 0.0041027763 0.17895372
000160 68 cf 5a 3d 8e 53 e4 3b fd 68 18 3c a2 01 00 3c
       0.053420454 0.0069679683 0.009302375 0.007812889
000170 d8 94 d8 3b 5f 7f bc 3b 77 54 3c 3c 57 58 b2 3b
       0.0066095404 0.0057524885 0.011494747 0.00544266
000180 93 72 b0 3b 6a c1 9b 3b ed 2d c7 3b 4a 1d 8c 3d
       0.005384752 0.0047532814 0.006078473 0.06841524

classfier.fc2.weight f4 [50, 100]
000000 e6 21 ea 3d 80 25 90 3d 01 9a 52 3c ee 17 89 3d
       0.11432247 0.070384026 0.0128541 0.06694017
000010 ca fe d4 bc 96 34 8d 3d 6b 00 c1 3c 47 7a e9 3c
       -0.0260004 0.068947956 0.02355977 0.02850069
000020 e1 a3 b6 3c 39 87 a3 3c d4 7f 17 3d 61 50 58 3d
       0.02229494 0.01996194 0.03698714 0.05281103
000030 10 fd a0 3d e5 a8 78 3d ac 9c 6f bc 77 6e 48 bd
       0.07860768 0.060707945 -0.014624756 -0.048933472
000040 5f 39 78 3c f9 5b 98 3d 51 5b cb 3d 14 2c cd bd
       0.015150397 0.074394174 0.099295266 -0.10018173
000050 cf d2 dc bc 71 80 63 bc 8d c3 5e 3d 16 02 ee 3c
       -0.02695599 -0.013885603 0.05438571 0.029053729
000060 a7 7e e4 3d 20 67 8a 3d 85 78 19 bd 6d a8 00 bd
       0.111569695 0.06757951 -0.037468452 -0.031410623
000070 92 54 3e bd 47 b3 8b bd 51 4f a6 3d 23 55 e4 3d
       -0.04646737 -0.06821304 0.08120597 0.11149051
000080 96 15 6b bd 45 83 7f bd e9 03 ac 3d 3a b3 42 bd
       -0.057393633 -0.062381048 0.08399183 -0.047534205
000090 f0 5f 03 bd ed 31 18 bd e9 e2 c8 3d de f1 93 bd
       -0.032073915 -0.037156988 0.09808905 -0.07223867
0000a0 0c cb e4 3d d2 a6 cc bd 28 f5 82 3d e5 c2 d1 3d
       0.111715406 -0.09992756 0.06394416 0.10242251
0000b0 84 43 48 bd 75 ca 9b bd 07 47 16 bc 6c 16 d2 3c
       -0.048892513 -0.07606975 -0.009172208 0.025645457
0000c0 a6 a0 f3 3d 42 db 2b 3d 1d 91 10 bc be 97 aa 3c
       0.11895876 0.041957147 -0.00882366 0.02082431
0000d0 bc dd bb 3d bf 23 e3 3d 78 d7 a2 bd 5a 7a 91 3c
       0.09173152 0.110908024 -0.07951254 0.017758537
0000e0 21 73 a7 3d 8b 84 63 3d 29 0f ec 3d c1 96 ea 3c
       0.08176256 0.055546325 0.11526329 0.028636338
0000f0 8b aa 14 3c d5 8d d7 3d 93 b5 a3 bc b8 08 e0 bd
       0.009073864 0.10525099 -0.019984042 -0.10939163
000100 7d 25 67 bd 7c c0 6c 3d ec ba dd bd f4 89 75 3d
       -0.056432236 0.057800755 -0.10826668 0.059946015
000110 6b 43 ff 3b 31 98 b9 3b 0c 14 34 bd 29 d9 ac bc
       0.0077900193 0.0056638946 -0.04396443 -0.021099644
000120 1e f3 27 bc 51 a5 93 3d a7 29 1f 3d 35 fb 9c 3d
       -0.010250835 0.07209266 0.038858082 0.076651014
000130 5a e4 e3 3c 3e aa af bc a7 55 89 3d 96 ab 59 bd
       0.027818847 -0.021443482 0.0670579 -0.053142153
000140 d5 28 4c 3c 6a 78 1b 3d 21 69 df bc 4a 14 5a 3d
       0.012460907 0.037956633 -0.027271809 0.053242005
000150 db 90 d5 bd 20 d0 36 bd 7a e2 0d be 15 cb 71 3d
       -0.104280196 -0.044632077 -0.13855925 0.059031565
000160 75 05 bf 3c c4 7f ab bd 94 da be bd 7e 39 97 3d
       0.023318032 -0.08373979 -0.09319034 0.07384013
000170 ea 30 8c 3d d4 c4 1c 3d f1 f0 bd bd 4d 56 b8 bd
       0.06845267 0.038273647 -0.092744716 -0.090008356
000180 45 d6 0a 3d a7 0d 1c bd c1 68 a7 bb a2 36 84 3b
       0.03389575 -0.038098957 -0.005108923 0.004034833
000190 cd 7b b9 3d 38 6a 53 bd 09 30 d1 bc e9 3a 02 3e
       0.09056816 -0.05161497 -0.0255356 0.12717785
0001a0 2f fc 21 bc b2 99 9e bd eb cc 8d bc 10 77 ef 3b
       -0.009886785 -0.07744159 -0.017309627 0.0073078945
0001b0 71 21 ac bd 19 ab ca bd dd b2 d1 bd ef 39 a1 bd
       -0.08404816 -0.098959155 -0.102391936 -0.07872378
0001c0 37 df 75 3d 5e 0e a3 3d c5 94 9c bd 1a 29 81 bd
       0.060027327 0.07961725 -0.07645563 -0.063066676
0001d0 70 cd 8d bd 4d 49 d8 bd 4d bc bc bd a1 14 ed bc
       -0.0692395 -0.10560856 -0.09215603 -0.0289405
0001e0 ca e8 df bd eb 5b 43 bd 96 f2 c5 3d 20 90 d6 bd
       -0.10933073 -0.04769508 0.0966541 -0.104767084
0001f0 a6 09 9e bc 13 52 4c 3d dc bc 5e bd da f0 a7 bd
       -0.01929171 0.04988296 -0.05437933 -0.08200236
000200 71 b9 4c bd c6 48 fb bc da 2b 30 3b 45 ba 63 bd
       -0.04998154 -0.03067435 0.0026881606 -0.055597562
000210 d1 a3 a4 bd 40 d4 21 bd f7 80 36 bd 5b 50 9c 3d
       -0.08039058 -0.039509058 -0.044556584 0.07632514
000220 66 ac 62 3d 08 a5 01 bd a7 c7 22 3c d7 d4 39 bd
       0.055340193 -0.031651527 0.009935296 -0.045368996
000230 29 eb 91 bc 51 32 8c 3d 64 9f 86 bd 80 bb 25 3d
       -0.017812328 0.068455346 -0.0657337 0.040462017
000240 93 b0 1c 3d 3b dd 1f bd 82 22 24 3c 76 36 f2 bd
       0.03825433 -0.03902934 0.010017993 -0.11826794
000250 31 7e 9e bd f6 d2 0f bd 59 d6 d9 3c 8d f8 98 bd
       -0.07738913 -0.035113297 0.026591467 -0.07469282
000260 32 fe 9a bd 78 1e 13 bc c2 34 18 bd d3 d4 7a 3d
       -0.07568015 -0.008979432 -0.03715969 0.06123812
000270 b9 2e 17 3d a3 7d 65 bd e6 c8 fb 3a b6 a0 26 3d
       0.036909793 -0.05602802 0.0019209653 0.04068061
000280 46 aa f4 bd 89 78 e8 bc ba 5e ec 39 24 f8 0a bc
       -0.119465396 -0.028377788 0.00045084005 -0.008482013
000290 e7 18 e3 3c 1f 0a 28 3d 34 8d 01 3a 42 34 8c 3d
       0.027721835 0.041025277 0.00049420004 0.06845905
0002a0 f0 10 e9 bc bc 50 f6 3c ac 13 70 bd fc 73 92 bd
       -0.02845046 0.030067794 -0.05861251 -0.071510285
0002b0 f6 41 95 3d 2c 8b ad bd ff bc f0 bc a8 5d 39 bd
       0.07287972 -0.084738106 -0.029386995 -0.045255333
0002c0 a4 e3 88 3d 35 dd 00 be 6a 67 41 3d 92 eb 1a bd
       0.06684044 -0.12584384 0.047217764 -0.037822314
0002d0 9f dc 0b bd fe 02 8f ba 25 5c f1 3c d0 34 be bd
       -0.034145948 -0.0010910926 0.029462883 -0.09287417
0002e0 ce 27 ee 3c f3 ac b2 3c cb 08 f8 bd 2d 43 d1 bd
       0.029071715 0.021810984 -0.12111052 -0.10217891
0002f0 0d 0a 2c 3d 1f c0 e7 3a fa 96 2b 3d 38 c8 90 bd
       0.042001773 0.0017681158 0.04189203 -0.07069439
000300 41 7e fe bc 33 5a c2 bd b2 05 69 3d c2 4a cc bc
       -0.031066062 -0.094898604 0.056890197 -0.024937991
000310 3d 21 0d 3d 4c 17 5b 3c f9 81 43 3d ea 4f 69 bd
       0.034455527 0.013372254 0.047731373 -0.056960978
000320 bc 08 85 bd 08 8a 31 3d 4f 82 dc bc 24 c7 45 3d
       -0.064958066 0.043344527 -0.026917605 0.04828562
000330 23 da 69 bd ad 12 42 3d eb 35 ba bc af 50 9b 3d
       -0.057092797 0.047381092 -0.022730788 0.075837485
000340 51 4f af bd 92 af 3e bd 16 3e 3b bd df 6c a9 bd
       -0.0856005 -0.046554156 -0.045713507 -0.08272719
000350 ca 08 ad bd 10 54 bb 3d 09 2d e6 3d 00 44 38 3d
       -0.08448942 0.09146893 0.112390585 0.044986725
000360 01 c3 bb bc 41 28 51 bd 4b 29 c7 3d 33 bf ed bd
       -0.022920134 -0.05106378 0.09724673 -0.11608734
000370 9a 19 5e bd 31 95 27 bd 61 c6 19 3d 6c 45 db 3c
       -0.054223634 -0.040913764 0.037542704 0.026766501
000380 56 9c a8 3d 3d 06 21 3d 32 ff d8 3c 61 a5 3d bd
       0.08232944 0.03931259 0.026488874 -0.046300296
000390 c6 6a 40 3d 0e 3d a7 bd 2c 08 e6 3b 55 a5 82 bd
       0.046976827 -0.08165942 0.007020017 -0.06379191
0003a0 b7 01 ee bc 89 6c 9e bd e4 2e 05 3e 0e 5f 3b 3d
       -0.029053552 -0.07735545 0.13006169 0.045744948
0003b0 ba 9e af bd ee 42 75 bc 96 95 2a bd 54 f4 c2 bd
       -0.085751966 -0.014969571 -0.041646563 -0.09519258
0003c0 ef a5 59 3d 40 d9 0a bd 7e b8 f4 3d 6d 19 64 bd
       0.053136762 -0.033898592 0.119492516 -0.05568831
0003d0 39 0f a9 3d 99 89 c9 bc c5 f6 8b bc a0 bd 4e 3b
       0.082548566 -0.024601744 -0.017085442 0.003154613
0003e0 32 00 50 bd c6 a5 9c 3d 02 17 13 be 35 64 88 3d
       -0.050781436 0.07648806 -0.14364246 0.06659738
0003f0 7e 7d b1 3d 0e 72 18 3d 36 88 0e 3c 8a 29 12 bc
       0.08666514 0.037218146 0.008699467 -0.0089210365

classfier.fc2.bias f4 [50]
000000 f3 0e 80 b6 68 0a 0f b6 e3 87 49 b5 f0 75 b2 35
       -3.8164376e-06 -2.1314718e-06 -7.5076076e-07 1.3296358e-06
000010 50 c2 37 b6 d3 cf f5 b6 76 d6 52 36 30 28 8e b6
       -2.738223e-06 -7.325763e-06 3.1417271e-06 -4.236608e-06
000020 6f e2 da 35 04 c9 16 b6 f0 74 f8 35 30 c2 1b b5
       1.6308167e-06 -2.2468748e-06 1.8511473e-06 -5.802458e-07
000030 59 b1 15 b6 9a 50 a6 36 08 6b 1a b5 1d ab f2 b5
       -2.230596e-06 4.956569e-06 -5.752522e-07 -1.8080206e-06
000040 12 26 e3 b5 ba c9 e8 35 35 71 8f 36 58 50 a7 b6
       -1.6923898e-06 1.7344057e-06 4.274911e-06 -4.986341e-06
000050 7d d8 2a 36 9f 6f 2c b7 ff cb 4b b5 ac 9b e4 36
       2.5457987e-06 -1.0277988e-05 -7.5920246e-07 6.813052e-06
000060 f4 ff 1e 37 f8 30 06 37 b3 62 ba b5 34 05 31 36
       9.477128e-06 7.998424e-06 -1.3886805e-06 2.6378084e-06
000070 85 2d 5b 37 50 bf 6c b3 20 aa 0a 37 66 7e 00 37
       1.3064016e-05 -5.512203e-08 8.265051e-06 7.658824e-06
000080 17 c5 04 36 4e a2 ba b5 fb 35 f8 b6 be b5 27 b6
       1.9784254e-06 -1.3905317e-06 -7.39726e-06 -2.4990727e-06
000090 dd 10 53 b5 df b2 0b 36 5c 45 7a 33 ce 94 33 b6
       -7.8628165e-07 2.081673e-06 5.8270743e-08 -2.6759694e-06
0000a0 e5 44 1c 36 53 21 83 36 1d 04 4c 37 1a a6 24 36
       2.3285913e-06 3.9079837e-06 1.2160305e-05 2.4534588e-06
0000b0 65 df 43 b6 4a 21 16 35 50 0d 3b b5 98 76 a4 35
       -2.9187297e-06 5.5927796e-07 -6.96823e-07 1.2253468e-06
0000c0 73 f6 10 37 6a 2e 03 37
       8.64045e-06 7.819015e-06

classfier.bn2.weight f4 [50]
000000 6b 78 53 3f 84 35 6b 3f 7a 35 7e 3f dc 0d 6d 3f
       0.8260562 0.91878533 0.9930035 0.9259927
000010 34 cc 6a 3f 81 ed 80 3f 72 e2 7b 3f 48 23 81 3f
       0.9171784 1.007248 0.98392403 1.0088892
000020 43 2f 6d 3f 00 d9 64 3f 25 cb 7d 3f 3f ec 6e 3f
       0.9265024 0.89393616 0.991381 0.9332923
000030 19 5a 6a 3f 3b 7e 79 3f 51 ef 68 3f c1 8b 81 3f
       0.9154373 0.9745824 0.9099017 1.0120775
000040 8f 3d 70 3f e1 21 69 3f 5a 33 67 3f d5 93 72 3f
       0.9384393 0.9106732 0.9031273 0.94756824
000050 11 d5 65 3f c3 ee 74 3f 4e 02 5d 3f 46 f8 79 3f
       0.8977824 0.9567682 0.8633164 0.9764446
000060 8d 0d 8b 3f 70 cc 65 3f 84 8b 90 3f a4 f8 67 3f
       1.086351 0.8976507 1.1292577 0.9061377
000070 e5 42 76 3f 50 64 72 3f 52 6d 77 3f d1 20 7c 3f
       0.9619582 0.94684315 0.96651185 0.98487574
000080 c6 57 81 3f d7 d1 83 3f 04 62 80 3f e4 5f 6a 3f
       1.0104911 1.0298413 1.0029912 0.9155257
000090 b5 83 69 3f 27 61 64 3f 72 08 66 3f 4f 5a 70 3f
       0.91216594 0.8921074 0.89856637 0.938878
0000a0 54 2d 81 3f 7f bb 7f 3f 0c 1e 7e 3f 6b c8 6e 3f
       1.0091958 0.9989547 0.992646 0.93274564
0000b0 5e 95 75 3f cd c1 67 3f 4f 35 70 3f 33 97 61 3f
       0.9593104 0.9053009 0.9383134 0.88121337
0000c0 1f f4 7c 3f 5f e7 74 3f
       0.9881 0.95665544

classfier.bn2.bias f4 [50]
000000 bd e1 69 be d7 96 bc bd 51 a4 33 be 67 1c ab be
       -0.22840019 -0.09208458 -0.1754315 -0.33420107
000010 bc 51 47 3d cf ca 2e bd ee e2 35 3d 8d 2e 15 be
       0.048661932 -0.042673882 0.04440587 -0.14568539
000020 ee 19 d9 3c 6c e9 fe bd 00 33 9d bd 03 38 9c bd
       0.026501622 -0.124468654 -0.07675743 -0.07627871
000030 9f 85 8b be 5c f8 aa be c5 24 c1 bd ac 07 a5 be
       -0.27250382 -0.33392608 -0.09430841 -0.32232416
000040 83 71 a2 be 6f 50 a2 be ff c1 3a be 08 e8 85 be
       -0.31727228 -0.3170199 -0.18238066 -0.26153588
000050 52 89 27 be 0d 04 b1 be 5b 13 ff bd a0 9b b4 be
       -0.16360977 -0.34573403 -0.12454864 -0.35274982
000060 e1 88 20 be b7 ff aa be 71 f3 04 bd cf 5c 22 be
       -0.15677215 -0.3339822 -0.032458726 -0.15855716
000070 ed 63 b3 be 71 02 dc bd 94 a6 88 be 3d 8f 8e be
       -0.35037175 -0.10742653 -0.2668959 -0.27843657
000080 31 a3 b4 be 66 a1 a0 bd f5 61 83 be 9d b6 78 be
       -0.35280755 -0.07843284 -0.25660673 -0.24288411
000090 7b 8a ea bd dd d2 5d be 5f ca ab bd df 1f 96 be
       -0.11452194 -0.21662469 -0.083882086 -0.2932119
0000a0 db 8a a8 be f7 32 16 be be 34 c7 be 7f 7a ab be
       -0.32918438 -0.14667879 -0.38907427 -0.33491895
0000b0 bf 6a 69 3c 2d 89 9b be 79 77 be bc 10 c1 2a be
       0.014246642 -0.30378094 -0.023250328 -0.1667521
0000c0 48 49 a9 be 84 44 82 be
       -0.33063722 -0.25442898

classfier.bn2.running_mean f4 [50]
000000 67 ab bc 3e f1 b5 00 bf 04 47 98 bd 9a 4a f9 3d
       0.3684952 -0.5027762 -0.0743542 0.12172432
000010 c0 48 1a bf 9a 85 de be 4a df cf be 42 cc 1f 3d
       -0.6026726 -0.43461305 -0.40600044 0.039013155
000020 46 87 cd be 90 92 07 be 9e 32 8b be d2 99 97 be
       -0.40142268 -0.13239503 -0.27187055 -0.29609543
000030 4e 9e bd bd a2 04 46 3c f4 f5 88 be 9b ce 57 be
       -0.0925871 0.0120860655 -0.26750147 -0.21074907
000040 05 bd 99 bd f5 f3 c5 3e 18 b0 18 ba 19 1c 85 3e
       -0.07506756 0.38662687 -0.000582458 0.25998
000050 86 db f3 be b4 54 88 3d a8 70 35 3f 52 c6 7e be
       -0.4762842 0.06656781 0.70875025 -0.2488034
000060 9b 88 be 3c 00 28 d2 bc 41 72 db 3d 25 8f 5a 3e
       0.023258498 -0.02565384 0.107151516 0.21343668
000070 f3 53 e4 bd 08 64 62 be 3c e5 2b 3e 8a f0 41 be
       -0.111488245 -0.22108471 0.16786665 -0.18939415
000080 41 73 e4 3d d2 2c 24 3e a7 88 41 3e 23 d6 83 3c
       0.111547954 0.16032723 0.18899785 0.01609332
000090 a4 0a 50 be 5a 2c 23 3e 77 82 f4 be 91 af fd bd
       -0.20316559 0.15934888 -0.47755787 -0.12387002
0000a0 7d 74 d0 3c 1d d1 ef 3d bf 6d 19 be 02 86 aa 3c
       0.025446171 0.11709807 -0.14983271 0.020815853
0000b0 5b 35 97 be df b2 23 3f 3e 9f fe be 7e 98 18 be
       -0.29532894 0.6394481 -0.49730867 -0.14901921
0000c0 86 9f 9d bd d1 a5 06 be
       -0.07696442 -0.13149191

classfier.bn2.running_var f4 [50]
000000 72 b5 bc 3e 54 74 6f 3e 12 be ef 3e 6d 5e 17 3f
       0.36857182 0.2338422 0.468247 0.5912846
000010 1f 39 ab 3e f0 ab 8e 3e a2 6d 9f 3e f6 8a bb 3e
       0.33442017 0.27865553 0.3113833 0.36629456
000020 bf 83 e8 3e af 95 e4 3e af 76 af 3e f3 48 8e 3e
       0.45413014 0.4464545 0.34270236 0.2779003
000030 9e 01 04 3f 15 96 11 3f 6a 9c bb 3e 3c 9d 0e 3f
       0.5156497 0.5686963 0.36642772 0.5570867
000040 7f 0e 1b 3f ea ee 72 3e 79 05 36 3e 0d 56 d3 3e
       0.60568994 0.23723951 0.17775525 0.4127659
000050 ac d6 81 3e d8 45 08 3f 93 9e e8 3e 47 f5 06 3f
       0.25359094 0.53231573 0.45433483 0.52718014
000060 b7 7b 91 3e 75 a1 fa 3e f9 01 d0 3e 94 b0 7d 3e
       0.284147 0.48951307 0.40626505 0.2477439
000070 97 24 05 3f 71 71 b5 3e c8 cb bb 3e a6 3f 05 3f
       0.52008957 0.3543811 0.3667891 0.52050245
000080 00 c2 e3 3e 10 9a 99 3e 9b 0a f5 3e 55 41 f1 3e
       0.44483948 0.30000353 0.47859654 0.47120157
000090 07 c4 64 3e 1d 4c f1 3e b6 c7 ca 3e 1e 8e 11 3f
       0.22340403 0.47128382 0.39605492 0.5685748
0000a0 40 d9 00 3f 93 c7 b4 3e 82 ac 22 3f 23 3a 0b 3f
       0.503315 0.35308513 0.63544476 0.54385585
0000b0 d8 cb 13 3f 10 65 e9 3e aa 76 0d 3f d7 3c 38 3e
       0.57732916 0.45584917 0.5525919 0.17991959
0000c0 a8 dc ed 3e 63 c0 02 3f
       0.4645741 0.5107481

classfier.fc3.weight f4 [25, 50]
000000 f1 72 35 3d 0b ee 86 bc 08 6f 22 bd 64 64 00 3e
       0.04429907 -0.01647093 -0.03965667 0.12538296
000010 93 1f 3d 3d ab 38 b6 bd 77 8c 8d 3b 1b d4 d9 bc
       0.04617269 -0.08897527 0.004319723 -0.026590398
000020 3a 58 c1 3d e3 0c c2 bd da d2 3e 3c f9 e4 3c bd
       0.09440656 -0.09475114 0.011646951 -0.046116803
000030 da 22 14 3e 3c 3f e4 3d 2b cb 82 bb 1b 36 35 3e
       0.1446642 0.111448735 -0.0039915047 0.17696421
000040 6e f6 c5 3d 96 2f fc 3c 29 d2 1f bd 27 be 96 3d
       0.09666143 0.03078441 -0.039018784 0.073604874
000050 b6 29 d2 3d 75 26 da 3c 0e 48 d6 bc 05 0a 26 3e
       0.10261862 0.026629666 -0.026157405 0.1621476
000060 03 e0 09 bd 6d 71 1d 3e 96 95 4d bd 2d a0 ce bd
       -0.0336609 0.153753 -0.050191484 -0.10089145
000070 48 2d 98 3c c3 26 84 bc e2 81 a1 bc 32 91 1f 3e
       0.01857628 -0.016131764 -0.019715253 0.15582731
000080 4b 85 16 3e e8 a9 89 3d 78 a4 90 bc 0d 34 c9 3d
       0.14699285 0.0672186 -0.01765655 0.09824381
000090 7a 30 35 bd 0e 22 ab 3d 4b 42 91 bd 6d fd 8f 3d
       -0.044235684 0.08356105 -0.070927225 0.07030759
0000a0 3b 85 96 3d 70 4c 53 bd aa 0c af 3d c7 75 13 3e
       0.073496304 -0.05158657 0.08547337 0.14400397
0000b0 b2 3f 3c 3c 4a af 4b 3d 26 fa a4 3b d3 00 f3 bd
       0.0114897955 0.049727716 0.005034703 -0.118653916
0000c0 2c a4 05 3e fc 88 08 bd ee 78 14 3d 45 11 61 bd
       0.13050908 -0.033333763 0.03624814 -0.05494811
0000d0 17 70 f5 bd 94 bc d2 3c 0d 5f 94 3d ba 4a 8e bc
       -0.1198427 0.025724687 0.07244692 -0.017369617
0000e0 4f 34 23 bd 0f dc 90 3c af cc f0 3d d1 4e b4 bd
       -0.039844807 0.017683057 0.1175779 -0.088040955
0000f0 ab 99 ed bb 8b ac 73 bd 64 95 e6 3d 60 ce 03 bd
       -0.0072509847 -0.05949072 0.11258963 -0.032179236
000100 18 01 8a 3c cf 4c 31 3e 01 a9 12 3e fb 18 b8 3d
       0.016846225 0.17314456 0.14322282 0.0898914
000110 df 73 bb 3c 6e 11 25 3e e9 9e 91 3d 3e 42 4c 3e
       0.0228824 0.1611993 0.07110388 0.19947144
000120 7e e3 01 bd a0 da b4 3c e6 5e 3c bd a7 b1 2a 3e
       -0.031711094 0.022076905 -0.04598894 0.16669331
000130 9b bb c4 bc 4b f2 06 bc f3 3a 98 3c c8 ba df bd
       -0.024015239 -0.008236478 0.018582797 -0.109242976
000140 97 30 da 3d 1c 57 19 3e a5 f8 34 3e 32 21 94 3b
       0.10653799 0.14974636 0.17672975 0.0045205588
000150 ee 23 39 3e a7 43 0e 3e f2 c5 bf bd 82 b6 47 3d
       0.18080112 0.13892995 -0.09363927 0.048758037
000160 68 d6 7e bc e2 64 e6 3d 3c 24 3d bd 85 52 96 3d
       -0.015554048 0.112497106 -0.046177134 0.07339958
000170 02 74 ab bc b7 8a 38 3e 36 71 27 3c c9 84 08 bb
       -0.02092934 0.18021666 0.010219863 -0.00208311
000180 9f da f1 bd f7 89 cf bc 6d 56 14 3e 16 f1 77 3d
       -0.11809277 -0.025334341 0.14486094 0.06053265
000190 a6 14 e1 bc c5 64 34 3d 3a ec 8a bd fb 0b 7b 3d
       -0.027475666 0.044041414 -0.06783338 0.061290722
0001a0 12 85 46 bc c3 a4 b8 bc ff 73 18 be 79 ba 87 3c
       -0.012116687 -0.022539502 -0.14887999 0.01656841
0001b0 4c 3d 6f 3d 1d 32 06 be 16 30 3e bd d2 b9 4f 3d
       0.058408067 -0.13105054 -0.046432577 0.05071432
0001c0 49 f0 4a 3d 1b 2c ea 3d 14 1c c8 bd 6c 4f ab 3b
       0.04954556 0.11434194 -0.097709805 0.0052279737
0001d0 2b 4d 10 3e 1f 11 d9 3c f1 b7 4d 3d 1e 4b 37 3e
       0.14091937 0.026497422 0.05022425 0.17899749
0001e0 eb 24 ae 3d 01 10 c9 3b ab 1b 12 3d b4 5e 1f 3e
       0.08503135 0.006135941 0.035670917 0.1556347
0001f0 f8 e4 eb bb 77 7c 16 3e e0 31 83 3c e5 ad 19 3d
       -0.007198926 0.14695917 0.016014993 0.037519354
000200 2e 3d 92 3d 6d 12 53 bd 66 c3 28 3e 02 ec 0c 3c
       0.07140575 -0.051531244 0.16480789 0.0086011905
000210 a1 ad 33 3d b6 72 2c 3d 06 c4 ad 3d 8d 54 a7 3d
       0.043866757 0.042101584 0.08484654 0.08170424
000220 41 c0 a7 bc 36 6d ae 3d 33 36 55 bc 66 59 af 3d
       -0.020477416 0.08516924 -0.01301341 0.08561973
000230 da 95 75 3c 8d c5 95 3c f0 1c 44 3e 4d 4c 8b 3c
       0.014989341 0.018282676 0.19151664 0.017004156
000240 ac e6 bf 3c 66 b7 ec 3c f9 2b 82 bd a0 f1 a6 bd
       0.023425423 0.028896045 -0.06356043 -0.08151555
000250 8c e6 1d 3e a5 49 8f bc 63 b0 64 3c 00 a9 62 bc
       0.15419978 -0.017491171 0.0139580695 -0.013834238
000260 d5 97 80 bc c5 31 ac 3b 49 5b 9b bd 26 de 02 bd
       -0.0156974 0.0052549564 -0.07585771 -0.03195014
000270 16 e7 c0 bd e3 fa e1 bc e3 bc 48 3c 94 c5 ef bd
       -0.09419076 -0.027585452 0.012252065 -0.11707607
000280 47 07 78 bd ac e5 f1 3c 9d a6 3f 3d 83 26 0b 3e
       -0.060553815 0.029528461 0.046789754 0.1358891
000290 73 af 06 be 06 49 6a 3d 52 a7 da 3d 1c 6d bd 3d
       -0.13152866 0.057198547 0.10676445 0.092493266
0002a0 d1 5b 14 3d 73 85 09 3e b5 fe 13 3e f1 d5 62 bc
       0.036220375 0.13429813 0.14452632 -0.013844953
0002b0 92 26 42 3d 31 8c 4c 3d bc f1 e9 3b e4 7b 1b 3e
       0.047400065 0.049938384 0.0071394127 0.1518398
0002c0 3e 91 85 bc 6d 24 89 3d 3d 88 f1 3d 15 29 be b9
       -0.016304608 0.06696401 0.117935635 -0.00036270233
0002d0 e7 d4 39 3d 6d 89 95 3d 16 89 70 bc d8 6e f6 3d
       0.045369055 0.073016025 -0.014681121 0.120328605
0002e0 79 5f dc 3c da 7a 22 bd b2 ba 75 bd b6 ea 17 3e
       0.026900994 -0.03966794 -0.0599925 0.14835629
0002f0 45 19 e1 bb 4f 4c 14 3e ca 37 58 3d 57 13 2c 3c
       -0.0068694674 0.14482234 0.05278758 0.010502658
000300 2c bb 52 3e f5 36 18 3d 3a 5c 8f bd 96 74 c2 3c
       0.20579213 0.037161786 -0.07000013 0.023737233
000310 32 59 ec 3c cd 9e c4 bb 36 f6 9f 3d 32 dd 08 3e
       0.028851125 -0.006000376 0.07810633 0.1336563
000320 0b 16 26 bd 58 3c 8d 3c 8f ad 92 bd 07 83 8c 3d
       -0.040548366 0.017240688 -0.0716201 0.06860929
000330 28 67 fd 3b 0e 5a 9d bd 27 1c 08 be f3 dd 1e bd
       0.0077332444 -0.07683192 -0.1329199 -0.038785886
000340 6e 3e cb 3d 29 aa f6 3b e4 a4 3e bd 9c 07 b6 bc
       0.09924017 0.007527609 -0.04654397 -0.022220425
000350 86 ec 96 3d 2b d1 d7 3d 21 ca 88 bd 80 f0 a4 3d
       0.07369332 0.105379425 -0.06679178 0.08053684
000360 2a a3 02 3e 48 c3 51 bc 3e ea f1 3c 6e c9 04 3e
       0.12757555 -0.012802906 0.02953064 0.12967464
000370 a3 91 d9 3d 86 78 c6 3d 19 71 25 3c c6 21 04 3d
       0.10623481 0.09690957 0.010097765 0.03225877
000380 37 93 45 bb a5 61 a2 bc 40 a3 ea 3c 75 ab 93 3c
       -0.0030147561 -0.019821951 0.028642297 0.018026093
000390 4c 3b 16 3e 56 88 bb bd a1 a5 0d 3e da 3c 06 3e
       0.14671057 -0.091568634 0.13832714 0.1310915
0003a0 b0 0f 83 3d 0a 23 86 3c 2d fe 1e 3d e9 ad bc 3d
       0.063994765 0.01637413 0.03881662 0.09212858
0003b0 45 0a 7e bd 0b a4 99 3c ab 83 3b bd 97 e4 c2 3d
       -0.062021513 0.01875498 -0.045779865 0.09516256
0003c0 a3 38 26 3e 01 49 67 bc f3 21 16 3e 24 76 d2 3d
       0.16232543 -0.014116527 0.14661388 0.1027644
0003d0 8d 91 6b 3d 17 6e 38 3d 8b 3c c6 bd df 1e 4f bd
       0.057511855 0.045026865 -0.096795164 -0.05056655
0003e0 77 34 3f 3d dd 28 8f 3d d9 06 88 3d 3b 29 ad 3d
       0.046680894 0.06990216 0.06641931 0.0845513
0003f0 03 a0 ac bd 60 a6 a3 3d 4f 5f 2a ba d2 ed ad bd
       -0.08428957 0.07990718 -0.00064991874 -0.08492626

classfier.fc3.bias f4 [25]
000000 4e 3a 53 b6 39 e5 22 b6 d6 8c 46 34 60 90 1a b6
       -3.1475388e-06 -2.4273306e-06 1.8491423e-07 -2.3031826e-06
000010 04 3d a8 b6 62 1f 70 36 84 26 b7 b6 23 56 af b5
       -5.0138933e-06 3.5781054e-06 -5.458309e-06 -1.3063585e-06
000020 33 dc 05 b7 1e ec 07 37 e3 6e 7b b7 d8 23 e7 36
       -7.978687e-06 8.101602e-06 -1.4986584e-05 6.8885092e-06
000030 5f 6f 8b 35 9a 5b 31 35 20 23 07 36 ae ac 77 b7
       1.038872e-06 6.6070936e-07 2.0137013e-06 -1.4762552e-05
000040 3f fe ab 36 b9 7c 16 37 04 3c 0e 36 52 50 77 b7
       5.1257953e-06 8.969736e-06 2.1194583e-06 -1.4741048e-05
000050 9c 89 a7 34 ee 90 93 b5 d6 80 1f 36 ba ec 96 b5
       3.1206298e-07 -1.0994534e-06 2.3767839e-06 -1.1244767e-06
000060 d2 90 be 35
       1.4198251e-06

classfier.bn3.weight f4 [25]
000000 ca 4e 8a 3f cc 58 8c 3f d0 c3 8c 3f 4e 6f 83 3f
       1.0805295 1.0964599 1.0997257 1.0268342
000010 36 8e 92 3f b1 e4 8d 3f f3 d8 a8 3f 36 4e 86 3f
       1.1449649 1.1085416 1.3191208 1.0492618
000020 d5 11 8c 3f 31 ec b8 3f 07 f8 b1 3f ee 44 b0 3f
       1.0942942 1.444708 1.3903817 1.3771036
000030 1f c4 8b 3f eb 3b 89 3f 1e 8f a8 3f be 70 ad 3f
       1.0919226 1.072141 1.3168676 1.3550031
000040 4b fc ab 3f cf 25 a8 3f bb 32 8f 3f 60 72 a6 3f
       1.3436369 1.3136538 1.1187357 1.3003654
000050 35 7c 88 3f 1b de b2 3f 1d 4c ad 3f b7 d6 9b 3f
       1.0662905 1.3974031 1.3538853 1.2174901
000060 db 8a 8a 3f
       1.0823625

classfier.bn3.bias f4 [25]
000000 b2 2f 09 bd bb 46 22 bd 9b fe 1b bc 48 37 05 bd
       -0.03349275 -0.039618235 -0.009521152 -0.032523423
000010 5e 24 eb bc e5 b4 05 bd 78 49 a7 3e 0d 37 2e bd
       -0.028703865 -0.032643218 0.3267324 -0.04253297
000020 7c c4 25 bd d2 e4 dd 3e a9 b8 cb 3e 9b 1e c9 3e
       -0.040470585 0.4333864 0.39789322 0.39281163
000030 c8 92 42 bd 64 58 f7 bc 58 af a4 3e 0f b0 ba 3e
       -0.047503263 -0.030193515 0.32165027 0.36462447
000040 ac e9 bd 3e 4b 03 b3 3e 2c fa 25 bc f5 84 a2 3e
       0.3709234 0.3496345 -0.010130446 0.31742063
000050 a5 89 29 bd 2b 86 d8 3e 21 c8 ba 3e 32 f0 58 3b
       -0.041391034 0.42289862 0.3648081 0.0033102152
000060 10 f7 0b bd
       -0.034171164

classfier.bn3.running_mean f4 [25]
000000 7f b5 a3 3e 4a aa c9 3e c5 12 a1 3e 2b 2c 9a 3e
       0.31974408 0.39387733 0.31459633 0.30111822
000010 b5 53 98 3e 62 12 a4 3e bb 44 16 bf 2a 9a bc 3e
       0.29751363 0.32045275 -0.58698624 0.36836368
000020 d3 59 a5 3e bc 03 0b bf da f8 22 bf a3 ff 18 bf
       0.32295093 -0.54302573 -0.6366097 -0.5976507
000030 72 af 88 3e ec b1 8c 3e cb 81 39 bf 59 a7 34 bf
       0.26696354 0.27479494 -0.72463673 -0.7056785
000040 a1 7a bc be b7 96 dc be 3b 8b b3 3e 38 28 e3 be
       -0.36812308 -0.43083736 0.35067162 -0.44366622
000050 a8 b4 43 3e ce 13 e8 be c7 9e 20 bf aa 6d 9e 3e
       0.19111884 -0.4532761 -0.62742275 0.30943042
000060 94 b1 6d 3e
       0.23212272

classfier.bn3.running_var f4 [25]
000000 6a 77 95 3f 6b 10 bb 3f 49 4f 81 3f 02 85 73 3f
       1.1677067 1.4614385 1.0102321 0.9512483
000010 53 b0 94 3f 92 96 a1 3f 12 8b 72 3f 9c e6 8c 3f
       1.161631 1.2624075 0.94743454 1.1007876
000020 db 92 82 3f 01 89 8e 3f 29 20 56 3f 12 eb 63 3f
       1.0201067 1.113556 0.8364282 0.89030564
000030 4d 99 8c 3f 6e 29 7c 3f cb 9a 9e 3f 1d c0 87 3f
       1.0984284 0.98500717 1.2390989 1.0605503
000040 83 58 88 3f 62 05 a8 3f be ec 99 3f 09 09 14 3f
       1.0652012 1.3126643 1.2025373 0.57826287
000050 5e 15 6d 3f c7 21 35 3f 04 2b 83 3f fe ed 9b 3f
       0.9261073 0.70754665 1.0247502 1.2182004
000060 c8 e8 4b 3f
       0.7965207

classfier.fc5.weight f4 [1, 25]
000000 34 1e 57 3e c5 44 7e 3e fc 14 ee 3d 50 58 b5 3d
       0.21007615 0.24830921 0.11625096 0.08854735
000010 5c f0 6f 3e 1a 82 5d 3e 3d 9d fb be 41 4c 7b 3e
       0.23431534 0.21631661 -0.491434 0.24540807
000020 13 2e 8c 3e 0e 90 a4 be 7a 64 a3 be 3f 36 a0 be
       0.27378902 -0.32141155 -0.31912595 -0.31291386
000030 05 5d 8f 3e 6d 34 15 3e 76 2a bd be 59 a7 a6 be
       0.28000656 0.1457078 -0.36946458 -0.3254955
000040 0e da b6 be 52 03 c2 be 44 cc 05 3e 39 80 d5 be
       -0.35713238 -0.37893158 0.13066202 -0.4169939
000050 07 f1 0e 3e 24 b1 90 be 7d 35 b0 be 33 d7 18 3e
       0.13959132 -0.28260148 -0.34415808 0.14925842
000060 a7 9c ef 3d
       0.11699801
