src/trained_models/2025-05-29/run_23-34-49/dnn_model_fold_5.pt (torch, 75713 bytes, 19 tensors)

classfier.fc1.weight f4 [100, 100]
0.0796191 -0.0156059945 -0.055068694 -0.14484113 0.005033027 0.072970994 -0.014827104 -0.04582181
0.03860681 0.0118905045 -0.0640262 0.083050534 -0.080533095 -0.0052693067 -0.0102596255 0.02684125
-0.019446502 -0.049719322 -0.105782054 0.036067482 -0.080987714 0.04138876 -0.082968965 0.10245187
0.02846727 0.042713933 0.037457142 0.109921545 0.058910515 0.0042579477 0.03113087 0.017027535
0.06972996 -0.018986376 0.031293914 0.09263108 0.069594726 0.09003679 -0.08109693 -0.010879536
0.010624784 -0.029036991 0.03498606 -0.02371742 0.012674007 -0.034536257 -0.0038760745 -0.09618357
0.03297522 0.10455569 0.0532602 -0.052942764 0.011836386 0.061645146 0.031067425 0.029095653
-0.05652007 -0.072444424 -0.082228586 -0.017920839 -0.0034534207 -0.07837954 -0.047710717 -0.031153932
0.054445513 0.04573963 -0.056160275 -0.040548593 0.00534258 0.040335573 0.03190823 -0.018021544
-0.04431496 -0.027870253 -0.03796073 -0.01256502 0.0010228849 -0.0006913203 -0.08110067 -0.06231511
-0.046683885 0.04490806 0.030832822 0.045215443 0.07424597 0.029408429 -0.054773618 0.0049168984
-0.07655019 0.024887167 0.03421797 -0.09209769 -0.04640772 -0.019130813 0.0801969 -0.077097915
0.09181282 -0.037925888 0.0539078 0.052305564 -0.0517171 0.015522533 0.04244715 0.080012515
-0.11392521 -0.011983533 -0.018371256 -0.032193616 -0.058799546 -0.07383116 0.0665239 0.098766856
-0.04608477 0.0043932963 -0.13414185 0.02869846 0.06447336 0.11275017 -0.07299194 -0.03514094
0.081965216 -0.013400887 0.008076357 -0.07900763 0.06957115 -0.040149562 0.022969557 0.0034523462
0.009173559 -0.048580475 0.01812538 0.05715435 0.051382028 0.088664144 -0.0037128443 -0.07158539
-0.096335776 -0.05188137 0.033922713 0.07305041 0.063898474 0.0015163971 -0.0367124 0.030237898
0.00069603923 0.019691365 -0.01758105 0.018168174 0.06688485 0.08994457 0.049211975 -0.05044723
0.050914347 0.015682336 0.077856585 -0.03390357 -0.05279395 0.058198567 -0.07151178 0.10306762
0.03486415 -0.027077293 0.04312817 0.024917016 0.07930817 0.027612712 0.06834755 0.056041826
0.072501324 -0.033122506 -0.0095860325 -0.12845899 -0.0625483 0.037549037 0.019135192 -0.039622247
0.023805693 -0.07141852 0.06891003 0.028784478 0.010534294 0.026776323 -0.08401129 -0.05061094
-0.0860415 0.05163659 -0.08601044 -0.051179945 -0.03653912 0.0017203992 0.04218878 0.046449073
0.030941822 0.048837893 -0.050619707 0.034131125 0.12166265 -0.061076775 -0.06869832 -0.02627164
0.11916679 0.028181402 -0.05548003 -0.10591109 0.058896363 0.015438545 -0.05225388 0.06100127
0.06113101 0.053382013 -0.049903393 -0.08978447 0.024321659 0.03572262 -0.08825719 -0.06441194
-0.043693997 -0.079917826 -0.033688784 0.027379489 -0.0905289 -0.044556286 0.0757357 -0.046936695
-0.012390881 0.05791318 0.0697374 -0.081347264 -0.04332232 -0.08026531 0.05839494 -0.09626484
-0.10348265 0.027800247 -0.097008534 -0.06372715 -0.053750206 -0.022778848 0.0060193366 -0.014882196
0.026134394 -0.006722515 -0.05476052 -0.027545465 0.07651375 -0.00017740909 0.08573314 0.015304573
-0.0074952114 0.05233038 -0.05428801 -0.07328946 0.037723422 -0.03609582 -0.09782127 0.052538168
00000000: 570f a33d 49b0 7fbc b68f 61bd 3c51 14be
00000010: 17ec a43b d171 953d 62ed 72bc a6af 3bbd
00000020: 2d22 1e3d 64d0 423c 2b20 83bd 6616 aa3d
00000030: 89ee a4bd 26aa acbb fd17 28bc 2ee2 db3c
00000040: 454e 9fbc 7da6 4bbd 43a4 d8bd 7fbb 133d
00000050: e3dc a5bd 4387 293d a2eb a9bd 49d2 d13d
00000060: 3134 e93c cef4 2e3d a96c 193d 8c1e e13d
00000070: 274c 713d 4186 8b3b 2b06 ff3c 547d 8b3c
00000080: 95ce 8e3d 5189 9bbc 0c2e 003d 5db5 bd3d
00000090: ae87 8e3d 3565 b83d 2616 a6bd 1540 32bc
000000a0: 9313 2e3c fcde edbc 8b4d 0f3d 094b c2bc
000000b0: a3a6 4f3c e475 0dbd bd05 7ebb e4fb c4bd
000000c0: 0611 073d 4b21 d63d 5e27 5a3d 83da 58bd
000000d0: 67ed 413c 9f7f 7c3d 1d81 fe3c 025a ee3c
000000e0: 9781 67bd be5d 94bd 7667 a8bd b9ce 92bc
000000f0: c952 62bb 7485 a0bd 506c 43bd 8836 ffbc
00000100: 4202 5f3d 7a59 3b3d 5108 66bd 4816 26bd
00000110: cf10 af3b ea36 253d 34b2 023d eba1 93bc
00000120: 9a83 35bd 2850 e4bc b67c 1bbd 83dd 4dbc
00000130: 5212 863a b839 35ba 1c18 a6bd 213e 7fbd
00000140: 9a37 3fbd 84f1 373d 1d95 fc3c d433 393d
00000150: 450e 983d f2e9 f03c 4d5a 60bd ef1d a13b
00000160: 59c6 9cbd 2ce0 cb3c 2428 0c3d b79d bcbd
00000170: 0516 3ebd 39b8 9cbc 463e a43d 83e5 9dbd
00000180: 5c08 bc3d 2d58 1bbd 6dce 5c3d 5c3e 563d
00000190: 4fd5 53bd 3952 7e3c 10dd 2d3d 9add a33d
000001a0: 9f51 e9bd 9556 44bc 517f 96bc 74dd 03bd
000001b0: cbd7 70bd cb34 97bd af3d 883d 4746 ca3d
000001c0: 62c3 3cbd a4f5 8f3b 7b5c 09be 0819 eb3c
000001d0: 9c0a 843d 90e9 e63d cc7c 95bd f2ef 0fbd
000001e0: 61dd a73d 658f 5bbc b252 043c c1ce a1bd
000001f0: 527b 8e3d de73 24bd a72a bc3c c240 623b
00000200: b24c 163c 52fc 46bd ad7b 943c ae1a 6a3d
00000210: f675 523d 8c95 b53d 3153 73bb 5c9b 92bd
00000220: b14b c5bd 8f81 54bd 8bf2 0a3d 749b 953d
00000230: 34dd 823d d8c1 c63a be5f 16bd 78b5 f73c
00000240: 6776 363a c94f a13c 2206 90bc 6cd5 943c
00000250: edfa 883d dc34 b83d 7f92 493d c1a1 4ebd
00000260: 908b 503d 3e78 803c 4673 9f3d 78de 0abd
00000270: 783e 58bd 9f61 6e3d c574 92bd 1e15 d33d
00000280: b6cd 0e3d 33d1 ddbc 2aa7 303d c51e cc3c
00000290: 526c a23d 0e34 e23c cdf9 8b3d 1d8c 653d
000002a0: 937b 943d 77ab 07bd bc0e 1dbc c18a 03be
000002b0: 5319 80bd 05cd 193d 68c1 9c3c f04a 22bd
000002c0: 2804 c33c df43 92bd b420 8d3d 6dcd eb3c
000002d0: 0898 2c3c 055a db3c 1c0e acbd 6b4d 4fbd
000002e0: 8736 b0bd e480 533d 3e26 b0bd 10a2 51bd
000002f0: 0baa 15bd 057f e13a 24ce 2c3d 6241 3e3d
00000300: b479 fd3c 3e0a 483d 9c56 4fbd 14cd 0b3d
00000310: 442a f93d a42b 7abd b4b1 8cbd 9f37 d7bc
00000320: b80d f43d afdc e63c 073f 63bd eae7 d8bd
00000330: 503d 713d f3f1 7c3c 2a08 56bd 78dc 793d
00000340: 8364 7a3d 19a7 5a3d 8067 4cbd ece0 b7bd
00000350: 373e c73c e251 123d 30c0 b4bd 68ea 83bd
00000360: 7af8 32bd f5ab a3bd 40fd 09bd f34a e03c
00000370: 3767 b9bd a780 36bd 521b 9b3d b140 40bd
00000380: 1f03 4bbc 5f36 6d3d 7bd2 8e3d 6599 a6bd
00000390: bf72 31bd 2462 a4bd 882f 6f3d 8026 c5bd
000003a0: b6ee d3bd 58bd e33c 69ac c6bd 6183 82bd
000003b0: 2d29 5cbd b59a babc db3d c53b 74d4 73bc
000003c0: cc17 d63c 8b48 dcbb 914c 60bd 07a7 e1bc
000003d0: 3eb3 9c3d e406 3ab9 db94 af3d 08c0 7a3c
000003e0: 649a f5bb 6158 563d 1b5d 5ebd c918 96bd
000003f0: e083 1a3d 36d9 13bd 8556 c8bd 4332 573d

classfier.fc1.bias f4 [100]
-0.015786657 0.07489419 -0.08484619 0.018761905 0.030020643 -0.04698042 0.073082566 0.078796856
-0.060346685 0.052863374 -0.014283657 0.07466082 0.08775507 0.0023498174 -0.09750525 0.09943487
-0.066181965 -0.03862389 -0.07478684 0.09120735 0.07249888 -0.012055085 0.009304454 -0.05878437
-0.09763655 -0.05300285 0.09881779 0.0377493 -0.08816522 -0.034476273 -0.008466126 0.05301955
0.057231385 -0.060057875 -0.040214665 0.0012688774 0.056633115 0.011633761 0.0048765307 -0.075841404
0.006561599 -0.05545953 -0.09802714 -0.012075763 0.016569167 0.011143155 -0.09614372 0.020382343
0.024606775 -0.012209016 -0.03823665 0.017280256 0.014439031 -0.017595112 -0.022430485 -0.0010838769
-0.042910416 -0.073964454 -0.009860322 0.08015798 0.013550974 -0.007349419 0.05884551 0.078971975
-0.012156837 0.021721765 -0.070661195 0.06287862 -0.0071274093 -0.025236681 -0.00031823583 0.009966114
-0.09541445 0.05256317 -0.08500282 -0.053834382 -0.067696296 -0.03866778 0.010069416 -0.053790364
0.0270711 -0.031447697 0.013428168 -0.04309286 0.028733326 -0.064509965 -0.024775295 -0.07442905
-0.023725731 0.029786706 0.08522441 -0.0101636145 -0.020202292 0.036554705 -0.023258353 -0.025206389
0.06373511 -0.0238579 -0.016149163 -0.060419876
00000000: 0553 81bc 2062 993d d7c3 adbd 91b2 993c
00000010: daed f53c 8a6e 40bd 50ac 953d 3f60 a13d
00000020: 162e 77bd 4487 583d 0006 6abc c6e7 983d
00000030: eeb8 b33d 65ff 193b d5b0 c7bd 82a4 cb3d
00000040: 698a 87bd 1634 1ebd d829 99bd ebca ba3d
00000050: 4b7a 943d b182 45bc b571 183c e1c7 70bd
00000060: acf5 c7bd 8419 59bd fb60 ca3d 039f 1a3d
00000070: f88f b4bd fe36 0dbd 82b5 0abc 072b 593d
00000080: 756b 6a3d 3fff 75bd 22b8 24bd 7650 a63a
00000090: 20f8 673d 889b 3e3c 4ecb 9f3b bd52 9bbd
000000a0: af02 d73b 8829 63bd 74c2 c8bd 6cd9 45bc
000000b0: 10bc 873c c891 363c 00e7 c4bd dff8 a63c
000000c0: 2694 c93c 5308 48bc 099e 1cbd 538f 8d3c
000000d0: af91 6c3c a023 90bc 23c0 b7bc e010 8eba
000000e0: d5c2 2fbd ad7a 97bd 308d 21bc de29 a43d
000000f0: e804 5e3c 65d3 f0bb fd07 713d 0fbc a13d
00000100: 782d 47bc d8f1 b13c d1b6 90bd 82c6 803d
00000110: 0b8d e9bb 28bd cebc e4d8 a6b9 e948 233c
00000120: a768 c3bd 7b4c 573d f515 aebd 7181 5cbd
00000130: 5ba4 8abd 1b62 1ebd 31fa 243c 4953 5cbd
00000140: 36c4 dd3c 4dcf 00bd d201 5c3c 2482 30bd
00000150: 2762 eb3c cd1d 84bd 8ff5 cabc 426e 98bd
00000160: 775c c2bc 4003 f43c 238a ae3d 4a85 26bc
00000170: 477f a5bc 63ba 153d 4d88 bebc a17d cebc
00000180: 8e87 823d a571 c3bc 404b 84bc d57a 77bd

classfier.bn1.weight f4 [100]
0.9629216 1.0671661 0.98904896 1.0201925 1.0211151 1.0581009 1.029518 0.9841037
0.979844 0.95687586 1.0364244 1.0140918 1.0370849 0.9848903 1.005859 0.98297065
1.053244 1.0388806 0.96261615 1.0031776 1.0401541 0.96618015 0.98801804 0.9884353
0.9579004 0.99082553 0.9784534 1.0110323 1.0025536 1.072412 0.9722479 0.99510455
0.95450026 0.9763132 1.0458399 0.972012 0.9835667 0.9646551 1.0021013 0.99508744
1.0090353 1.0020044 0.98406565 0.9555242 1.0694036 1.0115235 0.96881044 1.0138565
0.9443017 1.0006875 0.9919704 0.98240334 1.0432556 1.0077828 0.9686882 1.0130165
1.032237 1.0034019 0.9982973 0.98931706 1.007396 0.970601 0.9934037 0.975389
1.0217755 0.98215866 0.9801972 1.0224193 0.99369204 0.9596499 0.9872578 1.0088698
0.96897876 0.96859163 0.9545988 1.010245 0.9738993 1.0184764 1.0186954 1.0170947
0.97683537 0.93439364 1.0052898 0.9641058 1.0698335 1.0080087 1.0306365 1.0502882
1.0108068 0.97571623 1.0062997 1.0158792 0.98082393 1.0257131 1.0414428 0.99548644
0.9696093 1.0240697 0.9561871 0.95481926
00000000: 0882 763f e698 883f 5032 7d3f ab95 823f
00000010: e6b3 823f da6f 873f 3fc7 833f 38ee 7b3f
00000020: 0ed7 7a3f d1f5 743f 8ea9 843f c3cd 813f
00000030: 33bf 843f c521 7c3f fdbf 803f f7a3 7b3f
00000040: b3d0 863f 0afa 843f 036e 763f 2068 803f
00000050: c523 853f 9557 773f c0ee 7c3f 190a 7d3f
00000060: f638 753f bea6 7d3f ec7b 7a3f 8269 813f
00000070: ad53 803f cc44 893f 3de5 783f 2cbf 7e3f
00000080: 215a 743f a9ef 793f 15de 853f c7d5 783f
00000090: 07cb 7b3f a3f3 763f db44 803f 0dbe 7e3f
000000a0: 1228 813f ae41 803f baeb 7b3f 3c9d 743f
000000b0: 38e2 883f 9a79 813f f603 783f 0dc6 813f
000000c0: c2bd 713f 8716 803f c6f1 7d3f c97e 7b3f
000000d0: 6689 853f 07ff 803f f3fb 773f 86aa 813f
000000e0: 5820 843f 796f 803f 6990 7f3f e243 7d3f
000000f0: 5af2 803f 4f79 783f b44f 7e3f 18b3 793f
00000100: 8ac9 823f c06e 7b3f 34ee 7a3f a3de 823f
00000110: 9a62 7e3f 9eab 753f edbc 7c3f a522 813f
00000120: fe0e 783f 9ff5 773f 9660 743f b54f 813f
00000130: 7751 793f 6f5d 823f 9c64 823f 2930 823f
00000140: e211 7a3f 6c34 6f3f 56ad 803f a3cf 763f
00000150: 4ef0 883f 6e06 813f e6eb 833f d86f 863f
00000160: 1e62 813f 8ac8 793f 6ece 803f 5408 823f
00000170: 4717 7b3f 914a 833f ff4d 853f 33d8 7e3f
00000180: 5138 783f b714 833f aec8 743f 096f 743f

classfier.bn1.bias f4 [100]
-0.10246781 -0.04601422 -0.038471922 -0.11245043 0.03359504 -0.047054946 -0.033911645 0.027755309
-0.047338802 0.008688979 -0.021182835 -0.07282486 -0.09197341 -0.087301485 0.009468905 -0.051149674
-0.09643322 -0.0573197 -0.07925208 -0.024861507 -0.07019101 -0.045728087 -0.08918776 0.041079223
-0.049441144 -0.057332058 -0.09059516 -0.12509663 0.027024535 -0.13200472 0.03903686 -0.007267376
-0.050827548 -0.072000206 -0.11988554 -0.039340504 -0.04922747 -0.03610307 -0.010615558 -0.006644009
-0.10686507 -0.090906195 0.033622544 0.027434072 -0.112962626 0.010662148 -0.041682255 -0.10942358
-0.10758233 -0.037636284 -0.08499497 -0.007623611 -0.0084226625 -0.012075687 -0.046395976 -0.11097
-0.028121803 0.0030602654 -0.0548188 -0.08807403 -0.07795806 -0.0328733 -0.03556832 0.009089909
-0.12810399 -0.10362554 -0.021959646 -0.014252219 -0.117698565 -0.0407375 -0.036585882 -0.11562439
-0.009290425 -0.043131143 -0.05465434 -0.12979697 -0.09902983 -0.12860788 -0.056830928 -0.054678496
-0.004806793 -0.03843298 0.0043457733 -0.05450487 0.020126037 -0.086192966 -0.08739214 -0.024741296
0.040343866 -0.0306377 -0.116406396 -0.093096964 -0.09148545 -0.08337477 0.013194658 -0.03275618
-0.039172012 -0.07852884 -0.05300201 -0.017352508
00000000: a5da d1bd 6879 3cbd bc94 1dbd 694c e6bd
00000010: f49a 093d b0bc 40bd f0e6 0abd 1a5f e33c
00000020: 55e6 41bd 385c 0e3c a087 adbc 3325 95bd
00000030: 8e5c bcbd 1fcb b2bd 7723 1b3c 5282 51bd
00000040: c87e c5bd 10c8 6abd ea4e a2bd 5caa cbbc
00000050: 4ec0 8fbd 604d 3bbd 13a8 b6bd b042 283d
00000060: cc82 4abd 05d5 6abd f589 b9bd 5519 00be
00000070: 8f62 dd3c 3f2c 07be 1de5 1f3d 2b23 eebb
00000080: 8c30 50bd d874 93bd 8d86 f5bd 8223 21bd
00000090: bea2 49bd d0e0 13bd e1ec 2dbc fdb5 d9bb
000000a0: 13dc dabd 072d babd cbb7 093d 6bbd e03c
000000b0: f358 e7bd 4ab0 2e3c 03bb 2abd 7819 e0bd
000000c0: 2054 dcbd 8128 1abd d811 aebd 7ccf f9bb
000000d0: 35ff 09bc 1ad9 45bc b509 3ebd 3d44 e3bd
000000e0: b25f e6bc bc8e 483b ae89 60bd 2860 b4bd
000000f0: 7aa8 9fbd 27a6 06bd 16b0 11bd d7ed 143c
00000100: b12d 03be a139 d4bd b7e4 b3bc 2482 69bc
00000110: f20b f1bd 5ddc 26bd 14db 15bd 7bcc ecbd
00000120: de36 18bc 48aa 30bd 3bdd 5fbd 7fe9 04be
00000130: 27d0 cabd c9b1 03be 8cc7 68bd 8ff6 5fbd
00000140: 4d82 9dbb e76b 1dbd fd66 8e3b 8040 5fbd
00000150: 5cdf a43c f085 b0bd a6fa b2bd 42ae cabc
00000160: 9c3f 253d eafb fabc 7a66 eebd 9fa9 bebd
00000170: b95c bbbd 64c0 aabd 682e 583c 582b 06bd
00000180: d572 20bd bad3 a0bd a318 59bd d926 8ebc

classfier.bn1.running_mean f4 [100]
-0.18400699 -0.19645117 -0.21058115 0.20258151 -1.8375238 -0.16534606 1.3319391 -2.449754
0.028549474 0.4801908 -0.6776768 -0.21801636 -0.052581593 -0.15057783 0.80464077 0.29097897
-0.14199485 -0.34732383 -0.9871769 -0.20274109 -0.44491205 0.7989773 -0.7474776 1.2457848
-0.37212768 -0.33667845 -0.097890526 -0.31928828 -0.9149291 -0.33263472 2.022885 -2.9933553
2.7896953 -0.221454 -0.11527214 0.6494583 -1.5289156 1.3163346 0.8413536 -0.49685234
-0.26429802 -0.0013346393 1.2355112 -0.8675361 -0.06313935 -1.3417813 0.25001398 -0.46936855
-0.36609256 0.60925835 -0.5068944 -0.71474093 -0.904464 0.48724267 0.067721516 -0.0044959337
-0.523742 -0.5981208 -0.01367983 0.13975947 0.027131155 -1.6070794 0.5083705 2.0815687
-0.019314168 -0.33658773 0.60329497 -0.64809525 -0.40986153 -0.3000111 -0.92843956 -0.38550624
1.628972 -1.6071529 -1.1717874 -0.2402536 -0.30829534 -0.30385548 -0.19879146 -0.4076572
1.0159508 -0.15540485 -1.662433 1.7780861 -0.48780727 -0.10242773 -0.11572738 -1.1932149
2.648111 1.1748986 -0.03497284 -0.34359527 -0.08540998 0.17102078 -1.4881897 -0.84151775
0.44807562 -0.09906781 0.8551769 0.24058063
00000000: 546c 3cbe 7f2a 49be 96a2 57be 8771 4f3e
00000010: fb33 ebbf 7a50 29be fb7c aa3f c5c8 1cc0
00000020: 96e0 e93c 92db f53e 3a7c 2dbf ae3f 5fbe
00000030: cc5f 57bd 1331 1abe f0fc 4d3f 32fb 943e
00000040: 1967 11be 6ed4 b1be a0b7 7cbf 5c9b 4fbe
00000050: 83cb e3be c789 4c3f b15a 3fbf e075 9f3f
00000060: 8587 bebe 1e61 acbe d47a c8bd c179 a3be
00000070: cb38 6abf 194f aabe f376 0140 2293 3fc0
00000080: 5e8a 3240 d6c4 62be cd13 ecbd e642 263f
00000090: 82b3 c3bf a77d a83f f362 573f 6e63 febe
000000a0: 1252 87be 10ef aeba 3b25 9e3f d916 5ebf
000000b0: 344f 81bd 7dbf abbf d501 803e 1351 f0be
000000c0: 7c70 bbbe 5bf8 1b3f d5c3 01bf 43f9 36bf
000000d0: f48a 67bf df77 f93e 94b1 8a3d a052 93bb
000000e0: f513 06bf 721e 19bf 5e21 60bc 1b1d 0f3e
000000f0: 2842 de3c c7b4 cdbf 9224 023f 6c38 0540
00000100: bf38 9ebc 3a55 acbe 8a71 1a3f 92e9 25bf
00000110: 5fd9 d1be 0e9b 99be 37ae 6dbf 1361 c5be
00000120: 2882 d03f 30b7 cdbf 21fd 95bf 0a05 76be
00000130: e3d8 9dbe f292 9bbe fd8f 4bbe 72b8 d0be
00000140: ad0a 823f 7322 1fbe 9bca d4bf 5398 e33f
00000150: e0c1 f9be a1c5 d1bd 7a02 edbd 44bb 98bf
00000160: a77a 2940 1463 963f ae3f 0fbd b8eb afbe
00000170: 6deb aebd 1220 2f3e 007d bebf b56d 57bf
00000180: 2b6a e53e 10e4 cabd e0ec 5a3f c55a 763e

classfier.bn1.running_var f4 [100]
0.11005568 0.052001838 0.120209776 0.03886535 0.36478662 0.08831494 0.15134554 0.4481013
0.21319647 0.13400759 0.078218564 0.051470324 0.041678 0.06985496 0.0839756 0.19085288
0.08658753 0.03270543 0.461726 0.08849375 0.11028398 0.15106386 0.44996926 0.13420641
0.19161887 0.049770474 0.06412212 0.070554316 0.24114206 0.056408886 0.33656126 0.87316525
1.0532018 0.10279464 0.034766782 0.29895058 0.55864364 0.22966161 0.10930785 0.11147443
0.046681713 0.08448751 0.20479997 0.29038817 0.03971592 0.20732364 0.06900724 0.1929637
0.13008058 0.051987737 0.11686475 0.10192629 0.099007994 0.15982208 0.11317833 0.0663492
0.09907076 0.1708864 0.107284494 0.121920526 0.05993317 0.23198004 0.3993661 0.33916178
0.048809256 0.068049505 0.10217074 0.10450918 0.1279812 0.103777 0.11669961 0.08430249
0.43834627 0.4360885 0.27897164 0.05325736 0.12072669 0.06751287 0.099576965 0.06163447
0.16593567 0.07891897 0.40115348 0.45719743 0.07586121 0.13700488 0.06837203 0.22492667
0.4477896 0.15916914 0.09166094 0.06224833 0.095331155 0.06825048 0.277793 0.18482211
0.17678598 0.0965659 0.14409941 0.090050906
00000000: df64 e13d e1ff 543d 8b30 f63d 4631 1f3d
00000010: 50c5 ba3e 77de b43d 53fa 1a3e 896d e53e
00000020: 2d50 5a3e 4939 093e 0e31 a03d 8cd2 523d
00000030: 8db6 2a3d 1e10 8f3d 66fb ab3d f06e 433e
00000040: ce54 b13d 21f6 053d 5a67 ec3e 363c b53d
00000050: 91dc e13d 7cb0 1a3e 5f62 e63e 686d 093e
00000060: bd37 443e 20dc 4b3d 7552 833d c87e 903d
00000070: f2ed 763e 010d 673d c251 ac3e c287 5f3f
00000080: 51cf 863f ff85 d23d 9d67 0e3d 0d10 993e
00000090: 4503 0f3f 6a2c 6b3e cbdc df3d b54c e43d
000000a0: 5335 3f3d ca07 ad3d 15b7 513e c2ad 943e
000000b0: 29ad 223d a64c 543e ab53 8d3d 4798 453e
000000c0: d833 053e 18f1 543d c956 ef3d bbbe d03d
000000d0: b4c4 ca3d 66a8 233e 0aca e73d 17e2 873d
000000e0: 9ce5 ca3d d8fc 2e3e f9b7 db3d 78b1 f93d
000000f0: 7c7c 753d 2d8c 6d3e b779 cc3e 9da6 ad3e
00000100: 37ec 473d 8a5d 8b3d e53e d13d e908 d63d
00000110: 810d 033e 0989 d43d 3500 ef3d c9a6 ac3d
00000120: ec6e e03e fe46 df3e 5fd5 8e3e 6424 5a3d
00000130: 8e3f f73d 3044 8a3d 02ef cb3d 6d74 7c3d
00000140: 0aeb 293e 45a0 a13d fd63 cd3e c815 ea3e
00000150: 1f5d 9b3d 024b 0c3e a306 8c3d 2d53 663e
00000160: ae44 e53e 3cfd 223e bbb8 bb3d 1bf8 7e3d
00000170: fb3c c33d e8c6 8b3d e23a 8e3e 0242 3d3e
00000180: 6207 353e 58c4 c53d cc8e 133e 9c6c b83d

classfier.fc2.weight f4 [50, 100]
0.025350261 -0.100498155 -0.07124067 -0.11212937 -0.107512034 -0.09254581 0.04881006 0.047009345
-0.027140098 -0.004412679 -0.009063357 -0.02981776 0.019234745 -0.068719245 -0.088939816 0.0041655586
0.05743671 -0.027732467 -0.0988935 -0.060960498 -0.069081426 -0.10303457 0.059528258 -0.10387345
-0.02124185 -0.04600492 0.076285265 0.021074958 0.01241322 -0.056363855 0.025759514 -0.06698026
0.06204476 -0.068528004 0.074164405 0.042716514 0.01330304 -0.040371988 0.04182194 -0.07325588
-0.03710179 -0.012020984 0.03516838 0.06384258 -0.072724886 -0.087474495 0.019194646 0.030941889
-0.0059673223 -0.07392104 0.0037008398 -0.08256191 -0.060920276 -0.047400944 0.04287497 0.03940411
-0.103175536 -0.02018672 0.075289614 -0.048943836 0.044289984 -0.074093506 0.022630317 -0.0451913
-0.066757105 0.067192085 -0.03828937 0.0061905477 0.04193222 0.03514679 -0.0101757655 -0.07014664
-0.113305755 -0.024317881 0.04715222 -0.010825786 -0.0027980744 -0.09768609 -0.08940193 -0.04435335
0.039870977 -0.054125063 -0.094675004 -0.07722186 -0.0794874 -0.018586028 -0.060320344 -0.01253056
0.07192633 -0.042951614 0.03413235 -0.06559422 0.1121309 -0.09719675 0.05886744 -0.08513915
-0.041411728 -0.050248135 -0.030564677 0.065929055 -0.054367825 -0.08598867 0.09463371 -0.028428745
-0.016301392 -0.10282131 0.061394032 -0.04688888 -0.014532119 0.029200107 -0.06781633 0.030886136
-0.023719426 -0.010008431 0.11265053 -0.09924285 0.044477005 -0.092312425 0.041153762 -0.09551093
-0.045149926 -0.06552697 0.029432762 0.090672806 -0.055286318 0.038519558 -0.022159565 -0.066416144
0.03781351 0.027580626 0.10742566 -0.117507726 0.07598711 -0.11346576 0.033039425 -0.031427886
0.045623265 0.06418137 0.04155456 0.059217688 -0.06537926 -0.0073635723 0.09573274 0.0695321
-0.014808335 0.030390864 0.12087714 0.0053124256 -0.01612945 -0.044615526 -0.050945673 -0.010754372
-0.08919584 -0.072389156 -0.0006479841 0.025415897 -0.040796675 -0.004170277 0.098562256 0.03231551
-0.07636038 0.0026544763 0.036210146 -0.049115222 -0.057032533 0.046158582 -0.012892909 -0.0031134046
0.11337066 -0.04702426 -0.036906693 -0.004233631 -0.0004032179 -0.05304468 -0.05107599 0.06740443
0.0018390174 -0.05479407 -0.06313401 -0.08227778 -0.027121184 -0.018578777 -0.06476619 -0.0936227
-0.07800716 0.046263207 0.05251801 0.031558134 -0.0008067165 -0.03800394 -0.050636455 -0.06976029
0.11670469 -0.028781313 -0.10812652 -0.024482522 -0.052178297 0.1038755 0.089104146 -0.029200558
-0.10994991 -0.050262943 -0.08118585 -0.076573245 -0.062264413 0.03819738 -0.06763312 0.061355382
-0.100048594 -0.05130322 -0.09866075 -0.033645812 -0.08447971 0.015319523 0.049889266 0.05486097
-0.10912342 0.04791828 -0.13235936 0.07980572 -0.08292001 -0.07720407 0.029003285 -0.014841926
0.025629373 0.025066946 0.02821941 -0.026336567 -0.07971835 0.063759565 -0.0011258 -0.00019867822
0.014456595 -0.05903681 -0.037491884 -0.0829011 -0.12954591 0.0516714 0.09392287 0.01893104
0.053465206 0.047456782 0.09951947 -0.09874763 0.04422561 -0.030948494 0.096983604 0.03336947
-0.05871515 0.024232628 0.038315516 0.1162502 -0.060657993 0.10541509 0.03365622 -0.002713565
00000000: 5aab cf3c fad1 cdbd a1e6 91bd 15a4 e5bd
00000010: 452f dcbd a888 bdbd 0fed 473d df8c 403d
00000020: e954 debc 3c98 90bb 797e 14bc 6044 f4bc
00000030: 2f92 9d3c adbc 8cbd 1426 b6bd 3d7f 883b
00000040: c142 6b3d 332f e3bc ad88 cabd b7b1 79bd
00000050: 907a 8dbd ca03 d3bd e7d3 733d 9abb d4bd
00000060: 6303 aebc a86f 3cbd 733b 9c3d 64a5 ac3c
00000070: d160 4b3c c9dd 66bd 9e05 d33c f22c 89bd
00000080: a522 7e3d 6958 8cbd 82e3 973d 83f7 2e3d
00000090: fef4 593c 195d 25bd 7c4d 2b3d 2e07 96bd
000000a0: 0cf8 17bd a9f3 44bc b80c 103d e6bf 823d
000000b0: c9f0 94bd d425 b3bd 173e 9d3c d879 fd3c
000000c0: 8789 c3bb ea63 97bd ca89 723b 3816 a9bd
000000d0: 8a87 79bd 7e27 42bd aa9d 2f3d 3466 213d
000000e0: b24d d3bd 9f5e a5bc 7131 9a3d 5579 48bd
000000f0: 6a69 353d 56be 97bd 3763 b93c 831a 39bd
00000100: f3b7 88bd 019c 893d 50d5 1cbd 14da ca3b
00000110: 1fc1 2b3d 15f6 0f3d 41b8 26bc 0ba9 8fbd
00000120: d90c e8bd 4b36 c7bc b022 413d a35e 31bc
00000130: e65f 37bb a50f c8bd 5c18 b7bd dcab 35bd
00000140: c04f 233d 3eb2 5dbd f8e4 c1bd 7f26 9ebd
00000150: 4aca a2bd ba41 98bc 7712 77bd fa4c 4dbc
00000160: 1d4e 933d 08ee 2fbd 5dce 0b3d 4356 86bd
00000170: e3a4 e53d 170f c7bd fc1e 713d 6f5d aebd
00000180: 589f 29bd fdd0 4dbd c662 fabc d005 873d
00000190: ccb0 5ebd d41a b0bd 52cf c13d 66e3 e8bc
000001a0: 7f8a 85bc fb93 d2bd 4f78 7b3d 8e0e 40bd
000001b0: 2018 6ebc 1035 ef3c 4ae3 8abd ec04 fd3c
000001c0: 3e4f c2bc 67fa 23bc 52b5 e63d d63f cbbd
000001d0: 852d 363d 4c0e bdbd d990 283d 3c9b c3bd
000001e0: 21ef 38bd 0133 86bd fa1c f13c aab2 b93d
000001f0: e873 62bd afc6 1d3d fa87 b5bc 3005 88bd
00000200: 57e2 1a3d c4f0 e13c fc01 dc3d e4a7 f0bd
00000210: 219f 9b3d bd60 e8bd 5954 073d 87ba 00bd
00000220: 76df 3a3d 8671 833d 1d35 2a3d 3f8e 723d
00000230: 90e5 85bd 1f4a f1bb 870f c43d d866 8e3d
00000240: a99e 72bc 43f6 f83c 6f8e f73d db13 ae3b
00000250: e921 84bc c5be 36bd 69ac 50bd 1b33 30bc
00000260: 4fac b6bd c440 94bd 7add 29ba 0035 d03c
00000270: 6a1a 27bd d2a6 88bb 02db c93d 455d 043d
00000280: d562 9cbd b9f6 2d3b 1751 143d 0b2d 49bd
00000290: f29a 69bd c810 3d3d c83c 53bc 430a 4cbb
000002a0: e02e e83d 839c 40bd 792b 17bd 45ba 8abb
000002b0: fe66 d3b9 6145 59bd 0f35 51bd 550b 8a3d
000002c0: 2f0b f13a bf6f 60bd 674c 81bd 4181 a8bd
000002d0: 3f2d debc 8532 98bc 23a4 84bd 42bd bfbd
000002e0: 38c2 9fbd 7d7e 3d3d 201d 573d 1a43 013d
000002f0: d479 53ba 05aa 1bbd 2c68 4fbd 7cde 8ebd
00000300: de02 ef3d cac6 ebbc 7071 ddbd 928f c8bc
00000310: e9b8 55bd aebc d43d 3c7c b63d 0236 efbc
00000320: 6b2d e1bd 84e0 4dbd c444 a6bd 6fd2 9cbd
00000330: f808 7fbd db74 1c3d 3c83 8abd c84f 7b3d
00000340: 47e6 ccbd 5323 52bd a60e cabd 31d0 09bd
00000350: b303 adbd bdfe 7a3c b058 4c3d e5b5 603d
00000360: 1a7c dfbd f545 443d 3689 07be 2e71 a33d
00000370: f7d1 a9bd 2b1d 9ebd 4c98 ed3c 8d2b 73bc
00000380: b1f4 d13c 3259 cd3c 642c e73c c9bf d7bc
00000390: 6043 a3bd 6094 823d 948f 93ba 4754 50b9
000003a0: 5bdb 6c3c 95d0 71bd 1791 19bd 0dc8 a9bd
000003b0: afa7 04be 64a5 533d a25a c03d 4515 9b3c
000003c0: 55fe 5a3d 0b62 423d ddd0 cb3d 333c cabd
000003d0: ea25 353d b287 fdbc 579f c63d 6dae 083d
000003e0: 4c7f 70bd 8183 c63c bbf0 1c3d 9614 ee3d
000003f0: 8474 78bd dee3 d73d 1bdb 093d 11d6 31bb

classfier.fc2.bias f4 [50]
0.08606802 -0.01776155 0.07883258 0.040970653 0.079596184 0.0646968 0.05995802 -0.05726833
-0.07756338 -0.080175936 -0.0022714713 -0.078195594 0.09277618 0.04655945 0.068076946 0.08913827
0.08834963 -0.058425233 -0.0995664 0.056554046 -0.003146647 0.004037484 0.024491223 0.013923796
-0.07313213 -0.035085972 0.052047826 -0.08845157 -0.021856695 -0.015884524 -0.050185904 -0.04269516
-0.015795637 -0.012378972 0.073132776 0.035673767 -0.028315235 -0.054124676 -0.03170495 0.057305876
0.08400644 -0.047648065 -0.036938384 -0.06988746 -0.05093 0.042957615 0.07019216 0.07757662
-0.022046823 0.04588796
00000000: 6e44 b03d ac80 91bc fa72 a13d d8d0 273d
00000010: 5303 a33d c27f 843d 8a96 753d 3292 6abd
00000020: 8dd9 9ebd 4833 a4bd f7dc 14bb 0325 a0bd
00000030: 7001 be3d 1fb5 3e3d ed6b 8b3d 208e b63d
00000040: a7f0 b43d 4c4f 6fbd 78e9 cbbd 37a5 673d
00000050: fa37 4ebb df4c 843b d1a1 c83c a220 643c
00000060: 4cc6 95bd 4fb6 0fbd 1a30 553d 1926 b5bd
00000070: d00c b3bc 4320 82bc bc8f 4dbd 1fe1 2ebd
00000080: da65 81bc 2cd1 4abc a3c6 953d a81e 123d
00000090: 5af5 e7bc d6b1 5dbd 0ddd 01bd 91b9 6a3d
000000a0: 920b ac3d 9e2a 43bd b44c 17bd 2821 8fbd
000000b0: fa9b 50bd 53f4 2f3d e8c0 8f3d 7ee0 9e3d
000000c0: 8a9b b4bc 03f5 3b3d

classfier.bn2.weight f4 [50]
0.94857407 1.026486 0.991034 0.95398587 0.97872984 0.9956762 0.9711129 1.0618178
0.9421825 0.96182907 0.9660325 1.0311452 1.0469644 0.98943675 0.9264999 0.9639961
0.96074027 0.9706282 1.0415074 1.0170724 1.0381609 1.0817895 1.0707306 0.9920567
1.0210035 1.0291305 1.028025 1.0183761 0.958663 0.9399735 0.9861483 1.0787715
1.0048883 1.0271248 0.9906987 0.9928309 1.0056188 0.98860437 1.0350245 1.0664569
0.93050194 0.96057427 1.0121528 1.0984926 1.0767821 0.97713506 0.98702556 0.96879256
1.0360509 1.0172756
00000000: c0d5 723f e563 833f 67b4 7d3f 6b38 743f
00000010: 0a8e 7a3f a3e4 7e3f db9a 783f a5e9 873f
00000020: df32 713f 6e3a 763f e84d 773f 91fc 833f
00000030: ee02 863f ba4b 7d3f 192f 6d3f 73c8 763f
00000040: 13f3 753f 177b 783f 1d50 853f 6e2f 823f
00000050: 75e2 843f 1478 8a3f b30d 893f 6ef7 7d3f
00000060: 3eb0 823f 8cba 833f 5396 833f 265a 823f
00000070: f06a 753f 1aa2 703f 3774 7c3f 2f15 8a3f
00000080: 2ea0 803f d378 833f 6e9e 7d3f 2a2a 7e3f
00000090: 1eb8 803f 2d15 7d3f af7b 843f a981 883f
000000a0: 6035 6e3f 32e8 753f 398e 813f 689b 8c3f
000000b0: ffd3 893f 8625 7a3f b5ad 7c3f ca02 783f
000000c0: 519d 843f 1636 823f

classfier.bn2.bias f4 [50]
0.0150509365 0.040211823 0.0108851995 -0.044887755 0.0016852464 0.0150950635 -0.12594712 -0.06165974
-0.09068359 -0.03313606 0.015316432 -0.043244082 -0.12902069 -0.11565509 -0.062164307 -0.13427
-0.025751272 -0.025786292 -0.12057634 -0.08301419 0.06890951 0.045889452 0.085186236 0.0008032941
0.04888744 0.015180001 -0.102588326 -0.061738927 -0.13314462 0.010865584 0.06253123 0.072739586
0.018220149 -0.094341725 0.043381616 -0.058667805 0.029148502 0.06120923 0.011861489 0.096702375
-0.03817769 -0.028431892 -0.10556927 0.09297424 0.07896153 0.041119814 -0.022650898 -0.040408336
0.004989381 0.023737496
00000000: 3498 763c 27b5 243d d657 323c 39dc 37bd
00000010: 7ce3 dc3a 4951 773c 48f8 00be ec8e 7cbd
00000020: 51b8 b9bd adb9 07bd c6f1 7a3c b520 31bd
00000030: 001e 04be 93dc ecbd 00a0 7ebd 137e 09be
00000040: 55f4 d2bc c63d d3bc baf0 f6bd 5803 aabd
00000050: 6e20 8d3d 94f6 3b3d 1f76 ae3d 2894 523a
00000060: 323e 483d 8ab5 783c d419 d2bd f5e1 7cbd
00000070: 1057 08be 9005 323c 6010 803d 7ef8 943d
00000080: 6c42 953c 3c36 c1bd ecb0 313d a74d 70bd
00000090: d7c8 ee3c 88b6 7a3d b156 423c e50b c63d
000000a0: 3660 1cbd 00ea e8bc b434 d8bd 4769 be3d
000000b0: 95b6 a13d 406d 283d 608e b9bc 3683 25bd
000000c0: f67d a33b 2375 c23c

classfier.bn2.running_mean f4 [50]
-0.6623816 -0.24064301 -0.21548863 0.65887713 -0.4136545 -0.7350456 0.9234206 0.84279555
0.60903734 -0.3136786 -0.2131285 0.89501166 0.9886537 0.84299636 0.529771 0.79324734
-0.009495279 -0.3711309 0.7718088 0.9149888 -0.6497984 -0.70864916 -0.67537093 -0.57980764
0.10924362 -0.41409117 0.7478624 0.6206211 0.6345115 0.068534955 -0.7988722 -0.69803613
-0.39903635 0.9757164 -0.60607517 1.0747434 -0.37522978 -0.8735929 0.019243237 -0.6910334
-0.67617446 -0.49942723 0.73256004 -0.84846455 -0.6045594 0.88204014 0.8832617 -0.24515714
-0.3860348 -0.5515501
00000000: d791 29bf 1f6b 76be 0da9 5cbe 2cac 283f
00000010: 86ca d3be f32b 3cbf 4b65 6c3f 73c1 573f
00000020: dfe9 1b3f 7b9a a0be 5c3e 5abe 7c1f 653f
00000030: 6918 7d3f 9cce 573f 129f 073f 4212 4b3f
00000040: 1692 1bbc df04 bebe 4395 453f b53c 6a3f
00000050: 3059 26bf 086a 35bf 1ce5 2cbf 466e 14bf
00000060: 1ebb df3d c203 d4be e973 3f3f 06e1 1e3f
00000070: 586f 223f 0e5c 8c3d e382 4cbf 7fb2 32bf
00000080: 7e4e ccbe 8dc8 793f be27 1bbf 3191 893f
00000090: 1e1e c0be c9a3 5fbf fea3 9d3c 91e7 30bf
000000a0: c519 2dbf edb4 ffbe 0e89 3b3f f934 59bf
000000b0: 68c4 1abf 62cd 613f 701d 623f 790a 7bbe
000000c0: 5aa6 c5be 6332 0dbf

classfier.bn2.running_var f4 [50]
0.26861897 0.3827111 0.38622335 0.37407258 0.2647467 0.74748564 0.39942634 0.44937125
0.22482483 0.33788264 0.2748641 0.5251267 0.5105081 0.3781834 0.38458854 0.41947433
0.3090775 0.3451807 0.47212642 0.4199588 0.44780493 0.41383398 0.32581666 0.30756456
0.31143844 0.36974818 0.3899224 0.34494904 0.38188347 0.31473348 0.5127198 0.36160746
0.32622483 0.4186437 0.35312405 0.51245147 0.36398357 0.3692414 0.43121803 0.5022986
0.28904372 0.2625289 0.41187143 0.4963832 0.48106602 0.4927131 0.40103245 0.24893387
0.36505154 0.3073141
00000000: 6d88 893e b6f2 c33e 11bf c53e 7186 bf3e
00000010: e18c 873e 385b 3f3f 9c81 cc3e fd13 e63e
00000020: 7b38 663e f4fe ac3e fdba 8c3e b46e 063f
00000030: a9b0 023f 41a1 c13e cae8 c43e 57c5 d63e
00000040: 683f 9e3e 86bb b03e 8eba f13e d704 d73e
00000050: b046 e53e 0ce2 d33e 71d1 a63e 1a79 9d3e
00000060: dc74 9f3e a24f bd3e e9a3 c73e 299d b03e
00000070: 3b86 c33e bf24 a13e 9b41 033f 9d24 b93e
00000080: f106 a73e 7858 d63e adcc b43e 0530 033f
00000090: 0e5c ba3e 350d bd3e 9cc8 dc3e a496 003f
000000a0: 8afd 933e 306a 863e d0e0 d23e f025 fe3e
000000b0: 494e f63e e444 fc3e 2054 cd3e 85e8 7e3e
000000c0: 09e8 ba3e 4658 9d3e

classfier.fc3.weight f4 [25, 50]
0.031715285 -0.13079596 -0.10965596 -0.08889674 -0.08036577 -0.26599193 -0.087981805 -0.057023343
-0.12675814 0.043971542 0.017523302 -0.10506505 -0.12576789 -0.12818465 0.07288452 0.017491946
0.04809216 0.08400244 -0.069145225 -0.0914234 -0.012118405 0.13711601 -0.014882325 -0.21189758
0.018134661 0.11490529 0.039633773 -0.07729994 -0.09469208 0.06378994 -0.088842474 0.12632142
-0.18759838 0.023845635 0.106416516 0.012462943 0.045266975 0.095905215 -0.19515944 -0.055151787
-0.058033492 -0.045515344 -0.057733495 -0.043999135 -0.07616142 -0.004279186 -0.14533171 0.05813772
-0.22695538 -0.20926245 0.05216601 0.046107978 0.100484125 -0.01186358 -0.010889116 0.011457441
-0.009993317 -0.009304187 -0.06587864 -0.09774979 -0.08647141 -0.036581248 -0.013900685 -0.04594452
-0.14307667 0.016089948 0.046242446 -0.23316662 -0.08263821 0.03733538 0.03825683 -0.016627127
0.14271273 0.07199123 0.0307008 0.0397141 -0.12270625 -0.041283004 -0.011231758 -0.12905473
0.12203874 0.03761223 -0.0016017576 -0.13843942 0.09471647 0.030834176 0.13400179 0.021922803
-0.15020794 -0.041827764 -0.14851534 0.10931709 -0.0051614777 0.15874356 -0.0058099274 -0.1368564
-0.08930257 0.06649109 0.03961548 0.017805656 0.09527073 0.0610805 0.03153219 -0.03718314
-0.036042996 0.040357955 0.039755516 -0.056193996 -0.05175598 0.027270176 -0.10331744 -0.121392
0.019632766 -0.06295806 -0.08165869 0.029728517 -0.004023656 -0.06487095 -0.014358889 -0.09377461
0.0032475628 0.14370452 0.014606676 0.009388736 -0.15666784 0.029019943 -0.07246436 -0.06534765
-0.066201635 0.037153844 0.10810852 0.013176979 -0.01834366 -0.036458746 -0.07872678 -0.023305979
0.11918838 -0.09826999 -0.17657213 0.058454514 0.11305148 -0.044558167 -0.10954313 0.052891437
-0.21535264 -0.15294372 -0.03398136 -0.10316024 0.015176128 -0.014012474 -0.028566094 -0.079062566
-0.019670123 0.14014968 0.079462446 -0.065006256 0.19231166 0.1486826 0.03866246 -0.11387017
0.048005085 -0.045500774 0.17831634 0.10683534 -0.072862945 -0.010856096 0.09072919 -0.03478033
0.08643593 0.10827353 0.017387595 -0.027909534 -0.057237428 -0.06981923 0.029276257 -0.09393519
0.01603073 0.023829576 0.0782219 -0.039178945 0.065685116 0.027289309 -0.057288162 0.08764157
-0.06148428 0.11700837 -0.0083201425 0.075439796 0.004048841 -0.08292733 0.053884953 -0.064099304
0.14606123 -0.106286876 -0.07401816 0.051283736 0.08279608 -0.04686109 -0.026679972 -0.01192371
0.08154674 -0.021248374 -0.046175726 0.028578863 0.08326223 0.046068173 0.09287422 0.1555349
0.083809264 0.08953006 -0.100038454 0.049510352 -0.0072180284 -0.05240725 -0.06371933 0.18547568
-0.06695637 -0.08720758 0.16888858 0.058700465 -0.026051715 0.0044721304 0.034683432 0.0644263
-0.07621247 -0.0029114913 0.12892747 0.037234563 0.09559849 -0.012994577 -0.0542407 0.008595586
-0.089114934 0.12595549 -0.020632176 0.12813397 0.06190209 -0.057917 -0.0064417943 -0.023518793
-0.04331814 -0.05903219 0.105743125 -0.09332319 -0.052149177 0.10891405 0.002285137 -0.0034044455
-0.05612107 0.06580612 0.11821432 0.036506068 -0.07657383 -0.07908436 -0.051736258 0.08608508
00000000: e3e7 013d 60ef 05be 4e93 e0bd 7e0f b6bd
00000010: cf96 a4bd 1830 88be ce2f b4bd 4f91 69bd
00000020: e3cc 01be 811b 343d 078d 8f3c 582c d7bd
00000030: 4cc9 00be d642 03be 7b44 953d 454b 8f3c
00000040: 49fc 443d 7909 ac3d 039c 8dbd 313c bbbd
00000050: 468c 46bc 2468 0c3e ffd4 73bc aefb 58be
00000060: 248f 943c 7753 eb3d 0657 223d 6e4f 9ebd
00000070: eced c1bd 4da4 823d 0bf3 b5bd 675a 013e
00000080: ca19 40be ec57 c33c e7f0 d93d 5f31 4c3c
00000090: dd69 393d f469 c43d e0d7 47be d7e6 61bd
000000a0: 87b4 6dbd 4c6e 3abd f579 6cbd 7038 34bd
000000b0: 85fa 9bbd 6a38 8cbb d6d1 14be d121 6e3d
000000c0: fe66 68be e548 56be 07ac 553d b8db 3c3d
000000d0: 9fca cd3d 765f 42bc 4368 32bc feb7 3b3c
000000e0: 02bb 23bc 9770 18bc 61eb 86bd 0b31 c8bd
000000f0: ec17 b1bd 38d6 15bd b3bf 63bc 5230 3cbd
00000100: b182 12be 11cf 833c b868 3d3d 3bc3 6ebe
00000110: 393e a9bd fcec 183d 32b3 1c3d 9d35 88bc
00000120: 4923 123e 2370 933d 3e80 fb3c 41ab 223d
00000130: 6a4d fbbd 5e18 29bd 6805 38bc ec26 04be
00000140: 72ef f93d 480f 1a3d 11f2 d1ba 10c3 0dbe
00000150: b5fa c13d f497 fc3c c437 093e 7397 b33c
00000160: 1cd0 19be 9753 2bbd 6814 18be a3e1 df3d
00000170: 9d21 a9bb ac8d 223e 3461 bebb 1624 0cbe
00000180: 44e4 b6bd 7b2c 883d d743 223d 2bdd 913c
00000190: 4d1d c33d 8c2f 7a3d e627 013d 594d 18bd
000001a0: d2a1 13bd 624e 253d aed6 223d ad2b 66bd
000001b0: 14fe 53bd b465 df3c 1898 d3bd 5e9c f8bd
000001c0: e5d4 a03c 28f0 80bd ac3c a7bd 3889 f33c
000001d0: dfd8 83bb 10db 84bd 8c41 6bbc e70c c0bd
000001e0: 10d5 543b 4727 133e d750 6f3c 37d3 193c
000001f0: 896d 20be 3bbb ed3c 3268 94bd fdd4 85bd
00000200: b994 87bd a12e 183d 0068 dd3d 41e4 573c
00000210: 7145 96bc c455 15bd 823b a1bd 2eec bebc
00000220: 0a19 f43d c741 c9bd 53cf 34be 006e 6f3d
00000230: 8987 e73d a082 36bd 2658 e0bd b1a4 583d
00000240: 6785 5cbe 479d 1cbe 0a30 0bbd ad45 d3bd
00000250: 4ba5 783c 9394 65bc 7103 eabc 8eeb a1bd
00000260: 3d23 a1bc 6683 0f3e 35bd a23d 0022 85bd
00000270: 59ed 443e 4040 183e 875c 1e3d c434 e9bd
00000280: fba0 443d 055f 3abd 8f98 363e 7dcc da3d
00000290: 2b39 95bd c4dd 31bc 3ad0 b93d d275 0ebd
000002a0: 5205 b13d 83be dd3d 6e70 8e3c 89a2 e4bc
000002b0: cb71 6abd 62fd 8ebd c3d4 ef3c 1861 c0bd
000002c0: e152 833c 3e36 c33c ce32 a03d 1a7a 20bd
000002d0: eb85 863d d48d df3c fea6 6abd 6c7d b33d
000002e0: f1d6 7bbd 16a2 ef3d 3551 08bc 2e80 9a3d
000002f0: 24ac 843b ced5 a9bd 78b6 5c3d 7f46 83bd
00000300: 1391 153e efac d9bd d596 97bd e50e 523d
00000310: fe90 a93d 6af1 3fbd f58f dabc aa5b 43bc
00000320: fa01 a73d 1211 aebc c222 3dbd 381e ea3c
00000330: 6385 aa3d fbb1 3c3d d734 be3d 8a44 1f3e
00000340: 31a4 ab3d 895b b73d f6e0 ccbd 5ecb 4a3d
00000350: 3685 ecbb fca8 56bd 487f 82bd 56ed 3d3e
00000360: 6c20 89bd e399 b2bd 21f1 2c3e e66f 703d
00000370: 686a d5bc f38a 923b 3710 0e3d f0f1 833d
00000380: 4915 9cbd b8ce 3ebb 9005 043e 4583 183d
00000390: 24c9 c33d 35e7 54bc 7f2b 5ebd 80d4 0c3c
000003a0: e481 b6bd 7afa 003e cf04 a9bc 8d35 033e
000003b0: 0c8d 7d3d 603a 6dbd b015 d3bb 7caa c0bc
000003c0: 5d6e 31bd bdcb 71bd da8f d83d 3b20 bfbd
000003d0: 609a 55bd 540e df3d 3dc2 153b 1e1d 5fbb
000003e0: 35df 65bd 5cc5 863d 591a f23d 6387 153d
000003f0: bdd2 9cbd fbf6 a1bd 66e9 53bd 604d b03d

classfier.fc3.bias f4 [25]
-0.01702602 -0.10652284 0.003751114 -0.1169984 0.044640105 -0.1378083 0.005094672 0.049525503
-0.006391416 -0.059490245 0.11563125 -0.13963163 -0.040297303 0.1097734 -0.0071275043 -0.12012088
0.0054643992 0.122853026 0.13303232 -0.0002491668 0.098812126 0.069565915 0.08011162 -0.0065229773
0.10362823
00000000: 277a 8bbc a628 dabd 40d5 753b db9c efbd
00000010: 8bd8 363d 9e1d 0dbe 35f1 a63b 41db 4a3d
00000020: 156f d1bb 0bac 73bd 14d0 ec3d 98fb 0ebe
00000030: c90e 25bd e0d0 e03d d78d e9bb f001 f6bd
00000040: b40e b33b 5e9a fb3d a039 083e 9aa2 82b9
00000050: 035e ca3d 9378 8e3d 9011 a43d b3be d5bb
00000060: 0a3b d43d

classfier.bn3.weight f4 [25]
1.1826844 1.169525 1.1331077 1.076176 1.0563842 1.1496145 1.1455871 0.99262774
1.1554826 1.0613331 1.128736 1.1617098 1.1664337 1.1798743 1.1334729 1.1412674
1.0884595 1.1683095 1.0479139 1.1319771 1.1496661 1.1434678 1.1362052 1.1094029
1.1431619
00000000: 3462 973f ffb2 953f ac09 913f 23c0 893f
00000010: 9937 873f 9126 933f 99a2 923f da1c 7e3f
00000020: dbe6 933f c3d9 873f 6c7a 903f e8b2 943f
00000030: b34d 953f 1f06 973f a415 913f 0d15 923f
00000040: a452 8b3f 2a8b 953f 0b22 863f a0e4 903f
00000050: 4228 933f 275d 923f 2c6f 913f ea00 8e3f
00000060: 2153 923f

classfier.bn3.bias f4 [25]
0.18796258 0.17039903 0.13407093 -0.032226678 -0.030808957 0.14432812 0.14763574 -0.04889805
0.15673551 -0.036242656 0.13102338 0.16120449 0.17015073 0.18178701 0.13331404 0.13936399
-0.035252657 0.1621824 -0.040114228 0.13174231 0.1481777 0.14136805 0.136217 -0.026199054
0.1419513
00000000: 4379 403e 157d 2e3e e449 093e 1f00 04bd
00000010: 1163 fcbc c0ca 133e d32d 173e 5249 48bd
00000020: 467f 203e 2e73 14bd fe2a 063e ca12 253e
00000030: fe3b 2e3e 6026 3a3e 7a83 083e 6fb5 0e3e
00000040: 1765 10bd 2513 263e d14e 24bd 75e7 063e
00000050: e5bb 173e c9c2 103e 787c 0b3e 669f d6bc
00000060: ae5b 113e

classfier.bn3.running_mean f4 [25]
-0.7643238 -0.18375441 -0.40125367 0.13735668 0.36763245 -0.8197033 0.32997346 0.026387487
-0.7897251 0.17528227 -0.5023875 -0.82894886 -0.49940795 -0.4153283 -0.4492716 -0.07538587
0.37277883 -0.123819284 0.4560948 -0.7279608 0.124685735 -0.6084045 -0.01647044 0.2534319
-0.6102928
00000000: b9aa 43bf 1e2a 3cbe 1f71 cdbe 3ba7 0c3e
00000010: 523a bc3e 13d8 51bf 48f2 a83e 922a d83c
00000020: 6d2b 4abf 327d 333e 789c 00bf fe35 54bf
00000030: 66b2 ffbe e9a5 d4be ed06 e6be e863 9abd
00000040: dedc be3e f794 fdbd 4285 e93e a45b 3abf
00000050: 3c5b ff3d 66c0 1bbf 04ed 86bc d3c1 813e
00000060: 263c 1cbf

classfier.bn3.running_var f4 [25]
0.54387707 0.70093423 0.7190084 1.0357128 0.920734 0.48524454 0.47073737 0.6853697
0.66264796 0.9430806 0.5990115 0.6149137 0.838813 0.6898652 0.46788126 0.9039498
1.1284982 0.87778133 0.84268606 0.6187526 0.53001904 0.6137129 0.8967772 1.0732054
0.7184647
00000000: 873b 0b3f 6d70 333f ef10 383f 3d92 843f
00000010: 39b5 6b3f f971 f83e 7d04 f13e 6374 2f3f
00000020: 4ca3 293f bb6d 713f d158 193f fc6a 1d3f
00000030: 73bc 563f 019b 303f 228e ef3e 4169 673f
00000040: a172 903f 47b6 603f 46ba 573f 9266 1e3f
00000050: 54af 073f 4a1c 1d3f 3193 653f cb5e 893f
00000060: 4ded 373f

classfier.fc5.weight f4 [1, 25]
-0.14242622 -0.18248174 -0.2672979 0.10831098 0.08922542 -0.19332655 -0.13509311 0.08861659
-0.16311549 0.13832423 -0.3078722 -0.12921624 -0.16319096 -0.14800018 -0.30638528 -0.2772749
0.23458676 -0.18842342 0.2086271 -0.26374394 -0.13433169 -0.21098326 -0.2572518 0.13480133
-0.22082813
00000000: 2ed8 11be 7edc 3abe 45db 88be 26d2 dd3d
00000010: d1bb b63d 65f7 45be d955 0abe 9d7c b53d
00000020: bf07 27be dea4 0d3e 6da1 9dbe 4351 04be
00000030: 881b 27be 5c8d 17be 88de 9cbe faf6 8dbe
00000040: 8337 703e 12f2 40be 58a2 553e 7209 87be
00000050: 3f8e 09be ff0b 58be 82b6 83be 5c09 0a3e
00000060: c520 62be
