trained_models/collins_cssa/run_18-20-50/dnn_model_fold_5.pt (torch, 85185 bytes, 19 tensors)

classfier.fc1.weight f4 [100, 100]
0.027256263 -0.022019908 0.066766135 0.05050442 -0.1267333 -0.076301344 0.026982171 -0.021888936
-0.003917652 -0.10282108 0.12318984 -0.0062845633 0.10119344 -0.09429598 0.06078984 0.01256383
-0.09110406 0.00576204 0.10735136 -0.10717237 0.0379262 -0.00175916 0.024730038 0.06648947
0.06579411 0.05348915 0.04495928 -0.032010097 -0.05887679 -0.016811445 -0.041753635 -0.058997575
0.053397126 -0.016928751 -0.07212309 -0.0155084 -0.06914492 -0.022018535 -0.0075233774 -0.060336813
0.09394831 0.018867852 -0.089519225 -0.0030147156 0.057812467 0.0021270085 -0.048863437 0.040066786
-0.014515505 0.04412924 0.028768439 0.06656222 -0.048647378 0.085517146 -0.026558394 0.01318524
-0.059403643 0.04692775 -0.05770926 -0.0039828923 0.06326125 -0.08062735 -0.038843326 -0.028594052
0.05120831 0.076076224 0.05154119 -0.025505029 -0.01082155 -0.044073466 0.06497035 0.047526505
0.021838153 -0.0507608 -0.06830801 0.077122964 -0.027835475 -0.031243937 0.06573972 -0.009144797
-0.04912637 -0.032880455 0.028905733 0.041062944 -0.028065134 0.08221507 -0.10333289 0.03277001
-0.01893163 0.10497485 0.019810004 0.0020665047 0.0020675983 -0.008798255 0.071757555 0.053531915
0.049247675 0.09694422 0.026311478 0.015860977 -0.026968429 0.0327023 -0.041771166 -0.06696663
-0.05842072 0.023779618 -0.018355388 0.07860574 -0.059782594 0.09043901 0.08076841 0.011417382
0.0021313445 -0.08748432 -0.09734548 0.0915379 -0.033699974 0.033829775 0.075817026 -0.068086736
0.046224646 -0.07037093 0.08993665 0.021886759 0.09642189 0.059527222 0.027135765 0.021571133
0.062329 0.047613543 -0.1323619 0.008491154 0.07566613 -0.03751885 -0.10381546 0.055118155
0.000412363 0.043352026 0.034546115 -0.012293505 0.065899774 -0.0033194332 0.105009444 -0.025022916
-0.020185182 0.040311784 0.096583724 -0.061260197 0.014358361 0.09354463 -0.07112286 -0.0007546819
-0.07242283 -0.008817369 -0.0359356 -0.09078451 -0.04571433 0.014741706 -0.038565226 -0.08337817
0.005188246 0.08279 0.021671843 0.053255104 -0.003046601 -0.09092844 0.029304303 -0.03574318
0.04355477 -0.062441956 -0.044484314 -0.051738497 0.035256654 -0.042640265 0.095339395 -0.0017669033
-0.07464558 0.06529237 -0.04492054 0.0269444 0.09026303 0.10019305 -0.08445714 -0.013889268
0.057496253 0.13992651 0.048519775 -0.029351553 0.09924975 -0.043611135 0.008430469 -0.080756724
0.035476718 -0.071213804 -0.007475301 -0.083530955 0.058182556 -0.04379198 0.08243019 -0.065642186
-0.06176738 -0.011375246 -0.011674313 -0.014511534 0.038186908 0.06421984 0.021666784 -0.047386903
0.12364856 0.010192023 -0.03403999 0.07676965 -0.0022130562 -0.05728141 -0.13039356 -0.07621982
0.12092371 0.0025836925 -0.09021458 0.002983695 0.053356938 -0.053373404 -0.07498421 0.050972614
-0.012795465 0.10354662 -0.032564655 0.08503574 -0.07474568 -0.04542053 -0.080867715 0.06552881
0.006090868 -0.05803636 -0.07550862 0.043248188 -0.100047156 0.022197044 -0.05040176 0.019013178
-0.069248706 -0.060589243 0.0019520883 0.026951997 0.07426167 -0.02096648 0.029532012 0.06505402
0.023841424 0.0052098376 -0.038057804 -0.053311143 -0.035472475 0.00914709 0.07838334 -0.060081415
00000000: 8748 df3c 1863 b4bc afbc 883d b9dd 4e3d
00000010: 60c6 01be e143 9cbd b709 dd3c 6d50 b3bc
00000020: a65f 80bb dc93 d2bd f44a fc3d bdee cdbb
00000030: 823e cf3d 401e c1bd c4fe 783d 86d8 4d3c
00000040: c494 babd 7fcf bc3b 08db db3d 307d dbbd
00000050: 8158 1b3d 9d93 e6ba a696 ca3c a22b 883d
00000060: 10bf 863d 7017 5b3d 3927 383d 051d 03bd
00000070: ca28 71bd 28b8 89bc dc05 2bbd 71a7 71bd
00000080: f2b6 5a3d 2aae 8abc 45b5 93bd f216 7ebc
00000090: da9b 8dbd 3760 b4bc aa86 f6bb bc23 77bd
000000a0: f967 c03d c190 9a3c db55 b7bd 8992 45bb
000000b0: c4cc 6c3d 4865 0b3b 0725 48bd 121d 243d
000000c0: 71d2 6dbc ddc0 343d caab eb3c c651 883d
000000d0: 7942 47bd 9d23 af3d fd90 d9bc e806 583c
000000e0: 3c51 73bd 5037 403d 8c60 6cbd ec82 82bb
000000f0: 1d8f 813d f41f a5bd 2e1a 1fbd 133e eabc
00000100: cebf 513d dacd 9b3d db1c 533d ecef d0bc
00000110: df4c 31bc 6186 34bd 2d0f 853d 27ab 423d
00000120: ede5 b23c 8eea 4fbd 12e5 8bbd a5f2 9d3d
00000130: 3907 e4bc 49f3 ffbc 8ca2 863d 0fd4 15bc
00000140: bc38 49bd a8ad 06bd b7cb ec3c 9e31 283d
00000150: dae8 e5bc 6060 a83d 32a0 d3bd d939 063d
00000160: 8116 9bbc 0efd d63d 9748 a23c 326e 073b
00000170: 8b80 073b 8e26 10bc a0f5 923d 4844 5b3d
00000180: eeb7 493d b18a c63d 2b8b d73c e1ee 813c
00000190: e5ec dcbc d9f2 053d 3e18 2bbd cd25 89bd
000001a0: 914a 6fbd 79cd c23c 0a5e 96bc 0cfc a03d
000001b0: 98de 74bd 1638 b93d e869 a53d f90f 3b3c
000001c0: 07ae 0b3b fb2a b3bd 115d c7bd 3978 bb3d
000001d0: fc08 0abd 1791 0a3d f545 9b3d 0f71 8bbd
000001e0: 0e56 3d3d a21e 90bd b530 b83d dc4b b33c
000001f0: d778 c53d d1d2 733d d34b de3c f2b5 b03c
00000200: b24c 7f3d 6b06 433d e189 07be 7b1e 0b3c
00000210: d8f6 9a3d 5ead 19bd 339d d4bd 93c3 613d
00000220: 6d32 d839 e591 313d 3a80 0d3d b26a 49bc
00000230: 76f6 863d d98a 59bb 310f d73d dcfc ccbc
00000240: 655b a5bc f81d 253d b0cd c53d f9eb 7abd
00000250: 553f 6b3c 5494 bf3d dda8 91bd d8d5 45ba
00000260: 6c52 94bd ba76 10bc 3531 13bd 3bed b9bd
00000270: f33e 3bbd 3287 713c 92f6 1dbd 2dc2 aabd
00000280: 2902 aa3b ce8d a93d 2689 b13c 0622 5a3d
00000290: 7ca9 47bb b138 babd 940f f03c 7167 12bd
000002a0: 7d66 323d 23c3 7fbd 2f35 36bd bfeb 53bd
000002b0: 4869 103d 8fa7 2ebd 4d41 c33d 7097 e7ba
000002c0: c8df 98bd 02b8 853d 9afe 37bd 81ba dc3c
000002d0: d3db b83d 0432 cd3d ddf7 acbd d08f 63bc
000002e0: 3181 6b3d e548 0f3e acbc 463d ab72 f0bc
000002f0: 7443 cb3d 97a1 32bd f31f 0a3c c863 a5bd
00000300: 0950 113d 8bd8 91bd 5ff3 f4bb 4712 abbd
00000310: d550 6e3d 385f 33bd 29d1 a83d 696f 86bd
00000320: cbff 7cbd 3d5f 3abc 9e45 3fbc c9c1 6dbc
00000330: e069 1c3d b185 833d 8a7e b13c c518 42bd
00000340: 753b fd3d 71fc 263c 846d 0bbd 6839 9d3d
00000350: ec08 11bb e99f 6abd e485 05be 2319 9cbd
00000360: daa6 f73d 2b53 293b 6cc2 b8bd 188a 433b
00000370: ce8c 5a3d 129e 5abd 5291 99bd a9c8 503d
00000380: 12a4 51bc 4010 d43d 8462 05bd 3827 ae3d
00000390: 4314 99bd e10a 3abd f99d a5bd f833 863d
000003a0: e795 c73b 89b7 6dbd 43a4 9abd 0325 313d
000003b0: 86e5 ccbd 93d6 b53c 1372 4ebd 86c1 9b3c
000003c0: 44d2 8dbd 6d2c 78bd 37dd ff3a 6fca dc3c
000003d0: 8116 983d e5c1 abbc 1eed f13c 0b3b 853d
000003e0: 174f c33c 49b7 aa3b 80e2 1bbd c95c 5abd
000003f0: 964b 11bd addd 153c 7287 a03d ee17 76bd

classfier.fc1.bias f4 [100]
-5.162424e-06 -5.9852814e-06 1.9659788e-06 -2.1490627e-05 5.3690433e-06 -4.0399814e-06 3.2964323e-05 -3.421456e-06
5.352636e-06 4.533074e-06 5.5456694e-06 -0.0001708151 7.0685614e-06 1.5914718e-06 -0.00011826605 -1.5536814e-05
-2.0384314e-06 1.6228219e-06 -4.1862486e-06 2.0009249e-05 9.028315e-05 -6.2127488e-06 -2.2305294e-06 2.5132836e-06
2.1309104e-06 9.603508e-06 6.542765e-07 9.289126e-06 6.207057e-07 2.2953296e-05 2.7659695e-05 5.0965805e-06
-6.131489e-06 -0.00023807617 1.20688155e-05 1.4388144e-05 3.5087553e-05 -6.189058e-06 -9.253887e-05 7.697295e-06
-4.3950455e-05 2.3436858e-06 8.9412424e-08 1.7071291e-06 -6.2271766e-07 4.441916e-06 -3.834372e-06 4.2681895e-06
3.916643e-06 3.3167984e-05 0.00021730852 -3.4044228e-07 8.455056e-07 3.4119535e-06 -1.6783748e-06 3.1243894e-07
1.0746268e-05 9.277712e-06 1.05391755e-05 -3.5613755e-06 2.7735528e-06 -2.447679e-06 1.3065658e-06 1.2254327e-06
-5.7778852e-06 -1.6593096e-05 8.24923e-05 -5.837393e-06 9.046108e-06 3.6684332e-06 1.7889824e-05 -8.1156594e-07
0.0002654835 -0.00014090387 1.1363599e-05 -8.8441244e-05 9.751926e-06 -1.5739818e-07 6.7622495e-06 -5.685301e-06
9.157611e-07 9.99611e-07 -9.122786e-06 1.00769e-05 -1.0114455e-05 -3.552532e-06 -1.4001284e-06 1.2665901e-06
1.1290323e-05 7.797528e-07 2.786981e-06 -0.00023865451 8.155865e-05 -1.342542e-05 -1.1176261e-05 -7.81607e-06
-9.42635e-06 5.62174e-06 5.535764e-06 -8.0598596e-08
00000000: e238 adb6 2dd5 c8b6 42ef 0336 c546 b4b7
00000010: bb27 b436 2d8f 87b6 2c43 0a38 2b9c 65b6
00000020: cb9a b336 cf1a 9836 f014 ba36 d41c 33b9
00000030: 7b2e ed36 8e9a d535 9a05 f8b8 0e55 82b7
00000040: fccb 08b6 bccf d935 9a77 8cb6 89d9 a737
00000050: 6656 bd38 1b77 d0b6 34b0 15b6 e2a9 2836
00000060: c300 0f36 c11e 2137 8aa1 2f35 7ed8 1b37
00000070: 929e 2635 d48b c037 be06 e837 4b03 ab36
00000080: 17bd cdb6 16a4 79b9 2b7b 4a37 9c64 7137
00000090: f92a 1338 9aab cfb6 6d11 c2b8 a123 0137
000000a0: 7157 38b8 3748 1d36 0003 c033 8220 e535
000000b0: d528 27b5 c50b 9536 01a9 80b6 7837 8f36
000000c0: b56b 8336 da1d 0b38 50dd 6339 08c6 b6b4
000000d0: b4f6 6235 eaf8 6436 8544 e1b5 48bd a734
000000e0: df4a 3437 78a7 1b37 6ad1 3037 f7ff 6eb6
000000f0: 4621 3a36 ce42 24b6 425d af35 8c79 a435
00000100: a8df c1b6 6731 8bb7 b7ff ac38 d3de c3b6
00000110: bdc4 1737 342f 7636 1b12 9637 63da 59b5
00000120: 9830 8b39 98bf 13b9 49a6 3e37 8879 b9b8
00000130: 349c 2337 4801 29b4 48e7 e236 5dc4 beb6
00000140: a0d2 7535 5f2a 8635 110e 19b7 f50f 2937
00000150: 41b1 29b7 0968 6eb6 0cec bbb5 b4ff a935
00000160: 916b 3d37 3450 5135 f807 3b36 553f 7ab9
00000170: 780a ab38 bd3d 61b7 ad81 3bb7 c421 03b7
00000180: dd25 1eb7 61a2 bc36 dabf b936 8c15 adb3

classfier.bn1.weight f4 [100]
0.95483613 0.9848598 1.0450718 1.043044 1.0390712 1.0840895 1.0011711 1.0108415
0.97769386 1.0245489 0.99360234 0.97694534 0.9775755 0.9521245 0.9988158 1.0037884
0.95333254 0.96401155 1.0327256 1.0059662 1.015518 0.963231 1.0426755 1.0192057
0.9419303 0.98635435 0.9593667 0.967274 0.9659825 0.98330534 1.0430585 0.9829292
0.97342956 1.0275365 1.041466 0.96081704 1.0261859 0.9920924 0.96513516 0.99052095
1.0438219 0.9846347 0.9787059 0.98866373 0.95357156 0.9426605 0.9481332 0.9700038
0.9811707 1.0376064 0.9740511 0.9665852 0.93227834 0.98456097 1.0041329 0.9908878
1.0240484 0.9472955 0.9666862 0.9810021 1.0443536 0.9883819 1.0002638 1.011312
0.9910189 0.9892413 1.0081009 0.99512696 0.9755992 0.97178876 1.0176603 1.0019617
0.996873 1.0151302 0.97880316 0.99896467 1.0425719 0.95268995 1.0290169 1.0098597
0.9423943 1.0013696 1.0308803 0.99000454 1.027806 1.0084801 0.94378614 0.93226814
1.0058657 0.9794525 1.0408981 0.9851668 1.0096471 0.98183143 1.0328355 1.0417298
1.0075233 0.9756145 0.98269165 0.9488981
00000000: 2470 743f c61f 7c3f eac4 853f 7782 853f
00000010: 4900 853f 72c3 8a3f 6026 803f 4163 813f
00000020: 254a 7a3f 6b24 833f b95c 7e3f 1719 7a3f
00000030: 6342 7a3f 6ebe 733f 64b2 7f3f 237c 803f
00000040: 9a0d 743f 76c9 763f 5a30 843f 80c3 803f
00000050: 7efc 813f 4f96 763f 6476 853f 5575 823f
00000060: 5822 713f b881 7c3f 0e99 753f 459f 773f
00000070: a14a 773f e6b9 7b3f f182 853f 40a1 7b3f
00000080: ae32 793f 5186 833f c24e 853f 1bf8 753f
00000090: 0f5a 833f c4f9 7d3f 1913 773f c892 7d3f
000000a0: f59b 853f 0511 7c3f 788c 7a3f 1119 7d3f
000000b0: 441d 743f 3352 713f dbb8 723f 2b52 783f
000000c0: 012e 7b3f 49d0 843f 6a5b 793f 2172 773f
000000d0: cba9 6e3f 300c 7c3f 6d87 803f d3aa 7d3f
000000e0: 0514 833f f581 723f bf78 773f f422 7b3f
000000f0: 61ad 853f 9906 7d3f a508 803f ac72 813f
00000100: 6ab3 7d3f eb3e 7d3f 7309 813f a4c0 7e3f
00000110: dfc0 793f 26c7 783f b142 823f 4840 803f
00000120: 1233 7f3f c9ef 813f d892 7a3f 26bc 7f3f
00000130: ff72 853f 7de3 733f d3b6 833f 1543 813f
00000140: c140 713f e12c 803f e3f3 833f f070 7d3f
00000150: 268f 833f e015 813f f89b 713f 20a9 6e3f
00000160: 35c0 803f 66bd 7a3f 263c 853f e433 7c3f
00000170: 1e3c 813f 4e59 7b3f f433 843f 6757 853f
00000180: 86f6 803f dfc1 793f ae91 7b3f fcea 723f

classfier.bn1.bias f4 [100]
-0.01337046 -0.05027205 -0.0839384 0.028294584 -0.1270011 -0.03775268 -0.12985697 -0.025352247
-0.06627338 -0.06872153 -0.03292422 -0.02136148 -0.07212693 -0.053791434 -0.031986758 -0.12630251
-0.057929117 -0.0690838 -0.03306234 -0.0710098 -0.08883449 -0.108782135 -0.04571516 -0.117940225
-0.04966274 -0.03047226 -0.022733884 -0.050524022 -0.02427155 -0.112930395 -0.13639037 -0.02097781
-0.09331379 -0.13811356 -0.113452114 -0.09323632 -0.14193879 -0.07254755 -0.041342843 -0.023550166
-0.105872706 -0.044535276 -0.009955633 -0.02964979 -0.03404409 -0.063140765 -0.01017487 -0.0834404
0.013561467 -0.035392497 -0.050645236 -0.06596711 -0.07041863 -0.051278308 -0.0903329 -0.1050151
-0.1650029 -0.024735358 -0.096785076 -0.1154542 -0.010928439 -0.09520055 -0.13404639 -0.041484535
-0.018734563 -0.032140356 -0.13749631 -0.08613028 -0.102936424 -0.07345227 -0.13838471 -0.08367658
-0.024506718 -0.11174404 -0.03933236 -0.10668505 -0.119209364 -0.021095637 -0.11933598 -0.036065135
-0.05235711 -0.09467211 -0.102210164 -0.0965235 -0.14875603 -0.11042879 -0.0981356 -0.060722053
-0.1285768 -0.08665966 0.011253377 -0.044677615 -0.10822331 -0.013698352 -0.08489561 -0.017635968
-0.04051357 -0.08199354 -0.1308424 -0.022201784
00000000: c60f 5bbc 11ea 4dbd e5e7 abbd 0bca e73c
00000010: 940c 02be 8ea2 1abd 3af9 04be 84af cfbc
00000020: 56ba 87bd e0bd 8cbd 8cdb 06bd 45fe aebc
00000030: 49b7 93bd 6854 5cbd 8c04 03bd 7255 01be
00000040: 1547 6dbd cf7b 8dbd 606c 07bd 966d 91bd
00000050: dbee b5bd 2bc9 debd d23f 3bbd a58a f1bd
00000060: 286b 4bbd f6a0 f9bc 693c babc 47f2 4ebd
00000070: 21d5 c6bc 0d48 e7bd eba9 0bbe a8d9 abbc
00000080: 4d1b bfbd a46d 0dbe 9559 e8bd aff2 bebd
00000090: 6758 11be cf93 94bd 1d57 29bd 47ec c0bc
000000a0: cad3 d8bd 9f6a 36bd f41c 23bc 1ee4 f2bc
000000b0: d171 0bbd f24f 81bd 7fb4 26bc cde2 aabd
000000c0: ea30 5e3c b9f7 10bd 6171 4fbd c419 87bd
000000d0: a537 90bd 3409 52bd 7500 b9bd 2812 d7bd
000000e0: 85f6 28be cea1 cabc 4137 c6bd 4073 ecbd
000000f0: 320d 33bc 82f8 c2bd 7543 09be b0eb 29bd
00000100: 3a79 99bc 9ba5 03bd d5cb 0cbe 1265 b0bd
00000110: 55d0 d2bd 256e 96bd b9b4 0dbe a05e abbd
00000120: 50c2 c8bc 0fda e4bd f81a 21bd b17d dabd
00000130: 0a24 f4bd c2d0 acbc 6c66 f4bd 09b9 13bd
00000140: 6974 56bd 74e3 c1bd 9053 d1bd 1dae c5bd
00000150: 8053 18be 7d28 e2bd 51fb c8bd b0b7 78bd
00000160: a3a9 03be 9f7a b1bd 1660 383c e0ff 36bd
00000170: 2fa4 ddbd 0d6f 60bc c0dd adbd 4e79 90bc
00000180: 8ff1 25bd 3bec a7bd 8dfb 05be 84e0 b5bc

classfier.bn1.running_mean f4 [100]
-0.6900091 -0.55172014 0.37408516 -1.5570662 -0.12001993 0.25727686 0.009509089 1.1939499
0.6090289 -0.71607536 -2.844793 -1.2682337 -0.23437916 0.76125443 -1.6652814 -0.0872241
1.6944258 -0.19678791 -1.213215 -0.42365468 0.1258495 -0.35953742 -1.3551244 -0.23005436
1.2676668 -0.7074603 1.9780886 1.7013834 -1.3438939 -0.010773631 -0.100255616 -0.13795386
-0.14666396 -0.21064204 -0.030341558 -0.065538645 0.05770913 0.05041508 -0.33302495 0.33504498
0.0366401 0.36739358 1.3299155 0.79160696 0.7154449 -0.9947338 0.78808516 0.57943773
-0.2752122 -0.7536772 0.11241425 1.6709102 0.16875893 -0.79472166 0.2336213 -0.2779482
0.25031608 0.9695949 -0.23154972 -0.119922854 -1.447547 -0.2643893 -0.4775546 1.7127583
1.5174375 -0.19235288 0.04178001 -0.30857438 -0.12336847 0.09793601 -0.46945572 0.0066247173
1.1723638 -0.019274361 -2.676193 -0.06038291 -0.13160461 0.33000246 -0.35654134 -1.4347194
1.5756092 0.22022656 -0.16655287 -0.07124679 0.08821281 -0.5362885 -0.374606 -1.920025
-0.1347717 -1.9820695 1.2528515 0.44887865 0.42652294 0.11849524 -0.078635246 -0.16953361
1.6477838 -0.575774 -1.0859967 1.1429188
00000000: 70a4 30bf 883d 0dbf 1788 bf3e f24d c7bf
00000010: 02cd f5bd cbb9 833e 03cc 1b3c 5ad3 983f
00000020: 51e9 1b3f b750 37bf 1711 36c0 7b55 a2bf
00000030: 1701 70be 92e1 423f f127 d5bf 8da2 b2bd
00000040: f2e2 d83f c582 49be a14a 9bbf 44e9 d8be
00000050: b1de 003e 4a15 b8be b774 adbf 5f93 6bbe
00000060: e842 a23f 1e1c 35bf 0232 fd3f eec6 d93f
00000070: b704 acbf e283 30bc d152 cdbd c743 0dbe
00000080: 142f 16be 8cb2 57be dc8e f8bc 2039 86bd
00000090: 6960 6c3d 0b80 4e3d 3f82 aabe 048b ab3e
000000a0: ee13 163d 031b bc3e ac3a aa3f c1a6 4a3f
000000b0: 6627 373f e0a6 7ebf f3bf 493f 0856 143f
000000c0: 9de8 8cbe fdf0 40bf 7139 e63d 63e0 d53f
000000d0: 24cf 2c3e e172 4bbf 6c3a 6f3e 3a4f 8ebe
000000e0: 6e29 803e 5f37 783f 5f1b 6dbe 1d9a f5bd
000000f0: 3849 b9bf 095e 87be 0982 f4be aa3b db3f
00000100: 643b c23f 27f8 44be 8421 2b3d 76fd 9dbe
00000110: 9ca8 fcbd ad92 c83d 805c f0be 2814 d93b
00000120: 0410 963f 44e5 9dbc bf46 2bc0 1254 77bd
00000130: 5cc3 06be 15f6 a83e 968c b6be e3a4 b7bf
00000140: 90ad c93f 1283 613e d68c 2abe d6e9 91bd
00000150: eba8 b43d 344a 09bf 5ccc bfbe 61c3 f5bf
00000160: 9801 0abe 74b4 fdbf 705d a03f 6cd3 e53e
00000170: 3761 da3e a2ad f23d 840b a1bd 389a 2dbe
00000180: 94ea d23f ed65 13bf f101 8bbf 2a4b 923f

classfier.bn1.running_var f4 [100]
0.11778917 0.07894106 0.117066145 0.19519289 0.034486577 0.06630626 0.08294397 0.11863132
0.15308766 0.068339676 0.51789635 0.18008658 0.09905616 0.071604714 0.22670645 0.020945938
0.15712844 0.10851685 0.18853222 0.09994905 0.07144612 0.06332178 0.1504834 0.037886523
0.16933408 0.08660731 0.38374183 0.21257794 0.3122158 0.058938436 0.060233433 0.067332365
0.08577046 0.062361408 0.045976385 0.067588784 0.04399696 0.072317794 0.06477488 0.05538347
0.03407042 0.042045478 0.13921455 0.11624972 0.10704221 0.32083032 0.21800138 0.04832485
0.09443482 0.07302364 0.04915702 0.1884613 0.14497462 0.08655967 0.07342545 0.15321279
0.03850383 0.14128374 0.053402737 0.107497066 0.1403209 0.06063405 0.088480115 0.14014485
0.2684954 0.07112642 0.049336553 0.056126017 0.030881204 0.062357005 0.11105841 0.053602654
0.10013804 0.044057604 0.62688553 0.035993252 0.030769223 0.11039724 0.038015015 0.21634799
0.19202352 0.0668839 0.04301589 0.0554392 0.032097384 0.10950868 0.1260737 0.23360342
0.061662577 0.41820523 0.09202303 0.16972394 0.15539785 0.13607842 0.040924203 0.07614884
0.16146699 0.07697907 0.09751167 0.18654753
00000000: 733b f13d daab a13d 60c0 ef3d a5e0 473e
00000010: cc41 0d3d 94cb 873d 87de a93d faf4 f23d
00000020: 03c3 1c3e acf5 8b3d db94 043f 9e68 383e
00000030: f5dd ca3d 7ea5 923d bc25 683e d196 ab3c
00000040: 47e6 203e 153e de3d 970e 413e 16b2 cc3d
00000050: 5852 923d d9ae 813d 5218 1a3e e62e 1b3d
00000060: ea65 2d3e 2c5f b13d cf79 c43e 08ae 593e
00000070: c0da 9f3e 6e69 713d 55b7 763d 8de5 893d
00000080: 6ca8 af3d ad6e 7f3d bc51 3c3d fd6b 8a3d
00000090: 2836 343d 5a1b 943d b1a8 843d c7d9 623d
000000a0: 6d8d 0b3d e137 2c3d 428e 0e3e 5514 ee3d
000000b0: f238 db3d df43 a43e c13b 5f3e 47f0 453d
000000c0: 0b67 c13d 6b8d 953d df58 493d 00fc 403e
000000d0: 3a74 143e 3246 b13d 1560 963d d0e3 1c3e
000000e0: 31b6 1d3d afac 103e d4bc 5a3d 6c27 dc3d
000000f0: 48b0 0f3e 695b 783d 1035 b53d 2282 0f3e
00000100: 3b78 893e baaa 913d 2015 4a3d 65e4 653d
00000110: 94fa fc3c 0f6a 7f3d 9772 e33d 758e 5b3d
00000120: 2c15 cd3d bf75 343d 927b 203f a96d 133d
00000130: bd0f fc3c f317 e23d a2b5 1b3d 548a 5d3e
00000140: d0a1 443e 6dfa 883d 6e31 303d 3714 633d
00000150: 8c78 033d 1646 e03d 7719 013e bc35 6f3e
00000160: e691 7c3d ff1e d63e 9276 bc3d 1dcc 2d3e
00000170: 9d20 1f3e 2458 0b3e 23a0 273d ecf3 9b3d
00000180: 9a57 253e 34a7 9d3d 33b4 c73d 5106 3f3e

classfier.fc2.weight f4 [50, 100]
0.0022060697 -0.055365182 0.102419145 -0.11040408 -0.017215397 0.045082353 -0.03992059 0.10245386
0.006183772 -0.025263153 -0.060166795 -0.030880293 -0.1227096 -0.015998453 -0.027389487 0.01336997
-0.037109267 -0.08648361 -0.0062755346 0.031411555 0.090279825 -0.06991401 -0.110990904 -0.022901926
-0.015834933 0.08456729 -0.055726897 -0.02822429 -0.002314297 -0.1098103 0.0058584684 -0.013471952
0.00034979335 -0.107925914 0.06838499 0.037594467 0.051475115 -0.037808143 -0.10129697 -0.027724802
0.005492104 0.058836024 0.07641916 0.050113544 0.014857727 -0.021275336 -0.051365424 0.03023253
-0.016214643 -0.09612865 -0.041934215 0.039560705 -0.09615555 -0.044550266 0.010717496 0.0032432326
0.04835782 0.1491418 0.014268755 0.024978684 -0.021710737 -0.07098763 -0.08442205 0.14019722
0.019285548 -0.016691979 -0.0038041377 0.0919043 0.0107174255 -0.020716498 -0.005956669 0.06839019
0.047555614 -0.039716903 -0.06733515 -0.07879821 -0.047378987 -0.03819034 0.02343875 0.024405958
-0.07490441 0.012922124 -0.015467009 0.07413824 0.063713394 -0.086568184 0.010420386 -0.08875393
0.0062599583 -0.0029367497 0.098344125 0.011709116 0.054482073 -0.01721652 -0.1104729 0.06626165
0.11733182 0.011971498 0.05283166 0.032683138 -0.007588385 -0.06529596 0.08798301 -0.11007723
-0.00015682439 0.06254718 0.00957131 -0.09171709 -0.07863667 -0.04719786 -0.00832242 0.0057503227
-0.0559343 -0.007222192 -0.09211905 -0.06231932 0.010153774 -0.081630744 0.0086282315 -0.032045018
-0.11706396 -0.09672838 -0.014557408 -0.028783986 0.09103905 0.12018539 -0.12133644 0.031483367
0.0027439408 0.056321215 -0.03013113 -0.06720145 0.052796386 -0.011725099 -0.051644914 -0.1072019
0.012751865 -0.05324372 0.062348012 -0.06725712 -0.054876957 0.075083256 0.0053526917 0.053964246
0.014282902 0.040725425 0.06777716 -0.06455632 -0.005140723 -0.008777128 -0.054253746 0.058156595
0.025238486 -0.012189285 0.023850331 -0.03076104 -0.07293445 0.08401934 -0.070563726 -0.06760568
-0.12618874 -0.026774334 -0.054453153 0.04952589 0.038208734 -0.030356305 -0.028629104 0.035270743
-0.08925288 -0.048764244 -0.024269957 -0.08138648 -0.102104224 -0.08690239 -0.016924147 0.03820747
0.03957203 -0.027634291 0.006025162 0.03941088 -0.0004919967 -0.011952645 -0.024608376 -0.06820195
-0.06407988 -0.11335945 -0.016878305 -0.002691309 0.059260976 0.034681197 -0.015987288 0.0034983836
-0.023738297 0.027855832 -0.05663643 0.003442264 -0.032452688 -0.041954216 -0.0076959576 -0.043725774
-0.041841213 -0.04399056 0.1412625 0.01966124 0.10233318 -0.013682918 0.0044898475 -0.037117332
0.020872243 -0.025886152 0.03726172 -0.031227207 0.08848122 -0.0108225 -0.056803383 0.102853775
-0.015834885 0.09423505 0.034189466 0.0035913007 0.07675534 0.0014877832 -0.019038184 0.11712938
-0.042706262 -0.025636913 -0.02105991 -0.035367046 0.07363243 0.010414893 0.06617621 0.007807521
0.09988543 0.10060262 0.090280935 -0.045122974 0.059393223 0.084071755 0.025670754 -0.0051273587
0.113041036 -0.016103208 -0.06320977 0.09184994 0.018466264 -0.008952872 0.021306159 -0.014126405
-0.06613237 0.13272633 0.07522657 -0.0014495206 -0.00028558073 0.09704777 0.031004254 0.03745724
00000000: b593 103b 9ac6 62bd 21c1 d13d 891b e2bd
00000010: 4e07 8dbc 46a8 383d c683 23bd 54d3 d13d
00000020: 3da1 ca3b acf4 cebc 7571 76bd abf8 fcbc
00000030: 2c4f fbbd 300f 83bc eb5f e0bc b80d 5b3c
00000040: e3ff 17bd 521e b1bd 00a3 cdbb 67a9 003d
00000050: a1e4 b83d 142f 8fbd 334f e3bd d29c bbbc
00000060: 43b8 81bc 9e31 ad3d e341 64bd a036 e7bc
00000070: 76ab 17bb 39e4 e0bd 65f8 bf3b 76b9 5cbc
00000080: 7864 b739 4308 ddbd 6e0d 8c3d a8fc 193d
00000090: 92d7 523d b6dc 1abd c974 cfbd 201f e3bc
000000a0: 1cf7 b33b 0bfe 703d a681 9c3d dc43 4d3d
000000b0: d36d 733c 9d49 aebc 8d64 52bd 36aa f73c
000000c0: 92d4 84bc 19df c4bd 36c3 2bbd 680a 223d
000000d0: 33ed c4bd 577a 36bd 7098 2f3c 6a8c 543b
000000e0: d912 463d a1b8 183e 7fc7 693c 19a0 cc3c
000000f0: b7da b1bc f661 91bd 78e5 acbd dc8f 0f3e
00000100: bafc 9d3c 9ebd 88bc d74e 79bb 5238 bc3d
00000110: 2498 2f3c a5b5 a9bc 2930 c3bb 2810 8c3d
00000120: adc9 423d 31ae 22bd 03e7 89bd f560 a1bd
00000130: 7810 42bd 796d 1cbd 9f02 c03c 01ef c73c
00000140: 7c67 99bd 51b7 533c 5669 7dbc cad5 973d
00000150: 2b7c 823d a94a b1bd 44ba 2a3c 9fc4 b5bd
00000160: 5620 cd3b 7c76 40bb a568 c93d 98d7 3f3c
00000170: 9828 5f3d a909 8dbc 9e3f e2bd 30b4 873d
00000180: aa4b f03d 1a24 443c 0366 583d c1de 053d
00000190: fda7 f8bb e3b9 85bd 7030 b43d 2c70 e1bd
000001a0: 3a71 24b9 bc18 803d fcd0 1c3c 2bd6 bbbd
000001b0: 430c a1bd 8b52 41bd c25a 08bc 346d bc3b
000001c0: 5d1b 65bd 23a8 ecbb eaa8 bcbd 8b42 7fbd
000001d0: 045c 263c 052e a7bd 6d5d 0d3c a341 03bd
000001e0: 3bbf efbd 8719 c6bd 3282 6ebc 65cc ebbc
000001f0: ae72 ba3d c223 f63d 3d7f f8bd b4f4 003d
00000200: b0d3 333b 13b1 663d 8fd5 f6bc eaa0 89bd
00000210: 0641 583d a11a 40bc 9e89 53bd ab8c dbbd
00000220: 33ed 503c 1616 5abd a160 7f3d 1abe 89bd
00000230: a9c6 60bd 40c5 993d a265 af3b 9d09 5d3d
00000240: d502 6a3c b4cf 263d c0ce 8a3d 1b36 84bd
00000250: 8373 a8bb f1cd 0fbc 2d39 5ebd 9c35 6e3d
00000260: f1c0 ce3c 91b5 47bc c561 c33c 94fe fbbc
00000270: a85e 95bd 5512 ac3d b783 90bd d974 8abd
00000280: 9f37 01be d955 dbbc 450a 5fbd a9db 4a3d
00000290: c380 1c3d c9ad f8bc 9587 eabc 0e78 103d
000002a0: 37ca b6bd 04bd 47bd cad1 c6bc f4ad a6bd
000002b0: 051c d1bd e1f9 b1bd 82a4 8abc 707f 1c3d
000002c0: 4816 223d 4f61 e2bc b96e c53b 4e6d 213d
000002d0: 57f9 00ba 07d5 43bc 8197 c9bc 77ad 8bbd
000002e0: 503c 83bd 0029 e8bd 5f44 8abc ac60 30bb
000002f0: a3bb 723d df0d 0e3d c6f7 82bc 2345 653b
00000300: d176 c2bc ea31 e43c 9afb 67bd 9b97 613b
00000310: 1ced 04bd 2fd8 2bbd 5f2e fcbb cc19 33bd
00000320: b161 2bbd 722f 34bd 1ea7 103e 9c10 a13c
00000330: 0f94 d13d 512e 60bc 921f 933b 5808 18bd
00000340: 44fc aa3c 320f d4bc bf9f 183d 33d0 ffbc
00000350: a435 b53d db50 31bc aaaa 68bd 00a5 d23d
00000360: 29b8 81bc 4efe c03d 410a 0c3d 075c 6b3b
00000370: e731 9d3d b801 c33a f7f5 9bbc 87e1 ef3d
00000380: c3ec 2ebd 8104 d2bc d585 acbc 09dd 10bd
00000390: 99cc 963d 3aa3 2a3c 6587 873d 3cd6 ff3b
000003a0: bb90 cc3d bf08 ce3d 36e5 b83d ded2 38bd
000003b0: 4f46 733d d02d ac3d 794b d23c 6703 a8bb
000003c0: 0f82 e73d e0ea 83bc 2074 81bd d21b bc3d
000003d0: 9046 973c 11af 12bc 418a ae3c 7072 67bc
000003e0: 6870 87bd 69e9 073e 6310 9a3d d7fd bdba
000003f0: ffb9 95b9 fbc0 c63d a2fc fd3c c36c 193d

classfier.fc2.bias f4 [50]
3.1891175e-06 9.463163e-07 -8.573935e-06 -6.486494e-06 1.5136565e-06 -4.5925623e-05 0.00020692492 4.0345026e-06
3.587444e-07 7.344015e-08 1.1083899e-06 2.9734615e-06 -2.5040365e-06 2.3580062e-06 -5.6750073e-06 4.481525e-07
-1.0483027e-05 9.2783193e-07 -4.6526744e-05 0.00017846494 3.661212e-06 -2.6750927e-06 9.0526754e-08 -0.0002330978
7.642091e-06 -3.5422302e-06 -2.005122e-06 -2.004494e-06 1.4181196e-06 3.1514674e-07 2.3192363e-06 2.5312758e-07
-3.9157485e-06 6.7360736e-07 2.007926e-06 -3.5509368e-06 6.970559e-07 -1.4170174e-06 -1.4278547e-06 -4.1938057e-07
-1.4268849e-06 2.343055e-06 2.4868402e-06 2.162483e-06 1.5065048e-06 6.8282345e-05 4.671775e-06 5.284155e-07
-8.423326e-07 4.6017285e-06
00000000: 9f04 5636 5c06 7e35 c5d8 0fb7 8fa6 d9b6
00000010: d728 cb35 43a0 40b8 fcf9 5839 1d60 8736
00000020: 7499 c034 26b6 9d33 fdc3 9435 ae8b 4736
00000030: 050b 28b6 3d3e 1e36 f16b beb6 9c99 f034
00000040: 42e0 2fb7 2010 7935 b625 43b8 5122 3b39
00000050: 25b3 7536 be85 33b6 9c67 c233 b76b 74b9
00000060: 8836 0037 0db7 6db6 bc8f 06b6 f284 06b6
00000070: 3856 be35 7031 a934 2da4 1b36 97e5 8734
00000080: 0664 83b6 f2d1 3435 e8bf 0636 a14c 6eb6
00000090: 511d 3b35 5930 beb5 b7a4 bfb5 3a27 e1b4
000000a0: 6483 bfb5 613d 1d36 97e3 2636 2d1f 1136
000000b0: 1c33 ca35 ce32 8f38 3ec2 9c36 70d8 0d35
000000c0: a81c 62b5 8c68 9a36

classfier.bn2.weight f4 [50]
1.0699503 0.96907514 1.0291581 0.9483311 0.90435493 0.9689122 1.0393332 1.0349398
0.971399 0.9389203 1.0079298 1.0043302 0.9798695 0.9484877 1.0337436 0.9939122
0.9755358 1.0651282 0.9928988 1.0742505 0.99461305 1.0009464 0.94349515 1.0490235
0.9905737 0.9788206 0.9898526 0.9633414 0.934145 0.93134385 1.0095147 1.0462624
1.0294992 1.011327 1.0232093 0.9833422 0.93730646 0.9541141 1.0882068 1.028352
0.95818555 1.0431495 0.9254586 0.9739244 0.9461175 1.069995 1.0326239 0.9111259
0.93546414 0.986535
00000000: 22f4 883f 4f15 783f 74bb 833f d4c5 723f
00000010: ce83 673f a10a 783f df08 853f e878 843f
00000020: 9bad 783f 155d 703f d803 813f e48d 803f
00000030: bad8 7a3f 17d0 723f b651 843f 0871 7e3f
00000040: b7bc 793f 1f56 883f 9e2e 7e3f 0a81 893f
00000050: f69e 7e3f 031f 803f e688 713f 6746 863f
00000060: 3d96 7d3f fd93 7a3f fb66 7d3f 8b9d 763f
00000070: 2024 6f3f 8d6c 6e3f c737 813f edeb 853f
00000080: a1c6 833f 2a73 813f 86f8 823f 50bc 7b3f
00000090: 51f3 6f3f d240 743f 5c4a 8b3f 0aa1 833f
000000a0: a64b 753f ec85 853f dbea 6c3f 1c53 793f
000000b0: c234 723f 99f5 883f 052d 843f 8c3f 693f
000000c0: 947a 6f3f 8f8d 7c3f

classfier.bn2.bias f4 [50]
0.044352833 0.014432036 -0.14686628 -0.021479681 -0.093037486 -0.0074055744 -0.111342475 -0.112676114
-0.02243301 -0.07742429 -0.023903951 -0.113160506 0.01908553 -0.04975267 -0.006285148 -0.044165533
-0.10037934 -0.11942467 0.05990017 -0.0964933 0.0113568865 0.021775872 -0.022122797 -0.11796322
-0.091501914 -0.013331873 0.032375656 -0.081299335 -0.1404973 -0.09527037 -0.11158305 -0.13785201
-0.097147696 -0.0854204 -0.10675647 -0.013089942 -0.08311614 -0.0805141 0.04432687 -0.00035780735
-0.059898406 0.029145079 -0.053680416 0.014905011 -0.04732773 0.06818347 0.0017970942 -0.0770489
-0.08641809 -0.05442154
00000000: 51ab 353d 5974 6c3c 1d64 16be 28f6 afbc
00000010: 708a bebd 76aa f2bb 8607 e4bd bcc2 e6bd
00000020: 6fc5 b7bc a090 9ebd 38d2 c3bc b2c0 e7bd
00000030: 4259 9c3c 75c9 4bbd a5f3 cdbb ebe6 34bd
00000040: af93 cdbd ec94 f4bd e159 753d 479e c5bd
00000050: 3c12 3a3c 5063 b23c de3a b5bc b396 f1bd
00000060: 5b65 bbbd ee6d 5abc 569c 043d 4480 a6bd
00000070: 86de 0fbe 1d1d c3bd a785 e4bd 1429 0dbe
00000080: 5ff5 c6bd e4f0 aebd 23a3 dabd 3277 56bc
00000090: cb38 aabd 94e4 a4bd 1890 353d 1798 bbb9
000000a0: 0858 75bd a9c1 ee3c ffdf 5bbd 2634 743c
000000b0: b9da 41bd c6a3 8b3d 7a8c eb3a d0cb 9dbd
000000c0: f8fb b0bd 1fe9 5ebd

classfier.bn2.running_mean f4 [50]
-0.10473588 -0.5853019 0.80615723 -0.6005379 0.5690481 0.5465758 0.90733814 0.9320732
-0.11672742 0.5471038 0.19245487 0.79860365 -0.8492953 0.17734437 -0.25423726 -0.21465303
0.79827523 0.93492216 -0.42081267 0.9930543 -0.7003 -0.44551593 -0.50742924 0.8105084
0.627157 0.036893763 -0.670881 0.6830351 0.6401224 0.13768452 0.77904314 1.0011708
0.85833025 0.7878903 0.9364205 -0.35075146 0.4460027 0.42852855 -0.48734167 0.07204435
0.26577726 -0.77876997 0.35335225 -0.12116334 -0.54282296 -0.7658243 -0.550301 0.3994669
0.5533484 0.6510501
00000000: c47f d6bd 58d6 15bf 5260 4e3f dabc 19bf
00000010: 23ad 113f 64ec 0b3f 5047 683f 599c 6e3f
00000020: c90e efbd ff0e 0c3f e412 453e 4a71 4c3f
00000030: 6b6b 59bf c399 353e 632b 82be 01ce 5bbe
00000040: c45b 4c3f 0f57 6f3f c274 d7be ce38 7e3f
00000050: dc46 33bf aa1a e4be e2e6 01bf 7a7d 4f3f
00000060: 5c8d 203f ea1d 173d dbbe 2bbf 63db 2e3f
00000070: 10df 233f 2cfd 0c3e 5f6f 473f 5d26 803f
00000080: 88bb 5b3f 2eb3 493f 41b9 6f3f b295 b3be
00000090: 775a e43e 1868 db3e d984 f9be fd8b 933d
000000a0: f513 883e 785d 47bf 96ea b43e 7c24 f8bd
000000b0: 72f6 0abf 100d 44bf 87e0 0cbf ed86 cc3e
000000c0: 3ea8 0d3f 38ab 263f

classfier.bn2.running_var f4 [50]
0.442721 0.2748431 0.54448 0.28505877 0.29530805 0.3913555 0.49884436 0.5364303
0.31513387 0.2300374 0.38127336 0.39962938 0.29551628 0.2703124 0.29326302 0.23767953
0.4597898 0.62446505 0.40435186 0.46423095 0.37734523 0.26717782 0.29024172 0.43757835
0.37567714 0.34559062 0.4008414 0.4624079 0.32755005 0.2367888 0.47855493 0.49009702
0.5043016 0.49681723 0.41524762 0.331735 0.26367268 0.37486443 0.39287275 0.30818823
0.46106791 0.33030558 0.242737 0.57226163 0.34505224 0.35476863 0.43066218 0.22791752
0.34524545 0.40396008
00000000: 54ac e23e 3cb8 8c3e 0b63 0b3f 39f3 913e
00000010: 9e32 973e c05f c83e 8768 ff3e 7f53 093f
00000020: 3a59 a13e ed8e 6b3e 4336 c33e 399c cc3e
00000030: e94d 973e 6366 8a3e 9226 963e 4362 733e
00000040: 9269 eb3e f1dc 1f3f 3507 cf3e aeaf ed3e
00000050: 6533 c13e 88cb 883e 909a 943e 450a e03e
00000060: c158 c03e 41f1 b03e 153b cd3e bac0 ec3e
00000070: a4b4 a73e c378 723e 2705 f53e ffed fa3e
00000080: e919 013f d45e fe3e 569b d43e 2bd9 a93e
00000090: 1b00 873e 3bee bf3e 9e26 c93e d9ca 9d3e
000000a0: 1811 ec3e d01d a93e 0c90 783e bd7f 123f
000000b0: b0aa b03e 3ca4 b53e c17f dc3e 3663 693e
000000c0: 03c4 b03e dbd3 ce3e

classfier.fc3.weight f4 [25, 50]
-0.1650958 -0.0075064604 -0.12645978 0.03888628 -0.14295687 0.02252786 -0.12066999 -0.025847873
-0.17809814 0.08314226 -0.08303252 -0.08244282 -0.07968569 0.050615616 0.13496011 0.1814839
0.009213259 -0.11344969 0.05524101 -0.07873329 -0.084788226 -0.0009395494 0.01487299 -0.09345842
-0.024921326 -0.21948013 -0.03438414 -0.09010837 -0.10968364 0.06419564 -0.119142056 -0.08911559
-0.038365766 0.0067824097 -0.09236937 -0.09062451 -0.010770091 0.04889833 0.08460403 0.1331429
-0.0007226798 -0.07925754 -0.10823327 -0.14579235 -0.089468814 -0.09390225 0.12379029 0.0664676
0.020007012 -0.07471518 -0.08172605 0.0062337103 0.12667759 -0.016698493 0.082793996 0.034644134
-0.027618196 0.17179367 -0.07705351 -0.0012334732 0.0024793472 -0.012617344 0.041157313 -0.018057792
-0.06502071 -0.06976263 -0.006685756 0.12741695 0.016711544 0.11403301 0.00977714 -0.066646226
0.027883103 0.070450164 -0.004750388 0.050828602 -0.0602681 0.06136099 0.11631814 0.06329909
0.15496972 -0.021350902 0.1036142 0.12398882 0.08556546 -0.046742387 0.08496165 0.02967028
-0.052964434 -0.07475663 0.11397052 -0.09534197 0.08381588 -0.10007851 -0.03151764 -0.0015753965
-0.045395747 0.116749585 -0.06133011 -0.004261422 0.079648994 0.1039058 -0.1244313 0.0650621
0.046974994 -0.14658484 -0.16743468 0.0047493484 0.0008134484 0.031510945 -0.05573573 -0.07213607
0.103863515 -0.08485378 -0.14365326 0.051967338 -0.10755673 -0.117997155 0.019310102 -0.08089617
-0.052701287 0.084730946 0.112296805 -0.10419855 -0.076197036 0.031406295 0.13441579 -0.13603354
-0.07043924 -0.029337956 -0.086065926 -0.04031893 0.0183255 0.03807062 -0.042587917 -0.14056171
0.018814389 -0.007164525 -0.17145404 -0.12513405 0.03837372 0.030984495 0.04111398 -0.03210075
-0.040088702 0.09619633 -0.14127623 0.041946445 0.04741151 -0.17139213 -0.0441043 -0.08979154
0.1554956 0.052968793 0.06945829 -0.0011193568 0.16819383 0.14012325 0.00873388 0.07085027
0.027496511 -0.0042988905 0.0984711 -0.03359743 -0.112912305 -0.10499077 0.17727958 0.13247696
-0.014368916 0.03295245 0.005738414 -0.04977307 0.06485362 0.006231118 0.10276051 0.032465573
0.023322038 0.121833794 -0.033959065 0.039682053 0.043130632 0.06649835 0.19155006 -0.023310162
0.12586513 -0.08784319 0.1427742 -0.0010313259 -0.01700868 -0.053676657 0.08841782 -0.07140366
0.08280307 0.04402538 -0.022049807 -0.08846724 -0.042787444 0.0098012425 -0.052436676 -0.023046061
0.034847874 -0.087861195 -0.12627767 0.0039850594 0.033782393 -0.030649858 -0.1244604 0.037271533
0.0013469376 -0.115880035 -0.13310872 0.024513613 0.02793894 -0.16206294 0.06876413 -0.0013121503
0.0061396626 -0.11552784 0.028845718 -0.09637338 0.046663705 -0.1310464 -0.007283827 0.0015487999
-0.06758656 0.10347446 0.10782233 -0.13706845 -0.025223907 0.08713445 -0.009159659 0.014454314
-0.124279924 -0.15061375 -0.08137069 -0.09731151 -0.058979876 -0.07960032 -0.08291691 -0.20130186
-0.10668118 0.08668488 0.072479874 0.051598225 -0.0464899 -0.10074308 -0.03315839 -0.126083
-0.13178365 -0.109347016 -0.30343607 0.120033994 0.0075840657 0.14788397 -0.05977794 -0.0070810323
00000000: e00e 29be c1f8 f5bb ac7e 01be 3847 1f3d
00000010: 4963 12be 598c b83c d421 f7bd ebbe d3bc
00000020: 5c5f 36be 7d46 aa3d f40c aabd c8d7 a8bd
00000030: 4032 a3bd 5252 4f3d fc32 0a3e ead6 393e
00000040: 36f3 163c 5058 e8bd 6644 623d eb3e a1bd
00000050: 73a5 adbd 184c 76ba d7ad 733c 2167 bfbd
00000060: cf27 ccbc 66bf 60be 62d6 0cbd bd8a b8bd
00000070: d1a1 e0bd 0179 833d c000 f4bd 3c82 b6bd
00000080: 6c25 1dbd fa3e de3b 272c bdbd 5899 b9bd
00000090: 0975 30bc 9e49 483d e144 ad3d 9d56 083e
000000a0: 3872 3dba c751 a2bd 68a9 ddbd 974a 15be
000000b0: 6d3b b7bd d34f c0bd c385 fd3d 2a20 883d
000000c0: bfe5 a33c 4604 99bd fd5f a7bd 2744 cc3b
000000d0: c5b7 013e 47cb 88bc e68f a93d 02e7 0d3d
000000e0: 8e3f e2bc aeea 2f3e 3bce 9dbd 7eac a1ba
000000f0: 8b7c 223b fab8 4ebc 9294 283d efed 93bc
00000100: 9429 85bd b6df 8ebd 3014 dbbb 9779 023e
00000110: a6e6 883c 248a e93d 4c30 203c d17d 88bd
00000120: 1b6b e43c 2d48 903d 25a9 9bbb a731 503d
00000130: afdb 76bd a955 7b3d 3438 ee3d f4a2 813d
00000140: 62b0 1e3e 16e8 aebc af33 d43d daed fd3d
00000150: f23c af3d f274 3fbd 6000 ae3d 160f f33c
00000160: 3cf1 58bd 011a 99bd 6069 e93d a742 c3bd
00000170: a9a7 ab3d f6f5 ccbd a418 01bd 897d ceba
00000180: e4f0 39bd 681a ef3d 4835 7bbd 66a3 8bbb
00000190: 031f a33d 90cc d43d d6d5 febd 473f 853d
000001a0: da68 403d 561a 16be ff73 2bbe 6ca0 9b3b
000001b0: 993d 553a 9f11 013d 264b 64bd 13bc 93bd
000001c0: 65b6 d43d d2c7 adbd d719 13be b4db 543d
000001d0: b446 dcbd 7ea8 f1bd 3830 9e3c e4ac a5bd
000001e0: 4edd 57bd 6b87 ad3d defb e53d 0d66 d5bd
000001f0: 310d 9cbd e3a3 003d 4ba4 093e 604c 0bbe
00000200: 7342 90bd 2756 f0bc 5543 b0bd 7625 25bd
00000210: 5c1f 963c f0ef 1b3d ab70 2ebd 69ef 0fbe
00000220: a220 9a3c 64c4 eabb a691 2fbe 2423 00be
00000230: c32d 1d3d 32d3 fd3c 2267 283d 137c 03bd
00000240: 0d34 24bd 9502 c53d b7aa 10be 09d0 2b3d
00000250: 9232 423d 6b81 2fbe b6a6 34bd a0e4 b7bd
00000260: 3d3a 1f3e cef5 583d 2640 8e3d 62b7 92ba
00000270: 013b 2c3e 787c 0f3e 8c18 0f3c f219 913d
00000280: 5d40 e13c b5dd 8cbb 37ab c93d 759d 09bd
00000290: 913e e7bd 6705 d7bd c788 353e 0aa8 073e
000002a0: 9a6b 6bbc 26f9 063d 4e09 bc3b d9de 4bbd
000002b0: fad1 843d 682e cc3b 1a74 d23d 9ffa 043d
000002c0: dc0d bf3c ff83 f93d a918 0bbd a689 223d
000002d0: bfa9 303d 4930 883d b325 443e f4f4 bebc
000002e0: cae2 003e 21e7 b3bd 6633 123e 8e2d 87ba
000002f0: ca55 8bbc 0edc 5bbd 6714 b53d 153c 92bd
00000300: a894 a93d f553 343d cca1 b4bc 502e b5bd
00000310: e341 2fbd 6495 203c d7c7 56bd 18cb bcbc
00000320: a5bc 0e3d 92f0 b3bd ef4e 01be 1a95 823b
00000330: 685f 0a3d 6915 fbbc 18e5 febd 09aa 183d
00000340: ba8b b03a 8352 edbd a74d 08be c6d0 c83c
00000350: 34e0 e43c d4f3 25be 35d4 8c3d 75fc abba
00000360: 392f c93b dc99 ecbd db4d ec3c 685f c5bd
00000370: 7122 3f3d 0731 06be 2bad eebb 1a01 cb3a
00000380: d36a 8abd 6bea d33d f4d1 dc3d ac5b 0cbe
00000390: 5ea2 cebc 8c73 b23d 6512 16bc c9d1 6c3c
000003a0: 7986 febd 7e3a 1abe ada5 a6bd 424b c7bd
000003b0: e294 71bd 7e05 a3bd 57d0 a9bd 1322 4ebe
000003c0: aa7b dabd d887 b13d 5470 943d a958 533d
000003d0: 326c 3ebd 6352 cebd 18d1 07bd e71b 01be
000003e0: 4bf2 06be 54f1 dfbd f95b 9bbe 62d4 f53d
000003f0: c183 f83b e56e 173e b7d9 74bd 0108 e8bb

classfier.fc3.bias f4 [25]
-0.0004019441 0.0016395377 -3.0012527e-05 -2.1369556e-07 -1.3385428e-05 -0.0032843752 0.005238164 0.0023906108
-0.00015593357 -2.9861745e-05 -1.6726977e-07 -0.00060690293 -0.0014652581 1.2043333e-07 -0.0020717327 -2.1320824e-05
1.27628955e-05 4.4990185e-05 -0.0016363245 6.168203e-06 0.0004784607 1.6601724e-07 -0.00070120295 1.2911245e-05
0.0055682077
00000000: 06bc d2b9 c2e5 d63a 69c3 fbb7 3074 65b4
00000010: fa91 60b7 ac3e 57bb e8a4 ab3b cbab 1c3b
00000020: 1982 23b9 9c7f fab7 c49a 33b4 9118 1fba
00000030: e70d c0ba 7650 0134 e8c5 07bb 1fda b2b7
00000040: 3820 5637 d8b3 3c38 f079 d6ba 76f8 ce36
00000050: e8d9 fa39 7942 3234 efd0 37ba 609d 5837
00000060: 8375 b63b

classfier.bn3.weight f4 [25]
1.2544035 1.0530659 1.2032291 1.0538756 1.2351037 1.2003076 1.1131165 1.2173653
1.0319939 1.2185841 1.0768952 1.2790363 1.056003 1.0357449 1.0683588 1.0928512
1.2063437 1.2105173 1.2466049 1.2679129 1.0321296 1.0851872 1.2350891 1.2271862
1.2080332
00000000: 4b90 a03f ddca 863f 6903 9a3f 65e5 863f
00000010: e117 9e3f aea3 993f 9a7a 8e3f a0d2 9b3f
00000020: 6018 843f 90fa 9b3f b4d7 893f 76b7 a33f
00000030: 1b2b 873f 4a93 843f fbbf 883f 8ce2 8b3f
00000040: 7869 9a3f 3bf2 9a3f c090 9f3f f84a a23f
00000050: d31c 843f 6ae7 8a3f 6617 9e3f 7014 9d3f
00000060: d5a0 9a3f

classfier.bn3.bias f4 [25]
0.26382202 -0.044748113 0.20743543 -0.04287994 0.240374 0.20538239 -0.033121876 0.21831195
-0.051111434 0.22051705 -0.04257355 0.2832246 -0.036331553 -0.04265714 -0.046567198 -0.03654471
0.20096299 0.22373812 0.24861182 0.2707833 -0.047314215 -0.032182414 0.23470858 0.23552237
0.20534822
00000000: ae13 873e cc49 37bd f469 543e e0a2 2fbd
00000010: 9a24 763e c34f 523e ceaa 07bd 2b8d 5f3e
00000020: 395a 51bd 39cf 613e 9a61 2ebd d102 913e
00000030: 65d0 14bd 41b9 2ebd 3fbd 3ebd e8af 15bd
00000040: 3ec9 4d3e 9b1b 653e 1994 7e3e 1ca4 8a3e
00000050: 8dcc 41bd b5d1 03bd 7257 703e c72c 713e
00000060: ce46 523e

classfier.bn3.running_mean f4 [25]
-0.61873686 0.29072475 -0.45795172 0.42508817 -0.7101973 -0.12563778 0.49630934 -0.5247642
0.13923225 -0.81410354 0.37817362 -0.48913124 0.30977798 0.40120572 0.285683 0.29533494
-0.56987745 -0.78706217 -0.7922555 -0.67644095 0.14487004 0.4752041 -0.7829494 -0.6922209
0.031409465
00000000: 8a65 1ebf e0d9 943e a678 eabe 28a5 d93e
00000010: 7ecf 35bf 31a7 00be 421c fe3e f256 06bf
00000020: e692 0e3e 1769 50bf f99f c13e 696f fabe
00000030: 389b 9e3e d66a cd3e 0b45 923e 2436 973e
00000040: 7de3 11bf e87c 49bf 42d1 4abf 3c2b 2dbf
00000050: d058 143e f44d f33e 5f6f 48bf 6435 31bf
00000060: 36a7 003d

classfier.bn3.running_var f4 [25]
0.96839976 1.1989678 1.1554841 1.3996217 1.0967773 0.78167903 1.7607435 0.8607026
1.1282696 0.6344551 1.4733961 1.2447702 1.072511 1.3429658 1.4555817 1.3862603
0.7758663 1.0154155 1.369171 0.84845656 1.0188279 1.3957864 1.4621845 0.8637294
0.74465525
00000000: 0ce9 773f c777 993f e7e6 933f ce26 b33f
00000010: 3363 8c3f 1e1c 483f 0b60 e13f 0157 5c3f
00000020: 236b 903f a66b 223f 3e98 bc3f a154 9f3f
00000030: 0a48 893f 4ee6 ab3f 8050 ba3f fa70 b13f
00000040: 2d9f 463f 23f9 813f ff40 af3f 7334 593f
00000050: f468 823f 21a9 b23f dd28 bb3f 5f1d 5d3f
00000060: baa1 3e3f

classfier.fc5.weight f4 [1, 25]
-0.22095922 0.18803276 -0.36564353 0.13652052 -0.24800289 -0.16118142 0.18788059 -0.34416154
0.22787324 -0.2616991 0.2401761 -0.25564587 0.09674056 0.12848407 0.16903599 0.274364
-0.33827853 -0.25941035 -0.21737427 -0.20585078 0.20760429 0.14229132 -0.1840043 -0.25828823
-0.38088405
00000000: 2243 62be a98b 403e a135 bbbe 09cc 0b3e
00000010: 78f4 7dbe be0c 25be c563 403e f135 b0be
00000020: 9a57 693e 6dfd 85be b9f0 753e 04e4 82be
00000030: ea1f c63d 5491 033e c517 2d3e 7079 8c3e
00000040: d832 adbe 6fd1 84be 5c97 5ebe 8cca 52be
00000050: 3896 543e d1b4 113e a06b 3cbe 5b3e 84be
00000060: 3c03 c3be
