trained_models/biogrid/run_04-11-26/dnn_model_fold_5.pt (torch, 89665 bytes, 19 tensors)

classfier.fc1.weight f4 [100, 100]
000000 45 3a f0 3d a6 cd 18 3d 42 fc 47 bd 5e 7c 59 3c
       0.11729864 0.037305497 -0.048824556 0.01327428
000010 76 48 22 3c ca d0 85 3d 3f b4 eb bd 23 69 60 3d
       0.009904971 0.06533964 -0.115089886 0.054787766
000020 b7 84 4e bd d0 e3 0c bd b7 e7 85 3c 23 13 a2 bd
       -0.050419535 -0.034396946 0.016345842 -0.07913806
000030 0d 93 59 bc b4 7a 22 bd 54 8c 95 3d 53 24 0d bd
       -0.013279689 -0.0396678 0.07302156 -0.03445847
000040 85 5c 44 bd a0 fb 52 3a 1a 77 1e bd f4 54 05 3e
       -0.047939796 0.00080483593 -0.038687803 0.13020688
000050 51 47 4b bd f3 92 10 3e da 04 8d bb a4 80 83 bd
       -0.04962856 0.14118557 -0.004303557 -0.064210206
000060 3c c8 e9 3b 8d 28 3c 3d 5f e9 77 bd 4a 84 07 bd
       0.0071344655 0.04593711 -0.060525294 -0.033085145
000070 c6 ef 9b bc 10 f4 b0 bd e7 ed 85 bd 4d 4e ce bb
       -0.019035231 -0.08640301 -0.06539517 -0.0062959553
000080 c4 89 85 bc e6 06 39 3d c8 a3 6b 3d 7d 9a 4a 3c
       -0.016301043 0.045172594 0.05752924 0.012365934
000090 b0 75 aa 3d fd 0a d5 3d 14 53 75 bc 34 45 23 bd
       0.08323228 0.104024865 -0.014973421 -0.03986092
0000a0 58 3f 96 3d 67 57 63 3c 63 44 c2 3d db b7 4f bd
       0.073363006 0.013875819 0.094857 -0.050712448
0000b0 b6 6e 86 3d c7 6c d2 3d d7 97 8b bd 53 ba 55 3d
       0.06564085 0.10274654 -0.068160705 0.052179646
0000c0 79 ba 97 3d cb a1 96 bd 6b 5f 6d bd 03 b8 05 3d
       0.07408614 -0.07355078 -0.057952326 0.03264619
0000d0 43 7e f4 bb 44 17 82 bd fb 8f bf bc 45 3f b2 3c
       -0.0074613406 -0.06352094 -0.023384085 0.021758685
0000e0 a6 7c 1a bd 92 bf 65 bd 18 a7 18 bd dc cc e7 bc
       -0.03771653 -0.0560909 -0.037268728 -0.028295927
0000f0 7f 74 a1 3d b0 fd 42 bd ee 16 1f bd b8 c7 b0 3b
       0.07883548 -0.047605217 -0.038840227 0.005394902
000100 b0 45 a9 3b bd 7b 32 3d f1 4a e7 bd 90 11 cb bc
       0.005165778 0.043575037 -0.11293591 -0.024788648
000110 4f 89 92 3d 26 53 9d bb 9b 22 d9 bb 41 f3 19 3d
       0.07155096 -0.004801172 -0.0066264397 0.0375855
000120 9d cd 76 3d 28 cc 5b bd f4 2a f7 bb 0e b0 b7 3b
       0.06025468 -0.053661495 -0.007542962 0.005605704
000130 f7 af df bd a1 d6 6d 3c 66 20 1d 3e 51 6a 02 3e
       -0.109222345 0.014516504 0.1534439 0.12735869
000140 15 41 7a bd 5c f7 2c bd 68 b9 93 3c 0e 37 08 be
       -0.061097223 -0.042228088 0.018032745 -0.13302252
000150 9b b0 99 3b 9f 68 02 bd 4c 9e 63 3b 45 5b ac 3d
       0.0046902425 -0.031838056 0.0034731803 0.08415846
000160 c0 0c 95 3d 4b e7 9b bc 76 4f 04 bd 19 93 f7 3c
       0.072778225 -0.019031188 -0.032302342 0.030221509
000170 38 46 9e 3d bd d7 58 3d 58 fe b7 bd 7e 68 47 3c
       0.07728237 0.05294012 -0.08984059 0.012170909
000180 fe fb eb bc 07 fe 71 3d 37 c9 63 bd 24 10 be bd
       -0.028806683 0.05908015 -0.055611815 -0.09280422
000190 b4 23 7b 3d 56 ef 86 bd 7b ca df bd fd 70 26 bd
       0.061313346 -0.065886185 -0.10927292 -0.040635098
0001a0 6e a4 92 3d 7b 0b 5c bd 31 f8 ae 3d 01 b5 8c 3d
       0.07160269 -0.053721886 0.085434325 0.06870461
0001b0 4e 86 e5 3c b6 ea e1 bc f5 a6 a6 3d 27 e8 b6 3c
       0.028018143 -0.02757774 0.08137313 0.022327496
0001c0 6d 83 3c 3c d0 c1 92 3d 62 3b 8d 3c d4 96 c9 bd
       0.011505944 0.07165873 0.01724023 -0.09843221
0001d0 fb 9f db bb 08 d0 9d 3d 92 65 5c 3c 2a 9b f7 bd
       -0.006702421 0.077056944 0.013451951 -0.12090142
0001e0 3f 36 24 bb 98 f3 e7 3c 2d 3e c9 3d 8d e2 36 bd
       -0.0025056747 0.028314397 0.09826312 -0.04464965
0001f0 ae 59 86 3c 0e d1 84 3d fa 05 f9 bc 1d a4 f4 3b
       0.016400184 0.064851865 -0.030398358 0.007465853
000200 c7 0d 16 bd f7 76 c2 bb 84 f9 d5 bd c2 4d b8 bd
       -0.036634233 -0.005934592 -0.10447982 -0.08999206
000210 d5 a3 a0 bc de e6 fb 3b 5a 5d 46 3d bf c8 57 3b
       -0.019609371 0.0076874336 0.04842887 0.003292605
000220 be 34 79 bd 9e 35 63 3d 3b 73 ae 3d d6 3a 46 3d
       -0.060841314 0.055471055 0.08518072 0.048395954
000230 8a aa cd bd ab 2c a6 bd 09 6c c6 bd 96 64 ff 3a
       -0.10042293 -0.081139885 -0.09688575 0.0019484933
000240 85 dd 0a 3d da e0 a3 3c ad b0 29 3d 5b 0d 82 bd
       0.033902664 0.020004679 0.041428257 -0.063502036
000250 55 3f 20 3c d2 bd d1 3d b7 3c 5a 3d c2 e2 87 bd
       0.0097807245 0.102412835 0.05328056 -0.066350475
000260 d2 a8 59 3b 98 42 a1 3d 0e de 8f 3d 2e 6b 9e bd
       0.0033212197 0.0787403 0.070247754 -0.07735287
000270 a0 85 ad bd e0 f1 51 bd b6 fd 9b bd 78 a1 53 3d
       -0.084727526 -0.05125606 -0.07616751 0.05166766
000280 eb fb bd bd ca 5c 28 3d 3c f7 6e bd d1 ff a6 bd
       -0.09276565 0.041104116 -0.05834125 -0.08154262
000290 75 67 88 bd f7 79 5d bd 5a d5 f9 3d 28 c8 df bc
       -0.06660358 -0.054071393 0.12198897 -0.027317122
0002a0 71 1e d3 3c 2c 07 40 3d 38 d3 73 3c c1 a1 6f bd
       0.025771352 0.04688184 0.014881901 -0.05850387
0002b0 e3 f1 8a bc ff 1d 80 bd 2b 97 bf 3d ba 10 ff bb
       -0.016961044 -0.06255721 0.09355005 -0.0077839764
0002c0 fd 52 bb 3d 33 c9 57 3d 22 7a ce bd d6 10 8b bc
       0.09146688 0.052682113 -0.10081889 -0.016975801
0002d0 71 28 c4 ba 19 c6 20 3d 95 ab 15 bd e9 45 1c 3d
       -0.0014965666 0.03925142 -0.036540587 0.03815261
0002e0 f0 89 c9 3d 76 35 46 3d e7 3c 80 bd 91 63 63 bc
       0.098407626 0.048390828 -0.06261616 -0.013878719
0002f0 c7 0d ee bb dd ad 32 3d 92 ef 27 3d 69 25 6b bb
       -0.007264826 0.04362284 0.040999956 -0.0035880452
000300 35 2d 98 bd eb a6 93 3d 4a 06 b0 bc ea d0 93 3d
       -0.074304976 0.072095715 -0.021487374 0.072175816
000310 44 e4 ef 3c 11 9a 85 bd 07 7b 6e bc fb e4 53 bd
       0.02928365 -0.065235265 -0.014555699 -0.051732045
000320 4e ea 47 bc c7 33 19 3d 9f 39 ae bc fa da b4 3d
       -0.012201859 0.037402894 -0.02126771 0.08830829
000330 5f 9e bd 3d 9d 33 c7 bc 66 97 cc 3d ec 72 49 bd
       0.092587225 -0.024316603 0.099898145 -0.049181864
000340 d9 34 ef 3a 98 3e 52 bd a9 c5 13 bd 71 cd 64 3d
       0.0018250003 -0.051329225 -0.036077175 0.055859987
000350 74 1a 6f 3d 55 61 e8 3c 89 26 21 bd 81 b2 57 bd
       0.058374837 0.028366724 -0.03934339 -0.05266047
000360 d7 3b 4d 3d f8 17 02 3d da a1 0f 3e 7b eb 6f 3d
       0.050105896 0.03176114 0.14026585 0.05857418
000370 2e f5 de bc b3 51 a1 3d a7 d0 10 3c 82 33 96 3d
       -0.02721652 0.07876911 0.008838809 0.07334043
000380 9d 3a c8 bd 7c 87 5f 3d c7 8a 5e bd 34 41 37 3d
       -0.097768046 0.054572567 -0.054331567 0.044739917
000390 f4 33 e2 3d 70 a6 aa 3b 72 3e 35 bd 86 dc 58 3d
       0.110450655 0.005207829 -0.044249006 0.052944683
0003a0 3f c0 2d bb f6 16 6e bd d5 89 b4 bd 9b 22 8f bd
       -0.0026512293 -0.058127366 -0.08815352 -0.06989022
0003b0 d1 38 e3 bc 4a 48 33 3d 65 84 c2 3c 64 6c 09 3e
       -0.027737053 0.043770112 0.023744771 0.13420254
0003c0 4c 8b 8b 3d 4d f8 c4 3d d8 13 44 3d 96 56 ec bc
       0.06813678 0.09617672 0.047870487 -0.028849881
0003d0 96 c1 dc 3b 42 9d 37 3c 29 91 9b bc ed 63 99 bb
       0.0067369444 0.011206927 -0.018990116 -0.0046811015
0003e0 2c c6 da bc e5 04 87 bc cb d3 b0 3d 75 a8 5b bd
       -0.026705824 -0.016481826 0.08634146 -0.05362745
0003f0 42 4a a5 3d 55 07 61 3d 59 86 e7 3c 51 ab a9 3c
       0.08070804 0.054938633 0.028262304 0.020711573

classfier.fc1.bias f4 [100]
000000 b1 16 23 ba de 10 90 b8 36 8c 85 35 a6 01 83 37
       -0.0006221338 -6.869597e-05 9.950079e-07 1.5617185e-05
000010 ce e6 03 b9 89 5b 40 39 38 5c 93 38 86 8f 26 34
       -0.00012579115 0.00018344646 7.026683e-05 1.5512168e-07
000020 2c 33 31 39 f9 09 d5 38 77 83 73 b9 6e 24 86 38
       0.00016899098 0.00010158489 -0.0002322326 6.3964035e-05
000030 56 53 2e 37 20 b9 b2 38 02 30 06 38 ad aa 3c 37
       1.0390611e-05 8.5221836e-05 3.19928e-05 1.1245412e-05
000040 b1 53 b6 37 5c 80 fd 36 d5 00 da 38 c4 48 ed 36
       2.1735063e-05 7.5549306e-06 0.00010395205 7.0716214e-06
000050 95 4b 69 ba 76 3a 47 39 7c 3c 4d b8 5a c1 d6 b9
       -0.0008899507 0.00018999897 -4.893214e-05 -0.0004096132
000060 11 3f cf b7 a3 60 13 38 50 ad 64 39 0d d6 69 39
       -2.470569e-05 3.513753e-05 0.00021808338 0.00022300352
000070 41 11 86 39 f1 af 11 b8 15 64 80 38 ed ef 76 b6
       0.00025571327 -3.4734552e-05 6.122157e-05 -3.6796512e-06
000080 94 7e 2b 37 b5 62 22 36 08 95 17 b7 88 59 9a b9
       1.02218655e-05 2.4197336e-06 -9.035e-06 -0.00029439875
000090 be a0 9d b6 60 88 a0 34 ad 58 ae b9 e6 dd c2 38
       -4.6976775e-06 2.9901548e-07 -0.00033253935 9.291973e-05
0000a0 0b 35 94 b7 48 09 77 b8 9c b7 e7 b8 3a 7b 15 b9
       -1.7667675e-05 -5.8898033e-05 -0.00011049138 -0.00014255653
0000b0 54 28 87 ba 92 81 ca 39 d7 08 6e 38 5e 50 15 b7
       -0.0010311701 0.0003862498 5.6751855e-05 -8.899804e-06
0000c0 c6 48 53 37 d4 fd 0e 37 af da 22 37 5f 1b ed 36
       1.2593524e-05 8.5229585e-06 9.706869e-06 7.066337e-06
0000d0 38 92 50 39 38 bd 45 35 eb 37 c0 39 bd 79 23 b7
       0.00019890897 7.366357e-07 0.00036662756 -9.7439015e-06
0000e0 05 95 4a 36 b0 55 40 38 4a 87 ba 39 87 39 8e 37
       3.0187086e-06 4.585617e-05 0.00035577483 1.6954507e-05
0000f0 af ca 6f 35 b1 d6 bf b8 64 29 1e 37 c8 f6 13 b9
       8.932938e-07 -9.147579e-05 9.427171e-06 -0.00014110946
000100 02 79 f6 b8 08 4c 91 38 40 79 3c 35 02 1c 10 b8
       -0.000117527336 6.928301e-05 7.02119e-07 -3.435836e-05
000110 43 2c 06 38 4e c2 41 b9 c2 90 1a b9 a6 e5 c6 39
       3.198931e-05 -0.00018478298 -0.00014740511 0.00037936604
000120 f3 c1 34 38 c3 b8 5f 39 34 1f 35 b8 13 23 f3 37
       4.3095974e-05 0.00021335766 -4.3182823e-05 2.898419e-05
000130 34 01 86 39 62 1d 13 36 a6 d5 6a 36 6f 27 18 b9
       0.00025559368 2.192181e-06 3.4993077e-06 -0.0001451054
000140 e0 ee 4d b9 42 9f 8a 37 83 12 77 39 9d ec 58 35
       -0.00019639311 1.6525042e-05 0.00023562652 8.081059e-07
000150 e6 98 6b 3a 30 41 89 37 45 ea d6 b6 ac c4 a6 b9
       0.0008987322 1.6362028e-05 -6.4049696e-06 -0.0003180852
000160 25 4d 2e 38 58 59 6a b6 dc 55 99 b9 57 1b aa b7
       4.155668e-05 -3.4920722e-06 -0.00029246404 -2.027831e-05
000170 44 fe db b7 8e f9 5b 38 18 66 94 b9 c9 70 9e b9
       -2.6225236e-05 5.2446085e-05 -0.00028304826 -0.0003022014
000180 d8 6d 4e 38 d6 cf c1 38 e7 7f 63 b8 38 04 f0 39
       4.9216527e-05 9.2416696e-05 -5.4240136e-05 0.0004577951

classfier.bn1.weight f4 [100]
000000 4a 02 7a 3f 68 73 77 3f b0 2e 7c 3f 12 f2 80 3f
       0.9765974 0.9666047 0.9850874 1.0073874
000010 d8 2f 7e 3f cb 67 81 3f f0 a3 7d 3f 34 fc 78 3f
       0.99291754 1.01098 0.99078274 0.9725983
000020 88 2d 85 3f 72 3e 74 3f c9 7b 7b 3f 45 17 6e 3f
       1.040452 0.95407784 0.98235756 0.93004256
000030 87 1a 73 3f 12 0d 7b 3f 31 0e 85 3f 8e db 7d 3f
       0.9496235 0.9806682 1.0394956 0.9916314
000040 18 00 6b 3f aa ba 73 3f 49 d8 7a 3f 4b c1 73 3f
       0.9179702 0.952067 0.97986275 0.95216817
000050 2e 05 7e 3f 78 81 72 3f c2 57 73 3f f1 b7 7b 3f
       0.99226654 0.94728804 0.9505578 0.9832755
000060 83 fe 70 3f a8 7f 80 3f 48 41 82 3f 5b dc 6b 3f
       0.94138354 1.0038958 1.0176172 0.9213311
000070 fb 73 7d 3f 2a 79 7d 3f d2 83 7e 3f 22 38 7c 3f
       0.990051 0.99013007 0.9941989 0.9852315
000080 5a cd 7a 3f 4b c1 6a 3f 87 d9 65 3f 24 14 7e 3f
       0.9796959 0.9170119 0.89785045 0.9924948
000090 b4 08 87 3f 0c 2c 82 3f b5 a6 76 3f 24 6a 80 3f
       1.0549531 1.0169692 0.96348125 1.0032392
0000a0 86 dd 77 3f da 2d 83 3f bd 23 80 3f 27 73 80 3f
       0.9682239 1.0248368 1.0010906 1.0035142
0000b0 82 31 81 3f a8 9d 6e 3f 34 97 66 3f 6b 1e 6f 3f
       1.0093234 0.93209314 0.9007447 0.9340579
0000c0 38 75 67 3f fd 4f 74 3f b1 cc 72 3f 35 af 74 3f
       0.90413237 0.9543455 0.94843584 0.95579845
0000d0 3f d9 90 3f 3f 33 69 3f cd a2 74 3f 94 b0 71 3f
       1.1316298 0.9109382 0.95560914 0.9441006
0000e0 65 dd 79 3f 8b d0 72 3f d3 81 7e 3f 1f 6a 6a 3f
       0.97603446 0.9484946 0.99416846 0.9156818
0000f0 72 b5 61 3f 42 c9 87 3f f7 3e 76 3f df e0 83 3f
       0.8816749 1.0608294 0.96189827 1.0303
000100 d4 9d 7c 3f c0 bd 79 3f 10 a7 74 3f f8 53 7e 3f
       0.98678327 0.9755516 0.9556742 0.99346876
000110 af a5 6c 3f 1f 35 85 3f 88 f5 7e 3f 54 6e 87 3f
       0.92440313 1.0406836 0.995934 1.0580544
000120 73 33 72 3f ed 5d 7b 3f 11 a3 61 3f 14 6f 86 3f
       0.94609755 0.98190194 0.88139445 1.0502648
000130 13 cb 7d 3f 1f 2b 6d 3f c9 ae 70 3f 88 fa 78 3f
       0.9913799 0.9264392 0.940167 0.9725728
000140 72 de 84 3f 1c 60 6d 3f 49 1f 80 3f 1a 52 6a 3f
       1.0380385 0.92724776 1.0009547 0.9153153
000150 a9 50 7e 3f 7d ce 6d 3f ce 79 68 3f 98 e1 78 3f
       0.9934183 0.928932 0.9081086 0.9721923
000160 81 e4 83 3f ef b1 8c 3f 88 75 75 3f b9 07 72 3f
       1.0304109 1.0991801 0.95882463 0.94543034
000170 24 ad 73 3f 6b 2d 69 3f 9a 86 80 3f 2e dc 80 3f
       0.95186067 0.9108493 1.0041077 1.0067194
000180 e6 69 6e 3f 4f 2e 7b 3f 49 a2 80 3f 31 31 72 3f
       0.9313034 0.98117536 1.0049525 0.9460631

classfier.bn1.bias f4 [100]
000000 50 03 8b be ae 66 c6 3d 8d aa a8 bd 75 1f dd bb
       -0.27150965 0.09687553 -0.08235655 -0.0067481347
000010 21 7b 4f 3d a6 6c 05 be db f4 8c be f2 96 d2 bc
       0.050654534 -0.13029727 -0.2753056 -0.025706742
000020 4b 50 6a bd 04 1d 15 be 98 a6 4c be 11 e1 4a bd
       -0.05720548 -0.1456185 -0.19985425 -0.049531046
000030 6b 8c 8f bd 0b 7c 8e be 2f dc 08 be f4 58 1e be
       -0.070092045 -0.27829012 -0.13365243 -0.1546362
000040 9c 9e f0 bc 40 8d 89 bd 4b d1 c8 bd cb e8 39 be
       -0.029372506 -0.067163944 -0.098055445 -0.1815521
000050 c0 d9 78 be 24 90 38 be 66 b4 9f bd ae aa 48 be
       -0.24301815 -0.18023735 -0.0779808 -0.19596359
000060 cf 83 e9 bd 48 10 20 be 99 1f 26 be 7c b8 22 be
       -0.114020936 -0.15631211 -0.16222991 -0.15890688
000070 e6 78 01 be 48 12 c9 bd b0 9d b0 bd 91 f3 f5 3c
       -0.12643775 -0.0981794 -0.086238265 0.030023368
000080 23 ed 47 bd 50 75 99 3c 87 13 9b bd 03 e5 3c bd
       -0.048810136 0.018732697 -0.07572084 -0.04611684
000090 0a 9f e4 bb 42 20 55 bd 97 2e 3d be 9b c3 a7 be
       -0.0069769667 -0.052032717 -0.18474804 -0.32766423
0000a0 5f 5c 04 be d4 af 09 be 9c 06 a1 be 37 b9 6b be
       -0.12925862 -0.1344598 -0.31450355 -0.23019873
0000b0 f7 0b 5d be 0e de 83 be 52 e3 c0 bd 98 e9 15 3b
       -0.21586595 -0.25755352 -0.09418358 0.0022874828
0000c0 7f 18 f6 bd 49 92 ad 3d 7d f4 0d 3c 8b 76 21 bd
       -0.12016391 0.08475167 0.008664248 -0.039419692
0000d0 bd 9d 4c 3d 41 0e 81 bd f4 1a 97 bb 0f ad 8a bd
       0.04995512 -0.06301547 -0.0046113674 -0.067712896
0000e0 56 3e 67 3d 7b de e6 bc 31 1b 25 be ae 27 5a 3d
       0.056455933 -0.028182259 -0.16123654 0.053260498
0000f0 3d 19 8c 3c bd 02 04 3b f0 5d 80 bd 6a 42 a1 be
       0.017101878 0.0020143234 -0.06267917 -0.31495982
000100 20 87 5f be 81 54 e4 bd f0 54 a8 bd ae 00 a4 bd
       -0.2182889 -0.1114893 -0.082193255 -0.08007942
000110 03 e3 0a be d2 de 10 be 86 fa 53 3d eb b7 e1 bd
       -0.1356316 -0.14147499 0.05175259 -0.11021408
000120 a6 97 61 be cb 57 a2 be 7e 53 e6 bd 43 6a 93 bd
       -0.22030506 -0.31707606 -0.112463936 -0.07198002
000130 72 92 06 be 65 30 34 bd ca 85 f8 bb 5d e7 15 be
       -0.13141802 -0.043991465 -0.0075843083 -0.1463904
000140 d0 01 3f be af 83 11 bd 7a 0a 59 be 64 d7 a4 3d
       -0.18653035 -0.035525974 -0.21195403 0.08048895
000150 57 90 99 be 9f 4c c5 bb d1 ee a3 bc 43 f6 66 be
       -0.29992935 -0.006021097 -0.020011337 -0.22554879
000160 4e b1 ab be 78 20 56 bd 03 b4 54 be 52 7b 6f bd
       -0.3353371 -0.05227706 -0.20771794 -0.058467217
000170 fc a5 07 be 17 c6 d6 3c be 79 51 be 56 a7 48 be
       -0.13246912 0.026217503 -0.20456597 -0.19595084
000180 4a 79 d9 bd da 3e a8 be f2 33 07 3c 06 31 4d be
       -0.10618837 -0.32860452 0.008252131 -0.20038232

classfier.bn1.running_mean f4 [100]
000000 17 c4 8b bd 8c fc cd bd 18 72 13 bf 98 5f 22 bd
       -0.068245105 -0.10057935 -0.5759597 -0.039641947
000010 0a a8 19 bd 34 56 ac 3d 90 f8 fd bb 77 9a 25 bf
       -0.03751377 0.084148794 -0.007750578 -0.6468882
000020 bc 1b 9e 3c 16 1c e6 bc ca 3c e1 bb 35 2c 43 3e
       0.019300334 -0.028089564 -0.0068737017 0.19059832
000030 d8 b5 cf 3e 8e 47 04 bd d1 9a d9 bc 05 77 ae be
       0.40568423 -0.032294802 -0.02656308 -0.3407518
000040 e2 7e d9 3e b6 10 60 bc 15 5f 08 3e 23 8f 95 bd
       0.42479616 -0.013675859 0.13317521 -0.07302692
000050 b0 84 9d bd fb 48 07 bc 70 6c fb 3d a9 e9 bd bc
       -0.07691324 -0.008257146 0.12276542 -0.023182707
000060 ed 98 5c 3d fe 06 14 3d e5 79 a4 bc fb d0 60 bd
       0.05385678 0.03613948 -0.020077655 -0.0548868
000070 f9 69 8a bd b5 bf dc bc 23 46 f5 3a 1f 3f 85 be
       -0.06758494 -0.026946882 0.0018712919 -0.2602472
000080 bf 89 1a bf ba e7 06 3f 0a 0a 27 3f 2a 9a 55 3c
       -0.60366434 0.52697337 0.65249693 0.013037244
000090 6e 57 c1 bc 9b 8f 7c bd da e4 d3 bc be ed c1 bc
       -0.02360126 -0.06166039 -0.02586596 -0.023672935
0000a0 75 5c 74 bd 32 46 0b 3d f2 15 b9 bc ba d6 c3 bd
       -0.059658486 0.03400249 -0.022593472 -0.0956244
0000b0 62 d2 48 bd a0 17 38 bd 77 6d 28 3d 21 5a 7f bf
       -0.04902876 -0.044944406 0.04112002 -0.997469
0000c0 ff 07 16 3e ec dd 8a 3e 46 1c 58 3e 1e 27 e4 be
       0.14651488 0.27122438 0.21104535 -0.44561094
0000d0 5f f7 a0 bb 24 bc 23 3f fd 73 3c bd 5f d2 26 bf
       -0.0049123014 0.63958955 -0.046009053 -0.6516475
0000e0 1b f1 2a bf 66 e8 83 3e ef a6 54 bc 9c b7 a4 3e
       -0.6677415 0.25763243 -0.012979253 0.32171333
0000f0 7d b0 88 3f 09 93 8a bb b0 55 1d be 11 21 91 bc
       1.067886 -0.0042289537 -0.15364718 -0.017715963
000100 37 84 00 bd 10 20 c6 3d d0 37 ed be f5 00 0f be
       -0.03137609 0.09674084 -0.46331644 -0.13965209
000110 73 0a e0 bc 1c 0b 57 be 63 76 5b bd 43 f4 33 bb
       -0.027348733 -0.21000332 -0.0535797 -0.0027458824
000120 81 99 26 bd 72 b8 4a bd 75 8e 3a bf 47 04 77 be
       -0.040673736 -0.049492307 -0.7287362 -0.24122725
000130 7e 89 a9 3b e0 bf 62 3f 8b 60 82 3e 39 72 05 bd
       0.005173861 0.8857403 0.2546428 -0.032579634
000140 c6 6d b0 bd 47 a2 62 3e 91 e5 98 bc 28 ac 17 3f
       -0.086146876 0.22132216 -0.018664153 0.59247065
000150 88 14 2e bb 32 d6 f7 3e 8c ec 0b 3f 6c ca 20 bc
       -0.002656253 0.48405606 0.54657817 -0.009813886
000160 f1 30 f3 bc f6 1c 87 bc 98 67 99 bc 6a a0 1f bd
       -0.029686423 -0.016493302 -0.018726155 -0.038971342
000170 2a db a1 bd af c4 7d 3e 31 79 35 bd fc 59 d5 3b
       -0.0790313 0.2478206 -0.04430503 0.006510971
000180 7e b9 8a 3c 6e f7 8a 3c d1 87 9d bd 3b be 2d bd
       0.016934153 0.016963687 -0.076919205 -0.042417746

classfier.bn1.running_var f4 [100]
000000 95 86 bc 3a 95 d1 5a 3b 08 01 52 3d a0 cd 9d 3a
       0.001438337 0.003338908 0.051270515 0.001203943
000010 56 ce aa 3a 19 9c 00 3b 42 42 48 3a de ff 8a 3d
       0.0013031464 0.0019624291 0.0007639268 0.06787084
000020 1e 6c 72 3a 6b 12 4d 3a 08 66 73 3a 4a a1 e8 3b
       0.0009247678 0.0007822874 0.0009284918 0.0070993053
000030 ac d8 ea 3c 8c f5 21 3a 40 f0 79 3a 30 08 a4 3c
       0.02866777 0.0006178252 0.0009534396 0.020023435
000040 8d d7 f2 3c 4c be 03 3b 6f 5d 58 3b 30 15 0c 3b
       0.029643798 0.002010244 0.0033014675 0.0021374933
000050 18 bc ad 3a c0 a4 21 3a be b8 a1 3b 48 ae 2b 3a
       0.0013254909 0.0006166212 0.004935353 0.0006549102
000060 24 87 06 3b b6 18 6a 3a c6 40 03 3a 34 60 6f 3a
       0.0020527327 0.0008930074 0.00050069054 0.0009131462
000070 fe b5 8d 3a 8b 64 c8 3a dd 21 d8 3a bb 0a 4b 3c
       0.0010811684 0.0015288753 0.0016489584 0.012392695
000080 9b d6 75 3d 0c c0 36 3d 5a 00 8d 3d 4e b8 4a 3a
       0.060019117 0.044616744 0.06884833 0.0007733152
000090 a2 49 64 3a 7e 2a f3 3a f2 2a 8d 3a 05 63 00 3a
       0.0008708482 0.0018552092 0.0010770245 0.00048975676
0000a0 13 05 7f 3a b0 c1 a6 3a ad 91 60 3a 7d 7b 00 3b
       0.0009728234 0.0012722518 0.0008566629 0.0019604855
0000b0 5a 15 93 3a d8 2f 8c 3a 24 a3 ca 3a be da 1e 3e
       0.0011221573 0.0010695411 0.0015459997 0.15513131
0000c0 fd 10 c5 3b a9 39 64 3c 77 2c 18 3c f7 88 06 3d
       0.006013988 0.013929763 0.009287945 0.032845464
0000d0 ed 49 42 3a 22 96 84 3d 0c 53 ad 3a 7e d8 8d 3d
       0.00074115285 0.06473948 0.0013223602 0.06926058
0000e0 b8 e1 96 3d c8 06 3b 3c 60 50 18 3a e5 13 95 3c
       0.07367271 0.011415191 0.00058103167 0.018197963
0000f0 02 3c 40 3e 8c 6e a4 3a d7 a5 8f 3b 52 14 dc 39
       0.18772891 0.0012545153 0.0043837833 0.0004197681
000100 25 ee 4e 3a 7d 5f 49 3b dd f4 fb 3c b9 75 7c 3b
       0.00078937627 0.0030727081 0.030756408 0.0038522317
000110 00 60 a5 3a 5c ef f0 3b de 8e b5 3a 47 27 0f 3a
       0.0012617111 0.0073527526 0.0013851782 0.000546087
000120 b5 d1 a3 3a 24 51 85 3a 56 66 b7 3d 59 7e 24 3c
       0.0012498411 0.0010171277 0.08955066 0.010039889
000130 98 f7 6b 3a f4 7d 02 3e 2b ce 68 3c 24 1f 3e 3a
       0.0009001433 0.1274336 0.0142093105 0.0007252565
000140 de 5a bd 3a c4 04 30 3c 8f 64 51 3a 37 e1 68 3d
       0.0014446636 0.010743324 0.00079877017 0.056855407
000150 1d 32 0b 3a 66 ac 15 3d 64 d3 4b 3d 0f cd 40 3a
       0.00053098967 0.036541365 0.049762145 0.0007354775
000160 67 d3 f6 39 f5 51 83 3a c0 b5 45 3a be 9e ab 3a
       0.00047078283 0.0010018932 0.00075420365 0.0013093574
000170 e1 89 a3 3a 91 36 51 3c e1 aa 75 3a fd c8 26 3a
       0.0012477004 0.012769357 0.0009371471 0.0006362347
000180 37 48 71 3a db 04 63 3a df d2 fd 3a 15 5f a8 3a
       0.0009204181 0.00086600863 0.0019365213 0.001284572

classfier.fc2.weight f4 [50, 100]
000000 14 78 ef bc 42 c4 18 be 5b 43 99 bb 21 fb 1b 3b
       -0.029232062 -0.14918616 -0.004677219 0.0023800808
000010 99 65 9f bd ec 03 e4 3d 3b c4 21 3d be 23 16 be
       -0.0778305 0.111335605 0.03949378 -0.14662072
000020 30 08 b5 bc 72 42 f5 bc 81 9e 75 bd d0 08 c2 bc
       -0.02209863 -0.02993891 -0.059965614 -0.023685843
000030 5c 23 b0 bb 75 c0 fa 3c 38 f7 d0 bc 1f 81 0e be
       -0.005375309 0.030609349 -0.025508508 -0.13916443
000040 62 15 0b 3d 1b 72 21 3d 75 4f 98 3c da 7a 5d bc
       0.03395594 0.03941546 0.018592576 -0.01351806
000050 f4 e0 fc bc 6a f1 b3 bd 89 5f 8e 3d ca 6b 64 3c
       -0.030868985 -0.087862805 0.06951816 0.013941715
000060 ae 6b 5a bc 7a 10 09 3d 86 ee da bc ec 3e 1e bd
       -0.013331337 0.03346298 -0.026725065 -0.038634226
000070 f9 a8 b8 bd 20 91 a8 bc 93 9a 74 bc 2a 27 d0 bd
       -0.09016604 -0.020577013 -0.0149294315 -0.1016372
000080 a4 27 ec bd 38 73 70 bd 94 5c 3b 39 1e 2f 96 bd
       -0.11530998 -0.05870363 0.00017868198 -0.07333206
000090 33 83 fb bc 2c 73 fb bd 8a a9 69 bd f4 e1 bc bd
       -0.03070221 -0.12277827 -0.05704645 -0.09222785
0000a0 31 1b c3 bd c4 69 76 3d 1a f0 af bd 6c 0d 2a be
       -0.09526671 0.06015946 -0.085907176 -0.16606683
0000b0 31 e4 c6 bd 98 1e ea 3d 77 fd 3d bd 21 71 04 be
       -0.09711493 0.114316165 -0.0463843 -0.1293378
0000c0 84 b1 2f 3d 08 c3 92 3d 84 39 09 bc 70 0f 89 bd
       0.0428939 0.071661055 -0.008375529 -0.066923976
0000d0 0a 49 70 3c 0c 47 71 3d 50 6b 42 bd ca 04 b2 bb
       0.014665851 0.058905646 -0.047465622 -0.0054327
0000e0 fd db 1a be c9 17 98 bc 2b 19 2d 3b 47 a0 b8 bd
       -0.15122981 -0.01856603 0.0026412706 -0.090149455
0000f0 d3 65 5d bd 1f b5 af 3d 28 fd 87 bd d5 ba 7d bd
       -0.054052185 0.08579468 -0.066400826 -0.061945755
000100 0a 63 b1 bc cb 0f 4a 3d ee e8 dc bd 9e 7c 5c bd
       -0.02165367 0.049331468 -0.10786615 -0.05382978
000110 a3 a3 60 3d 5f 03 15 be 10 fa a4 bd ec b3 9f 3d
       0.054843556 -0.14552067 -0.08055508 0.07797989
000120 19 ea a3 3c 17 b3 f3 bc e0 75 78 bd 94 c8 b8 bd
       0.020009087 -0.029748483 -0.06065929 -0.09022632
000130 c0 fd ab 3c ec eb 3f bd bc 66 e5 bc e3 1e af 39
       0.02099502 -0.046855852 -0.02800309 0.00033401613
000140 76 b9 8d bd 63 38 3f bd de bf 03 3d 9c ff 6f bd
       -0.069201395 -0.046684634 0.0321654 -0.058593377
000150 f6 b0 93 bc 95 39 a0 3a a7 91 99 bc f4 f4 d7 bc
       -0.018028717 0.0012224192 -0.01874621 -0.02636192
000160 b3 1d 4b bd 01 9d 76 3d 57 4d a4 3c 99 24 c6 bc
       -0.04958887 0.060208324 0.02005641 -0.024187373
000170 33 7a 05 be a1 4d b2 3c a2 f5 62 bd 67 c3 31 3b
       -0.13034897 0.021765532 -0.055410035 0.0027124526
000180 65 7e c5 bc 66 c0 48 bd 3f ce 44 bd 8b b5 30 bd
       -0.024108121 -0.04901161 -0.048048254 -0.043141883
000190 27 12 b5 3d 4c 30 61 bc ce 10 fa 3c 12 9d af bd
       0.08841353 -0.013744425 0.030525591 -0.08574881
0001a0 25 4b e2 3c c7 ed 94 3b b0 52 20 3d 4d b9 5f bd
       0.027623722 0.004544947 0.039141357 -0.054620076
0001b0 b1 78 ae bd e1 67 c0 bb 26 17 8a 3d 1b 2f 8b bd
       -0.08519114 -0.0058717583 0.067426965 -0.06796094
0001c0 d3 82 8d bd 04 6a 81 3d dd 3b 2c bd db ac 93 3d
       -0.06909718 0.06319049 -0.042049278 0.07210704
0001d0 b1 14 4c bd 42 e0 d5 bc 75 83 93 bd b0 5e 80 3d
       -0.04982442 -0.026107911 -0.07202808 0.0626806
0001e0 b6 f5 25 3d c7 ff 3f 3d ac 9e 50 3c 9a 58 1a 3d
       0.04051753 0.046874788 0.012733143 0.037682153
0001f0 88 b7 41 3d 03 19 00 be e7 5e 0d 3d 4d 42 11 3d
       0.04729417 -0.12509541 0.034514334 0.03546362
000200 17 33 d5 3d 64 3d 9d bd fd f6 5e bd 6e 62 a8 bc
       0.10410135 -0.07677725 -0.054434765 -0.020554747
000210 f0 bb 80 bd bf 6e e9 3b f2 9b fb 3a ce 52 99 bc
       -0.06285846 0.0071237977 0.0019196256 -0.018716242
000220 aa 3b 75 bc a2 4a 62 3d 41 eb 93 3c e2 ad 81 3d
       -0.014967838 0.055246957 0.018056514 0.06331994
000230 b5 9b e6 3c c7 cb cc bd 24 3b 5c 3c ac a4 da 3b
       0.028150419 -0.09999805 0.013441835 0.0066724624
000240 26 a9 ac 3d 0d 75 7c 3d fe 37 99 3d dc 5a 1c bd
       0.084307 0.061635066 0.07481383 -0.038172588
000250 e2 3e a4 bd 2e 96 f5 3c b4 e7 27 3b 06 8f fa 3b
       -0.080198064 0.029978838 0.0025620284 0.0076464443
000260 b1 43 55 3c 55 c9 24 3c df 3c af bc 0b 9a 58 bd
       0.013016627 0.010057767 -0.02139133 -0.05288128
000270 92 e6 37 bc 73 f3 97 3c 87 0c 97 3c 8d fc 55 3d
       -0.011224406 0.018548703 0.01843859 0.052242804
000280 1d 12 ae bb 05 68 03 be ed 9b 4a 3d 6c cd 2c 3e
       -0.005312218 -0.12832649 0.04946511 0.16875237
000290 39 1a 3a 3c 6d 77 8a bd ec 61 47 ba 7a 11 a0 3d
       0.011358791 -0.0676106 -0.0007605839 0.078158334
0002a0 7b 06 a4 bc ca c7 5f 3c f8 07 4a bc a3 c7 e5 bd
       -0.020022621 0.013658473 -0.012331001 -0.11219718
0002b0 65 5a 59 3d b2 d1 df 3d 4b 80 97 bd 92 13 89 bd
       0.053064723 0.10928668 -0.07397517 -0.06693186
0002c0 e7 e8 aa bd 09 60 a4 3d 05 a9 3c bc 11 fb 22 3d
       -0.08345204 0.0802613 -0.011514907 0.039790217
0002d0 ea 22 b5 3d a6 9f 0f bd f7 d9 b5 3c c0 5b 3e 3d
       0.0884455 -0.035064362 0.02219866 0.04647422
0002e0 3f 2c c2 3d 6c 23 31 3c 28 c6 2f 3c 11 ec b3 3d
       0.094810955 0.010811668 0.0107283965 0.087852605
0002f0 3d 82 f2 3d c2 eb ab bd 79 4e 1b 3d 44 74 6d 3d
       0.11841247 -0.083945766 0.037916634 0.057972208
000300 ed 9b 2d bc ce be 03 3b 7a 0a 9e 3c 53 0e b8 3c
       -0.010596258 0.0020102742 0.019292105 0.022467768
000310 df 96 8d bb 5d 21 1c 3e 29 b9 74 bd 7b 47 ae 3d
       -0.0043209638 0.15247102 -0.059746895 0.085097276
000320 c8 ed 63 3d 53 0d 46 3c 06 42 ec bc 44 90 5c bc
       0.055646688 0.012088138 -0.028840076 -0.01346213
000330 04 71 29 bd b5 46 0e be 08 d1 6b 3d a7 4d aa 3c
       -0.041367546 -0.1389416 0.057572395 0.02078898
000340 c4 09 0c be e3 09 65 3d 3b f7 e9 3c af e1 b1 bc
       -0.136756 0.05591763 0.028560271 -0.02171406
000350 ea bc c8 bc 8f 71 63 3d 1a 0e 27 be d1 1c 2a 3d
       -0.024504144 0.05552822 -0.16313973 0.041531388
000360 9b c1 01 3d 6e b8 db 3b 48 ec 8d bd 22 be 97 bb
       0.031678777 0.0067053353 -0.06929833 -0.00463082
000370 8f 61 ac 3d 37 b7 bd 3d 1a 65 95 3d 7e 9c 87 3d
       0.08417045 0.09263461 0.07294674 0.066216454
000380 15 c6 76 3d d5 17 81 bd 05 49 7d 3d b6 be 2c 3d
       0.0602475 -0.06303374 0.061837215 0.042174064
000390 62 54 ce 3d d0 2c 10 bd 51 9a 09 be 95 7d f0 3c
       0.100746885 -0.035198987 -0.13437773 0.029356757
0003a0 b6 0d 5c bd 8c e4 6e bc 71 52 a6 3b d2 7a ac 3d
       -0.053724013 -0.014580857 0.0050757458 0.084218636
0003b0 9c 51 37 bc be 6f 73 3c 24 4a c7 3c 1a a7 c1 3c
       -0.011188891 0.014858184 0.024327345 0.02363925
0003c0 24 5e 41 3c d4 ac 17 be 4a 56 0f 3d a1 a0 cd 3c
       0.01180223 -0.14812022 0.0349944 0.025101008
0003d0 de 35 db 3d 92 a5 61 3d 17 c6 ab bc cf 43 cd 3c
       0.10703634 0.05508954 -0.02096848 0.025056748
0003e0 f0 85 6c 3d e0 6b 9c 3d 7f ee 68 bd 24 dc aa 3c
       0.05774492 0.07637763 -0.056868073 0.020856924
0003f0 9e f8 2b be 10 2e 87 bd df 7b 1f bd 20 d0 13 3d
       -0.16794059 -0.066005826 -0.038936492 0.036087155

classfier.fc2.bias f4 [50]
000000 12 07 d2 36 55 dc 4f 37 fc 6b 8b 37 b6 00 c9 b6
       6.259311e-06 1.23894615e-05 1.6620375e-05 -5.9903496e-06
000010 60 ae 76 b5 ab d8 8e 37 b0 c2 29 35 99 9c 17 37
       -9.189589e-07 1.7028613e-05 6.3240714e-07 9.036762e-06
000020 7c 74 38 37 bd 15 9a 36 af 4e 65 37 02 40 8e 34
       1.0994376e-05 4.5920883e-06 1.3667784e-05 2.6496133e-07
000030 81 91 e5 b6 31 c2 04 37 b0 62 d1 b2 c6 04 da 37
       -6.8416707e-06 7.913027e-06 -2.437568e-08 2.5989848e-05
000040 4e 74 13 b7 6a da 54 35 66 84 5e 36 28 32 45 b7
       -8.788962e-06 7.929399e-07 3.3157644e-06 -1.1753793e-05
000050 db ed 36 b7 02 f7 54 36 9c 94 06 b6 f7 5e c6 36
       -1.0903425e-05 3.173424e-06 -2.0054058e-06 5.911915e-06
000060 05 86 08 38 76 1b b6 35 b4 5c 67 b5 09 c0 b0 b7
       3.2549742e-05 1.3568049e-06 -8.6189107e-07 -2.1070258e-05
000070 a5 69 f9 36 bd 70 37 37 1e 52 4d 37 ef 0a c1 b7
       7.433077e-06 1.0933899e-05 1.2238072e-05 -2.3012484e-05
000080 ba 8d a5 b5 a0 65 5d b6 3f 29 76 36 44 50 8b b6
       -1.2334706e-06 -3.299072e-06 3.6680865e-06 -4.151867e-06
000090 f1 58 c0 b6 c4 8b a2 35 9e 1b 8a 35 34 79 99 b6
       -5.7324e-06 1.2110618e-06 1.0289839e-06 -4.573865e-06
0000a0 ae b2 f4 b5 09 56 66 b5 2d a9 98 b5 e0 84 bb b5
       -1.8231419e-06 -8.5806874e-07 -1.1374119e-06 -1.3971257e-06
0000b0 2c 43 ed 36 5f 6e 04 b6 f9 3a 95 36 bb 26 18 37
       7.0709702e-06 -1.9733777e-06 4.4474114e-06 9.068924e-06
0000c0 fc dd 90 34 7e f1 1e b5
       2.6983605e-07 -5.9211004e-07

classfier.bn2.weight f4 [50]
000000 23 4d 88 3f 03 e9 7a 3f 8c 8a 7f 3f 5e ff 86 3f
       1.064854 0.980118 0.9982078 1.0546682
000010 9d 98 69 3f f7 aa 79 3f d3 e3 6a 3f 17 e8 80 3f
       0.91248494 0.97526497 0.9175388 1.0070828
000020 d7 ec 8a 3f 71 f2 66 3f 4c 6d 86 3f a6 1b 65 3f
       1.0853528 0.90213686 1.0502105 0.89495313
000030 73 2e 6f 3f 4c 56 82 3f 43 41 81 3f 79 af 6e 3f
       0.9343025 1.0182586 1.0098041 0.932365
000040 bd c1 7c 3f d8 3e 5e 3f 4d 62 8b 3f 92 06 81 3f
       0.9873312 0.8681464 1.0889374 1.008013
000050 fd cb 66 3f 17 4b 76 3f 8e b1 64 3f f6 4d 89 3f
       0.9015501 0.9620833 0.89333427 1.0726917
000060 40 c0 68 3f 4c ac 86 3f f0 de 66 3f 10 d5 6d 3f
       0.9091835 1.0521331 0.90183926 0.9290323
000070 15 fc 79 3f a6 61 96 3f 05 7c 78 3f a9 cd 81 3f
       0.9765027 1.174855 0.9706424 1.0140887
000080 6f 25 86 3f b0 25 96 3f 92 c5 80 3f 5a 61 80 3f
       1.0480174 1.1730251 1.0060294 1.0029709
000090 dd 0e 77 3f c8 fc 69 3f 15 e4 7d 3f bb fc 85 3f
       0.96507055 0.9140134 0.9917615 1.0467752
0000a0 49 e7 92 3f 35 99 79 3f eb cd 6b 3f 33 fa 80 3f
       1.1476833 0.974994 0.9211108 1.0076355
0000b0 64 a5 7d 3f 80 53 79 3f 34 0b 5f 3f 04 d8 8a 3f
       0.9908049 0.97393036 0.8712647 1.0847173
0000c0 26 ff 72 3f 18 26 7d 3f
       0.94920576 0.9888625

classfier.bn2.bias f4 [50]
000000 9c e8 be 3d d0 b1 83 be bd 98 3a be 45 55 31 3c
       0.093217105 -0.25721598 -0.18222328 0.0108235525
000010 76 1d a5 bd 21 3b 6f be b8 a3 48 be 19 b8 82 be
       -0.0806226 -0.233624 -0.19593704 -0.2553108
000020 e2 9a 32 bc 64 a4 8d bd 03 c3 d3 3d 87 fa 3d bc
       -0.010901185 -0.06916121 0.1033993 -0.011595375
000030 71 fb 84 bd 82 7c af 3d 45 92 8a be e8 21 52 be
       -0.06493271 0.0856867 -0.2706472 -0.20520747
000040 63 27 ec 3d cc 70 bf bd 19 f5 9e 3d 25 8d 87 be
       0.1153095 -0.09347686 0.077615924 -0.26474872
000050 09 22 1e be f7 1c 33 be 21 13 6f bd 8d ce 73 3d
       -0.15442671 -0.17491518 -0.058367852 0.059523154
000060 a2 e6 52 be c9 a2 7e 3d 18 6f 94 bd 99 5a 31 be
       -0.20595792 0.062166963 -0.07247752 -0.17319717
000070 b2 38 81 be a1 cc db bc 43 d6 2f bd 01 bb 88 be
       -0.25238568 -0.026830973 -0.042928945 -0.26705173
000080 6b 48 91 3d af e6 0c 3d 7c ac 98 3d 70 d3 83 be
       0.07093891 0.034399685 0.07454774 -0.25747252
000090 55 33 7b 3d 5c c4 ca bd 60 b3 ab 3d 7e a8 0f 3d
       0.06132825 -0.09900734 0.083838224 0.035072796
0000a0 f2 8b 33 3d 60 cd 76 be 07 d8 03 be 51 56 2e 3d
       0.043834634 -0.24101782 -0.12875377 0.042562786
0000b0 99 e2 31 bc 4e ec 4e bd 7c 3b 05 be 7d a8 68 3d
       -0.010857248 -0.050518326 -0.13010973 0.056801308
0000c0 f1 78 9c bd 5c 2b 29 3c
       -0.07640255 0.010325279

classfier.bn2.running_mean f4 [50]
000000 c6 3b 6a bf c6 6f c6 3d c0 a7 7f bd cf 64 46 bf
       -0.9149746 0.09689288 -0.06241584 -0.7749757
000010 28 f8 11 3e 35 cc fe 3d a7 fd 3b 3e b5 f1 b7 bd
       0.1425482 0.12441293 0.1835848 -0.08981649
000020 4e 01 6e bf 50 b2 8d be b2 ad 78 bf 9f ee 32 bf
       -0.9297074 -0.27675104 -0.9714004 -0.69895357
000030 42 b7 45 bf 95 aa 83 bf b5 6b 92 3d 15 08 89 3e
       -0.77232754 -1.0286433 0.0714945 0.2676398
000040 fb b1 44 bf 5c c9 02 3e fb 16 84 bf 85 73 4b bd
       -0.76834077 0.12772125 -1.0319513 -0.049670715
000050 4f 92 f2 3d 7b 78 4a 3e d1 b3 8b be 83 48 69 bf
       0.118443124 0.19772522 -0.27285627 -0.9112627
000060 11 d6 ab 3d 7f 54 64 bf 20 6a 2a bc 3a 90 05 3e
       0.08390439 -0.8919143 -0.010401279 0.130433
000070 0f fe 0a 3e 04 09 5f bf 5b 26 01 3e 30 ed 04 bd
       0.13573478 -0.8712313 0.12612288 -0.032452762
000080 ae 1c 67 bf fc cd 8f 3d b1 93 72 bf 47 0a a6 3d
       -0.90278137 0.0702171 -0.9475661 0.08107429
000090 e5 6c 6f bf 5d d6 a0 3e 08 9e 76 bf 14 94 22 bf
       -0.93525535 0.31413546 -0.96334887 -0.635072
0000a0 c8 f3 17 bf 1a 4f 10 bd 24 83 28 3f b1 da 67 bf
       -0.59356356 -0.035231687 0.65825105 -0.9056807
0000b0 8c 05 57 bf e1 96 8d bf 01 78 c4 bd ae 18 81 bf
       -0.8399284 -1.106167 -0.095932014 -1.0085657
0000c0 dd 29 4f bf 45 1f 69 bf
       -0.80923253 -0.9106334

classfier.bn2.running_var f4 [50]
000000 2b f4 6f 3f b4 77 e4 3e a4 1a 17 3f da 90 4e 3f
       0.93731946 0.44622576 0.59025025 0.80689776
000010 f7 83 6e 3f 80 99 1f 3f 1b 06 24 3f c3 ce 17 3f
       0.9317011 0.623436 0.64071816 0.5929987
000020 20 b0 26 3f fe 3b 9d 3e 51 d1 54 3f d7 d4 bf 3e
       0.65112495 0.30709833 0.8313189 0.3746707
000030 27 0a 09 3f 61 a4 d8 3f b9 14 1c 3f 09 bb 10 3f
       0.53531116 1.6925164 0.6096912 0.56535393
000040 92 1f 38 3f 73 7a eb 3e 98 d4 9f 3f 2e 95 10 3f
       0.7192317 0.4599186 1.2486753 0.5647763
000050 52 bf e4 3e 3a b2 09 3f b0 d7 a6 3e 19 5b 91 3f
       0.44677216 0.5378758 0.32586432 1.1355926
000060 b1 92 b9 3e 17 b4 1c 3f 83 ff f4 3e b0 93 77 3e
       0.3624473 0.61212295 0.4785119 0.24177432
000070 82 de 14 3f 12 f1 36 3f c4 5e d6 3e 01 66 eb 3e
       0.5815202 0.71461594 0.41869175 0.4597626
000080 3d 19 93 3f 78 69 f2 3e 23 83 3c 3f 7a ca 01 3f
       1.1492077 0.4734609 0.736376 0.5069958
000090 cc 9f 58 3f b0 0e 9b 3e 53 de 3b 3f cd 73 5b 3f
       0.8461883 0.30284643 0.73386115 0.8572357
0000a0 e5 fc 22 3f d1 ce 2b 3f 6a a0 04 3f 6b 68 20 3f
       0.63667136 0.6711245 0.5180727 0.6265933
0000b0 50 f2 0a 3f cc df 5d 3f d0 48 ae 3e f5 f6 c5 3f
       0.5427599 0.8666961 0.34039927 1.546599
0000c0 1b 5b 83 3f 3c 8e b1 3f
       1.0262178 1.3871531

classfier.fc3.weight f4 [25, 50]
000000 b1 9b 6e be c1 d6 de bc e6 f1 a9 bc fd 67 18 be
       -0.23301579 -0.027202012 -0.020745229 -0.14883418
000010 1e 5b 19 bd 3f a7 9a bd 9f 14 3b bd 31 0d af bd
       -0.03744041 -0.07551431 -0.045673963 -0.08547438
000020 d4 ea b4 3c 2f e9 09 bc ff 4c f0 bd db b5 82 3d
       0.022084631 -0.008417412 -0.11733436 0.063823424
000030 be f6 3c be 7e 72 2e 3e 01 ef 4e bd c4 8d d4 bd
       -0.184535 0.17035863 -0.0505209 -0.10378602
000040 75 98 3f be e1 5b be 3c 43 ba 1b 3e 37 51 0b bd
       -0.18710501 0.02323717 0.15207772 -0.034013
000050 2b 7c a8 bd 1a c5 67 bd af 12 c2 bc 62 df 1f 3d
       -0.08226808 -0.056584455 -0.02369055 0.039031394
000060 a5 84 fd bc 7d 7b a4 3c 97 d2 46 bd d3 1f e9 bc
       -0.030947039 0.020078415 -0.048540678 -0.028457558
000070 4f 56 99 bd c7 6c cb 3d 33 47 d4 3a 66 5d b7 bd
       -0.07487165 0.09932857 0.0016195535 -0.08953361
000080 76 bc 16 3a e5 5c d1 3c 19 32 ba 3c 11 2c 6b bd
       0.0005750129 0.02555699 0.022728967 -0.057415072
000090 e7 de 36 be 43 08 99 3c 54 4d 0c 3e 9e e6 94 bd
       -0.17858468 0.018680697 0.13701373 -0.07270549
0000a0 b4 35 b6 3d 00 ce 9d bc 7d e1 1a bd d7 80 97 3d
       0.08896962 -0.019263268 -0.0378127 0.07397621
0000b0 88 95 05 be 5a 2a 1f 3e 89 e1 fb bd 63 9e 4f 3e
       -0.13045323 0.155435 -0.12298877 0.20275263
0000c0 6f 19 27 3d a1 57 e9 3c 75 e6 07 be c5 05 3c bd
       0.04079574 0.028484168 -0.13271506 -0.04590394
0000d0 56 e7 e2 bc 9a 17 19 3d 94 41 11 bc 19 56 48 bd
       -0.0276982 0.037376024 -0.008865733 -0.048910234
0000e0 53 4e d1 bc a6 ab 05 bd 0b 7d 02 3e 63 f2 d0 bb
       -0.025550043 -0.0326344 0.12743013 -0.006376551
0000f0 48 2e 5c be 2f 02 45 3d 40 91 13 be bc d6 18 3d
       -0.2150203 0.048097786 -0.14410877 0.03731416
000100 27 17 7c bd aa 92 b1 bd 71 7b 37 be bc a6 a0 bd
       -0.061545517 -0.08670552 -0.17918183 -0.07844302
000110 4b b1 56 3d d3 48 73 bd a4 97 70 bd a8 c1 94 bd
       0.052415174 -0.059395622 -0.058738366 -0.072634995
000120 ec d1 de bd 91 ec 0d 3e ab 55 27 bc 04 5f 7f bd
       -0.10879883 0.13859774 -0.010213296 -0.062346473
000130 b6 20 a9 3b 9f 8e e8 bc 02 9c 9c bd f3 ba f1 3d
       0.00516137 -0.02838832 -0.07646944 0.11803236
000140 ca 89 ee bc 7e 8a 85 bd b3 58 db 3d 6c 08 00 3d
       -0.029118437 -0.06520556 0.107102774 0.03125803
000150 70 b0 1e be d2 40 55 bd 9c 60 ce bd 52 1c bb bc
       -0.15496993 -0.05206377 -0.100770205 -0.022840653
000160 ac 11 88 bd 76 ff 50 be 7b 05 a9 3d 6c 36 b0 bd
       -0.06643996 -0.2040995 0.082529984 -0.0860413
000170 68 17 f0 3c b6 1c 16 3e 6c 51 91 3d 31 d1 fb 3d
       0.029308036 0.1465939 0.07095608 0.122957595
000180 c4 c3 08 bd de 1e 40 3d 8e 93 dc bd ae d7 de 3d
       -0.03338982 0.046904437 -0.10770331 0.108809814
000190 fb 02 05 3e 2b 2c ad bd 31 95 2f bd e2 ad 99 3d
       0.12989418 -0.0845569 -0.04286689 0.07503869
0001a0 13 47 3a bb 98 7a 99 bd 5b ab 49 bd 14 e2 2d bd
       -0.0028423711 -0.07494086 -0.049235683 -0.042451933
0001b0 16 c9 e8 3d 87 02 fc 3c b2 31 16 3e 66 71 da bc
       0.11366479 0.030762924 0.14667395 -0.0266654
0001c0 bf e6 9f 3d 82 88 4c 3a c7 3a b5 bc 2a 5c 13 bd
       0.07807683 0.00078023237 -0.022122754 -0.035976566
0001d0 16 4c d6 3d 8e be 3a 3d 8f 0e 1b be 32 c2 af bd
       0.10463731 0.045591883 -0.15142272 -0.08581962
0001e0 71 75 4b bb 80 38 76 3c 52 c0 38 3b 98 b8 09 be
       -0.0031045342 0.015028119 0.0028190804 -0.13449323
0001f0 3b 13 b3 bd 5e 33 08 3e 21 42 cb 3c 93 5c 56 bd
       -0.08743902 0.13300845 0.024811806 -0.05233438
000200 dd 69 8a bd 10 e1 98 3d 0c 50 42 be 15 e0 72 bd
       -0.06758473 0.07464802 -0.18975848 -0.059295733
000210 75 45 8e bd 94 e5 1f be e9 cf 20 3e df 64 e3 bc
       -0.069468416 -0.15614921 0.15704311 -0.02775806
000220 05 88 e3 3d dd 4f f1 bc 33 19 05 3e f2 15 04 3e
       0.11109928 -0.029457027 0.12997894 0.12898996
000230 e2 25 3c be 55 9d 93 bd 67 40 90 bc 47 7f 0c 3e
       -0.18373826 -0.07207743 -0.017608834 0.13720427
000240 7c 25 2c 3e cf 2d 04 bd da 9c ce bc 9b 9f 30 bd
       0.16811174 -0.03227025 -0.025221277 -0.04312096
000250 73 63 4e 3d 97 c1 69 bd 72 75 3f 3d 42 16 26 3b
       0.05038781 -0.057069387 0.046742864 0.0025342857
000260 7b 0b 5b bd 6f 93 18 be 82 c6 7c bd d3 b1 79 bd
       -0.053477746 -0.14899991 -0.06171275 -0.060960602
000270 e8 5e 38 bd fa 6b 81 bd 5d 00 d0 3d b1 5f 8f bd
       -0.045012385 -0.06319423 0.10156319 -0.070006736
000280 9d 5e 13 bd bb 2c 74 3c ff f6 2d 3c 5b 9a 7c 3c
       -0.035978902 0.014903243 0.0106179705 0.015417661
000290 34 8d 78 bd ef 7e d8 bd d5 fc e6 bc ac 17 c9 3c
       -0.060681537 -0.10571086 -0.028196732 0.02454742
0002a0 d7 9f 19 3e 1a 2f a2 bd 46 f4 28 bd 15 21 b9 bd
       0.1500238 -0.0791914 -0.041248582 -0.09039513
0002b0 03 17 a8 bd 8f 6c 0c 3e 0b 27 2c bc a3 a3 83 be
       -0.08207514 0.13713287 -0.010507355 -0.25710782
0002c0 8a 20 5b 3c 3b cb c1 bb 45 12 18 bd 7f 45 01 3e
       0.013374457 -0.0059141195 -0.0371268 0.12624167
0002d0 03 82 d3 3c c1 2d 35 bd a8 45 4d 3d d6 70 89 3c
       0.02581883 -0.044233087 0.050115258 0.016777437
0002e0 a5 e6 77 bd 91 f3 f0 bc 6f 6a 2a be 13 92 5f 3c
       -0.060522694 -0.029413017 -0.16642164 0.013645667
0002f0 f1 3c 29 be 21 d0 51 bd aa d4 83 3d 07 76 e4 bd
       -0.16527154 -0.051223878 0.06437047 -0.111553244
000300 be 03 05 bd 8d bb 7c 3d 78 00 9f 3d 24 98 f5 3d
       -0.032474272 0.0617023 0.07763761 0.11991909
000310 c8 6d cf bd f2 99 15 3e cf f4 5c be e8 7a 15 3e
       -0.10128361 0.14609507 -0.21577762 0.14597666
000320 fc e6 7b be 7e 7c 24 bd 10 a0 42 bd b6 18 16 be
       -0.24599832 -0.040157788 -0.04751593 -0.14657864
000330 89 92 1e bd df f4 61 bd 6d 04 2d bd 37 38 44 bd
       -0.038713966 -0.055165168 -0.04224055 -0.047905173
000340 a2 39 b9 3c 24 e9 b5 3d 75 2c 44 be e8 4f 9b bc
       0.02261049 0.08882359 -0.19157584 -0.018959
000350 0b 24 c8 bb c0 5f e1 3d f1 39 36 bd e6 7f c1 bd
       -0.0061078123 0.11004591 -0.04448885 -0.09448223
000360 94 8b 65 3d 3d 6c d3 bc 62 1e b1 3d 92 f7 4b bd
       0.056041315 -0.025808448 0.08648373 -0.04979665
000370 b4 1c df bc c5 57 8e bd f2 97 c6 bd ba c3 1b 3e
       -0.027235366 -0.069503345 -0.0969695 0.15211383
000380 e7 87 14 bd 85 fc cc bd 9e 24 d8 3c 20 02 01 bd
       -0.03626242 -0.10009102 0.026384648 -0.031496167
000390 30 0b 89 bd 20 49 29 3e 79 fb fd ba 27 45 7f bd
       -0.06691587 0.16531801 -0.0019377313 -0.06232181
0003a0 21 26 18 3e d4 85 dd 3b 1c b4 c3 3d 20 fe 0f bd
       0.14858295 0.0067603383 0.095558375 -0.03515446
0003b0 17 bf 08 be 4f f8 9b bb c8 6f c5 3c a6 f0 af bc
       -0.13354145 -0.0047598253 0.024101153 -0.021477055
0003c0 5d 91 6b 3d e4 21 a9 bd 43 45 31 bd 86 da 28 be
       0.057511676 -0.08258417 -0.043278944 -0.1648961
0003d0 10 49 89 bd c0 39 17 3e f6 25 a0 bd 35 2f 06 3e
       -0.06703389 0.14768124 -0.078197405 0.13103946
0003e0 e6 68 40 be 84 7b 80 3d 58 f5 a4 3b ea bd 37 3e
       -0.18790016 0.06273559 0.00503413 0.1794354
0003f0 05 7b 31 3e 1e 89 d3 bd b2 ef a0 bd 9a 80 74 3d
       0.17332084 -0.103288874 -0.07858218 0.059692957

classfier.fc3.bias f4 [25]
000000 6a 64 8e 37 de 76 91 36 22 af b7 35 8c 7c 1e 38
       1.6974478e-05 4.3351747e-06 1.3685533e-06 3.778613e-05
000010 01 2a c2 b6 68 7d f6 b8 a9 e3 3e b8 43 fb d2 b6
       -5.7865404e-06 -0.00011753553 -4.5511555e-05 -6.2877384e-06
000020 b0 d0 6b 34 88 1e 10 b7 f7 49 f9 b8 cc a4 c6 37
       2.1962e-07 -8.5901775e-06 -0.00011887022 2.3680179e-05
000030 79 04 85 b5 16 fe 0a b8 94 3c 82 b6 6c 02 5d b5
       -9.910574e-07 -3.31384e-05 -3.881354e-06 -8.233244e-07
000040 74 ab 44 b4 49 6d 05 39 da 0c fe b6 53 b2 4a b8
       -1.8316297e-07 0.0001272458 -7.571286e-06 -4.832663e-05
000050 16 fb 74 36 ce e2 86 b6 ea de 8b b7 b9 98 a2 b5
       3.6504985e-06 -4.0199147e-06 -1.6673894e-05 -1.2114389e-06
000060 e9 ac 30 b7
       -1.0530676e-05

classfier.bn3.weight f4 [25]
000000 a7 32 a6 3f fc 1e a1 3f 00 cf a0 3f cc 62 a6 3f
       1.2984208 1.2587581 1.2563171 1.29989
000010 92 0f b0 3f 62 3c 8b 3f e7 a1 a0 3f 10 74 88 3f
       1.3754752 1.0877802 1.2549409 1.066042
000020 d2 2b 91 3f fc 11 a1 3f c3 b2 ae 3f 67 d2 a5 3f
       1.1341498 1.2583613 1.3648304 1.2954835
000030 83 66 8d 3f e0 f2 8a 3f 1b c6 83 3f 2f ec 89 3f
       1.1046909 1.085537 1.0294832 1.0775203
000040 c9 2a ad 3f 95 64 a6 3f a7 f9 8c 3f 52 07 a9 3f
       1.3528682 1.2999445 1.1013688 1.3205359
000050 27 07 91 3f 83 08 8d 3f d8 fd 88 3f b6 75 91 3f
       1.1330308 1.1018223 1.0702467 1.1364048
000060 2b 09 a0 3f
       1.2502798

classfier.bn3.bias f4 [25]
000000 ce 8b 8e 3e fe 7e 70 3e 45 c9 78 3e cf 57 90 3e
       0.27841038 0.23485944 0.24295528 0.28191993
000010 7e 05 b8 3e 19 cd 25 bd a8 be 77 3e ad 58 32 bd
       0.3594169 -0.0404788 0.24193823 -0.0435416
000020 cc c8 83 bc a5 cd 77 3e 6e 65 c1 3e 25 5b 97 3e
       -0.016086958 0.24199541 0.37772697 0.29561725
000030 ed 3c e9 bc ff b5 2a bd af 28 7d bd a4 7e 29 bd
       -0.028471434 -0.04167747 -0.061806377 -0.04138054
000040 e4 8b ab 3e 9c 43 90 3e 62 15 1e bd b0 b5 95 3e
       0.33505166 0.28176582 -0.03859461 0.2924018
000050 fd c9 18 bd 00 9e c1 bc 03 ef 2c bd d6 d6 8a bb
       -0.037302006 -0.02363491 -0.042220127 -0.004237036
000060 95 2e 6f 3e
       0.23357613

classfier.bn3.running_mean f4 [25]
000000 27 ce 96 be c5 45 c4 be da 8e f8 3d 95 8f 84 be
       -0.29454157 -0.3833448 0.12136622 -0.25890794
000010 4b b5 9a be 04 c8 c3 bd ba a7 fc be b0 7c 27 bd
       -0.3021644 -0.09559634 -0.49346715 -0.040890396
000020 60 b9 46 bc 09 fa 49 bd 7a d7 f0 be 1d 7f 16 bf
       -0.012129158 -0.049310718 -0.47039396 -0.5878771
000030 ff 8a 63 bc ed d0 ae bd 66 99 47 be f5 ff 49 bd
       -0.01388812 -0.08535943 -0.1949211 -0.049316365
000040 bd 5f f1 bb b1 ff a3 3e cc 70 c9 bd fb 1d d0 be
       -0.007366149 0.32031015 -0.098359674 -0.40647873
000050 b9 2f 2d be fa 51 85 bd 2f 88 03 3d e7 36 a8 bd
       -0.16912736 -0.065097764 0.032112297 -0.08213597
000060 3d bf 45 be
       -0.19311233

classfier.bn3.running_var f4 [25]
000000 6c dd 33 3f 1d 55 23 3f f0 9d 8d 3f 90 82 2f 3f
       0.7025974 0.6380175 1.1063824 0.685586
000010 43 ac 1b 3f 7a 6c b0 3f ff 37 3e 3f 11 d3 41 3f
       0.60809726 1.3783104 0.74304193 0.75712687
000020 36 48 a6 3f 21 11 3a 3f 66 b2 f5 3e 91 96 0e 3f
       1.2990787 0.72682387 0.4798767 0.55698496
000030 11 66 89 3f b0 29 4c 3f 1c 6f 40 3f 4a 01 73 3f
       1.0734273 0.7975111 0.7516954 0.9492384
000040 c7 b0 67 3f a5 e3 8a 3f 40 64 a2 3f 21 82 05 3f
       0.90504116 1.0850722 1.2686844 0.52151686
000050 77 d1 a3 3f 0e 62 59 3f 79 bf a0 3f 63 18 93 3f
       1.2798299 0.84915245 1.2558433 1.1491817
000060 bb 7f 49 3f
       0.78710526

classfier.fc5.weight f4 [1, 25]
000000 da 94 a2 be 7e 6a b7 be 55 02 bc be d5 af 9a be
       -0.3175419 -0.35823435 -0.3672053 -0.30212274
000010 02 67 7e be 11 b2 5d 3e fb be be be 47 1b 39 3e
       -0.24843982 0.21649958 -0.37255082 0.18076812
000020 03 90 13 3e fd 47 c4 be 70 07 92 be 2b 46 9e be
       0.14410405 -0.38336173 -0.285213 -0.3091291
000030 83 68 0f 3e 8f 5b 04 3e 2e 84 2d 3e ab e8 4a 3e
       0.14004712 0.12925552 0.16944954 0.19815318
000040 cf 73 88 be cd 5b 9f be 9a 36 4f 3e a2 3f 8e be
       -0.26650855 -0.31124726 0.20235673 -0.27782923
000050 fc 78 3f 3e 2b 4e 37 3e 38 af 7a 3e f7 80 e4 3d
       0.18698496 0.17900912 0.24480903 0.111574106
000060 8c e3 d9 be
       -0.42556417
