src/trained_models/2025-05-31/run_15-05-51/dnn_model_fold_1.pt (torch, 75713 bytes, 19 tensors)

classfier.fc1.weight f4 [100, 100]
000000 ca 89 df 3d c6 58 91 3d 72 b6 9b 3d 9c d6 ad 3d
       0.10914953 0.0709701 0.07603158 0.08488199
000010 19 a7 cc 3d f7 0b 88 bc a0 0f 8d bd e3 f8 83 3d
       0.09992809 -0.016607268 -0.06887746 0.06443956
000020 07 e1 80 bd f3 5b a7 3d 88 c4 b6 3d 32 7b ae bd
       -0.062929206 0.08171835 0.08924204 -0.085195914
000030 78 ea c6 3c 07 97 af bd f9 2b 04 3d 39 c9 d3 3d
       0.024281725 -0.08573728 0.032268498 0.103411146
000040 60 a9 dc 3d 61 8f 56 bd 2f ba 30 3d 72 7b 5a bd
       0.10774493 -0.05238283 0.04314631 -0.053340383
000050 93 1f d0 3d 13 f1 20 bd 54 d3 9d 3d 76 81 b9 bd
       0.10162272 -0.039292406 0.07706323 -0.09057896
000060 8d d8 ec bc 41 ce 9f bd 9b 54 ae 3d b7 15 38 3c
       -0.028911853 -0.07803012 0.08512231 0.011235646
000070 93 22 9a 3c 63 4a 99 bd 2b f5 38 bd 23 19 12 3d
       0.018815314 -0.07484891 -0.045155685 0.035668503
000080 52 08 db 3d 7a 9e 3a 3d 4c ad 38 bc 81 4c f9 bc
       0.10694946 0.04556129 -0.011271786 -0.030431988
000090 5b b2 c1 3c c4 c5 76 3d 55 3c 08 3d fc 3c ad bd
       0.023644617 0.060247198 0.033260662 -0.084588975
0000a0 59 db 4b bd 07 77 32 bd 35 fa 83 3a 4c 5c 27 3d
       -0.049769733 -0.043570545 0.0010069074 0.040859506
0000b0 db 69 05 3d db 3a 8b bd 70 7a 1b 3c 54 d9 8b bd
       0.032571655 -0.06798335 0.009489641 -0.068285614
0000c0 96 8e 8d bd 10 b0 14 3d 5a cb 7f bd 24 ad 9f bd
       -0.06911962 0.03630072 -0.06244979 -0.07796696
0000d0 dd 12 86 bc e5 ad 90 3d 80 99 14 3d 04 fe 48 3d
       -0.016366417 0.07064418 0.0362792 0.049070373
0000e0 33 22 73 3d 11 a2 8d bd 58 18 b2 3d 05 f6 65 bd
       0.059358787 -0.06915677 0.086960495 -0.056142826
0000f0 dd 0b 66 ba b8 c6 9d bd 7e 28 be 3d 9c 3b ca 3d
       -0.00087755715 -0.07703918 0.09285067 0.09874651
000100 42 09 c9 3c fa 2f b9 bd 2d 84 97 3d 38 0e b9 3d
       0.024540547 -0.09042354 0.073982574 0.09035915
000110 7c 44 23 bd 64 1a 8b bd b2 b1 95 bd 27 a1 34 bc
       -0.039860234 -0.06792143 -0.07309283 -0.01102475
000120 d2 c8 3c bd 89 da 5a bd a8 a2 27 3d f4 48 a0 bc
       -0.046089955 -0.053431068 0.040926605 -0.019566037
000130 ed 6b 74 bd 92 ab 83 3d cd 42 c8 bd 68 1e 6d 3d
       -0.05967324 0.06429209 -0.09778366 0.057890326
000140 03 5d ae bd c9 f8 69 bd fe 27 ad 3d a7 bf 88 bb
       -0.08513834 -0.057122026 0.084548935 -0.0041732374
000150 ec b3 94 bd d1 00 86 bc 11 07 2e 3c 36 cd dd 3c
       -0.0726088 -0.016357811 0.010621802 0.027075391
000160 1c 37 af bc 2d 05 41 3d 68 5d 84 bd ea 70 06 3d
       -0.021388583 0.047124077 -0.06463128 0.032822527
000170 72 fe c5 bd c6 1a a8 3d fc b1 9f bd 02 89 ad bc
       -0.09667672 0.08208232 -0.0779762 -0.021183494
000180 b8 55 50 3d a7 e0 eb 3b 82 85 64 3d 3c 70 a3 3d
       0.050862998 0.0071984115 0.055791385 0.079803914
000190 eb 73 79 bd 04 7d bb 3c a6 71 c8 3d fd 1a b2 bc
       -0.060901564 0.02288676 0.09787302 -0.021741385
0001a0 64 23 c0 bc a4 52 b0 3d 96 0b 09 bd fa 2b 27 3b
       -0.023454376 0.086095124 -0.033458315 0.002550839
0001b0 10 2d 8d bd cf 05 39 3d 56 b5 1f 3d d0 00 02 bd
       -0.068933606 0.045171555 0.038991295 -0.031739056
0001c0 65 bb e4 3d 65 4e 04 be 1c d8 6b 3c 60 a7 dd 3d
       0.11168555 -0.1292053 0.014394786 0.1082294
0001d0 3d c6 ba bd be 0f ad bd 3c b7 9b bd f6 69 0c 3c
       -0.09119842 -0.08450268 -0.076033086 0.008570185
0001e0 6e 35 50 3c 0a c2 c8 3d 41 fe a7 3d 46 1c ae 3d
       0.012708051 0.09802635 0.08202792 0.085014865
0001f0 6e be b6 3d f7 4c 79 bb 71 80 36 bd 30 53 39 3d
       0.0892304 -0.003804026 -0.044556085 0.04524535
000200 b2 c6 e5 bd b9 3e 84 3c 6b ce c0 3c 8a 33 de 3d
       -0.11219539 0.01614319 0.023535928 0.10849674
000210 e3 0c 24 3d 6b ea 7c bd 06 f8 27 bd 99 d7 5f bd
       0.040051352 -0.061746996 -0.041008018 -0.05464897
000220 3f 2c 65 3b bd 39 f5 3b e3 0b bf 3d c1 4d a8 bd
       0.0034969 0.0074836896 0.09328439 -0.082179554
000230 3e e5 cc 3b bc 50 79 3d c3 44 6a 3d 7a 28 99 bc
       0.0062529137 0.06086801 0.057194483 -0.018696059
000240 1c 78 4d bd 42 6c ac bd 4d 46 ed bc 24 2b 10 bd
       -0.050163373 -0.08419086 -0.028964186 -0.035197392
000250 d1 76 90 3d 88 bc 25 bd 63 91 b7 3b d7 45 3a 3d
       0.070539124 -0.040463 0.0056020482 0.04547676
000260 b7 94 e3 bd c6 2e c7 bc e0 6e f0 bd 20 38 7c 3d
       -0.111123495 -0.024314296 -0.11739898 0.061576962
000270 34 d3 8e 3d 00 4a bf 3a b9 d7 15 3d 87 af 9b 3b
       0.069738775 0.0014594197 0.036582682 0.004751149
000280 b8 62 96 bc 6b 26 0a bd 42 4d 3f 3c f9 01 b6 bd
       -0.01835762 -0.033728044 0.011676135 -0.08887095
000290 e4 2c eb bc 93 50 6d bc 95 76 17 bd 37 5c 70 bd
       -0.028707929 -0.014484542 -0.036978323 -0.058681693
0002a0 b2 ac 84 3c 5b 72 3c 3c 70 28 7f 3c 94 d1 91 bb
       0.016195629 0.011501874 0.015573606 -0.0044500325
0002b0 56 29 43 3d 2f 6d c0 bd 44 1a 3f bd ef c5 26 bd
       0.047646843 -0.09395825 -0.04665591 -0.040716108
0002c0 64 b9 a1 bc 87 b8 b9 3d cd 4f 20 3d d4 11 50 3d
       -0.019741721 0.09068399 0.039138604 0.050798252
0002d0 73 55 2e 3d 8e fe 12 bd e7 5e 09 3d ec d0 a0 3d
       0.04256196 -0.035887294 0.03353777 0.07852349
0002e0 83 c6 8b 3c 86 73 a9 3d 37 53 4f 3c 68 84 9d bd
       0.017062431 0.082739875 0.012654117 -0.0769127
0002f0 6d 50 81 3c 78 9a 59 bd 7a 71 33 bd 4e e0 b1 3d
       0.01578542 -0.05312583 -0.04380939 0.08685361
000300 5a aa b2 3d 1a 13 80 3c 81 90 79 3d c0 39 9c bd
       0.08723898 0.015634108 0.060928825 -0.076282024
000310 c0 76 77 bc ed d1 91 3a f0 62 81 bd 93 22 7f bd
       -0.015103996 0.0011125185 -0.06317699 -0.062288832
000320 ec dd 49 3b 55 60 9e 3d e7 0b cb 3c ce 19 51 bd
       0.0030802442 0.077332176 0.024785949 -0.05105
000330 25 c0 a2 bc 28 db 3d 3d 8a 2f dd 3c bb fd 7e 3c
       -0.019867012 0.04635158 0.027000207 0.015563424
000340 b9 0c 2f 3d bd 08 8e 3d ba df 14 bd a1 7d 3f bd
       0.042736743 0.069352604 -0.036346175 -0.04675067
000350 02 d2 9f 3c 9c 1c a2 bd e0 d2 40 3c 08 8e 8e 3d
       0.01950932 -0.07915613 0.0117690265 0.06960684
000360 e6 1c 4f bd b1 69 a8 bd e3 07 45 bd 07 73 8d bd
       -0.05056467 -0.08223284 -0.048103224 -0.06906705
000370 e8 45 22 3c 0f 61 39 3d b5 91 e7 ba 3a 02 a4 bd
       0.009904362 0.045258578 -0.0017667325 -0.08008237
000380 dc 2f ff 3d a6 52 9a 3d 0a b9 b9 bd 3b 1c f7 3c
       0.124603 0.07535295 -0.090684965 0.030164829
000390 86 d6 ed bc b4 c6 82 bc ab a3 ae bd 39 38 d6 bd
       -0.029032957 -0.01596389 -0.08527311 -0.10459942
0003a0 68 3f 3c 3d f4 35 14 3d 91 44 9a 3c 1f be 38 3d
       0.045958906 0.036184266 0.018831523 0.04510319
0003b0 77 76 c9 3d 48 c2 31 bd e4 52 a4 3d 30 9c 5c bd
       0.098370485 -0.04339817 0.08023623 -0.05385989
0003c0 0f 54 85 3d f4 4e 38 bb 0d 65 1e bd 7e 56 cd bd
       0.065101735 -0.0028123232 -0.03867059 -0.10026263
0003d0 f4 16 4e 3d ae e0 a1 3d f9 31 3a 3d f7 34 7e 3d
       0.05031486 0.079041824 0.045457814 0.06206223
0003e0 82 f1 9d 3a 32 0e 15 3d 9b 11 e2 3c da 9b 48 bd
       0.0012050124 0.03639049 0.027596286 -0.048976757
0003f0 91 5f d9 bd fa f7 82 3c 99 96 78 bd a0 9c 07 3c
       -0.10613931 0.015987385 -0.060690496 0.008277088

classfier.fc1.bias f4 [100]
000000 f5 58 2c 3c 22 55 54 bc ef 5d 11 3d 3c 9f 2a bd
       0.010519256 -0.01295975 0.035489973 -0.041655764
000010 b5 49 31 bd ff e3 b9 bd f8 8f 84 3d 1d f7 1a 3d
       -0.043283183 -0.0907669 0.06472772 0.03783332
000020 ee 24 8f 3c 2c 53 bd bd 2e 8e 30 bd 9d 82 4d 3d
       0.017473664 -0.092443794 -0.043104343 0.05017339
000030 6e a9 d8 3a 31 77 ac bd 39 a9 1b 3c 01 d2 a7 bd
       0.0016529986 -0.084211715 0.009500795 -0.08194352
000040 a2 48 1f bd 94 27 92 bd ef 4c 98 bd f1 f2 a3 bd
       -0.038887627 -0.07136455 -0.07436549 -0.08005322
000050 be 96 c7 bd 1b 2d 6d bd 2d 9f 1d 3d 9f f1 a0 bd
       -0.09745549 -0.057904344 0.03848188 -0.078585856
000060 c6 e5 c6 3d a1 06 3a 3c c4 4a d6 bb 14 61 c3 3d
       0.097117946 0.0113541195 -0.0065396745 0.095400006
000070 3a c0 97 3d 04 49 54 3d 2b ed 87 bd 86 ab eb 3c
       0.07409711 0.051827446 -0.06637033 0.028768312
000080 69 53 05 3d 70 7b 8f 3d 95 9e ab 3d b0 20 bf bc
       0.03255025 0.07005966 0.083798565 -0.023331016
000090 a7 a5 93 bd a0 39 aa 3d 3d b6 02 bd e4 4e b4 bd
       -0.0720933 0.08311772 -0.031912077 -0.0880411
0000a0 e6 ff 8b bd 2a aa 16 3d 90 6f 75 bd 0b 84 11 bd
       -0.06835918 0.036783375 -0.059920847 -0.035526317
0000b0 aa 8d d2 3c b3 fb 19 3b 83 ba 5a 3d 4a 90 6d 3d
       0.025702316 0.0023495972 0.053400528 0.057998933
0000c0 d3 32 c1 bd 99 3a 75 bd 3a 08 92 bd 9a 87 a3 bd
       -0.09433522 -0.059870336 -0.07130475 -0.07984848
0000d0 50 84 b7 3d fc 0f 08 bd 97 30 53 3b 49 82 de bc
       0.089607835 -0.03321837 0.0032225007 -0.027161734
0000e0 2d 71 c4 bc ea b3 a6 3c 7c d3 9d bd 80 01 e8 3c
       -0.023979748 0.020349462 -0.07706353 0.028321028
0000f0 20 50 fb bb 50 c5 6b 3d 5e 6e b7 bb 3e a2 2e 3d
       -0.0076694638 0.05756122 -0.0055978736 0.042635195
000100 33 85 87 3d 72 65 23 bd 1b 41 47 3c 58 db 4b 3c
       0.066172026 -0.039891668 0.012161518 0.012442432
000110 f1 6a 73 3c 9b e1 bc 3d 01 22 37 bd c1 26 f2 3b
       0.01485704 0.09222718 -0.044710163 0.0073898737
000120 f4 eb e7 3c 87 35 3b 3d 6c ef 80 3d 71 65 14 3d
       0.028310753 0.045705345 0.06295666 0.036229555
000130 7d f5 b3 bd cb 8e 50 bc d8 26 58 3d 59 85 82 3d
       -0.087870575 -0.012729357 0.05277142 0.0637309
000140 cd 05 30 bd 96 6c 8e bd 37 f7 4e 3d 73 a1 0a bd
       -0.042974282 -0.06954305 0.05052873 -0.033845376
000150 a7 68 4e 3c 9e f8 66 3c d9 11 62 bd 4b 7c 36 3d
       0.012598193 0.014097361 -0.055192802 0.04455213
000160 20 a7 b9 bd f9 44 5e 3d f6 c6 90 bd b8 13 c5 3d
       -0.0906508 0.054264996 -0.07069199 0.09622902
000170 5a 43 85 bd 96 1e c1 3d ac 66 6b bb 6d bb 01 3b
       -0.06506987 0.09429662 -0.0035919352 0.0019795552
000180 59 e6 84 bd 30 a9 8a 3d c3 a2 15 3d a7 b9 b3 3d
       -0.06489248 0.06770551 0.036532175 0.08775645

classfier.bn1.weight f4 [100]
000000 1a 43 7e 3f 0e 16 7f 3f 80 3b 79 3f eb ef 7a 3f
       0.9932114 0.9964303 0.97356415 0.98022336
000010 d6 a5 81 3f 8a 52 81 3f 66 27 7d 3f 1b 3a 81 3f
       1.0128734 1.0103314 0.9888824 1.0095857
000020 bb 61 7f 3f 1f b5 7f 3f 23 d9 80 3f d8 e1 7c 3f
       0.997585 0.99885744 1.0066265 0.9878211
000030 e4 7a 74 3f 6c 63 82 3f ed a7 7e 3f 5f 08 81 3f
       0.95500016 1.0186591 0.99474984 1.008068
000040 f0 51 79 3f 3e f2 71 3f 0f 1a 7f 3f 95 79 84 3f
       0.9739065 0.9451026 0.9964914 1.0349604
000050 c4 2e 76 3f 5c d9 7d 3f cd 81 89 3f bc 1e 78 3f
       0.9616511 0.9915979 1.0742737 0.96921897
000060 0c ad 88 3f 0c f2 87 3f df f9 82 3f c9 41 78 3f
       1.067781 1.0620742 1.0232505 0.9697538
000070 a5 55 7a 3f e0 27 81 3f 8e ef 80 3f a1 6c 7d 3f
       0.97786933 1.0090294 1.0073106 0.9899388
000080 6e 96 85 3f f1 2a 81 3f e8 b4 78 3f 09 cb 80 3f
       1.0436532 1.009123 0.9715104 1.0061961
000090 f3 04 7e 3f 80 6f 81 3f 11 b1 81 3f d0 69 80 3f
       0.992263 1.0112152 1.0132161 1.0032291
0000a0 65 0c 7d 3f b8 38 76 3f 0a 28 80 3f 3e 7f 76 3f
       0.9884704 0.96180296 1.0012219 0.96287906
0000b0 7d 85 82 3f c7 0f 7c 3f bd 19 81 3f 78 43 84 3f
       1.0196987 0.98461574 1.008598 1.033309
0000c0 02 ab 80 3f ae 3e 85 3f 2e c5 7e 3f 65 c6 7d 3f
       1.0052187 1.0409753 0.9951962 0.9913085
0000d0 16 01 77 3f a3 0b 7e 3f e0 df 7b 3f 35 91 7e 3f
       0.9648603 0.99236506 0.9838848 0.9944032
0000e0 6e 73 72 3f c1 0b 77 3f bb d5 72 3f 29 c5 7d 3f
       0.9470738 0.9650231 0.94857377 0.9912897
0000f0 8b 3f 76 3f 9f 41 7b 3f d6 32 79 3f 35 43 86 3f
       0.9619071 0.98147005 0.97343194 1.048926
000100 77 1e 82 3f 28 46 84 3f 62 4a 7d 3f c2 43 76 3f
       1.0165547 1.033391 0.98941624 0.9619714
000110 02 2a 7e 3f 67 c1 82 3f 35 ca 73 3f 90 e9 84 3f
       0.9928285 1.0215272 0.9523042 1.0383778
000120 33 2a 80 3f c3 01 84 3f 4d 4a 76 3f 02 64 79 3f
       1.0012878 1.0313038 0.96207124 0.97418225
000130 cc 09 83 3f 76 c3 79 3f 14 60 84 3f 2e f3 7b 3f
       1.0237365 0.97563875 1.0341821 0.9841794
000140 4d 71 82 3f e3 ec 73 3f 85 77 75 3f 31 f1 73 3f
       1.0190827 0.95283335 0.958855 0.95289904
000150 9d 9e 85 3f 9e da 81 3f 4d 82 85 3f 11 49 7f 3f
       1.043903 1.0144842 1.043039 0.99720865
000160 10 14 7f 3f ea 18 7f 3f e8 b4 75 3f 01 35 7b 3f
       0.9963999 0.9964739 0.95979166 0.9812775
000170 dd 46 83 3f c1 c6 7e 3f 0d 55 7a 3f 0d 3b 7e 3f
       1.0256001 0.99522024 0.9778603 0.99308854
000180 17 c9 7b 3f bc 68 80 3f 39 dd 80 3f 91 39 7e 3f
       0.98353714 1.0031962 1.0067512 0.9930659

classfier.bn1.bias f4 [100]
000000 00 e4 2a bd 9c 2f f2 bd b2 b5 38 bd f2 70 91 bd
       -0.041721344 -0.11825487 -0.045095153 -0.07101621
000010 33 99 d9 bd 8f a1 88 bd b9 1c d5 bd e6 81 e3 bd
       -0.106249236 -0.0667144 -0.10405869 -0.111087605
000020 13 40 dc bc a2 e1 13 bd 5b bd 98 bd ef 2c f5 bd
       -0.026886022 -0.036103852 -0.07457992 -0.11971461
000030 3c 71 6f bd 35 65 bb bd 3d 0f a2 bd 80 60 06 be
       -0.058457598 -0.09150163 -0.07913063 -0.1312275
000040 66 82 38 bd f5 1b 1f bd 92 e9 d5 bd 52 ac a1 bd
       -0.045046233 -0.03884502 -0.104449406 -0.078941956
000050 ec f9 5b bc b9 e8 02 be 3e c7 9d bc 84 be 0f bd
       -0.013426285 -0.12784089 -0.019260045 -0.0350938
000060 14 fc 03 be 3e 03 da bd 55 fd fa bd 06 63 19 bd
       -0.12889129 -0.1064515 -0.122553505 -0.03744795
000070 d8 f6 9f bd 4a 48 3d bd 4c 72 ad bb f2 4f c9 bd
       -0.078107536 -0.04621152 -0.0052931663 -0.098297015
000080 1a 2d 08 bb 9b ab fa bd 01 f5 1f bd 89 6e d2 bd
       -0.0020778836 -0.122397624 -0.039052013 -0.10274989
000090 c3 9a 97 bd 13 54 b9 bd f2 0a b0 bd 23 fe ae bd
       -0.07402565 -0.09049239 -0.08595838 -0.085445665
0000a0 3a a9 e9 bc f1 69 77 bd c4 86 85 bd e2 0c 85 bc
       -0.028523076 -0.060403768 -0.06519845 -0.016241495
0000b0 96 af f8 bc dd ab 7d 3b a3 d0 5c bc 5d a1 37 3d
       -0.030357163 0.0038707175 -0.013477477 0.044831622
0000c0 c7 53 b8 bd 75 90 d7 bd e1 2a 84 bd 03 80 d3 bd
       -0.09000354 -0.105256 -0.06453491 -0.10327151
0000d0 0f e1 63 bd 99 b9 7f bd 50 b9 c6 39 4d a5 95 bc
       -0.055634554 -0.06243286 0.00037903572 -0.018267298
0000e0 98 4b 74 bd f8 ae 0f bd 37 00 cd bc 7e 87 4c bd
       -0.059642404 -0.035078973 -0.025024517 -0.049933903
0000f0 1d 98 80 bd e8 ba 96 bd b8 6a 9e bd 9f 02 08 3c
       -0.06279013 -0.07359868 -0.07735199 0.008301406
000100 ff 36 f2 bd a0 1a 40 bd 89 9d 88 bd 13 53 75 bd
       -0.11826896 -0.04690039 -0.066706724 -0.05989368
000110 f1 d7 29 bd 29 52 d2 bd 00 15 25 bc 4a ea c9 bd
       -0.041465703 -0.10269577 -0.010075808 -0.0985914
000120 89 97 c2 bd 73 83 b7 bd a3 e1 7e bb fa e3 67 bd
       -0.09501559 -0.08960619 -0.0038891814 -0.0566139
000130 a6 ff b4 bd 4b 99 5c bd 37 6a bb bd 23 e8 46 3c
       -0.088378236 -0.05385713 -0.09151118 0.012140307
000140 f3 90 fa bd 9c 71 de bc 8b 5c 64 bb ef 7e 94 bd
       -0.12234678 -0.027153783 -0.00348452 -0.07250773
000150 25 e7 b2 bd 37 e3 0c be a7 da c8 bd ec 45 6b 3c
       -0.087354936 -0.1375855 -0.098073296 0.014359932
000160 46 e1 e4 bd f8 5d 2a bd 79 60 46 bd f9 49 e6 bd
       -0.1117578 -0.04159352 -0.048431847 -0.11244578
000170 40 67 d2 bd e2 d5 5e bd 55 5c 8d bd 3e 2d 30 bd
       -0.102735996 -0.054403193 -0.069023766 -0.043011896
000180 ed 16 59 bc 0d c1 91 bd 4f cc c5 bd 04 4f 37 bd
       -0.013250095 -0.071169 -0.096581094 -0.04475309

classfier.bn1.running_mean f4 [100]
000000 19 aa 06 bf df 39 c0 be 0b 28 84 bf ad cb 85 3f
       -0.526033 -0.37544152 -1.032472 1.0452782
000010 8f 37 81 3c 28 7e 93 bc 1c 56 ff be cc 78 a8 bd
       0.015773563 -0.018004492 -0.49870384 -0.08226165
000020 bc b3 0f be fa d2 e0 be 38 5d f0 3b 4c eb f3 3d
       -0.14033407 -0.43910962 0.0073353313 0.11910114
000030 78 05 2c 3f d3 c9 2d bf 63 c5 b8 be e9 8e 78 be
       0.67195845 -0.67886084 -0.36088094 -0.24273266
000040 36 57 93 bf df e2 1a bf 4f ff dc 3d ac ba 0f bf
       -1.151099 -0.6050243 0.10790884 -0.56144214
000050 b7 a5 63 3e 4f 52 50 be 9f 90 10 bf 65 60 32 3f
       0.22231184 -0.20343898 -0.56470674 0.69678336
000060 82 60 cb 3d 46 c1 a5 3d 86 94 25 be cc 94 56 3f
       0.09930517 0.080935046 -0.16169938 0.83820796
000070 d3 ff 84 3e c9 c4 0b bf bf 38 43 c0 18 1f e1 bd
       0.25976428 -0.54597145 -3.0503385 -0.10992259
000080 58 00 ad bf 10 96 30 be 2d 65 e6 3c 36 c9 96 be
       -1.351573 -0.17244744 0.028124416 -0.29450387
000090 46 82 f4 be ac 5a e5 be 86 f4 71 be 1e 2c f8 be
       -0.4775564 -0.4479574 -0.23628435 -0.4847116
0000a0 a9 b6 8b be b7 20 a3 bf f0 7c 1b be cd 8b d4 3f
       -0.27287796 -1.2744359 -0.15184379 1.6605164
0000b0 f5 aa fe be c8 f6 8e 3f 24 b8 be bf 30 f3 cb 3e
       -0.49739805 1.1169062 -1.4899945 0.39833975
0000c0 f9 63 0b bf 5f bd 8f be 3b 1f fc be 16 a5 4e be
       -0.5444942 -0.28074166 -0.49242577 -0.20180163
0000d0 8e 42 1d be ee 17 0e bf d4 ab 63 3f 9b 97 a6 3f
       -0.1535742 -0.55505264 0.88934064 1.3015016
0000e0 4f 82 b0 3f 97 4a 81 bf 5a c9 0c 40 9c 15 2c 3f
       1.3789767 -1.0100888 2.1997895 0.67220473
0000f0 83 5c 10 bf f9 58 43 bf af 9a 77 bd eb 9e be bf
       -0.5639116 -0.76307636 -0.060450252 -1.4892248
000100 44 3b 2e be 1b 31 9c 3f f0 13 70 be 23 64 94 3e
       -0.17014796 1.2202486 -0.23445106 0.28982648
000110 50 b5 ef bc 4d 3a d6 be 21 6b bd 3f eb f9 97 bd
       -0.029261261 -0.41841355 1.4798318 -0.07420715
000120 17 7f 80 bd ce 2b 4f be 8b 09 e8 be 51 db 10 40
       -0.062742405 -0.20231554 -0.4531978 2.263386
000130 c4 b0 28 3d 54 3e 9f 3e 37 fb 55 be ec e2 20 bf
       0.0411842 0.3110224 -0.20896612 -0.62846255
000140 90 bd 64 be f6 e4 d1 3d 28 4c 8f 3f 5c 40 26 bf
       -0.22337937 0.10248749 1.1195116 -0.64941955
000150 0a 72 d2 be d4 2a 88 be 64 54 db 3c c4 70 db 3f
       -0.4110263 -0.26595175 0.026773639 1.7143788
000160 91 b0 02 bf a1 13 08 40 34 5b fc 3f da b5 ed 3e
       -0.5105067 2.126198 1.9715333 0.46427804
000170 62 39 96 be ec 77 86 be f0 e0 2c bf d6 e0 05 bf
       -0.29340655 -0.26263368 -0.6753073 -0.522962
000180 cc a8 3e 3f 6a 54 04 bf 02 19 83 bd f8 c7 ae 3f
       0.74476314 -0.51691306 -0.06401254 1.3654776

classfier.bn1.running_var f4 [100]
000000 6c ed 3b 3e 9d f4 af 3d c7 ff c7 3d a7 21 ba 3d
       0.18352288 0.08591578 0.097655825 0.0908845
000010 0f e3 20 3d 17 de 9c 3d be 58 65 3d b8 0e f1 3c
       0.03927904 0.07659548 0.055992834 0.029425964
000020 3d b6 0b 3e f3 9c 96 3d cd 6d 45 3e f4 94 03 3d
       0.13643737 0.073541544 0.19280167 0.032124475
000030 05 68 bc 3d a5 76 83 3d 07 79 a3 3d 18 4d fe 3d
       0.09199528 0.06419114 0.079820685 0.12417048
000040 e4 36 50 3e 66 d1 4e 3e f5 61 af 3d 8e 91 92 3d
       0.20333439 0.20197067 0.08563606 0.071566686
000050 34 0c 0d 3e 30 aa 21 3d a0 0b 92 3d e1 05 06 3e
       0.13774186 0.039468944 0.071311235 0.1308818
000060 0b a4 34 3d 24 c1 8f 3d be fe 48 3d da 3c d4 3d
       0.044101756 0.070192605 0.049071066 0.10363169
000070 aa 3d 2f 3d 13 83 85 3e c1 ec c3 3f 99 86 95 3d
       0.042783417 0.26076564 1.5306627 0.07301063
000080 a1 bb b0 3e 95 63 2e 3d 89 43 c2 3d 19 3b 06 3d
       0.3451815 0.042575438 0.094855376 0.032771204
000090 b3 c3 f4 3d 67 a9 81 3d ce 7b 34 3d d1 4d dc 3d
       0.11951389 0.06331139 0.04406338 0.1075703
0000a0 5c 40 c1 3d 85 8e 73 3e 13 ae 85 3d 26 67 bf 3e
       0.09436104 0.23784836 0.06527343 0.37383384
0000b0 8f 70 89 3d ad 1e e3 3d 5a ce f7 3e a4 cf 8d 3e
       0.06710922 0.11089835 0.4839962 0.2769748
0000c0 94 b0 14 3e 11 1a d6 3d 84 93 bf 3d 51 dc c3 3d
       0.14520484 0.104541905 0.09354308 0.095635064
0000d0 b2 5c 4c 3d 36 6d 7a 3d b0 db f2 3d 49 a2 af 3e
       0.04989309 0.061139308 0.11858308 0.343035
0000e0 91 40 86 3e 42 51 82 3e fc 70 b0 3f 60 76 9c 3d
       0.26221135 0.2545262 1.378448 0.07639766
0000f0 a4 ba 19 3e e9 2e 35 3e 49 01 62 3e e2 3c 4b 3f
       0.15012604 0.17693676 0.22070803 0.79389775
000100 d7 03 36 3d 65 0a 1b 3e 84 5f 98 3d 71 c0 2f 3e
       0.044437256 0.15140684 0.07440093 0.17163254
000110 01 9e 03 3d 79 1e cd 3d dd ea ac 3e 66 fa 05 3d
       0.032133106 0.10015578 0.33772936 0.0327095
000120 b5 36 06 3d 7d 0c 37 3d cc 61 67 3e 1e 8b 87 3f
       0.032767016 0.044689644 0.225959 1.058933
000130 e3 a6 bc 3d d4 28 a6 3d 97 30 90 3d cb 10 d4 3e
       0.092115186 0.08113256 0.07040518 0.41419062
000140 92 91 2c 3d 4e 7c de 3d 9a 20 fd 3d 78 14 d3 3d
       0.042131014 0.10863553 0.12359734 0.103066385
000150 bf e8 c0 3d db c9 4c 3d bf 47 81 3d 43 16 d6 3e
       0.09419393 0.049997192 0.063125126 0.4181386
000160 45 e6 79 3d 95 26 db 3e da f4 30 3f c5 36 5e 3d
       0.061010618 0.42802873 0.69123614 0.05425145
000170 7f 91 ea 3c 45 06 2c 3e 5f 64 51 3e d8 dd 14 3e
       0.028633831 0.16799267 0.20448445 0.14537752
000180 a7 9b cf 3d 3f fb 64 3e a5 93 2d 3d ac ae 7a 3e
       0.1013711 0.22361468 0.042377133 0.24480695

classfier.fc2.weight f4 [50, 100]
000000 97 61 3d 3d ac 77 a7 bd 95 02 07 bd 4b 03 38 3d
       0.046235647 -0.081771225 -0.032961447 0.044925015
000010 e3 fd b2 bc d6 6a 95 bd 77 b8 a5 bd 94 ae ad bb
       -0.021849578 -0.07295768 -0.080918245 -0.0053003523
000020 c1 d1 5c bd 13 81 4f bd 33 fc 50 3d 7d c2 51 bd
       -0.053910974 -0.050660204 0.051021766 -0.05121087
000030 ca fb 6d 3d 3f db fe bd 09 72 07 bd ea 37 1f bd
       0.058101453 -0.124441616 -0.033067737 -0.038871683
000040 c4 ae a1 bc 0e 9f 18 bd 2a 13 42 bd 33 de b4 bd
       -0.019736655 -0.03726106 -0.047381558 -0.08831444
000050 8b e8 1c be 12 e5 2a bb e8 85 5f 3d 11 20 97 bd
       -0.15323083 -0.0026076478 0.054571062 -0.07379163
000060 0d b9 45 3d 1a ba 54 3d 44 ed d8 3c 26 11 75 3c
       0.04827218 0.051935293 0.026480325 0.014957702
000070 92 4f 15 bd 60 4a 8e bd 21 fa fb bc ba 56 af bd
       -0.036452837 -0.0694778 -0.03075892 -0.08561464
000080 ad 36 67 bd 07 77 99 bd fc d9 51 3d 52 4b dc bb
       -0.056448627 -0.07493406 0.051233277 -0.006722846
000090 89 37 5a bd 96 f4 d8 ba 50 41 20 3d b1 4d c2 bc
       -0.05327562 -0.0016552384 0.039124787 -0.023718687
0000a0 92 29 d7 bd c9 1a b4 bd 6e af 7b 3d cb 5e 85 3d
       -0.10505976 -0.08794171 0.0614466 0.06512221
0000b0 2f b5 5e bd 8e a0 9c 3d d2 58 7f 3d 6c a9 39 3c
       -0.05437201 0.07647811 0.062340565 0.011331897
0000c0 13 20 f1 3c ee ac 95 bd e7 e3 12 be cc ac a0 bd
       0.02943424 -0.07308374 -0.1434475 -0.078454584
0000d0 7f 90 c1 bb 80 9e 0c bd 85 a4 9c bd 74 1f cc bd
       -0.005907118 -0.034330845 -0.07648567 -0.09966937
0000e0 fb 07 2c 3a 67 b0 e4 bc 7e fb d5 bd 6f f9 16 3c
       0.00065624685 -0.027916146 -0.10448359 0.009214743
0000f0 0d 9c 06 be 69 01 aa 3c b9 54 11 bd ef d9 9c 3c
       -0.13145466 0.020752626 -0.03548119 0.019146888
000100 c0 96 99 3d 4f 3d 25 3d 84 50 93 bd 3c a4 a2 bd
       0.074994564 0.04034167 -0.071930915 -0.079414815
000110 27 34 1f bd 27 73 3b bd 95 ed 23 bc f1 40 c3 bd
       -0.038868096 -0.045764115 -0.010005374 -0.09533871
000120 50 ee 32 3d 7d df fd bc 26 66 3b 3d c7 b3 bf bd
       0.043684304 -0.030990357 0.045751713 -0.09360462
000130 d3 76 b2 3d be 60 d4 3c e6 d9 fd 3c c4 74 fb 3c
       0.0871407 0.025925037 0.030987691 0.030695327
000140 5c 01 63 3d 8b 75 73 3d b6 40 ea 3b 0a a0 e5 bd
       0.05542122 0.05943827 0.0071488274 -0.11212166
000150 29 15 0b 3d c1 69 e6 bd 89 63 85 bd 62 9f 31 bd
       0.033955727 -0.1125064 -0.065131254 -0.04336489
000160 f2 2f 9a bd 8f 90 d4 bc ba 60 04 3d 8f 1e 87 3d
       -0.07528676 -0.025947837 0.03231881 0.065976255
000170 53 bf 7e 3d 3a f7 62 bb 57 b2 b8 bc 5f e3 ff bc
       0.06219418 -0.0034632222 -0.022545977 -0.031236349
000180 37 8d b4 bc 14 22 3e 3d e9 80 d0 bd 53 36 12 3d
       -0.022039993 0.04641922 -0.10180838 0.03569634
000190 5a 42 f3 3c a3 14 ee 3d 48 60 f6 b8 84 19 a2 bd
       0.029694725 0.1162503 -0.00011748128 -0.07915023
0001a0 87 76 ef 3d 0a e6 a8 3d 21 2c 75 3d f0 7a b0 3d
       0.11692529 0.082470015 0.059856538 0.086171985
0001b0 8f 5a 18 bd 3f 00 3f bd 2c 0a e8 3c 9d 07 86 3c
       -0.03719574 -0.046631094 0.028325163 0.016361052
0001c0 61 7c 06 bd 5b 6d c0 3d 87 2a a2 bc ca eb c1 3d
       -0.03283346 0.09395858 -0.01979567 0.09468801
0001d0 b1 62 af bd 8b 74 61 3d 0f c1 e3 3c 98 ac 92 3d
       -0.08563746 0.055042785 0.027802018 0.07161826
0001e0 13 d2 9f 3b 72 8f 9c 3d 97 08 91 3c 14 52 b9 bc
       0.0048773377 0.076445475 0.017704291 -0.022622146
0001f0 85 e4 a2 3d e3 be 95 3d fa 38 ae 3d dd 15 3d 3d
       0.07953743 0.073117994 0.08506961 0.04616343
000200 29 da ac 3d 62 5f a4 bb 08 f1 30 3c 01 36 a7 3d
       0.08440048 -0.0050162533 0.010799654 0.08164597
000210 8d 9d d4 3c f0 20 af 3b d4 5c 17 3d a4 bf e4 3c
       0.025954032 0.0053445026 0.036953762 0.027923413
000220 78 68 8f 3c 74 b7 79 3d 88 7a 85 bc 35 a3 48 3d
       0.01750587 0.06096597 -0.016293779 0.04898377
000230 04 76 1b 3d d5 69 c0 bc 3a fa 0e 3e 18 8d b0 bd
       0.037954345 -0.023487965 0.13962641 -0.086206615
000240 b7 81 af 3c 58 66 47 3d 9a 74 f2 3c 26 d2 18 bd
       0.021424158 0.048681587 0.029596616 -0.03730979
000250 2f 05 ec bb ac 41 e7 3d 23 2f 15 3d 3a b9 6e 3d
       -0.0072027664 0.11291823 0.036421906 0.058282115
000260 6b f3 cb 3d 8e fe 06 3d 53 40 b8 3c 79 b0 18 3d
       0.09958538 0.032957606 0.02249161 0.037277672
000270 77 e0 eb 3c e7 cb d7 3c fe a8 73 bd 51 21 9f bc
       0.028793557 0.026342345 -0.059487335 -0.019425066
000280 36 95 03 3d bc 07 8a 3d de ed cb bc e3 fb c9 3d
       0.03212472 0.067397565 -0.024893697 0.09862497
000290 d7 28 e4 3d ca 90 c0 bc c4 d1 95 bc 64 60 39 bd
       0.11140602 -0.02350654 -0.0182885 -0.04525794
0002a0 7c a1 2d 3d 94 72 04 3c 06 b2 d3 3c 72 51 19 3d
       0.04239033 0.008083958 0.025841724 0.037431188
0002b0 61 f6 3c 3d 45 48 9e 3d 26 ef 5a bd b3 7a 33 bd
       0.046133403 0.07728628 -0.053450726 -0.043818187
0002c0 1e fe e7 3d 35 eb a5 3d 65 9e 34 3d a7 de c2 3c
       0.11327766 0.08101503 0.04409637 0.02378781
0002d0 02 34 3e 3d 05 c6 be bc 53 82 f3 3c 0b 4e b7 bc
       0.046436317 -0.023287782 0.02972523 -0.022376081
0002e0 81 73 80 3d 9d 36 82 3d b9 39 9e 3d 97 1a d9 bc
       0.062720306 0.06358073 0.077258535 -0.026501937
0002f0 63 82 c0 3c 80 36 33 bd 47 9a 6f 3d ac 4b de 3c
       0.023499673 -0.043753147 0.05849674 0.027135693
000300 d0 e1 b1 3d 4a 4a c0 3c 60 77 fa 3d 74 34 42 3d
       0.086856484 0.023472924 0.122298 0.047413304
000310 f3 5a 36 3d 25 76 2a bc 45 6c 8c 3d a4 52 22 bd
       0.04452033 -0.010404144 0.06856588 -0.039629593
000320 9d b2 91 bb 08 cd 12 3b c8 b2 c8 3d 49 2a d8 bd
       -0.004446341 0.002240004 0.09799725 -0.1055494
000330 52 2f 88 3c 29 54 16 bb 7f 82 0e 3d d5 a4 83 3c
       0.016624127 -0.0022938347 0.03479242 0.016069809
000340 c0 b6 b8 bd f0 2a 9f 3d d5 6b 33 3d ff 88 a9 3d
       -0.09019232 0.077718616 0.04380401 0.08278083
000350 62 a1 0c 3d cc 16 8e bd 77 d5 02 3c fc 24 c3 3d
       0.034333594 -0.06937942 0.007985464 0.095285386
000360 d9 34 bd bc ba 75 ef bc 91 7c c7 3c df 89 3a 3c
       -0.023096489 -0.029230941 0.02435139 0.01138541
000370 37 d2 64 b9 2f 0e 89 3d 7a 51 fb 3a 8f 1b bd bd
       -0.00021822086 0.066921584 0.0019174062 -0.09233772
000380 d1 fb b6 3d 53 ef e5 bc 70 4d d0 3a 5d 97 92 3d
       0.08934749 -0.02806822 0.0015892219 0.071577765
000390 0c d7 a8 3c 11 76 ce 3d 9e 51 06 3e c6 98 27 3d
       0.020610355 0.10081113 0.13117072 0.04091718
0003a0 65 c6 df 3d 12 6e 0f 3d e5 46 05 3c de b5 3e 3d
       0.10926513 0.03501708 0.008134578 0.04656016
0003b0 6a 8c 32 bd 5d 7d 5e bd 27 d3 25 3d 49 b7 2f 3d
       -0.04359094 -0.054318774 0.040484574 0.042899404
0003c0 18 7b 6f 3d 69 4d 2e 3c 08 0c 9e 3d 19 33 9b bd
       0.058467 0.010638573 0.077171385 -0.075781055
0003d0 70 81 cc bc 19 af ae 3b f8 86 6f bb 20 05 ff bc
       -0.024964064 0.005330932 -0.0036548954 -0.031130373
0003e0 4b df aa 3d a0 f9 48 bd 2f 79 40 3d 97 c7 a7 3d
       0.08343371 -0.049066186 0.04699057 0.081923656
0003f0 d6 15 25 bb 24 95 30 3d 0d bd 97 bd 94 b0 7a 3c
       -0.0025190017 0.04311098 -0.074091054 0.015300889

classfier.fc2.bias f4 [50]
000000 08 89 b0 3d 7e 9a ae bd 83 f3 bd 3d b8 22 c3 3d
       0.08619887 -0.08525561 0.09274962 0.095281065
000010 e7 dc 9e 3d c5 0f c3 3d 88 22 9f 3d 4b 9a 88 bd
       0.077569775 0.09524492 0.07770258 -0.06670054
000020 11 70 af bd fe 5d b6 bc 7b b4 21 bc be 6c 92 bd
       -0.08566297 -0.022261616 -0.00986969 -0.07149647
000030 29 30 63 3b 43 35 b4 bd ac ab f3 3b 96 7f 0f bd
       0.0034666157 -0.08799221 0.0074362364 -0.035033785
000040 4c 7f 42 bd 7f af a3 bd c4 0c b1 3d 94 fa d2 bb
       -0.04748468 -0.079924576 0.08645013 -0.0064385626
000050 29 dd 58 bd f6 38 29 bd 61 45 03 bc ad f9 74 bd
       -0.05294529 -0.041314088 -0.008012147 -0.059808422
000060 e5 61 1c 3d 5c 6f 17 3d 03 ec 95 3c 2d 6e b7 bc
       0.038179297 0.036971435 0.018301016 -0.022391403
000070 90 d3 31 bc c2 1f 7d bd 8c 46 71 bd d0 6e 62 bb
       -0.010853663 -0.061797865 -0.05890517 -0.0034550913
000080 2b 64 51 bd ab c3 a7 bd 29 b3 4b 3d 73 17 28 3d
       -0.05112092 -0.081916176 0.049731407 0.041037988
000090 b8 b0 49 3d 62 9f b0 3d 72 d0 2d bd a5 cd 7a 3d
       0.049240798 0.0862415 -0.042435117 0.061231274
0000a0 c7 f6 c3 bc ea c8 ae 3d 2c a8 c2 bd e9 81 1b 3d
       -0.023921384 0.08534415 -0.095047325 0.03796569
0000b0 cb 92 14 bd 73 80 a8 3d 79 39 c1 3c df 1d 43 bd
       -0.036272805 0.08227625 0.023586975 -0.04763591
0000c0 fb 40 95 bd ba 4e 90 bd
       -0.07287785 -0.07046266

classfier.bn2.weight f4 [50]
000000 fc 9f 78 3f e1 4c 86 3f c4 fe 6d 3f 69 0f 85 3f
       0.97119117 1.0492212 0.92966866 1.0395328
000010 c2 53 80 3f a0 00 85 3f c9 f7 7a 3f 20 d7 72 3f
       1.0025561 1.0390816 0.9803434 0.94859505
000020 f6 11 84 3f e8 e1 74 3f be 77 7d 3f 6f 72 84 3f
       1.0317981 0.95657206 0.9901084 1.0347422
000030 05 36 7c 3f 98 da 77 3f 45 c3 88 3f 2f 26 73 3f
       0.9851993 0.9681792 1.0684592 0.9498014
000040 35 4d 82 3f 24 8b 75 3f 2e 5f 81 3f e4 fb 83 3f
       1.0179812 0.95915437 1.0107172 1.0311246
000050 96 e0 77 3f ad 64 6b 3f ba 36 87 3f 2e 56 7b 3f
       0.96827066 0.91950494 1.0563576 0.98178375
000060 de bd 84 3f 80 a9 72 3f 9c b2 75 3f 03 31 73 3f
       1.0370443 0.94789886 0.9597566 0.9499666
000070 37 85 78 3f e6 c9 7d 3f 86 13 83 3f 98 f8 75 3f
       0.9707827 0.991362 1.0240333 0.9608245
000080 cf 48 76 3f 5e 72 7d 3f 45 37 7f 3f 26 f9 80 3f
       0.9620485 0.99002635 0.9969371 1.0076034
000090 10 76 7c 3f cc d6 80 3f 8f 75 8a 3f e0 49 77 3f
       0.9861765 1.0065551 1.0817126 0.965971
0000a0 d2 0e 73 3f 6d 28 80 3f d4 85 6e 3f 69 40 77 3f
       0.9494449 1.0012337 0.93172956 0.9658266
0000b0 09 e2 85 3f 91 91 7d 3f ba 60 91 3f 39 6f 84 3f
       1.0459605 0.9905024 1.1357644 1.0346442
0000c0 ee 8e 7f 3f 6b 9e 89 3f
       0.9982747 1.075147

classfier.bn2.bias f4 [50]
000000 48 60 84 3d 01 e3 d4 bd 4d 7b 6a bd dd 7a 04 be
       0.06463677 -0.1039486 -0.057246495 -0.12937494
000010 e8 06 99 3d 7f 6d 1d 3d e4 a3 2b bb ac d4 4b bd
       0.074720204 0.0384345 -0.0026190216 -0.049763367
000020 cd 7e 26 3d aa d9 46 bd 90 dc fb bd cb 19 fe bd
       0.04064827 -0.048547424 -0.12297928 -0.12407263
000030 8f 8c 00 be d9 45 ff bc ac 65 98 3d f5 1a d1 bd
       -0.12553619 -0.031161236 0.07441267 -0.1021022
000040 ab f4 25 3d 9b ee 91 bc 92 c8 fb bd dd b1 02 be
       0.040516537 -0.017813971 -0.12294115 -0.12763162
000050 84 a1 d5 bd ec 14 43 bd 90 54 cc 3d ae e3 13 39
       -0.10431197 -0.047627375 0.099770665 0.0001410383
000060 19 a8 d6 bd bb 11 b7 bd f0 c4 e6 ba 02 14 09 bd
       -0.10481281 -0.08938929 -0.0017606299 -0.033466347
000070 9d a7 e2 bd 09 26 e6 3c 91 e3 b9 bc 37 00 d6 bc
       -0.11067126 0.028094308 -0.02269152 -0.02612315
000080 83 fd d7 bd 62 69 ca bd 4d aa 0a 3d 52 21 d5 ba
       -0.105464004 -0.098833814 0.033853818 -0.001626054
000090 7d d2 09 be 9f fe 08 3c f9 5e 8f 3d 47 3a ed bd
       -0.13459201 0.008361488 0.070005365 -0.11583381
0000a0 9e bc 82 bd 2c d0 02 be d0 37 ad bd 9c ca 95 bd
       -0.06383632 -0.12774724 -0.08457911 -0.07314035
0000b0 31 63 ee bd 98 13 f6 bc 06 7e 05 3e fb 36 c7 3d
       -0.11640013 -0.03003864 0.13036355 0.097272836
0000c0 47 c7 e3 bd 1b 89 c6 3d
       -0.111219935 0.096941195

classfier.bn2.running_mean f4 [50]
000000 11 24 0c bf e3 7e 63 3f eb 50 34 3f d5 4f 71 3f
       -0.5474253 0.8886549 0.7043597 0.9426244
000010 d2 4c 46 bf df 2c 25 bf f6 8a aa be da 59 0b be
       -0.7746097 -0.6452159 -0.33309144 -0.13608494
000020 35 45 b6 be a6 62 4c 3e 25 72 43 3f a1 2b 62 3f
       -0.35599676 0.19959506 0.76346046 0.8834782
000030 9f 34 5c 3f 54 ef 2a bf 4f 28 ce be 3c a8 2f 3f
       0.86017793 -0.66771436 -0.40265128 0.6861608
000040 86 16 14 bf b0 78 af be 02 e9 45 3f 50 fe 36 3f
       -0.5784687 -0.34271765 0.77308667 0.714818
000050 c9 00 23 3f a2 49 ae be 62 bf 22 bf 66 e8 23 bf
       0.63673073 -0.34040552 -0.63573277 -0.64026487
000060 2a fe 5e 3f 36 d9 21 3f 89 61 71 bf b9 13 c1 be
       0.87106574 0.6322206 -0.9428945 -0.3771036
000070 75 a8 50 3f 9a fd 28 bf a3 ef cb 3e ce 59 35 be
       0.81507045 -0.66011965 0.39831266 -0.17710039
000080 17 de 48 3f 90 8e f3 3e fc 9d 50 be 50 0f 04 be
       0.7846388 0.47569704 -0.20372766 -0.12896466
000090 a6 ae 44 3f 14 26 20 be 8f ea 23 bf 59 c5 50 3f
       0.7682899 -0.15639526 -0.64029783 0.8155113
0000a0 39 0d d4 3e 2a 9f 4b 3f bc c7 e0 3e b8 98 29 3f
       0.41416338 0.7953974 0.43902385 0.66248655
0000b0 39 9e 4d 3f 5e 88 ab 3d 54 60 48 bf 4f 95 7e bf
       0.80319554 0.08375619 -0.78271985 -0.99446577
0000c0 24 20 03 3f 06 56 12 bf
       0.5122092 -0.5716251

classfier.bn2.running_var f4 [50]
000000 ab 98 01 3f c4 c5 cf 3e 65 b0 7b 3e 81 b9 c8 3e
       0.5062358 0.4058057 0.24579008 0.39204028
000010 76 01 b8 3e e8 e0 63 3f 25 2f a2 3e 7b 91 76 3e
       0.35938615 0.89015055 0.31676593 0.24078934
000020 b4 ba aa 3e 5b e9 77 3e 0a 75 b3 3e 07 fe dc 3e
       0.33345568 0.24210112 0.3505023 0.43162557
000030 6c 6f b8 3e 5a 6c a9 3e 9c 0d b5 3e 93 3a b1 3e
       0.36022508 0.33090478 0.35361946 0.34615
000040 f7 44 96 3e f7 f3 93 3e 07 59 9e 3e 2b 81 89 3e
       0.2934949 0.28897068 0.30927297 0.2685636
000050 8e f5 a3 3e 69 53 62 3e c8 a8 d4 3e 90 76 b2 3e
       0.3202328 0.22102131 0.4153502 0.3485608
000060 c8 cc be 3e 20 7a 7f 3e 7e 8a 87 3f 7d b1 90 3e
       0.3726561 0.2494893 1.058914 0.28260413
000070 83 99 bc 3e c0 57 29 3f 76 b4 bd 3e 12 21 f7 3e
       0.3683587 0.6614952 0.37051743 0.48267418
000080 12 69 c8 3e 1f 51 92 3e 3c e4 68 3e b6 e3 9d 3e
       0.39142662 0.28577515 0.22743315 0.30837792
000090 b4 cf b9 3e 5d 25 85 3e 24 dc a6 3e 24 fb 8b 3e
       0.36291277 0.26005068 0.3258983 0.27340043
0000a0 9e b2 f8 3e 97 3a 8c 3e 3f fd 8f 3e 7e 8e 98 3e
       0.48573774 0.2738845 0.281229 0.29796213
0000b0 c4 5a c5 3e b8 c2 5e 3e 35 76 b1 3e 7d 07 d3 3e
       0.3854581 0.21753967 0.34660497 0.4121665
0000c0 20 4c b4 3e 39 25 cb 3e
       0.3521433 0.39676836

classfier.fc3.weight f4 [25, 50]
000000 8a b4 b3 3b 62 89 5f bd ee f7 92 bd 16 cd 4d bd
       0.0054841684 -0.054574378 -0.07176195 -0.050244413
000010 02 72 13 3d 50 3a 40 be 17 8f ef bd 50 2e d7 bd
       0.0359974 -0.18772244 -0.11697214 -0.1050688
000020 90 61 98 3d 8f cf 6b bd f9 40 bd bc 47 df 01 3d
       0.074404836 -0.05757099 -0.02310227 0.031707074
000030 65 60 2f bd 8e 5a 4a bd 21 8e ef 3d 00 68 ae bd
       -0.04281654 -0.049402766 0.11697031 -0.0851593
000040 1e 95 e5 3d 1e c0 b8 3d 90 f9 e6 3c 0b 76 a8 bc
       0.112100825 0.090210184 0.028195173 -0.0205641
000050 23 ed 85 3d 5c 9d a0 3d 28 e4 c6 3d ac 3a 94 bd
       0.06539371 0.07842514 0.09711486 -0.07237753
000060 3c fd ae bd 77 08 83 bc ad 62 0b bd 29 c5 28 bd
       -0.085443944 -0.015995247 -0.03402965 -0.04120365
000070 bc c8 96 bd 24 9c 51 3a 65 c2 40 be e2 4a 3e 3d
       -0.07362506 0.0007995984 -0.18824156 0.046458133
000080 ef 89 7c bd ef 1b f8 bd fa b9 8d bb 97 ae 7b 3d
       -0.06165498 -0.12114703 -0.0043251486 0.0614458
000090 b7 87 a8 bd d1 8b 28 be 71 7f 0a 3e 1b e6 5e bd
       -0.082290106 -0.16459586 0.13525178 -0.054418664
0000a0 2e 8a ac bd 11 e0 5f bd 65 87 e4 bd 82 25 eb bd
       -0.08424793 -0.054657046 -0.11158637 -0.114817634
0000b0 d4 17 97 bc ed e2 9f ba 26 ca 63 3d 6f 95 a3 3c
       -0.01844398 -0.0012198366 0.055612706 0.019968716
0000c0 3f 5b 74 bc f6 15 06 be 21 0f a0 3d db b3 f8 3d
       -0.014914333 -0.13094315 0.078153856 0.1214368
0000d0 84 44 0a 3d 22 e0 1d 3e 02 6e a7 3d 77 89 75 3a
       0.033756748 0.15417531 0.08175279 0.0009366492
0000e0 86 d9 c6 3c 09 95 9b 3d 99 02 99 bc 49 5f 05 3e
       0.024273645 0.075967856 -0.018677996 0.1302463
0000f0 7f 7b 25 3e b8 67 60 bc d3 01 80 3d 45 e4 ab ba
       0.16160391 -0.0136966035 0.06250348 -0.0013114294
000100 df 79 84 bd 5e 3a f7 3d b4 99 32 3d 3c ef 60 bd
       -0.064685576 0.120716795 0.043603614 -0.05491565
000110 6c 4e f5 bb bd 04 2c 3e 6c f1 12 bd 3c 93 a2 3d
       -0.0074861553 0.16798683 -0.03587477 0.07938239
000120 7a 99 69 3d 4f d5 2d ba 6b 92 27 bd 3f fb d8 3d
       0.057031132 -0.0006631212 -0.04091112 0.105947964
000130 3a 88 8b 3d a6 9b 96 3d a0 93 0f bd fa db 72 bb
       0.068130925 0.07353906 -0.035052896 -0.0037057386
000140 72 02 39 3c d7 16 f8 bd 82 e6 2a 3e 82 6d cb 3c
       0.011292087 -0.12113731 0.16689494 0.02483249
000150 49 27 7c 3d a2 d1 e7 bd e4 97 79 3d c3 a9 f3 3c
       0.061560903 -0.11319281 0.06093587 0.029744035
000160 92 17 3e 3d eb 4f 38 3d a9 9f 0a 3d 37 ad 19 3e
       0.046409197 0.04499809 0.03384367 0.15007482
000170 85 02 2f bd 8f 8a 00 3e d5 42 33 3e 41 46 7d bd
       -0.042727012 0.12552856 0.17505963 -0.061834577
000180 9e 4f 4d bc 3c 07 51 3c e1 ae 01 3e c8 00 a5 3a
       -0.012531189 0.012758072 0.12664367 0.0012588734
000190 e0 f5 47 3d db 8b 6d bc 5a 52 82 bd 87 09 bc bd
       0.04881847 -0.014498676 -0.063633636 -0.09181505
0001a0 22 7a bf 3d b0 18 8a bc b6 51 7c 3c 78 03 f0 3c
       0.09349467 -0.016857475 0.015400341 0.029298529
0001b0 7d ea 24 bd aa 3c 29 3d 94 78 43 bc 6f 86 f0 bd
       -0.040262688 0.04131762 -0.0119306035 -0.11744391
0001c0 f7 fb 09 bd 0a 4e 34 bc e0 c2 51 3c 0f e6 ba bd
       -0.033687558 -0.011004934 0.0128028095 -0.091259114
0001d0 cb c3 68 be 5d 81 93 3d 14 37 bb 3b 1a 69 30 bc
       -0.22730939 0.072024085 0.005713353 -0.010767246
0001e0 0e 3b 5e bd bf 53 46 bd 66 e6 45 be 01 49 e1 3d
       -0.054255538 -0.04841971 -0.19326171 0.110002525
0001f0 bc bb ec bd 20 6b ed bc d8 be 3b 3d 81 6c 08 be
       -0.11559245 -0.028981745 0.0458363 -0.13322641
000200 35 c6 b0 bc 34 17 97 3d 53 42 59 3d d0 1e 15 3d
       -0.021578887 0.073774725 0.053041767 0.03640634
000210 09 03 04 be 2d b9 72 3c 9b ad b5 3d 42 ae 01 3d
       -0.12891783 0.014814657 0.08871003 0.031660326
000220 46 74 11 bd fa 3a 31 3d 40 20 0c 3e 96 10 48 bc
       -0.035511278 0.043269135 0.13684177 -0.012210986
000230 a1 5b 00 be 1f fb f1 3c b7 09 e2 bd d5 e3 a3 ba
       -0.12534954 0.02953869 -0.11037009 -0.0012503812
000240 39 70 90 bd e4 e5 c8 3c 51 03 1b 3d 4e b2 9a 3c
       -0.07052655 0.024523683 0.03784496 0.01888385
000250 19 20 44 3d 70 b8 fe 3d 8e 6d 87 3b 66 5d 24 3e
       0.047882173 0.124375224 0.004132933 0.16051254
000260 5a af 23 bd 15 c3 38 3e 78 eb d2 3c 09 01 b9 bd
       -0.03996215 0.18043168 0.025747046 -0.090334006
000270 2a 49 33 3d 12 c9 16 bc e4 9a 29 3c 4d 7d af 3d
       0.043770947 -0.009203212 0.01035187 0.08568821
000280 8a c4 d8 bc b4 2a db 3d 40 da 35 3e 97 93 c7 3d
       -0.026460905 0.10701504 0.17759037 0.097449474
000290 e7 6b 2c bd 76 b6 a6 3d 09 40 90 3d 6c 6f cd 3d
       -0.04209509 0.081402704 0.07043464 0.10031018
0002a0 1c 41 37 3e 6f 5a 2c bd dc 2a c6 3d a1 11 8d bd
       0.17895931 -0.04207843 0.096761435 -0.06888128
0002b0 73 e5 82 3d 10 4b 12 3e 7b 54 40 3e 13 ac 4e 3d
       0.0639142 0.14286447 0.18782227 0.05045707
0002c0 9b 13 a6 bd a5 ec a6 3d f7 b0 e5 bc e4 7d 88 bd
       -0.08109208 0.08150605 -0.028038485 -0.06664637
0002d0 2d 0e cb 3d 1d 28 8f 3c 51 2f 5d bc bb 66 11 3e
       0.09914813 0.017475182 -0.013500051 0.14199345
0002e0 2b 5a 47 bc ce 71 36 bc 28 e8 a6 3d 7e 33 82 bb
       -0.012167494 -0.011135532 0.08149749 -0.0039734235
0002f0 f4 13 b5 bd 81 7b 03 3e f7 1d e8 3c 9d e6 08 bc
       -0.088416964 0.12840082 0.0283346 -0.008355764
000300 3e 70 70 bd a7 85 93 bd db aa 07 3e c7 06 bf bc
       -0.058700792 -0.072032265 0.1324877 -0.023318661
000310 22 c1 f0 bc e3 83 a2 3c 7a c5 4e 3c 59 a7 3b bd
       -0.029388968 0.01983828 0.012620324 -0.045813892
000320 7e 28 a6 bc fa cd 16 be 3a 42 1e be 98 ca f3 bc
       -0.02028298 -0.14727011 -0.15454951 -0.02975969
000330 ea cc 94 3d 63 07 15 be d9 93 fa 3d 2a 8a 97 3d
       0.07265647 -0.14553599 0.12235231 0.073993996
000340 82 01 5e be 54 c6 f5 bc 02 37 a8 3b f0 bc 80 bd
       -0.21680263 -0.030001797 0.0051335106 -0.06286037
000350 db 71 0e bd 08 1a fc 3d d2 0a 80 3c f3 67 d3 bd
       -0.03477655 0.123096526 0.01563016 -0.10322561
000360 13 79 85 3d 3f ce 8a bd 3b 85 28 bc 5a 21 fb bd
       0.06517234 -0.067776196 -0.010285671 -0.12262221
000370 53 fe b4 bd fe fc b9 3d 3a 16 02 3e 22 8b 2c bd
       -0.08837571 0.090814576 0.12703791 -0.042124875
000380 6c 8c 43 3d 9a 6c a0 bd 35 47 93 3c 71 ae bb 3d
       0.04774134 -0.07833214 0.01797829 0.091641314
000390 41 bd 71 3d 93 66 66 be 69 8a 53 bd 68 01 e2 3c
       0.059018377 -0.22500066 -0.05164567 0.027588561
0003a0 04 45 5f bd 57 4b a5 bd af de 3c 3d 79 7c e9 bd
       -0.054509178 -0.080710106 0.046110805 -0.114006944
0003b0 79 ea 90 3d 83 f6 d4 3d e0 3f ed bc d8 f4 70 bd
       0.07075972 0.10398581 -0.028961122 -0.05882725
0003c0 31 a3 b4 bd 68 64 af 3c 8c 28 07 be 59 4e 0a be
       -0.08820189 0.021410182 -0.13199061 -0.1350645
0003d0 91 b0 0d be 65 fa 49 be 0f 78 79 3d d9 15 e3 3d
       -0.13836886 -0.19724424 0.060905512 0.110881515
0003e0 fa b5 88 bd f7 66 9e 3c ad 5b c3 3d c4 71 04 bd
       -0.06675334 0.019336207 0.0953897 -0.032335058
0003f0 4f bc 86 3d 75 f1 81 bd df 5b e8 3d 5a 8e b3 3d
       0.06578886 -0.063448824 0.11345648 0.08767386

classfier.fc3.bias f4 [25]
000000 69 7c d7 bb d7 b3 ca bd 41 02 a7 bd 5f 01 92 bc
       -0.00657611 -0.09897583 -0.08154727 -0.01782292
000010 97 1d 0b 3e 28 f2 d9 3d 46 24 f6 bd d1 7a 07 bd
       0.13585506 0.10641891 -0.12018637 -0.03307611
000020 9c 77 bb 3d 00 54 fc bd 90 69 8b bd e3 38 9f 3d
       0.09153673 -0.12320709 -0.06807244 0.07774522
000030 29 64 00 3e 73 52 dc bd bb ed 34 bc 94 25 eb bd
       0.12538208 -0.107579134 -0.0110430075 -0.11481777
000040 a1 ff 09 bd 1c cb dd bd 63 aa 03 3e dd f0 b6 bd
       -0.033691052 -0.10829756 0.12857966 -0.0893266
000050 ff 49 62 bc 36 ba 83 bc 5a ff 9c bd 50 44 14 bc
       -0.013811587 -0.016080003 -0.07665892 -0.00904949
000060 51 1b a8 bd
       -0.08208335

classfier.bn3.weight f4 [25]
000000 17 20 91 3f ae 08 83 3f d6 fc 92 3f 97 bf 82 3f
       1.1337918 1.0237024 1.148341 1.0214719
000010 48 44 94 3f 5f 89 93 3f 2c 0a 82 3f 09 8e 8d 3f
       1.1583338 1.1526297 1.0159354 1.1058971
000020 c4 86 97 3f eb a2 95 3f dd 29 80 3f d6 a7 7f 3f
       1.1838002 1.1690344 1.0012776 0.9986547
000030 01 d6 94 3f e2 bd 83 3f d3 d2 81 3f be 8e 7f 3f
       1.1627809 1.0292323 1.0142463 0.9982718
000040 8b 6f 87 3f 84 ec 78 3f 1c 20 8f 3f 08 50 92 3f
       1.0580915 0.97235894 1.1181674 1.1430674
000050 29 9f 90 3f 75 00 91 3f d2 1a 98 3f 17 44 94 3f
       1.1298572 1.1328264 1.1883185 1.1583279
000060 f1 63 92 3f
       1.143675

classfier.bn3.bias f4 [25]
000000 41 f6 0d 3e 0e 78 42 bd 22 48 1e 3e dd 80 63 bd
       0.1386347 -0.047477774 0.15457204 -0.055542815
000010 06 d5 25 3e 38 54 21 3e c0 3d 62 bd cb fe f4 3d
       0.16194543 0.15754783 -0.05523467 0.119626604
000020 b8 db 3c 3e cb bb 32 3e 07 83 49 bd 12 bd 63 bd
       0.18443191 0.1745445 -0.049197223 -0.055600233
000030 8b ec 24 3e d1 5b 5c bd fe fd 5f bd d5 16 61 bd
       0.16105859 -0.0537985 -0.054685585 -0.054953415
000040 b6 e9 62 bd 0d 54 ce bc 37 de f1 3d 1c b3 17 3e
       -0.055398665 -0.025186563 0.11809962 0.14814419
000050 92 fe 0a 3e db 1c 09 3e 78 b8 44 3e 8d 6c 25 3e
       0.13573673 0.13389914 0.19210994 0.1615469
000060 78 95 17 3e
       0.14803112

classfier.bn3.running_mean f4 [25]
000000 00 63 c9 be 1a f2 18 3f 4d d4 70 be b4 5d 0d 3f
       -0.39333344 0.5974442 -0.23518486 0.55221105
000010 3d 15 86 be 5e 4b e9 be b9 3e c2 3e e4 2d a9 3d
       -0.2618808 -0.45565313 0.3793848 0.08260706
000020 a4 84 b0 be b0 68 3b bf ac f7 5c 3e 31 cf d4 3e
       -0.34476197 -0.73206615 0.21578854 0.41564324
000030 e2 ea 15 bf c7 30 b1 3e 7a 2e 2f 3f 35 8e c4 3e
       -0.5856153 0.34607527 0.6843029 0.38389745
000040 d4 11 1c 3f c8 8b 87 3e fc 07 47 be 01 6b 15 bf
       0.60964704 0.26473832 -0.1943664 -0.583664
000050 8a 90 8e 3e 38 74 03 bf ab 56 3f bf c9 83 06 bf
       0.2784465 -0.5134921 -0.7474162 -0.5254484
000060 18 30 10 bf
       -0.56323385

classfier.bn3.running_var f4 [25]
000000 82 b4 32 3f 16 3d 81 3f 62 9c e3 3e af e9 85 3f
       0.69806683 1.0096767 0.44455248 1.046194
000010 1f 86 82 3f 2e 17 d4 3e de 6c 96 3f cd 80 d6 3e
       1.019718 0.41423935 1.1751974 0.41895142
000020 c8 e6 ef 3e 80 c5 0c 3f a3 bb 4d 3f 32 82 56 3f
       0.4685576 0.5498886 0.80364436 0.8379241
000030 b9 67 11 3f e7 1c 85 3f a0 24 72 3f 76 6b 74 3f
       0.56798893 1.0399445 0.94587135 0.9547647
000040 08 c5 8d 3f de 00 42 3e d8 d2 6b 3e d3 df 1c 3f
       1.1075754 0.18945643 0.2302965 0.6127903
000050 99 0f db 3e 87 bf e4 3e 10 bc 6b 3f 05 82 84 3f
       0.42785338 0.44677374 0.92083836 1.0352179
000060 59 e1 e9 3e
       0.4567974

classfier.fc5.weight f4 [1, 25]
000000 00 5c a3 be 74 e2 ad 3d c8 7b 81 be cc 6e 0a 3e
       -0.31906128 0.08490458 -0.2528975 0.13518828
000010 45 56 4e be 1f a3 5e be 2a 7c 4e 3e 39 77 dc bd
       -0.20150097 -0.21741913 0.20164552 -0.107649274
000020 8e ad 0d be 0f 45 1c be 87 1b 8c 3d e8 c1 ef 3d
       -0.13835737 -0.15260719 0.06841188 0.117069066
000030 5f 19 5a be 9d 11 58 3e 24 7f f4 3d de cd f1 3d
       -0.21298741 0.21100469 0.11938313 0.11806844
000040 9b 6b 25 3e 68 b7 b9 b9 2b 78 d4 bd 04 bd 6b be
       0.1615433 -0.00035422598 -0.10374483 -0.23021322
000050 71 90 f9 bd e8 2d ed bd 4e b6 0f be b5 ab 49 be
       -0.12185753 -0.115810215 -0.14034387 -0.19694407
000060 16 16 82 be
       -0.25407475
