src/trained_models/2025-06-21/run_04-34-37/dnn_ensemble_model.pt (torch, 76083 bytes, 19 tensors)

classfier.fc1.weight f4 [100, 100]
000000 6d c4 80 3d 28 71 80 3d 06 a1 09 bd ec 3b cf 3c
       0.06287465 0.06271583 -0.03360083 0.025297128
000010 d1 2b 37 3d f1 a2 9e 3d 95 4e 09 be c2 0b b9 3d
       0.04471952 0.07745922 -0.13408883 0.09035446
000020 10 8d c8 bd d2 85 28 3c b5 6e bf 3c a2 cc e6 3c
       -0.097925305 0.0102858115 0.023368219 0.028173748
000030 2e 21 11 bd cf 79 a2 bc ad 3b 02 bd 17 eb 81 3d
       -0.035432033 -0.019833473 -0.031795193 0.06343668
000040 f4 3f 12 3d ae b8 4f 3d 7e 3e 9f 3c a3 b0 98 3d
       0.03570552 0.050713234 0.019438978 0.07455566
000050 01 84 c5 3c 3c eb 11 3e 8c de 19 3d ab 54 48 bd
       0.024110796 0.14249891 0.037565753 -0.04890887
000060 8c d4 ee bc 20 1b da 3c b8 1f 71 3d 6b b0 63 bc
       -0.029154085 0.026624262 0.05886814 -0.013897042
000070 02 e1 93 3d e6 5e b6 bc 8c ab 04 be dd 6c b8 bd
       0.07220651 -0.022262048 -0.12956065 -0.09005139
000080 a9 4f ac bc ca e0 ac 3d ad 1b 86 3c 3e c2 93 3d
       -0.021034079 0.084413126 0.016370619 0.07214783
000090 93 09 03 bb 9f 96 69 bd 5b 90 9c bd 9c 4b c5 3c
       -0.001999472 -0.05702841 -0.07644721 0.024083905
0000a0 ae 7d 61 3d 50 8b 92 bd 71 e9 b4 bb ec d6 8d bc
       0.055051498 -0.07155478 -0.0055209924 -0.017314397
0000b0 d7 28 3d bc c5 57 4f 3d 43 e1 d0 bd dd c2 85 3d
       -0.0115453815 0.050620813 -0.10199215 0.06531308
0000c0 3d e5 d6 3d a0 5d 9d bd 27 dc 4b bc 8a 0a 5f 3d
       0.104929425 -0.07683873 -0.012442625 0.05445341
0000d0 5c 7d f2 bb 88 32 1b 3d 0b cb ee 3b 9c 2a 48 bd
       -0.007400198 0.037889987 0.007287388 -0.04886876
0000e0 47 bf ab 3c 3a 16 dd 3d a0 a3 ea 3d f2 5f 89 3c
       0.020965232 0.10795255 0.1145699 0.016769383
0000f0 6d 83 ea bd 82 3d fb 3d e2 17 55 3d e6 ad 2e bc
       -0.11450849 0.12267591 0.05202473 -0.010661578
000100 73 29 a8 3d 45 c8 d5 bd b6 50 46 3d 68 7c 8e bc
       0.08211031 -0.10438589 0.048416816 -0.017393306
000110 61 1f f9 bc eb 4b 7d bd e6 92 98 bd e0 c3 de bb
       -0.03041047 -0.06183998 -0.07449894 -0.0067982525
000120 53 56 08 bd 5d e8 d8 bc 9d 81 d4 3b 71 6d 3c 3d
       -0.03328545 -0.026477987 0.0064851777 0.04600281
000130 c6 71 eb bd 64 15 8a 3d 99 27 64 3e a7 dc df 3d
       -0.1149631 0.06742361 0.2228073 0.10930758
000140 b1 74 78 bd 0b 09 d3 bb f8 de 2f 3c 22 c7 81 bd
       -0.06065816 -0.006440287 0.010734312 -0.0633681
000150 78 31 0d bd b7 20 49 bd cf 0f 7c 3d ee 97 28 3d
       -0.034471005 -0.049103465 0.061538514 0.041160516
000160 30 d5 76 bc 04 61 81 3c ea 48 4b bd 08 02 52 bd
       -0.015065476 0.015793331 -0.049630083 -0.05127147
000170 27 bb fa bc 6c 68 04 3d 1d 26 48 bd e0 ab 44 3c
       -0.03060682 0.032326147 -0.048864473 0.012003869
000180 2f 50 a6 bc 8f ae f7 bc d6 02 af 3d d8 85 fc bd
       -0.020301906 -0.030234603 0.08545463 -0.12330216
000190 48 42 25 bd ee 7c 32 3d e2 f1 ee bd 49 9c 02 be
       -0.040346414 0.043576173 -0.11667229 -0.1275493
0001a0 d9 26 8c 3d da 0c cd 3b fb f0 43 3d 41 9a c0 bd
       0.06843347 0.0062576355 0.04783724 -0.094044216
0001b0 34 0c 47 3d 62 9d ad bd d9 c3 24 3d ec 37 a9 ba
       0.048595622 -0.08477284 0.040225837 -0.0012910343
0001c0 5a fe 11 bd b3 30 4c 3d 49 fa d7 3d a9 6c 97 3d
       -0.03564296 0.04985113 0.10545785 0.07393772
0001d0 e4 f5 be bd 9f a2 9c 3d 06 75 81 3d f0 91 5a 3d
       -0.09324244 0.07648205 0.063211486 0.053361833
0001e0 20 85 93 3d 72 30 07 be e0 6b 25 bd 8e ba e3 3c
       0.07203126 -0.13202074 -0.04038608 0.027798917
0001f0 00 6e a3 bd f2 f2 6c 3d c5 37 02 3d 81 fd d2 bd
       -0.07979965 0.05784888 0.031791467 -0.10302258
000200 dc 63 0d 3c ab 73 83 3c c1 2c e3 3d de 05 9f 3d
       0.008629765 0.016046366 0.110925205 0.07764791
000210 c5 63 c7 3d 00 91 50 bc 4a 57 72 bd 32 a4 d1 3a
       0.097358264 -0.012729883 -0.059165277 0.0015994369
000220 f0 94 c9 bd d8 19 b5 bc df d9 69 bd 81 6c ba bc
       -0.09842861 -0.02210705 -0.057092544 -0.022756817
000230 0c 6a a4 3a 40 96 64 bd 39 c1 85 3c 94 0a 2c 3c
       0.0012543811 -0.055807352 0.016327487 0.010500569
000240 7a 87 a6 bd ce 0b 15 3c 13 0a 89 bd cf 29 54 3c
       -0.08131309 0.009097053 -0.06691375 0.012949421
000250 92 73 d4 bc 4b ce 6a bc 18 60 64 bd 89 1f ed 3c
       -0.025934014 -0.014331411 -0.055755705 0.028945701
000260 41 86 08 3c 5f ee e3 3d 7b 83 04 3c f8 ff b5 3d
       0.00833279 0.1112945 0.008087988 0.08886713
000270 6a 30 98 3c 99 fc b7 bd 32 a1 bb bd 56 e2 3c bd
       0.018577773 -0.08983726 -0.09161605 -0.04611429
000280 f3 ef 76 3d 24 37 9f 3d a0 2b e2 3d 1f 8d c4 bd
       0.060287427 0.07774189 0.11043477 -0.09597229
000290 6d bf 80 bc 95 0e 90 bc 33 6d c5 3d 5f 4f 7e 3b
       -0.015716279 -0.017585078 0.09639969 0.0038804633
0002a0 4d 05 2d 3d c5 86 d0 bd c3 9c 6d bd 8e 4c f2 3c
       0.042241383 -0.10181955 -0.058010828 0.02957752
0002b0 7d 05 a4 3d 95 38 af 3c a2 3d 6a bd b1 8d 5f bd
       0.08008859 0.021389285 -0.057187684 -0.054578487
0002c0 62 df c9 3c c2 12 ab 3c 7b e1 2f 3c 30 fe 43 3c
       0.02464265 0.020882968 0.010734911 0.0119624585
0002d0 c3 bd 0f bd a1 59 bc 3d 8c 77 bf bd b4 6a 21 3d
       -0.03509308 0.09196783 -0.09348974 0.0394084
0002e0 de 53 ad bc f7 43 1d bd 36 fb cf 3b f3 f6 a7 3c
       -0.021158155 -0.038394894 0.0063470853 0.020503497
0002f0 25 1a 78 bd 26 60 b5 3d 07 83 de bb 11 25 83 bd
       -0.06057181 0.088562295 -0.006790522 -0.06403554
000300 9f 49 19 bd 61 28 55 bb 3c 0d 37 3d 84 72 c6 3c
       -0.037423726 -0.0032525288 0.044690356 0.024224527
000310 3c fa 62 bc b0 7b 8d bd 83 78 65 bd 0a 42 aa 3d
       -0.013853606 -0.06908357 -0.056023132 0.08313377
000320 d4 14 b0 bc b6 65 98 bd c7 de 1f bd c3 fd d8 3c
       -0.021494307 -0.07441275 -0.039030816 0.02648819
000330 89 95 9f 3c f0 0b 16 bb 97 2e ba bd 5f 85 ba 3c
       0.019480484 -0.00228953 -0.090909176 0.022768674
000340 4d da 05 3c c6 4c 41 3c 36 ca a3 bd 47 0c 39 bc
       0.008169723 0.011798089 -0.07997553 -0.011294431
000350 90 16 04 bd ee 66 ba 3d c3 54 a9 3d 26 00 3a 3d
       -0.03224808 0.091016635 0.0826812 0.045410298
000360 63 7a bf 3c 3e 05 e9 bc 8c 10 d3 3d d6 ad 60 bc
       0.023373788 -0.028444882 0.103058904 -0.013713321
000370 e1 2d 89 3d ec d3 a2 3c 40 49 39 3d c4 9b 85 bd
       0.06698204 0.019876443 0.045235872 -0.065238506
000380 72 04 b0 bd 68 18 94 bd fd 6e 03 bd c5 33 43 3d
       -0.08594598 -0.072312176 -0.03208827 0.047656793
000390 5e 6d c3 bd 85 5c 99 3d 3c 86 97 bd 75 38 d8 bd
       -0.095423445 0.0748835 -0.0739865 -0.10557643
0003a0 d2 0d c4 bd b2 9d 96 3d 01 04 27 bd 4b e4 ef 3c
       -0.095729485 0.07354297 -0.040775303 0.029283663
0003b0 ce f3 4f 3d 31 38 f0 bd 20 2a 95 3d e4 c3 a0 3c
       0.05076962 -0.11729468 0.07283425 0.019624658
0003c0 c6 e3 b4 bd 8a 7d e2 bd 48 53 d6 bd 6e d7 6a bc
       -0.08832507 -0.11059101 -0.104651034 -0.014333589
0003d0 1c 70 0e bd 81 a0 d8 3d b7 ea 3d 3d 40 1d 22 bd
       -0.034774885 0.10577489 0.04636642 -0.039578676
0003e0 5c 32 fd 3c 2d 73 b4 bd 79 83 9c bd c9 41 50 bc
       0.030907802 -0.088110305 -0.07642264 -0.012710997
0003f0 65 bd 41 bd 86 f2 a6 bb 6b 5b 64 3d 6b 96 cc bc
       -0.04729976 -0.005094829 0.055751245 -0.024974069

classfier.fc1.bias f4 [100]
000000 49 99 c4 b9 5e b8 62 39 7e 36 9d b8 72 a5 c8 b8
       -0.0003749824 0.00021621722 -7.496493e-05 -9.56756e-05
000010 73 70 b0 b9 14 8b c7 39 8a 96 8c b8 4d 1d 84 39
       -0.00033653117 0.0003805986 -6.70376e-05 0.00025198833
000020 89 95 6d 3a c2 80 a9 35 cc e9 bd b8 d4 41 1a b8
       0.0009063115 1.2628955e-06 -9.05577e-05 -3.677777e-05
000030 6e 49 18 b9 88 8c 6c 34 2b 8d c0 b8 57 83 2d b9
       -0.00014523204 2.2030338e-07 -9.181568e-05 -0.00016547494
000040 6d 3c 3e 38 2b f9 09 37 1b 43 27 39 7d 48 59 b9
       4.5355806e-05 8.22385e-06 0.0001595136 -0.00020721737
000050 2e b1 d6 b8 c6 a1 2f b8 91 19 c1 38 b1 81 41 39
       -0.000102373175 -4.1873915e-05 9.207719e-05 0.00018454228
000060 88 00 b2 b8 ec 7e d4 36 1c 9b 20 b9 83 d6 0b 38
       -8.4878004e-05 6.332868e-06 -0.00015316572 3.3339962e-05
000070 86 38 ac 38 20 35 19 b8 b5 4d 6c b8 fe c4 b6 b8
       8.2121274e-05 -3.652752e-05 -5.6339155e-05 -8.715129e-05
000080 3d 6f f9 b7 46 70 92 37 97 a4 83 b8 a6 3d 16 38
       -2.9734912e-05 1.7456838e-05 -6.277224e-05 3.58202e-05
000090 34 47 d5 b8 90 43 73 b8 f2 ac 51 39 e8 ca 31 39
       -0.00010169894 -5.7998637e-05 0.0001999622 0.00016955624
0000a0 a1 02 db 39 5f 80 0e b7 7a 5a aa 38 0e 8b e2 36
       0.00041772894 -8.493748e-06 8.123084e-05 6.751513e-06
0000b0 06 f6 0a b8 eb d0 58 b9 4b f7 0c b8 6a 0b 6f 37
       -3.313089e-05 -0.00020677193 -3.360891e-05 1.4248168e-05
0000c0 b7 d0 40 b9 2c 89 d5 36 6c 82 a0 37 f9 e2 81 37
       -0.00018388299 6.3638636e-06 1.9134219e-05 1.548369e-05
0000d0 d7 02 64 37 8d 90 6f b9 86 d6 7c 38 67 6f 36 b8
       1.359052e-05 -0.00022846666 6.0281272e-05 -4.3495933e-05
0000e0 18 64 d0 b4 a8 68 1e b9 77 ff 67 b8 bd ef 0c b7
       -3.8815847e-07 -0.00015107042 -5.5312612e-05 -8.400469e-06
0000f0 85 88 9e 36 df 5f 32 38 0c 0a 2a 39 f5 86 5b 36
       4.72466e-06 4.2527794e-05 0.00016216206 3.2712098e-06
000100 c3 5b 50 b9 cc 54 ad 38 00 0b a1 34 9a af 90 37
       -0.0001987061 8.2650775e-05 2.999659e-07 1.7247909e-05
000110 8c 70 f5 b8 92 e9 ee b7 2c 99 35 b8 57 04 8b b9
       -0.00011703474 -2.8480576e-05 -4.3296415e-05 -0.0002651538
000120 1f bd 73 36 dc f4 16 b9 60 bd 92 36 8a 51 5c b9
       3.6319905e-06 -0.00014396332 4.373185e-06 -0.0002101121
000130 3e 29 c6 38 0d 5f 2b 38 78 40 89 b9 56 44 28 b9
       9.449058e-05 4.08581e-05 -0.0002617871 -0.00016047186
000140 b1 ae 8f 39 08 a5 cc 36 5c ba 48 37 bb 17 3e b8
       0.0002740524 6.098886e-06 1.1964319e-05 -4.532163e-05
000150 dd 81 bd b6 b2 4c c7 38 64 07 a2 39 2e 51 4e 35
       -5.647757e-06 9.503345e-05 0.00030904554 7.685911e-07
000160 cf 58 35 b8 31 a5 ec 39 9c 97 6c b9 e6 1a ad 38
       -4.3236472e-05 0.00045136505 -0.00022563193 8.254293e-05
000170 3e a6 a2 39 bb fb 65 ba 27 cb 01 39 4f fa ab b7
       0.00031022908 -0.00087731675 0.00012378079 -2.0501348e-05
000180 98 f0 f6 b7 54 19 43 b9 ed ac 91 37 d9 eb 18 39
       -2.943752e-05 -0.00018606085 1.7365872e-05 0.0001458371

classfier.bn1.weight f4 [100]
000000 d3 0a 82 3f 9c ea 8e 3f a3 73 83 3f d5 a7 72 3f
       1.0159553 1.1165347 1.0269665 0.9478734
000010 69 16 74 3f 9d d8 90 3f 90 be 82 3f 3c e5 8a 3f
       0.95346695 1.1316105 1.0214405 1.0851207
000020 63 30 78 3f a3 49 70 3f b5 25 7b 3f d3 fa 71 3f
       0.9694883 0.9386236 0.9810441 0.9452335
000030 e5 9c 85 3f f6 da 81 3f bf 28 79 3f 44 26 82 3f
       1.0438505 1.0144947 0.973278 1.0167928
000040 56 50 75 3f 9a b6 6b 3f 46 af 6f 3f 78 4f 76 3f
       0.9582571 0.920755 0.9362682 0.9621501
000050 63 28 73 3f cf b8 74 3f f1 66 82 3f 95 f7 80 3f
       0.949835 0.95594496 1.0187665 1.0075556
000060 ae 74 80 3f 18 41 68 3f a5 17 7d 3f e8 24 74 3f
       1.0035608 0.90724325 0.98864204 0.95368814
000070 97 a5 78 3f 6c 4f 7d 3f 73 56 7a 3f fb 8f 83 3f
       0.9712767 0.98949313 0.9778816 1.0278314
000080 1e a3 6a 3f 62 63 76 3f 76 01 6e 3f fe 3d 7a 3f
       0.9165515 0.96245396 0.9297098 0.9775084
000090 88 87 81 3f 5d dd 77 3f 04 4c 72 3f 8d 10 82 3f
       1.0119486 0.9682215 0.9464724 1.0161301
0000a0 90 69 7b 3f 0b 4e 79 3f 9b 64 73 3f 10 15 6d 3f
       0.9820795 0.9738471 0.95075387 0.92610264
0000b0 e5 0a 71 3f 05 4a 7d 3f 70 85 86 3f 9e ff 78 3f
       0.9415725 0.9894107 1.0509472 0.9726504
0000c0 17 ff 81 3f e9 fc 6c 3f 1c a3 75 3f ac a5 76 3f
       1.0155972 0.9257341 0.9595201 0.96346545
0000d0 97 2b 72 3f 3e cf 77 3f e6 06 80 3f 4a d2 83 3f
       0.9459776 0.968006 1.0002105 1.029855
0000e0 07 fb 6e 3f 68 53 7d 3f 26 28 83 3f 07 7c 77 3f
       0.9335179 0.9895539 1.0246627 0.96673626
0000f0 01 aa 80 3f 5c fb 74 3f 00 83 73 3f 41 05 74 3f
       1.0051881 0.95696044 0.95121765 0.95320517
000100 8a 4b 7a 3f a7 96 87 3f 60 ca 7c 3f d5 0d 74 3f
       0.97771513 1.059285 0.987463 0.95333606
000110 12 7a 85 3f ef 93 6d 3f 52 cd 6a 3f 03 b0 80 3f
       1.0427878 0.92803854 0.91719544 1.0053715
000120 0e 4b 74 3f 1f 96 83 3f 85 9e 73 3f ce 57 7c 3f
       0.95427024 1.0280188 0.95163757 0.9857148
000130 f2 5c 80 3f d3 e7 70 3f 8e ed 77 3f e9 8b 71 3f
       1.0028365 0.94103736 0.96846855 0.9435411
000140 78 89 89 3f d9 2a 77 3f 0e bf 6d 3f dd 23 79 3f
       1.0745077 0.96549755 0.9286965 0.9732035
000150 5b 5e 6c 3f 3a 1d 6e 3f 1c db 79 3f 79 19 76 3f
       0.92331475 0.93013346 0.9759996 0.9613262
000160 a8 9f 86 3f 36 c7 80 3f 80 cf 74 3f 75 a7 80 3f
       1.0517473 1.0060794 0.9562912 1.0051104
000170 18 38 7e 3f f6 7b 8a 3f 69 85 7d 3f f5 e4 83 3f
       0.9930434 1.081908 0.9903169 1.0304247
000180 88 f9 77 3f f9 3d 87 3f 29 21 6c 3f 37 33 78 3f
       0.9686513 1.0565788 0.922381 0.9695315

classfier.bn1.bias f4 [100]
000000 32 65 99 be 3f 24 7d 3b 73 22 45 bd e8 17 b4 bc
       -0.29960018 0.003862634 -0.048128556 -0.021984056
000010 06 85 4c be 7f a1 73 bb 65 da 11 be c2 bd e4 bd
       -0.1997262 -0.0037175117 -0.14243467 -0.11169006
000020 65 bd 47 be f5 d4 ae bd 00 3b 29 bd 8c 52 65 bd
       -0.19505842 -0.08536712 -0.041316032 -0.055986926
000030 c9 b2 82 3d b9 0a 6f be 09 7c 21 be 16 12 84 bd
       0.06381757 -0.23343934 -0.15769972 -0.06448762
000040 a3 aa bf bd b0 75 38 bd 74 d1 10 be 51 44 61 be
       -0.09358718 -0.04503411 -0.141424 -0.21998717
000050 5f bb 34 be 43 96 4e 3c 67 25 50 be a6 8f 42 be
       -0.17649601 0.012609067 -0.20326768 -0.1900011
000060 85 7e 0d bd b8 ee d6 bd b1 ba 4f be cd 66 2b bd
       -0.034544487 -0.10494751 -0.20286061 -0.041846085
000070 bc be 74 be dc bc 76 3d 56 99 c9 bd a4 7d 05 be
       -0.23900884 0.060238704 -0.098437 -0.1303621
000080 d2 71 b6 bd ba 0f aa bc 43 f0 c9 bd 3d 23 25 be
       -0.08908428 -0.020759452 -0.098602794 -0.16126724
000090 65 ec 3f be 32 98 5d bd a1 75 cd bd fc d6 3b be
       -0.18742521 -0.054100223 -0.100322016 -0.18343729
0000a0 1e 3f 88 be 31 8b 32 be f5 74 96 3a 7c f3 00 3e
       -0.26610655 -0.1743591 0.0011478948 0.12592882
0000b0 24 ae d4 bd 4a 17 2a be 8f 21 7a bd 1a 97 00 be
       -0.10384777 -0.16610447 -0.06106716 -0.1255764
0000c0 75 fd 28 be 3c 86 56 bc 31 09 c2 bb fd 6f 01 bd
       -0.16502936 -0.013093527 -0.005921506 -0.03160094
0000d0 b2 b1 28 bd 17 79 1f be 08 77 9b bd 3c bc 2b 3d
       -0.04118509 -0.15573536 -0.07591063 0.04192756
0000e0 94 52 c3 bc b1 ab 3b be 71 19 ff bd 4e 61 c6 bd
       -0.023843087 -0.18327214 -0.124560244 -0.09686528
0000f0 0e 1e 7f be 57 f6 8a 3d 57 ed 44 be 1a c3 0c be
       -0.24913809 0.06785267 -0.19231163 -0.137463
000100 fa 74 2b be 31 53 25 bd 47 7c 0a 3d c6 4f d9 bc
       -0.16743842 -0.04036254 0.033809926 -0.026527297
000110 ea a5 6f 3d 6e 99 5b 3d 8a c7 83 bd 33 81 6a be
       0.058507837 0.05361312 -0.064345434 -0.22900848
000120 be f3 13 bd 97 59 5e be e0 30 79 be 06 01 51 be
       -0.036121123 -0.21713863 -0.2433505 -0.20410547
000130 1a c7 0e 3d 04 37 58 be d5 40 4c be 9b c5 ab bd
       0.034857847 -0.21114737 -0.19946606 -0.083872996
000140 3d 8d d3 3d 23 9b 59 bd e5 c8 ea bd ea b8 dc bc
       0.103296734 -0.053126466 -0.11464099 -0.026943643
000150 47 58 6b bd 17 20 75 bd 86 b5 04 be 3d 87 37 3d
       -0.057457235 -0.059845056 -0.1295987 0.044806708
000160 5e 25 0d be 38 82 86 be a2 51 c5 bd 7a 64 13 be
       -0.13783786 -0.26271224 -0.09634711 -0.14393798
000170 74 05 33 bc 66 17 79 bd c5 0a 5d be 22 6a e2 3c
       -0.010926593 -0.06081333 -0.2158614 0.027638499
000180 99 0e d0 bc dc 0c 07 3d a8 05 cf bd cb ca 96 bd
       -0.025397586 0.032971248 -0.10108501 -0.073628984

classfier.bn1.running_mean f4 [100]
000000 23 98 11 bc 3f 48 17 bc d8 f1 dc bc 3a 02 a9 3d
       -0.00888637 -0.009233533 -0.026970789 0.08252378
000010 d6 fd 2c bd cc c0 3b 3b 17 9a 5b bd f0 7b 32 3d
       -0.042234264 0.0028648851 -0.05361375 0.043575227
000020 98 9e 59 bd 22 17 8b 3e be a5 c2 3d 25 58 9a 3d
       -0.053129762 0.27166086 0.09504269 0.075363435
000030 fe 57 f3 bb 02 c7 ac bc 43 5f 89 bd b8 bd 65 3d
       -0.007426261 -0.021090988 -0.06707623 0.056089133
000040 59 f8 90 be 2e df f7 3d 61 22 cd bd 6e f2 a7 bd
       -0.28314474 0.12103115 -0.10016323 -0.08200537
000050 22 b3 af bc d4 fd d0 3e 44 5d 25 bd ff 4a df bc
       -0.021447722 0.40818655 -0.04037215 -0.02725744
000060 d4 fc eb be 61 bf fa 3e 54 15 da bc 59 f3 c1 3d
       -0.4609133 0.48974136 -0.026621498 0.09470243
000070 5a 00 25 bc 25 55 ac be 12 c2 9b bd 05 0c dc 3c
       -0.010070885 -0.3365871 -0.07605375 0.0268612
000080 01 62 7b 3e f0 f1 2d be d4 51 86 3d 57 2b a9 bb
       0.24549104 -0.16986823 0.06558576 -0.005162637
000090 36 fc 34 bc 3c 11 6a 3c 24 1d 3a 3d 22 98 1c 3d
       -0.01104646 0.014286336 0.045437947 0.038231023
0000a0 dc 94 06 bd e8 51 28 3b b8 64 c6 3d e5 a8 e4 3e
       -0.032856807 0.0025683586 0.09687179 0.44660106
0000b0 97 6c e7 3d a0 d2 54 bc 0e 9a 20 bd 66 13 4c bd
       0.11300009 -0.01298967 -0.039209418 -0.049823187
0000c0 d6 ae 7a bd cf 66 fb 3e f8 4e 81 be 56 46 b0 be
       -0.061201893 0.49101874 -0.2525556 -0.34428662
0000d0 8e 46 d0 be 04 ae bf 3b 3a a6 9e bd d8 03 89 be
       -0.4067883 0.0058496017 -0.07746549 -0.26760745
0000e0 28 f7 f6 3e b7 18 22 3b 34 50 9f 3c e9 c6 c4 be
       0.4823544 0.002473397 0.019447424 -0.38433006
0000f0 b8 eb d9 bc b4 5d bc 3e 9e 26 30 bc 34 f6 5e be
       -0.026601657 0.3679024 -0.010751395 -0.21773607
000100 bf f0 56 bd 54 72 66 3d 81 46 d1 bc 78 8d a7 3e
       -0.052475687 0.056261376 -0.025546314 0.3272512
000110 88 eb 09 be 80 17 cf 3e 04 e8 13 3d 86 fb 92 bb
       -0.13468754 0.40447617 0.03610994 -0.0044855503
000120 27 06 8e 3e 4b e6 dc 3b d9 91 51 bd 7e 39 09 bc
       0.2773907 0.0067413202 -0.05116448 -0.008375524
000130 51 48 97 bd f0 2d 73 bd e0 c6 49 bc b3 7a 25 3e
       -0.0738684 -0.05936998 -0.012315482 0.16160087
000140 2f 41 96 3c c4 0c b7 be ef dd 57 3d e8 44 07 3d
       0.018341629 -0.35751927 0.052701887 0.0330247
000150 1e 82 05 3e a5 42 e5 3d 26 d4 32 bd d9 6a fd be
       0.13037917 0.11194352 -0.04365935 -0.4949558
000160 09 ef c6 3c ee 54 9c bc 9b 42 2e be ac 32 c1 bc
       0.024283903 -0.019083466 -0.17017595 -0.023583733
000170 38 4d fb bd 53 e0 b1 3c 49 fd cb bc ae e3 58 bd
       -0.12270588 0.021713411 -0.02490105 -0.052951507
000180 f0 2b c3 3d 00 45 0f bc a3 1a 60 3f b8 40 93 3b
       0.09529865 -0.008744478 0.87540644 0.004493799

classfier.bn1.running_var f4 [100]
000000 79 3b 3f 3a 9d de 0e 3a 7f 23 a3 3a 4f 2b 13 3b
       0.0007294934 0.0005450042 0.0012446492 0.0022456234
000010 29 0b 7e 3a bd 42 80 3a c5 59 40 3a 14 e5 44 3a
       0.0009690994 0.0009785515 0.00073375955 0.0007510942
000020 f0 78 5a 3a a1 9e 54 3c a8 fd 33 3b c6 12 e5 3a
       0.0008334061 0.012977273 0.0027464423 0.0017476908
000030 d0 76 62 3a 2a 64 41 3a bf 0f d9 3a 65 5e 82 3a
       0.000863892 0.00073772913 0.0016560479 0.0009946345
000040 ca d5 5e 3c 8f 55 a2 3b c6 2c 39 3b 52 2a 03 3b
       0.013600776 0.004954047 0.0028255447 0.0020014239
000050 51 ff 81 3a cb 06 f0 3c 0f 5c a2 3a 65 32 58 3a
       0.0009918009 0.029300114 0.0012387055 0.00082472555
000060 26 18 03 3d 92 87 19 3d db 94 1b 3a 5f 73 1d 3b
       0.03200545 0.037482806 0.0005934962 0.0024025065
000070 c1 08 55 3a f0 33 88 3c eb 9d 08 3b ca 9d 92 3a
       0.00081266096 0.016626328 0.002084608 0.0011185941
000080 27 f9 30 3c 7f 83 b9 3b cd d7 16 3b 2c 60 3a 3a
       0.01080159 0.0056614275 0.002301681 0.00071096676
000090 f1 19 20 3a b7 76 9c 3a dd a7 88 3a b0 12 9f 3a
       0.0006107381 0.0011937235 0.0010426004 0.0012136307
0000a0 11 65 64 3a 76 3b 2e 3a 35 03 38 3b 7c d1 01 3d
       0.000871257 0.00066464336 0.0028078083 0.03169392
0000b0 43 06 72 3b 74 98 79 3a b9 5b 7e 3a 5d ad d0 3a
       0.0036930002 0.00095213135 0.0009702999 0.0015920807
0000c0 80 18 94 3a 8d e5 1b 3d cb b4 33 3c 79 9d 90 3c
       0.0011298805 0.038060714 0.010968397 0.017653214
0000d0 2a e1 de 3c b0 db 9b 3a 9f 39 bf 3a 33 2f 64 3c
       0.027206976 0.0011891034 0.0014589316 0.013927269
0000e0 e8 09 11 3d 23 ca 47 3a 94 0a b1 3a 2b 21 b3 3c
       0.035409838 0.0007621368 0.0013507181 0.021866402
0000f0 69 ed 64 3a d7 ab a7 3c f2 a8 76 3a a5 25 13 3c
       0.00087328866 0.020467682 0.000940933 0.008981143
000100 7d 4c cd 3a d2 68 be 3a 7b 37 6a 3a dd e7 8d 3c
       0.0015663054 0.0014527088 0.0008934659 0.017322475
000110 12 3f 8c 3b c9 24 ca 3c 00 3b 06 3b 84 71 49 3a
       0.0042799795 0.024675744 0.0020481944 0.00076844567
000120 4a bb 52 3c a9 e2 9a 3a 15 89 5a 3a b5 90 2b 3a
       0.012862036 0.0011816818 0.0008336467 0.00065446954
000130 8a 11 17 3b 65 4c d7 3a 39 bd a6 3a 49 b5 a6 3b
       0.0023051226 0.0016425966 0.0012721188 0.005087529
000140 39 78 35 3a 00 b4 a0 3c c7 98 a9 3a 2d a0 97 3a
       0.00069225166 0.01961708 0.0012939208 0.0011568122
000150 0e 3c a0 3b 6f ac 3b 3b 69 8b 60 3a d5 d7 25 3d
       0.0048899716 0.0028636714 0.00085656956 0.040489037
000160 6d 6e 5d 3a 62 ae 56 3a c5 10 a8 3b cb a5 45 3a
       0.00084469357 0.0008189437 0.005128952 0.00075396587
000170 ed 47 34 3b d9 55 6e 3a 88 8b 68 3a 55 a4 e1 3a
       0.0027508691 0.0009091772 0.00088708894 0.0017215112
000180 7d 4f 08 3b 77 d2 30 3a b1 e6 f3 3d c6 51 8a 3a
       0.0020799332 0.0006745229 0.11909235 0.0010552935

classfier.fc2.weight f4 [50, 100]
000000 aa 2b 3b bd d9 69 d7 bc c1 2c 18 bd 73 f5 e7 bc
       -0.04569594 -0.02629559 -0.037152056 -0.028315281
000010 47 9d 5e 3d d9 88 c3 3d 68 7f 99 bd b5 2f 09 3e
       0.05434921 0.09547586 -0.07495004 0.13397105
000020 cd a3 7e 3d 28 ae 4f 3d b4 4e 18 bc 8d 93 64 3d
       0.06216793 0.050703198 -0.009296108 0.055804778
000030 a5 89 75 3d 99 f7 7a bc 0d 1a 0f 3d 6b 8b fa 3d
       0.05994572 -0.015317821 0.034936953 0.12233623
000040 3c c5 11 3d 41 58 ce bc 00 14 51 bd 4f 0e c0 bc
       0.035588488 -0.025188567 -0.051044464 -0.023444323
000050 46 90 27 bc 2c e8 2b bd 7e bd cd 3c 22 4e 0d bc
       -0.010227269 -0.041969463 0.025114771 -0.008624585
000060 20 5f 01 be ed 16 78 bd c8 0b 80 3d 8f a6 ae bb
       -0.12633944 -0.06056874 0.06252247 -0.005329914
000070 a3 fc b7 bd dc 1a a5 bd d7 4d 03 bd 51 cd 68 3d
       -0.089837335 -0.08061764 -0.032056656 0.05683643
000080 ca 29 a0 3d ae b8 a2 bd 36 b7 18 bd bc a5 a2 3d
       0.07820471 -0.07945381 -0.0372841 0.079417676
000090 54 80 09 be 94 d2 9b 3d 64 ca ed bc ce dc f4 bb
       -0.1342786 0.07608524 -0.029027171 -0.007472611
0000a0 ad 75 e8 bc c0 8b 0e bd 17 e4 7e bd 06 f5 63 3d
       -0.028376425 -0.034801245 -0.062229242 0.055653594
0000b0 2e 83 59 bd f9 18 a1 bc 8a d9 02 be e0 64 37 bd
       -0.05310362 -0.019665228 -0.12778297 -0.044773936
0000c0 87 38 29 3c 9f 87 2b bd 48 04 3f bd 75 31 a4 3c
       0.010328419 -0.041877385 -0.046634942 0.020043114
0000d0 b3 c5 89 bc 29 79 4b bb db 0c 55 bd 9f be bc 3c
       -0.016817903 -0.003104756 -0.052014213 0.023040114
0000e0 c9 d0 53 3d 3e 98 1e bd 85 ae ce bc 91 95 93 bc
       0.051712785 -0.03871941 -0.025229702 -0.018015655
0000f0 3c 8a 04 be e0 79 20 3b 6b d7 ef 3d 05 b3 ed 3b
       -0.12943357 0.0024486706 0.117110096 0.007254007
000100 b3 86 05 3c f0 07 26 3c 6e de 89 bc de 8d 8a 3d
       0.008149791 0.010133728 -0.016829696 0.0676534
000110 6d 40 0a bd 4c d2 c9 3c 63 15 94 bd d0 98 d3 bc
       -0.033752847 0.02463641 -0.07230642 -0.025829703
000120 a8 ef e4 3c a2 e4 a1 bd 59 1f 17 3d dc d4 c9 bd
       0.027946308 -0.079049364 0.03689513 -0.09855053
000130 55 72 e9 bb 1f 4b ac bd 68 7f 72 3d 2f 3f 3e 3b
       -0.007124225 -0.08412766 0.059203535 0.002902936
000140 87 9b 79 bd 6d 6f c0 3c f0 b4 a9 bd c8 1a e8 ba
       -0.060939338 0.023490632 -0.08286464 -0.0017708177
000150 4d 53 3b bd de 0e df b9 b4 b4 0a be 9e f6 54 bd
       -0.04573374 -0.0004254495 -0.13545495 -0.051993005
000160 ce a0 b2 3d ed 0e c5 3b 52 ae d5 bd 05 e7 86 bd
       0.08722077 0.006013742 -0.104336396 -0.06587032
000170 a9 ac be 3b 3e d9 cc bc c2 f7 d1 3c 0b 5a 01 bd
       0.0058189225 -0.025005933 0.025630835 -0.031580012
000180 46 aa 1e 3d ef 78 10 3d ba 86 48 3d 67 8c 00 3e
       0.038736604 0.03527158 0.04895661 0.12553559
000190 39 4a 05 3d e8 3b 02 be 32 53 6e 3d aa 40 a1 3d
       0.032541487 -0.12718165 0.05818481 0.07873662
0001a0 48 73 a6 3d 7c 1d 29 be 4e b0 49 3d dc 24 8c bc
       0.08127457 -0.16515154 0.049240403 -0.01710742
0001b0 12 48 94 3d 69 b9 cc bd b8 36 ac 3d 27 c0 05 3d
       0.07240309 -0.09996302 0.08408874 0.032653954
0001c0 9a 7b d8 bc bd ba e8 3d 8a 2f 15 bd 67 9e 97 3d
       -0.026426125 0.113637425 -0.03642229 0.0740326
0001d0 a7 b5 14 bd e7 06 64 3d 07 52 28 3d 6e df 8e bb
       -0.03630605 0.055670645 0.041093852 -0.004360131
0001e0 3a 75 c9 3d 1a 86 37 3c e5 5f d5 3d a5 19 0b bc
       0.09836812 0.011201406 0.10418681 -0.008490001
0001f0 12 78 0a 3d f4 69 35 bd 1b a6 bc 3d 35 b5 fe 3c
       0.033805914 -0.044290498 0.092113696 0.031092266
000200 4b 7d c1 3d 42 1c 34 3d e7 ea 79 3c 81 14 db bd
       0.09447726 0.04397226 0.015253759 -0.1069727
000210 3a 75 ad bc 31 fe db 3c ae 01 16 3d e1 d5 8a 3d
       -0.021174062 0.026854606 0.036622696 0.067790754
000220 e6 63 b4 3d 04 cd a3 bc 2b 6b 8d 3d 6a 80 a7 bd
       0.088081166 -0.01999522 0.06905206 -0.0817879
000230 46 76 82 3d 68 d2 57 3d 93 e9 3b bd f8 72 a1 bd
       0.06370215 0.052690893 -0.04587705 -0.07883257
000240 ba 73 ad bd 98 f7 20 3d 8a 5d 26 bd 21 54 3f 3d
       -0.08469339 0.039298624 -0.04061655 0.04671109
000250 b7 bb 09 3e de 0f 09 3d 3f 7a 4b 3d 65 c3 ca bc
       0.13450514 0.033462398 0.04967713 -0.024751374
000260 99 80 c9 3b 08 80 b2 3c a3 bf 79 3d d5 85 9c 3b
       0.0061493632 0.021789566 0.060973775 0.004776696
000270 6a d2 13 bd 4d e2 36 3d c4 0f 79 bd 3a aa 4c 3c
       -0.03608934 0.04464941 -0.06080605 0.012491757
000280 90 ba 77 3d 8d 7b 9b 3d ea 90 6d 3d 3c 5c 85 3c
       0.060480654 0.07591925 0.05799953 0.016279332
000290 f9 59 61 3d ae 60 c1 3a d1 f2 3c bd 54 14 85 bd
       0.055017445 0.0014753544 -0.046130005 -0.06498018
0002a0 4d 5d ae ba ad 8f d2 bc 0c e6 e9 bc c8 2c 91 3d
       -0.0013302952 -0.025703276 -0.028552078 0.070886195
0002b0 f2 81 40 bd 54 16 e1 3d fc dc a0 3d 74 7d 6c 3d
       -0.046998926 0.10990587 0.078546494 0.05773683
0002c0 9a d9 31 bd 62 5b a1 3d d8 c5 49 bc 1d 5c b6 bd
       -0.04342041 0.07878758 -0.012315236 -0.08904288
0002d0 17 df 16 be ad 4b 81 3d 9c 0c 5a 3c 9e fa e9 3d
       -0.1473354 0.06313262 0.01330867 0.114247546
0002e0 f8 5e 5c 3d 82 43 c6 bd 18 fe 56 3d f2 b2 e4 bc
       0.053801507 -0.09680845 0.052488416 -0.027917359
0002f0 61 35 c9 bc ee 72 b6 3d c3 d5 54 bc 00 10 27 3d
       -0.024561586 0.0890864 -0.012990418 0.040786743
000300 42 10 b3 bb 0c 26 fc bc c2 e0 ea 3d 5d 14 52 bd
       -0.0054645846 -0.03077986 0.114686504 -0.05128895
000310 ce fe a6 3d f8 4c aa 3b cb b0 77 bd 38 13 dd 3c
       0.08154069 0.0051971637 -0.060471337 0.026986703
000320 03 eb 18 3e 24 cc 4c bd 9d 4b 5e 3d 0a 77 d4 bc
       0.149334 -0.04999937 0.05427133 -0.025935668
000330 4b b6 ee 3c aa fb 6a bd 77 bf a3 3d d8 2c 8a bd
       0.029139658 -0.05736891 0.079955034 -0.067468345
000340 37 60 06 3d 7e 8d 36 3b 8e 54 ad 3c 39 5f e4 3c
       0.0328066 0.0027855332 0.021158483 0.027877437
000350 e7 dd 72 bd 33 82 bc 3d 1c e1 e2 3b 98 cb b3 3b
       -0.059293654 0.09204521 0.006923808 0.0054869168
000360 31 e5 a5 3d ed 68 f9 bc 43 32 df bb 2a 1f 44 3d
       0.081003554 -0.03044554 -0.0068114116 0.047881283
000370 bc cd da 3d cb e8 38 3d 84 80 a2 3d 6a 81 da 3d
       0.10683772 0.045143884 0.07934669 0.10669215
000380 b3 f2 f4 bc cb 42 a4 bd 34 67 b0 3d 4a ec f9 3b
       -0.029900884 -0.08020552 0.086134344 0.007627045
000390 6d e9 a7 3d 89 c8 38 3d 20 5b 0b 3c 63 36 2c bd
       0.08198819 0.04511312 0.008505613 -0.042044055
0003a0 63 d3 18 bd 15 e4 12 bb ca 77 67 bb c0 0f bc 3d
       -0.03731097 -0.002241378 -0.0035319203 0.091826916
0003b0 9e 42 f0 bb 75 30 db 3d e6 0f 08 3d 0d 82 ff bc
       -0.00733216 0.10702602 0.033218287 -0.031189943
0003c0 9f 88 c8 3c 0a 73 f6 3c ab e4 03 bd a0 43 5e 3d
       0.024479209 0.030084152 -0.032200497 0.05426371
0003d0 73 6d 88 bd 0e 0f 6f 3d a2 e0 c9 bd 22 fe 3c bc
       -0.06661501 0.058363967 -0.098572984 -0.011535199
0003e0 34 18 f1 3d 7b d5 03 bd c6 ed 26 bd e4 11 27 3d
       0.117721945 -0.032186013 -0.040754102 0.040788546
0003f0 0a 2e 32 bb 1c 78 cd 3d 1b 98 96 bb e4 84 ee b8
       -0.0027188086 0.10032675 -0.004595769 -0.00011373477

classfier.fc2.bias f4 [50]
000000 fc 5c 94 b5 20 97 3e b5 8e b5 ba 35 14 3c fb b6
       -1.1053921e-06 -7.100043e-07 1.3910919e-06 -7.487377e-06
000010 ff c5 6e 35 26 05 0e 36 79 68 8b 37 b4 22 94 b6
       8.895003e-07 2.1162646e-06 1.661874e-05 -4.4147837e-06
000020 a3 7d 7a b7 89 28 94 35 b5 c6 5f 37 55 fd e7 34
       -1.4930413e-05 1.1038657e-06 1.3338101e-05 4.3211426e-07
000030 1d 71 05 37 60 f5 92 36 ca ed 2c b7 98 6c 66 36
       7.953754e-06 4.3797045e-06 -1.03073635e-05 3.433588e-06
000040 e5 e4 15 b6 bc 9e 12 b6 d0 8a 23 36 ec 77 2f b6
       -2.2335964e-06 -2.184809e-06 2.4369692e-06 -2.6146836e-06
000050 58 6f 19 36 dd 81 ea 34 a9 26 ac b6 a4 ed 66 b5
       2.2863587e-06 4.3680384e-07 -5.1305e-06 -8.602749e-07
000060 c2 e7 fb b6 1b 83 49 34 6f 32 b0 b7 af 47 09 37
       -7.507363e-06 1.876728e-07 -2.100432e-05 8.1825265e-06
000070 9f 95 8c 36 22 6f 86 35 60 4e 11 33 2e 5c 53 35
       4.1897433e-06 1.0016122e-06 3.3831725e-08 7.8737764e-07
000080 e6 9d 06 b7 c2 3f cf 37 47 97 df b5 58 28 85 b5
       -8.023786e-06 2.4706012e-05 -1.6658822e-06 -9.921014e-07
000090 36 c0 66 b6 0d cd 08 b6 8b ce a7 b5 ac 58 5a 35
       -3.4384552e-06 -2.0384934e-06 -1.2502582e-06 8.1340363e-07
0000a0 a5 a5 53 35 c2 66 81 b7 1e ad 64 36 87 d4 05 b7
       7.884467e-07 -1.5425849e-05 3.4075415e-06 -7.976901e-06
0000b0 2e 53 c5 b5 65 3d 2d 37 f1 39 c1 b6 8e e1 35 36
       -1.4701852e-06 1.0325898e-05 -5.7585935e-06 2.7102392e-06
0000c0 04 44 79 36 ec 17 9a 37
       3.7143482e-06 1.836937e-05

classfier.bn2.weight f4 [50]
000000 0d 02 79 3f bc 68 77 3f a4 76 7d 3f ff 27 7e 3f
       0.97268754 0.96644187 0.99009156 0.9927978
000010 76 dc 83 3f 86 05 76 3f 12 00 80 3f 48 7f 67 3f
       1.0301654 0.9610218 1.0000021 0.9042859
000020 03 8d 84 3f 6b e4 80 3f dd 44 81 3f ea df 6b 3f
       1.0355533 1.0069708 1.009914 0.9213854
000030 4b d5 81 3f 73 19 6f 3f cf 13 63 3f 88 b5 6a 3f
       1.0143217 0.9339821 0.887021 0.91683245
000040 a7 8c 8b 3f 81 3b 83 3f 8c bb 82 3f 15 ed 87 3f
       1.0902299 1.0252534 1.0213485 1.0619227
000050 99 86 81 3f 85 e8 7a 3f d2 40 8f 3f 10 32 8f 3f
       1.0119201 0.98011047 1.1191657 1.1187153
000060 08 b1 82 3f f2 5d 5e 3f 26 4e 82 3f 05 0f 6d 3f
       1.0210276 0.868621 1.0180099 0.92601043
000070 83 b2 7c 3f 4a 02 72 3f 12 e5 90 3f 27 43 80 3f
       0.9870989 0.9453474 1.1319907 1.0020493
000080 20 36 6e 3f c9 0b 84 3f 78 44 64 3f 21 45 82 3f
       0.9305134 1.0316097 0.89166975 1.0177346
000090 9c 2a 83 3f fa fc 78 3f 77 99 7f 3f d4 db 7b 3f
       1.0247378 0.9726101 0.99843544 0.98382306
0000a0 3c c4 74 3f dc e3 74 3f fa ef 6e 3f 25 51 6b 3f
       0.9561193 0.95660186 0.93334925 0.9192069
0000b0 21 e3 69 3f 25 98 82 3f f0 58 6c 3f 8b 17 82 3f
       0.91362196 1.0202681 0.9232321 1.0163435
0000c0 f7 1b 81 3f a1 2d 7e 3f
       1.0086659 0.99288374

classfier.bn2.bias f4 [50]
000000 8e 5d e9 bc 47 a1 4f be b6 a0 81 be ed cb 75 be
       -0.028486993 -0.20276366 -0.25317925 -0.24003573
000010 4e 81 85 3d 77 a8 ba bd 12 32 7e be 8a 4a c8 bd
       0.065188035 -0.09114163 -0.24823788 -0.09779842
000020 f1 68 ef 3d aa 96 5d be 66 d4 05 3c 8d 3b ab bd
       0.11689938 -0.21639505 0.0081683155 -0.08360968
000030 8a 4d 87 3d 27 22 50 be f7 ee 29 be 75 90 44 bd
       0.06606586 -0.20325528 -0.16595064 -0.047989327
000040 ea e1 61 3d c0 9b b0 3d d7 fd 02 bc 93 60 2d bd
       0.05514709 0.08623457 -0.00799509 -0.04232843
000050 77 3b 31 be 1d 06 9b bd c0 a2 71 3d 03 5f c0 3d
       -0.1730784 -0.075695254 0.0589931 0.09393122
000060 cf 29 79 be 53 bf 03 be 3c 3a a4 bd e2 d9 0f be
       -0.24332355 -0.12865953 -0.0801892 -0.1404796
000070 0d d7 7c 3c c6 a1 22 bd 27 1b 33 3d 40 90 e6 ba
       0.0154321315 -0.03970506 0.043727066 -0.0017590597
000080 d7 eb 5b be c2 f3 5c be d8 9e 87 bd 67 ba 8d 3d
       -0.21476685 -0.21577361 -0.06622094 0.06920319
000090 ea e9 80 3d 1e ac 68 3d a5 cf c6 bd 0d e7 70 be
       0.062946156 0.05680477 -0.09707574 -0.23525639
0000a0 8c 5e 7c bd 00 3d 88 bd 34 74 68 bd 3c 36 0c be
       -0.061613604 -0.0665226 -0.056751445 -0.13692564
0000b0 76 dd b9 bd b8 b5 7e be 50 cb d8 bd 4c 4c 59 3d
       -0.090754434 -0.24874008 -0.10585654 0.053051278
0000c0 f5 1c ed 3c e3 81 7d be
       0.028944472 -0.24756579

classfier.bn2.running_mean f4 [50]
000000 66 c6 79 be 7d e8 a9 3e fc b7 11 3e 28 b7 b5 3d
       -0.24392089 0.33185187 0.1423034 0.08872825
000010 1a 13 3c bf 13 5c 85 bd ef 49 37 3e e2 9e 6b 3e
       -0.73466647 -0.065117024 0.17899297 0.23009828
000020 59 15 2f bf cc 55 7a 3e 8f ed 7a bf 4b 91 26 bf
       -0.6839195 0.24446791 -0.98018736 -0.6506545
000030 74 93 4f bf e8 af f4 3d e6 0c 0c bf 3e 31 13 bf
       -0.8108437 0.11947614 -0.5470718 -0.5749701
000040 6c 14 33 bf dd 87 76 bf 4e 5d 60 bf d5 47 94 3e
       -0.69953036 -0.9630106 -0.8764237 0.28961053
000050 e5 7d 9b 3e d4 04 20 3b b5 41 8f bf d3 69 58 bf
       0.30369487 0.002441694 -1.1191927 -0.84536475
000060 b3 a5 e9 3d bb a1 80 3d d2 d1 72 3e 93 19 52 3e
       0.11408558 0.06280848 0.23712853 0.20517568
000070 11 50 f1 be 00 50 a4 bd 7b f9 38 bf ac 08 e7 be
       -0.47131398 -0.08023071 -0.72255677 -0.45123804
000080 0c 96 c2 3d e1 7b 91 3e 69 19 2c be 2a fc 1a bf
       0.095012754 0.28414825 -0.16806568 -0.6054102
000090 00 6b 80 bf ff 5f 5f bf ab 08 78 3c c9 33 80 3d
       -1.0032654 -0.87255853 0.015138785 0.06259877
0000a0 52 9f 19 bf e8 72 87 be 82 75 9f 3e d6 c6 94 3e
       -0.6000873 -0.26454854 0.3114434 0.2905795
0000b0 b9 c8 71 be da 36 8c 3d 1b 77 66 3e 44 a9 8a bf
       -0.23611726 0.068463996 0.22506373 -1.0832906
0000c0 0a cd 84 bf 79 cc 29 3e
       -1.0375073 0.16581906

classfier.bn2.running_var f4 [50]
000000 23 60 ad 3e b9 18 30 3f e9 8d 17 3f 0a 34 0d 3f
       0.3386241 0.68787724 0.5920091 0.5515753
000010 63 6e 6e 3f 9a f9 78 3e 95 b8 02 3f 11 54 9a 3e
       0.93137187 0.24313965 0.510629 0.30142263
000020 c2 1f 01 3f 6c 4e 02 3f ba d4 20 3f 38 69 8b 3f
       0.50439084 0.5090091 0.62824595 1.0891485
000030 91 5a 4f 3f 7f 3e 0c 3f 14 ce 6c 3e 7e 1c c2 3e
       0.8099757 0.5478286 0.23125488 0.37912363
000040 0c e3 52 3f 76 19 3e 3f 44 ff 6a 3f 92 ee ce 3e
       0.82377696 0.742576 0.91795754 0.4041639
000050 09 70 22 3f 90 fc c2 3e 59 e5 6f 3f 10 f5 1e 3f
       0.634522 0.38083315 0.9370933 0.62092686
000060 ab 51 1d 3f 44 bb 37 3e bc 09 29 3f 1e 51 22 3f
       0.6145274 0.1794253 0.6603048 0.63405025
000070 e9 2c 16 3f af 86 da 3e 6b ac 62 3f f3 00 98 3e
       0.5866228 0.4268088 0.8854434 0.29688224
000080 d7 9b 09 3f 5f 2d 26 3f dc 1d 47 3f 8d aa ae 3e
       0.5375342 0.6491298 0.77779937 0.34114495
000090 4e 91 a1 3f da 15 fb 3e 10 81 d5 3e 78 90 23 3f
       1.2622468 0.4904011 0.4170003 0.63892317
0000a0 67 fe b9 3e c0 e4 ce 3e 2f 93 d8 3e db 6d 0f 3f
       0.36326906 0.40408897 0.42299792 0.56027
0000b0 cf df 8c 3e 57 4b 41 3f 1e f5 89 3e 88 b1 10 3f
       0.27514502 0.75505584 0.26944822 0.5652089
0000c0 48 ab 2e 3f 29 8e 15 3f
       0.68230104 0.58420044

classfier.fc3.weight f4 [25, 50]
000000 ea ab d2 3d e5 72 b3 bd 75 b0 4e bd fb 98 9a bd
       0.10286696 -0.08762149 -0.05046125 -0.0754871
000010 06 b9 c3 bd 2c 0f ba 3d 61 dd fd bc 3c 48 d5 3d
       -0.09556775 0.09084925 -0.03098935 0.10414168
000020 b2 23 25 be f2 92 08 bd 27 15 3f be 85 4d 2b bd
       -0.16126898 -0.033343263 -0.18660413 -0.041821975
000030 88 f1 99 3d 14 4f 9a bd a8 4e 5a be 33 95 c8 bd
       0.075167716 -0.07534614 -0.21319067 -0.097940825
000040 b0 85 8e 3c d3 eb 30 be 27 a8 13 3e 9f d8 85 bb
       0.017397732 -0.1727746 0.14419614 -0.004084661
000050 78 e0 40 bd 04 15 f8 3c 6c 29 96 be d6 d0 2e 3e
       -0.04708907 0.030283459 -0.29328477 0.17071852
000060 1f 5b 8c bd 4c 9b 08 bd a4 1f 96 bd 5d 83 e6 bc
       -0.068533175 -0.033351228 -0.07330254 -0.02813881
000070 5f f4 09 be 08 86 2e bd 06 92 d7 3d c1 98 6e 3c
       -0.13472126 -0.04260829 0.10525899 0.014562787
000080 23 7f 9c bd f9 3d 1e bd 94 cf fc 3c 73 aa c1 3c
       -0.07641437 -0.03863332 0.0308607 0.023640847
000090 41 7d 1d 3e e3 9d d6 bd d4 10 1b 3d ef e6 bc bc
       0.15379812 -0.10479333 0.037857845 -0.023059336
0000a0 c8 a5 f6 bc 3f 59 89 bd f2 15 83 bd 51 64 11 bd
       -0.030108348 -0.067064755 -0.0640067 -0.03549606
0000b0 0b eb b1 bd a3 a1 44 bd 55 ba 1c 3d 48 cd a5 b9
       -0.08687409 -0.04800571 0.038263638 -0.000316242
0000c0 83 66 a6 bd 15 8c 7e bd d3 66 2c bd 01 e5 ba 3d
       -0.08125021 -0.06214531 -0.04209025 0.0912571
0000d0 e6 53 9c 3d b1 ec 92 3d 84 df 61 3c 7e e8 f0 bc
       0.0763319 0.071740516 0.0137862 -0.029407736
0000e0 52 df 5b 3c 80 2c a8 3b 93 ad 38 bd a7 50 50 3a
       0.013419943 0.005132258 -0.04508741 0.00079465884
0000f0 61 e3 2b 3d a4 1f 2a 3d 73 4f 97 bd 00 8c b1 3d
       0.041964892 0.04153408 -0.073882006 0.08669281
000100 61 3b cd bc a9 a3 8c 3c cb 6d bc bd cf ad 05 bd
       -0.025052728 0.017167883 -0.09200629 -0.03263646
000110 05 a7 c8 bd e4 f9 9b bc 2d 3f ff 3d 58 47 a1 bd
       -0.097974814 -0.019040056 0.12463222 -0.07874936
000120 69 8c 89 3b 33 5d 30 bd 48 85 d0 3d 16 e5 43 3c
       0.0041976464 -0.04305763 0.101816714 0.011956474
000130 4a 36 1a 3d 11 1f 23 3d be d4 9e bd e2 ee e1 bb
       0.03764943 0.03982455 -0.07755421 -0.006894932
000140 cd 5b d6 bd 6c d6 98 bb 38 13 09 3d e9 a3 ca bc
       -0.10466728 -0.004664233 0.033465594 -0.024736362
000150 01 5f de bd 86 02 9c bd 4a f9 86 bd 60 d9 e9 bc
       -0.10857964 -0.07617669 -0.06590517 -0.028546035
000160 44 13 e2 bd a8 34 f3 3d ec 9c b5 3d 66 8b 2a bb
       -0.11038831 0.11875278 0.08867821 -0.002602303
000170 3e 70 04 3d 72 f7 8e 3d 34 c5 af bc 50 49 1a 3e
       0.032333605 0.0698079 -0.021456338 0.15067029
000180 bd 73 2b 3c 9e a9 8f bd 61 46 10 3d 05 bc b2 3d
       0.010464606 -0.07014774 0.03522337 0.08727268
000190 e5 2f fa 3c d3 78 f5 3c e7 ee 5d bd f8 c6 ad bd
       0.030540416 0.02996484 -0.054182913 -0.08485216
0001a0 fa 70 56 be 93 9a 04 bd 2a dc bf bc 51 3f 0f be
       -0.20941535 -0.032373976 -0.023420412 -0.13988997
0001b0 8b 2e 14 3a a8 06 ec bd b6 10 8e 3c 35 fc ea 3c
       0.00056526874 -0.11524707 0.017341953 0.028684715
0001c0 5e 36 13 3d 52 6a 6d bd 63 8b d2 3c ba 98 7c bd
       0.03594052 -0.057962723 0.02570123 -0.06166909
0001d0 ee 13 9e bd 8a b5 1b be 88 32 81 bc 49 d9 85 be
       -0.07718645 -0.1520597 -0.015771165 -0.26142338
0001e0 b9 d3 92 bd 98 0a b8 bd 79 9c b5 3d bc ec 58 3d
       -0.07169289 -0.089863956 0.088677354 0.052960142
0001f0 f2 3d 65 bd 84 a2 c6 bd 2a 58 2b be d0 bf 14 be
       -0.05596728 -0.09698966 -0.1673285 -0.14526296
000200 08 c4 4e bd 09 9f 87 bc 30 d3 90 bc a0 26 a4 3d
       -0.05047992 -0.016555326 -0.017678827 0.0801518
000210 f1 6e 00 be d7 c9 a5 bd 56 d7 c1 3c a0 38 32 3c
       -0.12542321 -0.080951385 0.02366225 0.010877758
000220 0a 92 9e 3d 08 78 82 bc 69 71 da bd f5 97 5f bd
       0.077426985 -0.015926376 -0.106661625 -0.054588277
000230 3b 1f 5e 3c 32 18 df bd f5 eb 96 bd aa b8 62 bd
       0.013557251 -0.10893287 -0.07369224 -0.05535189
000240 92 9d 94 bc a5 69 7d bd a1 dc 06 bd 1b 40 60 3d
       -0.018141542 -0.06186833 -0.032925252 0.054748636
000250 4b ef b5 3c 0c eb 80 bd 87 87 9b bc 20 02 dc bd
       0.02220883 -0.06294832 -0.018985523 -0.10742593
000260 84 85 9a bd ad d5 ac bd d8 12 04 3e 19 89 c3 3c
       -0.07544997 -0.08439193 0.12897813 0.023869084
000270 3f 3a 9b bd fb 98 ad 3d 70 3a 4a be 0b 98 73 bd
       -0.07579469 0.08476444 -0.19748855 -0.05947117
000280 0c d5 2f be 1f 73 1f 3e 99 67 be 3d 83 be 46 3c
       -0.17171115 0.15571259 0.092971034 0.0121303825
000290 38 b1 0b bb 10 5f 02 be f0 52 5c 3d 85 dc 1b 3e
       -0.0021315347 -0.12731576 0.053790033 0.1522084
0002a0 e0 70 18 3e 68 bb e7 3c 80 d3 80 bd c9 9b f6 bc
       0.14886808 0.028287604 -0.062903404 -0.030103581
0002b0 d4 ae 35 be 79 2c 32 be 65 2b 0e bd c9 c4 08 bd
       -0.17742473 -0.17399777 -0.034709353 -0.033390794
0002c0 93 a2 99 ba 7e ee fc bb 88 c2 4b be 1f 95 2c 3c
       -0.0011721425 -0.00771886 -0.19898427 0.0105336
0002d0 b0 b7 bc 3d ba 5f 2c 3e d5 a9 9f bd 9c aa 1f bd
       0.09214723 0.16833392 -0.07796065 -0.038981065
0002e0 fb 76 9c bd d0 1c a7 3d 89 29 04 3e 75 8b 37 bd
       -0.07639881 0.081597924 0.1290647 -0.04481073
0002f0 29 0f 0f 3c f8 41 f1 bc 1b 17 fd bd 1a ae 8a 3c
       0.008731642 -0.029450402 -0.12357923 0.016928721
000300 b9 63 31 bd a2 19 97 bd ca 91 3e 3d 29 5f 2e bd
       -0.043307994 -0.07377936 0.046525754 -0.04257122
000310 0f 06 cc bd 2e a9 c6 3c 5f ac 0b be f3 78 94 bd
       -0.09962093 0.024250593 -0.13639973 -0.07249632
000320 b2 a6 dc bd f9 68 31 bd 1d 03 e2 bd de 23 ef bd
       -0.10773982 -0.043313 -0.1103575 -0.11676763
000330 56 58 21 3e ea f8 1e 3d 22 f1 86 bd 95 53 74 bc
       0.15756354 0.0388116 -0.06588961 -0.014912506
000340 78 82 bc bc a2 71 85 bd 14 c0 85 3c 7c ea 60 3c
       -0.023011431 -0.06515814 0.016326942 0.01372778
000350 79 c3 24 3e 55 6b c0 bb cb e1 5e 3d cd dc ee bd
       0.16090192 -0.00587217 0.05441455 -0.11663208
000360 41 37 cd 3d af 52 10 3e f9 db a3 3d 6c 57 e8 39
       0.100203045 0.14094041 0.08000941 0.00044315623
000370 fd a8 b9 bd 5f c4 a7 3c de 74 53 be 8a 96 91 be
       -0.09065435 0.02047938 -0.2065005 -0.28435165
000380 be d2 12 bd 60 0f 6b bd e7 00 7f bd c0 30 9a 3b
       -0.03584551 -0.05738771 -0.06225672 0.0047055185
000390 76 14 91 bc 28 e1 f6 bd 9c d7 84 3c ae 24 0a be
       -0.017709952 -0.12054664 0.016216092 -0.13490555
0003a0 63 7b c2 bc db a0 64 bd e4 d6 01 be 0e dc c0 3d
       -0.023740476 -0.055817466 -0.1267963 0.09416972
0003b0 27 41 0e 3e 55 16 af 3d c1 2b 58 3d 89 c3 d0 bd
       0.13892041 0.08549181 0.052776102 -0.10193545
0003c0 0f 06 c8 bc ec b0 52 3c 08 44 0a 3d ee 29 37 bc
       -0.024416951 0.012859564 0.033756286 -0.01117943
0003d0 1b 94 82 bc 9c 0f 3e bd 2c b7 c0 bd 4a 77 c1 3d
       -0.015939763 -0.046401605 -0.09409937 0.09446581
0003e0 35 4e 0f be 1d 96 50 bc d4 3c ea bc e3 80 5e bc
       -0.13994677 -0.012731102 -0.028593458 -0.013580534
0003f0 8b 7c f2 3d 04 92 d9 3d 60 04 d7 bd 52 4b a8 bd
       0.11840161 0.106235534 -0.10498881 -0.08217491

classfier.fc3.bias f4 [25]
000000 2f 0a d9 36 5c cd 9f 38 4c 35 1a b9 8f b8 51 37
       6.4682895e-06 7.619962e-05 -0.00014706439 1.2500342e-05
000010 4c b1 4e 36 49 da 5c 36 f0 44 15 36 9e 60 cc 34
       3.0799592e-06 3.2909613e-06 2.2242857e-06 3.806826e-07
000020 be bc b7 36 9a 0b 73 b7 8e 81 9a 37 4c 46 94 37
       5.4757975e-06 -1.448663e-05 1.841856e-05 1.767571e-05
000030 31 01 80 37 2f 08 2c b9 d0 e3 81 b6 50 c4 16 39
       1.5259344e-05 -0.00016406247 -3.8710205e-06 0.00014378247
000040 af 4a 19 39 fc c1 a6 b5 40 b8 15 b7 0c f5 ab b5
       0.00014619039 -1.2424421e-06 -8.923991e-06 -1.2811811e-06
000050 86 27 21 36 c2 4f 32 35 4b 6a c8 36 9a 82 9c 36
       2.4013875e-06 6.642623e-07 5.9728386e-06 4.6643663e-06
000060 d9 44 40 b8
       -4.5840487e-05

classfier.bn3.weight f4 [25]
000000 61 66 9f 3f ce 42 8c 3f f0 bb 9e 3f 32 5d 9c 3f
       1.2453119 1.0957887 1.2401104 1.2215941
000010 48 98 9e 3f 35 e9 84 3f 6b b0 85 3f e4 ec 88 3f
       1.2390223 1.0383669 1.0444463 1.0697293
000020 09 bb 87 3f bd a9 aa 3f 26 d8 a2 3f 93 2f 9c 3f
       1.0603954 1.333305 1.2722213 1.2202018
000030 a7 59 9d 3f 3f 1b aa 3f f7 58 9f 3f de 18 9d 3f
       1.2292985 1.3289565 1.2449025 1.2273214
000040 bc b6 8a 3f 77 02 8b 3f d3 a5 87 3f 8b 57 8b 3f
       1.0837016 1.0860127 1.059748 1.0886091
000050 0f 48 88 3f d1 86 9c 3f 26 30 9c 3f 66 00 9b 3f
       1.064699 1.2228643 1.2202194 1.2109497
000060 71 7a a8 3f
       1.3162366

classfier.bn3.bias f4 [25]
000000 81 5a 68 3e f0 25 fc bc d7 5b 77 3e 23 72 4f 3e
       0.22690775 -0.030779809 0.24156128 0.20258383
000010 c1 b5 6e 3e 1d c0 20 bd bc 20 44 bd 85 78 1b bd
       0.23311521 -0.039245714 -0.04788278 -0.037956733
000020 b6 8c 32 bd 9c 2e a2 3e 5b 90 87 3e c1 5a 5d 3e
       -0.043591224 0.31676185 0.26477322 0.21616651
000030 3c 1a 67 3e 3c 1b a6 3e 5c 0b 60 3e 07 ac 6a 3e
       0.22568601 0.32442653 0.21879333 0.22917186
000040 6c ca 2c bd bd a0 1c bd 06 a8 19 bd dd b7 18 bd
       -0.042185232 -0.03823923 -0.037513755 -0.03728472
000050 d9 d3 21 bd dc d4 59 3e 0f 4f 6b 3e 08 2d 52 3e
       -0.039508674 0.21272606 0.22979377 0.2052499
000060 4e a5 9d 3e
       0.3079018

classfier.bn3.running_mean f4 [25]
000000 82 d2 07 bf ed b5 84 bd af 3b 25 bf a3 6f b2 be
       -0.53055584 -0.06480012 -0.64544195 -0.34850797
000010 eb 80 99 be d2 32 75 3d 30 0c 7a 3d f9 5f 09 bd
       -0.2998117 0.05986292 0.06104678 -0.033538792
000020 4f af d8 3b 02 dc 14 be 3c f2 1b 3d 13 5d b6 be
       0.0066126953 -0.14537051 0.03807281 -0.35617885
000030 04 d6 73 bd 73 5a ac be 01 9a bf be 8d ad 36 bf
       -0.059530273 -0.33662757 -0.37422183 -0.7135857
000040 11 45 72 3d e9 4a 79 bc 06 d0 64 bd 0a 1a 09 bd
       0.059147898 -0.015215614 -0.05586245 -0.0334721
000050 db f0 d0 3d 69 e4 e6 be bc 16 17 bf 41 48 f3 bd
       0.102021895 -0.45096138 -0.59019065 -0.11879016
000060 4a 25 cf be
       -0.40458137

classfier.bn3.running_var f4 [25]
000000 19 96 d5 3e 89 aa 28 3f e4 40 32 3f 0b 75 29 3f
       0.41716078 0.65885216 0.69630265 0.6619422
000010 e2 81 2a 3f 5c da 4e 3f e8 09 72 3f ed 2e 93 3f
       0.66604435 0.8080194 0.94546366 1.1498696
000020 76 95 8a 3f 1c 38 31 3f 6f f5 6d 3f 16 23 2a 3f
       1.0826862 0.6922624 0.92952627 0.66459787
000030 44 d5 56 3f 7c 15 53 3f 8d 32 f5 3e 1a f7 4a 3f
       0.8391917 0.8245466 0.4789013 0.792833
000040 0c e8 81 3f 6f 02 9c 3f 3c cd 76 3f d3 36 8c 3f
       1.014894 1.2188243 0.9640691 1.0954231
000050 06 f0 63 3f 81 03 ac 3e 23 27 15 3f 09 da 55 3f
       0.8903812 0.33596423 0.5826284 0.8353582
000060 92 55 34 3f
       0.7044307

classfier.fc5.weight f4 [1, 25]
000000 84 39 99 be 97 06 02 3e f5 eb 98 be f6 dc be be
       -0.29926693 0.12697826 -0.2986752 -0.37277955
000010 14 fa a9 be 67 8f 5a 3e e0 d3 72 3e bb ca 35 3e
       -0.33198607 0.21343766 0.23713636 0.17753117
000020 bf 85 6d 3e 8a 0b 72 be 1c 0d 8c be a6 d9 ad be
       0.23195551 -0.23637214 -0.27353752 -0.33955115
000030 59 48 b9 be 24 84 5c be 0a 3c 90 be f6 22 9d be
       -0.3618801 -0.21534783 -0.28170806 -0.30690736
000040 fe 2d 83 3e a6 af 2d 3e 18 e5 0c 3e b3 49 61 3e
       0.25621027 0.16961536 0.13759267 0.2200077
000050 b1 d0 3b 3e 50 32 af be 7a 00 b5 be c1 9e c7 be
       0.18341328 -0.34218073 -0.35351926 -0.38988307
000060 75 1a 68 be
       -0.22666343
