src/trained_models/collins/run_14-57-38/dnn_model_fold_2.pt (torch, 87553 bytes, 19 tensors)

classfier.fc1.weight f4 [100, 100]
000000 ab 35 a4 bc 54 0b b2 3c 12 c7 8b bc bf 00 03 3c
       -0.020045122 0.021733917 -0.017062698 0.007995783
000010 b6 8e 6a 3d 60 cb 77 bd 40 cd 3a bd 44 a5 54 3c
       0.057265006 -0.060496688 -0.045605898 0.0129788555
000020 0b 3d 78 bc aa 88 2e 3d 26 12 55 3d 83 09 0c 3c
       -0.0151512725 0.0426108 0.05201926 0.00854719
000030 d2 46 e8 3d eb dd e6 3c aa b5 49 bd 24 63 bf bd
       0.11341633 0.02818199 -0.049245514 -0.093450814
000040 32 4e 63 3d bb 14 16 bd 9f 88 16 bd e8 46 a6 bd
       0.055494495 -0.036640864 -0.036751386 -0.08118993
000050 b8 74 07 3e 7e c0 ad bd aa 94 3b bd 4f b9 49 bd
       0.13228118 -0.084839806 -0.045796074 -0.04924899
000060 9b be 02 3d b0 c4 1f bd 99 45 7b bc 1d 1c 24 3d
       0.031920057 -0.039005935 -0.015336418 0.040065873
000070 b6 fc 7d bc da b3 a8 bd 94 30 31 bc 32 0f 72 3d
       -0.0155021455 -0.08237429 -0.010814805 0.059096523
000080 86 7f 7e bd ba 5f 1b bd 38 14 34 bc 39 f5 b2 3d
       -0.062133335 -0.03793309 -0.010991149 0.08738179
000090 31 01 80 3b 2f 6a 8a bc a0 37 82 3d 73 cc 73 3d
       0.003906392 -0.016896335 0.06358266 0.05952115
0000a0 26 8e 0c bd 78 41 83 3d 6c b1 87 bd 92 ec d8 bc
       -0.03431525 0.064089715 -0.066256374 -0.026479993
0000b0 1f fe 97 bd 84 a2 a0 3d c0 ef fc bc 3a ee 54 bd
       -0.074215166 0.078434974 -0.03087604 -0.051985003
0000c0 a5 a1 7d bc 24 39 2e bc fa c2 b8 3d e6 fe a0 bd
       -0.015480434 -0.010633741 0.09021564 -0.07861118
0000d0 f9 eb c2 ba c1 83 64 bd e5 2d 4c 3d b1 23 4b bd
       -0.0014871351 -0.055789713 0.049848456 -0.049594585
0000e0 9b ef c1 bd e4 35 42 3c 75 c8 ed bc ef ca 9d 3d
       -0.09469529 0.011853669 -0.02902625 0.07704722
0000f0 aa 30 1e 3c c6 fa 47 bb 60 a0 28 bd 65 3f 8e 3d
       0.009655157 -0.0030514463 -0.04116857 0.06945685
000100 6b 43 bf 3d 72 92 d9 3d 63 19 23 bd f7 7c 7d bc
       0.09339031 0.10623635 -0.039819133 -0.0154716885
000110 d4 8b 95 bc 80 0a 55 3c fb 71 8b 3d 77 62 27 3d
       -0.018255152 0.013002992 0.068088494 0.040865388
000120 b9 60 08 3d dc d3 fa bc da a0 bc 3c 89 82 9f bd
       0.033295367 -0.0306186 0.023025919 -0.077885695
000130 fa 98 f8 bc 3a 30 00 bd 85 04 80 3d ce 09 9f bc
       -0.030346382 -0.031295992 0.06250862 -0.019413855
000140 77 83 19 bd be 21 dc bd a2 fa 40 3d 22 5a 5f 3d
       -0.03747889 -0.10748623 0.047114022 0.054529317
000150 10 d2 13 bd 76 c1 1b 3a fd 8c c7 3d 00 57 31 3d
       -0.036089003 0.00059416087 0.09743688 0.04329586
000160 ab cc 4b bb 72 b9 d8 bd f3 1d f1 3d 54 f1 21 3d
       -0.0031097333 -0.10582246 0.117732905 0.03953679
000170 25 c8 be 3d b5 81 b1 bd c8 5a be 3c 4e 6f 80 bd
       0.09315518 -0.08667318 0.023236647 -0.0627123
000180 aa 18 17 3c 56 59 03 be 72 ad 8c bd 65 51 13 3d
       0.009222189 -0.12827048 -0.068690196 0.035966296
000190 54 8b 8b 3a 83 ba 42 3d ac ae bc 3c 88 30 24 3d
       0.0010646381 0.047541153 0.023032509 0.040085346
0001a0 19 c3 eb 3c 43 45 7b 3c 0e 6e 82 bd 79 52 f7 3c
       0.028779553 0.0153363375 -0.063686475 0.030190693
0001b0 ba 67 20 3d 8a 06 ce 3d 54 67 82 bd 0c 9f ba 3d
       0.03916142 0.10059841 -0.063673645 0.09112367
0001c0 5c b3 80 bd c7 38 39 3c c8 6c 12 3d 72 df 50 bd
       -0.0628421 0.011305041 0.035748273 -0.050994344
0001d0 cb 39 dc bd 08 9a 71 bd 18 89 a1 3b 29 1b ae 3d
       -0.10753211 -0.058984786 0.004929673 0.08501274
0001e0 85 67 4e bd 0c a3 43 3d 6f 40 07 3d a9 a5 8f ba
       -0.050391693 0.047762915 0.033020433 -0.0010959405
0001f0 b7 0e ea bd bb de 9b 3c 94 d3 05 3d 20 a4 b9 3d
       -0.11428588 0.019027105 0.03267248 0.090645075
000200 20 a5 8d 3d 8f ed 04 3e 8b 01 20 bd 74 ff 8f bd
       0.06916261 0.12981246 -0.03906397 -0.07031146
000210 47 4c 4e 3d da 16 fa bd 8e a3 9c bb 50 87 07 3d
       0.050365712 -0.1221139 -0.0047802394 0.03308803
000220 80 6a fc 3c 75 a0 85 bd b6 56 82 bd ef 5a 36 bd
       0.030812502 -0.065247454 -0.06364195 -0.044520315
000230 3b 9a b0 bd d4 8f b3 bd f4 d5 ac bb 15 89 d1 bb
       -0.08623167 -0.087676674 -0.0052745286 -0.0063945153
000240 ae 42 60 3c ac a3 ea bd 81 7f 93 bd 91 22 3e 3d
       0.013687773 -0.11456999 -0.07202054 0.046419684
000250 b3 77 9b 3d 81 a0 04 3d 61 09 5d bd d4 a1 17 3d
       0.0759119 0.03237963 -0.053964023 0.037019566
000260 13 9f ba 3c 6c 4a 20 bc 3e 1f a2 3d 5b 35 69 3c
       0.02278093 -0.009783369 0.07916115 0.014233912
000270 26 67 bf 3d 25 5d fc bc d1 54 8a bd cc b7 c0 3c
       0.09345846 -0.030806134 -0.06754459 0.023525141
000280 71 ca 85 3c 76 b5 a8 3c 48 42 9f 3c 3b 8f 17 3d
       0.016331883 0.02059434 0.019440785 0.03700183
000290 c3 6c dd 3c e2 71 2f 3d 81 08 d8 bd d4 77 17 bd
       0.0270294 0.042833216 -0.10548497 -0.03697951
0002a0 f5 f3 55 bd 55 4a 4f 3d a3 63 b1 3d c1 2e b8 bc
       -0.05223461 0.050607998 0.08661582 -0.022483231
0002b0 87 7f 25 bd dd 46 83 bd 25 57 0d 3e e6 fd 8f 3b
       -0.040404823 -0.064100005 0.13802774 0.0043942807
0002c0 49 f9 46 bd 63 8e 58 bd 76 c0 b5 bd 0a 8c 9b bd
       -0.04857758 -0.052870166 -0.088746 -0.0759507
0002d0 2d d9 9a bd ab d4 9b bc ae d8 06 bd 5b 83 8e bd
       -0.07560954 -0.019022306 -0.032921486 -0.06958648
0002e0 13 30 f4 3d 19 57 bd 3d b2 ce 1c 3d 03 97 44 bd
       0.11923232 0.09245128 0.038283058 -0.04799558
0002f0 e7 e4 3f bd e6 67 98 3d 8a 49 d7 bc 1f 9e bb bd
       -0.046849158 0.07441692 -0.026280183 -0.091610186
000300 63 c0 78 bc f1 78 93 bc 9c c5 25 3d a0 c7 74 3d
       -0.015182587 -0.018002005 0.040471658 0.05976069
000310 95 70 4b 3d 4c ff d6 bc bd 85 43 bd 67 d3 ae 3d
       0.049667913 -0.026244782 -0.047734965 0.085364155
000320 24 17 88 bd 2a 53 bf 3b dd f2 b7 3c 46 0d 3c bd
       -0.06645039 0.0058387714 0.022454673 -0.045911096
000330 3c c5 e0 bc 45 de 88 bd 08 15 f7 3d 18 15 14 3e
       -0.027437799 -0.066830195 0.12064558 0.14461172
000340 f0 3c c0 3c 35 1a d5 3d f0 54 1a bd fc db 91 bc
       0.023466557 0.10405389 -0.03767866 -0.017805092
000350 26 be 72 bb 83 3c 55 bd 07 d4 47 bd 0d c8 7f bc
       -0.0037039607 -0.05205966 -0.04878619 -0.015611661
000360 4d cd 1c bd 28 82 0e 3d cb 9c 1d 3c b7 88 a5 bc
       -0.038281728 0.034792095 0.009619902 -0.020206792
000370 ab 24 de 3d a1 2e 8f bb 2b c5 7c bc 49 ff 82 3d
       0.108468376 -0.0043695723 -0.015427868 0.06396348
000380 d0 92 0c bd e1 04 fd b9 7c f8 92 bd b8 8d a9 3d
       -0.0343197 -0.00048259555 -0.07176301 0.08278984
000390 47 03 cc 3c 27 49 99 bd 45 e0 1b 3b 0f 9e 2f 3c
       0.024903907 -0.07484656 0.0023784798 0.010718836
0003a0 72 86 9d bd 11 ef b5 3d e4 a5 15 bd 8a d9 00 3d
       -0.07691659 0.08883489 -0.03653516 0.03145746
0003b0 9f 50 6e bd 3e 20 55 3d 23 be 2b bd 75 39 33 bd
       -0.058182355 0.0520327 -0.041929375 -0.043755967
0003c0 90 ed ca bd cb b8 51 3d 27 d2 f0 bb 08 ce 15 3d
       -0.09908593 0.051201623 -0.007349271 0.03657344
0003d0 b4 52 9e 3d 9a 80 8b bd 03 2b 85 3d 8c e1 c9 bd
       0.07730618 -0.06811638 0.065023445 -0.09857473
0003e0 82 a3 8f b9 ee ad de 3d 8b 28 80 bb 7d 8b 8f 3c
       -0.00027396908 0.10873018 -0.003911083 0.017522568
0003f0 36 81 7b 3c 7b f4 e3 bd ec f0 e4 3a e6 cd d1 3d
       0.0153506305 -0.11130615 0.001746682 0.1024435

classfier.fc1.bias f4 [100]
000000 d0 c5 9c 37 1c e1 61 38 50 56 dc b4 9c 83 3a b6
       1.8688763e-05 5.385383e-05 -4.1040994e-07 -2.7792767e-06
000010 ec 2a fb 36 90 cd b5 b6 91 93 83 36 c3 7c 64 35
       7.4853797e-06 -5.418151e-06 3.921283e-06 8.511817e-07
000020 9d 4e aa 36 32 c1 b0 b6 39 22 c8 37 ec dd 74 38
       5.0755466e-06 -5.2676996e-06 2.3857794e-05 5.8380814e-05
000030 66 1b 54 36 59 ad 09 b5 b9 cc b8 b5 f9 dc 18 b6
       3.160641e-06 -5.128873e-07 -1.376865e-06 -2.2778388e-06
000040 12 5e 94 36 ab 20 04 b6 50 0e 29 37 89 39 2a 36
       4.421695e-06 -1.9688548e-06 1.0076517e-05 2.5365464e-06
000050 4c cb e6 37 90 ed 79 b7 e8 e7 0c 38 65 32 a4 35
       2.7512804e-05 -1.4896868e-05 3.359458e-05 1.2233619e-06
000060 52 59 6d b7 ff ef 39 b7 cd b1 f3 36 f5 ad 94 b7
       -1.4147097e-05 -1.1082738e-05 7.262663e-06 -1.772398e-05
000070 57 52 90 b6 75 ce 9f 37 db 86 a6 38 97 0a d7 b7
       -4.30112e-06 1.9050416e-05 7.9406156e-05 -2.5634929e-05
000080 28 86 34 36 9a cd 92 b6 4a cf 3b 35 db 73 d3 35
       2.690018e-06 -4.3750742e-06 6.9964574e-07 1.5754443e-06
000090 fe 7d 6c b5 a9 ba c0 b6 96 46 30 b6 a0 0a af b5
       -8.8100194e-07 -5.743776e-06 -2.626713e-06 -1.3041608e-06
0000a0 1a b8 82 38 6c 6e 05 b6 e2 e9 fa 37 4d 62 13 36
       6.233175e-05 -1.9882818e-06 2.9911233e-05 2.1961926e-06
0000b0 5c d3 8e 36 2a 7d 0e 37 ba 26 15 37 44 77 85 35
       4.2565352e-06 8.493002e-06 8.890109e-06 9.943983e-07
0000c0 78 a0 c1 33 7c d1 15 36 de 39 21 35 d5 58 ac b6
       9.016452e-08 2.2324666e-06 6.006138e-07 -5.136341e-06
0000d0 56 fc 68 b6 c6 c4 e6 b6 b7 2a 38 37 54 f3 a8 b6
       -3.4717573e-06 -6.8774416e-06 1.09772e-05 -5.0351173e-06
0000e0 5d e4 87 36 ee dc a9 b5 46 41 dc b6 c5 7d 6c 36
       4.0498985e-06 -1.265578e-06 -6.5641098e-06 3.5239948e-06
0000f0 55 c4 ec b6 55 1f 28 b6 f9 8d 23 b8 bf c2 67 b7
       -7.056204e-06 -2.5052188e-06 -3.899445e-05 -1.3814016e-05
000100 24 2f 02 37 45 5b 1b b7 8b 05 27 35 65 f7 41 37
       7.75958e-06 -9.25997e-06 6.2220414e-07 1.15612975e-05
000110 5c 6e e6 b6 b2 8a fb b6 a3 95 70 b7 d1 eb 43 37
       -6.8673817e-06 -7.496529e-06 -1.4339955e-05 1.1677811e-05
000120 8e 3e 34 36 9e ca 1e 36 33 f4 3e b8 bd c5 47 b7
       2.6858502e-06 2.3661773e-06 -4.552696e-05 -1.1907364e-05
000130 51 e9 3f b6 1e 23 31 38 8e 58 2b 38 28 e0 04 35
       -2.8597026e-06 4.2232794e-05 4.085205e-05 4.950002e-07
000140 d3 7d 42 b6 81 6f 7f 37 d3 ea 09 b7 d5 4c 29 37
       -2.8981492e-06 1.5225146e-05 -8.220511e-06 1.0091074e-05
000150 86 e0 10 b7 14 b8 41 b6 b2 a9 6b b5 9e 01 66 37
       -8.635345e-06 -2.8866389e-06 -8.779126e-07 1.3709445e-05
000160 0b c8 ae 37 57 f3 5a b6 f6 84 10 37 37 d4 e2 b6
       2.0835569e-05 -3.2626174e-06 8.614026e-06 -6.76003e-06
000170 28 88 99 b4 73 f1 16 38 b0 c5 d3 36 99 bf 70 37
       -2.8597537e-07 3.5987654e-05 6.311304e-06 1.4349725e-05
000180 c1 9f ad b7 56 d6 27 b7 f5 88 c2 b3 fc e4 3c b6
       -2.0697598e-05 -1.000388e-05 -9.058741e-08 -2.814747e-06

classfier.bn1.weight f4 [100]
000000 3d bd 84 3f 97 a5 81 3f d6 47 7d 3f 9c e0 73 3f
       1.0370251 1.0128659 0.9893774 0.952646
000010 cb 74 81 3f f1 c6 83 3f 6f 96 7f 3f 25 06 80 3f
       1.0113767 1.0295087 0.9983892 1.0001875
000020 61 13 6f 3f b5 9b 72 3f 98 e7 84 3f 44 14 83 3f
       0.93388945 0.9476884 1.0383177 1.024056
000030 49 0c 71 3f bd 41 80 3f 9f d5 7d 3f 3e d2 74 3f
       0.9415937 1.0020062 0.99154085 0.95633304
000040 f6 a9 7d 3f cd a4 78 3f 66 03 70 3f 19 6a 81 3f
       0.99087465 0.97126466 0.93755186 1.0110503
000050 54 b1 7d 3f c4 35 7c 3f f8 1a 8a 3f db 8e 73 3f
       0.99098706 0.9851954 1.078948 0.95139855
000060 16 65 79 3f 3d b8 78 3f 27 9a 71 3f 08 20 84 3f
       0.9741987 0.97156125 0.9437584 1.0322275
000070 bf 5d 76 3f e3 34 7e 3f 69 06 82 3f 88 7b 87 3f
       0.96236795 0.9929945 1.0158206 1.0584574
000080 1d 13 74 3f 1b 12 73 3f c6 fa 83 3f 51 de 82 3f
       0.95341665 0.949495 1.0310905 1.0224096
000090 9a 6b 79 3f d4 0a 7f 3f 66 f6 84 3f 19 c7 73 3f
       0.9742981 0.996259 1.0387695 0.95225674
0000a0 49 9f 7d 3f a5 e2 6e 3f be 3b 80 3f 74 9b 83 3f
       0.99071175 0.9331458 1.0018232 1.0281816
0000b0 b3 6f 81 3f b1 89 7f 3f ad 43 7b 3f 47 f0 6e 3f
       1.0112213 0.99819475 0.9815014 0.93335384
0000c0 a9 b1 76 3f f9 8c 6e 3f 17 de 7c 3f 65 f4 7e 3f
       0.9636484 0.9318386 0.9877638 0.99591666
0000d0 50 bb 74 3f 71 ee 84 3f 4c 08 78 3f e2 80 7f 3f
       0.95598316 1.0385267 0.9688766 0.99806035
0000e0 19 f2 7a 3f 95 6a 6b 3f c3 3e 79 3f f6 a7 71 3f
       0.9802566 0.91959506 0.9736139 0.94396913
0000f0 74 65 76 3f 30 07 80 3f 0e 23 7e 3f f2 b8 80 3f
       0.96248555 1.0002193 0.9927224 1.0056441
000100 d7 8c 82 3f 9e ce 71 3f 71 b2 7d 3f f7 bd 87 3f
       1.0199231 0.944559 0.99100405 1.0604848
000110 c7 92 7f 3f 11 01 8b 3f ac 96 71 3f da df 74 3f
       0.9983334 1.08597 0.9437053 0.9565407
000120 d3 82 7a 3f e9 d1 7d 3f 42 f6 85 3f 64 e2 81 3f
       0.9785587 0.9914842 1.0465777 1.0147214
000130 03 49 6f 3f de 24 7c 3f 85 a1 81 3f 2d a4 7d 3f
       0.9347078 0.98493755 1.0127417 0.9907864
000140 8e f9 76 3f cd dc 7d 3f b3 df 73 3f c2 75 7b 3f
       0.9647454 0.9916504 0.9526321 0.9822656
000150 33 de 7f 3f d9 36 7d 3f cf 9d 7a 3f 74 77 72 3f
       0.99948424 0.98911816 0.97897047 0.9471352
000160 11 35 80 3f d2 84 6b 3f 22 82 80 3f fd 35 80 3f
       1.0016195 0.9199954 1.0039713 1.0016476
000170 be d6 79 3f c9 51 7c 3f 0f aa 77 3f d2 79 7e 3f
       0.97593296 0.98562294 0.96743864 0.99404633
000180 bd f0 80 3f f2 eb 7a 3f 26 9e 70 3f 6d 71 6f 3f
       1.0073467 0.98016274 0.93991315 0.9353245

classfier.bn1.bias f4 [100]
000000 aa 3c 45 be f6 57 56 bd 35 a3 15 be db 40 22 be
       -0.19261423 -0.05232998 -0.1461304 -0.15845053
000010 e9 6b 08 be 46 86 39 be e3 ad d3 bd 70 3a 9f 3d
       -0.13322414 -0.18117628 -0.10335901 0.07774818
000020 26 f5 96 bd 1d ac 4c bd 49 e1 02 be b6 29 7e be
       -0.07370977 -0.049968828 -0.12781252 -0.24820599
000030 1a 78 70 bd 32 8a 47 3b 6e 04 94 bb 23 68 b4 bd
       -0.058708288 0.003044736 -0.0045171296 -0.08808925
000040 ea 7f f9 bc b6 34 f0 bd ec e2 8a 3c dc 50 43 be
       -0.030456502 -0.11728804 0.016953908 -0.19073814
000050 17 14 0b be 95 c6 3a be b7 6c bb bc 1d 30 35 be
       -0.13581882 -0.18239816 -0.022878988 -0.17694135
000060 bf 12 45 be 43 bb 13 be c3 72 e2 bd 53 84 2d be
       -0.19245432 -0.14426903 -0.11057045 -0.16945009
000070 0c 1a 35 be b6 94 6e be f9 58 74 be ce 7b 8d 3c
       -0.17685717 -0.23298916 -0.23862065 0.017270949
000080 fa b0 f3 bd e7 2c 25 be 2c b6 56 be 33 d3 da 3c
       -0.1189899 -0.1613041 -0.2096793 0.026712036
000090 82 e3 5e bc 13 c6 29 be 1b f7 85 bd 1d 22 c2 bd
       -0.013604047 -0.16579466 -0.06541272 -0.09479163
0000a0 ca a5 4e be 0b 6e 11 3c bb 2f 11 bd 90 8b 14 3b
       -0.20180431 0.008876334 -0.03544591 0.0022666194
0000b0 cb 53 46 be 04 b0 6b 3d ec 1f cc bd 87 87 6c bd
       -0.19367902 0.05754091 -0.09967026 -0.057746436
0000c0 65 12 10 bd 1a f1 19 bd 57 1f 51 be c3 88 d9 bd
       -0.035173792 -0.037583448 -0.20422111 -0.10621788
0000d0 bb 3a 17 be 70 c9 2e be d3 cb 58 be 81 56 2f bb
       -0.14768498 -0.1706903 -0.21171503 -0.0026754441
0000e0 b8 a0 11 be 5b 80 36 bd 19 eb 5b be ea a7 e3 bc
       -0.14221466 -0.044556003 -0.21476401 -0.027790029
0000f0 5b bf 2b be 2a 62 5d be 3a 91 58 be 8f 75 59 3c
       -0.16772215 -0.21619478 -0.2114915 0.013272657
000100 8f 30 05 be 04 e6 39 be 0b 65 19 be 46 c0 57 bc
       -0.13006805 -0.1815415 -0.14979951 -0.0131684
000110 b1 d6 07 be fc 70 73 3d ee 26 5e be 73 b4 f7 bd
       -0.13265492 0.059433922 -0.21694538 -0.12094965
000120 a0 02 66 bd b0 96 39 be a9 a0 23 be 00 3f 42 be
       -0.056154847 -0.18123889 -0.15979256 -0.18969345
000130 f5 45 e2 bd f9 4a f8 bb 93 75 3f be e6 f4 4d be
       -0.110484995 -0.007577297 -0.18697195 -0.20112953
000140 f4 8d 2f be 2c de 2d be 54 6c b3 bd ad 97 6f be
       -0.17143995 -0.16979283 -0.08760896 -0.23397703
000150 3f d7 37 be ed b5 b6 bd 9f 1c fc bd f9 3f 1a be
       -0.17953204 -0.08921418 -0.123101465 -0.15063466
000160 32 bd 6f be d6 6c 1c be db 11 d6 bc bb ec 9e bc
       -0.23412016 -0.15275893 -0.026131561 -0.019399991
000170 9f cd 3a 3d 94 1d d8 bd 06 7b 76 3b f6 e8 42 be
       0.04560625 -0.105525166 0.0037609949 -0.1903418
000180 04 bb 1f be 8b 7e a4 3c c0 07 ab bd 8e 6f 96 bd
       -0.15598685 0.020079872 -0.083510876 -0.07345496

classfier.bn1.running_mean f4 [100]
000000 a5 f8 6a 3e 9d ed 92 3e 66 21 51 be 21 42 15 bf
       0.22946413 0.2869691 -0.20422897 -0.5830403
000010 5b 32 3b be 6c 33 2f 3c ce 54 bd bb a8 0d 0b be
       -0.18280928 0.010693412 -0.005777932 -0.13579428
000020 2e 02 c3 3e 26 95 01 3e 4c 5b a6 bd 09 6e c1 be
       0.380876 0.12654552 -0.08122882 -0.37779263
000030 69 50 15 3f bb 80 fc 3c dc ec c4 3e 4b f2 bb 3f
       0.5832582 0.030823102 0.3846196 1.4683317
000040 3c 55 3c bf 07 b8 bd bf d2 f2 89 3f 9c b0 7c bd
       -0.7356756 -1.4821786 1.0777228 -0.061691865
000050 ec 2e c5 3e f7 02 3a be 19 3e 42 3e 5a 3a d9 bc
       0.3851236 -0.18165193 0.18969001 -0.026517082
000060 0e ce f4 be c1 41 32 be 7d 72 7b 3f 1c 09 bb 3d
       -0.47813457 -0.17407896 0.9822157 0.09132597
000070 36 f6 62 bf 8e 5e 4e be 03 28 7e bd 36 93 93 bc
       -0.8865694 -0.20153257 -0.062049877 -0.018014532
000080 a1 ee 28 be b6 6e 67 3e 57 ff 58 bd 8e b8 90 bf
       -0.1649728 0.22600827 -0.052977886 -1.1306322
000090 ea 8e 22 40 2d 67 6b be 91 40 23 be a6 80 c7 bd
       2.5399728 -0.22988577 -0.15942599 -0.097413346
0000a0 82 3c 05 bf 81 6e 16 bf 64 48 48 bd 4b 19 c4 bd
       -0.5204545 -0.58762366 -0.048897162 -0.09575137
0000b0 66 ea 0c bf 5b 35 46 3f a4 1c 7c 3d 8d 86 c1 3f
       -0.55045164 0.77425164 0.06155075 1.5119187
0000c0 3f 18 73 3f e5 0e 22 40 92 0b b4 be e1 f0 f3 bd
       0.9495887 2.532159 -0.35165077 -0.119111784
0000d0 b7 56 df be 48 69 44 be 8c 7c 84 3c 19 18 c5 bd
       -0.43620846 -0.19180787 0.01617267 -0.09623737
0000e0 57 09 73 be 48 40 e9 3f ee 43 f5 bd 91 e1 01 40
       -0.23734032 1.8222742 -0.11975847 2.0293925
0000f0 57 57 45 bf 48 33 4c bd fb dd c0 be 1f 88 0a 3f
       -0.77086395 -0.049853593 -0.37669358 0.54113954
000100 03 28 82 be 5c 89 60 bf 50 55 bf 3e d1 93 0a 3f
       -0.25421152 -0.87709594 0.37369776 0.541318
000110 2c d1 d3 be d6 3b 90 3d 65 37 3d bf e6 47 da 3c
       -0.41370523 0.07042663 -0.7391265 0.026645612
000120 60 09 76 3f d1 06 83 be 50 28 cb 3d e2 c8 c6 be
       0.96108055 -0.25591138 0.099197984 -0.38825136
000130 75 ce 75 3f 27 43 64 bd 8d ee 1f bf b1 ae 29 bf
       0.96018153 -0.055728104 -0.62473375 -0.6628218
000140 f0 64 9f be b4 e1 45 bd 57 22 bc bf 1f b6 f3 bd
       -0.31131697 -0.04831095 -1.469798 -0.11899971
000150 3a dc 30 bf b1 6f a3 3e ac e4 85 bf b6 da 2c 3f
       -0.6908604 0.3192115 -1.046041 0.67521226
000160 c4 c6 c6 bc 58 7c e8 be a6 2f 02 3f 64 6e 91 3c
       -0.0242647 -0.45407367 0.50853956 0.017752834
000170 1c de 1c 3f 32 d7 13 be 73 49 dc 3e 3d 1d ce be
       0.6127641 -0.14437559 0.43024787 -0.40256682
000180 8f e0 ba 3e a7 9b f0 3e 13 d5 3d 40 cf 2c df 3e
       0.3649945 0.46993753 2.96613 0.43588874

classfier.bn1.running_var f4 [100]
000000 12 04 40 3d 24 f4 34 3d 97 46 b4 3d f1 c4 af 3d
       0.04687888 0.044178143 0.088025264 0.085824855
000010 26 b7 18 3d ae 4d a0 3d 02 09 dc 3d 22 63 31 3e
       0.03728404 0.07827316 0.107439056 0.17322972
000020 ee 85 31 3e 1a d1 f8 3d 03 7f 22 3d f9 c2 33 3d
       0.17336246 0.12149258 0.03967191 0.043887112
000030 7e 05 de 3d 16 2d fc 3d c0 8a c4 3d 7f 6c 97 3e
       0.10840891 0.12313287 0.09596777 0.29574963
000040 8d a6 01 3e 31 03 2a 3f 22 03 0d 3e 52 3f 80 3d
       0.1266119 0.6641112 0.13770726 0.062620774
000050 c9 5b 8a 3d de be 72 3d eb 99 2f 3d a0 99 08 3e
       0.06755788 0.059264056 0.042871397 0.13339853
000060 e9 08 b8 3d 97 6f a2 3d 6f d7 d4 3d 76 36 96 3d
       0.089860745 0.0793144 0.10392653 0.07334606
000070 bd 3f 45 3e ef e3 52 3d 45 a7 40 3d 67 86 95 3d
       0.19262595 0.051486906 0.04703452 0.07301026
000080 d6 bd a1 3d d1 7f b4 3d c8 57 71 3d 10 b9 31 3e
       0.078975365 0.088134415 0.058921605 0.17355752
000090 59 c6 0d 3f ac a9 84 3d 43 da 9f 3d 98 5a 61 3e
       0.5538078 0.06477675 0.07805302 0.22007215
0000a0 0e f3 52 3d 46 6c c4 3d 1e 14 01 3e 09 16 8b 3d
       0.051501326 0.09590964 0.1260533 0.06791312
0000b0 96 c9 d6 3d 57 ea e7 3d 34 bb 09 3e a9 32 73 3e
       0.10487668 0.11323994 0.13450319 0.23749794
0000c0 03 79 5b 3e bf ec 29 3f ec 91 82 3d c1 61 c4 3d
       0.21432881 0.6637687 0.06375489 0.095889576
0000d0 13 dc b0 3d 8a dd 2b 3d b2 aa a0 3d 9e f4 89 3d
       0.08635726 0.041959323 0.078450575 0.0673611
0000e0 ec dd 09 3e f6 71 c1 3e e9 8e e4 3d 47 dd 4a 3f
       0.13463563 0.37782258 0.111600704 0.7924389
0000f0 60 0d db 3d 19 70 02 3d b0 7c 98 3d 6f 01 8c 3d
       0.106959105 0.031845186 0.07445657 0.06836211
000100 b7 b6 6b 3d 54 b6 02 3e f1 fc fc 3d 61 88 82 3d
       0.057547297 0.12764865 0.12352932 0.063736685
000110 21 4c 13 3e 20 03 e3 3d d1 6b f7 3d 9d f3 d3 3d
       0.1438451 0.110845804 0.12081111 0.103492
000120 83 6b 57 3e 62 29 b2 3d f3 5c 70 3d 3b b0 6d 3d
       0.21037106 0.086992994 0.058682393 0.058029395
000130 40 79 81 3e b4 8d 9b 3d 7f ce 73 3d 47 d8 e8 3d
       0.2528782 0.07595387 0.059523102 0.11369377
000140 b0 c7 c0 3d 6f 36 17 3d 13 7d 6a 3e 97 fc 6c 3d
       0.09413087 0.036917146 0.22899275 0.057858076
000150 b5 a6 de 3d d4 0d e7 3d 2d da 3f 3e e7 ed aa 3d
       0.108716406 0.112819344 0.18735571 0.083461575
000160 72 59 1b 3d 84 df 0b 3e 99 6a 5a 3d 78 da 97 3d
       0.0379271 0.13659483 0.053324316 0.074147165
000170 82 fa 4c 3e ce 76 13 3e 33 3d d4 3d bc 91 83 3d
       0.20017436 0.14400789 0.10363235 0.06424281
000180 0c b1 53 3d f0 f7 b8 3d 1d e8 2b 3f a0 35 46 3e
       0.051682517 0.09031665 0.6715105 0.19356394

classfier.fc2.weight f4 [50, 100]
000000 29 b6 9e bd eb 0b 4e 3d 92 79 72 bd 5c 3f b3 bd
       -0.07749588 0.050304335 -0.05919797 -0.08752319
000010 e1 9b ca bd 06 46 0c 3d 60 a1 41 bd 3b 18 00 be
       -0.09893013 0.034246467 -0.04727304 -0.12509243
000020 db 13 6f bd d6 7e 9d bd 30 ab 3c 3c 3a bb 06 bd
       -0.058368545 -0.07690208 0.011515424 -0.032893397
000030 96 98 0a 3d 22 19 b1 3d e1 2a fd bd 4d 98 55 3b
       0.033836924 0.08647372 -0.12361694 0.0032592
000040 fc 73 a9 bd 84 fd d8 3c 21 94 43 bb 7c 48 d1 bc
       -0.082740754 0.026488073 -0.002984293 -0.025547259
000050 c8 d1 36 bb 98 e7 fd bb 41 f0 42 3d 46 1c b5 3d
       -0.0027896035 -0.0077485554 0.047592405 0.08843283
000060 70 c5 18 ba 9e 16 dc bc 90 5e bb 3d e3 15 af bc
       -0.00058277603 -0.026866253 0.09148896 -0.021372741
000070 4d b2 7c 3d b6 b7 c6 bc b7 bc 4f 3d 99 12 d1 3d
       0.06169348 -0.024257522 0.050717082 0.10208625
000080 2f a3 6d 3c 82 7a 82 bd b4 e4 8d bb 26 7b bd bc
       0.014504238 -0.06371023 -0.004330242 -0.02313001
000090 40 a3 ae 39 6b ff d4 bd 59 e2 b9 3c 68 2b 5c bd
       0.00033309497 -0.104002796 0.022690939 -0.053752333
0000a0 54 73 58 bd ae f9 49 3b 38 b6 69 3c 48 c7 28 3d
       -0.05284436 0.0030818987 0.014264636 0.041205674
0000b0 44 48 d5 3c f0 9f 92 bd 49 97 39 bd f8 f5 27 3d
       0.026035435 -0.07159412 -0.045310292 0.04100606
0000c0 13 ac ef 3c 10 9b b1 bd 08 16 4f 3d 06 95 4d 3d
       0.029256856 -0.08672154 0.05055812 0.050190948
0000d0 cc f6 9d bd fb fc 98 3b 80 fe 1e bc 29 d4 20 bd
       -0.077130884 0.0046688295 -0.009704232 -0.03926483
0000e0 f0 26 c0 bd 8b cc ea 3c 03 3f 91 bd 06 93 41 bd
       -0.09382427 0.028661987 -0.07092097 -0.047259353
0000f0 05 dd f4 bd dd 01 d3 bd 61 eb bd bd 1c ab 84 3d
       -0.11956219 -0.1030309 -0.092734106 0.06477949
000100 22 31 b8 3d 27 aa af ba 76 e2 0f 3c 70 59 4e bd
       0.08993746 -0.001340215 0.00878202 -0.050378263
000110 ad f4 0f be ea 08 02 be 47 fd 14 bd 39 af e0 3d
       -0.1405818 -0.12698713 -0.036374357 0.10970921
000120 5d 82 71 bc e4 9c aa bc e5 77 1c bd ab b8 7d bd
       -0.014740554 -0.020826764 -0.038200278 -0.06194369
000130 ca 2f 50 bd 7d 4f fc bc f5 e3 82 bd ee d5 c1 bd
       -0.050826825 -0.030799622 -0.063911356 -0.09464632
000140 aa 29 cc 3d 33 d4 14 3d 03 df 08 be 8b a3 78 bd
       0.09968884 0.03633518 -0.13366322 -0.06070284
000150 69 b8 5e bb eb 1e 2f bd ae 24 fe bd 9a f9 87 bd
       -0.0033984429 -0.042754095 -0.1240934 -0.066394046
000160 d5 2a 8d ba 7e 96 0c 3d 59 af 89 3d 18 9d 96 3d
       -0.0010770211 0.034323208 0.06722898 0.07354182
000170 30 e4 d1 bd a0 17 9f 3b 4e 81 a0 3c 93 22 b3 bd
       -0.102486014 0.0048551112 0.019592907 -0.08746829
000180 19 d5 80 bc 91 7b 28 3d 43 d7 a4 bb 78 34 95 3c
       -0.015726613 0.041133467 -0.005030544 0.018213496
000190 ee fd 31 bd d9 0a 68 bd 66 16 02 be 3e bb e0 3c
       -0.043455057 -0.05665097 -0.12703857 0.027433034
0001a0 22 14 d3 3b 12 a0 f9 3c 3d 11 55 bc 5f 32 b2 3d
       0.006441609 0.030471835 -0.013004598 0.08701014
0001b0 97 d1 31 bc 9f 9f a8 3d 31 5f 2f bd f3 67 21 bc
       -0.010853193 0.0823357 -0.04281539 -0.009851444
0001c0 1f 10 bb bd 03 50 82 bd 89 e1 5b 3d ce 4b ee bc
       -0.09133934 -0.06362917 0.053681884 -0.02908888
0001d0 2f f5 75 3d 10 8f 50 bc 67 07 d6 bd b1 1c 9c bc
       0.06004828 -0.012729421 -0.10450631 -0.01905665
0001e0 ce 67 c1 bd 1e fd ab 3c a6 3c 8e 3d fb 69 79 bd
       -0.09443627 0.02099472 0.069451615 -0.060892086
0001f0 2d 86 bd bd 60 6d a1 3c f2 91 91 3d fc cf 86 bd
       -0.092541076 0.019705474 0.07107915 -0.065826386
000200 c8 8f bc bc 12 84 f6 bd 8d c2 bc bd 82 11 e2 3c
       -0.023017779 -0.12036909 -0.09216795 0.027596239
000210 5c eb 04 3d 89 c2 e0 bd b4 19 81 bd 0e 83 67 3d
       0.03245102 -0.10974605 -0.063037306 0.056521468
000220 7b 37 8f bd 17 27 a3 3d fd 80 8b 3d 7f e5 23 bd
       -0.06993004 0.0796644 0.06811712 -0.040013786
000230 0c cf 97 bd 8f 80 10 3d 6d f1 3c bc 2e dd 62 3d
       -0.07412538 0.035278853 -0.01153217 0.055386715
000240 62 f3 00 3b c2 55 c2 bd 1e 75 15 bd 59 62 37 bd
       0.0019676317 -0.09489013 -0.036488645 -0.044771526
000250 dd 76 28 3a 31 84 9b bd 2e c9 4f bd 9f 32 d1 3c
       0.00064264034 -0.07593573 -0.05072897 0.025536833
000260 af d9 a2 3d e9 f7 92 3d b8 53 cb bd c8 5c 2c 3b
       0.07951676 0.07176191 -0.099280775 0.002630042
000270 00 86 92 bc e2 cb 9f bd 3a 4a b3 bd 66 fa 7c bd
       -0.017886162 -0.078025594 -0.08754392 -0.061762236
000280 e2 d1 43 3d 45 a5 4f bd a2 66 b7 bd 15 91 61 bd
       0.04780758 -0.050694723 -0.089551225 -0.05507
000290 9a 3e 26 bd 24 7b 37 3d e1 23 b9 bd 36 fc b2 bc
       -0.040587045 0.04479517 -0.090400465 -0.02184878
0002a0 19 60 3e 3d 71 dd 87 3c 48 e8 14 bd 56 23 49 3c
       0.046478365 0.016585084 -0.036354333 0.012276491
0002b0 97 ba 3b bd 5e 06 1e 3c c6 1f c1 bc 32 6e d9 3b
       -0.045832243 0.009645073 -0.023574721 0.0066354508
0002c0 fe eb d9 bc eb 92 04 3d 5f 4c e3 3b 96 b3 3c 3d
       -0.026601788 0.032366674 0.0069365944 0.046069704
0002d0 e3 1c 1a bd cf 3b 7f 3d 1a a7 bc 3c da 88 01 3d
       -0.037625205 0.062312897 0.023028899 0.031624652
0002e0 d6 27 0c bc f7 24 d0 bd 71 28 2a 3d 06 ef b2 bd
       -0.0085544195 -0.101633005 0.041542474 -0.08736996
0002f0 ee b3 03 3d ef 11 f1 3c 1d d8 e1 bc 4a 0f 0d be
       0.032154016 0.029427497 -0.027568871 -0.13775364
000300 08 02 ac bd 2f 96 cf bd f4 86 b3 bd 18 19 e5 3c
       -0.08398825 -0.10136067 -0.08765975 0.027966067
000310 eb c6 fa 3c bb 6d 3f bd 35 c5 9a bb 2a e0 ea bd
       0.03061243 -0.046735507 -0.004723216 -0.11468537
000320 f1 c8 ce bd 05 53 45 bd c5 56 4c bc bd 61 b8 3d
       -0.1009692 -0.048174877 -0.012471859 0.09003017
000330 67 d3 c0 bd 6c ed b9 bd 75 45 b7 bd 10 01 52 bd
       -0.09415322 -0.09078488 -0.08948795 -0.051270545
000340 ab ab cf bc b0 66 e4 bc 49 9e f6 bc 53 b8 67 bd
       -0.025350412 -0.027880996 -0.030104773 -0.05657227
000350 96 e9 94 bd c9 4e ad bd 38 52 7d bd fa ff e7 bc
       -0.072711155 -0.08462293 -0.061845988 -0.028320301
000360 f2 82 ff 3b 59 b8 0f bd f4 b2 05 3a 20 e7 ba bd
       0.0077975923 -0.035087917 0.00051002135 -0.09126115
000370 2a dd 56 bd ed 95 66 3d 85 46 07 bd a6 50 49 bd
       -0.052457012 0.056295324 -0.033026237 -0.049149178
000380 d2 50 a7 bd d0 8a ec bc b4 42 1f bd c5 9c 8a bd
       -0.08169712 -0.028874785 -0.038881972 -0.06768183
000390 0c 31 2a 3d 6d 4b 48 bc 13 dd cd bd eb 15 83 3c
       0.04155068 -0.012225014 -0.10051932 0.016001662
0003a0 39 89 bc 3c e2 71 33 bd 7f 2a 23 bd 9f eb 1f bd
       0.023014652 -0.04380978 -0.03983545 -0.039043065
0003b0 dd 02 3c 3d 1a 2c 2a bd 82 0e a4 3d 0f e8 c1 bd
       0.04590117 -0.041545965 0.0801058 -0.0946809
0003c0 59 cf 7e bd 19 2a 73 3d d3 47 34 be 6a 8b 89 3d
       -0.06220946 0.05936632 -0.17605524 0.06716044
0003d0 d1 e1 f9 3b b1 35 bb bc 35 68 6b bd da e2 29 3d
       0.0076257964 -0.02285275 -0.057472426 0.041476108
0003e0 e4 d1 4d 3d f5 a8 aa bd 2c 93 ae bc b4 91 db 3b
       0.050248995 -0.08333007 -0.021310411 0.006700719
0003f0 b6 74 f1 3b 44 9e 2d bd bb 54 df 3c 26 89 c6 bc
       0.0073686494 -0.042387262 0.027262082 -0.02423532

classfier.fc2.bias f4 [50]
000000 0e 8f 37 36 65 da dc 34 8f ec 24 b6 db e4 1a 36
       2.7352394e-06 4.1137096e-07 -2.45756e-06 2.3081e-06
000010 ba 67 e0 b5 cc 36 07 36 db 59 11 b6 46 5a fe 36
       -1.6719489e-06 2.0148464e-06 -2.1658986e-06 7.580299e-06
000020 e0 5f 87 35 44 eb 2c b7 bc 75 21 b4 e2 e9 7d 35
       1.0086187e-06 -1.0306776e-05 -1.5037125e-07 9.459019e-07
000030 d8 35 31 35 4c be 0a b6 54 41 82 b6 e3 ac 06 b8
       6.601599e-07 -2.067437e-06 -3.881907e-06 -3.2109103e-05
000040 1c 8a 8b 36 38 6c a2 34 c3 c9 73 34 c5 7b 93 35
       4.158601e-06 3.025359e-07 2.2704539e-07 1.0988375e-06
000050 8e e0 fa b5 d9 98 b6 35 3f f9 c7 34 2f 5c 58 b6
       -1.8691806e-06 1.3604541e-06 3.724799e-07 -3.2240166e-06
000060 70 95 61 36 68 1e bd 33 e0 a2 c4 32 66 f7 b4 b5
       3.3614597e-06 8.806529e-08 2.289147e-08 -1.3483047e-06
000070 fa 98 0c 37 81 3f 4d b6 2c bd 06 35 b8 f7 0a 35
       8.380268e-06 -3.0584345e-06 5.019417e-07 5.1769484e-07
000080 e4 e5 ad b6 5e b6 3c b6 0d 72 70 b7 36 3d ee b5
       -5.1825646e-06 -2.8120335e-06 -1.4331669e-05 -1.7750197e-06
000090 2d ab b5 34 ef 14 e9 b5 7e d0 4c b5 3c 2a 00 b7
       3.3838424e-07 -1.7365945e-06 -7.629932e-07 -7.639228e-06
0000a0 9c 0a d2 36 90 2c 97 36 61 61 a2 b6 7f e2 84 35
       6.259723e-06 4.5053384e-06 -4.8393126e-06 9.900685e-07
0000b0 1f 2c 8a 34 44 9b 9a b2 eb ae 53 36 25 f7 08 35
       2.5736605e-07 -1.7998566e-08 3.1543266e-06 5.102359e-07
0000c0 c1 89 9b 35 5e 19 56 b7
       1.1588492e-06 -1.27613e-05

classfier.bn2.weight f4 [50]
000000 1d 2f 92 3f 1d be 80 3f 90 cc 87 3f 86 e7 81 3f
       1.1420628 1.0058018 1.0609303 1.014878
000010 ad 7c 81 3f 9c 8b 76 3f cf 34 66 3f ad 7e 69 3f
       1.0116173 0.96306777 0.8992433 0.91208917
000020 50 74 72 3f b3 37 82 3f bf 00 7a 3f 11 34 77 3f
       0.9470873 1.0173248 0.9765739 0.9656382
000030 93 b9 64 3f 9b aa 67 3f 75 d9 76 3f f5 ef 7f 3f
       0.89345664 0.904947 0.96425563 0.9997552
000040 ca 7f 69 3f d6 73 89 3f 41 64 70 3f 48 f4 72 3f
       0.91210616 1.0738475 0.93902975 0.94903994
000050 40 fb 6d 3f 3b d0 7a 3f 6a b9 5d 3f 69 69 71 3f
       0.929615 0.97973984 0.86611044 0.9430147
000060 3b 11 70 3f 62 91 83 3f e7 bd 8b 3f 22 4f 82 3f
       0.9377629 1.0278742 1.0917329 1.01804
000070 b5 be 80 3f 93 f6 7c 3f 5c 88 7c 3f 7e bd 69 3f
       1.0058199 0.9881374 0.9864557 0.9130477
000080 78 cb 6f 3f 87 e8 74 3f 46 82 92 3f 5c 24 83 3f
       0.93669844 0.9566731 1.1446006 1.0245471
000090 6a 23 75 3f 39 f5 79 3f 94 c0 74 3f 4e 31 69 3f
       0.9575716 0.97639805 0.9560635 0.9109086
0000a0 bb 5f 73 3f d7 f8 82 3f e3 79 7e 3f 9d a1 7e 3f
       0.9506795 1.023219 0.99404734 0.9946535
0000b0 ea 0f 74 3f a6 53 87 3f f7 53 76 3f e5 0b 6b 3f
       0.9533678 1.0572402 0.9622187 0.91815025
0000c0 65 88 88 3f b4 ae 79 3f
       1.0666624 0.975322

classfier.bn2.bias f4 [50]
000000 96 1f 98 3d 8d 97 84 bc 54 12 f1 3c 62 d5 1c 3d
       0.074278995 -0.016185546 0.029427685 0.038289435
000010 42 49 7f be a6 70 5e 3c 29 ba 7d bd 9a 92 5b be
       -0.2493029 0.013576662 -0.061945114 -0.21442643
000020 40 b3 87 bb 72 18 2d 3d 2b 3e 18 3d 11 94 22 3c
       -0.0041412413 0.04225964 0.037168663 0.009922997
000030 89 00 8f bd 81 9c 8c bd b9 20 6c be d6 83 76 be
       -0.06982524 -0.06865788 -0.23059358 -0.24073729
000040 31 58 75 be 8e f8 26 3d fb 14 54 be a7 d2 5c bd
       -0.23959424 0.040764384 -0.20711128 -0.05391183
000050 1b ba b1 bd 74 0d 9a bb c2 65 30 be 82 2d 72 be
       -0.08678075 -0.004701311 -0.17226318 -0.23650172
000060 7b 9f 5c be 2a 63 48 3c e8 dd eb 3c 92 03 fa 3c
       -0.21545212 0.012230674 0.028792337 0.03051928
000070 e4 f9 85 be 88 54 6e be 7f 00 57 be 01 36 d3 bd
       -0.26167214 -0.23274434 -0.20996283 -0.10313035
000080 9c cd d4 bd 99 6c 5a bd 12 4b a3 3d 4c c4 88 3d
       -0.103907794 -0.053326223 0.07973303 0.06678066
000090 a7 ce ce bc 23 91 64 bc fa 87 9a bd 00 3b 5e be
       -0.025245024 -0.013950619 -0.07545467 -0.21702194
0000a0 be 7a 63 be 10 03 06 3d 76 3c 72 be 8f 84 44 3c
       -0.22214791 0.032717764 -0.23655877 0.011994495
0000b0 aa a6 9a bd ec b7 63 3d 87 7d ff bc 55 42 bb bd
       -0.0755132 0.055595323 -0.031187786 -0.09143511
0000c0 4a b0 1e 3d ff 77 4a be
       0.03874234 -0.19772337

classfier.bn2.running_mean f4 [50]
000000 5c c7 0e bf 79 7e 13 bf 34 4c 87 bf 6d 03 3a bf
       -0.5577295 -0.57614857 -1.057013 -0.7266148
000010 0f 2f 13 3f e5 4e 3f bf 56 37 15 bf 64 ff 31 3f
       0.5749368 -0.7472976 -0.5828756 0.6953032
000020 cd 0a 0a bf 5b 34 0b bf e8 ac ed be 86 a8 96 be
       -0.5392273 -0.54376763 -0.4642098 -0.29425448
000030 bb 19 cf be 07 28 40 bf d7 8c 31 3f a3 7e 22 3f
       -0.40449318 -0.75061077 0.6935553 0.6347448
000040 ab 45 22 3f ca a3 56 bf 03 0b 3b 3f 5e ce 5e 3e
       0.63387555 -0.8384367 0.7306368 0.2175841
000050 bb f7 43 be a0 c1 4e bf 29 70 cf 3c 1c 90 25 3f
       -0.1913747 -0.807642 0.025322037 0.6467302
000060 c6 9b 3e 3f 87 41 09 be 6e 65 cd be 9e 3b 1b bf
       0.7445644 -0.13403903 -0.40116447 -0.60637844
000070 00 82 1f 3f c2 c0 57 3f 32 de 45 3f b4 7c 3d bf
       0.6230774 0.842785 0.7729217 -0.74018407
000080 3d 2c 8c 3e df 9d 19 be 68 83 54 bf 6e ba 1e bf
       0.273775 -0.1500163 -0.8301301 -0.6200322
000090 8c 04 0c bf cf 68 21 bf 7b f5 dd 3d db b1 fa 3e
       -0.5469444 -0.6305055 0.10837837 0.48963818
0000a0 73 92 f5 3e 6c 8e d7 be cb 72 17 3f 4c 87 68 bf
       0.47963294 -0.42100847 0.59159535 -0.90831447
0000b0 48 87 6b be 98 42 f4 be 6a 6d 1a bf 8a 51 65 be
       -0.23000824 -0.47707057 -0.603232 -0.22394386
0000c0 cf 70 95 bf 4b 41 16 3f
       -1.1675051 0.5869338

classfier.bn2.running_var f4 [50]
000000 90 e6 bd 3e 3b f2 05 3f b1 6a 14 3f 1d d0 d3 3e
       0.37089968 0.5232274 0.579753 0.41369715
000010 c8 3b 00 3f 9a f0 d8 3e 14 87 a3 3e ea 62 01 3f
       0.5009122 0.42371064 0.31938994 0.50541556
000020 68 76 e6 3e c3 b9 c0 3e f5 ae c7 3e e3 ac a5 3e
       0.45012212 0.37641725 0.3900067 0.32358465
000030 63 03 ec 3e 44 3e b0 3e 2c 88 11 3f aa fb 12 3f
       0.46096334 0.34422505 0.56848407 0.5741526
000040 94 37 1a 3f 51 6b bc 3e 9b a3 01 3f 14 87 da 3e
       0.60241055 0.36800626 0.5064027 0.4268118
000050 71 ad ba 3e 21 3d fb 3e ca 0e ce 3e 88 75 eb 3e
       0.3646045 0.49070075 0.40245658 0.45988107
000060 9c a4 01 3f fb a4 e1 3e ba 6d 07 3f db 7e 9e 3e
       0.506418 0.44071183 0.52901804 0.30956158
000070 20 c7 18 3f ad 44 26 3f d0 09 1f 3f b5 0b ad 3e
       0.5967884 0.6494854 0.6212435 0.33797994
000080 1a 1b 9a 3e 7c 17 c4 3e 0c 08 e2 3e 28 00 c7 3e
       0.30098802 0.38299167 0.44146764 0.38867307
000090 de 4d 95 3e 18 31 d8 3e 23 b1 d2 3e bf 61 12 3f
       0.2916097 0.42224956 0.4115077 0.571804
0000a0 06 e0 eb 3e ee f2 bd 3e 78 7d 0b 3f 29 09 c6 3e
       0.46069354 0.37099403 0.54488325 0.38678864
0000b0 2e 0d 7d 3e 31 79 0c 3f aa 8e 9d 3e e8 98 96 3e
       0.24712059 0.54872423 0.30772907 0.29413533
0000c0 77 8f 35 3f 55 c5 fb 3e
       0.70922035 0.4917399

classfier.fc3.weight f4 [25, 50]
000000 7f 87 d9 bc 01 3a 9d bb 89 04 ee bd aa c4 47 3c
       -0.026553867 -0.0047981744 -0.11621959 0.012192884
000010 8f 7f e6 3d 7b cf 2e bc c9 31 39 bd 2e 34 0c 3e
       0.112547986 -0.010669584 -0.045213494 0.1369178
000020 98 cb cb bd db 74 90 bd d6 48 41 bc dc 99 11 b9
       -0.09950942 -0.070535384 -0.011797151 -0.00013885595
000030 57 59 e9 3d 23 ac ad 3d 28 68 a1 3d 78 6d 2e 3e
       0.11393993 0.08480098 0.07881194 0.17033947
000040 40 ea 81 bb c9 51 db bc b3 2a 31 3d 4e 20 c7 bc
       -0.0039646924 -0.026772397 0.04325361 -0.024307396
000050 1f c7 1b bd 63 c3 3f 3d 98 5c d4 3d 9a 6f 5f 3d
       -0.038031694 0.046817195 0.10369223 0.05454979
000060 fc 5b 0d 3e 93 be 2e bd 36 ad 31 3c 7a 6b 27 3d
       0.1380462 -0.042662214 0.010844519 0.040873982
000070 7d c3 02 3e dc b7 ab 3d e8 70 7c 3b ad a1 28 bd
       0.12769885 0.08384678 0.0038519446 -0.04116981
000080 c1 d1 30 3d 4c 1a d9 bb c1 79 86 bd 64 a9 07 bc
       0.043168787 -0.0066254493 -0.065661915 -0.008280132
000090 df c5 41 bd 71 3d 85 bc 62 e6 f2 3c 68 2a ad 3d
       -0.047307845 -0.01626465 0.02965087 0.08455354
0000a0 22 c5 4f 3d 5e e8 25 bd 40 6d 34 3e fb 08 b9 3d
       0.05072511 -0.040504806 0.176198 0.09034916
0000b0 f3 3e b6 bd a3 ee 39 bd 61 3b b4 bd c1 0c c8 bc
       -0.08898725 -0.045393597 -0.08800388 -0.024420144
0000c0 9d ba b0 bd 1d 2a ed 3d 04 a3 a0 3d 72 19 ab bc
       -0.08629344 0.11580298 0.07843593 -0.020886157
0000d0 09 45 19 3e 17 cc da bd 8f 5e 5e bd 02 cc a2 bd
       0.14967741 -0.10683458 -0.054289397 -0.07949068
0000e0 69 84 9a bc 4f 61 7b bd 15 c5 31 bd 72 06 f3 bc
       -0.018861966 -0.061372098 -0.043400843 -0.02966616
0000f0 32 90 20 be 3e 53 9e bd b7 29 8c bc a4 24 dc bc
       -0.15680006 -0.07730721 -0.017109735 -0.02687294
000100 a1 5b 8b bd a9 97 ae bd 82 c4 7d bd 5e c4 8b bd
       -0.06804586 -0.08525021 -0.061954983 -0.068245634
000110 91 82 91 bd 8c 80 32 3c 7f 56 a9 3c 96 5a 68 be
       -0.07104982 0.010894906 0.020671127 -0.22690806
000120 25 3f 84 bd 15 3b 86 bd 65 2e 5c bd 4b 6a 75 3d
       -0.06457356 -0.06554238 -0.053755183 0.059915822
000130 40 e1 7b 3d c6 3a 15 be 42 d6 74 bd 11 26 6c bd
       0.061494112 -0.14573202 -0.059774645 -0.05765349
000140 60 dc 51 bd 38 ec 44 ba 14 d3 64 bd 54 d0 96 bc
       -0.051235557 -0.0007512006 -0.055865362 -0.018409885
000150 d0 4e 61 be 7c d7 28 3d dd 0a 12 3c ce 2a 13 3d
       -0.22002721 0.041221127 0.008913723 0.035929494
000160 d0 75 02 3c 89 37 88 bd 47 78 85 bd 96 56 26 be
       0.007962659 -0.066512175 -0.06517082 -0.16243967
000170 79 fb 97 bd b8 95 46 be 08 9b 19 bd 03 ba 99 3c
       -0.074210115 -0.1939305 -0.037501365 0.018765455
000180 d8 e3 21 3d 41 02 df bc 43 ab 19 3d cc fd 8e bd
       0.03952393 -0.027222754 0.037516844 -0.06982002
000190 14 aa 47 3d e1 4b 52 bd 06 e8 c7 3d d2 1b 84 3d
       0.048746184 -0.051341895 0.09761052 0.06450619
0001a0 38 90 b7 bd a8 3c 20 be b3 65 8a 3d 14 94 0e bc
       -0.089630544 -0.15648139 0.06757679 -0.008702297
0001b0 6f 3c c7 bc aa 78 b3 3d 02 b6 03 be 9d 84 9e bd
       -0.02432081 0.08763249 -0.12862399 -0.07740138
0001c0 99 51 68 bd 67 75 2b be 46 85 75 bd 1f 5a 72 bd
       -0.056718443 -0.16744004 -0.059941553 -0.059167977
0001d0 88 ef 80 bd dd a8 bb 3d d8 ac b4 bd f7 6c 29 bd
       -0.06295687 0.091630675 -0.0882203 -0.041363683
0001e0 6d 09 a4 3d 1c 32 d1 3d 40 a1 1c 3d dc 4e 89 bd
       0.0800961 0.10214636 0.038239717 -0.06704494
0001f0 db c7 1a bd c5 5c e4 3b a3 08 11 be b8 34 b0 bc
       -0.037788253 0.006969067 -0.14163451 -0.021509513
000200 c6 27 a6 bd 8d d5 8d bd fc 16 98 bc 4f 58 a8 3c
       -0.08113055 -0.06925497 -0.018565647 0.020549921
000210 b4 5d 3c bd 0f 5b 20 3d d8 01 ee 3d 91 76 a2 bb
       -0.0459878 0.03914934 0.116214454 -0.004957982
000220 f7 6d ab 3b e4 39 c8 3d 56 70 44 be 5b c9 bb bd
       0.0052316147 0.09776667 -0.19183478 -0.09169265
000230 0b 4b 4b bc 42 8d a5 3d 73 2b ad bc c5 12 80 be
       -0.012408028 0.080835834 -0.021138882 -0.2501432
000240 8c ef 07 3d 2a 6a 36 be fd c2 f5 bd 3d cc c6 3b
       0.033187434 -0.17813936 -0.12000082 0.0060668276
000250 65 d8 d4 3d ba 63 af bd 53 de ba 3d 79 6e 8d bc
       0.103928365 -0.08563943 0.09124436 -0.017264592
000260 31 49 92 3d f9 0e 03 be 2e f0 9e bd f2 01 c3 bd
       0.071428664 -0.1279868 -0.077606544 -0.095218554
000270 17 c3 34 be 47 c9 bb bd d2 b4 bf 3d d6 3f e6 3b
       -0.17652546 -0.0916925 0.093606606 0.007026653
000280 c8 e2 50 3d 6d 89 bd 3d c7 7a 65 bd bd 3f a5 3d
       0.050997525 0.092547275 -0.056025293 0.08068798
000290 f3 f6 15 bd 53 e0 45 bd 61 47 d5 bd ae 18 1e 3e
       -0.036612462 -0.048309635 -0.10414005 0.15439102
0002a0 3e 12 2d bc 3f bc b3 3d 57 51 ee 3c e9 78 27 3e
       -0.010563431 0.087761395 0.02909152 0.16354717
0002b0 0a 08 1b bd b0 68 a3 bc fd 84 b3 3c cb 48 a6 bc
       -0.037849464 -0.01994738 0.021914 -0.020298382
0002c0 59 f6 f4 bd 5d aa 5c 3d 10 80 3c bd fa 3d 83 bd
       -0.119610496 0.05387341 -0.046020567 -0.064083055
0002d0 b7 2f 6d bd 4c 86 c2 bd 6d 46 03 3d a0 d6 1c 3c
       -0.057906833 -0.09498271 0.032049585 0.009572655
0002e0 bc 05 c1 be f0 e1 39 3d 6d e7 eb 3d 8f 53 05 be
       -0.37699687 0.045381486 0.1151875 -0.13020156
0002f0 77 f9 27 bd 35 12 cb bd f0 90 59 3b b0 01 d5 3d
       -0.041009393 -0.09915582 0.0033197962 0.104007125
000300 33 2e c1 bd df 55 a9 3d 34 61 b3 bd 8a a6 0f 3e
       -0.0943264 0.08268332 -0.087587744 0.14028373
000310 cb 45 ce bd 2d 80 f6 3d c4 91 a1 3d 90 41 48 bb
       -0.10071906 0.12036166 0.07889131 -0.0030556656
000320 c5 6b 87 bd 77 20 0d 3c 42 c5 ed bc e1 b5 bd bd
       -0.06612352 0.008613697 -0.029024724 -0.09263206
000330 22 b4 f6 3d 05 54 14 3d d0 6b c6 3c ee ff 69 3c
       0.12046076 0.03621294 0.02422133 0.01428221
000340 8f 60 57 bd 5c 48 6d bd 51 21 d1 bb bf 5f 0a bd
       -0.05258232 -0.057930335 -0.0063821455 -0.033782717
000350 48 6c c0 3d 09 3c 3f 3d 26 61 f4 3d 1a bc d2 bb
       0.09395653 0.046688113 0.11932592 -0.006431115
000360 a7 db ae 3d 1a 59 a9 3c d6 23 8e 3d 54 11 3c bd
       0.08537989 0.02067237 0.06940429 -0.045914963
000370 87 b5 b1 3c 26 dc 74 bd b1 ab f5 3d 54 5a b5 3d
       0.021693004 -0.059780262 0.11995638 0.08855119
000380 70 9c 10 3e 36 63 dc bc 24 59 8c bc c4 a7 5b 3c
       0.14122176 -0.026902776 -0.01713235 0.013406698
000390 51 f9 09 3e 03 15 2c 3e 18 0e c1 3d 52 51 90 3b
       0.13474013 0.1680489 0.09426516 0.0044042254
0003a0 11 db 28 3d a2 8c 9a bd 5d 30 7e bc 53 0e 29 bd
       0.041224543 -0.07546355 -0.01551446 -0.041273426
0003b0 41 56 13 bc 42 66 9a bd bd 74 2e 3c 60 d0 3b bc
       -0.0089927325 -0.075390354 0.01064795 -0.011463255
0003c0 ae 1f 83 3d e2 f3 26 3d 48 af 1d 3e b0 44 ce 3c
       0.06402527 0.04075993 0.15398896 0.025179237
0003d0 6b b5 4c bd 5a 34 ed bc 51 2d 4a bd 7c f3 f2 3a
       -0.0499777 -0.028955627 -0.049359623 0.0018535699
0003e0 b3 6d 04 be c2 89 95 3d 50 5b 5f be c3 4a 88 3d
       -0.12932472 0.07301666 -0.21812177 0.06654885
0003f0 b8 3c 10 3e b3 a8 b2 3d c6 9c 12 be 3e 89 89 3d
       0.14085662 0.08723583 -0.14317617 0.0671563

classfier.fc3.bias f4 [25]
000000 ff ba a4 b5 88 6e 39 35 e0 93 28 b7 a8 c3 a6 36
       -1.2273375e-06 6.9078715e-07 -1.004801e-05 4.969963e-06
000010 78 6b 24 36 e6 6b dd 35 c5 59 93 b9 e0 ab 81 37
       2.450046e-06 1.6497186e-06 -0.00028104908 1.5458034e-05
000020 fe bd 1b b7 6c f9 99 b8 db fd e1 38 3c 8b a1 36
       -9.282956e-06 -7.342067e-05 0.0001077612 4.814383e-06
000030 c0 4e 99 35 16 ac 31 b7 ee 4d 0e 36 26 ac 88 38
       1.1422308e-06 -1.0590089e-05 2.120501e-06 6.5170505e-05
000040 4a 6f 3f 3a ab a3 ba 36 18 ef 8c 33 0c 79 25 b6
       0.0007302655 5.5622854e-06 6.562749e-08 -2.4657375e-06
000050 aa a9 59 b7 2d 4d ab b9 e0 57 25 b7 2c 1f df 36
       -1.2973711e-05 -0.00032673162 -9.855226e-06 6.649547e-06
000060 f8 17 ee 36
       7.095743e-06

classfier.bn3.weight f4 [25]
000000 8d 13 97 3f ff 69 9f 3f de 84 9f 3f c4 a7 a2 3f
       1.1802841 1.2454222 1.2462423 1.2707448
000010 33 30 97 3f e4 e0 9e 3f bb f7 9d 3f a3 5e 9a 3f
       1.1811584 1.2412381 1.2341226 1.2060131
000020 e1 fa a7 3f e8 d3 95 3f 41 28 9b 3f be ce a3 3f
       1.3123437 1.1705294 1.212166 1.2797468
000030 14 bc a0 3f f8 85 9f 3f 60 e8 98 3f 85 47 9c 3f
       1.2557397 1.2462759 1.1945915 1.2209326
000040 12 25 96 3f fd e3 90 3f 41 7c 9d 3f e2 56 9c 3f
       1.1730063 1.1319577 1.2303544 1.2214015
000050 c1 9b 9b 3f 93 40 a4 3f 4d 36 9c 3f bd 04 9d 3f
       1.2156907 1.2832206 1.2204071 1.2267071
000060 18 21 a6 3f
       1.297885

classfier.bn3.bias f4 [25]
000000 b4 12 c2 bb 88 6d 7d 3e 11 21 7c 3e fc b5 8b 3e
       -0.0059226397 0.24748814 0.24621989 0.2728728
000010 72 3f f8 b9 da 28 7d 3e f9 ff 6e 3e 58 5f 5b 3e
       -0.00047349517 0.24722615 0.23339833 0.2142309
000020 05 54 9f 3e b9 f6 8e bc 89 61 58 3e fe 0c 90 3e
       0.3111879 -0.01745163 0.21130957 0.28134912
000030 df 3a 87 3e 2a ec 7f 3e 02 50 0c bc db 9f 69 3e
       0.26412103 0.24992433 -0.008563997 0.22814886
000040 ab 39 34 3b e9 e8 88 bc 25 3b 6b 3e f0 d9 62 3e
       0.0027500193 -0.016712623 0.2297178 0.22153449
000050 6d 6c 5f 3e e9 81 94 3e 92 16 66 3e 29 ae 72 3c
       0.21818705 0.29005364 0.22469547 0.014812031
000060 2f d4 a1 3e
       0.31607196

classfier.bn3.running_mean f4 [25]
000000 4f 94 2a 3e 37 95 37 bf 49 21 ba be bd 94 cc bd
       0.16658138 -0.7171206 -0.3635352 -0.09989307
000010 f7 18 26 3e 4e d2 ab be 57 9d c5 be a7 0a ce be
       0.16220461 -0.33558887 -0.38596603 -0.40242502
000020 23 5a 05 bf 67 83 69 3d 3b 24 b8 be 04 77 f5 be
       -0.5209066 0.05701008 -0.35965142 -0.47942364
000030 4c 55 a2 be 5f 7f dd be 13 32 5d 3e 3a a7 5a be
       -0.317057 -0.4326124 0.21601133 -0.21352854
000040 7e 9b 26 3e 8e 25 a6 3d 99 ee d7 be f1 a2 b3 be
       0.16270253 0.08112632 -0.42174223 -0.35085252
000050 bb 41 cb be 97 f1 19 bf e5 c5 ab be db 70 3d 3e
       -0.39698586 -0.6013426 -0.3354942 0.18500082
000060 1b 46 a0 be
       -0.31303486

classfier.bn3.running_var f4 [25]
000000 90 51 83 3f 02 7d a6 3e c6 0b e7 3e 20 02 fd 3e
       1.0259266 0.32517248 0.4512617 0.49415684
000010 ac 26 71 3f 47 9f 2b 3f c2 8f 33 3f f2 9b 3b 3f
       0.94199634 0.6703991 0.7014123 0.7328483
000020 f7 d3 05 3f de 38 5c 3f 25 43 ff 3e 68 3b 0a 3f
       0.5227656 0.8602427 0.49855915 0.53996897
000030 94 33 08 3f eb 85 c2 3e 6c 9a 94 3f 95 53 23 3f
       0.532037 0.37992796 1.1609626 0.6379941
000040 b4 5a 8b 3f 01 1f 55 3f 16 b5 20 3f 98 ab 0a 3f
       1.0887055 0.83250433 0.62776315 0.5416808
000050 34 fe e0 3e 82 4c 09 3f c3 24 eb 3e ff 14 b7 3f
       0.43943942 0.53632367 0.45926484 1.4303282
000060 f4 77 5b 3f
       0.8572991

classfier.fc5.weight f4 [1, 25]
000000 02 59 7c 3e 00 74 70 be 75 e3 84 be 5b a2 42 be
       0.24643329 -0.2348175 -0.25954786 -0.19007246
000010 4b 49 43 3e d8 1f 9e be 27 67 a0 be 2c 46 ab be
       0.19070928 -0.3088367 -0.313287 -0.33451974
000020 9a c0 59 be dd 6d 93 3e 51 32 b5 be a2 84 8d be
       -0.21264878 0.28794757 -0.3538995 -0.27640253
000030 46 97 82 be 1f 79 7b be 16 de aa 3e 50 58 a8 be
       -0.25506037 -0.24557923 0.33372563 -0.32879877
000040 5b 8a 75 3e 4a 47 21 3e b2 81 97 be ef 44 a0 be
       0.2397856 0.15749851 -0.29591137 -0.31302592
000050 57 1c a4 be 8d 28 83 be 3a a9 a6 be b7 7b 6d 3e
       -0.32052872 -0.25616875 -0.32550985 0.23191725
000060 30 f5 51 be
       -0.20503688
